neuraloperator/examples/para/fno_bc_para_202305121528_002_modes32_epochs250.pth (torch, 540915 bytes, 15 tensors)

convs.bias f4 [4, 32, 1]
1.5495967e-05 0.005802371 0.00960294 -0.0011858144 -0.0020278364 5.5141703e-05 0.0042557986 -0.000590731
-0.011161207 -0.00024637984 0.021600937 -0.012277163 -0.000931932 0.02318247 -0.005875078 0.019954566
-0.0014729985 0.016875625 -0.015537081 0.018213686 0.006434396 0.018940816 0.01682192 0.01084412
0.010951144 -0.009371997 0.018838827 -0.0022480853 0.016908264 0.0012210314 0.001638743 0.008461028
-0.0121057145 0.0060821786 0.00935903 0.020195259 0.021669649 -0.0137693975 0.018239543 0.017983234
0.019767854 0.019240474 0.019755276 0.0207008 0.019528795 -0.011283064 -0.009143741 0.017255452
0.019636672 -0.013038394 0.02315269 0.016936176 -0.009086098 0.018874414 -0.01184062 0.018867737
0.0077164974 -0.012138664 0.019058922 -0.009047244 -0.01123955 -0.010667675 -0.0125277825 0.01984393
-0.007877783 0.004001962 0.006959483 0.019382816 0.019772002 -0.008960711 0.01916294 0.017031856
0.022181492 0.017588466 0.017619967 0.019803027 0.021457946 -0.008151511 -0.008768068 0.015002375
0.017701978 -0.0009959146 0.019035773 0.016560085 -0.009168481 0.020109983 -0.006919312 0.01585136
0.005235745 -0.010762157 0.017575026 -0.005147124 -0.009517218 -0.008110619 -0.0074081463 0.018452708
-0.018521236 -0.0025983097 0.0065980973 0.017821338 0.015345272 -0.0031025256 0.015963664 0.010078278
0.017185444 0.015654145 0.020565206 0.016996961 0.018164406 -0.014521738 -0.017335173 -0.0021905187
0.015327816 0.007154842 0.017326342 0.015538226 -0.016793065 0.019068431 -0.018806813 0.010130646
0.0030797806 -0.014316853 0.013561902 -0.019924214 -0.017411709 -0.017285094 -0.009346474 0.016507696
00000000: 56fd 8137 d121 be3b a655 1d3c 546d 9bba
00000010: 73e5 04bb f447 6738 3a74 8b3b 49db 1aba
00000020: 7fdd 36bc 8b2c 81b9 73f4 b03c 2726 49bc
00000030: e64c 74ba 2ae9 bd3c ba83 c0bb c277 a33c
00000040: a111 c1ba c03e 8a3c 3e8f 7ebc de34 953c
00000050: a0d7 d23b c529 9b3c 20ce 893c 89ab 313c
00000060: 6d6c 333c 018d 19bc e253 9a3c 9d54 13bb
00000070: 3383 8a3c 040b a03a 17cb d63a 20a0 0a3c
00000080: 0c57 46bc 034d c73b 9e56 193c 8770 a53c
00000090: 8c84 b13c 0a99 61bc 186b 953c 9351 933c
000000a0: 32f0 a13c 339e 9d3c d1d5 a13c b994 a93c
000000b0: dafa 9f3c 9adc 38bc a1cf 15bc 4e5b 8d3c
000000c0: 16dd a03c fd9e 55bc b6aa bd3c bcbd 8a3c
000000d0: dbdd 14bc 849e 9a3c 29ff 41bc 8390 9a3c
000000e0: acda fc3b 3fe1 46bc 7521 9c3c e43a 14bc
000000f0: 1726 38bc 79c7 2ebc 5441 4dbc bd8f a23c
00000100: d111 01bc e422 833b 600c e43b b6c8 9e3c
00000110: e5f8 a13c f2cf 12bc 99fb 9c3c 6486 8b3c
00000120: f6b5 b53c b015 903c c057 903c f539 a23c
00000130: 93c8 af3c ea8d 05bc f1a7 0fbc 85cc 753c
00000140: bd03 913c 5989 82ba e9f0 9b3c 04a9 873c
00000150: 6637 16bc b1bd a43c 65bb e2bb b6da 813c
00000160: 9d90 ab3b c253 30bc 80f9 8f3c 35a9 a8bb
00000170: 1bee 1bbc 67e2 04bc 09c0 f2bb 222a 973c
00000180: d9b9 97bc 6748 2abb da34 d83b 0efe 913c
00000190: bc6a 7b3c be53 4bbb 3bc6 823c 5d1f 253c
000001a0: 7dc8 8c3c 1f3d 803c 5d78 a83c 363d 8b3c
000001b0: 85cd 943c 95ec 6dbc 7e02 8ebc ce8e 0fbb
000001c0: 8521 7b3c 2a73 ea3b f9ef 8d3c 0b94 7e3c
000001d0: 9c91 89bc 6635 9c3c bf10 9abc 02fb 253c
000001e0: 25d6 493b 3c91 6abc bd32 5e3c 1b38 a3bc
000001f0: 00a3 8ebc 7899 8dbc f421 19bc 263b 873c

convs.bias_bc f4 [4, 32, 1]
0.0009786857 0.000121524536 0.0013164188 0.00037682275 -0.00065465283 0.0010161174 0.0005999314 -0.00060237414
0.0014020278 -0.00036087973 0.0006151937 0.00014467284 0.00094718166 3.2904878e-05 0.00077660184 0.0005780883
0.0014631056 -0.00015944109 -0.0014597459 0.0015965824 -0.00024827055 0.00033571623 0.0015761274 -0.0017982012
-0.00081837625 -0.00070585735 -0.00062163896 -0.0009829692 -0.000693831 0.0005590342 0.00071818376 0.0011838245
0.0020624956 -0.0017080597 -0.0013405848 0.0010623868 0.0003939974 -8.302308e-05 0.0023251034 -0.0006321899
-0.000303548 -0.0022209364 0.001039816 0.00056218443 -0.00022402185 0.00039669787 0.00092229136 0.0017111395
0.0009669925 -0.00024500198 -0.000436991 0.0015982967 -0.00081932277 -6.39546e-05 0.0018422519 0.000121612145
0.0016392809 -0.0014473686 0.0017780577 -0.0013092598 0.00076285494 -0.00087780843 -0.00032562367 -0.00087960745
0.00087719015 -0.001644731 -0.0002647539 -0.00062921667 -0.0032638456 0.0010501221 -4.6254576e-05 0.0026163019
0.0013625474 -0.0024008087 -0.0005554015 0.0006619338 -0.0006323132 0.00057369133 -0.0012117813 -0.0009938722
0.0017608416 0.0011684212 -0.00063139107 -0.0010530773 -0.001336158 -0.00028999944 0.0009794796 0.00028284104
0.0006098077 -0.0023345198 0.00045684428 -0.0017096216 -0.0022344603 -0.00011203076 0.0007221585 5.6698544e-05
-0.0005714041 -0.0010141416 -0.002299355 0.00039979 -0.0005507088 -0.0002977808 0.0009625065 -0.00067060435
0.0013042913 -4.0039135e-06 -0.00074089825 -0.0015743261 0.00027806923 -0.00046869696 -0.00082789717 0.000488304
0.0010443705 0.0003266491 0.00017158085 -0.0008006983 -0.0014114563 -0.0006084048 -0.0012124652 0.0014307986
-0.0009553367 -0.0012728588 -0.001019422 0.00039541684 -0.00025776363 -1.0443735e-05 -0.0017594154 -0.0015403114
00000000: 3e47 803a fdda fe38 af8b ac3a 4b90 c539
00000010: 029d 2bba 3e2f 853a b744 1d3a a5e8 1dba
00000020: 3fc4 b73a 7534 bdb9 f344 213a 52b3 1739
00000030: 494c 783a 5803 0a38 de94 4b3a d98a 173a
00000040: adc5 bf3a a42f 27b9 f254 bfba 6a44 d13a
00000050: 4f2a 82b9 1203 b039 0f96 ce3a 9fb1 ebba
00000060: 4d88 56ba 4909 39ba 7cf5 22ba f9d6 80ba
00000070: 36e2 35ba 268c 123a 7f44 3c3a 8f2a 9b3a
00000080: ef2a 073b f9e0 dfba 90b6 afba c93f 8b3a
00000090: 7091 ce39 ad1c aeb8 c360 183b 8cb9 25ba
000000a0: 8625 9fb9 218d 11bb 6f4a 883a 8f5f 133a
000000b0: 68e7 6ab9 e3fb cf39 edc5 713a 5048 e03a
000000c0: c57d 7d3a 9c73 80b9 f01b e5b9 f07d d13a
000000d0: d2c7 56ba 5d1f 86b8 b777 f13a 060a ff38
000000e0: 24dd d63a a2b5 bdba b70d e93a 789b abba
000000f0: 54fa 473a ba1c 66ba 78b8 aab9 7595 66ba
00000100: 3cf3 653a 0494 d7ba abce 8ab9 04f2 24ba
00000110: 3ee6 55bb 40a4 893a 7901 42b8 4376 2b3b
00000120: 8197 b23a e356 1dbb 5d98 11ba a085 2d3a
00000130: d2c1 25ba c663 163a a2d4 9eba d144 82ba
00000140: 0acc e63a b625 993a f083 25ba 6907 8aba
00000150: 0622 afba 110b 98b9 e261 803a 484a 9439
00000160: 81db 1f3a befe 18bb 9a84 ef39 6215 e0ba
00000170: 0670 12bb 0ef2 eab8 3d4f 3d3a 99cf 6d38
00000180: 48ca 15ba f2ec 84ba c7b0 16bb e89a d139
00000190: 715d 10ba 761f 9cb9 b850 7c3a 7fcb 2fba
000001a0: c1f4 aa3a 5b59 86b6 d738 42ba 9e59 ceba
000001b0: d2c9 9139 71bb f5b9 3d07 59ba 8701 003a
000001c0: 42e3 883a 1a42 ab39 62ea 3339 f4e5 51ba
000001d0: 9d00 b9ba 5b7d 1fba 95eb 9eba a289 bb3a
000001e0: 906f 7aba 0ed6 a6ba 209e 85ba f34f cf39
000001f0: 7324 87b9 8037 2fb7 2f9c e6ba 46e4 c9ba

convs.weight.0.tensor f4 [32, 32, 16, 2]
-0.00012490663 -3.929795e-37 2.9866698e-08 -1.2366661e-08 6.0427174e-09 -2.8488831e-09 2.4512183e-09 -1.2784783e-09
1.3821836e-09 -6.708833e-10 1.0979865e-09 -2.3075966e-10 7.363777e-10 -2.1279754e-11 5.992558e-10 7.868467e-11
5.1592675e-10 2.0467286e-10 5.6364424e-10 3.3246564e-10 4.9572946e-10 3.533642e-10 3.9487733e-10 4.5066223e-10
3.7554945e-10 5.6362515e-10 3.6076805e-10 5.852741e-10 6.7743544e-10 -2.234142e-11 9.032062e-09 5.4646754e-09
-0.0053636073 -3.483184e-37 -0.0033282433 -0.018642874 -0.01171628 -0.023426238 -0.019565005 -0.027547607
-0.025504109 -0.02932304 -0.026812376 0.0003817233 -0.03850022 -0.034028344 -0.037719358 0.0026438043
-0.050636694 -0.040316477 -0.050105397 0.009802965 -0.055602737 0.00044905685 -0.09009806 -0.03440406
-0.08112279 -0.0187709 -0.09505362 -0.015079915 -0.07989509 -0.07252184 -0.117838755 -0.115782574
-0.009633471 2.768587e-37 -0.005194718 -0.00071057247 -0.012227328 -0.005323301 -0.017031882 -0.009239456
-0.021791436 -0.006305005 -0.028065084 -0.011123923 -0.03090314 -0.0061136573 -0.04331609 -0.014559497
-0.048127282 -0.008735295 -0.05925116 -0.012388421 -0.061904658 -0.0088685695 -0.07295811 0.039045602
-0.09140572 0.0025903315 -0.10534002 -0.0043089055 -0.059988264 0.1017319 -0.08141083 -0.12334259
0.002295186 -3.4168475e-37 -7.647237e-06 -2.6513695e-05 -7.911714e-06 -1.3333029e-05 -7.0575024e-06 -9.2171995e-06
-6.9960197e-06 -7.760261e-06 -8.815071e-06 -8.685962e-06 -7.1145346e-06 -5.574024e-06 -6.8460363e-06 -4.210699e-06
-6.480875e-06 -2.6392304e-06 -7.2610737e-06 -3.3482854e-06 -5.161087e-06 -3.85234e-06 -1.839381e-06 -5.9321433e-08
3.9839227e-07 -3.7913898e-07 1.3505852e-06 8.3811324e-07 -1.5247317e-06 -6.4920982e-06 3.1088723e-06 -1.8657425e-05
0.0045521986 -7.7492097e-38 -1.5127542e-05 -5.361112e-07 -1.2229858e-05 -8.383969e-07 -7.703297e-06 -1.0514535e-06
-3.955278e-06 -1.1608754e-06 -6.4352716e-06 -1.9250326e-06 -2.3224004e-06 5.104467e-06 -3.1011066e-06 7.719757e-06
-1.4729675e-06 9.228089e-06 -1.1806719e-06 4.790452e-06 2.9806426e-07 5.888678e-06 -8.14529e-07 1.1929961e-05
1.16543795e-07 1.15803705e-05 1.4222001e-06 1.087742e-05 1.0925226e-05 6.502009e-06 1.8068311e-05 1.7506014e-05
-0.00038934022 -3.7271082e-37 8.835621e-08 -2.071777e-08 1.9699657e-08 -4.734976e-09 8.448219e-09 -2.329185e-09
4.744741e-09 -1.443974e-09 3.2582774e-09 -1.2717059e-09 2.162527e-09 -7.490432e-10 1.7241955e-09 -5.6009614e-10
1.4084947e-09 -5.163108e-10 7.131999e-10 -5.739811e-10 4.5959883e-10 -4.034973e-10 1.3841159e-09 -5.87808e-10
1.2935578e-09 -5.1387294e-10 1.0257314e-09 -3.8397827e-10 -9.0151026e-11 2.877921e-10 1.0303025e-08 1.6032585e-08
-0.0044490336 -3.801862e-37 -0.0004747595 0.0009156129 -0.00027715828 0.00055707287 -0.00010225904 0.0004151622
2.803133e-05 0.00035833035 9.1235124e-05 0.00031162694 0.00010973739 0.0003452114 0.0001092709 0.00032953787
0.00013023932 0.00030497505 0.00016001803 0.00020793319 0.00014957042 0.00018560427 6.156128e-05 0.00022074113
4.9622162e-05 0.00017911327 5.4708482e-05 9.824245e-05 0.00030714774 8.113152e-05 0.0002272187 0.00039387206
0.002952315 3.150495e-37 -6.080008e-07 3.125093e-06 -6.046879e-07 2.2946865e-06 9.566347e-08 2.0258008e-06
7.2552785e-07 1.9743263e-06 1.2292963e-06 1.8957064e-06 9.898015e-07 2.2853374e-06 1.0985979e-06 2.1695719e-06
1.0119585e-06 2.1375922e-06 1.3659816e-06 1.5658627e-06 1.16941e-06 1.5853346e-06 5.4318485e-07 2.1765356e-06
4.1306458e-07 2.1586636e-06 5.5542597e-07 2.0379412e-06 2.1348199e-06 2.1857716e-06 1.9318666e-06 4.179317e-06
00000000: 5ef9 02b9 58b9 0583 c846 0033 2675 54b2
00000010: 4ea0 cf31 15c6 43b1 4a72 2831 75b6 afb0
00000020: 43f7 bd30 3769 38b0 f7e7 9630 12b9 7daf
00000030: f969 4a30 bf2d bbad e1b8 2430 8807 ad2e
00000040: 1ed1 0d30 4a0a 612f f0ee 1a30 61c6 b62f
00000050: dc43 0830 9743 c22f 0b16 d92f 12c1 f72f
00000060: e375 ce2f 98ed 1a30 9755 c62f 01e1 2030
00000070: 4836 3a30 6884 c4ad 6e2b 1b32 cbc3 bb31
00000080: 33c1 afbb a00d ed82 a81e 5abb f1b8 98bc
00000090: a4f5 3fbc 62e8 bfbc ca46 a0bc 85ab e1bc
000000a0: feed d0bc df36 f0bc a1a5 dbbc 0922 c839
000000b0: 68b2 1dbd 4e61 0bbd 9d7f 1abd ad43 2d3b
000000c0: 6c68 4fbd e422 25bd 513b 4dbd 9e9c 203c
000000d0: b2bf 63bd 646f eb39 5585 b8bd 46eb 0cbd
000000e0: b523 a6bd 6ec5 99bc 79ab c2bd bf11 77bc
000000f0: 09a0 a3bd 5586 94bd 7255 f1bd 6a1f edbd
00000100: b5d5 1dbc 976b bc02 7438 aabb b645 3aba
00000110: 2155 48bc 166f aebb 7286 8bbc 1661 17bc
00000120: f483 b2bc 379a cebb bfe8 e5bc 1d41 36bc
00000130: 9528 fdbc 1355 c8bb 366c 31bd f58a 6ebc
00000140: 1d21 45bd 7c1e 0fbc 58b1 72bd cef8 4abc
00000150: bd8f 7dbd 7a4d 11bc 106b 95bd 48ee 1f3d
00000160: ec32 bbbd 8dc2 293b 82bc d7bd b831 8dbb
00000170: 41b6 75bd d058 d03d b9ba a6bd 0a9b fcbd
00000180: d56a 163b e189 e882 a24c 00b7 ba69 deb7
00000190: 8ebc 04b7 ecb0 5fb7 7ccf ecb6 92a3 1ab7
000001a0: 5abf eab6 1132 02b7 71e4 13b7 ecb9 11b7
000001b0: 63b9 eeb6 8008 bbb6 01b7 e5b6 a149 8db6
000001c0: 4b76 d9b6 a21d 31b6 26a4 f3b6 1bb3 60b6
000001d0: 662d adb6 5943 81b6 a6e0 f6b5 9bc8 7eb3
000001e0: 9ee2 d534 778c cbb4 c145 b535 b4fa 6035
000001f0: 62a5 ccb5 b3d6 d9b6 05a2 5036 8482 9cb7
00000200: 9c2a 953b 1cf4 d281 4ccc 7db7 48e9 0fb5
00000210: d72e 4db7 320e 61b5 693d 01b7 ab1f 8db5
00000220: 94b7 84b6 60cf 9bb5 90ee d7b6 cf2f 01b6
00000230: 89da 1bb6 0a47 ab36 9b1c 50b6 1b84 0137
00000240: c7b2 c5b5 57d2 1a37 9477 9eb5 abbd a036
00000250: a405 a034 5c97 c536 02a6 5ab5 cb26 4837
00000260: a146 fa33 5049 4237 6ce2 be35 2a7e 3637
00000270: 7d4b 3737 d52b da36 6791 9737 e1d9 9237
00000280: 5c20 ccb9 62a7 fd82 57be bd33 dcf6 b1b2
00000290: 0138 a932 4ab1 a2b1 a923 1132 750f 20b1
000002a0: 2f07 a331 5275 c6b0 39e8 5f31 2cc8 aeb0
000002b0: 949b 1431 3be5 4db0 bcf8 ec30 43f5 19b0
000002c0: 0095 c130 25ec 0db0 fb0a 4430 54c6 1db0
000002d0: c9aa fc2f 32d3 ddaf 403b be30 5093 21b0
000002e0: 05c9 b130 9840 0db0 b7f9 8c30 2318 d3af
000002f0: 843e c6ae 2337 9e2f 2f01 3132 07b8 8932
00000300: 33c9 91bb e45e 0183 24e9 f8b9 be05 703a
00000310: 8e4f 91b9 8708 123a e773 d6b8 21aa d939
00000320: d324 eb37 49de bb39 7c55 bf38 dc61 a339
00000330: d022 e638 7dfd b439 5e28 e538 d3c5 ac39
00000340: da90 0839 0fe5 9f39 83ca 2739 a408 5a39
00000350: 01d6 1c39 c49e 4239 761a 8138 bf76 6739
00000360: 6421 5038 5ad0 3b39 c976 6538 8407 ce38
00000370: ac08 a139 2725 aa38 8e41 6e39 9d80 ce39
00000380: a07b 413b 5d69 d602 7f35 23b5 b0b8 5136
00000390: d651 22b5 6afe 1936 8c6f cd33 fef2 0736
000003a0: e5c1 4235 ab7e 0436 4dfe a435 fa6f fe35
000003b0: 52d9 8435 cc5d 1936 8973 9335 f698 1136
000003c0: a1d2 8735 8e73 0f36 c556 b735 a22a d235
000003d0: 9ff4 9c35 afc7 d435 61cf 1135 9910 1236
000003e0: 2ac3 dd34 8fdd 1036 9518 1535 90c3 0836
000003f0: ed43 0f36 45af 1236 37a5 0136 0f3c 8c36

convs.weight.1.tensor f4 [32, 32, 16, 2]
1.7089909e-06 1.3483074e-37 3.6317584e-09 -1.1811335e-08 1.5762458e-10 -2.3839655e-09 -1.6394454e-10 -1.0600525e-09
-1.0571795e-10 -7.057145e-10 1.0874144e-11 -4.1176676e-10 1.0252426e-11 -1.8003976e-10 -1.4236816e-11 -1.12839155e-10
-3.090024e-11 3.1308522e-11 6.218352e-11 6.352961e-11 9.244827e-11 1.2771419e-10 -1.07838044e-10 3.2263262e-10
-5.174569e-11 3.8211048e-10 -1.2736927e-10 3.7641895e-10 3.911733e-10 -4.101084e-10 7.638471e-09 4.483023e-09
-0.00019983121 -2.142688e-37 -1.6920445e-06 -3.3792043e-07 -9.4205825e-07 -1.5284363e-06 -1.0136333e-06 -1.2875433e-06
-1.0166666e-06 -1.0614193e-06 -1.9025395e-06 -9.4019686e-07 -1.7381477e-06 -3.5618228e-07 -1.1292045e-06 -2.75179e-08
-1.8040081e-06 -2.7381705e-07 -1.340098e-06 3.8362805e-07 -7.91498e-07 -6.749676e-08 -4.985428e-07 1.0312875e-06
3.1400998e-07 1.1365422e-06 4.456893e-07 1.6182012e-06 2.5911268e-07 -6.7102576e-07 1.1263753e-06 -3.4626134e-06
-0.00023889221 3.240949e-37 -1.604959e-07 1.1787802e-06 -1.8897163e-07 7.4766525e-08 -2.6397638e-08 3.7003893e-08
-2.5501459e-08 1.57714e-07 -1.5912572e-07 -2.0155428e-08 -3.301065e-07 5.4564305e-07 -4.5245588e-07 4.1331603e-07
-6.956586e-07 4.9440484e-07 -5.9085613e-07 3.6649556e-07 -3.7412283e-07 3.259782e-07 -4.786103e-07 1.1072628e-06
-8.011269e-08 4.557353e-07 8.356127e-08 3.8288343e-07 1.3384268e-06 1.5773742e-06 2.352729e-06 -3.980104e-06
-0.00025340417 2.7796165e-37 -1.1855483e-06 -8.8564445e-07 -1.2185712e-06 -8.0806944e-07 -1.2266364e-06 -6.855162e-07
-1.2383076e-06 -6.174541e-07 -1.5757975e-06 -1.1206382e-06 -1.4875242e-06 -3.6869363e-07 -1.1208449e-06 -4.2679895e-07
-1.493699e-06 -3.035878e-07 -1.2934306e-06 -2.3782394e-07 -5.6850774e-07 -9.0612485e-07 -2.5514503e-08 1.2501769e-07
7.088011e-07 6.0136216e-08 9.4239715e-07 4.105402e-07 -3.9040454e-08 -2.0125112e-06 1.5910817e-06 -5.429213e-06
-0.0003530216 -1.2521615e-37 1.5016822e-06 1.8616612e-06 -3.3783388e-07 5.0319295e-07 -6.604911e-08 4.1815102e-07
3.5174264e-07 4.4819816e-07 8.824352e-08 3.0653288e-07 3.4213372e-07 1.4969529e-06 2.816449e-07 1.7147177e-06
1.01880545e-07 1.851287e-06 2.3562103e-07 1.4360799e-06 5.3285396e-07 1.4111998e-06 1.3509627e-07 2.3177474e-06
2.9021686e-07 2.3643795e-06 5.1370637e-07 2.4128597e-06 2.1951273e-06 1.5335924e-06 3.580079e-06 3.4449267e-06
1.4765492e-06 -2.7356184e-37 1.5047201e-09 -9.862234e-09 -1.0088807e-12 -2.0551703e-09 -9.725245e-11 -9.319587e-10
-1.4213604e-10 -6.090498e-10 -2.0130991e-10 -4.4002732e-10 -9.5560365e-11 -3.1477346e-10 -1.11178386e-10 -2.4344537e-10
-8.915984e-11 -2.2581202e-10 -2.0760677e-10 -2.0958596e-10 -2.2205186e-10 -1.904669e-10 2.8945056e-11 -2.3460714e-10
2.4559566e-11 -2.2613636e-10 4.6340997e-11 -1.9679779e-10 -2.910331e-10 9.257822e-11 2.637207e-09 5.772868e-09
-0.00028994112 -1.1892158e-37 1.9836789e-06 3.1362465e-06 1.0222028e-08 1.5963758e-06 4.608992e-07 1.540327e-06
1.0312518e-06 1.586753e-06 1.2219409e-06 1.609941e-06 1.2072002e-06 2.3028674e-06 9.659652e-07 2.3740313e-06
9.330499e-07 2.4680085e-06 1.0749608e-06 1.904635e-06 9.801728e-07 2.0263706e-06 3.0056847e-07 2.5082277e-06
2.0934155e-07 2.4577926e-06 4.198334e-07 2.3348894e-06 2.5539032e-06 2.249426e-06 2.2076304e-06 5.03848e-06
-0.00027020028 -2.5988854e-37 1.5847547e-06 3.4649886e-06 -1.108643e-07 2.0822806e-06 4.6662188e-07 1.944753e-06
1.1673142e-06 1.9156341e-06 1.6468595e-06 1.8298743e-06 1.4598929e-06 2.4645044e-06 1.3553463e-06 2.4157562e-06
1.3379658e-06 2.4804858e-06 1.5786316e-06 1.7609522e-06 1.3912764e-06 1.9477059e-06 7.1070673e-07 2.5589675e-06
4.7442035e-07 2.485865e-06 5.833735e-07 2.2437443e-06 2.7509905e-06 2.357215e-06 2.1924047e-06 5.0988065e-06
00000000: 7b60 e535 a885 3702 9292 7931 cdea 4ab2
00000010: 604f 2d2f 2ad3 23b1 4942 34af 48b1 91b0
00000020: ea79 e8ae 3efc 41b0 ca4c 3f2d 055f e2af
00000030: d25c 342d b0f4 45af eb74 7aad cc22 f8ae
00000040: 94e6 07ae 43b2 092e 36be 882e feb3 8b2e
00000050: c04b cb2e 596c 0c2f 6c23 edae 815e b12f
00000060: 7894 63ae 4511 d22f 430b 0caf 42f0 ce2f
00000070: bf0c d72f a075 e1af 5a3a 0332 1609 9a31
00000080: c889 51b9 e4d2 9182 351a e3b5 6e6b b5b4
00000090: c0e1 7cb5 ac24 cdb5 2d0c 88b5 a7cf acb5
000000a0: 6674 88b5 1776 8eb5 c25a ffb5 d661 7cb5
000000b0: 4d4a e9b5 5239 bfb4 2c8f 97b5 8160 ecb2
000000c0: 3f21 f2b5 2101 93b4 6bdd b3b5 70f5 cd34
000000d0: 5477 54b5 bcf2 90b3 9ad3 05b5 c56a 8a35
000000e0: 3495 a834 4b8b 9835 1247 ef34 f830 d935
000000f0: 2d1c 8b34 8a20 34b5 f62d 9735 3f5f 68b6
00000100: 247f 7ab9 4c91 dc02 c754 2cb4 9436 9e35
00000110: 20e8 4ab4 558f a033 05c1 e2b2 36ee 1e33
00000120: 4d0e dbb2 1858 2934 25dc 2ab4 4122 adb2
00000130: 7e39 b1b4 4e78 1235 10e9 f2b4 b9e5 dd34
00000140: 4cbd 3ab5 3eb7 0435 539b 1eb5 c4c2 c434
00000150: 0ddb c8b4 1a02 af34 d979 00b5 439d 9435
00000160: 6b0a acb3 c8ab f434 4b72 b333 198f cd34
00000170: ffa3 b335 2ab6 d335 94e3 1d36 d58c 85b6
00000180: 55db 84b9 c02b bd02 211f 9fb5 06bd 6db5
00000190: ca8d a3b5 1cea 58b5 e8a2 a4b5 5104 38b5
000001a0: ed33 a6b5 1fbf 25b5 fd7f d3b5 d668 96b5
000001b0: f1a6 c7b5 def0 c5b4 f06f 96b5 cd22 e5b4
000001c0: 1b7b c8b5 cafc a2b4 f099 adb5 8c5c 7fb4
000001d0: 8e9b 18b5 6d3c 73b5 fc2a dbb2 9a3c 0634
000001e0: 7144 3e35 3c24 8133 0af9 7c35 3768 dc34
000001f0: 6fad 27b3 ae0e 07b6 278d d535 962c b6b6
00000200: c215 b9b9 766f 2a82 688d c935 31de f935
00000210: 895f b5b4 2813 0735 e2d6 8db3 3d7e e034
00000220: 24d7 bc34 e39f f034 6380 bd33 8f91 a434
00000230: 80ae b734 e9ea c835 fb34 9734 4025 e635
00000240: 6cc9 da33 bd79 f835 04ff 7c34 54bf c035
00000250: 7209 0f35 7568 bd35 fb0e 1134 998a 1b36
00000260: 1acf 9b34 bbab 1e36 a2e5 0935 9dec 2136
00000270: 0050 1336 d5d5 cd35 4a41 7036 642f 6736
00000280: d82d c635 322d ba82 a2ce ce30 906e 29b2
00000290: c2fc 8dab f03a 0db1 43dc d5ae 6216 80b0
000002a0: bd47 1caf 126a 27b0 b457 5daf 57e8 f1af
000002b0: b423 d2ae 6d0c adaf de7b f4ae e4d5 85af
000002c0: 8710 c4ae 6f48 78af 1c44 64af 3471 66af
000002d0: 0b26 74af ab6b 51af 799a fe2d 05fa 80af
000002e0: 3a07 d82d baa3 78af 53cf 4b2e a761 58af
000002f0: 44ff 9faf e894 cb2e 3c3a 3531 af5a c631
00000300: 3d03 98b9 1fde 2182 581f 0536 4e78 5236
00000310: f49c 2f32 0e43 d635 8171 f734 3cbd ce35
00000320: 8b69 8a35 6bf8 d435 9201 a435 2715 d835
00000330: 1507 a235 f68a 1a36 50a6 8135 8c51 1f36
00000340: b376 7a35 10a0 2536 5f47 9035 c3a2 ff35
00000350: 7b8e 8335 c8fc 0736 d15d a134 0653 2836
00000360: 5ec7 6034 8ef0 2436 7765 e134 18b1 1c36
00000370: b963 2b36 d8f4 1636 cd26 1436 3710 a936
00000380: aba9 8db9 f8de b082 c2b3 d435 0d88 6836
00000390: 4b14 eeb3 4fbd 0b36 0684 fa34 9a82 0236
000003a0: 9cac 9c35 588e 0036 a909 dd35 019a f535
000003b0: 8af1 c335 dd63 2536 58e9 b535 601e 2236
000003c0: 2894 b335 6c76 2636 5ee1 d335 db59 ec35
000003d0: e5bb ba35 55b5 0236 65c7 3e35 baba 2b36
000003e0: d6b3 fe34 d6d2 2636 1f99 1c35 3c93 1636
000003f0: a89d 3836 a530 1e36 3a21 1336 6a16 ab36

convs.weight.2.tensor f4 [32, 32, 16, 2]
0.009389389 7.5433937e-38 0.00016246023 7.0388905e-06 6.1101535e-05 -9.2155096e-07 2.0642688e-05 -9.597433e-08
7.074012e-06 1.5956306e-07 6.8815766e-06 1.476584e-07 4.0315686e-06 1.809985e-07 6.4878477e-06 1.4519016e-07
8.2128e-06 1.7097099e-07 1.9009092e-05 3.426778e-07 1.8096915e-05 1.5104172e-07 1.3839883e-05 1.2087217e-07
1.9847192e-05 1.18636855e-07 2.1975482e-05 -6.6355506e-07 2.5771138e-05 -1.7225084e-06 0.00019484051 -0.00011459703
-0.004516714 -3.518599e-37 -0.0030908817 0.0022409067 -0.0010467044 0.0014279411 -0.00033272352 0.00085545605
8.9922774e-05 0.00052157894 0.00058265775 0.00012045382 0.00033048118 0.00011702746 0.0004109062 -5.509073e-05
0.000453696 1.4756486e-05 0.00078890956 -0.00033564406 0.0007206167 -0.0002893044 0.0005011899 -7.1667506e-05
0.0005668082 -0.00016651125 0.00058108475 -9.589231e-05 0.0006190803 -0.000193106 0.0019003325 -0.0041890023
-0.010206234 8.72222e-38 0.0011007779 0.0011274916 0.00040887736 0.00016757961 0.00013423919 2.8820688e-05
5.1034353e-05 -5.7587877e-06 4.3415053e-05 -1.6738128e-05 4.0087906e-07 -1.5696227e-05 1.4191146e-05 -1.9576495e-05
-6.5163417e-06 -3.246637e-05 6.475736e-05 -5.5497327e-05 6.547267e-06 -4.9944527e-05 -8.4290026e-05 -0.000107209045
-0.00010777838 -0.00014771974 -9.634778e-05 -0.00015751923 -0.000113518276 5.482192e-05 0.0018817643 -0.0017231299
-0.021313438 3.371433e-37 -0.001827651 0.0021849782 -0.00026079555 0.0012704358 3.5539924e-05 0.0007183866
0.00022569994 0.00036252372 0.00045745395 0.00013310558 0.0002798519 2.2433887e-05 0.00033028785 -2.9628489e-05
0.00035944534 -0.00010423371 0.00063135696 -0.000252313 0.00059445674 -0.00014114719 0.0003726613 -1.1318753e-05
0.00040760948 -4.9953043e-05 0.0003809666 -4.362975e-05 0.0005312618 -0.00013368891 0.0013833051 -0.003584064
-0.020802332 -3.2704443e-37 0.0016452734 0.0014554667 0.0006651307 0.0004780193 0.00026500545 0.0002460092
0.00013724582 9.572129e-05 0.00020566821 4.30707e-05 8.776479e-05 -8.3632114e-07 0.00011412952 -1.8618286e-05
0.000107011554 -2.4363459e-05 0.0002642989 2.8449756e-05 0.00020974485 3.0840667e-05 0.00010389612 -9.802893e-05
0.00016219879 -0.000140493 0.00020857366 -0.00015991529 0.0001318357 0.0001577792 0.0028410845 -7.570343e-05
0.011667976 -3.5540938e-37 0.00011645801 -1.8150047e-05 3.5432764e-05 -2.3155251e-05 1.1214997e-05 -1.4103174e-05
4.5931947e-07 -8.653618e-06 -6.580365e-06 -5.149696e-06 -4.5798533e-06 -2.1302346e-06 -5.446494e-06 -1.4448703e-06
-6.158785e-06 -1.0134713e-06 -1.067948e-05 8.8333354e-07 -1.0113304e-05 4.888991e-07 -6.5197632e-06 -3.3797596e-06
-7.179433e-06 -4.2399197e-06 -7.020421e-06 -5.125336e-06 -8.311339e-06 3.27816e-06 0.0001909793 0.000120017794
-0.020607147 2.7142573e-37 0.0032792168 0.00020577591 0.0012619605 -0.0004389212 0.00045595868 -0.0003329507
6.6551256e-05 -0.00025310385 -0.00015509338 -0.00015287507 -0.00013118282 -7.8665915e-05 -0.0001477463 -6.10434e-05
-0.00017034063 -3.609537e-05 -0.0002147545 8.095022e-05 -0.00021875817 7.279162e-05 -0.00015139644 -0.00012766254
-0.00013044519 -0.0001339354 -7.3961615e-05 -0.00016219931 -0.00020530414 0.00026463883 0.0015144182 0.0020937833
-0.017115105 5.252985e-38 0.003630565 0.00022974228 0.0014665502 -0.00058003725 0.000500967 -0.00043993533
5.64759e-05 -0.00031920275 -0.00022434595 -0.00017895667 -0.0001748009 -8.335047e-05 -0.00019467332 -5.1497373e-05
-0.00022042773 -1.4560221e-05 -0.00029439034 0.0001255562 -0.0002909028 0.0001219544 -0.0002040599 -0.000116583935
-0.00020434163 -0.00010893987 -0.00015946117 -0.0001368711 -0.00028556114 0.00028696164 0.0012524937 0.0025888875
00000000: f4d5 193c c859 cd01 165a 2a39 9c2f ec36
00000010: a323 8038 8060 77b5 d629 ad37 721a ceb3
00000020: 4d5d ed36 5c54 2b34 4be8 e636 088c 1e34
00000030: e946 8736 7d58 4234 30b2 d936 91e5 1b34
00000040: b5c9 0937 2694 3734 b775 9f37 47f9 b734
00000050: d4ce 9737 082e 2234 d831 6837 17c9 0134
00000060: 857d a637 4dc5 fe33 fd57 b837 281f 32b5
00000070: 192f d837 f030 e7b5 1a4e 4c39 d053 f0b8
00000080: f100 94bb a476 ef82 6490 4abb 2ddc 123b
00000090: 9231 89ba c129 bb3a 6571 aeb9 af40 603a
000000a0: ec94 bc38 92ba 083a 80bd 183a 279c fc38
000000b0: 6f44 ad39 a46c f538 e66e d739 3911 67b8
000000c0: 0cde ed39 a092 7737 d3ce 4e3a 62f9 afb9
000000d0: c5e7 3c3a c7ad 97b9 4962 033a 334c 96b8
000000e0: db95 143a 8699 2eb9 f053 183a cb19 c9b8
000000f0: c749 223a 7f7c 4ab9 9414 f93a e643 89bb
00000100: 0c38 27bc 0071 ed01 fa47 903a 57c8 933a
00000110: 975e d639 4fb8 2f39 8fc2 0c39 f5c3 f137
00000120: b80d 5638 9c3b c1b6 8f18 3638 db68 8cb7
00000130: 6638 d734 64ab 83b7 8216 6e37 3438 a4b7
00000140: f3a6 dab6 802c 08b8 58ce 8738 cdc5 68b8
00000150: 98b0 db36 877b 51b8 ddc4 b0b8 6bd5 e0b8
00000160: 1407 e2b8 37e5 1ab9 520e cab8 bf2b 25b9
00000170: a910 eeb8 97f0 6538 88a5 f63a a5da e1ba
00000180: 8599 aebc a672 e502 cb8d efba da31 0f3b
00000190: 63bb 88b9 c084 a63a b410 1538 1c52 3c3a
000001a0: dea9 6c39 1c11 be39 6ed6 ef39 4292 0b39
000001b0: 16b9 9239 6830 bc37 7c2a ad39 b28a f8b7
000001c0: f073 bc39 0c98 dab8 a681 253a e148 84b9
000001d0: 51d5 1b3a e900 14b9 c161 c339 ade5 3db7
000001e0: 6bb4 d539 ac84 51b8 79bc c739 16ff 36b8
000001f0: 6044 0b3a d82e 0cb9 0450 b53a 9ee2 6abb
00000200: a769 aabc 2d93 de82 37a6 d73a 5cc5 be3a
00000210: 2a5c 2e3a aa9e fa39 6ef0 8a39 ccfa 8039
00000220: a5e9 0f39 fabd c838 a4a8 5739 d0a6 3438
00000230: 5d0e b838 8d7f 60b5 d258 ef38 772e 9cb7
00000240: 646b e038 2160 ccb7 9991 8a39 63a7 ee37
00000250: f4ee 5b39 ea5a 0138 cee2 d938 e294 cdb8
00000260: e813 2a39 4d51 13b9 91b4 5a39 efae 27b9
00000270: 603d 0a39 8871 2539 7d31 3a3b f8c2 9eb8
00000280: 0a2b 3f3c 0ce1 f182 eb3a f438 ee40 98b7
00000290: a49d 1438 863d c2b7 0c28 3c37 ac9c 6cb7
000002a0: 6398 f634 022f 11b7 e8cc dcb6 8dcb acb6
000002b0: a4ac 99b6 27f5 0eb6 07c1 b6b6 5eed c1b5
000002c0: 8fa7 ceb6 9c06 88b5 042c 33b7 381e 6d35
000002d0: 4fac 29b7 e43c 0335 57c4 dab6 d4cf 62b6
000002e0: dce6 f0b6 a244 8eb6 f590 ebb6 4dfa abb6
000002f0: ee70 0bb7 5cfe 5b36 9e41 4839 10b2 fb38
00000300: 52d0 a8bc 08b9 b802 21e8 563b 8dc5 5739
00000310: 5e68 a53a 021f e6b9 bd0d ef39 e38f aeb9
00000320: 6f91 8b38 06b3 84b9 90a0 22b9 174d 20b9
00000330: 1f8e 09b9 71f9 a4b8 58ec 1ab9 6d04 80b8
00000340: 779d 32b9 1c65 17b8 b92f 61b9 d2c3 a938
00000350: 7362 65b9 b4a7 9838 2cc0 1eb9 27dd 05b9
00000360: 1dc8 08b9 0371 0cb9 d71b 9bb8 0c14 2ab9
00000370: e946 57b9 39bf 8a39 717f c63a db37 093b
00000380: fa34 8cbc f6ff 8e01 c6ee 6d3b f9e6 7039
00000390: 4239 c03a a40d 18ba 5453 033a 1fa7 e6b9
000003a0: 89e0 6c38 ab5a a7b9 683e 6bb9 51a6 3bb9
000003b0: c24a 37b9 71cc aeb8 3921 4cb9 e2fe 57b8
000003c0: 9e22 67b9 ac47 74b7 6758 9ab9 bca7 0339
000003d0: 5084 98b9 c5c1 ff38 eaf8 55b9 867e f4b8
000003e0: 8a44 56b9 a676 e4b8 0835 27b9 0e85 0fb9
000003f0: 5eb7 95b9 5773 9639 b72a a43a 53aa 293b

convs.weight.3.tensor f4 [32, 32, 16, 2]
0.020004462 1.6240825e-37 0.00083483924 0.0016642151 0.0013904502 0.0008901038 0.00094472116 0.00054645503
0.0013206196 8.681451e-05 0.0032866637 -0.0010762489 0.0008677951 -0.00107255 -3.9820556e-05 -0.00093325035
-0.0008015958 -0.0003551782 -0.00071307103 -0.0007423295 -0.0012693661 -0.00013009255 0.0006088318 0.003141721
0.0011363862 0.0033309995 0.0011780789 0.0024885896 0.0023210305 -0.008322467 0.01906228 -0.060868055
-0.00069240754 2.7889992e-37 0.0030900443 -0.0011067864 0.00074318866 -0.0032725218 -0.00079469214 -0.0023000776
-0.002147586 -0.0011647077 -0.0044835694 0.0007185734 -0.0013031329 0.0016931923 0.00012016289 0.0015976485
0.001364568 0.0008136015 0.00080902356 0.0010319217 0.0016248885 0.000111615474 0.0011814402 -0.004231494
0.00069544336 -0.0046069957 0.0008758325 -0.004091001 0.00019720486 0.0076453853 0.030512424 0.038510982
-0.008976098 3.11278e-37 -0.0017464798 -0.00020093776 -0.0011102388 0.0011157715 -0.00019558707 0.0008305292
0.0003166149 0.00049045 0.00022280241 0.00028968972 0.00018055878 -7.083312e-05 6.2261905e-05 -4.1226333e-05
-2.8945073e-05 -3.814921e-05 -3.8715214e-05 0.0001106805 7.645416e-06 7.96677e-05 -0.0009246533 -0.00012459107
-0.0011324637 -0.00013017129 -0.0015397321 0.00027444385 -0.00094149966 0.0013887968 -0.021399653 0.026515143
-0.018858863 -3.2710925e-37 0.002384173 -0.0010733714 0.0004027012 -0.0026178635 -0.0007377106 -0.0018255205
-0.001850853 -0.0009066584 -0.0038889288 0.0005784729 -0.001247206 0.0013208139 -6.5127e-05 0.0012685438
0.0009601349 0.0006975224 0.0004392661 0.00085613946 0.0011137997 0.00014881545 0.0007670322 -0.0031949293
0.00032159587 -0.0035302194 0.00036936457 -0.0031434007 2.0251733e-05 0.005809523 0.020911193 0.03704084
-0.019468509 1.5077033e-37 -0.0009489519 -0.0011702708 -0.0011896079 -0.00048241013 -0.0008068507 -0.00030002554
-0.0011006697 -3.1178784e-06 -0.002823382 0.00093308993 -0.000785186 0.00087399286 -1.5635162e-05 0.0007853652
0.00063861127 0.00033476713 0.000419653 0.00067346584 0.0009336674 0.00014944508 -0.0005652367 -0.0025034968
-0.0010729611 -0.002706068 -0.0012879733 -0.0019745878 -0.0016407229 0.00610887 -0.021807533 0.054876715
0.002289544 6.844739e-38 0.0018964558 -0.00020462605 0.0009684701 -0.0015626961 -9.702617e-05 -0.0011796602
-0.0009366552 -0.0007261648 -0.0019039519 -7.831059e-05 -0.00086673186 0.00051326805 -0.00029751848 0.0005436863
0.00028761147 0.0003636459 -5.7501584e-05 0.0003604859 0.00033517304 7.1111586e-05 0.0012156494 -0.0013611373
0.0010882145 -0.0016737111 0.0012595656 -0.0018867287 0.001204609 0.0014451195 0.0076500014 0.0024005673
-0.017734986 -1.0657332e-37 -0.0027188382 0.00018672264 -0.0013571418 0.002270814 0.00019966777 0.0016809255
0.0013974803 0.0010060483 0.0025497873 0.0001913452 0.0012363268 -0.0006719245 0.000479122 -0.00068021414
-0.00031451968 -0.00046687617 0.00011064952 -0.000350671 -0.0003634218 -2.9946037e-05 -0.001896034 0.0015988582
-0.0018543184 0.002040379 -0.0023007581 0.0026851979 -0.0020129487 -0.0014519149 -0.020592388 0.005815539
-0.010368958 -1.8038677e-37 -0.0028966486 0.00023340838 -0.0015424482 0.0025125064 0.00023069872 0.001892569
0.0015979512 0.0011543229 0.0031586553 4.6689824e-05 0.0014038924 -0.000930825 0.00043817278 -0.0009645342
-0.0005561434 -0.000628461 6.0449198e-05 -0.0006249113 -0.000603712 -0.000110178786 -0.0019540016 0.0023756262
-0.0017319027 0.0028435925 -0.002047988 0.0030918512 -0.0019265582 -0.0026069381 -0.01307461 -0.006049144
00000000: 66e0 a33c 040f 5d02 1dd9 5a3a cb21 da3a
00000010: c43f b63a db55 693a 2aa7 773a fa3f 0f3a
00000020: a418 ad3a 2f10 b638 1165 573b ec10 8dba
00000030: be7c 633a ce94 8cba ff04 27b8 5fa5 74ba
00000040: 2f22 52ba 3637 bab9 63ed 3aba e498 42ba
00000050: dc60 a6ba 7469 08b9 039a 1f3a 55e5 4d3b
00000060: cbf2 943a e64c 5a3b c569 9a3a 9b17 233b
00000070: 6e1c 183b f55a 08bc 8028 9c3c c850 79bd
00000080: af82 35ba 38cf bd02 5782 4a3b 9711 91ba
00000090: 8cd2 423a ce77 56bb e352 50ba e6bc 16bb
000000a0: 84be 0cbb 1ba9 98ba e8ea 92bb a55e 3c3a
000000b0: e2cd aaba 1bee dd3a f6ff fb38 3068 d13a
000000c0: 4edb b23a df47 553a a714 543a 8c41 873a
000000d0: 36fa d43a 1a13 ea38 8eda 9a3a 58a8 8abb
000000e0: 6a4e 363a 48f6 96bb 2098 653a ce0d 86bb
000000f0: c7c8 4e39 2486 fa3b 31f5 f93c b1bd 1d3d
00000100: 7c10 13bc 47d8 d302 23ea e4ba d2b2 52b9
00000110: 6f85 91ba 143f 923a 8116 4db9 dfb7 593a
00000120: 55ff a539 8b91 003a 11a0 6939 7fe1 9739
00000130: 6154 3d39 3e8c 94b8 9b92 8238 70ea 2cb8
00000140: 12cf f2b7 6702 20b8 2562 22b8 241d e838
00000150: d044 0037 4513 a738 6f64 72ba a9a4 02b9
00000160: 2d6f 94ba 977e 08b9 d6d0 c9ba 3be3 8f39
00000170: f9ce 76ba 4a08 b63a 534e afbc 4936 d93c
00000180: e77d 9abc 789e de82 c93f 1c3b 5eb0 8cba
00000190: a421 d339 7690 2bbb ec62 41ba 4e46 efba
000001a0: 5298 f2ba d1ac 6dba 66dd 7ebb a9a4 173a
000001b0: 4a79 a3ba 291f ad3a cb94 88b8 4445 a63a
000001c0: 90b1 7b3a f0d9 363a 4c4d e639 8c6e 603a
000001d0: ebfc 913a 580b 1c39 a912 493a 0562 51bb
000001e0: de9b a839 415b 67bb 46a7 c139 8301 4ebb
000001f0: 44e2 a937 d05d be3b f34d ab3c 23b8 173d
00000200: 6c7c 9fbc cb37 4d02 16c3 78ba c663 99ba
00000210: 9eec 9bba feeb fcb9 d582 53ba bf4c 9db9
00000220: 5944 90ba be3c 51b6 7d08 39bb 9b9a 743a
00000230: f1d4 4dba ab1c 653a 4128 83b7 f7e0 4d3a
00000240: 7a68 273a af83 af39 df04 dc39 878b 303a
00000250: 5cc1 743a 5cb4 1c39 652c 14ba b511 24bb
00000260: 9aa2 8cba 4a58 31bb 36d1 a8ba 1668 01bb
00000270: 860d d7ba ea2c c83b b6a5 b2bc 68c6 603d
00000280: 2d0c 163b de54 ba01 7f92 f83a e390 56b9
00000290: eee0 7d3a 61d3 ccba 877a cbb8 d49e 9aba
000002a0: de89 75ba 185c 3eba 068e f9ba ae3a a4b8
000002b0: 6435 63ba d68c 063a 41fc 9bb9 2c86 0e3a
000002c0: 8fca 9639 baa7 be39 db2d 71b8 99ff bc39
000002d0: 2aba af39 be21 9538 6d56 9f3a 3068 b2ba
000002e0: 6ba2 8e3a 6d60 dbba 0218 a53a 1c4c f7ba
000002f0: f9e3 9d3a 2a6a bd3a ddac fa3b d652 1d3b
00000300: f648 91bc 620f 1182 892e 32bb faca 4339
00000310: 1fe2 b1ba f0d1 143b e95d 5139 8052 dc3a
00000320: a82b b73a 61dd 833a 551a 273b d6a3 4839
00000330: 3e0c a23a 1724 30ba ab32 fb39 6650 32ba
00000340: 1ee6 a4b9 0fc7 f4b9 820c e838 44da b7b9
00000350: a689 beb9 a034 fbb7 5884 f8ba c790 d13a
00000360: 9a0c f3ba e1b7 053b 51c8 16bb 25fa 2f3b
00000370: adeb 03bb 2e4e beba 5eb1 a8bc 4790 be3b
00000380: 90e2 29bc 9e87 7582 b3d5 3dbb 16bf 7439
00000390: f92b caba dda8 243b b7e7 7139 1410 f83a
000003a0: 5872 d13a a64c 973a 7101 4f3b d1d4 4338
000003b0: d002 b83a 9c02 74ba 8eba e539 cbd8 7cba
000003c0: 27ca 11ba 4ebf 24ba d58a 7d38 16d1 23ba
000003d0: 6d42 1eba c90f e7b8 b50e 00bb 65b0 1b3b
000003e0: 0301 e3ba 915b 3a3b 8937 06bb a8a0 4a3b
000003f0: 9184 fcba 2ad9 2abb e436 56bc e637 c6bb

fno_skips.0.weight f4 [1, 32, 1]
0.5854945 1.0061759 1.0095133 0.5873142 0.59540737 0.5854925 0.93517864 0.58567715
0.9248376 0.58553696 1.0203756 0.92750937 0.58605516 0.9757681 0.9866076 1.0204213
0.58675647 0.9815485 0.9983164 1.0173556 0.9882188 1.0193198 0.9795301 0.95201975
1.010128 0.9904515 0.94172335 0.98377126 0.98006 0.58540106 0.5855688 0.93020314
00000000: f8e2 153f 5fca 803f bb37 813f 395a 163f
00000010: 9e6c 183f d6e2 153f de67 6f3f f0ee 153f
00000020: 28c2 6c3f c0e5 153f ab9b 823f 4171 6d3f
00000030: b607 163f f0cb 793f 5192 7c3f 2a9d 823f
00000040: ac35 163f c346 7b3f aa91 7f3f b538 823f
00000050: e8fb 7c3f 1279 823f 7cc2 7a3f 91b7 733f
00000060: e04b 813f 3b8e 7d3f c814 713f 6fd8 7b3f
00000070: 36e5 7a3f d8dc 153f d6e7 153f cb21 6e3f

fno_skips.1.weight f4 [1, 32, 1]
0.5854951 1.0044726 1.0082268 0.5854826 0.58545196 0.5854951 0.68932307 0.5854921
0.75077105 0.5854935 1.0204152 0.7702843 0.58548737 0.84982455 0.978032 1.0199903
0.58547574 0.78444743 0.9503719 1.0176755 0.94082254 1.019461 0.9699282 0.91584945
1.0089191 0.9890598 0.9610822 0.9352406 0.9383875 0.5854961 0.58549947 0.9188006
00000000: 02e3 153f 8f92 803f 930d 813f 30e2 153f
00000010: 2ee0 153f 02e3 153f 7a77 303f cfe2 153f
00000020: 8832 403f e7e2 153f f79c 823f 5a31 453f
00000030: 80e2 153f 1a8e 593f 4e60 7a3f 0b8f 823f
00000040: bde1 153f 8cd1 483f 934b 733f 3143 823f
00000050: bfd9 703f b37d 823f 374d 783f 1c75 6a3f
00000060: 4324 813f 0633 7d3f 7c09 763f ee6b 6f3f
00000070: 2a3a 703f 13e3 153f 4be3 153f 8436 6b3f

fno_skips.2.weight f4 [1, 32, 1]
0.9952646 1.002216 1.0073342 1.0188069 1.018868 0.9742697 1.017892 1.0184786
1.0171139 1.0189763 1.0204525 1.0154872 1.020358 0.99785346 0.9936544 1.0146222
1.0201136 0.96784467 1.0137094 1.0174751 0.9927475 1.0194458 0.98946 1.0170019
1.0068907 0.98833025 1.0201434 0.9535858 0.96811885 0.99855304 0.9852709 1.0201782
00000000: a9c9 7e3f 9d48 803f 54f0 803f 4468 823f
00000010: 446a 823f bd69 793f 494a 823f 825d 823f
00000020: ca30 823f d16d 823f 309e 823f 7cfb 813f
00000030: 179b 823f 5373 7f3f 2260 7e3f 24df 813f
00000040: 1593 823f abc4 773f 3bc1 813f a03c 823f
00000050: b324 7e3f 337d 823f 404d 7d3f 1e2d 823f
00000060: cbe1 803f 3603 7d3f 0f94 823f 331e 743f
00000070: a3d6 773f 2ca1 7f3f b73a 7c3f 3395 823f

fno_skips.3.weight f4 [1, 32, 1]
1.0188701 0.99864763 1.0068793 1.0190957 1.0190628 0.98866296 1.0178802 1.0104098
1.0190655 1.019157 1.0205655 1.0172567 1.0202184 1.016065 1.0125479 0.9973185
1.0199708 0.9810026 1.0172457 1.017216 1.0168085 1.0194453 1.0140483 1.0163399
1.002374 0.9889067 1.0190883 1.0183281 1.01639 1.017222 1.0098742 1.020128
00000000: 566a 823f 5fa7 7f3f 6ce1 803f ba71 823f
00000010: a670 823f 0419 7d3f e649 823f 1c55 813f
00000020: bd70 823f bd73 823f e4a1 823f 7835 823f
00000030: 8496 823f 6b0e 823f 2b9b 813f 4450 7f3f
00000040: 678e 823f fd22 7b3f 1b35 823f 2234 823f
00000050: c826 823f 2f7d 823f 56cc 813f 6d17 823f
00000060: cb4d 803f fd28 7d3f 7c71 823f 9358 823f
00000070: 1119 823f 5534 823f 8f43 813f 8e93 823f

lifting.fc.weight f4 [32, 1, 1]
-0.9552227 0.5332694 0.07830515 -0.8505143 -0.7390115 -0.89735806 -0.5203983 -0.9721694
-0.15938595 -0.89497733 0.4313906 -0.13766131 -0.77343166 -0.51543844 0.051765718 0.7371658
-0.919949 -0.5436158 -0.11246135 0.46008223 -0.25028738 0.9485145 -0.29690614 -0.5457734
0.48196313 0.56687105 -0.525662 -0.11491025 -0.47582787 -0.85358024 -0.80080223 -0.37810078
00000000: 7a89 74bf 5884 083f 735e a03d 4ebb 59bf
00000010: dc2f 3dbf 42b9 65bf d338 05bf 18e0 78bf
00000020: 1236 23be 3c1d 65bf 3bdf dc3e 16f7 0cbe
00000030: 9eff 45bf c6f3 03bf 4a08 543d e6b6 3c3f
00000040: c781 6bbf 682a 0bbf 2352 e6bd e68f eb3e
00000050: ab25 80be d9d1 723f 1504 98be ceb7 0bbf
00000060: dfc3 f63e 761e 113f c991 06bf 1156 ebbd
00000070: b69f f3be 3c84 5abf 6001 4dbf 6d96 c1be

lifting.fc.bias f4 [32]
0.0988629 -0.15183714 0.5361003 0.17085923 0.025371129 -0.1456563 -0.31109378 0.79188305
-0.61384684 -0.775546 -0.086978234 -0.6249761 -0.9525211 0.5968858 -0.0006873693 -0.0731031
0.9254554 0.043972507 -0.17669429 -0.59198666 0.33731437 -0.4251259 -0.77887654 -0.13270862
0.15012182 -0.2871667 0.25422835 0.5038334 0.80812955 0.34029433 0.44894585 -0.7791742
00000000: a278 ca3d 327b 1bbe df3d 093f b9f5 2e3e
00000010: 1dd7 cf3c ed26 15be af47 9fbe d9b8 4a3f
00000020: 1125 1dbf 2f8a 46bf a521 b2bd 6ffe 1fbf
00000030: 6cd8 73bf 82cd 183f 9330 34ba 14b7 95bd
00000040: a5ea 6c3f 841c 343d 59ef 34be 708c 17bf
00000050: 78b4 ac3e 1aaa d9be 7464 47bf c5e4 07be
00000060: 89b9 193e 8407 93be 382a 823e 3afb 003f
00000070: 94e1 4e3f 0f3b ae3e 3bdc e53e f677 47bf

projection.fc1.weight f4 [64, 32, 1]
0.101763494 -0.14448714 -0.11591435 -0.12549566 -0.055862788 -0.07400505 -0.13257901 -0.12268085
0.095598765 -0.01619247 0.005406381 -0.051455077 0.06752887 0.10308688 0.056150533 -0.015555287
-0.0064316066 -0.0047567673 -0.1028235 0.023188902 -0.0402197 -0.16161175 -0.001231265 -0.11963495
-0.005700997 -0.08983842 0.0811375 0.07144061 -0.09564332 0.059701473 0.004363156 0.06632746
-0.12587312 0.048301358 -0.036726423 -0.06715229 0.076369494 0.090412244 0.049043514 0.007362196
0.13839465 0.11074886 0.09289867 0.178696 0.012059704 0.0014055293 -0.13391322 0.04177017
0.008398687 -0.0062009115 0.08190272 0.067590795 -0.1166166 0.117141224 -0.07659156 0.14527991
-0.039501775 -0.0830869 0.009608782 -0.13298306 0.09074901 -0.14954826 0.044007186 0.033389762
-0.17376697 0.047939707 -0.041894183 -0.06276253 0.0993923 0.15456253 -0.123537086 -0.057381228
-0.06656971 -0.107714176 0.10734826 0.026520556 0.10453058 -0.1565473 -0.16043068 0.18866247
0.10156021 -0.0019517757 0.17857124 0.16366895 0.015119618 -0.08457835 -0.11721834 0.054408785
0.007934467 -0.028169688 0.06778155 0.1325277 -0.1797426 0.031166993 -0.08194092 0.10883773
0.078534365 -0.15328617 -0.12446306 0.038586605 -0.08130663 -0.1139556 -0.114906445 0.01455959
0.099524915 -0.019341657 0.13854377 0.07319672 -0.16851702 0.17927796 0.060891006 -0.14189011
-0.08924768 -0.04783514 0.056845974 0.1395561 0.11637572 0.07490374 -0.15845604 -0.039113805
-0.14823507 -0.05431214 0.06902949 0.041141987 -0.09074227 -0.09164095 0.12370824 0.036150284
0.03586293 0.051228367 -0.13537772 -0.12091517 0.0769373 0.1757507 0.005638031 0.12493369
-0.050646964 0.026117655 0.11497678 -0.06943039 -0.119587414 0.05875561 -0.1437413 -0.06598661
-0.08399765 -0.030781506 -0.16742305 0.14576574 0.010267054 -0.07365785 -0.006168853 0.119888
0.024195561 -0.09052423 0.030364899 -0.06543592 0.084999494 0.15395206 -0.1171818 -0.1348306
0.12638319 -0.11338641 0.14343251 0.13294056 0.1715361 -0.12085966 -0.0057453467 0.17184
-0.07694139 0.1527239 0.15690379 0.1390465 0.07169394 -0.028057775 -0.14950575 -0.14023992
0.1947263 0.07158249 0.11861966 0.18222678 -0.12625828 0.15833615 -0.18744576 -0.04273399
-0.005133006 -0.04831276 0.16204497 0.054994103 0.04757181 0.013967885 0.14044201 -0.10617164
0.040164903 0.13137725 0.124186635 -0.13616091 0.1275755 0.02279344 0.14756595 -0.11677371
0.06272587 -0.16360648 0.092822224 0.07287504 0.0033298568 0.059436 0.17433867 -0.18529293
-0.061143465 0.12914355 0.0855157 -0.12668175 0.008536547 0.10653651 0.15195648 -0.05312736
-0.038514815 0.12183699 -0.11330496 0.035226814 0.036306694 -0.12599657 0.14332722 -0.12417489
0.07218825 -0.15511735 0.0050206175 -0.07021282 -0.03511273 0.06054348 0.14244 0.0992062
0.18215255 -0.02257701 -0.09682664 -0.020130588 0.14357029 0.13347644 0.05301115 -0.07689492
0.10571618 0.046261672 0.04833408 0.075728334 -0.1186229 -0.059289657 0.11254811 0.05624591
0.07014317 -0.166209 0.043904193 0.084714174 -0.091842435 -0.018600015 -0.031207 0.054473784
00000000: 6169 d03d 70f4 13be 8164 edbd ef81 00be
00000010: 61d0 64bd f68f 97bd cbc2 07be 1940 fbbd
00000020: 49c9 c33d 12a6 84bc 0328 b13b 8fc2 52bd
00000030: 944c 8a3d 371f d33d 1afe 653d 9adb 7ebc
00000040: 3ac0 d2bb a8de 9bbb 2195 d2bd a7f6 bd3c
00000050: 6abd 24bd 8d7d 25be 6662 a1ba 2b03 f5bd
00000060: 6ecf babb 35fd b7bd 6b2b a63d 744f 923d
00000070: a5e0 c3bd 8889 743d cef8 8e3b b1d6 873d
00000080: e2e4 00be a5d7 453d 726e 16bd 2487 89bd
00000090: 9c67 9c3d 0e2a b93d dae1 483d 943e f13b
000000a0: 54b7 0d3e 4cd0 e23d a841 be3d 16fc 363e
000000b0: 1196 453c bd39 b83a 8c20 09be 3317 2b3d
000000c0: a59a 093c 0431 cbbb 9dbc a73d 0b6d 8a3d
000000d0: afd4 eebd bde7 ef3d 09dc 9cbd 42c4 143e
000000e0: 9dcc 21bd 7729 aabd 276e 1d3c b62c 08be
000000f0: 9eda b93d 2e23 19be e140 343d b4c3 083d
00000100: f8ef 31be 6d5c 443d 3c99 2bbd a489 80bd
00000110: 318e cb3d a445 1e3e 0301 fdbd 9408 6bbd
00000120: b355 88bd 4099 dcbd 68d9 db3d a341 d93c
00000130: 2114 d63d ef4d 20be f147 24be bc30 413e
00000140: cdfe cf3d bad2 ffba 61db 363e d598 273e
00000150: 46b8 773c 6a37 adbd 2b10 f0bd bfdb 5e3d
00000160: 91ff 013c 1ec4 e6bc 0ed1 8a3d 57b5 073e
00000170: 720e 38be ec51 ff3c a4d0 a7bd 51e6 de3d
00000180: a0d6 a03d 0df7 1cbe 7de6 febd fd0c 1e3d
00000190: 1784 a6bd 8e61 e9bd 1254 ebbd 598b 6e3c
000001a0: b8d3 cb3d 6572 9ebc 6bde 0d3e 29e8 953d
000001b0: ba8f 2cbe a494 373e d968 793d a44b 11be
000001c0: 7dc7 b6bd c8ee 43bd 53d7 683d cbe7 0e3e
000001d0: 6556 ee3d 2267 993d 4d42 22be cc35 20bd
000001e0: efca 17be 6876 5ebd 555f 8d3d 8084 283d
000001f0: 15d7 b9bd 40ae bbbd bf5a fd3d 5212 143d
00000200: 02e5 123d d6d4 513d 75a0 0abe 5fa2 f7bd
00000210: 4e91 9d3d fef7 333e 3bbf b83b 3cdd ff3d
00000220: 3173 4fbd b1f4 d53c f278 eb3d 8531 8ebd
00000230: 3fea f4bd b9a9 703d eb30 13be fd23 87bd
00000240: f606 acbd 7f29 fcbc f370 2bbe 9d43 153e
00000250: 2537 283c edd9 96bd 1724 cabb d787 f53d
00000260: c535 c63c c464 b9bd cfbf f83c 4503 86bd
00000270: 3714 ae3d 9ca5 1d3e 03fd efbd 0811 0abe
00000280: 986a 013e 2237 e8bd f9df 123e 9221 083e
00000290: 29a7 2f3e 4585 f7bd 7643 bcbb d3f6 2f3e
000002a0: 7393 9dbd a763 1c3e 63ab 203e 3562 0e3e
000002b0: 46d4 923d 6bd9 e5bc 0918 19be 0e9b 0fbe
000002c0: 5566 473e d799 923d ddee f23d a899 3a3e
000002d0: da49 01be df22 223e c8f1 3fbe d609 2fbd
000002e0: c632 a8bb 9ae3 45bd 1eef 253e 7f41 613d
000002f0: a9da 423d 8ed9 643c 08d0 0f3e 8470 d9bd
00000300: f483 243d c287 063e 9055 fe3d c46d 0bbe
00000310: 27a3 023e 4fb9 ba3c 871b 173e 0e27 efbd
00000320: 6c76 803d 7588 27be 9419 be3d 823f 953d
00000330: ba39 5a3b 2a73 733d d685 323e 6ebd 3dbe
00000340: 9271 7abd 353e 043e db22 af3d dcb8 01be
00000350: e0dc 0b3c d02f da3d 7b9a 1b3e 139c 59bd
00000360: b6c1 1dbd ac85 f93d 6e0c e8bd fe49 103d
00000370: 54b6 143d 3f05 01be 5fc4 123e 684f febd
00000380: 6fd7 933d 15d7 1ebe fe83 a43b bdcb 8fbd
00000390: 5ed2 0fbd 71fc 773d cbdb 113e 9f2c cb3d
000003a0: 3386 3a3e 6cf3 b8bc 0c4d c6bd e7e8 a4bc
000003b0: 1704 133e 0cae 083e 3822 593d 157b 9dbd
000003c0: b981 d83d e17c 3d3d f5f9 453d 7517 9b3d
000003d0: 90f0 f2bd b6d9 72bd a07f e63d 1c62 663d
000003e0: 39a7 8f3d b132 2abe e2d4 333d a07e ad3d
000003f0: e317 bcbd 0f5f 98bc d3a5 ffbc e71f 5f3d

projection.fc1.bias f4 [64]
0.09522712 0.18662262 -0.14520302 0.10552027 0.016488722 -0.12050121 0.14042406 0.14393464
0.039269306 -0.102119006 0.117649846 0.018759096 0.015231043 -0.16145892 -0.07860061 0.104936115
-0.13554403 -0.13286915 0.14207974 -0.093579285 0.07123483 0.18581739 -0.008149427 -0.07722427
0.022998493 -0.013756463 -0.061096568 0.080285504 -0.007084831 0.016604371 -0.0442899 0.06989873
0.025105022 -0.08207928 -0.14631613 0.10909602 0.18455772 -0.005831973 0.09703825 -0.13199499
-0.020354746 0.08703766 0.11187571 -0.03537825 0.17108592 -0.023411015 0.14586703 -0.12021083
0.01904468 0.1436936 0.00701455 -0.03392028 -0.023409296 -0.07653491 0.09470109 -0.117273234
0.07594054 0.094516255 -0.1381925 -0.009604677 -0.16298522 0.0151261585 0.09564089 -0.09607088
00000000: 7006 c33d 001a 3f3e 1ab0 14be 031b d83d
00000010: 5b13 873c 57c9 f6bd 53cb 0f3e 9a63 133e
00000020: dad8 203d c523 d1bd 67f2 f03d adac 993c
00000030: a08b 793c 7d55 25be 5bf9 a0bd bfe8 d63d
00000040: 0ecc 0abe da0e 08be 5a7d 113e 7fa6 bfbd
00000050: 91e3 913d ea46 3e3e 2d85 05bc c227 9ebd
00000060: 5667 bc3c ca62 61bc 6540 7abd ba6c a43d
00000070: df27 e8bb e405 883c 5469 35bd 1127 8f3d
00000080: 0ca9 cd3c 2e19 a8bd e5d3 15be bc6d df3d
00000090: b3fc 3c3e 231a bfbb fdbb c63d b229 07be
000000a0: ffbe a6bc cd40 b23d 181f e53d c9e8 10bd
000000b0: 2631 2f3e 75c8 bfbc 2b5e 153e 1831 f6bd
000000c0: 9703 9c3c 6a24 133e 4fda e53b feef 0abd
000000d0: dac4 bfbc 56be 9cbd a5f2 c13d f32c f0bd
000000e0: b786 9b3d bd91 c13d 5682 0dbe ef5c 1dbc
000000f0: 99e5 26be b5d3 773c 5fdf c33d cfc0 c4bd

projection.fc2.weight f4 [1, 64, 1]
0.016107751 0.12629186 0.105770536 -0.0257759 -0.029470794 0.11948338 -0.07846975 -0.1113822
-0.02131807 0.07147273 0.08531816 0.053719036 -0.023402449 0.029941494 0.02954137 -0.07427858
-0.028434625 -0.05998262 0.046552546 -0.04507262 0.06404172 0.08208597 -0.00090493367 -0.11666807
-0.021854285 0.052794404 -0.08780335 0.03772158 -0.057884894 0.09617413 -0.10163583 -0.08558975
-0.070445545 0.029596163 -0.054358784 -0.049380798 0.10692596 -0.0048684245 9.6904354e-05 -0.06493478
-0.026641443 0.106101796 -0.09877088 -0.115380056 0.021188565 -0.1034723 0.085505456 0.08973853
0.08142859 -0.062258244 -0.11145675 0.054704648 0.024880093 0.050044697 0.09487439 -0.13023962
-0.044151552 -0.06410671 -0.12201056 0.07573377 -0.10276271 0.014543862 0.022027299 -0.007911146
00000000: 67f4 833c a752 013e 399e d83d fb27 d3bc
00000010: bc6c f1bc b4b3 f43d c0b4 a0bd 5a1c e4bd
00000020: 3ca3 aebc 4b60 923d 4abb ae3d 7e08 5c3d
00000030: 7eb6 bfbc dd47 f53c be00 f23c 5e1f 98bd
00000040: bbef e8bc 56b0 75bd e2ad 3e3d 119e 38bd
00000050: 4e28 833d b01c a83d 1239 6dba abef eebd
00000060: c207 b3bc f23e 583d 3ed2 b3bd f281 1a3d
00000070: b618 6dbd f1f6 c43d 7226 d0bd ae49 afbd
00000080: c145 90bd a773 f23c 51a7 5ebd 8543 4abd
00000090: fffb da3d 4e87 9fbb 2139 cb38 87fc 84bd
000000a0: 283f dabc e64b d93d 6348 cabd 614c ecbd
000000b0: a493 ad3c 49e9 d3bd 7c1d af3d d6c8 b73d
000000c0: 08c4 a63d 8002 7fbd 7043 e4bd fb11 603d
000000d0: 56d1 cb3c abfb 4c3d 814d c23d 895d 05be
000000e0: 42d8 34bd 614a 83bd ace0 f9bd 4f1a 9b3d
000000f0: 4175 d2bd 6149 6e3c 9872 b43c c09d 01bc
