neuraloperator/examples/para/fno_para_202305121509_002_modes32_epochs250.pth (torch, 746319 bytes, 31 tensors)

convs.bias f4 [4, 32, 1]
0.005980438 0.0010063552 0.005064019 0.026878973 -0.007351163 -0.0139994705 0.004126747 -0.007687992
0.0012694839 0.02532656 -0.009294345 0.033347603 0.005449655 0.0038924639 0.0009825806 -0.0127925435
0.019909801 0.0043932362 -0.015184466 0.0066861003 0.0036899908 0.029870372 0.0041846023 0.0013891037
0.0043478147 0.002315683 0.02569087 -0.0001232859 0.004563845 0.00517083 0.0038393214 0.024691846
0.0037385202 0.0051787184 0.0042602047 0.003311427 -0.00781164 -0.01284403 0.0023617686 -0.007951364
0.002464127 0.0067708874 -0.008819827 0.004493522 0.0063336664 0.0041755605 -0.0013018734 -0.016469115
0.0048212344 0.0075699417 -0.0152972285 0.008690825 0.0065793116 0.002653157 0.0054631922 0.005279707
0.0069673466 0.0012491107 0.0035312779 0.00094174844 0.005806618 0.006251555 0.004324623 0.0027312937
0.0024935266 0.0028301429 0.0046473653 0.0023120558 -0.007112437 -0.012733072 0.0036336887 -0.010048872
0.006945992 0.004969721 -0.009525796 0.006224262 0.00751025 0.0050698314 0.0010720247 -0.01686968
0.005995812 0.0078060795 -0.013333928 0.007575927 0.008252733 0.0010967045 0.0057089897 0.0046313745
0.004608951 -0.0007114013 0.0052969516 0.00014856817 0.0053924485 0.0063416823 0.0048366985 0.0008070493
0.0077052186 -0.0052845567 0.005728883 0.004752751 -0.007728598 -0.009221069 0.0034419212 -0.011872872
0.005688406 -0.0048356205 -0.011169021 0.005378305 0.0073619126 0.0015824877 0.0014397964 -0.014882702
0.0058173747 0.007571031 -0.015751 0.006851208 0.0019788686 0.008997481 0.003202515 -0.0064396933
0.0043272194 0.0006732574 -0.008834268 -0.0063183163 0.0057293535 0.009806092 0.005668897 -0.006751706
00000000: 8df7 c33b ade7 833a 12f0 a53b 4b31 dc3c
00000010: 06e2 f0bb 095e 65bc aa39 873b 8deb fbbb
00000020: d064 a63a a579 cf3c 4f47 18bc 7f97 083d
00000030: 0593 b23b b518 7f3b efc9 803a d197 51bc
00000040: e119 a33c 23f5 8f3b 44c8 78bc 1317 db3b
00000050: c6d3 713b b6b2 f43c fd1e 893b 9612 b63a
00000060: 1d78 8e3b b7c2 173b a975 d23c 4f46 01b9
00000070: 4f8c 953b 1170 a93b 209d 7b3b 8e46 ca3c
00000080: f601 753b 3db2 a93b 3099 8b3b 8704 593b
00000090: c9f8 ffbb c46f 52bc e7c7 1a3b 7046 02bc
000000a0: 317d 213b 52de dd3b 0981 10bc 653e 933b
000000b0: a58a cf3b 24d3 883b 9fa3 aaba 3dea 86bc
000000c0: 72fb 9d3b 460d f83b 3aa1 7abc f663 0e3c
000000d0: 4497 d73b 97e0 2d3b 9404 b33b 6401 ad3b
000000e0: 574e e43b 33b9 a33a 036d 673b abdf 763a
000000f0: 7145 be3b d8d9 cc3b 91b5 8d3b 81ff 323b
00000100: 6f6a 233b eb79 393b ed48 983b dc85 173b
00000110: 720f e9bb 609e 50bc 2e23 6e3b 06a4 24bc
00000120: 349b e33b 0bd9 a23b 1612 1cbc e5f4 cb3b
00000130: 8b18 f63b d420 a63b 2e83 8c3a 4832 8abc
00000140: 8478 c43b 24ca ff3b 8c76 5abc 7b3f f83b
00000150: 7936 073c 4cbf 8f3a 7a12 bb3b c9c2 973b
00000160: af06 973b 557d 3aba 0d92 ad3b f7c8 1b39
00000170: 23b3 b03b e3cd cf3b 2b7d 9e3b 2990 533a
00000180: 0f7c fc3b 132a adbb 5bb9 bb3b f7bc 9b3b
00000190: 2e40 fdbb f713 17bc db91 613b 6f86 42bc
000001a0: cf65 ba3b 2074 9ebb 45fe 36bc 7e3c b03b
000001b0: 333c f13b 7a6b cf3a 8db7 bc3a 94d6 73bc
000001c0: ad9f be3b 6916 f83b 3e08 81bc 1980 e03b
000001d0: e8af 013b 2c6a 133c 49e1 513b 1004 d3bb
000001e0: 59cb 8d3b 8a7d 303a 9bbd 10bc e109 cfbb
000001f0: 4dbd bb3b bba9 203c 28c2 b93b 6a3d ddbb

convs.bias_bc f4 [4, 32, 1]
-0.0005998955 0.0011048255 0.0003392852 -0.00011160905 0.0009329789 -0.0010477084 -0.00023891372 0.0011692981
0.0009054035 -0.0005507814 0.0008139593 -0.0010475834 -0.0006063991 -6.177819e-05 0.0007008515 -0.0005832454
0.00025376628 -0.0016409545 -0.0007750198 -0.0011309213 0.00085050304 0.00060933706 0.00014629764 -4.915043e-05
-8.587119e-05 -8.7427425e-06 -0.0005717718 -7.3376556e-05 0.00036166926 0.00015064313 0.001953315 0.00020689965
-0.0018024156 -0.001105182 0.00077393226 -0.00053957925 -0.00054510956 0.0003861414 0.0010472898 -0.0023599344
-0.0015721717 0.0010780684 -0.0002072545 0.0008479999 -0.0013663413 -0.0014846403 0.0016920551 -0.00052746927
-0.0014433016 -0.0008631275 -0.0016278401 9.278691e-05 0.00063548377 0.0011261092 -0.0008411504 0.00053041254
-0.0018383195 -0.0014926987 0.00047164457 0.0005259845 -0.0007421171 -0.0008274537 -0.0015951964 -0.00011418923
0.00060410996 0.0004428533 0.00025247326 0.000982218 -0.00207174 0.002004756 -0.00025908358 0.00095061515
0.0009057922 -0.000723681 0.0005372317 0.0018822578 -0.0006678233 0.0004714498 -0.0007491304 -0.00021225342
-0.00082948856 0.0008395365 -0.00019848712 -0.0007843042 0.00021879628 1.1690586e-05 -0.0013973583 0.0005187512
-0.000770238 4.312998e-05 0.0007517996 0.00087023806 0.0010777004 9.829258e-05 0.00045856257 0.00018409902
-0.0015012709 0.00088043755 0.00239139 6.8969726e-05 -0.0012019193 0.00077655615 8.269715e-05 0.0008315078
-0.00094272516 -0.00024289446 -0.00060962216 -0.0016004088 0.00048194692 -0.0016593338 0.00032056693 -0.0005678775
0.000119074386 -1.0087226e-05 0.00087609474 0.0001495824 -0.00020190886 0.0009893195 -0.0005895282 -0.0014693914
-0.00092945446 -0.002152895 7.2170835e-05 0.0024401622 0.0008798954 0.0014725005 -0.0010259397 -0.00076183595
00000000: 4e42 1dba cbcf 903a 17e2 b139 a70f eab8
00000010: 2793 743a 4353 89ba ea84 7ab9 2243 993a
00000020: 9a58 6d3a 5062 10ba e25f 553a 114f 89ba
00000030: c1f6 1eba ea8e 81b8 59b9 373a f0e4 18ba
00000040: ef0b 8539 4c15 d7ba b32a 4bba 6c3b 94ba
00000050: 4bf4 5e3a ebbb 1f3a 7967 1939 df26 4eb8
00000060: be15 b4b8 cbad 12b7 f5e2 15ba bde1 99b8
00000070: 6d9e bd39 f5f5 1d39 3003 003b 34f3 5839
00000080: 083f ecba c1db 90ba b7e1 4a3a 8d72 0dba
00000090: afe5 0eba 0573 ca39 3745 893a 21a9 1abb
000000a0: 5411 ceba f94d 8d3a 7552 59b9 4f4c 5e3a
000000b0: ce16 b3ba 4398 c2ba f3c7 dd3a dd45 0aba
000000c0: 2a2d bdba 8243 62ba 405d d5ba 9896 c238
000000d0: 9896 263a f499 933a a680 5cba 620b 0b3a
000000e0: c4f3 f0ba a8a6 c3ba 1047 f739 39e2 093a
000000f0: a38a 42ba 7ae9 58ba e915 d1ba e078 efb8
00000100: 225d 1e3a c42e e839 635e 8439 c4bd 803a
00000110: 08c6 07bb 3962 033b 9cd5 87b9 b432 793a
00000120: b072 6d3a 69b5 3dba 02d5 0c3a 17b6 f63a
00000130: dd10 2fba ec2c f739 4a61 44ba 5890 5eb9
00000140: 0972 59ba 5714 5c3a fb20 50b9 c499 4dba
00000150: ae6c 6539 af22 4437 9027 b7ba cefc 073a
00000160: cce9 49ba 77e6 3438 6b14 453a b020 643a
00000170: a041 8d3a 6d22 ce38 3a6b f039 b40a 4139
00000180: 4bc6 c4ba 2acd 663a deb8 1c3b d7a3 9038
00000190: b889 9dba cd91 4b3a b26d ad38 8bf9 593a
000001a0: 3721 77ba 7cb1 7eb9 0dcf 1fba cfc4 d1ba
000001b0: d2ad fc39 017e d9ba c411 a839 9ddd 14ba
000001c0: 93b7 f938 4e3c 29b7 b9a9 653a 38d9 1c39
000001d0: 7fb7 53b9 0eac 813a 918a 1aba 9898 c0ba
000001e0: a2a6 73ba 9617 0dbb 6c5a 9738 21eb 1f3b
000001f0: c8a8 663a eb00 c13a d378 86ba f2b5 47ba

convs.weight.0.tensor f4 [32, 32, 16, 2]
0.00057441235 -2.9450034e-37 -0.00111157 0.0009882094 -0.00047885065 2.6365711e-05 -0.00025170177 -0.0002916299
-0.00012110672 -0.00047083152 -3.165793e-05 -0.00054904143 7.085768e-05 -0.00064259453 0.00021881881 -0.0008134344
0.0004049868 -0.0006515196 0.0005991135 -4.917289e-05 0.0005952066 0.00018078006 5.79752e-05 -0.0003087806
-0.0007022797 -0.0011893664 -0.00091183407 -0.0019114595 -0.00030081507 -0.002152694 0.0003425727 -0.0016030554
-0.005425209 -2.0497575e-37 1.6060929e-05 -6.472649e-07 1.6887143e-05 4.1293268e-07 1.3060384e-05 -1.2817559e-06
1.1756648e-05 -8.452278e-07 9.635298e-06 -4.558076e-07 6.938283e-06 -3.1628736e-06 5.0879325e-06 -2.405406e-06
3.1115271e-06 -2.1907779e-06 1.5073928e-06 -2.2359595e-06 1.1926006e-06 -1.8597079e-06 1.839871e-06 -8.1176483e-07
2.879954e-06 -1.1233193e-07 3.989036e-06 1.4318789e-06 8.662136e-06 7.3310684e-06 1.4070579e-05 1.2341743e-05
-0.013118491 1.839969e-37 -0.0039118025 0.003539731 -0.0029298326 0.0020478354 -0.0026896384 0.0026232693
-0.0027728335 0.0023311577 -0.0034967435 0.0016445762 -0.006796046 0.001102179 -0.0075471364 0.0009927083
-0.00775114 0.0011396457 -0.008721768 0.0008544752 -0.009145774 0.000995868 -0.0099538285 0.00044136378
-0.01055705 -3.434593e-05 -0.011765641 -0.00038833695 -0.0163084 -0.0007452968 -0.025471611 -0.002593941
-0.015579569 -2.607077e-39 -0.0018765215 0.00057515275 -0.001021965 6.565303e-05 -0.0007138399 -0.000356284
-0.0005490687 -0.0004889679 -0.00042597047 -0.00056122 -0.0002774162 -0.0005572083 -0.00023672276 -0.0005860737
-0.00024440294 -0.00053188007 -0.00026910007 -0.0003996404 -0.00030186085 -0.00027120666 -0.00037349024 -0.0004020046
-0.0003895433 -0.0007386193 -0.00014383436 -0.00097262254 0.0010693809 -0.00071852765 0.0016072441 0.00020815084
0.0007629989 -2.4655172e-37 -0.0005736913 0.005922172 0.00017154517 0.0013757845 -0.00031584897 0.000227684
-0.0008680447 -0.00031785193 -0.0013852369 -0.0006450232 -0.0029491438 -0.0009869223 -0.003535538 -0.0010359336
-0.0033985039 -0.0010683527 -0.00257908 -0.00069137616 -0.0033116818 0.0005588977 -0.007884149 0.0005662948
-0.0149176 -0.004889362 -0.019473676 -0.009533009 -0.01739319 -0.014374504 -0.012054139 -0.016499214
0.008053991 4.5074503e-37 0.0007529336 0.0070130676 -0.0015872766 0.0039498066 -0.0029262071 0.0030580442
-0.0039375774 0.002121726 -0.0049584443 0.001680742 -0.0068276105 0.0010113918 -0.0068871574 0.0011592339
-0.0059720753 0.0016523859 -0.0042926352 0.0019993817 -0.004550151 0.001824294 -0.009755064 0.001180311
-0.01846299 -0.00042611535 -0.024066396 -0.00554564 -0.022986598 -0.010730617 -0.022397246 -0.013464434
-0.0094631845 2.8931123e-37 -0.0006805468 -0.00024335118 3.3157623e-05 0.00075049966 -0.00019846401 8.838767e-05
-0.00027326166 -0.00043928533 -0.00078805984 -0.00075888325 -0.0035038246 -0.0012550224 -0.0041376627 -0.0013375771
-0.0046750754 -0.0011978134 -0.005303742 -0.0013228933 -0.0064622895 -0.0012417793 -0.0076864986 -0.0017777366
-0.008692913 -0.0026778313 -0.010562253 -0.0045898636 -0.015765883 -0.00979794 -0.024618039 -0.01705413
0.00027094618 3.2008558e-37 0.0004287745 0.002400273 -0.0026006033 0.0016920202 -0.00531134 0.0004388851
-0.0073768655 -0.00058121985 -0.008882407 -0.0011406606 -0.011160891 -0.0018792524 -0.012320803 -0.001980374
-0.013037889 -0.0015390754 -0.014033308 -0.0013504406 -0.016124107 -0.0016911316 -0.019429037 -0.0030907458
-0.022576155 -0.0050076884 -0.02533988 -0.007918711 -0.030235825 -0.011789506 -0.037619434 -0.011251703
00000000: 2994 163a 326d c882 1ab2 91ba ce86 813a
00000010: 3f0e fbb9 ef2b dd37 d7f6 83b9 e7e5 98b9
00000020: adfa fdb8 f0d9 f6b9 72c8 04b8 8ced 0fba
00000030: 6d99 9438 ca73 28ba ba72 6539 a93c 55ba
00000040: 6854 d439 bdca 2aba d40d 1d3a fd3e 4eb8
00000050: a407 1c3a c78f 3d39 662a 7338 d5e3 a1b9
00000060: 3119 38ba 84e4 9bba 2608 6fba f089 faba
00000070: b7b6 9db9 3614 0dbb 549b b339 9d1d d2ba
00000080: f4c5 b1bb d07f 8b82 95ba 8637 b5bf 2db5
00000090: dda8 8d37 09b1 dd34 ec1d 5b37 cc08 acb5
000000a0: 6b3e 4537 9de3 62b5 4aa7 2137 b8b5 f4b4
000000b0: 66cf e836 c141 54b6 02b9 aa36 8f6c 21b6
000000c0: a1cf 5036 4705 13b6 9f51 ca35 7e0d 16b6
000000d0: 7211 a035 149b f9b5 7cf1 f635 0ee8 59b5
000000e0: 3c45 4136 223b f1b3 8fd9 8536 fc2e c035
000000f0: 9753 1137 66fd f536 ad10 6c37 620f 4f37
00000100: f0ee 56bc 9071 7a02 942e 80bb d5fa 673b
00000110: 6f02 40bb fa34 063b a544 30bb 28eb 2b3b
00000120: 6db8 35bb 56c6 183b 9f29 65bb d28e d73a
00000130: 5eb1 debb fe76 903a f84d f7bb c31d 823a
00000140: 46fd fdbb 2a60 953a bfe5 0ebc dcfe 5f3a
00000150: 28d8 15bc c987 823a 6215 23bc d866 e739
00000160: 7af7 2cbc a90e 10b8 adc4 40bc b499 cbb9
00000170: 3299 85bc 0660 43ba d7a9 d0bc 1cff 29bb
00000180: 7341 7fbc 7863 1c80 9df5 f5ba d9c5 163a
00000190: 75f3 85ba 34af 8938 fc20 3bba a1cb bab9
000001a0: 60ef 0fba 152e 00ba ca54 dfb9 d61e 13ba
000001b0: 2c72 91b9 9e11 12ba c838 78b9 bda2 19ba
000001c0: 3523 80b9 de6d 0bba 0016 8db9 d486 d1b9
000001d0: 1443 9eb9 be30 8eb9 03d1 c3b9 25c4 d2b9
000001e0: 9e3b ccb9 e79f 41ba 3ed2 16b9 98f7 7eba
000001f0: 782a 8c3a 935b 3cba 2aaa d23a 1143 5a39
00000200: fd03 483a 5ecb a782 c563 16ba c80e c23b
00000210: cee0 3339 ab53 b43a 8898 a5b9 75be 6e39
00000220: 7e8d 63ba 5da5 a6b9 d690 b5ba c616 29ba
00000230: 6c46 41bb 9e5b 81ba 7cb4 67bb 2ac8 87ba
00000240: 6fb9 5ebb f807 8cba c805 29bb 783d 35ba
00000250: cd08 59bb fd82 123a 852c 01bc 6773 143a
00000260: f368 74bc f136 a0bb 4287 9fbc 5630 1cbc
00000270: 2a7c 8ebc 0a83 6bbc b97e 45bc 5c29 87bc
00000280: e3f4 033c 6e61 1903 8560 453a e0cd e53b
00000290: 2a0c d0ba 616d 813b 9cc5 3fbb 7869 483b
000002a0: cb06 81bb a80c 0b3b 727a a2bb 584c dc3a
000002b0: 26ba dfbb ad90 843a aaad e1bb 6ff1 973a
000002c0: 66b1 c3bb df94 d83a 3ca9 8cbb 0f08 033b
000002d0: 6f19 95bb 261d ef3a b4d3 1fbc aab4 9a3a
000002e0: b23f 97bc 3c68 dfb9 e426 c5bc 33b8 b5bb
000002f0: 644e bcbc 78cf 2fbc 6e7a b7bc ee99 5cbc
00000300: 790b 1bbc 20e5 c402 b966 32ba 162c 7fb9
00000310: ba12 0b38 2ebd 443a c71a 50b9 c55c b938
00000320: 8f44 8fb9 e14f e6b9 cd95 4eba cbef 46ba
00000330: 6ca0 65bb 907f a4ba 3b95 87bb a451 afba
00000340: 6031 99bb f3ff 9cba 03cb adbb ef64 adba
00000350: 9dc1 d3bb 33c3 a2ba 06df fbbb f102 e9ba
00000360: b86c 0ebc 8e7e 2fbb 4d0d 2dbc 9166 96bb
00000370: 7427 81bc 8a87 20bc c5ab c9bc 1ab5 8bbc
00000380: c80d 8e39 c6d6 d902 24cd e039 e64d 1d3b
00000390: e26e 2abb c7c6 dd3a c00a aebb 291a e639
000003a0: a2b9 f1bb 015d 18ba 8487 11bc 3882 95ba
000003b0: 2bdc 36bc 3f51 f6ba 31dd 49bc 2ac9 01bb
000003c0: df9c 55bc cdba c9ba f6eb 65bc 4401 b1ba
000003d0: b416 84bc f6a8 ddba a529 9fbc 1c8e 4abb
000003e0: a1f1 b8bc 8917 a4bb 9495 cfbc 7bbd 01bc
000003f0: 1fb1 f7bc c628 41bc d616 1abd 1059 38bc

convs.weight.1.tensor f4 [32, 32, 16, 2]
0.011866228 2.4896096e-38 -0.0009500598 3.7263908e-05 -0.0003798235 9.514549e-05 -0.00014640662 -0.0001641689
2.3145203e-05 -0.00033752542 0.00017119243 -0.0004383397 0.00026112923 -0.0003789476 0.00050406123 -0.00042678943
0.00050808105 -0.00016809057 0.0002926774 0.0005004832 -2.3614808e-05 0.00090556254 -0.00013848374 0.00037976
0.00041971094 -0.00095551927 0.0011471101 -0.0019946054 0.001902589 -0.00232434 0.011945377 -0.0008650523
-0.015012947 1.2029873e-37 5.0006856e-05 6.344634e-05 6.878874e-05 -1.5155914e-05 6.685516e-05 -1.0271169e-05
7.100436e-05 2.8049758e-06 6.8913345e-05 1.3645916e-05 5.2703956e-05 -1.253119e-05 4.559006e-05 -1.3099294e-05
3.703016e-05 -2.4269855e-05 3.0680458e-05 -3.7288923e-05 3.174905e-05 -2.9023013e-05 2.8035965e-05 1.6833877e-06
1.4273686e-05 2.7404085e-05 -3.3828883e-07 4.9601516e-05 -1.6680286e-05 0.00012385861 -3.6588357e-05 0.0002640196
0.010057922 1.4736799e-37 -0.000642426 -0.0006085722 -0.0006785506 -2.8115546e-05 -0.00078376645 -5.9970218e-05
-0.00085020723 -0.00014301635 -0.00082643225 -0.00017214345 2.8850518e-05 0.0008915764 2.7895445e-05 0.0010733051
-6.0456034e-05 0.001282123 -7.888124e-05 0.0014705184 0.00017210667 0.0016936441 0.0006779056 0.0020256499
0.0010165668 0.0022677872 0.0012977218 0.0023494288 0.0015219061 0.0027945272 0.001054688 0.006529506
0.011946667 -2.5450383e-37 -0.0007212581 1.21842395e-05 -0.00038904505 0.00017426437 -0.0002738696 -8.048369e-05
-0.00019425576 -0.00018196317 -0.00011444386 -0.00024972067 9.4394076e-05 4.9647995e-05 0.00014153398 5.0253362e-05
9.5980824e-05 9.301939e-05 -1.04438705e-07 0.00020563019 -5.7298388e-05 0.00026829302 -5.0882286e-06 7.756122e-05
0.00047279405 -0.00019959532 0.00094423175 -0.00023569327 0.0013365406 0.00053882657 0.00085000886 0.0027506847
0.016157197 -1.8885627e-37 9.867943e-05 4.334953e-05 -0.00041958367 1.000467e-05 -0.00048003186 4.689593e-05
-0.00050815806 5.8702217e-06 -0.00045240278 -4.0520415e-05 -0.00038898078 0.000120782315 -0.00037587504 0.0002329129
-0.00042340512 0.00023831741 -0.0005958655 -7.7998666e-05 -0.00059332326 -0.0005143388 -0.00010244406 -0.0005215259
0.00019917329 0.00030939138 0.00020559659 0.0012414783 0.00010872358 0.0019496956 -0.0011595833 0.0018823907
0.018568281 1.7932303e-37 -0.00019239902 -0.00030375464 -0.0002045647 -0.00012455802 -9.599219e-05 -6.916617e-05
-5.980364e-06 -8.267442e-06 0.00011226389 7.01226e-05 6.870264e-05 0.00030726258 3.5375917e-05 0.00040527762
-0.00021394488 0.00028147025 -0.0007949826 -0.00017635254 -0.0010256789 -0.00086641754 -0.00020948153 -0.00093868445
0.00081951125 0.0008052259 0.0009865073 0.002191956 0.0009232518 0.0026518188 -0.0009671341 0.0033930424
0.009842879 -3.4652613e-37 -0.0007580629 -0.0004467582 -0.0005346616 3.1234296e-05 -0.00050953793 -2.6411708e-05
-0.00051420147 -6.475132e-05 -0.0004852181 -9.7811164e-05 -5.8113004e-05 0.00040274678 -4.044027e-05 0.00045557093
-5.4470387e-05 0.00048068562 -5.8686554e-05 0.0004584622 2.8531862e-05 0.0004428277 0.00033188701 0.0005829755
0.0006411436 0.00083677 0.0007346498 0.0010923633 0.000567032 0.0015377495 -0.00092040625 0.0037775687
0.023854919 -1.2476404e-37 0.00061362685 -0.0005266055 -0.0001308445 -7.1345006e-05 -0.0002098456 0.00014462144
-0.00024746152 0.00028574493 -0.0002665862 0.00036556326 0.0001332191 0.0007301252 7.02462e-05 0.0008039353
-4.636469e-05 0.000673739 -0.0002237764 0.00034141963 -0.00016824187 0.00017863254 0.00038841617 0.0006790533
0.0009046195 0.0016853716 0.0008690957 0.0025089958 0.00071894994 0.0030103123 -0.0013425761 0.00630868
00000000: 916a 423c 188c 0701 6f0d 79ba d14b 1c38
00000010: 0c23 c7b9 d988 c738 ba84 19b9 c124 2cb9
00000020: f227 c237 e5f5 b0b9 1e82 3339 f5d0 e5b9
00000030: 2ce8 8839 7cad c6b9 fa22 043a b5c2 dfb9
00000040: be30 053a 7841 30b9 7f72 9939 dc32 033a
00000050: 6a18 c6b7 4663 6d3a f235 11b9 861a c739
00000060: a60c dc39 d07b 7aba a15a 963a edb7 02bb
00000070: 4b60 f93a f453 18bb 8bb6 433c adc4 62ba
00000080: ddf8 75bc fdbd 2302 74be 5138 7f0e 8538
00000090: ac42 9038 2846 7eb7 9734 8c38 5652 2cb7
000000a0: 2de8 9438 1e3d 3c36 9285 9038 c3f0 6437
000000b0: 710e 5d38 0d3d 52b7 f437 3f38 0ac5 5bb7
000000c0: d550 1b38 1e97 cbb7 e4ae 0038 ad66 1cb8
000000d0: 482a 0538 7276 f3b7 c72e eb37 c3f0 e135
000000e0: 0479 6f37 d3e1 e537 109e b5b4 390b 5038
000000f0: a4ec 8bb7 0be0 0139 7376 19b8 1c6c 8a39
00000100: fcc9 243c 4096 4802 7b68 28ba 9788 1fba
00000110: c3e0 31ba add9 ebb7 ad75 4dba 8888 7bb8
00000120: 71e0 5eba a9f6 15b9 eea4 58ba 6881 34b9
00000130: 0404 f237 aeb8 693a 0301 ea37 25ae 8c3a
00000140: 2c92 7db8 e90c a83a 0b6d a5b8 69be c03a
00000150: 8877 3439 44fd dd3a 7ab5 313a c4c0 043b
00000160: 523e 853a 289f 143b 5118 aa3a e0f8 193b
00000170: b27a c73a 6324 373b 753d 8a3a 77f5 d53b
00000180: f4bb 433c d234 ad82 d012 3dba e96a 4c37
00000190: bef8 cbb9 bcba 3639 2896 8fb9 5ac9 a8b8
000001a0: 22b1 4bb9 5ecd 3eb9 9401 f0b8 f1ec 82b9
000001b0: 6ff5 c538 213d 5038 bd68 1439 23c7 5238
000001c0: 5049 c938 6813 c338 c947 e0b3 6f9e 5739
000001d0: ad53 70b8 aea9 8c39 8dbb aab6 5da8 a238
000001e0: 58e1 f739 764a 51b9 5286 773a 6e24 77b9
000001f0: dc2e af3a 0a40 0d3a 21d3 5e3a d544 343b
00000200: 195c 843c 6787 8082 1ef2 ce38 34d2 3538
00000210: 91fb dbb9 bbd9 2737 c9ac fbb9 1fb2 4438
00000220: e935 05ba d2f8 c436 7930 edb9 77f4 29b8
00000230: 1ef0 cbb9 834c fd38 1811 c5b9 153a 7439
00000240: 79fc ddb9 d8e4 7939 db33 1cba 3793 a3b8
00000250: 4089 1bba b1d4 06ba 3cd7 d6b8 03b7 08ba
00000260: 2cd9 5039 cf35 a239 6a95 5739 19b9 a23a
00000270: 8702 e438 ee8c ff3a 29fd 97ba 8dba f63a
00000280: 821c 983c f514 7402 b8be 49b9 4241 9fb9
00000290: 6b80 56b9 ca9b 02b9 6a4f c9b8 4e0d 91b8
000002a0: f0aa c8b6 65b4 0ab7 386f eb38 c90e 9338
000002b0: 7314 9038 1618 a139 9a60 1438 717b d439
000002c0: 6456 60b9 4c92 9339 6166 50ba 46eb 38b9
000002d0: 1370 86ba 4c20 63ba 45a8 5bb9 0c12 76ba
000002e0: 78d4 563a cc15 533a b14d 813a eba6 0f3b
000002f0: 6106 723a 23ca 2d3b 4587 7dba ce5d 5e3b
00000300: 0744 213c 5ed5 eb82 bdb8 46ba df3a eab9
00000310: 8828 0cba 9201 0338 8392 05ba b68e ddb7
00000320: 7acb 06ba 1acb 87b8 df64 feb9 f81f cdb8
00000330: 5dbe 73b8 c227 d339 699e 29b8 b2d9 ee39
00000340: 2277 64b8 8804 fc39 3526 76b8 c15d f039
00000350: b557 ef37 542b e839 1f01 ae39 d3d2 183a
00000360: 6b12 283a af5a 5b3a 8395 403a a12d 8f3a
00000370: e0a4 143a 508e c93a 6b47 71ba 1691 773b
00000380: 646b c33c ecd1 2982 cddb 203a e60b 0aba
00000390: 4e33 09b9 0f9f 95b8 000a 5cb9 86a5 1739
000003a0: b9bd 81b9 09d0 9539 98c4 8bb9 12a9 bf39
000003b0: bbb0 0b39 df65 3f3a 2451 9338 2fbf 523a
000003c0: b577 42b8 dc9d 303a 85a5 6ab9 9100 b339
000003d0: 156a 30b9 4f4f 3b39 56a4 cb39 7f02 323a
000003e0: fd23 6d3a b0e7 dc3a 06d4 633a f76d 243b
000003f0: ea77 3c3a a948 453b 61f9 afba 0bb9 ce3b

convs.weight.2.tensor f4 [32, 32, 16, 2]
0.0072843176 -1.6370243e-37 0.018762557 -0.022984711 0.018405357 -0.009589882 0.025533527 -0.01610422
0.033537675 -0.015548581 0.04249571 -0.0126731135 0.046647374 -0.011793264 0.04761465 -0.011935618
0.05423079 -0.013496544 0.06705811 -0.012879188 0.07579059 -0.012535109 0.08341593 -0.012013808
0.09165328 -0.00917544 0.10125808 -0.009418478 0.0985051 -0.013072656 0.09850197 -0.015611117
0.0053251106 -2.9464681e-37 -0.0017470851 -2.834746e-05 0.0001682245 0.00075941376 -5.552621e-05 0.0012292932
-0.00035120262 0.0017410369 -0.000946547 0.002191248 -0.0008812714 0.0009745982 -0.0015363243 0.0010839491
-0.0018061488 0.001130423 -0.0017904162 0.0011131592 -0.0014206754 0.0010760763 -0.0011458455 0.0009433436
-0.001053865 0.00080355705 -0.0019590023 0.00033330388 -0.009582774 0.0032053275 -0.022713995 0.019975295
0.010335209 -2.2256458e-37 0.009288762 0.0056350315 0.0062984354 -0.004319608 0.006298596 -0.0056298557
0.006943871 -0.0066216704 0.0075210254 -0.006676618 0.006529669 -0.0039503365 0.006722947 -0.004670174
0.006667643 -0.0046718037 0.006665126 -0.0049526356 0.0072069555 -0.005180363 0.0073008346 -0.005660687
0.007523494 -0.0049423547 0.0074836724 -0.0038427175 0.006451121 -0.002680206 0.0052903704 0.0007045296
0.008951397 -3.488686e-37 0.0068752943 -0.0057855365 0.0046737576 -0.008399018 0.006305864 -0.004344441
0.011478246 -0.002772978 0.015700728 -0.0009793653 0.016718384 0.00092198816 0.018730145 0.0005455004
0.019917263 -0.0013091969 0.022062281 -0.0023889407 0.02275262 -0.003986265 0.024246037 -0.0046064835
0.025595676 -0.0012347996 0.026426788 0.0051212576 0.023829848 0.018065358 0.01066333 0.032778718
-0.006236691 -1.6183327e-37 -0.0118535245 0.0033422452 -0.00544968 -0.0029329578 -0.0067194914 -0.0039217975
-0.0073022395 -0.005391098 -0.007342436 -0.0063014077 -0.008135316 -0.0050559314 -0.00757705 -0.005085996
-0.008439528 -0.005669307 -0.009549813 -0.0067952415 -0.010460524 -0.006391683 -0.013474531 -0.0016070375
-0.018659085 0.0013697776 -0.023197597 0.002894067 -0.028489893 0.0045516873 -0.04280392 -0.013792017
-0.009973071 3.4413106e-37 0.018749792 -0.0005651767 0.01035392 0.0026062075 0.005594266 0.0055593215
-0.00071033847 0.0078795105 -0.005899726 0.0118385535 -0.010547513 0.014855488 -0.014554996 0.020617295
-0.016477376 0.026955733 -0.019882377 0.03180968 -0.029450074 0.034345116 -0.03848958 0.039787326
-0.04648986 0.043254904 -0.05175588 0.047158618 -0.05427771 0.05924147 -0.0582259 0.070992745
0.00990451 -3.4866678e-37 0.0035621175 0.001861527 0.0013436505 -0.0015457965 0.00079976826 -0.0017787527
0.00052216445 -0.003030809 0.00066956936 -0.003908245 -6.2604945e-06 -0.0019469014 0.00021032398 -0.0025374151
0.00040547267 -0.0030644448 0.00052857347 -0.0041446756 0.0009482148 -0.0041727526 0.0010908225 -0.003839519
0.0009280128 -0.0028461872 -0.0009381793 -0.00047754426 -0.0056581055 0.005045031 -0.010794284 0.008858499
0.007435271 -4.177182e-37 -0.005164137 0.006282635 -0.0041824454 0.014275862 -0.013032851 0.018711792
-0.019864647 0.02154106 -0.026547847 0.02236186 -0.03045949 0.026721282 -0.033516217 0.026397895
-0.036218856 0.027240485 -0.039390296 0.026754687 -0.04204939 0.02749934 -0.04621341 0.030474674
-0.051279075 0.031766493 -0.05793546 0.03943855 -0.06549409 0.054923654 -0.07591276 0.071200565
00000000: 49b1 ee3b f9d1 5e82 efb3 993c 6f4a bcbc
00000010: d5c6 963c e11e 1dbc b02b d13c ffec 83bc
00000020: cd5e 093d 7abf 7ebc fb0f 2e3d e4a2 4fbc
00000030: 5111 3f3d 8938 41bc 9407 433d 9c8d 43bc
00000040: 1b21 5e3d 9c20 5dbc c355 893d 3b03 53bc
00000050: 1938 9b3d 0f60 4dbc f9d5 aa3d 90d5 44bc
00000060: b7b4 bb3d 9654 16bc 6560 cf3d f64f 1abc
00000070: 0bbd c93d b12e 56bc 67bb c93d c5c5 7fbc
00000080: 447e ae3b b786 c882 73fe e4ba b5cb edb7
00000090: 6c65 3039 6513 473a d0e4 68b8 3c20 a13a
000000a0: 9e21 b8b9 8133 e43a b221 78ba 0a9b 0f3b
000000b0: 1f05 67ba 2e7c 7f3a 7d5e c9ba 4c13 8e3a
000000c0: 4cbc ecba b42a 943a 66ac eaba 6de7 913a
000000d0: f535 baba 210b 8d3a 3230 96ba b84a 773a
000000e0: d721 8aba cda5 523a 9b62 00bb 4abf ae39
000000f0: 1101 1dbc 7910 523b b312 babc 3ba3 a33c
00000100: 0255 293c 3878 9782 e42f 183c 12a6 b83b
00000110: 1b63 ce3b 808b 8dbb 7464 ce3b a77a b8bb
00000120: 6989 e33b 99fa d8bb ef72 f63b 88c7 dabb
00000130: d5f6 d53b d371 81bb 2b4c dc3b 4208 99bb
00000140: 3e7c da3b ee15 99bb 2167 da3b b849 a2bb
00000150: 5328 ec3b 09c0 a9bb d73b ef3b 497d b9bb
00000160: a487 f63b 7af3 a1bb 9839 f53b 1ad6 7bbb
00000170: ed63 d33b 65a6 2fbb d85a ad3b 2eb0 383a
00000180: e1a8 123c 7c6d ed82 264a e13b 9994 bdbb
00000190: 5226 993b 099c 09bc 6ca1 ce3b d05b 8ebb
000001a0: 410f 3c3c daba 35bb d09e 803c 0c5e 80ba
000001b0: fef4 883c 94b1 713a f66f 993c eaff 0e3a
000001c0: 8729 a33c 5c99 abba f5bb b43c c68f 1cbb
000001d0: b463 ba3c 379f 82bb a09f c63c fcf1 96bb
000001e0: 06ae d13c 00d9 a1ba fe7c d83c 39d0 a73b
000001f0: d036 c33c cdfd 933c 3fb5 2e3c fa42 063d
00000200: 285d ccbb aa46 5c82 4935 42bc 9209 5b3b
00000210: 3b93 b2bb de36 40bb 2e2f dcbb 6c82 80bb
00000220: a047 efbb cfa7 b0bb d198 f0bb 0a7c cebb
00000230: fd49 05bc 3aac a5bb e748 f8bb 6da8 a6bb
00000240: f245 0abc 98c5 b9bb d276 1cbc 9eaa debb
00000250: 9e62 2bbc 5371 d1bb 47c4 5cbc 3ba3 d2ba
00000260: f0da 98bc 1c8a b33a e308 bebc 63aa 3d3b
00000270: a363 e9bc 5226 953b 2a53 2fbd e9f7 61bc
00000280: 1766 23bc 1634 ea02 2a99 993c 5e28 14ba
00000290: 7da3 293c e8cc 2a3b 1b50 b73b f82a b63b
000002a0: 0236 3aba 1019 013c 7d52 c1bb 7ef6 413c
000002b0: 7acf 2cbc 6f64 733c 1478 6ebc 9ae5 a83c
000002c0: 90fb 86bc 45d2 dc3c 5ee0 a2bc de4a 023d
000002d0: 4841 f1bc 77ad 0c3d 40a7 1dbd 09f8 223d
000002e0: 276c 3ebd 0e2c 313d f9fd 53bd 6529 413d
000002f0: 4e52 5ebd 2fa7 723d 487e 6ebd a564 913d
00000300: 8746 223c 524a ed82 6a72 693b 7bfe f33a
00000310: 6e1d b03a 539c caba 8aa7 513a 0925 e9ba
00000320: dde1 083a 8aa0 46bb 0a86 2f3a bc10 80bb
00000330: 3d11 d2b6 2c2f ffba 6a8a 5c39 c34a 26bb
00000340: 9f95 d439 dad4 48bb f78f 0a3a 0fd0 87bb
00000350: 9e91 783a 96bb 88bb eef9 8e3a 71a0 7bbb
00000360: e345 733a 1987 3abb 26f0 75ba e85e fab9
00000370: a167 b9bb ca50 a53b 82da 30bc 3d23 113c
00000380: 93a3 f33b 6324 0e83 ec37 a9bb 90de cd3b
00000390: e50c 89bb 4ee5 693c bd87 55bc 7949 993c
000003a0: 2fbb a2bc e176 b03c df7a d9bc 3830 b73c
000003b0: 2e86 f9bc 97e6 da3c 4d48 09bd 6640 d83c
000003c0: 395a 14bd 7027 df3c b857 21bd a52c db3c
000003d0: fb3b 2cbd 4c46 e13c 464a 3dbd 06a6 f93c
000003e0: 020a 52bd 951d 023d bc4d 6dbd 518a 213d
000003f0: c421 86bd a0f7 603d 2678 9bbd 9ad1 913d

convs.weight.3.tensor f4 [32, 32, 16, 2]
0.004375093 -3.4893697e-37 0.033817533 -0.020366302 0.03139205 -0.017157689 0.04002015 -0.023044566
0.046967424 -0.024835309 0.05348664 -0.024741847 0.05662917 -0.026752656 0.059262387 -0.025620995
0.06124416 -0.025438393 0.064123504 -0.02393378 0.068290405 -0.023777189 0.07688418 -0.027302267
0.088444985 -0.027409125 0.09845637 -0.026122876 0.10393908 -0.040541712 0.10738931 -0.06235371
-0.009373407 -1.3354031e-37 0.0044539636 -0.0015549491 0.0016399969 0.0058085583 -0.002430116 0.008989038
-0.0059638317 0.011029805 -0.009126547 0.012736612 -0.008688637 0.011898893 -0.009288768 0.012565394
-0.009265998 0.012795402 -0.009489845 0.012651958 -0.009172747 0.012303388 -0.009147747 0.012365623
-0.010449851 0.013208865 -0.013368537 0.016122846 -0.018486919 0.023659902 -0.024477232 0.03372299
0.008919873 2.5752947e-37 0.007896374 0.011290869 0.006239959 -0.008269896 0.006395323 -0.011884778
0.008310995 -0.014320561 0.010185566 -0.015610992 0.009638308 -0.013580522 0.009881147 -0.014944867
0.01024883 -0.014751876 0.010675146 -0.013996949 0.010893349 -0.013985966 0.011456044 -0.015563091
0.012300357 -0.0148816835 0.013044677 -0.01537308 0.01341435 -0.017706448 0.013539043 -0.019770047
0.010325648 -1.1909905e-37 0.00961488 0.0009920042 0.0076194108 -0.009941061 0.013513536 -0.012613594
0.020303588 -0.014005755 0.025823152 -0.015206244 0.025752375 -0.017007265 0.027272893 -0.019248234
0.028113186 -0.021098033 0.029603828 -0.02126702 0.030427288 -0.021266045 0.03183323 -0.0219626
0.034238227 -0.021295147 0.03642477 -0.022593705 0.03644097 -0.029289858 0.03691714 -0.03644602
-0.011241593 1.189978e-37 -0.0055276193 -0.013335463 0.0011232345 -0.0038932348 0.007426548 -0.0016629421
0.010287436 0.0014054575 0.012240586 0.00433177 0.013410997 0.0015127256 0.014093265 0.0028771402
0.014603809 0.0027735794 0.015266588 0.0038081764 0.015734404 0.0040062536 0.016786138 0.0033335916
0.017854735 0.0034734937 0.019038832 0.0020816654 0.019152034 -0.0002956821 0.018075075 -0.0027714677
-0.0108741 -3.0884273e-37 0.016517026 -0.003457708 0.0064025307 0.0010876284 0.0008729982 0.004405324
-0.0039517586 0.005912168 -0.008115309 0.0067034573 -0.009761197 0.0057314322 -0.012856598 0.0055711213
-0.014841057 0.005401088 -0.01688655 0.004212149 -0.01888753 0.0030188304 -0.020914907 0.0024637044
-0.02263029 0.0006152957 -0.024245158 -0.00039962446 -0.025703674 0.004182421 -0.023643974 0.007224636
0.010197617 -2.5092646e-37 0.0013194142 0.0049833036 -0.000478969 -0.008098758 0.0007881381 -0.012027205
0.0029643674 -0.014839442 0.005240831 -0.017414574 0.004732542 -0.016546287 0.005606151 -0.017880552
0.0060691205 -0.018393701 0.0069118235 -0.018703625 0.007705293 -0.018529361 0.008326438 -0.018026773
0.00946312 -0.017890453 0.01031647 -0.017657854 0.010226662 -0.018358693 0.012324611 -0.020559853
-0.00013075437 2.4891964e-37 -0.019353153 0.016738396 -0.019716486 0.02085018 -0.031026259 0.023979677
-0.038395923 0.022113703 -0.044810418 0.017200826 -0.047526248 0.019400613 -0.04981583 0.016927423
-0.051492136 0.016465023 -0.05381148 0.012917439 -0.055402625 0.0117624635 -0.05823837 0.014214942
-0.06234404 0.014013632 -0.06727049 0.02066789 -0.071541086 0.03675303 -0.07671163 0.056319796
00000000: f15c 8f3b 6579 ed82 4184 0a3d 3bd7 a6bc
00000010: f394 003d 488e 8cbc 2bec 233d f5c7 bcbc
00000020: ea60 403d 6b73 cbbc cf14 5b3d 6aaf cabc
00000030: fdf3 673d 6328 dbbc 1ebd 723d 1fe3 d1bc
00000040: 28db 7a3d 2d64 d0bc 2f53 833d c610 c4bc
00000050: d7db 8b3d 61c8 c2bc 7475 9d3d 01a9 dfbc
00000060: a522 b53d 1a89 e0bc 7ea3 c93d a4ff d5bc
00000070: 03de d43d 110f 26bd edee db3d 9b66 7fbd
00000080: eb92 19bc 02c4 3582 8ef2 913b 6fcf cbba
00000090: 2af5 d63a b855 be3b 9542 1fbb c246 133c
000000a0: 3f6c c3bb 5bb6 343c 8387 15bc 39ad 503c
000000b0: c95a 0ebc 93f3 423c eb2f 18bc 15df 4d3c
000000c0: 6ad0 17bc cea3 513c 4b7b 1bbc 284a 4f3c
000000d0: 4a49 16bc 2694 493c 6fe0 15bc 2f99 4a3c
000000e0: da35 2bbc ff69 583c b507 5bbc 0f14 843c
000000f0: e171 97bc 69d2 c13c 7a84 c8bc 1e21 0a3d
00000100: a924 123c f643 af02 cb5f 013c 56fd 383c
00000110: 9278 cc3b 757e 07bc dc8f d13b 5fb8 42bc
00000120: d72a 083c c9a0 6abc 5ce1 263c 3fc5 7fbc
00000130: fee9 1d3c d680 5ebc 89e4 213c 51db 74bc
00000140: b5ea 273c dab1 71bc cfe6 2e3c 7653 65bc
00000150: 047a 323c 6525 65bc 22b2 3b3c 56fc 7ebc
00000160: 7087 493c 4ed2 73bc 57b9 553c 5fdf 7bbc
00000170: ddc7 5b3c 1d0d 91bc ddd2 5d3c cbf4 a1bc
00000180: e82c 293c f61b 2282 bb87 1d3c 2306 823a
00000190: 40ac f93b d5df 22bc e167 5d3c 3fa9 4ebc
000001a0: b653 a63c 6578 65bc 138b d33c 9c23 79bc
000001b0: a5f6 d23c d252 8bbc 676b df3c 79ae 9dbc
000001c0: a04d e63c c8d5 acbc ba83 f23c 2c38 aebc
000001d0: a642 f93c 2136 aebc 9063 023d e9ea b3bc
000001e0: 623d 0c3d 2973 aebc 2432 153d 6f16 b9bc
000001f0: 2043 153d 49f1 efbc 6d36 173d 6c48 15bd
00000200: a92e 38bc aef8 2102 0821 b5bb fc7c 5abc
00000210: 7f39 933a a425 7fbb 665a f33b 14f7 d9ba
00000220: a28c 283c 5437 b83a bd8c 483c 85f1 8d3b
00000230: ccb9 5b3c a646 c63a 70e7 663c 678e 3c3b
00000240: d144 6f3c f1c4 353b b620 7a3c 9992 793b
00000250: 70e5 803c e446 833b 1583 893c 6378 5a3b
00000260: 1844 923c 8ea3 633b 53f7 9b3c 8d6c 083b
00000270: bae4 9c3c c805 9bb9 2e12 943c 83a1 35bb
00000280: 4829 32bc fe2f d282 b74e 873c b79a 62bb
00000290: 52cc d13b c18e 8e3a ebd9 643a 895a 903b
000002a0: c17d 81bb dcba c13b 13f6 04bc ada8 db3b
000002b0: 6ded 1fbc bdce bb3b 7ba4 52bc f48d b63b
000002c0: e827 73bc 9cfb b03b a955 8abc 1106 8a3b
000002d0: 05ba 9abc 92d7 453b bd55 abbc 1a76 213b
000002e0: 2863 b9bc cc4b 213a c89d c6bc b084 d1b9
000002f0: 8390 d2bc b10c 893b 02b1 c1bc a4bc ec3b
00000300: e813 273c 8ec5 aa82 32f0 ac3a fb4a a33b
00000310: 221e fbb9 a7b0 04bc 0d9b 4e3a c10d 45bc
00000320: d545 423b 2221 73bc 47bb ab3b 02a9 8ebc
00000330: 7113 9b3b 148c 87bc ceb3 b73b 3c7a 92bc
00000340: 79df c63b 63ae 96bc 947c e23b 5838 99bc
00000350: af7c fc3b e3ca 97bc 9d6b 083c e2ac 93bc
00000360: 340b 1b3c 008f 92bc 6906 293c 34a7 90bc
00000370: bb8d 273c f864 96bc 2aed 493c 236d a8bc
00000380: 1c1b 09b9 eb67 a902 818a 9ebc f61e 893c
00000390: 7884 a1bc ffcd aa3c c82a febc 0771 c43c
000003a0: 0b45 1dbd cc27 b53c 218b 37bd bfe8 8c3c
000003b0: e2aa 42bd 09ee 9e3c af0b 4cbd 61ab 8a3c
000003c0: 6be9 52bd a8e1 863c 6d69 5cbd aba3 533c
000003d0: dded 62bd 59b7 403c 5b8b 6ebd cae5 683c
000003e0: 775c 7fbd 6f99 653c 1cc5 89bd b54f a93c
000003f0: 2284 92bd 588a 163d fd1a 9dbd 96af 663d

convs_bc.bias f4 [4, 32, 1]
0.0019351542 -0.003890727 0.003990192 0.0045939465 -0.0071920776 -0.013664336 0.0033917087 -0.009253914
0.004404842 0.00025513 -0.009417563 0.008931997 0.00617415 0.0034320042 0.0013374079 -0.012908697
0.0005093147 0.0074556186 -0.014761585 0.005803109 0.0071557583 0.0032331557 0.0059411456 -0.0054186275
0.0070868805 0.0006143447 -0.0026041337 -0.005400689 0.0036599669 0.006882776 0.0059017786 -0.006928508
0.00026494963 -0.0032925934 0.005522337 0.0028755323 -0.0047090934 -0.010739961 0.002217693 -0.009627036
0.0069333003 0.0008036252 -0.008853771 0.006182836 0.005202214 0.00462716 1.7411492e-05 -0.016155023
0.004291456 0.006701157 -0.015275257 0.004692186 0.008700796 0.0023230088 0.0052099996 -0.0022482981
0.0076257135 0.00037173528 -0.0027513998 -0.003501355 0.006045487 0.0066979695 0.0047222865 -0.00534342
0.0034192689 -0.00470534 0.0052669896 0.0020829889 -0.0074646873 -0.011185774 0.0037762688 -0.011232594
0.008713572 -0.0028585254 -0.010272527 0.006194337 0.007587342 0.0038846985 -0.00046637913 -0.017206624
0.004437437 0.006800295 -0.014514894 0.007112795 0.0070470176 0.0015161947 0.004768013 -0.00541163
0.0052404795 0.0012985137 -0.0042989706 -0.0048084017 0.005130651 0.007202524 0.0069427458 -0.0022927667
0.008679079 -0.0066015245 0.004368906 0.00079774036 -0.0066665686 -0.007047597 0.0021143302 -0.009972888
0.003215831 -0.005827642 -0.01190664 0.006532459 0.0074984375 0.002047892 0.00086617615 -0.012460316
0.0045716264 0.0074277758 -0.014406212 0.0065307477 0.0020005198 0.009175754 0.0050765434 -0.0053637074
0.0062537473 0.00095815916 -0.007868182 -0.0047278586 0.0049310136 0.0075450754 0.007618118 -0.0049485085
00000000: 00a5 fd3a 91fb 7ebb 28c0 823b d188 963b
00000010: 85ab ebbb 61e0 5fbc 6e47 5e3b ba9d 17bc
00000020: 7e56 903b f8c2 8539 1f4c 1abc 8357 123c
00000030: 8650 ca3b 7aeb 603b f64b af3a 007f 53bc
00000040: 8883 053a 434e f43b 93da 71bc 0228 be3b
00000050: da7a ea3b 5ae3 533b f1ad c23b be8e b1bb
00000060: 1039 e83b fa0b 213a 1daa 2abb 43f8 b0bb
00000070: 0edc 6f3b e988 e13b b563 c13b 8a08 e3bb
00000080: f0e8 8a39 8dc8 57bb b8f4 b43b 6d73 3c3b
00000090: bd4e 9abb a9f6 2fbc b756 113b b7ba 1dbc
000000a0: bd30 e33b 60aa 523a 680f 11bc 6399 ca3b
000000b0: 5577 aa3b 6e9f 973b e50e 9237 8a57 84bc
000000c0: 589f 8c3b 6195 db3b 1245 7abc e9c0 993b
000000d0: c98d 0e3c 9f3d 183b a5b8 aa3b 2f58 13bb
000000e0: 1fe1 f93b 77e5 c239 d450 34bb fd76 65bb
000000f0: 3819 c63b a47a db3b 69bd 9a3b db17 afbb
00000100: d015 603b 412f 9abb b696 ac3b c182 083b
00000110: 569a f4bb 8944 37bc 477b 773b ea08 38bc
00000120: 5fc3 0e3c 1956 3bbb 1a4e 28bc ddf9 ca3b
00000130: 3d9f f83b 6d96 7e3b 5984 f4b9 e8f4 8cbc
00000140: eb67 913b 02d5 de3b e1cf 6dbc 7312 e93b
00000150: abea e63b 0dbb c63a fe3c 9c3b 0b54 b1bb
00000160: 54b8 ab3b e432 aa3a 61de 8cbb cc8f 9dbb
00000170: 051f a83b 2703 ec3b f97f e33b 3e42 16bb
00000180: b232 0e3c 9a51 d8bb 0a29 8f3b 731f 513a
00000190: 3b73 dabb 87ef e6bb 9390 0a3b 5365 23bc
000001a0: b1c0 523b cef5 bebb 1114 43bc 3d0e d63b
000001b0: 74b5 f53b ed35 063b 1910 633a 5a26 4cbc
000001c0: 95cd 953b b364 f33b 0808 6cbc e2ff d53b
000001d0: 271b 033b e755 163c 2259 a63b 0ac2 afbb
000001e0: 3cec cc3b f92c 7b3a 8ce9 00bc 27ec 9abb
000001f0: 5794 a13b ae3c f73b 68a1 f93b 1927 a2bb

convs_bc.bias_bc f4 [4, 32, 1]
-0.0019646655 5.5579996e-05 0.0003847595 0.00039727605 2.9874858e-05 -0.0009590758 -0.00041000638 0.00053809816
-0.00091149966 0.0013070551 -0.0012297957 0.0011868686 0.00053173467 -8.343009e-06 0.0013309899 0.000114752205
-0.00019887467 -0.00018116862 -0.00039470417 0.0001974365 -0.00017748248 -0.00021346247 0.0010806656 0.0012921038
-0.0011258811 0.00018558177 -1.0224455e-05 -0.0018795365 0.00024728588 7.609144e-05 -0.0012165785 -3.2883814e-05
0.0002541384 -0.0017346813 -2.2349066e-06 0.0005183072 0.00031192377 0.001509793 0.0007250963 0.000973901
0.00023175044 -0.00039007099 0.00013218293 -0.0005677594 0.000115682524 -0.0010734346 0.001364018 -8.978643e-06
-0.0006760128 0.00047303236 -0.00032520536 -0.0009509627 0.0010654214 0.0007299103 -0.0017266445 0.0014170235
0.0017877885 0.0014298648 0.0014326589 -0.0013547678 0.0005723068 0.00053082494 0.0017394227 -0.00030949022
-0.00012099435 -0.0012163494 0.00086664455 -0.0023793068 -0.00043058489 -7.868115e-05 -0.001383902 0.00043229095
0.0005360066 0.00070014014 0.0023695782 -0.0012357975 0.0009465224 0.00016311348 0.0006968633 -0.0003155892
0.00022158862 -0.000953356 -2.371097e-05 0.00032020273 0.00041756133 0.0014307181 0.00036777748 1.2283843e-06
0.0001650117 -0.0006860691 0.0017262865 0.0005656988 0.0004685076 0.0008321033 -0.0018936046 -0.0013190347
-0.0016219503 -0.0012933584 0.0006678035 -0.0016987795 0.00030448896 0.00027222483 0.0012444395 -0.000613395
0.00095001335 -0.0014549401 -0.0015356465 0.002778654 -0.00033519667 -0.0012128314 0.0021070438 -0.0008715076
-0.0006247008 7.435866e-05 0.00013384316 -0.0011238371 -5.8412214e-05 0.0014822633 2.8057824e-05 0.0009379084
0.0008792648 -0.00026048368 0.0002259863 0.00023311803 -0.0010865511 -0.0013269931 -0.00070752256 -0.0026994816
00000000: 9ec1 00bb 911e 6938 8cb9 c939 7d49 d039
00000010: c59b fa37 7d6a 7bba 20f6 d6b9 280f 0d3a
00000020: b5f1 6eba 7e51 ab3a 1931 a1ba b490 9b3a
00000030: 1c64 0b3a f3f8 0bb7 9c74 ae3a 1fa7 f038
00000040: 0389 50b9 15f8 3db9 4cf0 ceb9 f506 4f39
00000050: 971a 3ab9 e5d4 5fb9 1fa5 8d3a cf5b a93a
00000060: 4d92 93ba ba98 4239 b389 2bb7 c85a f6ba
00000070: 26a6 8139 4893 9f38 9a75 9fba baec 09b8
00000080: e13d 8539 3f5e e3ba 67fb 15b6 02df 073a
00000090: b389 a339 3fe4 c53a 6414 3e3a 644d 7f3a
000000a0: 0902 7339 7182 ccb9 969a 0a39 b0d5 14ba
000000b0: 959a f238 7db2 8cba d9c8 b23a faa2 16b7
000000c0: 7336 31ba 5401 f839 5380 aab9 074a 79ba
000000d0: 9ca5 8b3a 7357 3f3a 9350 e2ba 6bbb b93a
000000e0: 3a54 ea3a 4d6a bb3a 0ec8 bb3a 7792 b1ba
000000f0: dc06 163a 0f27 0b3a 57fd e33a 1343 a2b9
00000100: 59be fdb8 ea6d 9fba 882f 633a 25ee 1bbb
00000110: 20c0 e1b9 9f01 a5b8 0c64 b5ba 1ca5 e239
00000120: cb82 0c3a 9c89 373a ed4a 1b3b 7cfa a1ba
00000130: 0b20 783a 7109 2b39 b4ad 363a aa75 a5b9
00000140: 3e5a 6839 a3ea 79ba ece6 c6b7 e2e0 a739
00000150: 22ec da39 ef86 bb3a 42d2 c039 f7de a435
00000160: fe06 2d39 51d9 33ba 9044 e23a 674b 143a
00000170: 07a2 f539 8221 5a3a d432 f8ba 76e3 acba
00000180: 9f97 d4ba e885 a9ba 890f 2f3a 95a9 deba
00000190: d1a3 9f39 66b9 8e39 761c a33a 3ecc 20ba
000001a0: 510a 793a b0b3 beba bf47 c9ba 141a 363b
000001b0: 56bd afb9 def7 9eba 5416 0a3b e375 64ba
000001c0: f6c2 23ba 00f1 9b38 4058 0c39 b74d 93ba
000001d0: a3ff 74b8 8148 c23a b85d eb37 f8dd 753a
000001e0: 767e 663a 8791 88b9 bcf6 6c39 2571 7439
000001f0: 9b6a 8eba 80ee adba 0979 39ba c9e9 30bb

convs_bc.weight.0.tensor f4 [32, 32, 6, 2]
-0.0037926813 -3.6578921e-37 -0.0006093966 0.0001793493 -8.63752e-05 -0.00010282477 -4.9221635e-05 -0.00014591611
-6.095359e-06 -0.00014545358 3.321287e-05 -0.00011954116 0.0038109112 -1.4906969e-37 0.0009908394 0.00015173208
0.0008041666 0.0001230502 0.00086559384 0.00013357968 0.00088226266 0.00014395757 0.0008635517 0.00015293257
-0.004592579 3.0259765e-37 -0.018573275 -0.022095295 -0.0076681026 -0.024222849 -0.0053527807 -0.026174754
-0.0038023468 -0.026971495 -0.0031399115 -0.026917847 -0.0048849266 2.6261513e-37 -0.006400552 -0.0026138404
-0.0048591103 -0.0030852838 -0.004525623 -0.0034680325 -0.00437411 -0.003506482 -0.004200167 -0.0034873278
0.008473728 -2.4743716e-37 -0.00036628186 -0.0013511254 -3.5119338e-05 -0.00041501722 0.00022644394 -0.0005546987
0.00047760064 -0.0005800943 0.000643566 -0.00057846354 0.014533307 -1.3318999e-37 -0.0014125006 -0.0044785184
0.00017168986 -0.0034688963 0.00043131982 -0.0033693365 0.0007368611 -0.003280724 0.0007214262 -0.0031673978
-0.0032588972 -8.7589e-38 -0.013201742 -0.012625835 -0.009124678 -0.012632402 -0.0077404254 -0.013984344
-0.0069636786 -0.014668674 -0.0063929996 -0.014930767 0.008956006 -3.5040457e-37 -0.00022796978 -0.003714739
0.00028734605 -0.0038501432 0.00071416807 -0.004246157 0.0009361731 -0.004564574 0.00093212724 -0.0046714623
-0.0042310855 3.3693538e-37 0.0015780602 0.0020107026 0.0018519358 0.0020613996 0.002300356 0.0024136405
0.0026282198 0.0026587723 0.0028040635 0.0027905516 0.00018376441 1.6501761e-37 -0.0029158145 0.008654728
-0.0043837517 0.007875414 -0.005775941 0.008451866 -0.00651649 0.008516982 -0.006707374 0.0084795235
0.007977845 4.6194533e-37 0.0008316345 -0.0049987673 0.0016904162 -0.0044583627 0.002048561 -0.0046884
0.0021494457 -0.0047849515 0.002181872 -0.004862438 -0.008398489 -2.9121906e-37 -0.0007425618 -0.0012509857
-0.0002758809 -0.0013832211 -7.6141565e-05 -0.0014490125 4.400297e-05 -0.0014566032 9.866896e-05 -0.0014307296
-0.0055911154 3.4316862e-37 -0.0045612627 -0.004519163 -0.00031530316 -0.0055219093 0.0003120454 -0.0058361464
0.0007405941 -0.0058974754 0.0009023237 -0.005931822 -0.004475141 -4.4042784e-37 -0.0053824116 -0.012505436
-0.0021759851 -0.012690878 -0.0015876979 -0.013696417 -0.0013435505 -0.014384665 -0.0013738504 -0.014715627
-0.0007732192 -2.9715556e-37 -0.0032982714 -0.0037691002 -0.0018842237 -0.0042566704 -0.0011750233 -0.004583065
-0.0008668602 -0.004767636 -0.0007183674 -0.0048026564 0.013217768 2.1826244e-37 -0.0027619668 -0.0014170329
-0.0017135506 -0.0018293753 -0.0013857668 -0.0020448286 -0.0011146468 -0.00215845 -0.0010750872 -0.0021605939
-0.00053474825 -1.9964479e-38 0.0006353831 0.000112097856 0.00042769228 0.00019135221 0.00043418893 0.00022551013
0.00039026284 0.00021876345 0.00033688717 0.00018625506 -0.007206977 -5.0927e-39 -0.007770395 -0.007021029
-0.002336039 -0.008113919 -0.001953661 -0.008772873 -0.0017645791 -0.00923395 -0.0018482704 -0.009474734
0.0146038495 1.7109091e-37 0.000754738 -0.0034182027 0.0016263343 -0.0030462835 0.0019672043 -0.0030494598
0.0020582373 -0.0030379584 0.0019443727 -0.0030699037 -0.0053174626 3.3684686e-37 -0.010816075 -0.01083271
-0.0072013093 -0.0108177075 -0.005951095 -0.011790823 -0.0049992716 -0.012289481 -0.004494574 -0.012339417
-0.0066243093 1.0927422e-37 -0.007003788 -7.62373e-05 -0.0068104756 0.006059992 -0.0047600856 0.009010985
-0.0053429757 0.009500777 -0.005433643 0.009709549 -0.0022392545 -3.353701e-37 0.00030678883 0.000105073486
00000000: a28e 78bb 78f1 f882 eabf 1fba b60f 3c39
00000010: 5524 b5b8 a1a3 d7b8 5473 4eb8 0f01 19b9
00000020: bc86 ccb6 e684 18b9 0c4e 0b38 2cb2 fab8
00000030: 7bc0 793b 35e7 4a82 0edf 813a 451a 1f39
00000040: b5ce 523a 0907 0139 05e9 623a 8611 0c39
00000050: a547 673a 51f3 1639 f95f 623a 865c 2039
00000060: 587d 96bb f2ef cd02 fb26 98bc 3101 b5bc
00000070: b544 fbbb ff6e c6bc 6166 afbb 706c d6bc
00000080: cb30 79bb 53f3 dcbc f9c6 4dbb d182 dcbc
00000090: bc11 a0bb 02ba b202 b9bb d1bb f74c 2bbb
000000a0: 2c39 9fbb 7932 4abb ad4b 94bb ee47 63bb
000000b0: b254 8fbb 02cd 65bb 8ea1 89bb a78b 64bb
000000c0: 64d5 0a3c a265 a882 8509 c0b9 3f18 b1ba
000000d0: 1a4d 13b8 ab96 d9b9 9571 6d39 3369 11ba
000000e0: 7966 fa39 7811 18ba fcb4 283a 08a4 17ba
000000f0: 1c1d 6e3c f049 3582 a823 b9ba 89c0 92bb
00000100: a507 3439 6c56 63bb c422 e239 16d0 5cbb
00000110: e929 413a 6a01 57bb 181e 3d3a 1e94 4fbb
00000120: 3993 55bb a070 ee81 1f4c 58bc 97dc 4ebc
00000130: ac7f 15bc 22f8 4ebc 65a3 fdbb 971e 65bc
00000140: 922f e4bb e154 70bc 5e7c d1bb 2da0 74bc
00000150: 36bc 123c 1679 ee82 2c0b 6fb9 fb72 73bb
00000160: efa6 9639 af52 7cbb 0237 3b3a 5923 8bbb
00000170: 8369 753a 6c92 95bb 005a 743a 1113 99bb
00000180: eba4 8abb 6c4e e502 ead6 ce3a fec5 033b
00000190: a7bc f23a 8c18 073b 92c1 163b 2b2e 1e3b
000001a0: 363e 2c3b cc3e 2e3b 61c4 373b b0e1 363b
000001b0: e2b0 4039 3f9c 6002 4017 3fbb 8fcc 0d3c
000001c0: 93a5 8fbb e107 013c 1b44 bdbb b279 0a3c
000001d0: 4888 d5bb d08a 0b3c 88c9 dbbb b3ed 0a3c
000001e0: 82b5 023c 1d31 1d03 0c02 5a3a b3cc a3bb
000001f0: f590 dd3a 7517 92bb 2641 063b 26a1 99bb
00000200: b7dd 0c3b 15cb 9cbb bdfd 0e3b 1655 9fbb
00000210: d199 09bc 8431 c682 7ba8 42ba 1df8 a3ba
00000220: 1ca4 90b9 334d b5ba 31ae 9fb8 cbec bdba
00000230: d48f 3838 7eeb beba 7fec ce38 5287 bbba
00000240: ad35 b7bb 688c e902 a576 95bb 7d15 94bb
00000250: 464f a5b9 22f1 b4bb 069a a339 253d bfbb
00000260: 6e24 423a 9c3f c1bb eb89 6c3a bb5f c2bb
00000270: 34a4 92bb adde 1583 f15e b0bb 9ae3 4cbc
00000280: f99a 0ebb 66ed 4fbc 4d1a d0ba f066 60bc
00000290: 131a b0ba a8ad 6bbc c512 b4ba d019 71bc
000002a0: ddb1 4aba cd3b ca82 d027 58bb 0203 77bb
000002b0: 0ef8 f6ba 8a7b 8bbb 3d03 9aba 892d 96bb
000002c0: 013e 63ba d439 9cbb d250 3cba 9a5f 9dbb
000002d0: 568f 583c ae8a 9402 1d02 35bb bcbb b9ba
000002e0: 3899 e0ba a6c7 efba 9ea2 b5ba 8802 06bb
000002f0: 5719 92ba c874 0dbb f1e9 8cba c098 0dbb
00000300: 592e 0cba d864 d980 d78f 263a 1416 eb38
00000310: e33b e039 b8a5 4839 daa3 e339 ea76 6c39
00000320: 319c cc39 de63 6539 3ba0 b039 764d 4339
00000330: 8128 ecbb 6074 3780 cc9e febb a910 e6bb
00000340: 3b18 19bb 3ef0 04bc fe08 00bb 19bc 0fbc
00000350: 7349 e7ba fe49 17bc aa41 f2ba ea3b 1bbc
00000360: fc44 6f3c 7be0 6802 9cd9 453a ed03 60bb
00000370: b92a d53a 28a4 47bb 36ec 003b 72d9 47bb
00000380: 7ee3 063b 7c18 47bb 52da fe3a 7030 49bb
00000390: 1c3e aebb 003f e502 e835 31bc ae7b 31bc
000003a0: f6f8 ebbb c13c 31bc 6701 c3bb 4c2e 41bc
000003b0: eed0 a3bb d259 49bc 3847 93bb 442b 4abc
000003c0: bc10 d9bb 82bc 1402 0880 e5bb 97e1 9fb8
000003d0: 692a dfbb e692 c63b 7efa 9bbb cfa2 133c
000003e0: 2114 afbb 26a9 1b3c b30c b2bb cd14 1f3c
000003f0: 75c0 12bb b63d e482 80d8 a039 e65a dc38
