neuraloperator/examples/para/fno_para_202305121522_004_modes32_epochs250.pth (torch, 746319 bytes, 31 tensors)

convs.bias f4 [4, 32, 1]
00000000: e573 b43a 687b efbb 9be9 1a3c ad44 cd3b
00000010: c092 72b9 9a3c 2f3c 95c3 b9bb f6d7 b938
00000020: ed9c 8dbc 5a21 f83b f32d aeba c30c fd3a
00000030: b6f1 3938 9bde d6b5 1fa6 3139 8d6e 913c
00000040: 9986 9f3c 5975 0c3c 5acf 003d 347b 5b3c
00000050: 5360 a13b 4157 503c 1642 b839 7670 213c
00000060: 11fd 7e36 602d 4234 045b c438 f268 473c
00000070: eb2a 9c3c ab02 0cbc d16f 0e3a 2ae1 dab8
00000080: 5740 733b bacd 0dbc 59b9 4438 876d 323c
00000090: 6486 2d3b 208c 673c 33d4 08bc 6137 803a
000000a0: 8385 91bc 7d71 2b3b ad8c 92bb 2c77 8e3a
000000b0: 3b1f 5f3c dab3 8d3a a1d2 723b 35c0 653c
000000c0: abb4 2b3c 958e a6ba 141b eab9 54dc 763c
000000d0: 9365 673c b4ff 263c 2e1c 623c 1b54 563c
000000e0: 147a 4e3c cd2d 303b 3606 d93b ec4b 3e3c
000000f0: cad1 333b a397 08bc c66d 963a 896b 7b3c
00000100: e000 c13b d58c 16bc 34a8 02ba 14fc 303c
00000110: f41e abba f7a2 683c 135c 42bc 8674 103b
00000120: 63b9 91bc 33ea fc3a 0bd2 c6bb 4e92 43ba
00000130: 00d5 493c fc3f 433b 8014 813a adcc 483c
00000140: 6396 df3b fed0 ecba 836c c9ba f5ea 613c
00000150: 4eae 793c c6eb 203c c34d 7b3c b6c8 573c
00000160: b2e9 2a3c 60ac 49ba 8cb5 5f3a b0a8 4f3c
00000170: 92d8 ed3a 0470 0ebc 0348 903a fbf5 673c
00000180: ae37 8bbc 003e 36bc f9c2 4ebc 5d86 483c
00000190: 4a65 12bc a773 6d3c e558 42bc dac0 49ba
000001a0: 6e64 84bc 2eb1 71bb f75e 17bc 9077 55bb
000001b0: f8ec 4f3c 0dd2 4dbc 2587 3ebc cb4f 283c
000001c0: 0db3 663b 9355 3fbc 7364 19bc 1611 343c
000001d0: 4728 873c c620 3e3c be5a 6d3c 3d15 503c
000001e0: ad3d 123c efed 4dbc 5649 7cbb 65b6 443c
000001f0: 0d26 40bc d272 bdbb 799f bb3a 6222 653c
0.001376745 -0.0073084123 0.00945511 0.0062642903 -0.00023133587 0.010695601 -0.005669067 8.861713e-05
-0.017286742 0.007572335 -0.001328884 0.0019306171 4.4332548e-05 -1.6009029e-06 0.0001694192 0.01775291
0.01947336 0.0085729 0.031447746 0.013396073 0.004924813 0.012716115 0.00035144453 0.009853473
3.7996253e-06 1.8084165e-07 9.362961e-05 0.012171017 0.019063434 -0.008545558 0.0005433532 -0.0001043699
0.0037117207 -0.008655006 4.690266e-05 0.010890371 0.0026477808 0.0141325295 -0.0083513735 0.0009782129
-0.017763859 0.0026160174 -0.0044723363 0.0010869256 0.013618286 0.0010811046 0.0037051814 0.0140228765
0.010480086 -0.0012707288 -0.00044652133 0.015067179 0.014123338 0.0101928 0.013800664 0.013081576
0.012602348 0.0026882768 0.006623055 0.011614781 0.0027438276 -0.008336934 0.0011476807 0.015345463
0.005889997 -0.00918885 -0.00049841707 0.010802288 -0.0013055489 0.01419901 -0.0118627725 0.002204211
-0.017788595 0.0019295871 -0.0060675195 -0.0007460461 0.01231885 0.0029792776 0.0009848028 0.01225583
0.0068233474 -0.0018067656 -0.0015367422 0.013788928 0.015239311 0.009821838 0.015338364 0.013170412
0.010431694 -0.00076932274 0.00085338275 0.012674496 0.0018146208 -0.008693699 0.0011007789 0.014157767
-0.016994324 -0.01112318 -0.012619727 0.012239066 -0.008935282 0.014492906 -0.011862014 -0.00076962786
-0.01616117 -0.003687929 -0.00923895 -0.0032572486 0.012690775 -0.012562287 -0.011628901 0.01027293
0.0035201937 -0.011678117 -0.009362328 0.010990402 0.016498698 0.0116044935 0.014486967 0.012700376
0.008925837 -0.012568935 -0.003849586 0.012006377 -0.011727822 -0.00578151 0.0014314494 0.013985248

convs.bias_bc f4 [4, 32, 1]
00000000: 6c6d fc3a c28e b9b9 11d0 9e39 06e4 76b8
00000010: 7d9d 8239 7446 2439 a8e6 d53a 9cc3 363a
00000020: b2e8 8839 e894 f03a 9461 0f3a 3795 d23a
00000030: 7d9e 6bba 0d87 cab9 f1e9 03bb eca0 beb8
00000040: a85a bdb9 5cd9 bcba 857c 35ba 31cf e339
00000050: da0d 663a 7d5a cd38 7449 10ba 0547 c4b9
00000060: 7067 4339 3cfa 17ba 364c a23a afd0 3d3a
00000070: ff47 a3b9 2170 2aba 71bd d23a 1f51 2dba
00000080: a3cf b5b9 d0c8 42b8 ba21 9e39 722b 473a
00000090: 5777 f139 1245 be39 5695 8dba 3690 983a
000000a0: cbf4 7fba 947b 1f3a a089 e839 801c beb9
000000b0: eb5a 47b9 102c ed3a 3420 0f39 f100 69b6
000000c0: 9942 c338 d168 4b3a 6a06 e636 85e6 98ba
000000d0: a404 f039 f815 6a39 9152 c139 4fe3 c23a
000000e0: b34d d8b9 7789 193a 0840 0cba 057a dcba
000000f0: a50e 353a feb3 32b9 3ed8 d0b6 2830 3d39
00000100: 3c15 b1b9 d051 04ba b43c 183a ea78 4939
00000110: 5e1c 4c3a cf02 7f39 a4bf b13a 91f6 883a
00000120: 160a 51ba fedf 2cba 7941 5eba 75f4 70ba
00000130: 2ccf 3bba 98d7 40ba f447 8eb9 a161 0eb8
00000140: 640f dab9 2c5a d7b9 6c6f 073a 18a3 9e39
00000150: a81f 2839 9fef a13a 5625 b2b8 916d 84ba
00000160: 601f f9b9 479c dab9 18ff df39 9570 d3b9
00000170: 1e12 86b9 4fbf 7d3a f433 b9ba 7867 d8ba
00000180: fffa 3f39 3c34 d8b8 790b 48ba 55d7 65b9
00000190: 5cfc b839 7993 06ba 13fd b8ba 4be8 7d3a
000001a0: 5b2c 15b8 3ea6 61b9 a45f b1b9 9089 03bb
000001b0: b45a 1db9 0295 3dba a981 50b9 01d8 af39
000001c0: 9cf6 19ba bd29 f6b9 6662 fd37 d052 1eb9
000001d0: 8a0e a03a 59fb b939 0b57 abb7 06e3 5fba
000001e0: 2511 12ba d8de 9238 65ff 863a 1e1e 92b9
000001f0: 0105 88ba 4cd4 48ba bfef 7c39 6124 cfb9
0.0019258684 -0.00035392313 0.0003029113 -5.8863334e-05 0.0002491287 0.00015666505 0.0016319351 0.0006971897
0.00026113313 0.0018354924 0.00054695574 0.0016066198 -0.0008988155 -0.00038629063 -0.0020128454 -9.08988e-05
-0.00036116433 -0.001440804 -0.0006923157 0.00043451184 0.0008775868 9.7920165e-05 -0.00055041094 -0.00037436947
0.00018635183 -0.00057974807 0.0012382332 0.0007240874 -0.00031143424 -0.0006501694 0.0016078186 -0.0006611514
-0.00034677712 -4.6440226e-05 0.00030161237 0.00075977214 0.00046056017 0.00036291085 -0.0010801952 0.0011639658
-0.0009763955 0.0006083783 0.00044353027 -0.00036260858 -0.00019011988 0.0018094797 0.0001364954 -3.4720254e-06
9.3107294e-05 0.00077594543 6.855281e-06 -0.001166538 0.00045779825 0.00022324163 0.00036873345 0.0014868769
-0.0004125662 0.00058569707 -0.00053501176 -0.0016821033 0.0006906784 -0.00017042455 -6.224057e-06 0.00018042384
-0.00033775892 -0.00050475914 0.00058073853 0.00019213898 0.00077862095 0.00024319741 0.0013561142 0.0010449459
-0.000797422 -0.0006594657 -0.0008478384 -0.00091917004 -0.0007164355 -0.0007356345 -0.0002713796 -3.3946362e-05
-0.00041591667 -0.0004107518 0.00051664445 0.00030257623 0.00016033521 0.0012354738 -8.494656e-05 -0.0010103454
-0.00047516357 -0.00041696636 0.00042723934 -0.00040328936 -0.0002557197 0.0009679691 -0.0014129863 -0.0016510328
0.00018308683 -0.00010309412 -0.0007631104 -0.0002191936 0.00035283237 -0.00051336695 -0.0014113508 0.00096857984
-3.5565678e-05 -0.00021519602 -0.0003383133 -0.0020071007 -0.00015006476 -0.0007231982 -0.00019884728 0.00033539537
-0.00058732345 -0.00046951874 3.020577e-05 -0.00015098904 0.0012211364 0.00035473218 -2.0425321e-05 -0.0008540604
-0.0005572013 7.0033304e-05 0.0010299502 -0.0002786973 -0.0010377468 -0.0007661029 0.00024121905 -0.0003950922

convs.weight.0.tensor f4 [32, 32, 16, 2]
00000000: 5ec4 62bb 932f d982 ed3f 5d39 edff 8738
00000010: 4574 0039 7984 5138 3b66 ac38 b992 ad37
00000020: 6724 7e38 2de6 0736 7697 5438 1faf 4bb7
00000030: 5cc0 1d37 8e85 0cb7 0b7c 0437 c4aa 42b7
00000040: 7f0b df36 72d2 2db7 5037 0a37 435f bdb6
00000050: c560 1537 6126 c3b6 2c57 0b37 f2e9 e9b6
00000060: a8e4 f436 5d80 03b7 913c e836 bd4c 3cb7
00000070: 19b7 69b6 87f9 b9b7 406b 1bb8 f841 5737
00000080: fead 553b f9ed 4702 f4b6 b23b b5b9 21bc
00000090: 5fad 6b3b 5ca1 39bc a510 d73b 5069 28bc
000000a0: 2022 1f3c 477a 9bbb 6090 1b3c 1629 84bb
000000b0: a9da 063c d514 f53b 0d55 183c 137f 373c
000000c0: 5ef7 463c 2b3e 6a3c 7531 5b3c 69bb 7f3c
000000d0: 2021 6f3c fe9f 9a3c 56d6 263c e044 993c
000000e0: 08af 493b 5e05 973c 5206 0bbc 3ab7 983c
000000f0: 815e d7bc 2ef7 b23c e2ea 3fbd 594e ce3c
00000100: b36b 19bc 0e2b f702 e180 5e3c 2a6a 903b
00000110: 7222 3f3c 5d21 0b3b 5ec8 193c 418c d93a
00000120: 41fe 053c 0f3d 893a 0a97 f23b 6d82 143a
00000130: f960 c93b 2d10 15b9 0751 ca3b 6e1f 13b9
00000140: 91f1 ca3b 883c 8839 6378 ca3b f581 d939
00000150: 3535 bd3b 07bf 52b9 feb8 ba3b 712d 1abb
00000160: 26a3 bc3b 30e5 58bb ab3e c63b 319c 5abb
00000170: 5b32 da3b b457 57bb ecf1 003c 4db8 71bb
00000180: 0d31 24bc e055 c882 d58e 8abb 9d06 d73b
00000190: 383c 25bb 82e3 923b 9e3f 93ba 4531 473b
000001a0: 5297 c0b8 e93a 1c3b 335f ca39 6010 053b
000001b0: 7a12 a03a 5c34 3db8 aba8 ae3a 6a48 c0b9
000001c0: f3fd c53a c601 17ba 5329 cf3a e135 2bba
000001d0: 182f c73a 589b 36ba cccf b03a 8791 4aba
000001e0: f7b1 943a cc8b 2dba 01c4 5b3a 8fd0 00ba
000001f0: 5a7e 043a c6ac d5b9 e4cf 6a39 6710 b9b9
00000200: 52ed 063b 90ec d102 4657 b939 0b85 2eb8
00000210: a36d 1239 ecc6 6138 151b 9738 9e3a 7138
00000220: 1dbb 5938 9a30 4038 e6c2 2638 c6c7 2438
00000230: 8c34 ae37 af97 9635 4d8b a337 17ac f736
00000240: d6e4 3037 6082 8037 1a3b cf36 4d01 b937
00000250: e1bc 9236 4633 cc37 b6b9 1d37 b11f da37
00000260: c7b5 4437 08c2 fc37 f156 b237 aa2d 1338
00000270: e14a 4738 5ecb 2f38 6f58 f038 779e 7f38
00000280: 55c3 5dbc 1f26 b402 25d3 13bc 6055 2abc
00000290: 2aa7 06bc 5b57 3abb 7886 c2bb c6d3 40b8
000002a0: 5fb1 73bb 3ebc a83a f698 37bb f4c1 f63a
000002b0: 3c22 2b3b 29f7 c039 21bf 6c3b ecc0 4ab6
000002c0: 51e3 943b 274a 1dba c325 a33b ff59 9dba
000002d0: 81c9 9f3b d969 ebba c6d7 993b 5b1a 2abb
000002e0: 3ce8 873b 1148 30bb a9c3 593b 2d8e 20bb
000002f0: 9997 1b3b 6281 20bb f807 e73a 4b28 17bb
00000300: bc54 363a 1bed 7402 9eda 7fbb df21 883c
00000310: 4cb6 933b e4f1 be3b 0547 5f3b c905 aa3a
00000320: 73ef 153c 425f 9a39 f83c 2b3c 9b34 11ba
00000330: 0b4c 4a3c 9fe8 023d cd2c 2d3c f777 053d
00000340: 48ce f63b 40fa 083d 5d8c 9d3b c724 133d
00000350: c3b7 413a 615a 1e3d 4b01 82bb 8770 203d
00000360: 8b2d 13bc d85f 1a3d b87c 8ebc a2e7 1c3d
00000370: 6057 0fbd eef9 3e3d 84a7 54bd a8df 4d3d
00000380: 72f2 02bc ec7d 1a82 af58 f8bc 1ebb 943c
00000390: 022a d2bc ede8 3e3c a446 8dbc 86d2 873c
000003a0: 31e4 93bc b867 9a3c e655 93bc 79cd a53c
000003b0: c156 fcbc 93c5 623c 3d65 f4bc 1387 6c3c
000003c0: 5db2 e5bc c577 6d3c 402b c6bc cec9 7c3c
000003d0: e6ac bdbc 7183 653c 25d8 8ebc d5ff 0d3c
000003e0: f306 13bc f2d3 ba3b ca20 023c b92d b33a
000003f0: 64bd 043d 82ae 47bc 714e 4d3d 832c 0fbd
-0.0034601907 -3.191259e-37 0.00021100017 6.4849715e-05 0.00012250345 4.9952858e-05 8.220641e-05 2.069153e-05
6.059222e-05 2.0250548e-06 5.0685798e-05 -1.2140516e-05 9.402716e-06 -8.375746e-06 7.896694e-06 -1.1603061e-05
6.647256e-06 -1.0360602e-05 8.238319e-06 -5.643729e-06 8.903623e-06 -5.8159208e-06 8.305342e-06 -6.971176e-06
7.2983858e-06 -7.838095e-06 6.9211897e-06 -1.122354e-05 -3.4826282e-06 -2.2169914e-05 -3.7054764e-05 1.2830358e-05
0.0032604928 1.4688506e-37 0.0054539386 -0.009870936 0.0035961492 -0.011329975 0.0065632635 -0.010279015
0.009712726 -0.004744801 0.009494871 -0.004033218 0.008230844 0.00747929 0.009297621 0.01119973
0.012143938 0.014297049 0.013378491 0.015608647 0.0145953 0.018875118 0.010182938 0.0187096
0.0030774493 0.018435176 -0.008485394 0.018642057 -0.02629018 0.02184638 -0.04685486 0.025183843
-0.009364056 3.63181e-37 0.013580532 0.004407187 0.011665927 0.0021229603 0.00938615 0.0016597585
0.008178295 0.0010470467 0.007403259 0.0005665187 0.0061455932 -0.00014215773 0.00617421 -0.00014030721
0.0061933477 0.0002598504 0.006178902 0.0004148629 0.005774165 -0.00020098324 0.0056983223 -0.002352562
0.0057567535 -0.003309559 0.006049951 -0.0033357257 0.006658835 -0.0032858672 0.007870179 -0.0036883533
-0.01002146 -2.9436649e-37 -0.0042284527 0.0065620677 -0.0025212895 0.0044826875 -0.0011234169 0.0030394357
-9.183459e-05 0.0023838824 0.0003859937 0.002030395 0.0012212538 -4.5109875e-05 0.0013325413 -0.00036675046
0.001510559 -0.0005760457 0.0015805162 -0.0006531161 0.001519653 -0.0006965897 0.0013489663 -0.0007727374
0.0011344542 -0.00066202576 0.0008383394 -0.000491389 0.0005054228 -0.00040755252 0.00022393424 -0.0003529817
0.0020588231 3.084557e-37 0.00035350973 -4.160874e-05 0.00013964488 5.382944e-05 7.2052855e-05 5.751347e-05
5.1911094e-05 4.582163e-05 3.9758997e-05 3.92867e-05 2.0766885e-05 1.1220017e-06 1.9495981e-05 7.3812075e-06
1.05436975e-05 1.53195e-05 6.175961e-06 2.2054324e-05 4.3731275e-06 2.4342571e-05 9.401168e-06 2.6002383e-05
1.1724834e-05 3.0131094e-05 2.1259739e-05 3.509006e-05 4.7515034e-05 4.191265e-05 0.00011460564 6.094432e-05
-0.01353534 2.6470503e-37 -0.009022509 -0.010396332 -0.008218566 -0.0028433416 -0.00593644 -4.5973597e-05
-0.0037184579 0.0012873483 -0.0028014756 0.0018826113 0.0026112935 0.00036805242 0.0036124664 -3.021264e-06
0.0045437 -0.0006000124 0.004978867 -0.001200497 0.004876316 -0.0017960622 0.0046949117 -0.002595565
0.0041475575 -0.0026898424 0.0033228195 -0.0024498806 0.0023741482 -0.002449118 0.0017626276 -0.0023064788
0.00069553754 1.7994335e-37 -0.0039040218 0.016617713 0.0045078155 0.0058271755 0.003406943 0.0012971695
0.009151327 0.00029444142 0.010451548 -0.000553915 0.012347232 0.031960126 0.010569763 0.03258511
0.007531915 0.033441782 0.0048079924 0.035923745 0.00073897484 0.03866041 -0.0039674393 0.039169814
-0.008983026 0.03768906 -0.017393455 0.03830684 -0.034995437 0.04662507 -0.051917568 0.050262123
-0.007992374 -1.1350271e-37 -0.030315725 0.01815563 -0.025654797 0.0116522135 -0.017245598 0.016579878
-0.018053146 0.018848285 -0.017985296 0.020239579 -0.030803086 0.013841051 -0.02983343 0.014436501
-0.028039152 0.014493887 -0.024190545 0.015428973 -0.023153733 0.014008389 -0.01743705 0.008666952
-0.008973825 0.0057015354 0.007942388 0.0013670243 0.03240718 -0.012187602 0.050123636 -0.03495456

convs.weight.1.tensor f4 [32, 32, 16, 2]
00000000: 051a 083a 7c2b fe01 8d4c 0d39 849c b037
00000010: f685 c938 2b89 1b38 a1e2 8e38 8f46 8d37
00000020: b237 5538 4726 f934 37ac 3238 0da0 26b7
00000030: b230 f236 8196 9db6 04ae ad36 c3ca 14b7
00000040: 09a9 8436 f78e 0bb7 977f b636 e7c0 85b6
00000050: 1a4a d036 b5c1 7cb6 0856 c836 815b 95b6
00000060: 7939 bd36 e43d a0b6 72a9 c936 b1e3 ecb6
00000070: 474a 12b6 a296 81b7 e9c6 05b8 df7d 7837
00000080: 912b 99b9 34d9 0c03 443f 8c39 c92b ac3a
00000090: 7fbd 5639 cf1f 413a 0ff9 a338 c742 f139
000000a0: 1b31 2a39 a348 8e39 40f2 2839 ccfe 7239
000000b0: 7223 1b39 1696 a5b8 a811 3639 6e75 deb8
000000c0: 368f 5139 c591 fcb8 bfde 5d39 10eb e8b8
000000d0: 85ae 5c39 1d56 bfb8 23e5 4139 2f88 cdb8
000000e0: cecb 3b39 756d 89b8 ceea 3439 cc3b 36b7
000000f0: d640 2d39 e9fb 1038 9ae2 2139 3ffb ba38
00000100: 1346 2d37 e067 1c02 9ede 8338 9565 32b9
00000110: a1d1 4238 d9fe cbb8 79c2 8038 eb3b 8cb8
00000120: fcde 8f38 fe6e 82b8 c2e0 9738 032c 6eb8
00000130: c725 3f38 46eb 58b8 0d41 2b38 6613 28b8
00000140: 6cf0 1838 ac62 dab7 1fc4 0a38 cadd 85b7
00000150: b450 f137 fef6 27b7 e17e e737 b8c8 38b7
00000160: 5475 fd37 2347 53b7 db21 2238 3cad 93b7
00000170: 9578 3d38 59ee 07b8 259e 4d38 2b36 77b8
00000180: 825e 35b8 b409 f982 196e efb9 eb51 073b
00000190: ffd3 10ba 6155 9b3a 4a9d 90b9 0b50 593a
000001a0: dc0f c7b7 709b 2f3a f5a4 5f38 9ae1 143a
000001b0: 552a 8a39 4937 19b7 3723 9f39 09a3 aab8
000001c0: df42 ba39 8400 feb8 885f c839 003e 01b9
000001d0: bc52 c639 7f7d f7b8 b1c4 b639 2e07 06b9
000001e0: ad49 a439 6bd7 c7b8 3574 8739 d4c6 50b8
000001f0: 4507 4c39 2483 10b8 108f 0f39 243b b0b7
00000200: 778a a339 f5c7 2982 a712 9b38 8edd 96b8
00000210: c575 1338 a8e2 3537 6fd2 b237 1674 bc37
00000220: 3e1b 9537 57a4 a137 fe94 6737 8c2d 9237
00000230: 0fa2 2137 2251 10b6 5530 1137 5dd2 88b4
00000240: e2d2 7d36 cc37 2036 50f7 cc35 dd7a a536
00000250: 4824 8435 6f32 c936 d6a5 8336 7751 df36
00000260: dd40 bd36 ebef 1d37 25dc 3137 fcc0 5537
00000270: b435 c937 3490 8737 4dbd 6838 1fa4 c637
00000280: 6674 b8b8 bc73 0d82 91d9 7aba 7bc8 843a
00000290: 1f76 37ba 5a1b f939 cfb8 02ba 4da9 e739
000002a0: baba a6b9 4762 fa39 eeb6 76b9 8716 ee39
000002b0: 4024 2539 af45 4739 a932 7239 fe86 1c39
000002c0: 5a51 9939 bb98 ee38 81c0 a339 42b9 af38
000002d0: e1eb 9c39 4643 4a38 0f56 9739 54c3 7a37
000002e0: 2ccf 8339 d935 1e37 8401 4e39 e603 a137
000002f0: c254 0e39 9c45 f236 6b5d 7138 6cd4 4937
00000300: 24ef 2aba 10c6 6d00 3051 f638 3feb 5638
00000310: 8028 afb7 70ad 8738 14df f437 9640 c737
00000320: d74c ff37 8c1f 6537 1eaa d737 a3f2 5537
00000330: 0a16 6438 7e1e 9ab7 05ab 3e38 63a4 d6b7
00000340: e347 0338 a8c1 c2b7 b187 8137 4492 8cb7
00000350: aceb 8636 6409 69b7 0524 a036 48e4 99b7
00000360: a972 6337 9429 82b7 d21c f037 b458 d6b6
00000370: 29e5 5338 b4cd e436 fb80 a638 1388 0d38
00000380: 43a1 a4b9 d8a8 0403 c1bf 1bba 44bf b53a
00000390: dfe7 04ba 294f 2d3a 2e71 8eb9 9a55 023a
000003a0: 61ca a8b8 d504 e939 c3f5 ae35 4425 bd39
000003b0: 7525 7b38 5f69 4739 49c6 d938 6faf 3039
000003c0: e318 1439 dd6c 2639 42b7 1f39 016d 0d39
000003d0: db24 2839 d2b1 9438 51a8 1f39 0b5e 9236
000003e0: 7904 0139 379a 07b8 c241 5638 613f 7cb8
000003f0: 58f3 71b8 c2b1 06b9 fcd7 48b9 df97 80b9
0.00051918655 9.336726e-38 0.00013475325 2.1053718e-05 9.609379e-05 3.7082627e-05 6.8133006e-05 1.6841366e-05
5.0835028e-05 4.6407715e-07 4.2598895e-05 -9.931636e-06 7.217831e-06 -4.6964856e-06 5.17606e-06 -8.868697e-06
3.953585e-06 -8.318332e-06 5.438876e-06 -3.9861657e-06 6.2075096e-06 -3.7663679e-06 5.97048e-06 -4.4511985e-06
5.6393296e-06 -4.7755766e-06 6.009993e-06 -7.059855e-06 -2.179893e-06 -1.5448142e-05 -3.189492e-05 1.4811259e-05
-0.00029214894 4.139164e-37 0.00026750017 0.0013135608 0.00020479223 0.00073671056 7.8188365e-05 0.00046016855
0.00016230757 0.0002713847 0.00016111974 0.00023173838 0.00014795156 -7.895769e-05 0.0001736345 -0.00010607658
0.00019985143 -0.00012043448 0.00021159182 -0.00011106406 0.00021045849 -9.1236296e-05 0.00018491274 -9.800528e-05
0.00017909633 -6.553057e-05 0.00017253609 -1.0861968e-05 0.00016522719 3.4566885e-05 0.00015438572 8.9159694e-05
1.0327919e-05 1.1490881e-37 6.2880325e-05 -0.00017013245 4.6448436e-05 -9.7272634e-05 6.139739e-05 -6.686881e-05
6.8603054e-05 -6.219557e-05 7.2421055e-05 -5.678461e-05 4.557313e-05 -5.171753e-05 4.083016e-05 -4.0072387e-05
3.6463534e-05 -2.6033573e-05 3.3084416e-05 -1.5958114e-05 2.876702e-05 -1.0011483e-05 2.7596428e-05 -1.1013988e-05
3.0214585e-05 -1.2593143e-05 3.865534e-05 -1.7604434e-05 4.5173412e-05 -3.2408487e-05 4.9023092e-05 -5.8939837e-05
-4.324178e-05 -3.659283e-37 -0.00045667661 0.0020648192 -0.0005524754 0.0011851006 -0.0002758301 0.00082898204
-2.3730034e-05 0.0006698882 5.332097e-05 0.0005679369 0.0002635295 -9.132383e-06 0.0003035308 -8.136599e-05
0.00035526507 -0.0001211176 0.0003821815 -0.00012325495 0.00037827145 -0.00011801253 0.00034860292 -0.0001278191
0.0003133541 -9.529184e-05 0.00025835788 -4.9776238e-05 0.00019457664 -3.445441e-05 0.00013690838 -2.1008374e-05
0.00031192947 -1.2473544e-37 7.39445e-05 -7.193825e-05 3.5157213e-05 1.0841213e-05 2.1317244e-05 2.2465403e-05
1.777487e-05 1.9269222e-05 1.3803363e-05 1.7425766e-05 9.63408e-06 -2.1504898e-06 8.653927e-06 -2.5485033e-07
3.7822688e-06 2.3874336e-06 1.5271162e-06 4.9316864e-06 9.845326e-07 5.996138e-06 3.92341e-06 6.6554016e-06
5.64019e-06 9.4137895e-06 1.06012785e-05 1.2740722e-05 2.3986075e-05 1.6160404e-05 5.548941e-05 2.3679864e-05
-8.7954846e-05 -1.0392258e-37 -0.0009569163 0.0010130549 -0.00069984974 0.0004751336 -0.0004986645 0.00044185892
-0.0003180111 0.00047756938 -0.00023528535 0.00045411682 0.0001574913 0.00019004078 0.00023097791 0.00014927608
0.00029243046 0.000113771726 0.0003123321 8.379157e-05 0.00029930382 4.8223206e-05 0.00028865083 1.494664e-05
0.00025140622 9.430071e-06 0.00019646256 1.9194511e-05 0.0001357375 7.2202656e-06 5.754588e-05 1.2029992e-05
-0.000652062 1.008112e-38 0.000117453164 5.1240666e-05 -2.0880485e-05 6.469607e-05 2.9190945e-05 2.3752724e-05
3.043415e-05 1.3656809e-05 2.5709214e-05 1.2752283e-05 5.437996e-05 -1.837243e-05 4.5458804e-05 -2.5587336e-05
3.1299784e-05 -2.321678e-05 1.5441185e-05 -1.675741e-05 4.020947e-06 -1.3890069e-05 4.772565e-06 -1.8345323e-05
1.3556951e-05 -1.5516569e-05 2.862365e-05 -6.3880234e-06 5.0519742e-05 6.8188765e-06 7.939521e-05 3.374375e-05
-0.00031400667 3.8985137e-37 -0.00059413543 0.0013866206 -0.0005069952 0.0006611222 -0.00027168676 0.0004971862
-8.04856e-05 0.00044444823 1.3035536e-06 0.00036076654 5.9877948e-05 0.00019017373 0.000103843 0.00016850022
0.00014123651 0.00015871548 0.0001523169 0.00013487415 0.00016035458 7.0903116e-05 0.00015226124 4.362087e-06
0.00012304065 -3.2330132e-05 5.1082818e-05 -6.0140508e-05 -5.768551e-05 -0.00012845456 -0.00019153947 -0.00024527215

convs.weight.2.tensor f4 [32, 32, 16, 2]
00000000: 5f0f feba 68e7 2f02 82a3 e13b d3dd 8b3b
00000010: 10f2 733b c54e f03a d942 223b fcb7 5d3a
00000020: 3dba cb3a dda3 6c3a d00b a13a 47fd 9a3a
00000030: dd4f bbb9 455b e739 3290 0cba 50ae 083a
00000040: 9336 98b9 4131 9839 101e 7b39 252c 0a39
00000050: 78f3 8d39 40b0 2539 162e 4739 4fe5 6139
00000060: 8873 2939 02ee bd39 a86b 9839 462f 333a
00000070: ebf1 6d3b 849b 4a3a a016 703c 03c3 3b3b
00000080: 8a57 253c d0a0 9e02 0c7d 603c 30e0 4c3c
00000090: 4e4a 803c 62e4 3d3c da53 3e3c bb0e 383c
000000a0: 4632 2b3c 7f69 253c 13e6 073c c71c 273c
000000b0: f89e 803b 001a 5c3b b73e 9b3b 00e2 a43b
000000c0: 8bb9 893a 8a8c 823b b9e6 2c39 d834 9c39
000000d0: a39f 3239 6624 48b9 55b1 7e37 43e4 67ba
000000e0: 5493 0139 28c3 9dba eca1 9039 654f 89ba
000000f0: 9b6d 67bb 303b 1f3a dcc2 30bc 5d69 51bc
00000100: 8fe8 6fbb 78bf ab02 8265 01bc 4886 4cbb
00000110: 7afd fbbb 0185 f2ba ed0d 82bb f497 d0b8
00000120: 8142 10bb 2de6 c43a b01e 03bb 69f5 383b
00000130: eae9 2cba 4395 383b 0e63 6bbb 8edf 8e3b
00000140: 1ce1 28bb b569 d33a 0a34 47b8 bb21 c138
00000150: c65b 1d3a 56a8 b2b7 f966 113b 6f89 3339
00000160: 584d 813b 5881 093b 609f da3b dd02 083c
00000170: c2a2 0b3c 728a f63c 3728 3ebd 28f4 133d
00000180: 7f46 6bbc e8ac e902 51e0 8e3b 0a80 073c
00000190: d7ae 923b 6f84 293c a7f2 283b a2d7 243c
000001a0: 1216 443b 53ed 093c c332 c33a a5de 013c
000001b0: 8058 723b 020b 6e3b 43fb 8f3b 5303 7f3b
000001c0: f1ee 943a 613e 7c3b 77c1 69b9 c803 8b3a
000001d0: d76d 3c39 8266 083a fcfa b1b8 9b81 f537
000001e0: d27c 5fb9 deb9 2dba aba3 c03a e4ac 12bb
000001f0: 360c 693b 652f 1cba b9d6 cc3a b1ec a13a
00000200: 2520 8a3b 8070 cb02 ce5f 5a3b 1b33 4d3b
00000210: ba65 853a 8c9d 663b 4e2c d839 a35b 033b
00000220: a25b 6d3a 3607 d23a c9dd 953a 7619 ce3a
00000230: 6443 e239 7ae2 1cb8 c834 023a f623 0839
00000240: 5d12 a339 ad4c ad38 25e6 15b8 a29c 5fb9
00000250: b0b8 68b8 eba6 5fb9 9b36 93b9 2995 3fb9
00000260: cc27 f7b9 a81b 06ba 6f71 5bba 1f73 bbba
00000270: 69b6 2fba 1e2d 9cbb 3502 6e3b 18bb 5ebc
00000280: 4998 63bc 9264 b501 895a 2dbb 3dc2 f43b
00000290: 1fa1 9dba 58f5 0b3c db73 61bb c99b 133c
000002a0: 1397 67bb a9a2 083c 744d 86bb 7104 013c
000002b0: 3646 c5b9 fb64 fe3a e3fb 8aba 7565 223b
000002c0: 959d b5ba e2c2 013b 4d68 ebb9 e408 8539
000002d0: dec4 8938 1f67 7539 e7de 7a39 f2c9 1b36
000002e0: fcb8 fb39 6bac 9238 94c8 c53a e465 953a
000002f0: d916 4f3a 64f1 e43b 0395 2bbc 6114 9c3b
00000300: 809f 3c3c b0b1 2a80 331a 3a3a ae84 203b
00000310: b6c5 2aba a496 b83a 9983 b1b9 b70f 293a
00000320: 54d9 b0b8 cf0a de39 67db a3b7 bd98 9439
00000330: 5dba 9838 33dd 6138 3322 0d39 f502 6838
00000340: ded2 af38 3e13 6f37 c96c deb7 fd41 8bb8
00000350: 3fd9 09b8 57aa a0b8 6f10 8536 1941 3db8
00000360: 7361 d437 0a9e 82b8 67ea 1038 485d 54b9
00000370: 6388 9739 7bf7 49ba 6c8f 0a3b 2472 7aba
00000380: b741 48bb 1417 a001 2376 74bc 8a24 98bb
00000390: aa4a 31bc 5173 073a 579f dcbb b424 613b
000003a0: 649b b1bb c30d 9e3b a2dd bbbb 2fa9 cd3b
000003b0: 469e 8fbb 6ead 00bb 959e ccbb e4b9 4cbb
000003c0: 97a3 48bb 05ec 2ebb f5e7 f7b9 cfa0 21b9
000003d0: 98d5 0538 b0f1 073a ec21 193a 82dc 853a
000003e0: 506c 583a 8a56 ef3a a0c5 203b c965 4f3b
000003f0: 03cf 3f3c 0adb 2c3c 1467 ea3a 8c34 073d
-0.0019383243 1.292338e-37 0.0068859467 0.004268387 0.0037223138 0.0018334022 0.0024759083 0.0008457897
0.0015543174 0.0009027103 0.0012286846 0.001182475 -0.00035726922 0.00044127755 -0.0005362063 0.0005213963
-0.0002903236 0.00029028396 0.00023948424 0.0001317715 0.00027075014 0.00015801284 0.00018995287 0.00021543096
0.00016160135 0.0003622622 0.0002907191 0.00068353524 0.0036307524 0.0007728862 0.014653832 0.0028650172
0.010091672 2.3308315e-37 0.0137016885 0.012504622 0.015660431 0.011590095 0.011616671 0.011233981
0.010448998 0.010095953 0.0082946 0.010199732 0.0039252006 0.0033584833 0.004737701 0.005031824
0.0010507567 0.0039840387 0.00016489149 0.0002979401 0.00017034872 -0.00019087046 1.5180868e-05 -0.00088459643
0.00012357283 -0.001203631 0.00027586462 -0.0010475932 -0.0035313133 0.0006074188 -0.010788646 -0.012781468
-0.0036607122 2.523609e-37 -0.0078977365 -0.0031207968 -0.007690129 -0.0018502773 -0.0039689452 -9.9465164e-05
-0.0022012296 0.0015022211 -0.0020007305 0.0028222448 -0.0006596135 0.0028165139 -0.0035917195 0.004360146
-0.0025768941 0.0016129526 -4.7493762e-05 9.20924e-05 0.000600275 -2.1297641e-05 0.002218662 0.00017121968
0.0039459877 0.0020981636 0.006671831 0.008301464 0.008522691 0.030095313 -0.04642507 0.036121517
-0.014360069 3.4335516e-37 0.0043602367 0.008270273 0.004476409 0.010346516 0.0025779398 0.0100611765
0.0029920381 0.008418399 0.0014892448 0.007926618 0.003697902 0.003632248 0.0043939664 0.0038911893
0.0011362714 0.003848933 -0.00022292683 0.0010605985 0.00017969996 0.0005203263 -8.486767e-05 2.9266628e-05
-0.00021313436 -0.00066271226 0.0014697214 -0.0022380883 0.0035560257 -0.000595799 0.0015627957 0.0012353865
0.0042152577 2.989274e-37 0.0033321264 0.0031310979 0.0010177412 0.003518912 0.0004123174 0.0020043633
0.0009054487 0.0016023878 0.0011433895 0.0015724141 0.0004315629 -3.740422e-05 0.00049669715 0.00012983367
0.00031103464 8.263565e-05 -3.5738707e-05 -0.00021325288 -5.5485114e-05 -0.00021329119 -0.0002807871 -0.00018270746
-0.00047141162 -0.00051158154 -0.000837109 -0.0014301277 -0.00067029014 -0.0047661206 0.0036317233 -0.013594411
-0.013891288 6.663321e-38 -0.0026451668 0.007469444 -0.0012026167 0.008542381 -0.003440133 0.00900931
-0.003533785 0.008339562 -0.0040985886 0.007874594 -0.0003762708 0.0019408757 -0.0010603633 0.0024779711
-0.0013856167 0.0019799997 -0.00044900403 0.0002537436 6.5693384e-05 0.00023403436 0.00023924896 2.3214347e-06
0.00048012275 6.993938e-05 0.0015089684 0.0011398164 0.0007899828 0.006986784 -0.010472539 0.0047631715
0.011512637 -3.920833e-39 0.0007099241 0.0024493146 -0.00065144466 0.001408298 -0.0003385812 0.000644918
-8.4328145e-05 0.00042351193 -1.9533281e-05 0.0002834256 7.282638e-05 5.3850188e-05 0.00013459548 5.5315864e-05
8.383927e-05 1.424999e-05 -2.651512e-05 -6.640328e-05 -3.286567e-05 -7.661123e-05 3.965622e-06 -4.512174e-05
2.5317748e-05 -6.22832e-05 3.455058e-05 -0.00020252645 0.0002890258 -0.0007704419 0.0021142615 -0.00095537514
-0.0030556747 5.8807833e-38 -0.014920744 -0.0046430277 -0.010821024 0.0005167025 -0.006732862 0.0034354152
-0.0054201353 0.004823418 -0.005733208 0.006276272 -0.0043828813 -0.0019634622 -0.0062444904 -0.003123873
-0.0030615085 -0.0026690972 -0.00047284333 -0.00015414062 3.1908596e-05 0.00051858556 0.00058415416 0.0010212811
0.0008255886 0.0018260044 0.0024531856 0.0031646362 0.01170707 0.01055027 0.0017883503 0.033009097

convs.weight.3.tensor f4 [32, 32, 16, 2]
00000000: 6272 a73c 5032 0183 313c 093c 6709 8d3b
00000010: 36ef 243b 7647 e93b a8a1 1dba 0af5 fa3b
00000020: 7516 20bb f79f eb3b 2927 2bbb 934b bf3b
00000030: ec4c aebb 62ef dd3a fcda 9dbb e03a 27bb
00000040: 7968 47bb 3b3a 9ebb de6f a2ba 9ddd 4abb
00000050: 619f f5b9 7bee 2bba 388f fab8 41cf 8239
00000060: a6ff 0ebb 23bc 933a 6de2 d1ba b671 adb9
00000070: 6412 2b3c 3b9a 1fbb b663 023d a3b4 193c
00000080: 8a14 4f3c 08d9 d102 dc75 eb35 567f c33c
00000090: 5572 deba 1943 cd3c cdd3 60bb 48db af3c
000000a0: 4cd5 18bb 70f5 8c3c b0e0 92ba bb74 813c
000000b0: 5853 023c e685 bd3b 7dd9 f63b 6f51 573c
000000c0: 493e 9d3b 7605 823c 72e7 db39 aad8 063c
000000d0: ece7 d3b9 4d81 823a a673 afb9 ee9f a9ba
000000e0: 7070 b739 24da 8bbb 2b4c f93a 1c28 3dbb
000000f0: 4930 efbb 492d ae3a f140 52bb 5351 ccbc
00000100: 8c64 463c 93dd a902 d7ab b63c 7f69 e0bc
00000110: a176 933c 91d3 e1bc 9587 6a3c b28f bebc
00000120: d71d 223c 32ce 97bc 0bbe 083c 8719 81bc
00000130: 81cd 23bb 1fe2 14bb ecca e0ba 8eaf b1bb
00000140: 94bf 84b9 0647 bcbb be17 f53a 39b4 2cbb
00000150: d4ac 1c3b c703 4239 0d5c 863a 8402 0e3a
00000160: 4bc7 cdba 5136 f13a f984 b6bb 153e 4cb9
00000170: b76b 2bbc 20cd dfbb 73bf 863c e8ff b4bc
00000180: fa50 23bc c267 de82 6d1e 5bba c6b8 9f3c
00000190: 49ff 87b9 c5eb b23c 4172 d2ba c04c a93c
000001a0: faee 9bba 30d1 8a3c db91 b7ba da33 6f3c
000001b0: 22d8 923a d260 053c fe85 233b e808 2a3c
000001c0: 4328 da3a dd52 233c ff9e 85ba 0389 ac3b
000001d0: 1dcb f8ba c934 b1b8 ccb8 7aba 20f6 86ba
000001e0: 4d91 65b9 8bee 99bb 34ee 823b 1a27 f0bb
000001f0: 28e4 b53b dd8a a4bb efef 903c cef6 a63b
00000200: 5ad8 4d3c 9ed4 e282 d0c6 e83a 6ba5 15bc
00000210: 37b2 9739 b1f4 33bc e127 bb3a 0bf6 31bc
00000220: 2584 063b eb3b 1cbc 9ab1 2c3b 3b38 04bc
00000230: 244e d539 9797 15bb 89b3 85b9 4c5f 2cba
00000240: 4b2b 6db9 29a0 403a 9ab1 c839 b40d 833a
00000250: d306 1a3a 764d 1a3a 01ed c239 6d9c 77b8
00000260: ec6b 543a d57c a038 5c77 0abb 880e a33a
00000270: 25e9 54bc 4dd3 aeba 4bfa 17bc bc53 e0bc
00000280: 4aa3 64bc 9713 ab82 0c26 4bbc f3cc c43c
00000290: 0b35 35bc 4f3c ca3c 4c37 1cbc 9ed1 ae3c
000002a0: 2c59 e0bb 6345 8c3c 1f6f c6bb 0c50 733c
000002b0: 3481 2c3b e93f 653b fa9e e63a 1af6 ed3b
000002c0: 7a90 61b8 30bf 003c 21fc 1cbb f088 7a3b
000002d0: d25e 07bb 2d60 f238 d0ea 39ba e01f 9ab9
000002e0: 81d9 ab3a 308d 83ba 5a5f 773b c780 203b
000002f0: d375 9d3b f9f9 243c 2303 87bc 5488 853c
00000300: e0e1 183c 0677 5d82 e8cb f13b 2af6 b83b
00000310: 819f da3b 3673 283c e732 a13b 060d 443c
00000320: 5802 4b3b d189 5d3c 9e27 e638 dde2 7d3c
00000330: b7cd b3ba 6b65 023c 20fa 07bb 05db ce3b
00000340: 6fdf 44bb fcb9 203b 3c48 1cbb f1fc 1eba
00000350: 5649 51ba 5d77 46ba 83ac 75b8 3a33 2c39
00000360: a684 0239 0310 843a cce8 c73a 8fec 2b3b
00000370: f572 b33b 302f 513c eed6 d03b e1c0 753c
00000380: acea 95ba 303a 6702 ce53 a2bc c7db f13b
00000390: 3229 9ebc b0a1 363c f9c4 78bc 8d74 2c3c
000003a0: d2d3 42bc c5a2 263c 8b96 38bc b507 143c
000003b0: 09d8 80bb 4696 8dbb 4c7c eabb 9104 02bc
000003c0: 692c e2bb 6f4a 28bc b533 90bb 8387 02bc
000003d0: be53 00bb cb33 caba 2d31 35ba 05bd d33a
000003e0: 0556 013b 84d8 b83b 0006 e53b 108a 243c
000003f0: bf01 aa3c 92c9 a53c d7b6 f9bc fcb6 3f3d
0.020440284 -3.796745e-37 0.008376167 0.0043040994 0.0025166995 0.0071191145 -0.00060131634 0.0076586055
-0.0024427448 0.0071907 -0.002611587 0.0058378666 -0.0053192284 0.0016932304 -0.0048173647 -0.002551727
-0.003042726 -0.004828719 -0.0012392958 -0.0030954846 -0.00046848788 -0.00065586687 -0.000119476055 0.00024949948
-0.0021819859 0.0011271279 -0.0016012915 -0.00033081853 0.010441396 -0.0024353403 0.031833373 0.009381446
0.012639174 3.083436e-37 1.7543166e-06 0.02386443 -0.001697133 0.025056409 -0.003430593 0.021466866
-0.0023320494 0.017206877 -0.0011205878 0.015802732 0.007954441 0.005783784 0.007533251 0.013141974
0.0047986847 0.015871745 0.00041943375 0.008230368 -0.0004041785 0.0009956748 -0.00033464766 -0.001294134
0.00034988252 -0.0042679477 0.0019019892 -0.0028863018 -0.007299457 0.0013288643 -0.0032082165 -0.024941122
0.012108933 2.4959496e-37 0.022298736 -0.027394054 0.018000903 -0.027566703 0.014314552 -0.023261879
0.00989481 -0.018530939 0.008346091 -0.015759243 -0.0024994316 -0.0022717786 -0.0017150319 -0.005422539
-0.0002531974 -0.0057457713 0.0018699092 -0.0026352538 0.0023906725 0.00018502689 0.0010250822 0.0005417245
-0.0015699653 0.0018403028 -0.005570051 -0.00019478083 -0.010462693 -0.0068298727 0.016448712 -0.022094682
-0.009968037 -3.2679522e-37 -0.0008358721 0.019497287 -0.0002593941 0.02184094 -0.0016055779 0.02066648
-0.0011896782 0.016945451 -0.001400526 0.014599765 0.0011203329 0.00814076 0.0024951692 0.0103781
0.0016644079 0.009968487 -0.0010194479 0.0052653565 -0.0018981431 -8.44985e-05 -0.000956428 -0.001029674
-0.0002189327 -0.004697626 0.003995681 -0.00732888 0.00555088 -0.0050214366 0.017692534 0.0050953394
0.012563789 -3.3329752e-37 0.0017759446 -0.009133677 0.00028933745 -0.010983632 0.0014278853 -0.010861884
0.0020525542 -0.00953577 0.0026350976 -0.008070047 0.00040684745 -0.002282595 -0.000255015 -0.00065754796
-0.00022618209 0.00073480845 0.00038279296 0.0009998591 0.00058756507 0.00058861764 0.00037179145 -5.9035072e-05
0.000810324 7.652646e-05 -0.0021128273 0.0012440244 -0.012995039 -0.0013338119 -0.009275983 -0.027383678
-0.013954947 -2.5137436e-37 -0.012399208 0.024023509 -0.01106001 0.02468696 -0.009534668 0.021340188
-0.0068465676 0.01712293 -0.006055727 0.014850628 0.0026322128 0.003498072 0.0017594986 0.0072620036
-5.3778735e-05 0.007858083 -0.0023953991 0.0038228594 -0.0020655883 0.00011557373 -0.000709218 -0.00029396918
0.0013111086 -0.0010036584 0.0037746043 0.002449082 0.0048053055 0.010069364 -0.016480988 0.016300358
0.009331197 -1.6270674e-37 0.007379044 0.0056445794 0.0066718464 0.010281375 0.004919398 0.011965996
0.0030976739 0.0135216275 0.00010974634 0.015495983 -0.0013717924 0.00795875 -0.0020748451 0.0063127303
-0.0030040403 0.0024524918 -0.0023846766 -0.0006064913 -0.0007983645 -0.0007570887 -5.8573216e-05 0.00016422282
0.00012447182 0.0010075573 0.0015251874 0.002623353 0.0054763504 0.012767598 0.006373278 0.014999599
-0.0011437736 1.6987899e-37 -0.019815352 0.007380936 -0.019306753 0.011146948 -0.015183681 0.010525835
-0.011891322 0.010170643 -0.011266361 0.009035041 -0.0039320034 -0.0043208925 -0.0071559306 -0.007935659
-0.0069022668 -0.010271653 -0.004400695 -0.007966879 -0.0019581164 -0.0015426812 -0.000691193 0.0016154355
0.001973511 0.005641045 0.0069892406 0.010042682 0.020752786 0.020237718 -0.030482693 0.046805367

convs_bc.bias f4 [4, 32, 1]
00000000: 212a 2ebc 84ed b7bb e6f2 bbbb 3417 6e3c
00000010: 4189 bfbb 6161 953b 8f5f 87bc f15c 85ba
00000020: 613e 89bc 5ff5 323a ae63 92bb 6988 2abb
00000030: 3c78 4ebc df50 1ebc af5d 4cba 045d 2c3b
00000040: 7a4d 3e3d c62f 593b ddc1 08bc ba21 233c
00000050: 4916 513c 196e 0b3c 2f0f 593c 9510 1a3c
00000060: 0beb 363d 8561 d6bb a1e0 da3b ea6e 393c
00000070: 95d4 a23b 3039 1abc 288e 923a 01d4 1a3c
00000080: 03f5 0dbc 2e5f bbbb e1b3 edbb 39d7 593c
00000090: 4e46 3abc ccdf 623c 216c 6dbc f197 d9b9
000000a0: a8cf 95bc 38bb 013b 3556 99bb c655 5bba
000000b0: ffa1 3f3c 0a70 07bc fbfa e5bb b391 483c
000000c0: 121d 0d3c 9f61 f1bb a965 96bb d71b 453c
000000d0: ac74 7f3c 23c6 203c 34f4 763c 42ce 473c
000000e0: b140 2a3c 0158 37bc 24bd c83b 81b7 443c
000000f0: 434a 6e3b a0ce 0cbc 5f2b 94b9 a9e0 763c
00000100: b61b babb 31fb 05bc 1f26 02bc fd61 463c
00000110: 9836 45bc 2afb 793c 9106 52bc 4b5d 713b
00000120: 446b 8bbc 374f e9ba f503 09bc 52ab 01bb
00000130: a407 5c3c d6d6 f3bb 9b42 0cbc d594 5c3c
00000140: bf3e 9e3b 9e9a c4bb df8f 0dbc 23e7 1f3c
00000150: cd80 843c 2f2a 253c f39f 773c a23f 303c
00000160: 80b4 133c 88f2 34bc 4955 603b 1470 4f3c
00000170: 2813 8dbb 0898 dcbb 3587 053b 7e03 603c
00000180: 2989 87bc 8af0 1bbc 9e46 4cbc 822a 1c3c
00000190: abee 36bc ffbb 623c de2c 36bc b528 253a
000001a0: 26e5 80bc 2925 a4bb a2e0 0ebc cb3a f9ba
000001b0: 7d87 233c e088 29bc 2954 29bc ec12 2d3c
000001c0: 1583 9a3b fd5c 36bc 281b 34bc b456 533c
000001d0: b429 933c b87d 383c cbf3 8e3c 5553 3d3c
000001e0: bdf3 033c 81be 84bc b861 c0bb dbf0 4e3c
000001f0: bef2 31bc 23ba 5bbb c6fd b0ba b018 3e3c
-0.0106301615 -0.005613031 -0.005735743 0.014531899 -0.0058452194 0.0045587276 -0.016525058 -0.0010174793
-0.016753377 0.0006826724 -0.004467449 -0.0026021248 -0.012601908 -0.009662836 -0.00077959424 0.0026300559
0.046460606 0.0033140047 -0.008347002 0.0099567715 0.012761661 0.008510136 0.013248249 0.0094033675
0.04465775 -0.006542387 0.00667961 0.011317948 0.0049691894 -0.009413049 0.0011181282 0.00944996
-0.008664372 -0.0057181334 -0.0072541093 0.013295942 -0.011369301 0.013847303 -0.014491112 -0.0004150267
-0.018287495 0.001979543 -0.004679466 -0.0008366968 0.011696338 -0.008266458 -0.0070184446 0.012241769
0.008612888 -0.0073663737 -0.0045897556 0.012030563 0.015591782 0.0098128645 0.015072871 0.012195172
0.0103914 -0.011190415 0.006126063 0.012006641 0.0036360181 -0.008594185 -0.00028261074 0.015068212
-0.005679573 -0.0081775645 -0.007943659 0.012108323 -0.012036942 0.015257636 -0.012818948 0.0036829289
-0.017018922 -0.0017800097 -0.00836276 -0.0019785953 0.013429556 -0.007441382 -0.008560802 0.013463219
0.0048292573 -0.005999877 -0.008640259 0.009759697 0.016174698 0.010080858 0.015113818 0.010757359
0.0090152025 -0.011044152 0.0034230521 0.012660999 -0.004305262 -0.0067319907 0.002037478 0.013672708
-0.016544895 -0.009517798 -0.012468008 0.009531619 -0.011165301 0.013838767 -0.011119096 0.00063003163
-0.015734266 -0.0050093126 -0.008720549 -0.0019014714 0.009981033 -0.010347575 -0.010335007 0.010563593
0.004715333 -0.011130569 -0.010992803 0.01289909 0.017964222 0.011260442 0.017450234 0.011555512
0.008053717 -0.01620412 -0.005871024 0.012630667 -0.010861097 -0.0033527694 -0.0013503365 0.011602566

convs_bc.bias_bc f4 [4, 32, 1]
00000000: 5977 41ba cdc3 e0b9 a22a 65ba a90f 5cba
00000010: 8438 f539 cd22 413a eb81 35b9 ea45 bb3a
00000020: 8088 653a 7e37 98ba 5d11 5f3a 302d 0e3a
00000030: 3a40 8bba c48f ee39 1bb3 4db9 b839 a23a
00000040: b751 30ba 5d73 2c3a 0bad 1b3a fb6e fdb9
00000050: a57b 94b9 ecf4 f1b8 98fa 9838 f9db 5339
00000060: fe9a 2b3a 78f3 ddb9 6116 1c3a cb9f 10bb
00000070: 584a e5b9 21de 50ba 37a7 04bb 3cbd a839
00000080: 263a 893a 2af7 3b3a 965c b93a 04f3 a2ba
00000090: ecfa 863a b083 4ab9 f7d5 613a 4680 88ba
000000a0: abf8 15ba 7e2c 933a 3b9a 8b3a 3a77 1cbb
000000b0: 45ae 903a f2b2 da39 0ba2 dd3a 5d4e be3a
000000c0: 8893 0939 35c0 d938 d5cf d73a 94f0 a03a
000000d0: f32d 6638 718e c039 565c f5ba 637f 693a
000000e0: 1a8e 76b8 9fb6 1abb 3d8a 57ba 737d 18ba
000000f0: 19e9 513a ad8c b8ba 55db f4ba c57b bf39
00000100: d944 1eba d904 82b9 2d7e 363a 0ac4 47bb
00000110: 89a9 62ba 2104 ac3a 9a87 8d38 5ce1 cd39
00000120: 5ee8 98ba 5bfc f939 4e9c be3a 6150 9cba
00000130: c1b5 a8b9 1d56 ee38 3ca6 aeb9 95b7 adb9
00000140: ff68 e438 1fa1 80b7 3ea7 9339 565f 60b7
00000150: da32 70b9 d451 8539 daa9 18ba c879 c1b9
00000160: 4926 9038 f5c7 31ba 0c46 ce39 c2d0 6bb9
00000170: dfb4 473a 1da3 9e39 9541 463a 5b3e 873a
00000180: 0d5d ea3a 014f b83a 71ab 0ab9 a95c 24ba
00000190: 48d8 243a acad 40ba 76d5 5d3a da9c a6b8
000001a0: 5c9f 0dba c347 4dba 8d12 55bb 4c72 c139
000001b0: 8228 e739 ffdb bc38 5837 103b 2743 0839
000001c0: 7d40 a6ba 49be 32ba 463e 253a 0e36 633a
000001d0: ce49 ffb8 734b 8339 a523 8b3a 4e53 8a3a
000001e0: 353f b739 8524 143a 16ca 38ba 84bc c13a
000001f0: 99d3 d3b9 d1fc 9839 5a2f 5a3a 4b74 783a
-0.000738015 -0.00042870492 -0.00087420095 -0.00083946675 0.0004677215 0.00073675514 -0.00017309903 0.0014287804
0.0008755997 -0.0011613218 0.0008509362 0.00054236036 -0.0010623999 0.0004550201 -0.00019617045 0.0012376821
-0.00067260436 0.000657847 0.0005938566 -0.00048338607 -0.00028320882 -0.00011537396 7.2946015e-05 0.00020204474
0.0006546228 -0.00042333803 0.00059542625 -0.00220679 -0.00043733674 -0.000796767 -0.002024127 0.00032184448
0.00104696 0.0007170314 0.0014141973 -0.0012432043 0.0010298169 -0.00019313279 0.0008614952 -0.0010414205
-0.00057209533 0.001122847 0.0010650823 -0.0023874776 0.0011038264 0.00041713525 0.0016909254 0.0014519204
0.00013120298 0.00010383168 0.0016465137 0.0012278729 5.4879067e-05 0.0003672722 -0.0018719535 0.0008907227
-5.8783313e-05 -0.0023607386 -0.0008222198 -0.0005817033 0.00080074515 -0.0014080011 -0.0018681089 0.00036522574
-0.0006037481 -0.00024799144 0.00069615507 -0.0030481839 -0.00086464785 0.0013123789 6.748662e-05 0.00039268553
-0.001166593 0.00047681 0.0014542432 -0.001192581 -0.00032178874 0.00011364764 -0.0003331172 -0.0003313391
0.00010891444 -1.5333817e-05 0.0002816263 -1.3373638e-05 -0.00022907127 0.00025428704 -0.00058236497 -0.00036902563
6.873586e-05 -0.000678181 0.0003934357 -0.00022489115 0.00076181995 0.00030257637 0.0007562873 0.0010318266
0.0017880514 0.0014061631 -0.00013224572 -0.0006269911 0.0006288332 -0.0007350098 0.0008462289 -7.944713e-05
-0.00054024695 -0.0007830823 -0.0032512278 0.00036896986 0.00044089934 9.005516e-05 0.0022005644 0.00012994987
-0.0012684014 -0.0006818516 0.000630353 0.00086674176 -0.00012173095 0.0002504248 0.0010615481 0.0010553391
0.00034951573 0.0005651194 -0.0007049156 0.0014780913 -0.0004040271 0.00029180062 0.0008323096 0.0009477778

convs_bc.weight.0.tensor f4 [32, 32, 6, 2]
00000000: ca3e 433c 7de8 5a02 7d23 0e39 d0b6 b2b8
00000010: f008 a638 aa69 f9b8 42ff 5e38 18df 03b9
00000020: 049e 9838 fa1f 02b9 95cf fd37 73a3 a3b8
00000030: 1576 d93b d0c8 e182 71b6 2a3b e5a8 32b9
00000040: a8e7 493b 3355 6dba 767e 923b 317e 7bba
00000050: d742 b03b 84a0 83ba a550 ce3b 4ea3 86ba
00000060: 789b d33b 23f1 ea02 c666 6d39 50ed 79b9
00000070: 2ca8 5539 42ff 5fb9 e1f4 4439 4de8 53b9
00000080: 9ea9 2b39 e060 5eb9 e2f2 0539 6c21 43b9
00000090: 1c01 6fbc 288c 6600 a252 8b3b 55d5 043b
000000a0: 418b a23b f293 2a3a 3100 013c ad3a cb39
000000b0: 889c 1c3c 4e5a 1e3a 9318 243c 8dbe 603a
000000c0: ebc7 8c3b fa4d b602 fc63 643a dcbc 63b7
000000d0: 61f2 803a fac9 3eb9 93f9 803a 1aef 1cb9
000000e0: 9928 6e3a cee0 acb8 83f3 383a 1890 73b7
000000f0: ce42 adbb 2669 8602 4d38 02ba a658 0439
00000100: 6e7a cfb9 5dc6 1139 c761 b2b9 e7e8 1739
00000110: 2fed abb9 8a52 f738 632a 97b9 f10f 7238
00000120: 3eac 883c e84b eb02 3eea 3e3a ded3 1d39
00000130: 088c 853a 2a44 f9b8 a606 733a a38e f1b9
00000140: 8df0 533a 2ae1 e1b9 b43c 1b3a 3798 9eb9
00000150: d354 8439 1669 9602 bf20 1bba cd55 c23a
00000160: d3b5 31ba 431d 893a 50d1 ceba 405e 213a
00000170: b33e 84bb f61f 0639 abf4 e1bb 5fa7 16ba
00000180: 5494 963c a1f5 5802 0c4f 393a a56e d539
00000190: 48a3 293a 23c3 133a 5c47 0f3a 3ce7 203a
000001a0: 0515 fd39 b9a7 153a 8fc3 7a39 0f09 b139
000001b0: bfba fcba 8168 c902 221d 0dba f13b 523a
000001c0: 447b e2ba 1c03 823a 0e77 04bb ae68 713a
000001d0: 4497 20bb 9815 453a 9068 43bb e45e 7d39
000001e0: 20c9 033b f8a6 9302 334c 02b9 be93 9b3a
000001f0: 20be 9dba baef c53a 7918 ddba b562 aa3a
00000200: 6746 2dbb f51f 693a 8ce8 73bb 78a1 5639
00000210: a4c4 04b9 f853 2002 c325 623a 5b3e 283a
00000220: 9148 4e3a c284 533a 334f 083a db0d 523a
00000230: 963d d1b7 62bf 323a 8438 81ba 7666 fc39
00000240: f573 473c fe93 fc01 7683 f1b8 de8b 59b8
00000250: 0352 93b8 4079 73b8 59e1 acb8 df90 bcb8
00000260: cb77 9eb8 3fa7 12b9 7793 bab6 28ed 1bb9
00000270: 3088 193c 1503 a402 ee1e 7936 5910 80b8
00000280: 3a3d 9337 3727 e9b7 3ce1 b837 67f1 9cb7
00000290: e508 0338 2d82 cab7 9b67 3538 808e b4b7
000002a0: e232 e339 7290 ef02 7ff3 8f35 da19 ed33
000002b0: c69b 4235 5b44 c2b3 9ab7 d734 2ca6 6d33
000002c0: 9106 e133 807c fd34 ba8d 56b4 cb72 6335
000002d0: 7cc8 46b9 0da8 3a02 e9a7 4c39 7515 69b7
000002e0: c1aa 6b38 ee17 1db9 8a96 f537 98e7 f5b8
000002f0: 2a4b 9db6 2c7b 10b8 6e9c 57b7 4f4d 2738
00000300: b885 38bd c447 d782 3363 0e39 d3b4 ab39
00000310: 6b9a de38 8d4e 4039 e22e 4e39 84db 6539
00000320: c7ee 9b39 ff73 7839 a895 163a 4cbe 4b39
00000330: 01c7 c4bb e0e1 2b02 c2a2 5cb6 6966 50b9
00000340: c3e7 d137 21d6 03b9 b306 1e38 41e3 c2b8
00000350: 565d 6838 beac c4b8 78a2 9c38 570d 9ab8
00000360: f339 0e3c 8a67 b002 f4a9 a2b8 6d80 0138
00000370: 84aa 8bb9 a66c 2ab8 093d 76b9 77ba 4ab9
00000380: 524a 79b8 e6b9 a4b9 6fc5 4b39 feec b8b9
00000390: 7ae1 3cbc 0a3b 5502 550a 06bc d1b5 5c3a
000003a0: fc27 dcbb 706e 003a 2ebb b6bb a84f da39
000003b0: 75dd 97bb cebc f938 85b1 78bb 28dc c8b9
000003c0: 2b54 7bbc dbc2 8302 c358 02bb 7e2a 423a
000003d0: 5653 afba d751 4c3a dbec 8dba f2cf 313a
000003e0: 5f4e 68ba b703 b039 e743 0fba 091a 0db9
000003f0: d844 1fbc 90a5 4f00 4994 36bb cd55 413b
0.011916826 1.6082831e-37 0.00013555396 -8.521753e-05 7.9171616e-05 -0.00011892927 5.3166652e-05 -0.00012576242
7.2773575e-05 -0.00012409678 3.0256613e-05 -7.8028905e-05 0.006636391 -3.317604e-37 0.0026048685 -0.00017038321
0.0030808244 -0.0009053528 0.0044706417 -0.0009593694 0.0053790617 -0.0010042344 0.0062962347 -0.0010272057
0.0064577423 3.4521615e-37 0.00022640367 -0.00023834896 0.00020375912 -0.00021362028 0.00018783241 -0.00020209067
0.00016371018 -0.00021207659 0.0001277435 -0.000186091 -0.014587667 9.417499e-39 0.004251794 0.0020268757
0.004960448 0.0006507031 0.007873581 0.00038762894 0.009558804 0.0006040678 0.010015625 0.0008573316
0.004296293 2.6787253e-37 0.00087124086 -1.3574227e-05 0.000983786 -0.00018195054 0.0009840004 -0.00014966392
0.0009085029 -8.243472e-05 0.0007055329 -1.4517478e-05 -0.0052875048 1.9749883e-37 -0.0004967496 0.00012621525
-0.00039573334 0.00013902174 -0.00034023655 0.00014487245 -0.00032792377 0.00011793252 -0.00028832545 5.7712143e-05
0.016683694 3.4573715e-37 0.00072828296 0.00015051613 0.0010188827 -0.00011885942 0.0009270705 -0.00046073375
0.0008084856 -0.00043083105 0.0005921826 -0.00030249517 0.000252402 2.2100835e-37 -0.00059176603 0.0014826596
-0.0006779108 0.0010460991 -0.0015778933 0.0006155707 -0.0040357946 0.00012791142 -0.006895622 -0.0005746986
0.018381275 1.5939666e-37 0.0007068969 0.00040708962 0.0006471169 0.00056366826 0.00054656505 0.0006137972
0.0004827158 0.00057088915 0.00023914709 0.0003376682 -0.0019281729 2.9594278e-37 -0.0005383064 0.0008019796
-0.0017279168 0.000991914 -0.0020212564 0.0009209019 -0.0024504224 0.00075181713 -0.0029816963 0.0002416331
0.0020108894 2.1695544e-37 -0.00012426153 0.0011869592 -0.0012034811 0.0015101351 -0.0016868255 0.0012999388
-0.0026439668 0.00088930066 -0.0037217466 0.00020468782 -0.00012661755 1.1779041e-37 0.0008626843 0.0006417983
0.00078690896 0.00080687937 0.000519979 0.0008012929 -2.494342e-05 0.00068186794 -0.0009858762 0.00048141525
0.012173642 9.278254e-38 -0.00011516262 -5.1867093e-05 -7.024782e-05 -5.8048638e-05 -8.2435734e-05 -8.991523e-05
-7.55634e-05 -0.00013985949 -5.560399e-06 -0.000148703 0.009370849 2.4099403e-37 3.7121895e-06 -6.1065606e-05
1.7552276e-05 -2.7794025e-05 2.2039392e-05 -1.870906e-05 3.1241118e-05 -2.4140894e-05 4.3250253e-05 -2.1524029e-05
0.00043334725 3.5200801e-37 1.0725197e-06 1.1040875e-07 7.249731e-07 -9.046263e-08 4.0180458e-07 5.5331995e-08
1.04785734e-07 4.7215508e-07 -1.9981863e-07 8.4731136e-07 -0.00018957438 1.371335e-37 0.00019517507 -1.3892878e-05
5.6187393e-05 -0.00014981601 2.9276376e-05 -0.00011725648 -4.687715e-06 -3.4446988e-05 -1.285142e-05 3.9887902e-05
-0.0450494 -3.1632602e-37 0.0001357913 0.00032750386 0.000106145475 0.0001833981 0.00019663156 0.00021920918
0.00029741807 0.00023694335 0.00057443464 0.0001943048 -0.0060051684 1.2627919e-37 -3.2877292e-06 -0.00019874577
2.5022664e-05 -0.00012572903 3.7676375e-05 -9.29297e-05 5.5400036e-05 -9.378184e-05 7.468922e-05 -7.345777e-05
0.008680808 2.5920304e-37 -7.756418e-05 3.0875603e-05 -0.0002663919 -4.0632345e-05 -0.00023483126 -0.00019333685
-5.9435442e-05 -0.00031419023 0.00019433138 -0.00035271788 -0.011528367 1.5665712e-37 -0.008181174 0.0008419427
-0.0067186337 0.0004899269 -0.005576513 0.0004163955 -0.004634554 0.00011908413 -0.0037947607 -0.00038311002
-0.015339891 1.9360562e-37 -0.0019889332 0.00074068445 -0.0013376276 0.00077941775 -0.0010828035 0.00067830004
-0.0008861776 0.00033572104 -0.00054651353 -0.00013456507 -0.0097210035 7.314397e-39 -0.002785938 0.0029500604
