neuraloperator/examples/para/fno_para_202305121909_001002003004_modes36_epochs250.pth (torch, 812179 bytes, 31 tensors)

convs.bias f4 [4, 32, 1]
0	0x3c1af7c5	0.009458487
1	0x3c09d830	0.0084133595
2	0x3bb1e038	0.0054283403
3	0x3c01de66	0.007926559
4	0x3c18b947	0.009321517
5	0xbc675b04	-0.014120821
6	0x3a29ad7e	0.0006472691
7	0xbaf6ddfb	-0.0018834466
8	0xbbc75ce0	-0.0060840696
9	0x3c0f97c8	0.008764215
10	0xbbf4374d	-0.0074528814
11	0x3b9d73de	0.004805072
12	0xbc2fb07f	-0.010723232
13	0x3d03c3d6	0.032169186
14	0x3d027c0d	0.031856585
15	0x3bb4f7dd	0.0055227117
16	0x3b02635f	0.0019895656
17	0x3c335144	0.010944668
18	0x3b34362d	0.0027498112
19	0x3c2d143d	0.010563907
20	0x3b0676cd	0.0020517588
21	0x3c259b4d	0.010107827
22	0x37da211c	2.6003043e-05
23	0x3c7b108a	0.015323767
24	0x3d04b2b7	0.032397
25	0xba54b6e7	-0.0008114413
26	0x3c0ca56b	0.008584361
27	0x3cb8e96a	0.022572238
28	0x3bd82498	0.006596159
29	0xbacd3020	-0.0015654601
30	0x3d0131cc	0.03154163
31	0x3bf1ac73	0.007375294
32	0x3c13bc6a	0.009017089
33	0x3c288868	0.010286428
34	0xbc126d9c	-0.008937266
35	0xbbffae02	-0.007802726
36	0x3c5f8fdf	0.013645141
37	0xbc29ad3c	-0.010356244
38	0xbbb539a7	-0.0055305543
39	0xbb809c7e	-0.0039249053
40	0xbbee70f0	-0.007276647
41	0x3c07fc68	0.008299924
42	0xbbfd60e6	-0.0077324985
43	0xbb517504	-0.0031960616
44	0xbc0f59e6	-0.008749461
45	0x3c43d4d5	0.011952599
46	0x3bf7ea0b	0.007565742
47	0xbb3dc32d	-0.0028955445
48	0xbb9cd8f8	-0.004786607
49	0x3c22b893	0.009931701
50	0xbb56f5fd	-0.003280043
51	0x3c47822f	0.012177034
52	0x3af39f67	0.0018586934
53	0x3c577694	0.01315083
54	0xbbf27e5e	-0.007400318
55	0x3c05245a	0.008126343
56	0x3c0b39da	0.00849768
57	0xbbc1b649	-0.0059116227
58	0x3c1a284f	0.009409024
59	0x3c2e9860	0.010656446
60	0x3c16305c	0.009166803
61	0x3c06b03e	0.00822073
62	0x3c1073d7	0.008816681
63	0x3bf2fde0	0.007415518
64	0x3c2a3676	0.010388961
65	0x3c38b62e	0.011273904
66	0xbbd9b1f6	-0.006643529
67	0xbbbf4d87	-0.0058380994
68	0x3c70271d	0.014657763
69	0xbc33b6e1	-0.010968895
70	0xbc0201d6	-0.007935008
71	0xbb8d98d6	-0.004321198
72	0xbbf984f9	-0.0076147285
73	0x3c1de3c3	0.009636822
74	0xbc212cb6	-0.00983732
75	0xbc153358	-0.00910648
76	0xbc3845bc	-0.011247095
77	0x3c4a77bd	0.012357649
78	0x3c0f5f1d	0.008750704
79	0xbc0579de	-0.008146731
80	0xbc0c85d2	-0.008576827
81	0x3c25b4ff	0.010113954
82	0xbc0c8523	-0.008576664
83	0x3c356da6	0.0110735055
84	0x3a7879db	0.0009478607
85	0x3c38c0ad	0.011276406
86	0xbb972515	-0.004612575
87	0x3c2832b5	0.010265996
88	0x3c335a75	0.01094686
89	0xbbbbd854	-0.0057325754
90	0x3c08cc39	0.008349472
91	0x3c32df07	0.010917432
92	0x3c231066	0.00995264
93	0x3c0636e5	0.008191799
94	0x3c142dff	0.009044169
95	0x3c18eafe	0.00933337
96	0x3c134f8c	0.008991133
97	0x3c1a9666	0.009435272
98	0xbc4b42af	-0.012406035
99	0xbc1f3543	-0.009717288
100	0x3c7db039	0.015483909
101	0xbc318b79	-0.0108364755
102	0xbc625157	-0.013813338
103	0xbbc61353	-0.006044784
104	0xbc069d3e	-0.0082162
105	0x3c1f6bd7	0.009730301
106	0xbc2fcd1d	-0.010730055
107	0xbc2b407d	-0.010452387
108	0xbc3e0091	-0.011596815
109	0x3c3b1bd8	0.011420213
110	0x3c079380	0.008274913
111	0xbc1cc8af	-0.009569331
112	0xbc357c76	-0.011077037
113	0x3c1dada0	0.009623915
114	0xbc1c603e	-0.00954443
115	0x3c289ee4	0.010291789
116	0xbb01677d	-0.0019745522
117	0x3c50506a	0.012714485
118	0xbc3937ef	-0.0113048395
119	0x3c2c485e	0.010515301
120	0x3c1067c2	0.0088138
121	0x3a3d08eb	0.0007211107
122	0x3c2d2c2e	0.010569615
123	0x3c6b79f2	0.014372336
124	0x3bf30806	0.007416728
125	0x3bc5f9d5	0.006041745
126	0x3c33fea2	0.010986002
127	0x3bbf7fac	0.005844077

convs.bias_bc f4 [4, 32, 1]
0	0x38ac5367	8.217134e-05
1	0xba046188	-0.00050499337
2	0x39a4bdcd	0.0003142193
3	0xbaa73658	-0.0012757285
4	0xbaebce8c	-0.0017990633
5	0x39b20fde	0.00033962628
6	0x3a95e5ab	0.0011436244
7	0x3a29f96c	0.0006484005
8	0x399cf661	0.00029938205
9	0xb91e16a0	-0.00015076483
10	0xb9ab2be9	-0.00032648377
11	0x3a7d93b0	0.0009673191
12	0x3aa0088d	0.001220958
13	0xbafdea55	-0.0019372205
14	0xbab7fd12	-0.0014037213
15	0xbaef42aa	-0.001825412
16	0xba501215	-0.0007937265
17	0xba1d16c8	-0.00059924694
18	0x3acdd72d	0.0015704386
19	0xbac01404	-0.0014654403
20	0xba899d4c	-0.0010499149
21	0xb9c4484d	-0.00037437901
22	0x3ae678af	0.0017583574
23	0xba5bd701	-0.0008386225
24	0x3b0c811b	0.0021439258
25	0x3abe0d01	0.0014499725
26	0x3ac8c88c	0.0015318557
27	0xb9afa775	-0.00033503366
28	0xba457d24	-0.0007533601
29	0x3904b558	0.00012656057
30	0x3aa08046	0.001224526
31	0xb89c744a	-7.46032e-05
32	0x3acba808	0.0015537748
33	0xb7b071b8	-2.103379e-05
34	0x3acc8b08	0.0015605399
35	0x3aade0a5	0.0013265802
36	0xb9a02cdc	-0.00030551
37	0xbb044beb	-0.0020186852
38	0x39de9238	0.0004245208
39	0xba15baae	-0.00057117164
40	0x3a3cbfe9	0.00072002277
41	0xbae95e3a	-0.0017804571
42	0xb9227a8d	-0.00015495178
43	0xbacbedbc	-0.0015558521
44	0xb982fef1	-0.00024985478
45	0x3986bd22	0.00025699387
46	0x3a4c721f	0.0007798988
47	0x3ac57638	0.0015065139
48	0xba3b0770	-0.0007134592
49	0xba862bb6	-0.0010236416
50	0xba80cc45	-0.0009826502
51	0x3a0c72c1	0.0005357676
52	0x3ac86baf	0.0015290881
53	0x3894e0ff	7.099099e-05
54	0xb5638538	-8.475795e-07
55	0x3a9b8fe7	0.0011868448
56	0x3a064c92	0.0005123104
57	0xbacd9da4	-0.0015687239
58	0x3a0ae575	0.0005298474
59	0xb912cf02	-0.00014000761
60	0xba44a4d9	-0.0007501371
61	0xb9a5c3bb	-0.00031617083
62	0x3ac48d39	0.0014995701
63	0xb9dd966a	-0.00042264472
64	0x3a990665	0.0011674879
65	0x3ab4c63f	0.0013791992
66	0xba588594	-0.0008259651
67	0x3a9775d1	0.0011555498
68	0x3a98461d	0.0011617575
69	0xba6e6aaa	-0.00090948737
70	0xb96f6e77	-0.00022833968
71	0xb93d4211	-0.00018049056
72	0x37da91c7	2.6055508e-05
73	0xba0093bd	-0.0004904827
74	0xbaa30e3a	-0.0012440153
75	0xbaaf8282	-0.0013390335
76	0xb9a4495b	-0.00031335172
77	0x38b620b1	8.6845255e-05
78	0x3b0a6c7d	0.0021121793
79	0xb7a33184	-1.9454172e-05
80	0xba862e20	-0.0010237135
81	0xb8e4a008	-0.00010901695
82	0xb9d64ecd	-0.00040875972
83	0xba3e4fe1	-0.00072598277
84	0xbad973f3	-0.0016590342
85	0x37cc107d	2.4326373e-05
86	0x3ab39a6d	0.0013702639
87	0xb9ed74b7	-0.00045291122
88	0xb9a8503a	-0.0003210323
89	0xbad0d784	-0.0015933369
90	0xba63f6b9	-0.00086961273
91	0x3a4b3588	0.0007751812
92	0x3ad925ba	0.001656703
93	0x39d3d6fc	0.00040405232
94	0x3a7f29c1	0.00097337
95	0x3a0f9a64	0.0005478023
96	0xba71769a	-0.00092110934
97	0x38597ac5	5.185117e-05
98	0xba6a7315	-0.000894354
99	0xb9c07daf	-0.00036714735
100	0x38f5fdd1	0.000117297874
101	0xb9811334	-0.00024619105
102	0xba1741f9	-0.00057700236
103	0x385ed885	5.3130574e-05
104	0xba0ffede	-0.0005492995
105	0x3a9e7337	0.001208878
106	0xba2c863d	-0.00065812824
107	0x397664e6	0.00023497976
108	0xb9890656	-0.00026135397
109	0x3998c449	0.00029137943
110	0x391ebd63	0.00015138606
111	0xb9f35c78	-0.00046417466
112	0xb9f4f2f3	-0.00046720318
113	0xba164f1d	-0.00057338347
114	0xb99873a1	-0.0002907785
115	0xba815e96	-0.0009870108
116	0x3a6134ed	0.00085909554
117	0x382c213d	4.103895e-05
118	0xbabcb7a6	-0.0014397993
119	0x38801592	6.1075334e-05
120	0xba7bc3a4	-0.0009604043
121	0xb9e1fe9f	-0.00043105052
122	0xbb23850b	-0.0024951126
123	0x3a1101f0	0.00055316
124	0x39719093	0.00023037409
125	0x3858f099	5.1722487e-05
126	0xba6145a3	-0.00085934455
127	0x392d106d	0.00016504685

convs.weight.0.tensor f4 [32, 32, 18, 2]
0	0x3c70a8c6	0.014688676
1	0x00801228	1.1761457e-38
2	0x3cf542e7	0.029939128
3	0xbc4dc1bd	-0.012558398
4	0x3c94b85e	0.01815432
5	0xbb92f7b9	-0.0044850972
6	0x3c72ef56	0.01482757
7	0xbc43cd93	-0.011950868
8	0x3c55cad2	0.013048844
9	0xbc3d9627	-0.011571444
10	0x3c61746e	0.013760669
11	0xbc325200	-0.010883808
12	0x3c66acae	0.014079256
13	0xbc311abd	-0.010809598
14	0x3c5b415a	0.01338228
15	0xbc28dc0e	-0.010306371
16	0x3c526427	0.012841261
17	0xbc24d678	-0.010060899
18	0x3c6909ca	0.014223525
19	0xbbf40548	-0.0074469186
20	0x3c5e758c	0.01357783
21	0xbc0491c8	-0.008091398
22	0x3c4894a3	0.012242469
23	0xbbd4deb5	-0.0064962753
24	0x3c49e095	0.012321611
25	0xbbc8e161	-0.006130383
26	0x3c3ef744	0.011655632
27	0xbbcac94f	-0.0061885486
28	0x3c32eb3d	0.010920343
29	0xbbc4f24a	-0.0060103284
30	0x3c2257ca	0.009908626
31	0xbb43a281	-0.0029851499
32	0x3bd00274	0.0063479487
33	0xb950ad10	-0.00019900897
34	0x3b20892f	0.002449583
35	0x3c49aa8d	0.012308729
36	0x3c4f9c86	0.012671595
37	0x80520578	-7.532473e-39
38	0x3d644f5b	0.05573974
39	0x3bde62cc	0.00678668
40	0x3cca955e	0.024729427
41	0xbb1fed9d	-0.0024403103
42	0x3c98a943	0.018635398
43	0xbc02c1b7	-0.0079807555
44	0x3c5e98fd	0.01358628
45	0xbbd83490	-0.006598063
46	0x3c7ef6a5	0.015561734
47	0xbbf43c9d	-0.0074535147
48	0x3ca30d3c	0.019903772
49	0xbbd6f7f6	-0.006560321
50	0x3c8fcb9d	0.017553145
51	0xbb64fc93	-0.0034940585
52	0x3c89f1e2	0.016838972
53	0xbb5f7a93	-0.003410016
54	0x3c358ba2	0.011080654
55	0xbb643905	-0.0034824025
56	0x3c49c04f	0.012313916
57	0xbba506cb	-0.00503621
58	0x3c48de5c	0.012260046
59	0xbbac0219	-0.0052492735
60	0x3c60a0d9	0.013710224
61	0xbb8c076c	-0.0042733457
62	0x3c895eb2	0.016768787
63	0xbbdd01c2	-0.0067445943
64	0x3caa3058	0.020775005
65	0xbba92b2e	-0.005162618
66	0x3cdc7c4b	0.026914736
67	0xbbdf0bed	-0.0068068416
68	0x3d1a3a63	0.03765334
69	0xbc5e69a2	-0.0135749895
70	0x3d7e7183	0.062119972
71	0xbcb93eff	-0.022613047
72	0x3be0d1b2	0.006860935
73	0x01c2649e	7.1408724e-38
74	0xbcbcc898	-0.02304487
75	0xbba7b66f	-0.0051181833
76	0xb862b834	-5.405415e-05
77	0x3999b125	0.00029314417
78	0xbaa72469	-0.001275194
79	0xb8c14782	-9.2162765e-05
80	0xba83359a	-0.0010010481
81	0x38a0cc4d	7.6674485e-05
82	0xb9831ece	-0.00025009218
83	0x36c6dbf7	5.926467e-06
84	0xba0c52ea	-0.00053529313
85	0xb9909e08	-0.00027583563
86	0xb980f27f	-0.00024594736
87	0xb976e93e	-0.00023547278
88	0xb95d9fce	-0.00021135734
89	0xb97ea098	-0.00024283153
90	0xb8de07e8	-0.000105872576
91	0xb8ff6027	-0.00012177257
92	0xb8eaed12	-0.00011202147
93	0xb8ef9a9d	-0.00011425207
94	0xb85ab5f0	-5.2144693e-05
95	0xb90c117a	-0.00013357951
96	0xb86906c3	-5.5557826e-05
97	0xb94f03d6	-0.00019742487
98	0xb7925675	-1.7444816e-05
99	0xb97c3e65	-0.00024055837
100	0xb826b89c	-3.9749415e-05
101	0xb9fa3f9a	-0.00047731103
102	0xb906c6b6	-0.00012853261
103	0xba2e7f81	-0.0006656573
104	0xb9a45ba6	-0.000313488
105	0xba9435a5	-0.0011307491
106	0xba2ef67b	-0.00066743017
107	0xba0c1f95	-0.0005345282
108	0x3c030640	0.007997096
109	0x01e45572	8.387658e-38
110	0xbd34cee6	-0.044142626
111	0x3ca1be0a	0.019743938
112	0x3a2fc433	0.0006704956
113	0xbb54af0b	-0.0032452967
114	0xbc0f794b	-0.008756946
115	0x398f3c2b	0.00027319914
116	0x389eca48	7.571705e-05
117	0x3b022219	0.001985675
118	0xba77b904	-0.0009449872
119	0xb874159c	-5.819426e-05
120	0xbb22eff1	-0.0024862255
121	0xb94c2e0f	-0.00019472114
122	0xbabb9f9e	-0.0014314537
123	0xba53b7b0	-0.0008076383
124	0xba7bc03a	-0.0009603534
125	0xb920b4e5	-0.00015326178
126	0xba170286	-0.0005760569
127	0xb9f875a0	-0.00047389884
128	0xb9aa5dfc	-0.0003249495
129	0x389988ba	7.321076e-05
130	0xb92e752c	-0.00016637583
131	0xb926707c	-0.00015872897
132	0xb9af1244	-0.0003339221
133	0xb9f1d5f8	-0.0004612652
134	0xba02b16c	-0.00049855444
135	0xb9140e76	-0.00014119767
136	0xba9a5a58	-0.0011776192
137	0xb86a13a9	-5.5808257e-05
138	0xbb048c09	-0.002022507
139	0x3a46f437	0.00075894914
140	0xbb1b12bc	-0.002366229
141	0x3ada045b	0.0016633378
142	0xbbd3ed0c	-0.006467467
143	0x3b047b11	0.0020214955
144	0x3c55af22	0.013042243
145	0x81180750	-2.7923237e-38
146	0x3d82d94d	0.06389103
147	0xbd2ce546	-0.04221084
148	0x3ca9090f	0.020634202
149	0xba729476	-0.000925369
150	0x3c9c188b	0.019054672
151	0x3c50e797	0.012750528
152	0x3b2fa620	0.00268019
153	0x3c71e701	0.014764548
154	0xbb92ed81	-0.004483879
155	0x3c822c0e	0.015890148
156	0x3bf93116	0.0076047285
157	0x3d47efbf	0.048812624
158	0xbb72ab4c	-0.003702837
159	0x3d31412f	0.043275055
160	0xbb955be2	-0.0045580724
161	0x3d35088b	0.0441976
162	0xbd66b2a2	-0.0563227
163	0x3c80fbc0	0.015745044
164	0xbd610e89	-0.054945502
165	0x3b981b83	0.0046419515
166	0xbd15a039	-0.036529753
167	0xbafbad6d	-0.0019201465
168	0xbc4523f3	-0.012032497
169	0x3b8f823e	0.0043795398
170	0x3c84c114	0.016205348
171	0x3c6c9676	0.01444017
172	0x3cea6e95	0.028617183
173	0x3cc7fd21	0.024412693
174	0x3d30b15d	0.043137897
175	0x3d09d81e	0.03365337
176	0x3d597a32	0.05309505
177	0x3d365ee6	0.044524096
178	0x3d1ea124	0.038727894
179	0x3d94965a	0.0725524
180	0xbbcb5f4a	-0.0062064277
181	0x805eb278	-8.696559e-39
182	0x3d90a395	0.07062451
183	0xbda0eeac	-0.07858023
184	0x3c58759d	0.013211635
185	0x38ef7cb8	0.00011419639
186	0xbb801b50	-0.003909506
187	0x38dc11e8	0.00010493753
188	0xbc72bc9b	-0.014815475
189	0x3be93e33	0.0071180104
190	0xbc5d0677	-0.013490311
191	0x3c23080e	0.009950651
192	0xbbfff813	-0.007811555
193	0x3c8a6794	0.016895093
194	0xbc00c85a	-0.007860268
195	0x3caec4de	0.021334108
196	0xbb09b4f0	-0.0021012388
197	0x3cd092fc	0.025460713
198	0xbca632e0	-0.020287931
199	0x3d16c778	0.036811322
200	0xbc88712a	-0.016655523
201	0x3d08e5e2	0.03342236
202	0xbc7f9f3a	-0.015601927
203	0x3cb847fd	0.022495264
204	0xbc4c3195	-0.012462993
205	0x3ca0a92e	0.019611921
206	0xbc1b4a34	-0.009478141
207	0x3cb39ffd	0.021926874
208	0xbc05f011	-0.008174912
209	0x3cee8e58	0.02912061
210	0xbbf470f0	-0.0074597523
211	0x3d1e35b5	0.038625438
212	0xb884768e	-6.316333e-05
213	0x3d64cb6f	0.055858072
214	0x3d0afaef	0.033930715
215	0x3d9fd538	0.0780434
216	0x3ac7038f	0.0015183556
217	0x029ef966	2.335916e-37
218	0x3639bfc5	2.7678773e-06
219	0xb7970871	-1.8004534e-05
220	0x383c85c2	4.4947265e-05
221	0x3810bb37	3.4506633e-05
222	0xb6259843	-2.4675544e-06
223	0xb6406c72	-2.8673353e-06
224	0x3582d5ea	9.748012e-07
225	0x36990678	4.5605084e-06
226	0x3564eaf0	8.52785e-07
227	0x3181d949	3.7790966e-09
228	0x34598146	2.0256729e-07
229	0x35de0d95	1.6544242e-06
230	0x34c12c38	3.5981225e-07
231	0x35775074	9.2131745e-07
232	0x34ba8f33	3.474939e-07
233	0x35b1db8b	1.3251423e-06
234	0x3532c97b	6.660336e-07
235	0x35789c3c	9.261455e-07
236	0x34bece04	3.5540154e-07
237	0x35cdedde	1.5342919e-06
238	0x351e164e	5.8892044e-07
239	0x35f36a01	1.8135762e-06
240	0x354dafa7	7.662406e-07
241	0x36183607	2.2681213e-06
242	0x357cdf5d	9.420235e-07
243	0x36546f97	3.1655416e-06
244	0x359a2d21	1.1487028e-06
245	0x36862d58	3.99879e-06
246	0xb4e7ede0	-4.320018e-07
247	0x36a5d35a	4.9419878e-06
248	0x362689bc	2.48161e-06
249	0x369dc695	4.7020826e-06
250	0xb6c92fb2	-5.9958193e-06
251	0x35c1cdb6	1.443949e-06
252	0x3b15a173	0.0022831827
253	0x8214630c	-1.0901748e-37
254	0x3c7049e9	0.014666059
255	0x3d0da8af	0.034584697

convs.weight.1.tensor f4 [32, 32, 18, 2]
0	0x3c5ad724	0.013356958
1	0x01cb46fc	7.467228e-38
2	0x3c59bfbb	0.013290341
3	0xbcaf5b8d	-0.02140596
4	0x3c59a1e6	0.0132832285
5	0xbc3593c5	-0.011082594
6	0x3c2d57d3	0.010580021
7	0xbc435c3a	-0.011923844
8	0x3c2d954f	0.01059468
9	0xbc3bc2de	-0.011460034
10	0x3c3b62da	0.011437142
11	0xbc1f237c	-0.00971305
12	0x3c307303	0.010769608
13	0xbc92cd0e	-0.017920043
14	0x3c4b291c	0.012399938
15	0xbc8626c1	-0.016375901
16	0x3c3d4067	0.011550999
17	0xbc64fc46	-0.013976162
18	0x3c950643	0.018191462
19	0xbc49502c	-0.012287181
20	0x3ca0fa88	0.019650713
21	0xbc23c4b9	-0.009995633
22	0x3ca54b9d	0.020177657
23	0xbc10b76b	-0.008832793
24	0x3cb423c5	0.021989712
25	0xbbadd40a	-0.005304818
26	0x3cb9f7ef	0.022701232
27	0xbb19a764	-0.002344572
28	0x3c6f8f80	0.014621615
29	0xb891ae57	-6.946612e-05
30	0x3c52aff5	0.012859334
31	0x3aa43e1e	0.0012530719
32	0x3cbdea96	0.023183148
33	0x3b05b16e	0.0020399946
34	0x3cfdeba0	0.030996144
35	0x3b5d853c	0.0033801338
36	0x3c6b3e35	0.014358093
37	0x0194e8f0	5.470086e-38
38	0x3d170c59	0.03687701
39	0x3ab402a3	0.0013733696
40	0x3c95d182	0.018288378
41	0xbc1b34dd	-0.009473053
42	0x3c20001f	0.009765654
43	0xbc13e1ed	-0.009026033
44	0x3c3274fb	0.010892148
45	0xbbdce1ba	-0.006740776
46	0x3c3e8eda	0.011630738
47	0xbbdb1e26	-0.0066869436
48	0x3c7541d9	0.014969313
49	0xbc38ca1f	-0.011278658
50	0x3c882dc2	0.016623382
51	0xbc05ab0e	-0.008158458
52	0x3c901036	0.017585855
53	0xbc0e3abb	-0.008680995
54	0x3c71af75	0.014751305
55	0xbc0d5c88	-0.008628018
56	0x3c72abe1	0.014811487
57	0xbc1ee74d	-0.009698701
58	0x3c85af32	0.016318891
59	0xbc044887	-0.0080739325
60	0x3c3355ff	0.010945796
61	0xbbf36424	-0.007427709
62	0x3c335b99	0.010947132
63	0xbc2153ef	-0.0098466715
64	0x3c87e737	0.016589744
65	0xbc5cd151	-0.013477639
66	0x3cb2aede	0.021811899
67	0xbcaba62b	-0.020953258
68	0x3ca41912	0.020031486
69	0xbd027884	-0.031853214
70	0x3baccd4f	0.005273498
71	0xbd4328e8	-0.047646433
72	0xbbd8ff70	-0.0066222474
73	0x819e8124	-5.822534e-38
74	0xbb9166ec	-0.004437318
75	0xbc2c8113	-0.010528821
76	0x3aadd5f1	0.0013262612
77	0xbbf5126a	-0.007479002
78	0x3c03445f	0.008011906
79	0xbbe81c9d	-0.007083489
80	0x3bd238df	0.006415471
81	0xbbc8de60	-0.006130025
82	0x3bd01d87	0.006351176
83	0xbb86ff7c	-0.0041198116
84	0x3c12bb3d	0.008955774
85	0xba93995f	-0.0011260918
86	0x3bf2b0d1	0.007406332
87	0x3a237370	0.0006235158
88	0x3bafbed6	0.0053633256
89	0x3abea122	0.0014543871
90	0x3bd14a58	0.0063870363
91	0x3ba19294	0.0049308036
92	0x3be6f6de	0.007048472
93	0x3bcfc049	0.006340061
94	0x3bad325b	0.005285544
95	0x3bd69230	0.0065481886
96	0x3b670a04	0.0035253773
97	0x3bcd4a06	0.006264928
98	0x3a9a1008	0.0011754045
99	0x3bbfa00a	0.0058479356
100	0xbaa1e5e8	-0.0012351843
101	0x3bc6d350	0.006067671
102	0xbaf1b2e6	-0.0018440157
103	0x3c04eba3	0.008112821
104	0x3a4998d8	0.0007690317
105	0x3c18c235	0.009323646
106	0x3ba42464	0.005009221
107	0x3b9584ff	0.0045629735
108	0xbbcb0931	-0.006196164
109	0x020d1342	1.0364571e-37
110	0x3b250aa8	0.0025183354
111	0xbcfd429a	-0.030915547
112	0xbbfcecad	-0.0077186436
113	0xbc8c0caa	-0.017095882
114	0xbbd4eac2	-0.006497712
115	0xbc70bd6d	-0.0146936
116	0x3b91e838	0.0044527315
117	0xbc1e3e77	-0.0096584475
118	0x3bbbfe28	0.005737085
119	0xbbbea8d5	-0.005818466
120	0x3be72197	0.007053565
121	0x390e5c5c	0.00013576582
122	0x3bad1723	0.005282299
123	0x3b1efdb8	0.0024260115
124	0x3b7d346d	0.0038635985
125	0x3b80f46b	0.003935387
126	0x3b989998	0.0046569817
127	0x3bcbf6d8	0.0062244944
128	0x3b95aefb	0.0045679784
129	0x3bfac79e	0.0076531908
130	0x3b3b683c	0.0028596064
131	0x3c0043f5	0.007828702
132	0x3a5833a2	0.000824744
133	0x3bfad490	0.007654734
134	0xbb00426b	-0.0019570838
135	0x3bef3e8a	0.0073011564
136	0xbb98a74e	-0.004658616
137	0x3c0d96d4	0.008641917
138	0xbba27ead	-0.0049589486
139	0x3c411846	0.011785572
140	0x3a7733ed	0.000943004
141	0x3c4ef8a9	0.012632527
142	0x3b901f9a	0.0043982984
143	0x3bdf0adb	0.006806714
144	0x3c652e4b	0.013988088
145	0x82659d57	-1.6869417e-37
146	0x3d317124	0.04332079
147	0xbd74e8b8	-0.05979225
148	0x3bb45f85	0.005504551
149	0xbcd5fd57	-0.026121778
150	0x3c92d1a7	0.017922236
151	0xbbba691c	-0.0056887995
152	0x3b81f2b7	0.0039657014
153	0x3b493599	0.0030702113
154	0x3ada8bed	0.0016673781
155	0x3b09d677	0.0021032372
156	0x3c791ad7	0.015204153
157	0x3d0d8ead	0.034559894
158	0x3c3da559	0.0115750665
159	0x3cea40b6	0.02859531
160	0x3cb5c8f1	0.022190543
161	0x3cf8385a	0.030300308
162	0xbd2a3adc	-0.04156004
163	0x3ce06ce4	0.027395673
164	0xbd258aee	-0.040415697
165	0x3cc89616	0.024485629
166	0xbc8ba72f	-0.017047493
167	0x3c6dd1b6	0.014515331
168	0x3bf2c6f4	0.007408971
169	0x3aad686d	0.0013229974
170	0x3cf90a68	0.03040047
171	0xbc446b0c	-0.011988413
172	0x3d4c94b0	0.049946487
173	0xbc85d560	-0.016337097
174	0x3d6e4c6c	0.05817835
175	0xbcc26b17	-0.023732705
176	0x3d4f8bc8	0.050670415
177	0xbcee8b59	-0.02911918
178	0x3d429669	0.047506724
179	0xbd0e6768	-0.034766585
180	0xbc033ee9	-0.008010604
181	0x8259ebb4	-1.6010286e-37
182	0x3d69eeba	0.057112433
183	0xbdd73c25	-0.105095185
184	0xbaa2ef4b	-0.0012430934
185	0xbcf68223	-0.03009135
186	0xbc52bd10	-0.012862459
187	0xbc9bc81e	-0.019016322
188	0xbcbee380	-0.02330184
189	0xbba3d8f5	-0.0050002285
190	0xbca58905	-0.020206938
191	0x3997b136	0.00028932997
192	0xbce873be	-0.028375503
193	0x3c164e82	0.009173991
194	0xbcb8aa51	-0.02254215
195	0x3c648a10	0.013948932
196	0xbc1a8ed7	-0.00943347
197	0x3c842609	0.016131418
198	0xbc812a6c	-0.015767299
199	0x3ced296b	0.028950414
200	0xbc004ea2	-0.0078312475
201	0x3cb81995	0.022473136
202	0xbb35324b	-0.0027648385
203	0x3c8d1a0d	0.017224336
204	0x3b98cad9	0.004662853
205	0x3c8a3f3c	0.016875856
206	0x3c5b9809	0.013402947
207	0x3c8d866c	0.017276011
208	0x3ca20732	0.019778822
209	0x3c9009ea	0.017582852
210	0x3ce3a85e	0.027790245
211	0x3c93d02b	0.018043598
212	0x3d2f9647	0.042867925
213	0x3c76e490	0.015069142
214	0x3d82a06d	0.06378255
215	0xbb8c8082	-0.0042877803
216	0xbb9292d3	-0.004473069
217	0x826b3631	-1.7280625e-37
218	0xbd958249	-0.073002405
219	0x3d4f1384	0.05055572
220	0xbcaf7d78	-0.021422133
221	0xbbb8ac18	-0.0056357495
222	0xbcc3bda9	-0.023894148
223	0x39fdb8b6	0.0004839354
224	0xbc293f90	-0.010330096
225	0xbbfe600c	-0.0077629145
226	0xbbf12c9b	-0.0073600537
227	0x3b5df56a	0.0033868202
228	0xbc69ba34	-0.014265586
229	0xba3e6c03	-0.000726402
230	0xbc362996	-0.011118313
231	0x3b66f50f	0.003524128
232	0xbbf2e4c1	-0.0074125235
233	0x3b2d3a28	0.002643237
234	0x3bc992a1	0.0061515127
235	0x38ef94d9	0.00011424133
236	0x3bd9a02a	0.0066414075
237	0xba9a758e	-0.0011784302
238	0x3b1bf33d	0.0023796104
239	0x3ac49fb5	0.001500121
240	0xb87f35f4	-6.0846985e-05
241	0x3b354c59	0.0027663915
242	0xbafddce4	-0.0019368199
243	0x3aa26b02	0.001239151
244	0xbb998e83	-0.004686178
245	0x3a6e7ee0	0.00090978853
246	0xbc2e296b	-0.010629992
247	0xbad0ee79	-0.0015940211
248	0xbc8c369a	-0.01711588
249	0xba9eb3b8	-0.0012108004
250	0xbd2750af	-0.04084843
251	0xbca01507	-0.019541277
252	0x3a83b8e0	0.0010049604
253	0x8227730e	-1.2302241e-37
254	0xbb1f4673	-0.0024303466
255	0x3cdf6e10	0.027274162

convs.weight.2.tensor f4 [32, 32, 18, 2]
0	0x3c60153b	0.013676937
1	0x020d65e1	1.0388282e-37
2	0x3c02b39a	0.007977391
3	0xbca30382	-0.019899134
4	0x3c25f810	0.0101299435
5	0xbc363d7c	-0.011123057
6	0x3bf4d76a	0.0074719684
7	0xbc42813c	-0.011871632
8	0x3c1005e9	0.008790472
9	0xbc3b4316	-0.011429569
10	0x3c135c22	0.008994134
11	0xbc41ac96	-0.011820933
12	0x3c0efb09	0.008726844
13	0xbc9faa64	-0.019490428
14	0x3c142cd5	0.009043892
15	0xbc87352b	-0.016504845
16	0x3bf3a488	0.007435385
17	0xbc88e0f8	-0.016708836
18	0x3c56483b	0.0130787445
19	0xbc64b642	-0.013959469
20	0x3c6260a0	0.0138169825
21	0xbc5becc1	-0.013423146
22	0x3c53b533	0.012921619
23	0xbc38d237	-0.011280588
24	0x3c4f354e	0.012646986
25	0xbc26a1be	-0.010170398
26	0x3c430e80	0.011905313
27	0xbbdf778c	-0.006819671
28	0x3c1783f9	0.009247773
29	0xbbc3aa79	-0.0059712497
30	0x3af42756	0.0018627446
31	0xbb88e2f6	-0.0041774465
32	0xbba8c638	-0.0051505826
33	0xbb7e907c	-0.0038843444
34	0xb7502511	-1.2406396e-05
35	0x3a497731	0.00076853024
36	0x3c6fbeb3	0.014632869
37	0x818fff80	-5.289653e-38
38	0x3ccb8116	0.024841826
39	0x3b9b182f	0.0047331075
40	0x3c84ff2d	0.016234959
41	0xbb561280	-0.0032664835
42	0x3c281f85	0.010261421
43	0xbbe82948	-0.0070849992
44	0x3c09bd80	0.008406997
45	0xbbbd75c2	-0.00578186
46	0x3c23f2ca	0.010006616
47	0xbba78c9f	-0.005113199
48	0x3c2183b0	0.009858057
49	0xbbfbaff9	-0.0076808897
50	0x3c22aa6a	0.009928325
51	0xbb89b44e	-0.004202402
52	0x3c2857f8	0.01027488
53	0xbb9301bf	-0.004486292
54	0x3bdb22aa	0.006687482
55	0xbc16f420	-0.009213477
56	0x3bcfce2b	0.006341716
57	0xbc0d69ca	-0.008631179
58	0x3c18ff8c	0.009338271
59	0xbbfad959	-0.0076553044
60	0x3c465227	0.012104548
61	0xbbee49d5	-0.007271985
62	0x3c31a8d6	0.010843476
63	0xbc22c709	-0.009935149
64	0x3c124547	0.00892765
65	0xbc4fb7a4	-0.012678061
66	0x3bc49af6	0.005999918
67	0xbc8b9ddb	-0.017043045
68	0x3b6601af	0.0035096218
69	0xbcd8cbb8	-0.026464328
70	0xbc274e3e	-0.0102115255
71	0xbd07dea1	-0.0331713
72	0xbb9aff76	-0.0047301603
73	0x8269f24a	-1.718767e-37
74	0xbb60030d	-0.0034181506
75	0xbc785d52	-0.015158968
76	0x3c6c606a	0.014427284
77	0xbcbb2bed	-0.022848094
78	0x3ca634e8	0.0202889
79	0xbca0d983	-0.019634968
80	0x3d01bffd	0.031677235
81	0xbbbe8508	-0.0058141984
82	0x3cedb7ed	0.029018367
83	0x3b19c658	0.002346417
84	0x3cfa38da	0.030544687
85	0x3c135876	0.008993259
86	0x3cf31012	0.029670749
87	0x3c94b472	0.01815245
88	0x3cde9b22	0.027173582
89	0x3c489618	0.012242816
90	0x3d33cb02	0.043894775
91	0x3d2650f4	0.040604547
92	0x3d2bd8e1	0.04195488
93	0x3d34475e	0.044013374
94	0x3cdf61c4	0.027268298
95	0x3d27a37f	0.040927406
96	0x3c531bc4	0.012885038
97	0x3d22e496	0.039768778
98	0x3b01a4c3	0.0019782044
99	0x3d0d7e44	0.034544244
100	0xbb8a0986	-0.004212561
101	0x3d04eacd	0.032450486
102	0xbbb5e9a4	-0.005551534
103	0x3d1cae93	0.038252424
104	0x3b7ff58f	0.0039056276
105	0x3d32cb36	0.04365083
106	0x3b1a8290	0.0023576356
107	0x3d4111ce	0.04713612
108	0xbb98fe4e	-0.0046689874
109	0x023cfc87	1.388453e-37
110	0xbb347caf	-0.0027540138
111	0xbbf3f9fe	-0.007445573
112	0x3c656002	0.013999941
113	0xbcbae703	-0.022815233
114	0x3cb632bd	0.02224099
115	0xbc951e94	-0.018203057
116	0x3cf18c00	0.029485703
117	0xbbc6e239	-0.0060694483
118	0x3ce37121	0.027763905
119	0x3b19884e	0.0023427191
120	0x3cdfeea1	0.027335467
121	0x3c338db6	0.0109590795
122	0x3cd0f83e	0.025508996
123	0x3c8a2f84	0.01686836
124	0x3cb8a785	0.022540817
125	0x3c27fee5	0.010253643
126	0x3d0416cb	0.0322483
127	0x3d06a352	0.0328706
128	0x3ceadd6a	0.028670032
129	0x3d1ca718	0.03824529
130	0x3c933789	0.017970817
131	0x3d0e1270	0.034685552
132	0x3c07858c	0.008271586
133	0x3d0095f2	0.031393
134	0x3a2769b0	0.0006386293
135	0x3cd2f0eb	0.025749644
136	0xbb919756	-0.0044430895
137	0x3cc065e6	0.023486089
138	0xbbc056ee	-0.005869738
139	0x3cdfecdd	0.027334625
140	0x399013bb	0.0002748052
141	0x3cf40ade	0.029790338
142	0x3aa9b954	0.0012948909
143	0x3cf82081	0.030288937
144	0x3c83d5bd	0.01609313
145	0x0242bde1	1.4307362e-37
146	0x3d2c055c	0.0419973
147	0xbd8ffa83	-0.07030203
148	0x3bb1192e	0.005404613
149	0xbd487e4b	-0.048948567
150	0x3c6e6c49	0.014552184
151	0xbceb2d76	-0.0287082
152	0x394a9a42	0.00019321687
153	0xbc513037	-0.012767843
154	0xbb4921ad	-0.0030690238
155	0xbaaac967	-0.0013029993
156	0x3a96f811	0.0011518021
157	0x3ceff65e	0.029292282
158	0xbb87ab9c	-0.0041403305
159	0x3cb4705b	0.022026232
160	0x3c038b7c	0.008028861
161	0x3ce2b156	0.027672451
162	0xbd402573	-0.046910714
163	0x3c7599b6	0.014990261
164	0xbd392ef8	-0.04521081
165	0x3c25f757	0.010129771
166	0xbcb41f69	-0.021987634
167	0x3b443405	0.0029938233
168	0x3b15c0d2	0.0022850526
169	0xbb8b5a79	-0.0042527285
170	0x3cd445e2	0.025912229
171	0xbc69c034	-0.014267016
172	0x3d1fc63d	0.039007414
173	0xbc9ca779	-0.019122826
174	0x3d3245c2	0.043523557
175	0xbcd8c646	-0.026461732
176	0x3d1009db	0.03516565
177	0xbd119211	-0.03553969
178	0x3d4a4c7f	0.04938936
179	0xbd41f4d4	-0.047352627
180	0xbc5832a0	-0.013195664
181	0x01c56baa	7.252086e-38
182	0xbc835c85	-0.016035328
183	0xbd6c3a60	-0.05767286
184	0xbd42ee25	-0.047590394
185	0xbc64ff78	-0.013976924
186	0xbda1d69f	-0.07902264
187	0xbd22097c	-0.039559826
188	0xbd7f3ac3	-0.0623119
189	0xbd0951ea	-0.033525385
190	0xbd57571d	-0.052573312
191	0xbca0bade	-0.019620355
192	0xbd7a677b	-0.061133843
193	0xbc956724	-0.018237658
194	0xbd4d8b76	-0.05018183
195	0xbc07d416	-0.008290311
196	0xbd29cfd6	-0.041457973
197	0x39458f0c	0.00018840673
198	0xbd177c32	-0.036983676
199	0x3b0fe957	0.002195915
200	0xbd05857e	-0.03259801
201	0x3b96719b	0.0045911795
202	0xbce4304a	-0.027855057
203	0x3c0728d3	0.008249479
204	0xbcab059c	-0.020876698
205	0x3c3d03e5	0.011536573
206	0xbc7b43f0	-0.015336022
207	0x3c7b5c14	0.015341777
208	0xbbb3bb61	-0.005484984
209	0x3cb0a42d	0.02156266
210	0x3c30dd4b	0.010794948
211	0x3cbd09d9	0.023075985
212	0x3ceaf86a	0.028682906
213	0x3b907fbd	0.004409759
214	0x3ce7d6eb	0.028300723
215	0xbc9769e6	-0.018483113
216	0xbc130db8	-0.008975439
217	0x00fef5a8	2.3414341e-38
218	0xbd9b5824	-0.07585171
219	0x3dcd8c61	0.10036541
220	0xbb12b335	-0.0022384648
221	0xbbe94dc5	-0.0071198666
222	0xbbef2525	-0.007298129
223	0x3d05bdf9	0.032651875
224	0xbb51497e	-0.0031934674
225	0xbba52498	-0.0050397627
226	0xba34b5ad	-0.0006893527
227	0x3c33fa65	0.010984992
228	0xbb7c5171	-0.0038500691
229	0xbc038e4c	-0.008029532
230	0xbbb25ff9	-0.0054435697
231	0x3b20403f	0.0024452356
232	0xbacc70ae	-0.0015597546
233	0xb92d81ea	-0.00016546962
234	0x3b0e32da	0.002169779
235	0xba544834	-0.00080979173
236	0x3b8036f3	0.0039128005
237	0xba5d5684	-0.0008443373
238	0x3b1f5d8d	0.0024317235
239	0x3a6bdcb8	0.0008997428
240	0x3975fead	0.00023459895
241	0x3b4ab0b1	0.003092807
242	0xbaa51871	-0.0012595785
243	0x3b27e032	0.0025615809
244	0xb9fa856f	-0.00047783132
245	0x3b937438	0.0044999383
246	0x38bee9b2	9.103435e-05
247	0xbb0a0e82	-0.0021065776
248	0xbb25b4d2	-0.002528478
249	0x3bbad593	0.0057017296
250	0xbc649680	-0.013951898
251	0xbc1052e3	-0.008808824
252	0x38d82312	0.00010306215
253	0x020dc657	1.0415965e-37
254	0xbc5dc2f9	-0.013535255
255	0x3ccc9e5a	0.024977852

convs.weight.3.tensor f4 [32, 32, 18, 2]
0	0x3c60898b	0.013704668
1	0x82828787	-1.9179572e-37
2	0xbb7070ac	-0.0036688251
3	0xbca0c034	-0.0196229
4	0x3bb47d00	0.005508065
5	0xbc332326	-0.010933673
6	0x3b8968dc	0.0041934084
7	0xbc3ddd5f	-0.0115884235
8	0x3bb36df1	0.0054757525
9	0xbc4736db	-0.012159075
10	0x3bc52755	0.0060166516
11	0xbc3a2859	-0.011362159
12	0x3b125c90	0.0022333004
13	0xbc8d1942	-0.017223958
14	0x3b5d2730	0.0033745281
15	0xbc86e53e	-0.016466733
16	0x3b82a5f4	0.0039870683
17	0xbc72bbbe	-0.014815269
18	0x3c13f4a1	0.009030492
19	0xbc712bc8	-0.014719911
20	0x3c0d1e4a	0.0086131785
21	0xbc51ebb6	-0.0128125455
22	0x3c18eaae	0.009333296
23	0xbc31408f	-0.010818615
24	0x3c1e2a04	0.009653572
25	0xbc1e3a85	-0.009657507
26	0x3bdc84df	0.0067297067
27	0xbc076233	-0.008263159
28	0x3ba51439	0.005037811
29	0xbc147d78	-0.009063117
30	0xba2eb74e	-0.0006664888
31	0xbc01f0a2	-0.0079309065
32	0xbbfc2bd2	-0.0076956535
33	0xbb8551da	-0.0040685954
34	0xbc2637be	-0.010145126
35	0x3a81e40d	0.0009909883
36	0x3c67ae6f	0.014140709
37	0x01ec16dc	8.672551e-38
38	0xbb81712d	-0.003950259
39	0x3c02757e	0.007962583
40	0x3c454319	0.012039923
41	0x3b968ae7	0.004594195
42	0x3bb7b2cd	0.0056060315
43	0x3aa11430	0.0012289342
44	0x3b27317a	0.0025511668
45	0xbad8b968	-0.0016534748
46	0x3b689aec	0.0035492731
47	0xbb0bdc29	-0.0021340942
48	0xba94fc7b	-0.0011366749
49	0xbaf1594a	-0.0018413451
50	0x399d3d5f	0.000299911
51	0xb9a47f40	-0.00031375326
52	0x3a6e7bbc	0.00090974174
53	0xb92910b8	-0.00016123324
54	0xbb02431e	-0.001987643
55	0xbc27fb40	-0.010252774
56	0xba0fc60e	-0.00054845295
57	0xbc17a215	-0.009254952
58	0x3b605fe7	0.003423685
59	0xbc08a585	-0.008340244
60	0x3c0bfff5	0.008544912
61	0xbbdaab2c	-0.0066732373
62	0x3c57f019	0.013179802
63	0xbc011bbc	-0.007880148
64	0x3c8565bd	0.016283864
65	0xbc4ca7e9	-0.012491205
66	0x3c8b5337	0.017007453
67	0xbc7563e9	-0.014977434
68	0x3c904b7f	0.017614124
69	0xbca3dbeb	-0.020002326
70	0x3c0e1bd8	0.008673631
71	0xbca6630e	-0.020310905
72	0xbc6a35a7	-0.014295018
73	0x8225aa5c	-1.2171176e-37
74	0xbbefda0f	-0.007319696
75	0x3d1f5913	0.038903307
76	0xbc42bc75	-0.011885752
77	0x3d0c07a4	0.034186974
78	0xbbd57804	-0.006514551
79	0x3cfe14e0	0.031015813
80	0xbc04d23a	-0.008106763
81	0x3cd77d74	0.026304938
82	0xbc12fc1b	-0.008971239
83	0x3cb96ae9	0.022633987
84	0xbb488232	-0.003059518
85	0x3cf3e825	0.029773781
86	0xbb9f0818	-0.00485326
87	0x3cdc1632	0.026866052
88	0xbba0cbbc	-0.0049070995
89	0x3cd26dde	0.025687154
90	0xbc3d8362	-0.011566969
91	0x3cbb1641	0.02283776
92	0xbc48c048	-0.012252875
93	0x3ca37ce4	0.019957013
94	0xbc30eabd	-0.0107981535
95	0x3c9969d5	0.018727222
96	0xbc21757e	-0.0098546725
97	0x3c8380bc	0.016052596
98	0xbbf6ad8e	-0.0075280135
99	0x3c8169ed	0.01579758
100	0xbb30f503	-0.0027001507
101	0x3c84a938	0.016193971
102	0x3bd41220	0.006471887
103	0x3c6f952c	0.014622968
104	0x3c8e8b78	0.017400488
105	0x3c392b04	0.01130176
106	0x3cb8fd36	0.022581678
107	0xbba89d42	-0.0051456997
108	0xbc6bd236	-0.01439338
109	0x82202e0a	-1.1768156e-37
110	0x3c8c271e	0.017108496
111	0xbca56ade	-0.02019256
112	0xbc2b0b47	-0.0104397
113	0x3c36b17d	0.011150715
114	0xbb7ebac7	-0.0038868652
115	0x3c95c996	0.0182846
116	0xbbc1c35f	-0.0059131826
117	0x3c8ff61d	0.01757341
118	0xbc1e155d	-0.009648648
119	0x3c6ecc9c	0.01457515
120	0xbbf36535	-0.0074278363
121	0x3cb26d0b	0.021780511
122	0xbbfb86ce	-0.007675982
123	0x3ca6f249	0.020379202
124	0xbbc9456a	-0.006142308
125	0x3ca6fbad	0.02038368
126	0xbc8a7762	-0.01690263
127	0x3c8cfe13	0.017210996
128	0xbc86b5d9	-0.016444134
129	0x3c5e331d	0.013561991
130	0xbc6b11d3	-0.014347511
131	0x3c4bd351	0.0124405185
132	0xbc194004	-0.009353641
133	0x3c3da390	0.011574641
134	0xbb29b1b5	-0.0025893275
135	0x3c0ca208	0.008583553
136	0x3b6bdfa3	0.0035991452
137	0x3c243ffb	0.01002502
138	0x3c6ae1a2	0.014336022
139	0x3befff50	0.007324137
140	0x3cd543c2	0.026033286
141	0x3b1ce8ef	0.002394255
142	0x3ceed421	0.029153885
143	0xbc8e9e2a	-0.017409403
144	0x3c830f30	0.015998453
145	0x82723f42	-1.7797506e-37
146	0x3cbf8f88	0.02338387
147	0xbd909da6	-0.07061319
148	0x3c63087c	0.013857003
149	0xbd813bd8	-0.063102424
150	0x3c5cadc0	0.01346916
151	0xbd2a8d81	-0.041638855
152	0xbb8e25a8	-0.004337985
153	0xbce12f2c	-0.027488314
154	0xbbfd3a15	-0.007727871
155	0xbc80cc4a	-0.015722413
156	0xbcbc51b2	-0.022988174
157	0x39fe6f1e	0.00048529444
158	0xbc9ff69d	-0.019526774
159	0x3bc46abc	0.005994169
160	0xbc2baa00	-0.010477543
161	0x3c729c82	0.014807822
162	0xbd48f6e0	-0.049063563
163	0xbba3cadd	-0.0049985484
164	0xbd35ee83	-0.044416916
165	0xbc2abba7	-0.010420716
166	0xbca9c142	-0.020722035
167	0xbc21804f	-0.009857251
168	0x3c0d485f	0.008623212
169	0xbc464d2e	-0.012103362
170	0x3d149149	0.036271367
171	0xbc924f5c	-0.017860107
172	0x3d657151	0.05601627
173	0xbcb86d2b	-0.022512993
174	0x3d8c33c8	0.06845814
175	0xbce63709	-0.028102415
176	0x3d81845c	0.06324074
177	0xbcd60145	-0.026123652
178	0x3d793bd7	0.060848083
179	0xbccd10c2	-0.025032405
180	0xbc685f0c	-0.014182817
181	0x8206e8af	-9.911542e-38
182	0xbca99012	-0.02069858
183	0x3d81539a	0.06314774
184	0xbb437053	-0.002982159
185	0x3c863bd9	0.01638596
186	0xbb0771ce	-0.0020667198
187	0x3c601f0f	0.01367928
188	0x3b202200	0.0024434328
189	0x3c6860ce	0.014183236
190	0x3b4f9bed	0.0031678632
191	0x3c4d96dd	0.012548176
192	0x3c2e5d0c	0.010642301
193	0x3c8970d5	0.016777435
194	0x3be01df0	0.0068395063
195	0x3c78c83b	0.015184457
196	0x3bd4c112	0.0064927423
197	0x3c5970a6	0.013271486
198	0xbb097bd6	-0.0020978353
199	0x3ca161f3	0.019700026
200	0xbb98f2ef	-0.004667632
201	0x3c9c260a	0.019061107
202	0xbbd0b8fe	-0.006369709
203	0x3c6c0951	0.014406518
204	0xbc04b7ef	-0.008100494
205	0x3c4c1fa3	0.012458715
206	0xbc0d2e57	-0.008617005
207	0x3c413ebb	0.011794741
208	0xbc0891ba	-0.008335525
209	0x3c6f8382	0.014618756
210	0xbbaa3317	-0.0051940787
211	0x3cafd21b	0.02146249
212	0xba5d6364	-0.00084452913
213	0x3cc9f25b	0.024651697
214	0x3b19c4df	0.0023463292
215	0x3d18d4bb	0.03731225
216	0xbc8801f5	-0.016602496
217	0x020b9f05	1.0257744e-37
218	0xbcc6b942	-0.02425826
219	0x3d682014	0.056671217
220	0xbb64c978	-0.0034910124
221	0x3d683d05	0.056698818
222	0x3b486305	0.0030576598
223	0x3d1ec477	0.038761582
224	0x3b651e52	0.00349607
225	0x3cf90bd8	0.030401155
226	0x3bf7938f	0.007555432
227	0x3cc389c0	0.023869395
228	0x3c914c7b	0.017736664
229	0x3cbdbb1d	0.023160512
230	0x3c4d849f	0.012543826
231	0x3c86e530	0.016466707
232	0x3c84d2bf	0.016213773
233	0x3c51bb60	0.012801021
234	0xbc16320d	-0.0091672065
235	0x3ca09063	0.019600099
236	0xbc1f3818	-0.009717964
237	0x3cb4ca1f	0.022069035
238	0xbbc658da	-0.0060530724
239	0x3c92f0be	0.01793706
240	0xbb26b2e4	-0.0025436217
241	0x3c5dcea0	0.013538033
242	0x3a13ec60	0.00056428276
243	0x3c562375	0.013069977
244	0x3aa74b67	0.001276356
245	0x3c8f9d31	0.01753101
246	0x3be2e8f9	0.006924745
247	0x3d00c7a2	0.031440385
248	0x3cd66c30	0.026174635
249	0x3d2c3db2	0.042051025
250	0x3d70b8dd	0.05877005
251	0x3c52cac5	0.012865727
252	0xbab33ded	-0.0013675072
253	0x0226f259	1.2265304e-37
254	0xbc844d7e	-0.016150232
255	0x3c665fc0	0.0140609145

convs_bc.bias f4 [4, 32, 1]
0	0x3bd3483b	0.0064478195
1	0x3c2dcf36	0.010608485
2	0xbc263a13	-0.010145682
3	0xbba88053	-0.0051422506
4	0x3c165bb9	0.009177142
5	0xbc6cbf5a	-0.014449919
6	0xbc42898c	-0.011873614
7	0xba7b71eb	-0.0009591865
8	0xbbb85d0c	-0.0056263264
9	0x3c017c19	0.007903122
10	0xbbc439c2	-0.0059883306
11	0xbc34310e	-0.010998024
12	0xbc096932	-0.008386897
13	0x3c2fa49c	0.010720398
14	0x3c0c0388	0.008545764
15	0xbbc54391	-0.0060200174
16	0xbc90bac3	-0.01766718
17	0x3bfdb96e	0.007743052
18	0xbc1480c0	-0.0090638995
19	0x3c1a7af1	0.009428726
20	0x3a9b35e1	0.0011841619
21	0x3c1e25db	0.00965258
22	0x3bd93c95	0.0066295364
23	0x3cb68a8f	0.022282867
24	0x3bfda581	0.007740677
25	0xbbe4d338	-0.006983187
26	0x3bdbf4bf	0.0067125256
27	0x3c1ea573	0.009683001
28	0x3c3035bd	0.010755
29	0x3bd2291a	0.006413591
30	0x3c33c698	0.010972641
31	0x3c176b45	0.009241884
32	0x3c129e2e	0.008948846
33	0x3c462aad	0.012095136
34	0xbc0a06b2	-0.008424448
35	0xbc068a72	-0.008211719
36	0x3c333c9f	0.010939746
37	0xbc3ef80a	-0.011655817
38	0xbc3b7c02	-0.01144314
39	0xbab14de2	-0.0013527239
40	0xbbb8cb12	-0.0056394422
41	0x3c0107cf	0.007875397
42	0xbbe6712e	-0.007032535
43	0xbc249c6a	-0.010047058
44	0xbc15ec54	-0.009150583
45	0x3c1c1fac	0.009529036
46	0x3c163638	0.0091682
47	0xbb354578	-0.0027659815
48	0xbc175d7d	-0.009238598
49	0x3c192561	0.009347291
50	0xbc16e1ba	-0.009209091
51	0x3c2516d3	0.0100762425
52	0x3acd1794	0.0015647286
53	0x3c05c4ff	0.008164643
54	0xbc0876c1	-0.008329094
55	0x3c3eb37c	0.011639472
56	0x3c17ded7	0.009269438
57	0xbbf00c2b	-0.0073256693
58	0x3c0e7b27	0.008696354
59	0x3c311577	0.01080834
60	0x3c3bc1a1	0.011459739
61	0x3bf8cd8c	0.0075928625
62	0x3c3613b6	0.011113098
63	0x3c0e5a59	0.008688533
64	0x3c209660	0.009801477
65	0x3c1d5ece	0.009605123
66	0xbc3cb57b	-0.011517878
67	0xbc10be37	-0.008834413
68	0x3c3dacbe	0.0115768295
69	0xbc2fff1d	-0.010741976
70	0xbc4af5dd	-0.01238772
71	0xbb2ca344	-0.002634243
72	0xbbef5d06	-0.0073047904
73	0x3c2399e0	0.009985417
74	0xbc0bf9d7	-0.008543453
75	0xbc0d1231	-0.008610294
76	0xbc2a76a7	-0.0104042655
77	0x3c263945	0.01014549
78	0x3c1a5af5	0.0094211
79	0xbc130914	-0.008974332
80	0xbc3b866a	-0.011445621
81	0x3c2d390f	0.010572686
82	0xbc13d145	-0.009022062
83	0x3c3e2433	0.01160531
84	0xba441a74	-0.00074807485
85	0x3c2e156e	0.010625226
86	0xbc1e78fc	-0.0096724
87	0x3c152ec6	0.00910539
88	0x3c239fc7	0.009986824
89	0xbba7e988	-0.0051242746
90	0x3c187fb8	0.009307794
91	0x3c44a360	0.012001842
92	0x3c1dcf9d	0.009632018
93	0x3be8e743	0.0071076467
94	0x3c3b4377	0.011429659
95	0x3bff031f	0.0077823545
96	0x3c250dbb	0.010074074
97	0x3c24186b	0.010015587
98	0xbc1a6ba1	-0.009425075
99	0xbc30492d	-0.010759634
100	0x3c80e101	0.01573229
101	0xbc48ba89	-0.012251505
102	0xbc7d832d	-0.015473169
103	0xbbf80e80	-0.007570088
104	0xbc0b4e3f	-0.008502542
105	0x3c11e538	0.008904748
106	0xbc19fa9e	-0.009398131
107	0xbc32ca9c	-0.010912564
108	0xbc52ca5e	-0.012865631
109	0x3c2f80c3	0.0107118515
110	0x3c0cd961	0.008596749
111	0xbc04327a	-0.008068675
112	0xbc55fde5	-0.013061021
113	0x3c27c396	0.010239502
114	0xbc09d5bb	-0.008412774
115	0x3c1e6385	0.009667282
116	0xb92301ae	-0.00015545517
117	0x3c4a19c1	0.012335242
118	0xbc233962	-0.009962412
119	0x3c104398	0.008805178
120	0x3c354597	0.011063955
121	0x3a3dbbc8	0.00072377594
122	0x3c226e57	0.009914002
123	0x3c48fb84	0.012266997
124	0x3c399705	0.01132751
125	0x3c028018	0.00796511
126	0x3c31ce30	0.010852382
127	0x3c0bcfc3	0.008533421

convs_bc.bias_bc f4 [4, 32, 1]
0	0x3a94872d	0.001133179
1	0x39b8c8ab	0.00035244724
2	0x399f2ebc	0.00030361663
3	0x395bf9f3	0.00020978581
4	0x398e00ac	0.0002708485
5	0xbacb73a1	-0.0015522131
6	0x3a1b6c5f	0.00059289293
7	0x3a840340	0.0010071769
8	0xba78f5a7	-0.0009497054
9	0x3a8a4b9c	0.0010551098
10	0xb8290600	-4.0298328e-05
11	0x3a9ea790	0.0012104381
12	0x39d42824	0.00040465698
13	0xb9cb5de8	-0.00038789143
14	0xba6e56f3	-0.0009091936
15	0xba3d6be9	-0.00072258577
16	0xba219c4e	-0.0006164954
17	0x3abe1ddb	0.0014504747
18	0x3b2bf8fd	0.0026240938
19	0xb72e32d6	-1.0383044e-05
20	0x3a1aab8b	0.00059001957
21	0x3a95a42c	0.0011416725
22	0x3b0113b7	0.001969559
23	0x3a2f9127	0.00066973496
24	0xb9ec4fb5	-0.00045072814
25	0xb89b6629	-7.410005e-05
26	0x3a7ab05f	0.00095630245
27	0x3aa070a1	0.0012240597
28	0x3b5ed996	0.0034004203
29	0xb9c1f396	-0.00036993314
30	0xb7d06b44	-2.4845482e-05
31	0xba8a720e	-0.0010562555
32	0xba57d44e	-0.0008233235
33	0x3a8d8c66	0.0010799288
34	0x39a5b2c9	0.00031604458
35	0xb8c2d492	-9.290235e-05
36	0x3ae4ebd7	0.0017465305
37	0xba774222	-0.0009432157
38	0xba60ca9f	-0.0008575115
39	0x39a4f40c	0.00031462347
40	0x3a10fcf0	0.00055308547
41	0x39e8c55d	0.00044397535
42	0xbab526b9	-0.0013820744
43	0xba6c9204	-0.00090244436
44	0xb940e7c6	-0.00018396889
45	0xb9222f4a	-0.0001546714
46	0xba923337	-0.0011154179
47	0x39fc1a91	0.0004808498
48	0xb9d888ee	-0.0004130075
49	0x39697799	0.00022265165
50	0x3a5269c0	0.0008026622
51	0xb8abd90b	-8.194343e-05
52	0x3aba049d	0.0014192049
53	0x39cca8bf	0.00039035638
54	0x3a1f9358	0.00060873246
55	0xb9b29aa3	-0.0003406602
56	0xb8a1ae91	-7.709594e-05
57	0x39ded807	0.00042504093
58	0xbaa88a15	-0.0012858534
59	0xb9da3d45	-0.0004162585
60	0x3918cebd	0.00014572866
61	0xba1f4247	-0.0006075245
62	0xb9eb28b8	-0.0004485303
63	0x3913a889	0.00014081797
64	0xb84c18fd	-4.8660662e-05
65	0x3a7673e8	0.00094014267
66	0x3a90b974	0.0011041597
67	0x3ae37bc5	0.0017355612
68	0x3a96e024	0.0011510891
69	0x3a88429b	0.0010395827
70	0x387fb02d	6.0960814e-05
71	0xb9e28384	-0.00043204066
72	0x3af06455	0.0018340448
73	0x3a5350a2	0.00080610265
74	0xba4c91b7	-0.00078036956
75	0xbac1c032	-0.001478201
76	0xba83363d	-0.0010010671
77	0xba414b82	-0.0007373617
78	0xb8a51424	-7.8715646e-05
79	0x3a886070	0.0010404717
80	0x3ae2471d	0.0017263625
81	0xbace7469	-0.0015751246
82	0xba90a31a	-0.0011034936
83	0xb7c7b538	-2.3807035e-05
84	0x392a7f05	0.00016259782
85	0xb9cd6b16	-0.00039180432
86	0xb8b50623	-8.6318956e-05
87	0x3a6ac7c3	0.00089561584
88	0x39953cfa	0.00028464926
89	0x3a85234c	0.0010157614
90	0xb853b48b	-5.0474464e-05
91	0x3894c270	7.093407e-05
92	0xb9d5510a	-0.00040686905
93	0xb98588ae	-0.0002546957
94	0x3a106038	0.0005507502
95	0x39957c35	0.00028512036
96	0xb99dd6f1	-0.00030105517
97	0x37dcae01	2.630707e-05
98	0x3acc962f	0.0015608723
99	0xb9adbcc4	-0.00033137773
100	0xba20f2e7	-0.0006139711
101	0xbaab6bec	-0.0013078428
102	0x3a1572d2	0.00057010085
103	0xba0be75f	-0.0005336906
104	0xba82ca3a	-0.0009978481
105	0x39871681	0.00025765973
106	0xb9b7bd8d	-0.00035045706
107	0x37ba9543	2.2242433e-05
108	0x3a9ac301	0.0011807383
109	0x3a86a7db	0.0010273413
110	0x3a33179c	0.0006831826
111	0xba7d2a15	-0.0009657455
112	0x39c37e66	0.00037287473
113	0x392d8b79	0.00016550523
114	0xb9cba4e3	-0.00038842027
115	0x3aa8aa4e	0.0012868138
116	0xba34d9e0	-0.0006898921
117	0x38a26726	7.743975e-05
118	0xb99f8c4c	-0.00030431373
119	0xb93e4930	-0.00018147076
120	0x39dc81ca	0.0004205837
121	0x3a43c84f	0.0007468508
122	0x39cb1612	0.0003873562
123	0x39beec1b	0.00036415536
124	0x3982b678	0.00024931482
125	0x3a3201f0	0.000679045
126	0x3b277fd3	0.0025558367
127	0x39cc7f2f	0.0003900467

convs_bc.weight.0.tensor f4 [32, 32, 6, 2]
0	0xbbccac88	-0.0062461533
1	0x0287a10c	1.9928904e-37
2	0x3d1486d5	0.0362614
3	0xbccf0501	-0.02527094
4	0x3d5ae0b1	0.05343694
5	0xbc60f985	-0.013731365
6	0x3d357f89	0.04431108
7	0xbc3d2c47	-0.011546201
8	0x3ccf5212	0.025307689
9	0xbc21e981	-0.009882332
10	0x3c9eef25	0.019401142
11	0xbbec1071	-0.0072041084
12	0xbc22204b	-0.009895395
13	0x00f73808	2.2703468e-38
14	0xbd3d30c8	-0.0461891
15	0xbd60c2ae	-0.05487316
16	0xbcd9cf90	-0.026588231
17	0xbcab5023	-0.020912236
18	0xbc9edfad	-0.019393766
19	0xbc328e10	-0.010898128
20	0xbc55bf40	-0.013046086
21	0xbc4d9812	-0.012548463
22	0xbc2fe8a1	-0.010736615
23	0xbc4e7d69	-0.012603142
24	0x3c1ee115	0.009697218
25	0x827fede9	-1.8802718e-37
26	0xbd00a02b	-0.031402748
27	0x3ba83568	0.0051333196
28	0xbbc9c3ab	-0.0061573586
29	0x3a856547	0.0010177278
30	0xbbf6aff3	-0.007528299
31	0xb9c871e5	-0.0003823183
32	0xbbe6ee86	-0.007047477
33	0xba6c38c5	-0.0009011145
34	0xbbe8fd7c	-0.007110296
35	0xbad394fa	-0.0016142421
36	0x3bb062ef	0.0053828876
37	0x01bd548a	6.954894e-38
38	0x3c1b4ceb	0.009478788
39	0x3c35d500	0.011098146
40	0x3b1f6c4d	0.0024326027
41	0x39bf3794	0.00036471768
42	0x3b9be301	0.0047572856
43	0x3add0bf1	0.0016864521
44	0x3b897db2	0.0041958923
45	0xb9b66563	-0.00034789284
46	0x3b7b451b	0.003834075
47	0x3a231507	0.000622109
48	0xbc369d31	-0.011145876
49	0x82496e57	-1.4798814e-37
50	0xbb6e0bea	-0.003632302
51	0xbd5c1a92	-0.053736277
52	0x3c57754b	0.013150523
53	0xbc1139b5	-0.008863856
54	0x3cb24f6a	0.021766383
55	0xbc669b78	-0.014075153
56	0x3cd6787d	0.0261805
57	0xbb81f44c	-0.00396589
58	0x3cf14995	0.029454032
59	0xbac3e506	-0.0014945574
60	0x3c39fc79	0.011351698
61	0x01b2a7c8	6.562763e-38
62	0xbd9f8b57	-0.07790249
63	0xbd1cb3ee	-0.03825753
64	0xbc5465c1	-0.012963713
65	0xbb8bb053	-0.004262963
66	0xbbc0899d	-0.00587578
67	0x3af7dd4f	0.001891056
68	0x3b4d74aa	0.0031350055
69	0x3c4a929d	0.012364057
70	0x3bf5d1de	0.0075018248
71	0x3c3831b8	0.011242323
72	0x3c3329bf	0.010935246
73	0x01aae00e	6.276964e-38
74	0xbd088de4	-0.033338442
75	0x3d442b96	0.04789313
76	0x3909a9df	0.0001312862
77	0x3c83c4b3	0.016085004
78	0x3bb787c0	0.0056008995
79	0x3c442a4d	0.011972976
80	0x3c085f4a	0.0083235
81	0x3be34650	0.006935872
82	0x3c22f70f	0.009946599
83	0x3b72fc8b	0.0037076797
84	0x3b508f5c	0.003182373
85	0x80b3f0a0	-1.6524874e-38
86	0xbcda2c51	-0.02663246
87	0xbb900252	-0.004394808
88	0x3b5c1dac	0.0033587022
89	0x39e5bbf4	0.0004381832
90	0x3c058959	0.008150422
91	0x3b7d987d	0.0038695626
92	0x3c510004	0.012756351
93	0x3c2286dd	0.009919849
94	0x3c652a3d	0.013987121
95	0x3c5bb506	0.013409859
96	0x3bd39273	0.006456667
97	0x81a42b4e	-6.0306225e-38
98	0x3d4ad6b4	0.049521163
99	0xbd5955b5	-0.053060252
100	0x3d409943	0.04702116
101	0xbbfacfbf	-0.00765416
102	0x3d506825	0.05088057
103	0xbbbe2df3	-0.0058038174
104	0x3d447b1f	0.04796898
105	0xbaf9217f	-0.0019007175
106	0x3d2aa363	0.041659724
107	0xb9d5efe0	-0.00040805247
108	0xbc02a885	-0.0079747485
109	0x820cef47	-1.0354245e-37
110	0x3d86f153	0.06588998
111	0xbd2244c1	-0.03961635
112	0x3d4430ec	0.047898218
113	0xbca24412	-0.01980785
114	0x3d348761	0.04407442
115	0xbc8584da	-0.0162987
116	0x3d112ccb	0.03544311
117	0xbc50e227	-0.012749231
118	0x3cdb30f6	0.026756745
119	0xbc240f30	-0.010013387
120	0x3ba66858	0.0050783567
121	0x82270b97	-1.2272548e-37
122	0xbd2d4994	-0.042306498
123	0xbd4d6982	-0.05014945
124	0xbc941ff4	-0.018081643
125	0xbc2a06f8	-0.010377638
126	0xbcafbef5	-0.02145336
127	0x3a53c63c	0.00080785505
128	0xbcb2ed46	-0.021841656
129	0x3b24a485	0.0025122475
130	0xbca56609	-0.020190256
131	0x3b52b4fc	0.0032151332
132	0x3c22ad50	0.009929016
133	0x81fbf550	-9.2554844e-38
134	0x3d953634	0.07285729
135	0x3d87d851	0.06633056
136	0x3cce99f9	0.025219904
137	0x3cda8d2c	0.026678644
138	0x3cc6deb0	0.024276108
139	0x3ccbf812	0.024898563
140	0x3c5cdb2f	0.013479992
141	0x3c8eca05	0.017430315
142	0x3c7c09a3	0.015383157
143	0x3c844764	0.016147323
144	0x3c38017e	0.0112308245
145	0x821bfbf8	-1.1459913e-37
146	0xbd835dac	-0.06414351
147	0xbd525811	-0.051353518
148	0xbc0f8112	-0.0087588
149	0xbc88f64f	-0.016719012
150	0x3c55f99d	0.013060001
151	0xbc238c15	-0.009982129
152	0x3c946903	0.01811648
153	0xb9352323	-0.00017274595
154	0x3c9257b3	0.017864084
155	0x3b9ac2c6	0.004722926
156	0xbc094b3c	-0.008379754
157	0x0183571e	4.8246807e-38
158	0x3cdecb0a	0.027196426
159	0xbd592582	-0.053014286
160	0x3c1f56ee	0.0097253155
161	0xbc909777	-0.017650349
162	0xbcc5ff19	-0.024169492
163	0xbc5507dc	-0.013002362
164	0xbc187273	-0.009304631
165	0xbc440b30	-0.011965558
166	0xbc851ad9	-0.016248154
167	0xbc51aae1	-0.012797088
168	0xbc01b7c2	-0.007917346
169	0x01d0f6a4	7.6761045e-38
170	0x3d3f9699	0.04677448
171	0xbd8fe1ec	-0.07025513
172	0x3c92a1e1	0.017899456
173	0xbd071f5d	-0.032988895
174	0x3c4358da	0.011923039
175	0xbcc09f7c	-0.023513548
176	0x3c1b1291	0.009464876
177	0xbcaf7ffe	-0.021423336
178	0x3c0ce9ad	0.0086006345
179	0xbc997c85	-0.018736133
180	0x3be591cd	0.007005906
181	0x822ee02f	-1.2847839e-37
182	0x3dbd1186	0.09231858
183	0x3d1fee61	0.039045695
184	0x3d549566	0.05190029
185	0x3c77f1e9	0.0151333595
186	0x3d4b12ac	0.049578354
187	0x3cb0e9fb	0.021595946
188	0x3cc45aba	0.023969043
189	0x3ca2e290	0.019883424
190	0x3ccaf283	0.024773842
191	0x3c82f23d	0.015984649
192	0x3c9adac5	0.018903146
193	0x824abda9	-1.4895046e-37
194	0xbcd879ed	-0.026425326
195	0xba96f702	-0.0011517706
196	0xbc02ee2f	-0.007991358
197	0xbad109be	-0.0015948338
198	0xbc7bd6a5	-0.015370999
199	0xb8e55bc0	-0.00010936661
200	0xbc4c26dc	-0.012460437
201	0xb9b49d38	-0.00034449412
202	0xbc63a934	-0.013895322
203	0xb9d33b2c	-0.00040289143
204	0xbc034d8f	-0.008014097
205	0x80549090	-7.766041e-39
206	0x3d3b48e9	0.04572383
207	0xbd3bbe3c	-0.04583572
208	0x3d38d770	0.045127332
209	0xbc85b66e	-0.01632234
210	0x3d0eb5d5	0.034841377
211	0xbc14d142	-0.009083094
212	0x3cb3aa28	0.021931723
213	0xbbde6276	-0.00678664
214	0x3c6b937c	0.014378425
215	0xbbfda5ff	-0.0077407355
216	0x3c0235ad	0.007947368
217	0x82098a9e	-1.0104952e-37
218	0xbd9a252e	-0.07526623
219	0x3b90d13e	0.004419475
220	0xbd25b8df	-0.04045951
221	0x3b50a22e	0.0031834948
222	0xbd3a3736	-0.04546281
223	0x3bc8b820	0.006125465
224	0xbd41a4b6	-0.04727622
225	0x3adf2189	0.0017023544
226	0xbd46e664	-0.04855956
227	0xb8550624	-5.0788876e-05
228	0xbc2bbd99	-0.010482215
229	0x81000d74	-2.351954e-38
230	0xbd6ee2a8	-0.058321625
231	0xbd2b7df0	-0.04186815
232	0xbd1c6025	-0.038177628
233	0xbcb1fd73	-0.0217273
234	0xbd05fe8f	-0.03271347
235	0xbcaa7899	-0.020809459
236	0xbce4ad1a	-0.027914573
237	0xbc5e4865	-0.013567065
238	0xbcc7e916	-0.024403136
239	0xbc461706	-0.01209045
240	0xbb14dabf	-0.002271339
241	0x015bf468	4.03993e-38
242	0x3ca4099a	0.02002411
243	0xbd186afb	-0.0372114
244	0x3c3695fd	0.011144158
245	0xbc3d47cf	-0.011552765
246	0x3bc5c0c6	0.0060349433
247	0xbbb384c0	-0.0054784715
248	0x3c1725e8	0.009225346
249	0xbb556691	-0.0032562355
250	0x3c0c0919	0.008547091
251	0xbb29c9d0	-0.0025907643
252	0xbc0bcf3a	-0.008533293
253	0x01c8dc8a	7.3784855e-38
254	0x3d8a5497	0.067544155
255	0x3d22ef5e	0.03977906
