neuraloperator/examples/para/fno_para_202305122006_001002003004_modes36_epochs250.pth (torch, 812179 bytes, 31 tensors)

convs.bias f4 [4, 32, 1]
000000 e4 ff 77 3b 6d ef ad 3b 9a 5c 1a 3d bc 1c 1f 3d
       0.0037841732 0.005308083 0.037685968 0.038845763
000010 a8 39 21 3c 26 8a 20 3d 37 4e e1 3b d7 79 9b 3c
       0.0098404065 0.03919425 0.006875779 0.018978996
000020 b3 64 cd 3b ea 44 ba 3b b3 06 48 3b d8 d4 bb 3b
       0.006268108 0.0056844847 0.0030521571 0.00573216
000030 f4 22 8b 3b 1e 6d 6d 3c ab 2b b1 3b 97 47 e8 3b
       0.00424611 0.014491348 0.005406817 0.0070886123
000040 98 44 ac 3b 02 6d b3 3a c6 5b b4 3b db ae ba 3b
       0.0052572004 0.0013689103 0.0055041043 0.005697114
000050 98 aa a2 3c 42 57 45 3c ac 73 da bb e5 77 11 38
       0.019856736 0.01204473 -0.006666621 3.4682354e-05
000060 01 ac 24 3b 44 e9 1d 3d 43 9a 90 3c 1e e5 12 bc
       0.0025126936 0.038552538 0.017651683 -0.008965759
000070 13 f8 e6 3c 0a 75 30 3b 21 51 87 3b f6 35 4b 3c
       0.028194463 0.002692523 0.0041295444 0.012403002
000080 90 e8 a9 3b e8 28 d0 3b 0f 26 18 3c 68 54 cb 3b
       0.0051851943 0.0063525327 0.009286418 0.0062051304
000090 b9 c3 c3 bb 14 b3 e6 3b 54 a1 01 3c e2 18 0c 3c
       -0.0059742597 0.0070403907 0.007911999 0.008550854
0000a0 00 44 bd 3b 0f cb d3 3b f5 f8 07 3b 64 34 f5 3b
       0.0057759285 0.0064634155 0.0020747755 0.007483052
0000b0 ee ac 7d 3b 0e 33 10 3c d6 65 ad 3b fc e7 aa ba
       0.003870781 0.008801235 0.005291681 -0.0013039107
0000c0 f1 d1 70 b8 57 b1 ab 3b 6c 85 1a bb 05 9b 23 3b
       -5.7415982e-05 0.0052396464 -0.002357806 0.0024964225
0000d0 5d ed db ba 10 6c d2 3b b3 5e d5 bb 9b e8 5b 3b
       -0.0016779114 0.0064215735 -0.006511533 0.0033555392
0000e0 07 c0 9e 3b 6b e1 0a 3c 44 59 f4 3a 40 c6 41 bc
       0.004844669 0.008476595 0.0018642326 -0.011827052
0000f0 b7 6e 83 3b 05 d1 00 3b 63 2e 31 3b 5d bb 0b bc
       0.004011001 0.0019655835 0.0027035705 -0.008528558
000100 35 ee a7 3b 6f 4e ba 3b 1f 24 10 3c f0 c6 01 3c
       0.005124832 0.0056856195 0.008797674 0.007920966
000110 c8 f6 cf bb 60 bb 8f 3b a6 3d e8 3b dd 1f c6 3b
       -0.0063465573 0.0043863505 0.007087427 0.006046279
000120 27 1c 08 3c 3d 58 c9 3b 8f b5 54 b9 28 15 0f 3c
       0.008307493 0.006144552 -0.00020285531 0.008733071
000130 1d 15 93 3b 8d 6d df 3b 6b 46 a6 3b 58 7b 8f bb
       0.004488601 0.0068184794 0.0050743124 -0.0043787174
000140 02 08 1c 3c db 21 1b 3c fb 47 93 bb 4d a2 7c 3b
       0.009523394 0.009468521 -0.0044946647 0.0038548887
000150 28 29 c0 bb eb 26 fa 3b 7d 48 cf bb 30 6f 80 bc
       -0.005864281 0.007634034 -0.00632578 -0.015678018
000160 dd 1c 03 3c b1 ae e2 3b ed 7c 72 3b a0 dd 57 bc
       0.008002487 0.0069177975 0.003700073 -0.013175398
000170 d6 1e bc 3a e5 43 9f 3a e2 ed fd 3a ba 81 80 bb
       0.0014352452 0.0012150971 0.0019373263 -0.0039217146
000180 15 c8 df 3b e8 a4 ad 3b e5 77 35 3c 77 b3 00 3c
       0.0068292716 0.0052991994 0.011075948 0.007855288
000190 c0 06 0c bc 6b 49 a8 3b 5e 42 d8 3b c2 86 15 3c
       -0.008546531 0.005135705 0.0065997085 0.009126367
0001a0 60 a8 d6 3b b2 b4 f3 3b 61 b9 c3 bb 3a 28 00 3c
       0.0065508336 0.007437312 -0.0059730266 0.007822091
0001b0 fd 02 28 3b 27 24 19 3c f4 90 c1 3b 61 cf 28 bc
       0.0025636547 0.009346998 0.0059071723 -0.010303349
0001c0 f1 c4 49 39 f5 ab 2e 3c 28 b5 01 bc b1 2e e4 3b
       0.0001924222 0.010661115 -0.007916726 0.006963574
0001d0 51 d5 0e bc 45 ef c9 3b 72 76 19 bc bc 0d c1 b9
       -0.008717851 0.0061625564 -0.0093666185 -0.00036822062
0001e0 77 b2 44 3c ef 68 0e 3c 2d 12 30 3b 39 35 68 bc
       0.01200544 0.00869201 0.0026866302 -0.0141728455
0001f0 42 5c f4 bb 74 42 8e 3a 58 1f 87 bb c2 9c c9 bb
       -0.007457287 0.0010853545 -0.0041236095 -0.00615272

convs.bias_bc f4 [4, 32, 1]
000000 67 ad a1 39 f2 05 89 ba d0 81 08 bb 65 a9 28 3a
       0.00030837508 -0.0010454042 -0.0020829327 0.0006433933
000010 83 14 98 3a 13 b0 56 3a 43 04 34 3a 5d d3 a8 b8
       0.0011602793 0.0008189689 0.000686709 -8.050234e-05
000020 a0 2b 5e 3a 42 85 35 bb 61 cc 5e ba 1b c9 01 b9
       0.00084751286 -0.0027697836 -0.0008499083 -0.00012377316
000030 37 b6 8a b9 98 a3 bb 39 fb 2c 57 ba 00 ab 13 ba
       -0.00026457172 0.00035789306 -0.0008208302 -0.0005633086
000040 b3 22 b7 38 91 2e bf ba 40 90 18 ba 9e 9f b7 b9
       8.732583e-05 -0.0014586021 -0.0005819835 -0.00035023404
000050 8f ec 17 39 2c f5 b1 ba 96 47 23 ba 4a 41 ae 39
       0.00014488607 -0.0013577095 -0.00062286237 0.0003323651
000060 33 a6 9a 39 f0 10 12 3a 30 eb 12 bb b3 e5 64 ba
       0.00029496997 0.0005571982 -0.0022418015 -0.00087317376
000070 91 21 a7 3a b3 70 5d b9 2d be b9 39 ce 80 fb b9
       0.0012751092 -0.00021118186 0.00035427642 -0.00047970418
000080 42 47 e0 b8 4d 69 07 3b 28 fc b0 39 99 35 5b ba
       -0.00010694425 0.002066213 0.00033757207 -0.00083621737
000090 6e 61 47 38 3d cb 1f 3a 35 b9 07 ba 1a ff 93 3a
       4.7536036e-05 0.00060956535 -0.00051774393 0.0011291236
0000a0 8d 91 1f 3a a1 d2 38 3a c8 11 a3 38 80 93 69 3a
       0.00060870574 0.0007050429 7.775758e-05 0.0008910224
0000b0 4d ea 08 ba dc 57 62 3a 2a 8c 82 3a db ba 1b b9
       -0.0005222902 0.0008634308 0.0009959985 -0.00014851561
0000c0 72 7f ca 38 52 ed 82 39 af 22 1e 39 47 6b 07 3a
       9.655849e-05 0.0002497235 0.00015080975 0.0005165827
0000d0 12 1f 29 3a ab 0f d8 39 1c ce 9b b9 b6 30 0c ba
       0.0006451468 0.00041210404 -0.00029717467 -0.00053478347
0000e0 00 72 9f ba 6a b0 cb 39 c9 50 25 3a 8e b9 4b 3a
       -0.0012164712 0.00038850616 0.00063062884 0.0007771485
0000f0 9e 7c 8b ba 72 9e a8 3a aa a3 90 3a 58 9c 3a ba
       -0.0010641997 0.0012864603 0.0011035104 -0.0007118634
000100 34 b7 89 b9 2c c0 8e b6 a4 65 ef b9 4e c2 fe 39
       -0.00026267173 -4.2543015e-06 -0.0004566136 0.00048591424
000110 17 37 a8 39 fa 0f 81 39 8e d1 57 ba e9 01 c4 3a
       0.00032084502 0.000246167 -0.0008232825 0.0014954183
000120 1e 2e 7f 3a e7 70 a2 ba 33 fb 16 ba 8c 4e 25 ba
       0.000973435 -0.0012393267 -0.00057594775 -0.0006305955
000130 9a cb 88 3a 45 f0 83 ba cf d6 c3 ba a9 b7 ab 38
       0.0010436655 -0.0010066113 -0.0014941337 8.188125e-05
000140 30 93 66 3a a9 78 33 ba f1 d5 31 3a 9f d6 cf 39
       0.00087957364 -0.0006846288 0.0006783894 0.00039642022
000150 8f dd 35 b7 39 be 89 3a d4 19 12 3a 09 fd ac 3a
       -1.0840026e-05 0.0010508961 0.00055733067 0.0013197969
000160 1e ff c1 3a fc 31 d7 39 c2 77 0d 3b c0 8b a1 39
       0.0014800762 0.00041045237 0.0021586274 0.00030812435
000170 5c 53 46 3a 29 ab 8f 3a 10 74 0a 38 71 f5 85 ba
       0.0007565522 0.0010961044 3.3009856e-05 -0.0010220242
000180 48 f1 56 3a 37 76 98 3a b8 a8 b6 ba 5e 43 c6 3a
       0.0008199406 0.001163191 -0.001393578 0.0015126278
000190 62 ac 35 3a e8 c0 89 3a 6b 89 1f 3a d5 f8 06 3b
       0.0006930289 0.0010509761 0.00060858455 0.0020595093
0001a0 58 16 5b 3a 27 c0 9d b9 4a a1 3a 3a d6 62 cd 39
       0.00083575165 -0.00030088538 0.0007119371 0.00039174285
0001b0 54 0b 59 3a 80 e1 32 3a a2 8b ed b9 4d 22 5f 3b
       0.0008279581 0.0006823763 -0.00045308197 0.0034047544
0001c0 49 95 b2 b8 44 75 f1 b8 92 18 37 39 db 60 20 b9
       -8.515508e-05 -0.00011513618 0.00017461393 -0.0001529487
0001d0 06 a4 ca 39 23 a5 57 39 78 07 c4 b9 1f 43 6b 36
       0.0003865065 0.00020565516 -0.00037389598 3.5056798e-06
0001e0 f1 2a e7 ba c7 93 8d 3a b8 67 89 39 a1 74 a8 b8
       -0.0017636699 0.0010801487 0.00026207953 -8.032588e-05
0001f0 b5 47 17 3a 06 74 8a 38 97 3c d1 39 7c 0f 86 ba
       0.0005770878 6.601964e-05 0.0003990873 -0.0010228003

convs.weight.0.tensor f4 [32, 32, 18, 2]
000000 2e 3d 2c 3c 30 b9 43 80 81 fc 03 3c 0b 3e 41 3b
       0.010512633 -6.219411e-39 0.008055807 0.0029486443
000010 c7 e0 22 3c b7 f5 10 bb 2b 25 27 3c 62 92 88 ba
       0.009941286 -0.0022119114 0.010201733 -0.0010419602
000020 4d 01 14 3c 05 cd f1 39 2e a7 2b 3c 08 96 bc 37
       0.009033513 0.00046119854 0.01047687 2.248121e-05
000030 d6 93 82 3c 53 8c 28 3b a5 2e 44 3c 8f e2 36 3b
       0.015939634 0.0025718405 0.011974012 0.0027906036
000040 5c 3f 3e 3c 9a 90 d1 3a 3c be 1b 3b d8 85 fd bb
       0.011611786 0.0015988529 0.0023764512 -0.0077369027
000050 3c 2c 61 3b 99 2a 15 bc f6 5a 79 3b 2f b2 07 bc
       0.003435864 -0.009104394 0.0038048602 -0.008282228
000060 2d 8f cd 3b 61 e4 e2 bb 97 01 43 3c 41 7f 80 bb
       0.0062731714 -0.0069241975 0.0119022345 -0.00392142
000070 4e 90 9e 3c 1b d0 60 bb b0 d5 0b 3d fd 58 af ba
       0.01935592 -0.0034303728 0.034139335 -0.0013377961
000080 1a 34 5d 3d a3 d5 c7 bb 4b 16 9c 3d 4c 4e 57 bc
       0.054004766 -0.0060984655 0.076214395 -0.013141226
000090 0a 09 53 3c e1 f0 13 02 0a 91 32 3c 45 87 5d 3c
       0.012880573 1.0868983e-37 0.010898838 0.01352102
0000a0 74 5c 29 3c 05 7d 02 3b 4d 3c 4a 3c 7e ba c1 bb
       0.010336984 0.0019910943 0.012343478 -0.005912124
0000b0 da 40 45 3c 46 1b b0 bb 7e c1 69 3c c7 eb f1 bb
       0.012039388 -0.005374345 0.014267324 -0.007382843
0000c0 61 95 96 3c 6b 9e 15 bc 50 b6 6c 3c 77 0b f2 bb
       0.018381776 -0.009132008 0.014447764 -0.0073866206
0000d0 c9 f5 5b 3c a9 97 0b bc 8b 31 32 3c c0 12 8f bb
       0.013425299 -0.008520045 0.01087607 -0.004366249
0000e0 b4 02 25 3c 03 3b ea ba e8 ba 19 3c 28 08 c5 b8
       0.010071445 -0.001787037 0.009382941 -9.395211e-05
0000f0 12 46 00 3c ab f0 de b7 47 9d f6 3b 69 ed 27 bb
       0.007829206 -2.6576532e-05 0.007526073 -0.0025623685
000100 df e7 13 3c 53 97 fa ba 31 ca 4f 3c 43 aa de bb
       0.00902745 -0.0019118584 0.0126824835 -0.006795199
000110 db 86 97 3c 24 cf 16 bc 37 8b 14 3d fc 28 42 bc
       0.018496921 -0.00920466 0.036265578 -0.011850592
000120 4a 39 a7 3c 10 49 0c 80 c4 68 ca 3a 6f 15 30 3c
       0.02041306 -1.128236e-39 0.00154426 0.010747298
000130 3c 07 52 bc 5c cb b3 3c cc 09 4c bc 78 27 cf 3c
       -0.012819108 0.021947555 -0.012453508 0.025287375
000140 79 dc 36 bc c3 bf c8 3c e0 f5 22 bc 34 57 74 3c
       -0.011160963 0.024505502 -0.0099463165 0.014913369
000150 c2 dd 4c bc 1f 85 c5 3c d1 76 64 bc 71 77 b7 3c
       -0.012504043 0.024111329 -0.013944344 0.022395821
000160 46 4e 43 bc 89 32 a9 3c 09 11 92 bc af 69 70 bb
       -0.011920517 0.02065398 -0.017830389 -0.0036684086
000170 10 b3 8d bc 62 ad 0a bc 33 7a 1c bc 9e bc c8 bb
       -0.017297298 -0.008464189 -0.009550619 -0.0061260005
000180 bc d7 28 bb 83 02 ea ba a3 a2 e0 3a 99 73 a9 3a
       -0.0025763353 -0.0017853532 0.0017138313 0.0012928128
000190 40 6f 91 3b 0d 20 9b 3b cb 86 e7 3b e1 ac 44 3c
       0.004438311 0.0047340454 0.007065629 0.012004108
0001a0 a7 4c 3f 3c 9e 62 e0 3c 35 86 02 3d 61 eb 83 3d
       0.01167599 0.027390774 0.03186627 0.06441379
0001b0 92 46 b1 3c 89 ca 55 82 f1 c3 9e 3c 7d 6a 49 3b
       0.021640096 -1.5706893e-37 0.019380542 0.0030733638
0001c0 2c 58 df 3b 05 63 0c 3c 4d cb 8b 3a 95 b8 0f 3c
       0.006815931 0.00856853 0.0010665447 0.008772035
0001d0 fd 5f 94 b9 19 47 ec 3b df 4e aa 39 c7 5e dc 3b
       -0.00028300277 0.007210624 0.0003248369 0.0067251655
0001e0 68 e8 8a ba 07 9e 82 3b 41 18 c6 ba 0e 10 8b 3b
       -0.0010597827 0.0039861235 -0.0015113429 0.004243857
0001f0 f5 55 00 bb a5 a8 c5 3b 57 2c 9a bb d5 c8 9b ba
       -0.0019582484 0.006032067 -0.0047049928 -0.0011885414
000200 88 52 b7 bb fd d9 ca ba b6 e8 81 bb 27 48 8d b9
       -0.0055945553 -0.0015476343 -0.003964509 -0.00026947373
000210 79 a1 4a bb 1f 15 87 3a 31 31 8f bb 63 c3 2d 3b
       -0.0030919 0.0010305977 -0.0043698777 0.0026514165
000220 8b 0a e3 bb 23 2f 81 3b df 70 26 bc 4d 5c c0 3b
       -0.006928747 0.0039423867 -0.0101587465 0.005870378
000230 d6 14 31 bc 75 e0 02 3c d4 bb 37 bc 07 0a 02 3d
       -0.01080819 0.007988085 -0.011214215 0.031747844
000240 98 0a 43 3c b6 30 9b 01 67 09 98 3b 8d ab a7 3a
       0.011904381 5.7007904e-38 0.0046397927 0.0012792215
000250 61 48 3f 3a c7 9d 6e 39 55 69 22 39 38 dc 17 39
       0.0007296857 0.00022756225 0.00015488763 0.0001448252
000260 ee 37 ab 38 c2 a7 0e 39 a4 c2 0e 38 7f e2 ae 38
       8.164333e-05 0.0001360467 3.403671e-05 8.339155e-05
000270 65 51 0f b8 e0 06 be 38 cf 30 8c b8 f3 9b e0 38
       -3.416966e-05 9.0611866e-05 -6.6848115e-05 0.000107102
000280 27 42 90 b8 0d e2 d7 38 b1 e5 46 b8 7d 14 33 b7
       -6.878777e-05 0.00010294104 -4.7420795e-05 -1.0674002e-05
000290 52 14 06 38 58 b0 91 b7 ef 80 35 38 0c 93 09 b6
       3.1967014e-05 -1.7367463e-05 4.327384e-05 -2.0500183e-06
0002a0 0c eb 1f 38 9a 51 41 37 28 d2 21 38 fe db c1 37
       3.812746e-05 1.1522696e-05 3.8581114e-05 2.3109835e-05
0002b0 b4 8f 8f 38 0a 71 5b b6 14 fc bc 38 69 c3 bb b8
       6.845538e-05 -3.269934e-06 9.011492e-05 -8.953253e-05
0002c0 44 56 10 36 b0 83 37 b9 21 a8 5b ba 8b 28 2e ba
       2.1507885e-06 -0.00017501297 -0.000837924 -0.00066436146
0002d0 63 bb fe 3c f8 fe aa 80 af 58 bc 3c 1b c0 45 ba
       0.031095212 -1.57035e-38 0.022991506 -0.00075435796
0002e0 ae ca 03 3c 15 a5 87 bb 6f 0f bc b9 bd a7 54 bb
       0.008043928 -0.0041395524 -0.00035869653 -0.0032448613
0002f0 e0 fe 1a bb 2f c1 06 bb 3f f2 d7 ba b2 fc 06 ba
       -0.0023650452 -0.0020561924 -0.0016475393 -0.0005149349
000300 57 93 4b 39 fd 92 98 bb 7c 49 41 3a fe 47 6f bb
       0.00019414477 -0.0046561942 0.0007373316 -0.0036511417
000310 ae bb ab 38 7a 1b 1f bb 48 3b 64 3b 1a 3f 62 ba
       8.1888735e-05 -0.0024277852 0.0034825373 -0.00086306187
000320 5c 5f da 3a 5e 83 ad 39 77 f2 9e ba 5c a7 a5 3a
       0.0016660499 0.00033095008 -0.0012126704 0.0012638378
000330 48 76 81 bb a4 5f 60 3a f1 6a 01 bc a8 9d 91 39
       -0.003950868 0.00085591734 -0.007899032 0.00027774018
000340 3f 3c 41 bc 93 06 4e ba 7c df 8a bc 48 cd af ba
       -0.011794149 -0.0007859256 -0.016952269 -0.0013412619
000350 66 57 cd bc 88 4c d1 ba de 87 24 bd d0 19 98 bb
       -0.025066089 -0.0015968243 -0.040168636 -0.004641749
000360 c7 36 5a 3c 18 94 35 02 dd 5b 3c 3c 6b cc be bb
       0.013318724 1.3340281e-37 0.011496511 -0.0058227084
000370 06 f2 28 3c ac 6a d3 bb f3 eb 1e 3c 1b 15 bb bb
       0.010311609 -0.0064519253 0.009699809 -0.005709303
000380 fe 3d 17 3c 28 84 84 bb ef 3a 37 3c f7 7d 9a 3b
       0.009231089 -0.0040440746 0.011183484 0.004714723
000390 cd 71 17 3c f3 f0 bc ba 58 28 06 3c cc c7 81 38
       0.009243441 -0.001441507 0.00818833 6.1884144e-05
0003a0 ba 3e fd 3b cb e5 3c 3a f5 78 e1 3b 2f d8 06 3b
       0.007728425 0.00072058727 0.0068808743 0.0020575633
0003b0 2e 58 f6 3b 2f 25 7b 3b 1d 93 ed 3b ae 12 84 3b
       0.007517836 0.0038321724 0.0072502033 0.004030547
0003c0 64 7e 10 3c ec 4d c9 3b b7 03 1a 3c 48 14 c3 3b
       0.008819196 0.006143322 0.0094003 0.0059533454
0003d0 ba 65 30 3c d2 fb c1 3b 75 69 4a 3c 16 49 2c 3b
       0.010766441 0.005919912 0.0123542445 0.002628868
0003e0 2f a2 76 3c b5 94 73 ba dd 95 b8 3c 65 55 9d bb
       0.015053316 -0.00092918734 0.022532398 -0.0048014396
0003f0 8d 51 b0 3c a8 32 31 02 02 00 00 3d ce 68 a9 bb
       0.021523261 1.3018444e-37 0.031250007 -0.0051699644

convs.weight.1.tensor f4 [32, 32, 18, 2]
000000 16 96 3f 3c 30 83 63 00 a4 6b ce 3b d9 18 0d 3c
       0.011693498 9.138775e-39 0.006299453 0.008611881
000010 0d 51 04 3c 42 2c 74 3c 0d 81 ce 3b ed 14 8e 3c
       0.008075965 0.01490313 0.006302005 0.017343963
000020 dc 99 67 3b 78 c3 83 3c 39 cc 66 3b a1 d9 8b 3c
       0.003533951 0.016084418 0.003521694 0.017071547
000030 b1 e0 a1 3b 92 e2 a2 3c 23 e5 02 3b 16 b5 b0 3c
       0.0049401154 0.019883428 0.0019973002 0.021570724
000040 55 bd 39 3b 7f 85 b4 3c 94 18 c5 bb 5f a7 e0 3b
       0.002834161 0.022036312 -0.006014893 0.0068558897
000050 27 d4 91 bb 20 a9 90 3b 85 10 f4 b9 35 36 9a 3b
       -0.0044503394 0.0044146925 -0.00046551615 0.004706169
000060 1c 49 78 3b 3f 47 f0 3b bf 50 01 3c ec 1e 3f 3c
       0.0037885373 0.007332712 0.0078927865 0.011665087
000070 06 3f 80 3c da 03 64 3c 3a 17 cd 3c a0 a4 9c 3c
       0.015655052 0.013916934 0.02503549 0.019121468
000080 1e b2 28 3d 75 fc a6 3c 6c 5a 81 3d c4 e2 a4 3c
       0.04118549 0.020384053 0.06316075 0.020127662
000090 66 5d 59 3c c0 11 41 81 88 9a 1a 3c fd 95 82 3c
       0.013266897 -3.5461237e-38 0.009436257 0.01594066
0000a0 50 30 18 3c 16 d8 5a 3c 18 c6 0a 3c cc 84 65 3c
       0.009288862 0.013357183 0.008470081 0.014008712
0000b0 cc 34 19 3c 2b 46 4d 3c 4d b6 2b 3c 12 92 46 3c
       0.009350967 0.012528936 0.010480476 0.012119787
0000c0 d7 ae 47 3c 98 20 92 3c 16 f2 1e 3c c2 9e 7d 3c
       0.012187681 0.017837808 0.0097012725 0.015479745
0000d0 e2 0f 1c 3c ba e9 79 3c 8a 5f fd 3b 1f 50 76 3c
       0.009525271 0.015253479 0.0077323364 0.015033751
0000e0 f4 d0 eb 3b 72 6c 8e 3c 01 91 bb 3b 10 88 5b 3c
       0.00719654 0.017385695 0.005724073 0.013399139
0000f0 fd 24 b1 3b a8 d2 42 3c 64 a8 81 3b a6 d1 33 3c
       0.0054060207 0.011891045 0.0039568413 0.010975277
000100 e3 e8 99 3b 47 b0 24 3c 54 fb ce 3b 48 fc 03 3c
       0.0046969517 0.010051793 0.0063165817 0.008055754
000110 07 a5 14 3c 38 f8 eb 3b cd f3 8d 3c d9 b6 f8 3b
       0.009072549 0.007201221 0.017328167 0.0075901565
000120 09 82 59 3c 62 bf e0 81 3b 33 8c 3c 34 46 24 bd
       0.013275632 -8.2559225e-38 0.017114272 -0.040106013
000130 93 a0 e9 3c 1d 27 b9 bc 98 97 c3 3c 12 4e f5 bc
       0.02851895 -0.022601658 0.023875996 -0.029944453
000140 fb 63 c9 3c 59 6b e6 bc f7 8d bc 3c 74 43 10 bd
       0.024583807 -0.02812736 0.023016913 -0.03522058
000150 81 69 cc 3c 90 01 32 bd 32 c1 d8 3c 83 16 0c bd
       0.024952652 -0.04345852 0.02645931 -0.034201156
000160 7c df c3 3c 79 79 fd bc 94 21 08 3d 06 2d 62 3c
       0.023910277 -0.030941712 0.033235148 0.01380468
000170 7a 82 fe 3c 1b 80 c8 3c 23 74 b5 3c 52 06 96 3c
       0.031068075 0.024475148 0.022150105 0.01831356
000180 f0 7b 65 3c b3 43 d0 3b 70 aa b2 3b fd 6a 16 bb
       0.0140066 0.0063557266 0.0054524466 -0.0022951954
000190 a2 0f f5 ba 9d c9 5c bc c1 bd c5 bc c3 3d 11 bd
       -0.0018696676 -0.013475803 -0.024138333 -0.03545929
0001a0 43 50 67 bd 50 12 79 bd ab 8f af bd 8a 79 b9 bd
       -0.056473028 -0.06080848 -0.08572324 -0.09056385
0001b0 c7 4e 79 3c c4 aa 35 01 a4 78 46 3c 25 96 bf bc
       0.015216536 3.3366968e-38 0.012113724 -0.023387024
0001c0 52 47 38 3c 2d 27 d2 bc 42 a2 32 3c 4f 49 a7 bc
       0.011247473 -0.025653446 0.010902943 -0.020420698
0001d0 7f 42 28 3c 9f 9a 5e bc 9a 8d 22 3c 4a 87 3a bc
       0.01026976 -0.013586669 0.009921456 -0.0113847945
0001e0 52 97 7a 3c d7 e8 10 bc 16 0a 64 3c 7c 8a 21 3a
       0.015294867 -0.008844576 0.01391842 0.00061622984
0001f0 1b 12 66 3c 80 31 97 3a bb c9 52 3c 17 e3 84 3c
       0.014042403 0.0011535138 0.012865479 0.016221566
000200 6c 0a 48 3c 40 d8 7d 3c cf 7f 2c 3c 96 6d 71 3c
       0.012209516 0.015493453 0.010528519 0.0147356
000210 09 ef 18 3c d5 6a 70 3c 8e 3e 60 3c 6d 21 2f 3c
       0.009334334 0.014673908 0.013686789 0.010689122
000220 5e b0 aa 3c d4 91 bc 3b cd 5b ee 3c 2f 5f e6 bb
       0.020836052 0.0057546888 0.029096508 -0.0070303897
000230 ef 3d 08 3d 44 53 c9 bc 57 7f e7 3c 83 ca 54 bd
       0.03326219 -0.024575837 0.028258963 -0.051950943
000240 f2 8c 59 bb 26 9c 0c 02 dc a6 b2 3c 27 c4 13 3d
       -0.0033195582 1.0330388e-37 0.02180808 0.036075737
000250 87 c5 28 3d 39 10 d0 3c 0a b5 26 3d e8 da d6 3b
       0.041204 0.02539836 0.040699996 0.0065568574
000260 e7 99 03 3d 0d 7b cc ba c8 d7 a6 3c 38 bb 94 bb
       0.032129195 -0.0015600637 0.020366564 -0.00453892
000270 38 18 a5 3c f4 9f 87 bb 05 87 ad 3c ed 34 73 bb
       0.02015315 -0.004138941 0.021182546 -0.0037110404
000280 c9 8d c8 3c d3 0d b7 bb bd f1 90 3a a9 7b 7a bb
       0.02448167 -0.005586365 0.0011058372 -0.003822068
000290 18 e7 4e bc 4e c7 da bb ba f3 6e bc 49 8c ec bb
       -0.012628339 -0.006676591 -0.014584476 -0.0072188717
0002a0 47 aa 8c bc 45 5f 23 bc a0 37 c5 bc 0f f1 4b bc
       -0.017171038 -0.0099714445 -0.024074376 -0.01244761
0002b0 fb 1f 15 bd 01 8e 8b bb 98 f3 28 bd 55 34 95 3c
       -0.036407452 -0.0042588715 -0.041247934 0.01821343
0002c0 cb 4a d5 bc 9d 91 0e 3d ad e8 3f 3c 35 4f 28 3c
       -0.02603664 0.034806836 0.011713189 0.010272791
0002d0 78 a5 59 3c 38 51 ce 80 ac 45 58 3c 76 57 1c bc
       0.01328408 -1.8947248e-38 0.013200205 -0.009542337
0002e0 ea f7 78 3c b6 96 dc 3b 21 87 5b 3c 77 70 2a 3c
       0.015195826 0.0067318333 0.013398916 0.01040279
0002f0 61 43 44 3c 63 a5 36 3c 3e 6d 31 3c 1b 74 10 3c
       0.011978955 0.01114783 0.010829268 0.008816744
000300 6a 67 d1 3b 4f 29 86 3c 9d 25 b1 3b d3 cf 93 3c
       0.0063905017 0.01637712 0.005406095 0.018043434
000310 ff 18 b2 3b 89 29 83 3c 10 ed 13 bb 37 6f 33 3c
       0.0054351087 0.016011016 -0.002257172 0.010951809
000320 2e 8d 67 b9 a5 3f 16 3c 81 c4 1f 3b 3b f6 fa 3b
       -0.0002208247 0.0091704475 0.00243786 0.0076587475
000330 b3 4a 02 3c 08 9c 2c 3c 1b 21 62 3c 41 a5 45 3c
       0.00795238 0.010535248 0.013801838 0.012063325
000340 f8 2a 93 3c 64 e2 5c 3c 8c f4 bb 3c 0b 18 8c 3c
       0.017964825 0.01348171 0.022943757 0.017101308
000350 76 a0 f0 3c d8 d4 a5 3c 2d 0c 0e 3d 10 a4 b5 3c
       0.029373389 0.020243093 0.03467958 0.022172958
000360 0e 38 76 3c e2 f6 25 82 31 5a 16 3c ba ae 01 3b
       0.015028013 -1.2193137e-37 0.009176777 0.0019787983
000370 e1 b9 0b 3c 1a 1b 7a 3c 20 11 e7 3b e1 bb 4e 3c
       0.008528204 0.015265251 0.007051602 0.012618036
000380 82 6b e4 3b c6 2b 46 3c 14 b3 fa 3b e3 92 2e 3c
       0.0069708237 0.012095397 0.0076507423 0.010655138
000390 1e 6b 88 3b 07 81 7f 3c 07 b5 49 3b a3 9b 77 3c
       0.00416316 0.015594727 0.0030778067 0.01511279
0003a0 45 3c be 3b d4 f9 73 3c fa 45 7b 3b 9a fe 40 3c
       0.0058055245 0.014891107 0.003834127 0.011779452
0003b0 9c 37 b7 3b 4b c9 33 3c 1d ad bb 3b df c4 37 3c
       0.005591346 0.010973285 0.005727424 0.011216371
0003c0 c7 24 e7 3b fd 92 28 3c 6f df f7 3b 09 2e 39 3c
       0.0070539447 0.010288951 0.007564477 0.01130248
0003d0 4c 7c fe 3b ec 57 28 3c b1 02 1e 3c 5f e3 26 3c
       0.007766282 0.010274868 0.009644196 0.010186045
0003e0 30 e0 13 3c 72 a0 21 3c a6 a5 41 3c 9f f9 1d 3c
       0.009025618 0.009864913 0.011819279 0.009642034
0003f0 94 7a 62 3c f2 2c ff 01 04 0f 1f 3c 1e 62 24 3c
       0.01382317 9.37367e-38 0.00970817 0.010033159

convs.weight.2.tensor f4 [32, 32, 18, 2]
000000 ec 18 43 3c 80 0d 0e 00 bd 76 ad 3a 45 3b 33 3c
       0.011907797 1.29054e-39 0.0013234239 0.010939424
000010 2c 82 df 3a 3e 40 9b 3c a5 72 3c 3a 7a 71 b1 3c
       0.0017052344 0.018951531 0.0007188714 0.021660555
000020 78 9e ae 39 9e 1e b0 3c 22 a0 a3 ba aa 31 a9 3c
       0.00033305935 0.021498974 -0.0012483636 0.020653564
000030 c2 db d7 bb d0 cf e6 3c 0c 0e f9 bb 4b 96 ec 3c
       -0.0065874765 0.028175265 -0.0076005515 0.028880259
000040 31 de 73 bb fe 6b e2 3c cc 4b 4f bc 6c 20 21 3c
       -0.0037211294 0.027639385 -0.012652349 0.00983439
000050 d3 d2 1a bc 6e 84 88 3b b9 e0 97 bb da 48 b4 3b
       -0.0094496785 0.0041661775 -0.0046349433 0.0055018486
000060 c0 49 81 b9 9c 74 0b 3c 2b a1 a0 3b 48 ba 55 3c
       -0.00024659745 0.008511689 0.004902025 0.013044901
000070 71 8f 0f 3c d8 00 88 3c 0b a8 76 3c 70 59 a6 3c
       0.008762226 0.016601965 0.015054713 0.020306319
000080 60 12 c7 3c 47 43 b8 3c 96 5f 38 3d 77 a1 bc 3c
       0.024300754 0.022493018 0.045013033 0.023026211
000090 ea f5 58 3c 46 ed d6 81 e2 39 c5 3b 18 c2 7a 3c
       0.013242224 -7.8951655e-38 0.006018863 0.015305065
0000a0 72 11 a8 3b 2a d1 60 3c 66 7c a7 3b e5 23 4b 3c
       0.005129033 0.013721744 0.005111265 0.012398695
0000b0 c6 c4 b3 3b 31 33 2f 3c 45 cb cc 3b ef 51 07 3c
       0.0054861037 0.010693357 0.0062498176 0.008259281
0000c0 b7 b6 3c 3b d9 3c 55 3c ef 6c ac 3b 10 93 54 3c
       0.002879543 0.0130149955 0.0052620093 0.012974516
0000d0 6d e3 4b 3b 78 36 51 3c a4 d4 aa 3b 70 4d 42 3c
       0.0031110898 0.012769334 0.005213337 0.011859283
0000e0 72 70 7c 3b f5 fa 44 3c d1 3a 78 3b a7 0a 35 3c
       0.003851917 0.012022723 0.0037876854 0.011049903
0000f0 fe e5 4b 3b 8d cc 1d 3c 6f c2 12 3b 4b 6f 14 3c
       0.0031112428 0.009631288 0.0022393723 0.009059737
000100 14 db 16 3a 2b e2 e3 3b 8a 3c b0 ba 17 74 e7 3b
       0.0005754691 0.0069544516 -0.0013445776 0.0070633995
000110 4b 1d 01 bb c6 65 f0 3b 9b 11 59 3a 96 db ff 3b
       -0.0019701298 0.007336351 0.00082805165 0.007808159
000120 89 f7 41 3c 82 66 31 02 23 d3 87 3c 07 24 3c bd
       0.011838802 1.3033325e-37 0.01658017 -0.045932796
000130 05 2e ad 3c b2 d2 0c bd d1 f7 89 3c e7 51 2a bd
       0.021140108 -0.034380622 0.0168418 -0.041582014
000140 ad 06 6b 3c 05 e9 27 bd 0b 1e 62 3c 00 b0 36 bd
       0.014344853 -0.04099371 0.013801108 -0.04460144
000150 fc 68 b9 3c 79 94 84 bd ce d0 c9 3c 2c 48 66 bd
       0.022633068 -0.064736314 0.024635699 -0.056221172
000160 82 61 ad 3c ce 46 60 bd 0a 43 1c 3d f5 64 79 3c
       0.02116466 -0.054755025 0.03814987 0.015221824
000170 51 ad 11 3d 87 20 e2 3c 4c 4b c3 3c 64 8a a2 3c
       0.035565678 0.0276034 0.023839615 0.01984138
000180 1b f2 34 3c 93 90 c5 3b dd cf cb b9 77 53 1e bc
       0.011044051 0.0060291975 -0.00038874047 -0.009663454
000190 da 0a 4c bc 29 16 c8 bc f2 b4 06 bd 05 f7 40 bd
       -0.012453759 -0.02442463 -0.032887407 -0.047110576
0001a0 a7 d8 63 bd 1b 6f 96 bd 7e bf a5 bd 0e a5 d2 bd
       -0.055626538 -0.073454104 -0.08093165 -0.10285388
0001b0 17 57 64 3c 20 1f 70 00 77 99 cf 3b df c9 a6 bc
       0.013936779 1.0296741e-38 0.006335433 -0.020359932
0001c0 6f 76 bc 3b 4a f6 7b bc 1a 40 4d 3b c6 a8 55 bb
       0.005751423 -0.015378544 0.0031318725 -0.0032601818
0001d0 b5 bb 8e 3b 1e 3b 0f 3a 0c 35 47 3a 9b d5 bd 3b
       0.0043558725 0.0005463826 0.0007599152 0.005793286
0001e0 e7 0a 85 3b 77 15 55 3c 6c e0 9d 3b ad 7b 54 3c
       0.0040601376 0.013005606 0.004818013 0.01296894
0001f0 0d 8f 64 3b b6 c5 65 3c 30 93 b7 3b de dd aa 3c
       0.0034875304 0.014024189 0.005602263 0.020857748
000200 46 b9 de 3b bf 8b a3 3c 0d a5 c5 3b 4c a0 95 3c
       0.0067969887 0.019964097 0.0060316385 0.018264912
000210 35 c0 d8 3b 85 30 8e 3c a3 7b 1c 3c 0c 93 77 3c
       0.0066147097 0.01735712 0.009550962 0.015110742
000220 53 4e 31 3c 2e a1 52 3c cb 43 46 3c df 55 aa 3b
       0.010821897 0.012855811 0.012101124 0.005198225
000230 26 c4 fc 3b 61 60 d1 bb 94 b3 8c ba 5d 09 f1 bc
       0.0077138124 -0.006389663 -0.0010734671 -0.02942341
000240 9d 3c a0 bb cc 79 30 02 e5 c0 50 3d 02 fb 9c 3d
       -0.004890038 1.2965392e-37 0.05096521 0.076650634
000250 2e ee bf 3d 64 50 66 3d ad 3c bc 3d 79 5d 90 3c
       0.09371601 0.05622901 0.091912605 0.017622696
000260 68 be a2 3d a0 fc 54 3b a4 aa 31 3d 9e ab c1 ba
       0.07946473 0.003249921 0.043375626 -0.0014775877
000270 b4 55 3a 3d ff 70 99 bb ec 79 32 3d d9 6f d5 bb
       0.04549189 -0.0046826596 0.043573305 -0.0065135774
000280 9b 2a 3f 3d 77 14 64 bc 58 c7 cc 3b 45 d5 4f bc
       0.04667149 -0.013920895 0.0062493496 -0.012685125
000290 41 72 bd bc c7 a8 a1 bc d1 e9 fb bc cd bb bb bc
       -0.02312577 -0.0197338 -0.03075114 -0.022916699
0002a0 59 a1 22 bd 65 44 d9 bc bf c6 62 bd 64 db f0 bc
       -0.039704654 -0.02652187 -0.05536532 -0.029401489
0002b0 01 72 9c bd 9d 58 99 bb 98 a8 ae bd 9b 2e 3e 3d
       -0.07638932 -0.004679753 -0.085282505 0.046431165
0002c0 c4 e9 3d bd 4d a6 f8 3d 9c a7 d1 bc 4a c4 17 3e
       -0.046365514 0.12141094 -0.025592618 0.14820972
0002d0 b1 e0 38 3c 34 ac b1 81 1f 55 46 3b 70 f9 61 b9
       0.011284039 -6.526663e-38 0.0030263138 -0.00021550595
0002e0 51 49 96 3b 2c 33 41 3c aa 02 76 3b 36 f6 46 3c
       0.0045863767 0.0117919855 0.003753821 0.012143662
0002f0 c5 0f 48 3b 99 8a 36 3c e6 4e cd 3a 61 41 1d 3c
       0.0030526977 0.011141443 0.0015663772 0.009598107
000300 90 75 b9 bb 3d 62 93 3c cc 3b a4 bb 34 22 89 3c
       -0.0056597665 0.01799118 -0.005012011 0.016739942
000310 45 be 6c bb 0d 54 84 3c 55 ca c9 bb 7d d1 1f 3c
       -0.0036124152 0.01615336 -0.006158153 0.009754536
000320 34 c4 eb ba 15 11 ea 3b ab ce 22 3b 2c c3 18 3c
       -0.001798755 0.0071431496 0.0024842422 0.009323876
000330 77 a4 f2 3b ac 11 1b 3c 14 f4 4f 3c 48 9b 4b 3c
       0.0074048596 0.0094646625 0.01269247 0.012427159
000340 55 f5 80 3c 3f f0 58 3c 1a 23 85 3c f9 b9 61 3c
       0.015741983 0.013240873 0.01625209 0.0137772495
000350 41 12 63 3c 27 66 77 3c 16 d3 2c 3c 8d 50 78 3c
       0.013859333 0.015100039 0.010548374 0.015155924
000360 77 6b 6f 3c ff ad 0d 02 0e 1f 07 3c 45 fb 14 3c
       0.014613024 1.0408978e-37 0.00824715 0.00909311
000370 60 21 df 3b 0d 14 7a 3c 0f 51 b8 3b a0 17 52 3c
       0.0068093985 0.01526357 0.0056248973 0.012823015
000380 00 cc 9e 3b 37 30 2b 3c c0 cd 8f 3b d9 85 24 3c
       0.004846096 0.010448507 0.004388541 0.010041677
000390 a0 46 09 ba f7 16 78 3c 09 fc 3a ba 9b 9c 82 3c
       -0.0005236659 0.015142194 -0.0007132893 0.015943816
0003a0 0a b2 eb 3a 2b b4 6a 3c 48 86 90 3a ac ea 35 3c
       0.0017982137 0.014325182 0.0011026347 0.011103313
0003b0 94 5c bc 3a e3 38 2a 3c 20 39 6d 3b 7c 43 39 3c
       0.0014370852 0.010389539 0.003619738 0.011307593
0003c0 93 d1 a1 3b 63 84 25 3c c9 dc c0 3b 8f fd 34 3c
       0.0049383133 0.010102364 0.0058856946 0.011046781
0003d0 55 c6 a6 3b dd 39 2b 3c e7 e7 b7 3b bd 1f 2e 3c
       0.005089561 0.010450807 0.0056123617 0.010627684
0003e0 75 7e 30 3b e3 4a 18 3c 46 9f 29 3b 57 ca 2a 3c
       0.0026930843 0.009295198 0.0025882288 0.010424218
0003f0 0a fd 68 3c 18 3b 76 01 e8 28 c9 3b 9c 81 a4 3b
       0.014220485 4.5225462e-38 0.0061389096 0.0050203335

convs.weight.3.tensor f4 [32, 32, 18, 2]
000000 ba 0f 3d 3c 78 5c 7f 81 ea 69 3d 3a b3 9d 2d 3c
       0.011539394 -4.6902446e-38 0.000722556 0.01059668
000010 9a ae c5 ba 06 10 9f 3c 5f 77 01 bb 35 47 b2 3c
       -0.0015081943 0.01941682 -0.0019754989 0.02176247
000020 0b e2 2d bb a7 b4 bb 3c 5c 73 21 bb ee 81 9f 3c
       -0.0026532437 0.02291329 -0.002463541 0.019471135
000030 e6 0d 57 bc b8 79 e7 3c 6b 75 46 bc af 83 e8 3c
       -0.013125872 0.028256282 -0.012112956 0.028383104
000040 e8 7b f9 bb b8 86 dc 3c d0 ec 90 bc 29 25 4a 3b
       -0.0076136477 0.026919708 -0.017691046 0.0030844903
000050 61 df 59 bc c3 5f ba ba a4 da f4 bb d3 4c cb b9
       -0.013297887 -0.0014219213 -0.007472353 -0.00038776416
000060 d8 47 b6 39 87 94 8f 3b cc a1 ad 3b 36 48 1f 3c
       0.00034767273 0.0043817195 0.0052988287 0.009721806
000070 82 c4 1d 3c 7a 40 6d 3c c8 54 64 3c 07 90 9e 3c
       0.009629371 0.014480704 0.013936229 0.019355787
000080 74 79 ac 3c dc 78 c6 3c 95 7a 0c 3d 85 3b e2 3c
       0.021054007 0.024227552 0.03429659 0.027616272
000090 9e 25 51 3c f4 e4 e1 01 b0 b3 e4 3b 46 3a 76 3c
       0.012765316 8.298048e-38 0.006979428 0.015028542
0000a0 4a 03 65 3b 87 f1 67 3c c3 6f 3d 3b 45 4b 52 3c
       0.0034944587 0.014156706 0.0028905727 0.0128353285
0000b0 e5 9c 8b 3b c9 0c 10 3c ac 92 52 3b 3f 66 0c 3c
       0.0042606466 0.008792111 0.003213088 0.008569299
0000c0 95 06 5b bb 28 74 46 3c d7 ed 34 ba d5 f3 4f 3c
       -0.0033420671 0.012112655 -0.0006901896 0.012692411
0000d0 d1 bd 26 3b 68 8e 47 3c 58 bc 66 3b d8 87 22 3c
       0.002544273 0.012179948 0.0035207476 0.009920083
0000e0 1b 3c 90 3b 1e 7e 23 3c 11 90 7c 3b 5f 7d 1b 3c
       0.0044016964 0.009978799 0.0038538019 0.00949034
0000f0 f6 ba a1 3b 77 2a 1d 3c 4c 5d a6 3a 65 7c 09 3c
       0.0049356176 0.009592644 0.00126926 0.008391474
000100 34 7a 4f ba 2b fb fe 3b b7 4e 79 bb d4 f9 cd 3b
       -0.0007914633 0.0077814064 -0.0038041302 0.0062858853
000110 25 7e d6 bb 74 c2 60 3b 23 f5 00 bc 2a 7c 08 3c
       -0.0065457993 0.003429559 -0.007870945 0.008330384
000120 fd 4a 56 3c 38 75 ba 80 74 d3 c2 3c d5 15 38 bd
       0.013079402 -1.7123452e-38 0.02378247 -0.044942696
000130 5c b4 65 3c 7f c9 7d bd 7e 8e 78 3b e3 23 80 bd
       0.014020052 -0.06195974 0.003792673 -0.06256845
000140 fb 0e 10 3b d0 87 81 bd 24 11 df 3a 12 a8 7f bd
       0.0021981585 -0.06324732 0.0017018658 -0.062416144
000150 8c d3 31 3c 50 01 a8 bd 20 9d 92 3c 0b ce b9 bd
       0.010853659 -0.08203375 0.017897189 -0.09072503
000160 b1 5d 94 3b 9c 23 b0 bd e8 fc 5d 3d 86 b2 12 3d
       0.0045277704 -0.08600542 0.05419627 0.035814784
000170 a8 94 3b 3d a6 6a 62 3d ac 41 e9 3c b3 4b 10 3d
       0.045796067 0.05527749 0.028473698 0.035228442
000180 57 21 15 3c 05 a0 94 3c 34 f4 8f bc 79 f1 3e bc
       0.009102187 0.01814271 -0.0175725 -0.011654251
000190 26 49 26 bd b8 11 00 bd 25 c4 6f bd 8c a1 6b bd
       -0.040597104 -0.031266898 -0.058536667 -0.05752711
0001a0 03 be b0 bd 50 f6 bf bd 80 31 d2 bd 06 f9 f8 bd
       -0.08629992 -0.09373152 -0.102633476 -0.121568725
0001b0 31 45 63 3c 40 dd 80 00 90 cc 5e 3c f4 09 91 bc
       0.013871477 1.1834313e-38 0.013598576 -0.017704941
0001c0 1d 4a d9 3b 87 94 61 bc 26 19 14 3b 66 64 d6 bb
       0.0066311494 -0.013768322 0.0022597997 -0.00654273
0001d0 67 50 c6 3a 07 6d a8 ba 44 fb 5f b9 8a c0 af 3a
       0.0015130163 -0.0012849875 -0.00021360541 0.0013408822
0001e0 1d 8c 90 bb e4 51 02 3c 32 d8 8d ba 6c fd 00 3c
       -0.004411234 0.007954095 -0.0010821878 0.0078729205
0001f0 72 34 86 39 3b 4b 03 3c d0 7d 4c 3b 5a 74 30 3c
       0.00025597546 0.008013542 0.003120292 0.010769928
000200 60 19 47 3b 56 35 2c 3c af b9 a6 3b d5 e5 1a 3c
       0.0030380115 0.010510763 0.005088053 0.00945421
000210 4a ad 0b 3c d4 76 11 3c 05 0b 1b 3c 7a b2 0c 3c
       0.008525202 0.0088784285 0.0094630765 0.008587474
000220 b6 0a 1a 3c ff fd 10 3c 1f f9 e1 3b ec 03 d8 3b
       0.009401968 0.00884962 0.0068961526 0.0065922644
000230 e6 50 9a b9 f4 d5 28 ba c8 8f 93 bc f6 07 90 bc
       -0.00029433443 -0.0006440573 -0.018012896 -0.017581921
000240 f0 dd 54 bc 71 42 64 02 00 c9 f1 bb 02 fd 37 bc
       -0.012992367 1.6769862e-37 -0.0073786974 -0.011229755
000250 52 2f 39 bb 57 b9 89 bc a0 00 0d ba 71 0f a3 bc
       -0.0028256965 -0.01681201 -0.0005378816 -0.019904824
000260 f3 dd 34 ba 42 71 aa bc ee 23 f1 ba 36 c8 97 bc
       -0.0006899528 -0.020805959 -0.0018397549 -0.018528085
000270 1f 04 08 3c fb a5 c7 bc 64 ba e2 3b 9a 4a c6 bc
       0.008301764 -0.024371138 0.006919192 -0.024205495
000280 f8 77 89 3b e0 da cb bc e9 a7 41 3c d1 d5 a3 bb
       0.0041952096 -0.024884641 0.011819818 -0.004999854
000290 24 2d 16 3c 08 1c cb ba 4f 1a 89 3b f8 af ef ba
       0.009166036 -0.0015496025 0.0041840444 -0.0018286696
0002a0 d8 78 32 39 49 00 99 bb 87 60 8e bb 5d e6 00 bc
       0.0001702042 -0.0046692234 -0.004345003 -0.007867423
0002b0 58 25 de bb dc c4 4d bc c2 d5 22 bc 00 d8 82 bc
       -0.006779354 -0.012559142 -0.009938659 -0.015972137
0002c0 17 97 6a bc 40 e2 7f bc ab 8f a5 bc ee ac 31 bc
       -0.014318249 -0.015617907 -0.020210108 -0.010844452
0002d0 e4 15 66 3c 6a a9 3d 02 91 a5 04 3c 67 d4 bf bb
       0.014043305 1.3934146e-37 0.008096115 -0.0058541778
0002e0 0f 02 ba 3b 44 e0 2b 3a fd d7 79 3b a5 ef 1b 3c
       0.005676515 0.00065565505 0.0038123124 0.009517585
0002f0 5f 62 42 3b 25 37 32 3c 74 33 cd 39 6c 1f 20 3c
       0.0029660685 0.010877405 0.00039138983 0.009773117
000300 94 56 c6 bb dd 62 ab 3c f2 5b 83 bb 7e 00 9f 3c
       -0.0060528014 0.020921165 -0.0040087635 0.019409414
000310 1a 27 4a ba cf 2d 9d 3c bd 78 a3 bb b8 de 3c 3c
       -0.0007711515 0.019186882 -0.0049887584 0.01152771
000320 07 d7 18 bb 51 09 09 3c c0 75 dc 3a 5d a5 21 3c
       -0.0023321526 0.008364038 0.001681976 0.009866086
000330 4a 38 03 3c cd 93 4a 3c 4e 69 42 3c 8d a5 4e 3c
       0.008009026 0.01236434 0.011865927 0.012612713
000340 18 28 51 3c 9d e5 70 3c 81 52 48 3c 60 a4 70 3c
       0.012765907 0.014703182 0.012226702 0.014687628
000350 10 d3 06 3c 02 06 69 3c 67 0a 43 bb d1 cd 30 3c
       0.008229032 0.014222624 -0.002976084 0.010791258
000360 42 dc 5d 3c 4c 4a 01 82 e6 28 0d 3c 56 23 4d 3c
       0.013541283 -9.498745e-38 0.008615708 0.012520632
000370 17 c4 b4 3b 13 4e 79 3c 10 ee 60 3b fa 14 4c 3c
       0.00551654 0.015216368 0.0034321584 0.012456173
000380 ff 7a 61 3b 1c 66 3e 3c 9d cc 43 3b eb 00 24 3c
       0.0034405587 0.011621024 0.0029876598 0.0100099845
000390 8f 43 2f bb 23 4a 8f 3c 62 ff 5e b9 79 fd 83 3c
       -0.002674315 0.017491406 -0.00021266707 0.016112076
0003a0 d5 a5 53 3b 51 71 83 3c d6 c1 bd 3a 63 f4 48 3c
       0.0032294889 0.016045244 0.0014477323 0.012265298
0003b0 87 4b 51 3b 9a f9 22 3c f1 2a 71 3b 7f 2a 2a 3c
       0.0031935887 0.009947205 0.0036799277 0.010386108
0003c0 b5 51 d2 3b 96 88 30 3c 3a 03 da 3b 61 9c 33 3c
       0.0064184316 0.010774752 0.0066532167 0.010962577
0003d0 c6 28 a5 3b 92 4d 4b 3c 53 f3 2e 3b c9 d5 44 3c
       0.005040261 0.012408631 0.0026695326 0.012013861
0003e0 15 1e 5e 3a 3f 40 45 3c 1f ac 19 bb f1 08 42 3c
       0.00084731105 0.012039243 -0.002344854 0.011842952
0003f0 0a e5 65 3c 52 37 c3 01 40 4e e8 3b b4 91 30 bc
       0.014031658 7.171107e-38 0.0070894063 -0.010776926

convs_bc.bias f4 [4, 32, 1]
000000 37 ac 81 3b ed 8d b4 3b 6f 5a e1 3b 80 cb 1d 3c
       0.003957297 0.005510083 0.0068772356 0.009631038
000010 c1 9f 41 bc 69 5d 80 3c 73 a1 e2 3b eb ce ba 3b
       -0.011817873 0.015669541 0.006916219 0.005700936
000020 be b8 ed 3b f0 d0 c4 3b c6 d4 04 bc 77 a6 b2 3b
       0.007254689 0.0060063526 -0.00810737 0.005451973
000030 6d 99 ad 3b 4f b1 aa 3b 93 8d d9 3b 55 80 5c bc
       0.005297831 0.005209125 0.0066391914 -0.013458331
000040 6f 50 8b 3c 69 85 cc 3b db eb 42 bc 16 ab 00 3c
       0.017006127 0.0062414897 -0.011897053 0.00785329
000050 6a c9 7c bc fc 2a f0 3b ef 05 ec bb df b1 a7 ba
       -0.01542888 0.007329343 -0.007202856 -0.0012794099
000060 81 b2 42 3b d5 d9 c4 3c 45 bb 5c 3b 77 07 1b bc
       0.0029708447 0.024029652 0.0033680957 -0.009462229
000070 9c 13 8a 3b 26 e3 92 b9 3a 1d 30 3b ea b8 75 bc
       0.0042137634 -0.0002801653 0.002687289 -0.0149977
000080 9a 17 8d 3b 82 13 b4 3b 66 ef ff 3b 9a 47 de 3b
       0.004305792 0.0054954896 0.007810521 0.006783438
000090 df 32 46 bc 65 89 a3 3b 91 cf e8 3b 69 2b eb 3b
       -0.01209709 0.004990744 0.007104822 0.0071768058
0000a0 d3 01 dd 3b 64 cc da 3b 7c fc ea ba 29 11 04 3c
       0.006744602 0.0066771973 -0.0017928029 0.008060732
0000b0 9e 0a 98 3b 6f 27 fe 3b 52 0d cc 3b f3 94 25 bc
       0.0046399375 0.0077561657 0.006227174 -0.010106313
0000c0 8c f9 41 bb 44 74 f0 3b 1a cc 2c bc 3f 3c cd 3b
       -0.0029598204 0.0073380787 -0.0105467085 0.0062632854
0000d0 fe 01 44 bc 37 bd b0 3b 85 88 d4 bb 67 d2 c4 bb
       -0.011963366 0.00539365 -0.006486001 -0.006006527
0000e0 da 1e a8 3b 39 46 00 3c 78 9b 8b 3a 9c ab 52 bc
       0.005130631 0.007829242 0.0010651192 -0.012858298
0000f0 eb e1 e5 ba 68 86 9f 3a fc 0b 83 3b 1e 98 22 bc
       -0.0017538642 0.0012170793 0.0039992314 -0.009923963
000100 70 c5 84 3b 86 0a e3 3b 82 9e 27 3c 1a a2 04 3c
       0.0040518567 0.0069287447 0.010230662 0.008095289
000110 fa f5 d5 bb fc 7e 5b 3b ac ec df 3b 11 c1 f2 3b
       -0.006529567 0.0033492437 0.0068336334 0.007408269
000120 75 74 06 3c 95 c7 bc 3b f1 0d 0e bb a6 f7 fc 3b
       0.008206476 0.0057610967 -0.002167579 0.0077199517
000130 76 b8 a9 3b b0 85 d4 3b f0 3b bb 3b 70 03 20 bc
       0.00517946 0.0064856634 0.005713932 -0.009766445
000140 40 fe 09 ba 36 78 0d 3c 03 7f f8 bb 2a 47 c2 3b
       -0.00052640215 0.008634618 -0.0075835004 0.0059288936
000150 7d aa 0a bc cb 0e 99 3b 65 5a b1 bb 4c 49 0c bb
       -0.008463499 0.004670953 -0.005412387 -0.0021405993
000160 8d 18 03 3c 51 ee d4 3b 81 ae 6b 3b 23 45 53 bc
       0.008001459 0.006498136 0.0035962167 -0.012894901
000170 0c 10 97 bb 63 d1 fc 3a 06 06 e9 b9 4d c6 b4 bb
       -0.0046100672 0.0019288476 -0.0004444571 -0.0055168034
000180 b5 e0 b1 3b 09 e2 d9 3b 4f 9e 48 3c d9 93 1a 3c
       0.0054283985 0.00664926 0.012244775 0.009434664
000190 b7 1a d5 bb c5 04 a3 3b 1c 90 0b 3c af 8a 0a 3c
       -0.006503429 0.004974934 0.008518245 0.008455916
0001a0 c2 cf d7 3b 54 05 e0 3b 76 23 8f bb 58 24 1a 3c
       0.006586046 0.0068365727 -0.004368241 0.009408079
0001b0 25 82 9b 3b 19 0e 06 3c 9a 5a e1 3b 39 8a 16 bc
       0.004745739 0.008182072 0.0068772556 -0.009188228
0001c0 68 d0 6c ba 31 f6 1b 3c 04 51 1c bc 54 23 f1 3b
       -0.00090337405 0.009519146 -0.0095408 0.007358948
0001d0 37 10 17 bc af aa 9f 3b 76 a2 12 bc 57 38 0a b9
       -0.0092201745 0.004872642 -0.0089498665 -0.00013181694
0001e0 a3 0e 7e 3c b7 52 f1 3b 6a 12 63 3b 0f e4 86 bc
       0.015506419 0.0073645967 0.0034648427 -0.016466169
0001f0 7c f2 d8 bb e1 fd 49 3a 48 8d 75 bb b5 19 d4 bb
       -0.0066207033 0.00077053724 -0.0037468243 -0.006472791

convs_bc.bias_bc f4 [4, 32, 1]
000000 93 87 27 3a 3d cb 9d 39 89 b8 62 ba 18 9f b5 38
       0.00063907466 0.00030096798 -0.00086487137 8.660386e-05
000010 dd 44 45 b9 0e c6 28 3a ee b1 1f b8 2a 6c d9 ba
       -0.00018813038 0.0006438204 -3.8074264e-05 -0.0016588022
000020 06 4a 14 b9 37 5a cb 39 ad de a6 39 c2 03 d4 3a
       -0.00014141956 0.00038786393 0.00031827894 0.0016175436
000030 15 53 22 39 b9 7f 6f b9 9d 83 b0 39 67 9f 96 ba
       0.00015480474 -0.00022840397 0.00033667395 -0.0011491597
000040 96 ae 0e 3b c8 56 ea ba 86 11 a2 b9 ea c6 23 ba
       0.0021771542 -0.0017878646 -0.00030912104 -0.0006247597
000050 ca e6 17 ba bd c2 ed 39 ef 21 97 b9 9c 3e a4 3a
       -0.0005794583 0.00045349254 -0.00028826247 0.0012530866
000060 19 2e 90 ba a7 59 ce 38 0c b7 6c ba 8b 5d 12 b9
       -0.0011000066 9.8395445e-05 -0.00090299617 -0.00013958492
000070 99 8d 0e 3a 18 aa d0 39 4e 3e 4f b9 5b 99 d6 39
       0.000543797 0.0003979958 -0.00019764269 0.0004093152
000080 e7 0b 69 39 16 ec d8 39 55 0b 0e 39 fb 74 c5 ba
       0.00022225046 0.00041374628 0.00013546397 -0.001506477
000090 01 ef 4a 3a 17 e9 fb b9 59 92 2b ba 16 d8 86 3a
       0.0007741303 -0.00048048116 -0.000654494 0.0010287787
0000a0 de 4c 79 3a 49 53 65 3a a6 2f 49 b9 9d d3 95 3a
       0.00095100503 0.0008748067 -0.00019186604 0.0011430864
0000b0 e7 b1 80 b9 c6 5d fa 3a 3a e5 9e ba 9a 83 f7 39
       -0.0002454661 0.0019101433 -0.0012122758 0.00047209562
0000c0 c9 36 e6 b8 1d 46 ef b8 33 63 cf b9 dc f7 4a 3a
       -0.00010977459 -0.00011409468 -0.00039556026 0.00077426224
0000d0 10 fb 86 39 fc b8 88 3a fe 31 a6 3a 12 ec 3f ba
       0.00025745528 0.0010431106 0.0012679694 -0.0007321249
0000e0 e1 8a f4 b8 ba 9a ca 3a 5f 9b ea 39 d8 67 bd ba
       -0.00011660695 0.0015457489 0.00044747718 -0.0014450504
0000f0 6c 5a fd ba 74 e9 ae b9 2c 49 03 ba cf 34 47 b7
       -0.0019329316 -0.00033361802 -0.0005008157 -1.187362e-05
000100 cb 6a db 37 57 e3 76 ba 51 ef 41 b8 1c 05 d3 39
       2.6156564e-05 -0.00094180316 -4.6237667e-05 0.00040248863
000110 f8 37 4b ba 81 dc 28 ba ac a0 09 ba 42 6a 70 ba
       -0.00077521754 -0.0006441549 -0.0005250077 -0.0009171107
000120 73 fa 94 b7 ce cb a5 3a ef 2b 1b ba c5 3f a5 ba
       -1.77596e-05 0.001264924 -0.00059193274 -0.0012607506
000130 10 29 4d 3a 61 0f ba 39 d8 86 09 3a f6 0a 6c ba
       0.0007826248 0.00035488143 0.00052462285 -0.0009004319
000140 69 63 24 3a 0a 5f 1c 3a 29 f8 fc 39 6e df cc b9
       0.0006270917 0.00059650897 0.0004825008 -0.0003907638
000150 e7 2f cd 3a 80 78 57 b9 f4 52 cf ba 31 44 03 b9
       0.0015654535 -0.00020548888 -0.0015817569 -0.00012518537
000160 3a ff c6 b9 81 bc 3f 39 cd c7 c1 3a 8d 9b 12 ba
       -0.00037955662 0.00018285403 0.0014784277 -0.0005592637
000170 de 05 8a ba 8f ec f0 b9 ab d6 77 ba ce 16 5a b9
       -0.0010530313 -0.00045952617 -0.000945429 -0.00020798596
000180 dd 2b c2 39 91 73 ef 39 1a d2 e1 3a 95 2f ec 38
       0.00037035244 0.00045671736 0.0017228753 0.0001126222
000190 21 ef fe 3a 1e 26 a4 39 38 d7 8c ba 4c 35 27 ba
       0.0019449928 0.00031308917 -0.0010745293 -0.0006378486
0001a0 e5 e0 79 39 81 c6 71 39 b9 a7 dd ba c4 7e 5b 3a
       0.0002383027 0.000230575 -0.0016910947 0.00083730766
0001b0 2f 9d fd b8 d1 bd be b9 7b a1 7f 3a 19 32 a5 ba
       -0.00012093258 -0.00036381048 0.00097515405 -0.0012603431
0001c0 cc f2 70 ba 5e be 7e 3a 16 a9 9e b9 16 dd a4 39
       -0.0009191453 0.0009717698 -0.00030262087 0.0003144524
0001d0 f8 b6 7f ba 7a b2 90 3a ff 60 f8 38 36 66 69 39
       -0.00097547425 0.0011039518 0.000118436285 0.00022258688
0001e0 67 c6 00 ba 3a 29 0c b9 43 70 24 ba 2b c3 ab ba
       -0.0004912377 -0.00013366799 -0.0006272832 -0.0013104429
0001f0 57 81 22 ba a4 8c 1b 3a 05 04 82 ba 7a ba 3f 38
       -0.00061990827 0.0005933738 -0.0009919411 4.571162e-05
