neuraloperator/examples/para/fno_para_202305121925_001002003004_modes36_epochs250.pth (torch, 812179 bytes, 31 tensors)

convs.bias f4 [4, 32, 1]
00000000: 2a36 913b 1983 fb3c 2e38 9d3b 1d41 403a
00000010: a49c e1bb 91b6 a8bb 1e70 2abc 6d5e 7a3b
00000020: ce2c 463b 7af2 c5bb ac08 f53b 4599 163b
00000030: 47e1 9b3b 09b4 493c c4b8 92bc 9fd6 073a
00000040: 3308 a5bc 5108 da3a eed2 28b9 61b4 afbb
00000050: 368a 813a 6942 7fbb 53b8 283d 0916 a23b
00000060: 0d60 713b 6d07 463b e6cb e7bb d675 823b
00000070: 10bc 1c3d d643 263c 30b0 8cbb 351b 25bb
00000080: ddda e63b 1496 fc3a d081 9d3b 9f5c a3ba
00000090: b885 fdbb adac c6bb 24f3 52bc ab4b 0d3b
000000a0: 5f1e c43b d818 b7bb 432c c93b 09bb 5d3b
000000b0: 307a ed3b b9da 103b 0057 8bbc 128e d83a
000000c0: 416c b7bc 7cb8 683a e6bb 853b 2297 a9bb
000000d0: b14e 5e3a 0ee0 70bb 787d 513b 2e1c 12bc
000000e0: 8aec 0abb 5113 073b 532c 01bc 5cce 6e3b
000000f0: a0aa 02ba a93c 653a 191d 5dbb 556a 90bb
00000100: 2ac7 503c d556 843b 328a aa3b 8e32 ba3a
00000110: 6966 99bb 1c7f e0bb b974 0fbc fbb9 bfb9
00000120: 1bee 9b3b 0c2d 05bc 24ca 9c3b 6571 cd3b
00000130: 8137 d63b 9954 2a3c 5b9a 53bc dc65 7f3a
00000140: b37c b5bc 6cf6 51bb 9825 a03b d443 9ebb
00000150: da1d ec3b ae36 02bb a311 763b 5ac1 c0bb
00000160: 3c5a d7ba ed0d 833b 58d4 b7bb 6b5d a73b
00000170: 08b5 163c 169b b23a 23ae cabb 89f1 fabb
00000180: a961 a7bb 430a b73b 4c29 663b 96c0 7a3c
00000190: d384 debb 0124 1fbc 0b67 7cb9 9745 9e3b
000001a0: 5d03 aa3b 62e4 b8bb 0272 8f3b 3f42 a93b
000001b0: b319 b03b 2db8 55bb 45e8 70bc 74ad 503a
000001c0: 0694 a5bc 95d1 eabb ea86 ac3b dc67 ccbb
000001d0: 3fe9 d4bb e1c5 10bb 71bf ef3b f352 efbb
000001e0: 9ec7 e6bb ef66 863b ac4f f53a fbbe 8b3b
000001f0: 056b 1739 2d9b ccbb fc62 b8bb 6f27 4abc
0.0044315057 0.03070216 0.004797957 0.00073339214 -0.006885128 -0.0051487167 -0.010402707 0.0038203255
0.0030239108 -0.0060408683 0.0074778404 0.002297954 0.0047570798 0.01231099 -0.017910369 0.00051818223
-0.020145511 0.0016634559 -0.00016100306 -0.005362079 0.0009883109 -0.0038949496 0.04119141 0.0049464745
0.0036830932 0.0030216828 -0.007073867 0.0039813323 0.038265288 0.010148009 -0.004293464 -0.0025193219
0.0070451335 0.0019270801 0.0048067346 -0.0012463516 -0.007736888 -0.006063065 -0.012875352 0.0021559994
0.005985066 -0.0055876784 0.0061393096 0.0033833405 0.007247232 0.0022103025 -0.017009258 0.0016521832
-0.022390487 0.0008877588 0.004081237 -0.005175487 0.0008480354 -0.003675464 0.0031965654 -0.008917851
-0.0021198117 0.0020610879 -0.007884103 0.0036438918 -0.00049845316 0.0008744696 -0.0033739267 -0.004407207
0.012742797 0.0040386715 0.0052044624 0.001420574 -0.0046813977 -0.00685109 -0.008755856 -0.00036568925
0.004758609 -0.008128416 0.004784839 0.006269621 0.0065373783 0.010396146 -0.012915219 0.0009742656
-0.022154188 -0.0032037748 0.004887294 -0.004829863 0.007205707 -0.0019869017 0.0037547133 -0.0058824243
-0.001643009 0.003999463 -0.00561003 0.005107572 0.009198435 0.0013626541 -0.0061853095 -0.0076581878
-0.0051080775 0.00558594 0.003511983 0.015304705 -0.006790736 -0.009713174 -0.00024070979 0.004830073
0.005188389 -0.0056424597 0.0043776045 0.005165368 0.0053741573 -0.0032610998 -0.014703815 0.0007960417
-0.020212185 -0.0071660974 0.0052651064 -0.006237967 -0.0064975317 -0.0022090601 0.0073165228 -0.0073035895
-0.007042839 0.004101626 0.0018715761 0.00426471 0.0001444035 -0.0062440843 -0.005627034 -0.012338503

convs.bias_bc f4 [4, 32, 1]
00000000: 6204 723a 3429 ceb7 865c d939 810a 35ba
00000010: 82a3 0eba fefe e639 a242 543a d686 a638
00000020: 15bb 77ba a0c4 83b9 06ea 00ba 5eda bd3a
00000030: 3456 333a 3bff 5539 6919 b73a a060 c436
00000040: adde de39 6be8 87ba 96ae 05bb 20b2 c3b9
00000050: 190e 3139 4123 8939 8e7e 0338 ab5b c5b8
00000060: 578f 8e3a ab0d a6b9 0149 9a39 7142 c5ba
00000070: c034 f039 5525 bb3a 17c4 a039 be62 fe39
00000080: ec82 893a a3ae a0ba ecbd 0abb 4b02 8f3a
00000090: 6b3d 863a f28b fcb9 cf21 bdba 827c 93b9
000000a0: c55b 8bba 7a36 08ba a8c6 2739 43a2 bfba
000000b0: a5bf acb8 ae57 57ba a919 9db9 49a8 baba
000000c0: fad6 6a39 dab5 28ba a39a d437 7409 a23a
000000d0: ab42 12bb 75c8 a03a d739 43b9 cc80 c7ba
000000e0: b64c 9f39 a772 71ba 6705 203a 6dc3 df39
000000f0: 6dbe a439 960a e739 8257 90ba 2668 a23a
00000100: c149 9c3a 9169 c13a 7d94 0b3a 6b0b 233a
00000110: df02 01bb d837 daba 5aa4 ebba b9d0 2e3a
00000120: 2f5c ddba 4250 bb3a 226e 223a d321 bd39
00000130: d0eb 923a 332e 323a 7925 0e3a 25d8 d539
00000140: b371 7739 1ce9 07ba d591 9eb9 e7a7 58ba
00000150: 5af6 383a d6c2 b7ba 6093 95ba 2657 e3b9
00000160: 020c 76b9 06ec a43a 04ad 92ba f22a 2538
00000170: 9576 0cba d760 5038 9aca 393b a2fa 0db9
00000180: aea1 76ba e0a1 acba 8d86 283a 3ec6 223a
00000190: 28a7 80ba 035c 8bba f0fa a9ba 5573 4a3a
000001a0: b2e2 163a c3fe 96b7 6987 8fb9 4fa6 38ba
000001b0: daac 19ba 6a1a 37b9 3883 90b9 e8ce 943a
000001c0: 3941 b538 7780 b5ba ec16 053a 383c e339
000001d0: d725 673a 432c 84ba f15a b53a 12c6 b5ba
000001e0: d507 e13a 5dff a239 1e42 d038 2018 5139
000001f0: 12a3 c23a 850d b639 d4a9 c0ba 4a8c e63a
0.00092322205 -2.45763e-05 0.000414584 -0.0006906167 -0.00054412347 0.00044059003 0.0008097087 7.940612e-05
-0.00094501796 -0.00025132764 -0.0004917685 0.0014484634 0.00068411534 0.00020408344 0.0013969365 5.852504e-06
0.00042509046 -0.0010368949 -0.002039825 -0.00037326012 0.00016885287 0.00026156942 3.1350697e-05 -9.4107665e-05
0.0010876459 -0.0003167217 0.0002942756 -0.0015049708 0.0004581567 0.0014278094 0.00030663676 0.00048520224
0.0010491288 -0.0012259077 -0.0021170331 0.0010910718 0.0010241693 -0.00048169453 -0.0014429631 -0.0002813079
-0.0010632208 -0.0005196106 0.00016000366 -0.0014620501 -8.237296e-05 -0.00082146644 -0.00029964492 -0.0014240827
0.00022396064 -0.00064357894 2.5344378e-05 0.0012362436 -0.002231757 0.0012266772 -0.00018618196 -0.001522088
0.00030383997 -0.0009210505 0.00061043206 0.00042679478 0.00031422396 0.0004406764 -0.0011012407 0.0012390658
0.0011923836 0.0014756193 0.00053245557 0.0006219658 -0.001968555 -0.0016648723 -0.0017978058 0.00066686753
-0.0016888435 0.0014290886 0.00061962206 0.0003607409 0.0011209194 0.00067970454 0.0005422454 0.00040787566
0.00023598112 -0.00051845773 -0.00030244762 -0.00082647655 0.0007055752 -0.0014019858 -0.0011411719 -0.00043361745
-0.00023464861 0.0012582547 -0.0011190479 3.937906e-05 -0.0005358246 4.9681254e-05 0.002834952 -0.00013540176
-0.00094082474 -0.0013170801 0.0006428741 0.000620935 -0.0009815441 -0.001063228 -0.0012968462 0.0007722874
0.0005755826 -1.8000026e-05 -0.00027375974 -0.0007043825 -0.00058622437 -0.0001746208 -0.00027563586 0.0011353167
8.642901e-05 -0.001384749 0.0005076963 0.0004334168 0.0008817589 -0.0010083992 0.0013836307 -0.0013868234
0.0017168472 0.00031089308 9.930528e-05 0.0001994078 0.0014849624 0.00034723818 -0.001469905 0.0017589417

convs.weight.0.tensor f4 [32, 32, 18, 2]
00000000: 1eb0 51ba dfb3 2a82 c569 723b 917b 91ba
00000010: 7930 443a e292 ecb9 7129 3f39 f05f e1b9
00000020: 6705 2238 94eb acb9 95a8 4c37 6719 81b9
00000030: 4b16 f8b6 cf3a 72b9 6b2a f8b6 8e86 44b9
00000040: 7cbe 1b38 23a7 32b9 24cf d4b6 b4ef 01b9
00000050: 9c45 3c35 1fae 0db9 e9e4 c0b6 8654 19b9
00000060: a812 ffb6 5458 27b9 a9e2 9eb7 626e 2db9
00000070: 3bbb 1ab8 afb9 15b9 0fcf 67b7 ecb3 44b9
00000080: c8e0 0838 8716 60b9 28bf 023a db86 a9b9
00000090: a68a 6dbc 06c8 a481 51ce 30bc ad90 02bd
000000a0: 9b00 2bbc d05e 98bc 8040 2cbc 1071 05bc
000000b0: 7fc8 e5bb 8fbd 5fbb f871 8cbb c9f7 3cbb
000000c0: ae95 11bc a134 9abb 4a8f c5bb fb8c 3ebb
000000d0: e020 78bb 4aff b9b6 d6db c4bb 9020 96bb
000000e0: b5f9 67bb 7f83 a7bb e910 d3ba 6790 dbbb
000000f0: a8fe 2a38 fe64 c5bb a1b7 273b e9ce a6bb
00000100: 5301 973b ac40 1fbb 65ae ad3b fcde 3f3b
00000110: 72f5 ea3b d754 673c 598f 5b3c 28d1 cb3c
00000120: c42e 67bc 70c6 1201 ff49 84bc c546 2abb
00000130: 997c 39bc b14d c63b 98d5 3bbc 31be 263b
00000140: 2cbc 37bc be2a 6e3b 75e4 36bc 838d 0e3b
00000150: 684e 5cbc 60f0 ff39 3246 64bc 91a3 843a
00000160: e33d 5dbc d59b 683b d4f9 26bc bc30 843b
00000170: 6cad 01bc 7d54 ea3a 327d e2bb c1b0 da3a
00000180: 87b5 d6bb 41ad fcb9 4b81 e0bb fc8c 3a3b
00000190: 81c3 13bc b782 003b 8ee6 1dbc 780a cbb9
000001a0: 3b11 87bc c31c c23a 5aa7 e7bc 3d39 913b
000001b0: 4168 f0bb df4f 7702 ecfb 28bd 02f1 4abd
000001c0: 2c7d 5cb8 a88b 9dbc 2c50 23bb 3a77 a1bc
000001d0: 5ee3 87bb ebe1 9cbc 7e3d eabb 582c abbc
000001e0: df5a 36bc 5212 c7bc bfff 59bc 99b2 b9bc
000001f0: 788a f2bc 742a f2bc 0ee4 6d3b 8aae 04bc
00000200: e8ee 76bb bf29 48b9 3b46 f1ba f3ef e23a
00000210: a1dc e3bb f8ee a2ba ca39 95bc f3a2 77ba
00000220: 536a 0fbd e7c0 b3bb 9b3e 76bd 2ba7 d2bb
00000230: fcdd 89bd 8793 beb8 fda9 9ebd b85c c33c
00000240: c7ae 9b3b 73e2 5702 0276 a43d f741 13be
00000250: 2f5f 2cbb ffdf 6dbd 49d7 8138 c7be 53bd
00000260: 7074 58bb dcfd 13bd 68e3 3ebc c77a ffbc
00000270: e775 953b d225 7ebc 043e 913b 7805 8cbc
00000280: b74e ba3b d8f0 88bc 8153 a83b ff78 1dbc
00000290: cc6f c93b e065 c5bb 21e6 d73b c283 cabb
000002a0: 73f9 013c 7547 18bc 876c 303c 5f29 82bc
000002b0: 2632 893c e2ca dfbc 0caf 983c ee7c 1fbd
000002c0: 54e0 0b3d 0695 5dbd e394 3b3d c5b6 10bd
000002d0: 0a33 cfbb ebe1 1d82 90c5 80bc fdac ddba
000002e0: a409 06bb fbe2 65b9 f3bd 8cbb 793d 8ebb
000002f0: 47a9 8bbb 3962 cdbb a1fb adbb 305c 14bc
00000300: e1b6 0ebc b42b 2ebc 7448 28bc 4c36 33bc
00000310: 5e54 39bc 2eaf 19bc 29ee 50bb 9695 193a
00000320: e616 3a3a 9d13 d03a 51b5 6b3a 6e1b 4c38
00000330: bdbc 66b9 db9e 49bb b034 8dbb 4801 9abb
00000340: faa2 3fbc 0532 01bc 15d9 d7bc ea42 8cbc
00000350: 4d8d 3fbd beaa 81bc dd6d 81bd ac65 9abc
00000360: 291e 5d3b d6e4 9001 595d 44bc 029b 2b3c
00000370: f04c 87bc 85b7 ef3a 4bb0 62bc 9266 243c
00000380: 220d 0cbc 8637 8a3c 9b8a acbb 1922 df3c
00000390: 30cf 40bb c271 fd3c c6ba 08bb f440 0b3d
000003a0: c59b 3138 eab4 5c3d 45ec 143b 933f a03c
000003b0: 1086 393b 55bc 823c 733f 3e3b 3bdd 833c
000003c0: fa7e a53b b3cd 8e3c d729 373c f818 a63c
000003d0: e446 b13c 7c12 ef3c f2b8 303d 6301 e33c
000003e0: bb24 893d 903b d43c 40a8 993d 3fdb 253c
000003f0: 8d6d 88bb 781c 1c81 9bff e9b7 0e96 cfb7
-0.0007998961 -1.2541248e-37 0.0036989313 -0.0011099448 0.00074840296 -0.00045122864 0.00018230618 -0.00042986823
3.862884e-05 -0.00032981916 1.2198599e-05 -0.00024623724 -7.393571e-06 -0.00023100826 -7.395914e-06 -0.00018742142
3.7132282e-05 -0.00017037666 -6.3422067e-06 -0.00012391695 7.013675e-07 -0.00013511673 -5.7486945e-06 -0.00014622704
-7.601764e-06 -0.00015959266 -1.8940615e-05 -0.00016539686 -3.6890833e-05 -0.0001427892 -1.38168825e-05 -0.00018759043
3.263427e-05 -0.00021370697 0.0004987591 -0.00032334667 -0.014498388 -6.0531105e-38 -0.010791377 -0.031876255
-0.010437156 -0.018599898 -0.010513425 -0.008144632 -0.0070124264 -0.0034140085 -0.004286047 -0.0028834215
-0.008885784 -0.004705981 -0.0060290443 -0.002907573 -0.0037861392 -5.543149e-06 -0.006007652 -0.0045815185
-0.003539664 -0.005112111 -0.0016103062 -0.0067005637 4.0768326e-05 -0.006024002 0.002559163 -0.0050905836
0.004608312 -0.0024300022 0.0053003305 0.0029277196 0.0071703726 0.0141193485 0.013400876 0.024880007
-0.014110271 2.6958337e-38 -0.016148565 -0.0025982123 -0.01132121 0.006051742 -0.011464499 0.0025442953
-0.011214297 0.0036341394 -0.011162867 0.0021751828 -0.013446428 0.00048816483 -0.0139327515 0.0010119547
-0.0135035245 0.0035493274 -0.0101914 0.00403413 -0.007914882 0.0017877963 -0.006911897 0.0016684757
-0.0065524015 -0.0004819427 -0.0068513504 0.002846538 -0.00901878 0.0019609162 -0.009637488 -0.00038726977
-0.016487708 0.0014809597 -0.028278042 0.004431872 -0.007336647 1.8169616e-37 -0.041255876 -0.04954625
-5.2568663e-05 -0.019231632 -0.0024919612 -0.019710172 -0.0041469773 -0.019150695 -0.0071484437 -0.020895168
-0.011130064 -0.024300728 -0.0133056035 -0.02266817 -0.029607043 -0.029561259 0.0036299261 -0.008098254
-0.003767902 -0.00019089038 -0.0018407771 0.0017313942 -0.0069537912 -0.0012430837 -0.018216033 -0.00094465836
-0.035013508 -0.0054856422 -0.0601183 -0.0064286194 -0.06731793 -9.087385e-05 -0.077472664 0.023847923
0.0047510597 1.5860693e-37 0.08030321 -0.14380632 -0.002630185 -0.058074947 6.191299e-05 -0.05169561
-0.0033028387 -0.03613077 -0.011650898 -0.031186474 0.004561174 -0.015511947 0.0044324417 -0.017092451
0.005685653 -0.016716406 0.0051369076 -0.009611367 0.0061473604 -0.0060241073 0.006588713 -0.0061802575
0.0079330085 -0.00929438 0.010768062 -0.015888868 0.016747545 -0.027318422 0.018638156 -0.0389375
0.034149483 -0.054097198 0.045796286 -0.035330553 -0.006323223 -1.1599374e-37 -0.015719205 -0.0016912516
-0.0020452524 -0.00021923699 -0.0042951046 -0.004340824 -0.004262123 -0.0062678126 -0.0053095375 -0.009055182
-0.008710594 -0.010630537 -0.01027118 -0.010938238 -0.011311619 -0.009380145 -0.0031880236 0.0005858777
0.0007098749 0.0015874986 0.0008991557 4.8662936e-05 -0.0002200482 -0.0030764851 -0.0043092594 -0.00469986
-0.0116965715 -0.007885461 -0.02634863 -0.01712175 -0.046765614 -0.015828487 -0.06319783 -0.018847309
0.00337399 5.322561e-38 -0.011985146 0.010473968 -0.016516179 0.0018288946 -0.013835977 0.01003422
-0.008548053 0.016872179 -0.0052655465 0.027237939 -0.0029420368 0.030938033 -0.0020863279 0.03399749
4.234516e-05 0.05388347 0.0022723835 0.019561565 0.0028308667 0.015958944 0.0029029518 0.016096702
0.005050537 0.01743207 0.011179409 0.020275578 0.021640249 0.029183619 0.043145128 0.027710622
0.06696459 0.025907308 0.07502794 0.010123073 -0.00416345 -2.86731e-38 -2.789479e-05 -2.4746198e-05

convs.weight.1.tensor f4 [32, 32, 18, 2]
00000000: e15f 333a e8da 2e02 b45c 8839 b55c 84ba
00000010: 5311 59b9 ef44 bab9 493c 18b9 7cae beb9
00000020: 0d64 2eb9 9b72 9bb9 354c c6b8 c902 6cb9
00000030: d234 2bb9 807a 74b9 a3cf bfb8 5a9f 48b9
00000040: f136 d2b7 eb29 3bb9 ee1e 94b8 7e91 02b9
00000050: 77be c2b7 7812 15b9 67d9 e8b7 fb88 29b9
00000060: 7c8b a3b7 3f1c 40b9 3f3c c7b7 cbef 4fb9
00000070: 83fa 81b8 2762 3fb9 e298 b6b7 316c 85b9
00000080: bd53 06b8 473f 82b9 2f4e 4b38 c3de 52b9
00000090: 4285 13bc 9433 5502 2fc6 693a 00cf 55bb
000000a0: e1fc 78ba 386b 8b3b 1896 17ba 6269 c43a
000000b0: 44c7 1bba 4ca8 0d3b 8375 dcb9 7528 843a
000000c0: a36b 25bb 977c 323a dbe4 e5ba a6aa a2b8
000000d0: f858 99ba 3d77 a0ba ac3f cdba 41ee ab39
000000e0: 9d60 29ba a83e 4039 6e32 59ba 3a04 73b8
000000f0: 9abe 3cba 064c 7ab9 fe21 1eba 6b87 2f38
00000100: a95b bfb9 16da 5f3a 71b6 b7b8 e034 f639
00000110: 4654 1137 003e 0d3b ad1a d139 3992 b13b
00000120: c41a 1abc d6ca a081 3e8e dcba adbf 6cbb
00000130: d48f ef3a 4fe8 593b 8439 013a b439 6b3a
00000140: ec20 493a bb42 d73a a41d 7239 8135 313a
00000150: 8208 8739 bebe 223b 43e0 e9b9 81bb d73a
00000160: 339d c0ba 3b90 463a 6ad1 feb9 fdc4 cd3a
00000170: 8698 b5b9 a3be 203a 0903 54ba 4786 063a
00000180: 6e84 51ba 232f 3a39 5031 f6b9 5951 8239
00000190: 770a 023a 63ca 4d3a 6fdd d539 2200 b238
000001a0: 8d3f 053b efd0 f73a 73b1 9a3b 2d3e eb3b
000001b0: 114f a1bb 0abe 6d02 30af 6a3a 4f40 a93a
000001c0: e540 143a 25f0 3e3a 3820 183a 0bbd 163a
000001d0: 7eb2 b839 f3f6 fa39 4ce1 a839 2eda c139
000001e0: 1f1e 7e39 8346 8e39 b523 7739 f9ec 4139
000001f0: a442 4539 3c11 4b39 30d1 76b7 be45 25b8
00000200: fd37 1d39 ac5b fab8 e96f 3a39 0b8b 59b9
00000210: 55b2 a839 fd04 24b9 789b f439 a5eb cab8
00000220: 532b 1a3a 0299 0538 e349 993a 6a08 8739
00000230: 5253 353a 0b3d 1b39 1318 c4ba 10db 8aba
00000240: 474d 813a ea12 a202 1304 e3b9 0887 533a
00000250: ab31 3b37 914a aa36 3a35 00b7 0efe b137
00000260: d496 b2b3 3863 3537 fe33 3fb6 8790 af36
00000270: 73a1 9eb6 3418 b1b6 a05f 05b6 ee5b 6ab6
00000280: 8f32 ab36 72b7 8534 0cb2 41b5 417e 3c36
00000290: 6456 90b5 6796 9636 8224 23b6 b26d 8536
000002a0: 31d4 84b6 0034 b036 2c90 71b6 23c1 0037
000002b0: 7ab3 8e35 bd05 0637 6fe9 00b7 3b29 3f37
000002c0: 1232 b236 818f a737 b9f1 53b6 e5ca 0c39
000002d0: 6f6f dfbb c052 8000 759f c9ba df51 94b9
000002e0: 5916 e83a edf1 1d3b f2d0 413a 8785 b13a
000002f0: 3a44 703a 1bee b83a 2acd e039 2ad2 633a
00000300: cbca 903a bcca 083b 701a b539 703a ca3a
00000310: e25a 14ba bece 933a a9b4 4439 9485 993a
00000320: 720a 1b38 3cea 203a 7727 3bb9 84d7 2a3a
00000330: e23c 29b9 887b 0b3a 5cc1 0339 6fda 123a
00000340: b267 563a 3b68 3b3a 4eb7 5b3a 2af1 223a
00000350: 3a7b f93a 62dc 8e3a e2e7 763b 41be 1b3b
00000360: 02c5 6cbc 1a0f ad81 8efb 503b 390d 2fbb
00000370: aacb e539 6491 22bb 62b7 323a ce45 0cbb
00000380: 9686 6439 dc4f d0ba 60a2 a339 429d a3ba
00000390: 54f9 a0b9 2540 c0ba e4e9 f2b5 d324 99ba
000003a0: f027 d239 97d9 85ba 68fd 9fb9 d9f0 79ba
000003b0: 994b 53b9 27a1 64ba e212 7eb9 43c2 81ba
000003c0: 4964 84b9 9f6b 80ba fe3c d4b9 8d3c 7eba
000003d0: b4b9 37ba 3683 77ba d3a9 58ba 296c 9dba
000003e0: 2a5c a2ba 0401 01ba 3bcb 93ba c4b3 fb3a
000003f0: 6e2a 333b 8c5b 2981 114d d238 bf59 4739
0.0006842595 1.2846324e-37 0.0002600901 -0.001009843 -0.00020701186 -0.00035528044 -0.00014518308 -0.00036369625
-0.00016631205 -0.00029649292 -9.4555704e-05 -0.00022507751 -0.00016327508 -0.00023315288 -9.146265e-05 -0.0001913285
-2.5059535e-05 -0.00017849325 -7.062951e-05 -0.00012451966 -2.3215294e-05 -0.00014216627 -2.7757791e-05 -0.00016168125
-1.9496067e-05 -0.0001832107 -2.3750703e-05 -0.00019830388 -6.197861e-05 -0.00018251744 -2.1767282e-05 -0.00025448346
-3.2026077e-05 -0.00024842678 4.8471786e-05 -0.00020110146 -0.009003939 1.5663571e-37 0.0008917776 -0.0032624602
-0.0009498131 0.004254725 -0.00057825586 0.001498502 -0.00059424737 0.0021615205 -0.00042049223 0.0010082858
-0.0025241158 0.00068087265 -0.0017539518 -7.756548e-05 -0.0011699488 -0.0012242567 -0.0015659234 0.00032793175
-0.0006461235 0.00018333888 -0.00082854077 -5.793965e-05 -0.00072000327 -0.00023870179 -0.0006032287 4.184937e-05
-0.0003649865 0.0008539272 -8.760102e-05 0.0004696017 8.662295e-06 0.0021551847 0.0003988346 0.0054190424
-0.0094057955 -5.9065773e-38 -0.001682706 -0.003612499 0.0018277117 0.003325004 0.000492953 0.0008973137
0.0007672447 0.0016423085 0.0002308996 0.0006759987 0.00025755545 0.002483293 -0.0004460831 0.0016459079
-0.0014695287 0.00075745926 -0.0004860268 0.0015698966 -0.0003463665 0.0006131923 -0.00080876105 0.0005131703
-0.0007992451 0.00017755902 -0.00046957517 0.0002485614 0.0004960666 0.00078502874 0.00040791507 8.487726e-05
0.0020332069 0.0018906872 0.0047208606 0.007179043 -0.0049227555 1.7466549e-37 0.00089524966 0.0012912842
0.0005655422 0.0007283709 0.0005803141 0.00057502155 0.00035228202 0.00047867707 0.00032211316 0.00036974385
0.00024234549 0.00027136886 0.00023569058 0.00018494194 0.0001881221 0.00019366009 -1.4711448e-05 -3.9404018e-05
0.00014993544 -0.00011938004 0.00017780032 -0.0002074653 0.00032176325 -0.00015642117 0.0004665514 -9.676003e-05
0.00058810896 3.185217e-05 0.0011694994 0.00025755476 0.0006917018 0.00014804692 -0.0014960788 -0.001059385
0.0009864949 2.3814617e-37 -0.0004329985 0.00080691325 1.1157633e-05 5.0750755e-06 -7.641787e-06 2.1218348e-05
-8.3162064e-08 1.0811542e-05 -2.8491481e-06 5.2322316e-06 -4.727562e-06 -5.2778287e-06 -1.9874205e-06 -3.4922227e-06
5.102083e-06 2.4906655e-07 -7.2157195e-07 2.8087672e-06 -1.0753979e-06 4.4878575e-06 -2.4310143e-06 3.976479e-06
-3.958609e-06 5.2512623e-06 -3.5995718e-06 7.674363e-06 1.0632059e-06 7.988358e-06 -7.683745e-06 1.1394087e-05
5.3106423e-06 1.9974776e-05 -3.1582151e-06 0.00013427025 -0.006818704 1.1784629e-38 -0.0015382605 -0.00028289758
0.0017706855 0.0024100498 0.0007393501 0.0013543823 0.000916544 0.0014109047 0.00042877469 0.00086906797
0.0011046765 0.0020872792 0.00034542708 0.0015428793 -0.00056592945 0.0011276824 0.00018759318 0.0011712783
3.6964608e-05 0.0006138419 -0.00017848412 0.00065170997 -0.00016139777 0.0005320837 0.00012565166 0.0005602007
0.0008178904 0.00071490154 0.00083815015 0.0006215746 0.0019033917 0.001089942 0.0037674834 0.0023764523
-0.014451267 -6.3571833e-38 0.003188822 -0.0026710762 0.00043830025 -0.0024805898 0.00068174873 -0.0021403912
0.00021793912 -0.001589294 0.00031210762 -0.001248278 -0.00030703342 -0.0014667554 -1.8098476e-06 -0.0011683948
0.00040084077 -0.0010211942 -0.00030515646 -0.0009534485 -0.0002015069 -0.00087215233 -0.00024230362 -0.0009899813
-0.0002525172 -0.0009797699 -0.00040481234 -0.0009698354 -0.0007008568 -0.0009441854 -0.0008265052 -0.0012010384
-0.0012387086 -0.0004921111 -0.0011275777 0.0019203355 0.0027338522 -3.110608e-38 0.00010027935 0.00019011552

convs.weight.2.tensor f4 [32, 32, 18, 2]
00000000: 30db 91bc 3797 7e02 ec93 13bc 5dc5 a0bc
00000010: 9247 7cb9 4aef 81bc 5cc2 903b ff74 3fbc
00000020: 75c8 153c 9e3b afbb f0d3 6a3c fd8d 4239
00000030: 62b9 b13c 75be 0f3b e072 d73c 5dc5 de3a
00000040: 36b7 263d 9929 58bb 332a 4d3c f49f ee3b
00000050: 018d f93b e1c4 153c e24b a43b d3d8 e73b
00000060: 1675 b33b 49e5 f13b 1cbe 103c ceac 273c
00000070: 1092 8d3c d6fd 803c 3332 243d 05e0 f03c
00000080: edc7 6c3d ef96 323d 53aa 673d da0c 483d
00000090: aedd d8ba 103e d780 8468 913c f972 5ebb
000000a0: c793 713c 40fe ffbb 1fec 173c 00c5 22bc
000000b0: 6c56 e03b 1e38 1ebc 979a cb3b 3b10 1dbc
000000c0: 3ea0 1b3c 6b37 73bc 84fb 133c 5240 64bc
000000d0: 1140 103c 696a 75bc b953 2e3c 2a37 98bb
000000e0: 9c1f 303c dc7c c9ba 760a 3c3c e283 24bb
000000f0: 610d 433c 54c0 1dbb 4356 363c 1389 27bb
00000100: c1f8 163c ee9e 5cbb 5b14 c03b 5881 57bb
00000110: f4be d939 256a b9bb a653 01bb 54c0 f5bb
00000120: 15a8 2fbb b48b 8e81 7c19 7c3c 5b2d 2dbc
00000130: 5a71 073c cd2f 0fbc f91a 863b 75e9 07bc
00000140: 36aa 403b a6aa d9bb 5937 423b b0e1 c5bb
00000150: 49cf 683b 2c71 63bc 04c1 8f3b 5613 42bc
00000160: 49bb b13b 384f 1abc ec94 f83b a9a1 11bc
00000170: 8ac1 103c ee53 1bbc ea72 153c 1876 35bc
00000180: 1f3a 1f3c 0547 4abc 3a5a 223c fc10 64bc
00000190: 9b9c 1d3c 3ce7 66bc 1689 143c 553f 2dbc
000001a0: 2531 c53b 5758 64bb 99ae 333b 448c a83b
000001b0: 1af0 69bb d4ca b281 3bf1 ee3b 663c 6bbc
000001c0: a985 c13b 43d9 95bc bc32 d5b9 f222 37bc
000001d0: e8ff 64bb 0f42 2dbc 4674 8abb 59a5 4fbc
000001e0: f7f3 b0bb 18e2 29bc 6d63 32bb 2349 4abc
000001f0: 6fd7 dbbb bc0d e3bc 7c60 183b 05a8 b2bb
00000200: f857 5c3a cd89 013b 05b0 a039 1a70 813a
00000210: b6f9 e6ba 95ba fe3a f1ba 6ebb 8438 b13b
00000220: 8d8b 11bc 50e5 623c 0cdd acbc f9da 063d
00000230: a7b4 fabc 0367 183d dea7 c8bc c6d6 fb3c
00000240: 36a5 ce3b fcd1 8c01 561f ee3b f8d9 b7ba
00000250: a67e 603c 9c29 103c 27a1 7d3b b81b 5c3b
00000260: 7ac4 7f3a e77c 283b 3c13 5b3a 0ba9 003b
00000270: d9ea 363b f6d6 813b 01de f93a 93fe 713b
00000280: e7ed a03b 5f45 863b b98b cd3a a4f0 323a
00000290: da13 213a 2e98 8939 a099 2539 5f08 b5b8
000002a0: 2e23 113a 27c3 68b9 3f57 533a 18bf 84b9
000002b0: 3d13 253b 1f58 0bbb 33ae 6d3c 2176 03bc
000002c0: 0d5f 333d 4e88 a1bc 2d67 513d 7746 0dbb
000002d0: 507a 0d3c af68 8802 bd94 963c 49f3 58bb
000002e0: 03b4 0b3c bf53 bfbb 91ab 0cba ca13 27bc
000002f0: 2142 98bb aeaf 67bc c094 d0bb e20c 86bc
00000300: a9f7 2bbc dce6 a5bc ea4d 21bc 6d51 9dbc
00000310: 5802 32bc 3176 95bc 7341 a93a ff60 38bc
00000320: 77f8 8a3b aae1 15bc 4d1e a93b b950 24bc
00000330: f285 983b e31b 26bc 46f1 eb3a dd3e 1bbc
00000340: bc74 82bb fcd3 e2bb 72d0 4abc d7d7 d839
00000350: c77b b9bc 8924 4d3c 6564 a2bc c3c2 8f3c
00000360: a110 173c 38b5 9c80 0b3b 5fbc 26a5 ffbb
00000370: f073 a4bc 8424 373b b327 4fbb f0f3 223c
00000380: afe1 ea3b a64d 913c a41b 6b3c bfdc ae3c
00000390: 2eb8 e03c d783 ea3c 7efe f53c 4312 fb3c
000003a0: 0a31 293d fe79 223d 261a fc3b 0ef5 773c
000003b0: da22 b93b b359 203c 86e4 1b3b 14d9 1a3c
000003c0: e6b6 a13b 1efa 0b3c f943 493c e4db d33b
000003d0: 486a e33c 5f68 4e3b 82b3 5e3d 686e e1bb
000003e0: fa2b 3c3d 56fe a0bc cffa 1c3d fa94 88bc
000003f0: 74d4 24ba 6459 2301 9fa5 f7bb b972 88ba
-0.017804712 1.8704369e-37 -0.009007435 -0.01962536 -0.00024059255 -0.015861172 0.0044177007 -0.011685609
0.009142031 -0.005347683 0.014332756 0.00018554176 0.021694843 0.002193359 0.026299894 0.0016996075
0.040702067 -0.0032983779 0.012522268 0.0072822515 0.007615686 0.009141178 0.0050139287 0.007075408
0.005476604 0.0073820692 0.008834388 0.010234071 0.017281562 0.015746038 0.040086936 0.029403696
0.05780785 0.043600973 0.05655892 0.04884038 -0.0016545558 -1.9766896e-38 0.017750032 -0.003394304
0.0147447055 -0.0078122914 0.009272604 -0.009934664 0.00684624 -0.009656934 0.006213497 -0.009586389
0.009498654 -0.014844756 0.009032134 -0.013931351 0.008804337 -0.014978983 0.010640078 -0.004645248
0.010749724 -0.0015372294 0.011477103 -0.0025103022 0.011905045 -0.0024070935 0.011128965 -0.002556388
0.009214581 -0.0033664065 0.0058618016 -0.0032883491 0.00041531736 -0.0056584054 -0.0019733696 -0.007499734
-0.0026803066 -5.2363026e-38 0.015386935 -0.010569896 0.008266771 -0.008739424 0.004092571 -0.008295407
0.0029398329 -0.0066426573 0.002963504 -0.006038867 0.0035523942 -0.013881963 0.004387023 -0.01184543
0.0054239375 -0.009418301 0.0075861122 -0.00888864 0.008835206 -0.00948046 0.009121636 -0.011075519
0.009718447 -0.012346034 0.009909207 -0.013920065 0.009619857 -0.0140932165 0.009065887 -0.010574182
0.0060178214 -0.0034842694 0.00274173 0.005143674 -0.003569609 -6.567792e-38 0.0072919405 -0.014357662
0.005905826 -0.018292075 -0.00040664326 -0.011177765 -0.003494257 -0.010574832 -0.0042252867 -0.012673699
-0.0054001766 -0.010368846 -0.0027219907 -0.012346539 -0.0067090313 -0.02771651 0.0023250869 -0.0054521584
0.00084054423 0.0019765974 0.00030648723 0.0009875328 -0.0017622027 0.0019434268 -0.0036427344 0.0054083485
-0.008883369 0.013848618 -0.021101497 0.032923672 -0.03060372 0.037207615 -0.024494108 0.03074206
0.006306316 5.172919e-38 0.007266919 -0.0014026752 0.01370207 0.008798983 0.003870079 0.0033585858
0.00097567553 0.0025709213 0.0008357053 0.0019632007 0.0027910976 0.003962393 0.0019063355 0.003692542
0.0049111727 0.004097625 0.0015681899 0.00068260194 0.0006144621 0.0002624406 0.00015792856 -8.632312e-05
0.0005536553 -0.00022197944 0.0008062012 -0.00025319378 0.002518847 -0.002126224 0.014506864 -0.00802377
0.04379182 -0.019718315 0.051123787 -0.0021556893 0.008635119 2.004349e-37 0.01838147 -0.0033103994
0.008526805 -0.0058388407 -0.00053661416 -0.010197589 -0.004646555 -0.014141006 -0.0063653886 -0.016363565
-0.0104960585 -0.020251684 -0.009845236 -0.019203866 -0.010864817 -0.018244835 0.0012913182 -0.011253594
0.004241045 -0.009148041 0.005161083 -0.010029011 0.0046546394 -0.010138485 0.0018000982 -0.009475437
-0.003981201 -0.006922243 -0.012378799 0.00041359544 -0.02264203 0.012520918 -0.019823262 0.017548924
0.009220273 -1.4391346e-38 -0.013624917 -0.0078016696 -0.020074815 0.002794535 -0.0031609356 0.009945855
0.007168017 0.017737221 0.014349852 0.021345494 0.027431574 0.02862732 0.030028578 0.030648356
0.041306533 0.039667122 0.007693547 0.015134109 0.0056499066 0.009787011 0.0023787334 0.0094511695
0.0049351333 0.008543519 0.012284272 0.006465422 0.02776064 0.0031495315 0.05437041 -0.0068796165
0.045940377 -0.019652527 0.038325127 -0.0166726 -0.00062877615 3.0002506e-38 -0.0075575854 -0.0010410167

convs.weight.3.tensor f4 [32, 32, 18, 2]
00000000: 4fe0 8d3a c7f0 1782 3a07 53bd d7ff a0bb
00000010: b6c3 67bc 251a f4ba 4a4e c4bb 738f 3bba
00000020: 28db 25bb 803c 0b3b 6f1a 33bb dc37 773b
00000030: af27 253a ab25 4eba de80 33ba dfe0 31bb
00000040: ffc2 34bb 84a9 87bb 00dc 00bc 3ee0 fbbb
00000050: b801 4bbc 73ca c13b aa2d 81bc 5272 6b3c
00000060: a156 89bc 75c2 d53c afa4 65bc 59f1 0e3d
00000070: e1a9 03bc df56 263d f635 b13a 269c ee3c
00000080: 56e9 2a3c bbea 5f3c b48f 0f3c 032a 1a3c
00000090: 542a 7cbb 4c25 e901 7801 483d 6909 66bc
000000a0: cf2e d03c e277 acbc 232f 9e3c 88b1 d9bc
000000b0: d6b2 8a3c 94ce e3bc 8e4b 983c f29a e0bc
000000c0: 953c 633c 4b24 b5bc 4e44 803c 1613 a9bc
000000d0: 52f4 9a3c 23d2 c4bc fa10 b53c 1c8d 9dbc
000000e0: fb4a c93c f5e8 a0bc 10c6 ea3c c6ba d4bc
000000f0: 30f3 f13c f69c 16bd b976 eb3c b15c 29bd
00000100: 450e d53c c379 2abd 3cd3 d73c 8e57 c6bc
00000110: 5aba d73c 9a3d 0fbc 9b2d 043d 70e3 85bb
00000120: bde2 4ebb 50d1 4f02 0dda 253d a43c 7fbc
00000130: 219c 7f3c 208f 79bc f65d 423c de1c 99bc
00000140: 4369 3e3c bbaa 9abc e972 5f3c 4755 95bc
00000150: d9be 223c 1f8e 3fbc d7e7 463c 8f82 17bc
00000160: dc30 7a3c 60c7 19bc a289 923c 5e16 20bc
00000170: 8e44 ac3c 0a6f 8dbc 5991 ca3c d7a8 c9bc
00000180: b42f d83c 40e4 18bd 6736 da3c 8252 38bd
00000190: a550 cc3c 0550 47bd 7a08 d13c 8319 09bd
000001a0: 6242 c43c 2e48 9dbc 77ad e43c 685a 59bc
000001b0: 2b02 97bc a22d 9102 6f0c 653c d23c 4ebc
000001c0: 8290 673c 7bf7 f4bc 4671 ac3b c14f 1cbd
000001d0: 75f7 0cba 5fdb 3fbd f341 d1ba 6000 4ebd
000001e0: 4f99 aa3a 072e 4dbd ad1e 503b d27c 61bd
000001f0: f753 5a3b 31df 95bd 503b c23b f9a9 d1bc
00000200: 62ec 1f3b d811 c8bb a57f 22ba 874e e7bb
00000210: 6f23 edbb 78a4 82bb 02b9 5abc 9c04 d03b
00000220: e095 b4bc 80e1 d63c 59e2 0cbd d414 6e3d
00000230: b4ab 2fbd 4db5 983d 888e 62bd ebf2 a03d
00000240: afaa db3b ce46 9382 c599 67bc 9954 773a
00000250: 6573 97bc eab1 5bbc e50f 03bd 677e b5bb
00000260: 6840 12bd 1913 6bbb 24ea 1abd 171c 89bb
00000270: b87c 0ebd a292 88bb efee 0fbd 35b3 cbbb
00000280: f384 24bd a29f e7bb c420 fbbc 8db8 4537
00000290: 3816 e5bc 897f 6d3b 26e4 f9bc 0878 b73b
000002a0: 266e 07bd 13b6 563c 3945 1bbd 8846 b13c
000002b0: 5f0a 36bd ab98 093d 42b5 68bd 20b6 0b3d
000002c0: fa1b 87bd 79ee f43c 779c 94bd b958 003d
000002d0: 0ae0 403c 54d4 be81 e334 4f3d 07cc 0dbc
000002e0: d099 ce3b 0dbf e0bc 62d7 56bc a7c4 0abd
000002f0: 5a96 a0bc 66da 11bd de3c 8ebc 89b8 13bd
00000300: 338f 8dbc 4b0d 00bd 34e0 60bc d1a1 f7bc
00000310: 499c 40bc ac5b 0dbd a72c c13a 252c 88bc
00000320: 8758 093c 1a49 a8bc 54f6 3d3c 52af efbc
00000330: 0f5f 2c3c c9f5 14bd de18 363b e8f4 1fbd
00000340: 7cb2 34bc be80 11bd e571 06bd 9401 2ebc
00000350: 0bdf 65bd 7e7c ad3c 9abd 86bd 615e 283d
00000360: bab1 e2ba 909e 1301 9dfb 6ebd 076c c1bb
00000370: 1fd3 09bc b73d 9f3c 388b 763c d38c e23c
00000380: 04b2 f03c cdbb fa3c 16bd 053d 7249 ff3c
00000390: b486 143d f7e3 023d d615 123d dbf1 063d
000003a0: bddf 2c3d 061f 363d 8cac 833c 95ff 9c3c
000003b0: 594b fa3b 1c50 dd3c b8ee 7e3b f3ba 0b3d
000003c0: 381d 113c fb0a 0a3d 0ba5 c83c a7b1 f03c
000003d0: f6a6 473d b145 8d3c 68c2 9e3d 5371 9cbc
000003e0: 1a72 b13d 47db 5ebd ed2f b53d 08c9 89bd
000003f0: f20a f8bb cef9 4e02 9bf2 54bd e0a1 913a
0.0010824295 -1.1162828e-37 -0.051520564 -0.004913311 -0.014145782 -0.0018623514 -0.005990778 -0.00071548595
-0.002530763 0.0021245778 -0.0027328988 0.0037722504 0.0006300164 -0.00078638893 -0.0006847511 -0.002714209
-0.0027582047 -0.004140081 -0.007864952 -0.007686644 -0.0123905465 0.0059140264 -0.015768845 0.014370518
-0.01676494 0.0260937 -0.014016314 0.034898136 -0.008036108 0.04061019 0.001352011 0.029127192
0.010431608 0.013666804 0.008762289 0.00940943 -0.0038477378 8.56442e-38 0.048829526 -0.0140403295
0.025412945 -0.021053258 0.019309586 -0.026573911 0.016930979 -0.027808465 0.018590715 -0.027417634
0.013869424 -0.022112032 0.01565757 -0.020638984 0.01891533 -0.024025982 0.022102822 -0.019232325
0.024571886 -0.019642333 0.028658897 -0.025967967 0.029534906 -0.036770783 0.028743135 -0.041348163
0.02600778 -0.041620027 0.026345842 -0.024211671 0.026333977 -0.008742714 0.032270055 -0.0040859506
-0.0031568252 1.5268028e-37 0.040491153 -0.015578423 0.015601189 -0.015231878 0.011863222 -0.018690523
0.011621776 -0.018880239 0.013638237 -0.01822914 0.009933197 -0.011691599 0.012140236 -0.009247436
0.015270438 -0.009385914 0.017887894 -0.009770958 0.021028783 -0.017264862 0.02472751 -0.024616642
0.026389934 -0.03732705 0.02663727 -0.04500056 0.024940798 -0.048660297 0.025516737 -0.033471595
0.023957435 -0.019199457 0.027914746 -0.013266183 -0.018433651 2.1332027e-37 0.013980015 -0.012587743
0.014133574 -0.029903164 0.0052625267 -0.038161997 -0.000537745 -0.046840068 -0.0015965089 -0.050293326
0.001301566 -0.050092723 0.0031756565 -0.05505068 0.0033314207 -0.07317961 0.0059274808 -0.025593745
0.002440237 -0.0061056428 -0.000619883 -0.0070589217 -0.00723689 -0.0039868914 -0.013349773 0.0063482057
-0.022044122 0.026230574 -0.03439555 0.058125332 -0.04288836 0.074564554 -0.05531171 0.07858833
0.0067036967 -2.1640349e-37 -0.014135783 0.0009434908 -0.018487642 -0.013409117 -0.03199758 -0.00553875
-0.035705954 -0.0035869537 -0.03782095 -0.004184257 -0.03478691 -0.0041678706 -0.035139974 -0.0062164315
-0.040165853 -0.0070685903 -0.030655272 1.1785084e-05 -0.027964696 0.0036239347 -0.030504297 0.0055990256
-0.03306403 0.013104933 -0.037907813 0.021640077 -0.044443484 0.03359286 -0.056813486 0.034109235
-0.06597133 0.029898869 -0.07256406 0.031334613 0.011772165 -7.0099653e-38 0.050587546 -0.008654601
0.006304957 -0.02743485 -0.013112875 -0.03387895 -0.019602943 -0.03560867 -0.017363008 -0.03606466
-0.017280197 -0.031262677 -0.013725329 -0.030228527 -0.011756011 -0.034511253 0.0014738039 -0.016622612
0.008382923 -0.02054267 0.011594374 -0.029258404 0.010520711 -0.03636721 0.0027785818 -0.03905192
-0.011028882 -0.03552317 -0.032823462 -0.010620493 -0.056120913 0.021177527 -0.065791324 0.04110563
-0.0017295398 2.71134e-38 -0.058345426 -0.0059027704 -0.008412152 0.019438608 0.015047841 0.02765504
0.02938176 0.030607129 0.03265103 0.031162951 0.036261275 0.031955685 0.035665356 0.032945495
0.04220556 0.04446318 0.016073488 0.01916484 0.0076383767 0.027015738 0.0038899612 0.034113836
0.008857064 0.033701878 0.024492761 0.029381586 0.04874321 0.017245146 0.07751924 -0.019097006
0.08664341 -0.054408338 0.08847032 -0.06727797 -0.007569664 1.520618e-37 -0.05198918 0.0011110865

convs_bc.bias f4 [4, 32, 1]
00000000: bbe9 033d 13cd 4d3b c199 c53b eec1 a3ba
00000010: 0b46 2fbc f26d 3bbb af8e 5cbc b535 8ebb
00000020: 1185 2a3b 3236 5fbb 1b1a de3b 4833 233b
00000030: e5e8 f33b cbc0 0037 e0fa 67bc 469b 5dba
00000040: 6b63 a9bc 9d4f eaba 347c 0abc 4870 05bc
00000050: d490 79bb 0b09 8dbb 7248 273c a0cf 6dbc
00000060: ae87 3fbc a4ba 673b 7851 d2bb c6b3 993b
00000070: 8faa f9ba f908 83bc 8553 caba e0eb 72b8
00000080: 3317 9b39 4d54 743b f9cb b03b 9106 fc3a
00000090: 159b 26bc 4d1d 62bb 2195 46bc 177c c439
000000a0: 6674 843b 6f48 e5bb 198e 933b 28e5 903b
000000b0: 50ff e03b db4c 973b e16b 8cbc f029 89ba
000000c0: 66f6 b9bc 812b 6bbb 27ae 523b 3ffd bbbb
000000d0: 1efb 38b9 aa74 45bb 21f1 5d3b 14df 23bc
000000e0: bdeb d4bb 7353 4c3b 107f cabb 5faf fc3a
000000f0: 5526 93b6 6e76 0eb9 00c5 21bb 8215 06bc
00000100: 1585 7bb9 896f 8b3b 9706 823b 00f1 2f3c
00000110: 229c b4bb fe96 c2bb b895 20bb 135f ea3a
00000120: 7993 a93b 160f 0cbc f1f4 a03b 0d96 cb3b
00000130: cf48 943b bf61 ec3a 8b21 78bc 6b01 bc3a
00000140: a9a2 b9bc 790a c4bb 0131 b23b 404e 8bbb
00000150: aab4 a4ba 94eb 03bb 3599 393b e9b6 86bb
00000160: 3b6c 8dbb 4d8c 263b 3a84 ecba d6e0 053b
00000170: a492 933b d066 0bbb a5ac aabb eaaa 31bc
00000180: d259 7ebb 6c1d 893b a75e 8b3b 8591 553c
00000190: 0736 e7bb 4688 32bc 123b ccb7 ac88 413b
000001a0: 6ef3 9a3b c99f 94bb e1e9 f23b f4fe 9d3b
000001b0: 8c7d aa3b 6bcd 40bb ee5e 74bc e25f 5f3a
000001c0: 9d96 a2bc 0c63 e6bb 282e 963b 7a41 c2bb
000001d0: fc6e aabb 6e1b eeba 5ae6 693b ceb5 ebbb
000001e0: 974e 0fbc ce83 833b e620 e53a 9481 903b
000001f0: fac4 053b 38a7 0dbc c036 a0bb 6897 5abc
0.032205325 0.0031402751 0.006030292 -0.0012493709 -0.010697852 -0.0028599468 -0.013461753 -0.0043398985
0.0026019255 -0.0034059403 0.0067780144 0.0024902392 0.0074435347 7.674283e-06 -0.014158934 -0.00084536185
-0.020677289 -0.001787651 -0.008452464 -0.008144446 -0.003808071 -0.0043040565 0.010210143 -0.014514834
-0.011690063 0.003535905 -0.0064184032 0.00469062 -0.0019048023 -0.01599549 -0.0015436268 -5.7916972e-05
0.0002958119 0.0037281692 0.005395409 0.0019228031 -0.01016881 -0.0034502328 -0.012120516 0.00037476487
0.004042196 -0.00699716 0.0045030233 0.004421849 0.006866373 0.004617316 -0.017141284 -0.0010464769
-0.0227005 -0.0035884085 0.003214726 -0.0057369764 -0.00017641156 -0.0030129352 0.0033865648 -0.010001916
-0.0064978288 0.003117767 -0.006179698 0.0019278339 -4.385404e-06 -0.00013586294 -0.0024684072 -0.008183839
-0.00023986802 0.0042552394 0.0039680707 0.010738611 -0.0055117765 -0.00593841 -0.0024503302 0.0017881118
0.005175051 -0.008548519 0.004912012 0.006212956 0.004525281 0.0018034502 -0.015144716 0.0014343684
-0.02266057 -0.0059826938 0.0054379706 -0.0042512715 -0.0012566049 -0.002012943 0.0028320078 -0.00411116
-0.0043158806 0.0025413216 -0.0018044778 0.0020428202 0.004503565 -0.0021270998 -0.005208569 -0.010843972
-0.0038810861 0.0041844156 0.004253227 0.013035183 -0.007056001 -0.010896748 -2.4346202e-05 0.0029530926
0.004728726 -0.0045356494 0.0074131344 0.0048216525 0.0052029546 -0.0029419314 -0.014915211 0.00085210626
-0.019847209 -0.0070308503 0.004583139 -0.0059282156 -0.0052012186 -0.0018166134 0.0035690279 -0.0071933037
-0.008746765 0.004013515 0.0017481118 0.004409978 0.0020411597 -0.008645825 -0.004889339 -0.013341762

convs_bc.bias_bc f4 [4, 32, 1]
00000000: 2665 513a afb7 02ba 6c22 6eb9 91b4 d7b9
00000010: 5507 9bba 1f20 9bb9 a4a3 fcba d735 4a39
00000020: 94fd e83a 803b 413a f258 2d3a 00b5 17b9
00000030: 1414 b13a f318 aeba e04b 733a 1617 ab3a
00000040: b303 a4b8 c457 f33a 962c 7837 a60e c43a
00000050: 97e1 b3b9 9015 873a 447d c83a 5983 6c3a
00000060: cec2 903a 53e0 e339 9bc9 3638 a094 cf39
00000070: 8357 44b9 975f 633a ee2e 9639 c7a8 073b
00000080: e254 06ba cca8 893a 5852 a2ba f24e 75b9
00000090: 6949 02ba 5a78 c13a 98d1 923a b8a1 8d3a
000000a0: c65b 823a c82d c0ba b2e1 f0ba 7373 37ba
000000b0: 550b 4f3a db4c 42ba 8682 02b9 c43f 223a
000000c0: 3552 08ba 7d7c 98b9 25db 2e3a 1a90 7c3a
000000d0: 8968 c53a 4196 eeb9 f7f0 9fba 2ffd 8dba
000000e0: 2db8 4f3a e697 9cb9 0517 30ba 5427 86ba
000000f0: aaa9 0b3b e75a 1d3a dbd7 a93a 6ef2 40b9
00000100: 1552 2a3a 24af 9a39 f8e9 67ba 2866 22ba
00000110: 9393 8139 07e7 56ba b8ed 9fba f8da 0bba
00000120: bbc5 923a 96da 9039 5d30 28b8 7f6f dbb9
00000130: 0e91 f93a 92ee 2abb f3aa a1b9 ef09 033a
00000140: b745 6c39 4740 3c3a 7ed2 49b9 419f 3fba
00000150: d24b a73a e4e7 f639 829f 98b9 99d6 4aba
00000160: 3537 ab3a 165e 7aba 0584 3dba 9369 45ba
00000170: ad6a 1838 b209 b23a 210a 81b9 4590 823a
00000180: 7f3b 24ba 63bc 093a cc2c f139 862a 3e3a
00000190: 6ee3 63ba 0b80 493a d8fa 0cba 306f 38ba
000001a0: 723f d23a 3e12 6a3a bc1f 0f3a 20d4 b839
000001b0: 999a f43a 7237 7438 4e88 fe37 ae13 993a
000001c0: 7a96 7cb9 7056 b6ba 363d 7237 75d7 3a3a
000001d0: 2832 683a b469 bc39 1263 8eba 1042 b7b7
000001e0: 43e2 47ba 7c69 163a 0ed7 d639 ecb3 ab37
000001f0: 2998 01bb 45b7 0b3a 955e e0b8 bc9b fbb9
0.00079877896 -0.00049864774 -0.00022710272 -0.00041142528 -0.0011827747 -0.00029587836 -0.0019274843 0.00019284278
0.0017775767 0.0007371232 0.000661268 -0.0001446791 0.0013510012 -0.0013282582 0.00092810206 0.0013053145
-7.8208184e-05 0.0018565585 1.4792333e-05 0.0014957979 -0.00034309618 0.0010306109 0.0015296121 0.0009022258
0.0011044384 0.00043463949 4.357994e-05 0.0003959285 -0.00018724617 0.0008673607 0.00028645195 0.0020699964
-0.0005124343 0.0010502576 -0.001238416 -0.0002339443 -0.00049700454 0.0014760599 0.001120138 0.0010805642
0.0009945564 -0.0014662081 -0.0018377809 -0.0006998099 0.0007898112 -0.0007411965 -0.0001244639 0.00061893114
-0.0005200238 -0.0002908445 0.00066702283 0.000963451 0.0015061061 -0.00045506845 -0.001220255 -0.0010832901
0.00079238677 -0.00029867812 -0.00067172974 -0.0010235109 0.0021310844 0.000600262 0.0012958007 -0.00018400859
0.00064972165 0.0002950366 -0.0008846815 -0.0006195032 0.0002471475 -0.0008197878 -0.0012201583 -0.0005335058
0.0011197844 0.0002762868 -4.0099363e-05 -0.00041854006 0.0019040422 -0.002608214 -0.0003083568 0.00049987336
0.00022532685 0.0007181209 -0.00019247268 -0.00073098025 0.0012763685 0.00047093548 -0.00029110542 -0.0007737666
0.0013062718 -0.0009550763 -0.000722945 -0.00075306854 3.6338974e-05 0.0013583212 -0.00024612344 0.0009961209
-0.0006264969 0.0005254207 0.00046000478 0.0007254261 -0.00086932525 0.00076866214 -0.0005377955 -0.0007035611
0.0016040637 0.000892911 0.0005459746 0.0003525326 0.0018661796 5.822577e-05 3.0342631e-05 0.0011678839
-0.0002408865 -0.0013911258 1.4438576e-05 0.00071274425 0.00088575715 0.0003593691 -0.0010863265 -2.1846063e-05
-0.0007624963 0.00057377643 0.0004097749 2.0468571e-05 -0.0019774532 0.00053297385 -0.000106987696 -0.00047990482

convs_bc.weight.0.tensor f4 [32, 32, 6, 2]
00000000: 6307 fbbc 0d5d 3882 dbbf 313b dbc6 84bb
00000010: 7d52 e63a 19e0 56bb 3fcf 183a 8068 2ebb
00000020: 7916 abb9 5af2 01bb fabb 11bb eac1 c9ba
00000030: 945e 89bb cf48 7a82 acc5 d53d 8c18 6bbd
00000040: d961 c93d 76d7 fdbc 3f56 bc3d 5560 bdbc
00000050: c4e2 ad3d 5099 96bc 21ae 9a3d 7c9c 80bc
00000060: 784e 97bb 7432 1e01 b509 e7bd a112 68bd
00000070: cd45 afbd 42aa 3ebd eb6b 82bd d3ba 19bd
00000080: dd20 57bd fdbf 06bd 7a52 38bd 974d fbbc
00000090: f56c 1c3a 1811 9680 caf5 753c 4940 35bd
000000a0: d46d fd3b 65bf 83bc 62bd 1b3c 0944 64bc
000000b0: 4404 113c 0fad 3fbc 3d86 133c 4b6a 32bc
000000c0: 9091 2f3c eeb9 6f02 20f5 463d bc44 1b3c
000000d0: bba4 d23c d5cd ca3b dac7 913c 4a1a ac3b
000000e0: 00bf 5d3c f1aa 983b 10c9 443c ad5e 873b
000000f0: e583 933b f5f4 2202 f4d6 a5bd 203f 19bd
00000100: c540 73bd 2d6c 03bd d38e 2fbd 223c f9bc
00000110: f74f 00bd 2cb1 e2bc cf39 b7bc af8f d3bc
00000120: 6113 3f3c c4ce 6581 d796 89bc 6999 b9bc
00000130: 312f 27bc 1897 77bc df81 75bc f191 19bc
00000140: 5d26 a1bc ba70 9abb a198 d0bc 3483 54ba
00000150: d144 9a3b 5a9e a282 c2fb 2a3d 0512 2a3c
00000160: abba a13c 33ab 0f3c 7fd3 333c c22d e53b
00000170: 4187 da3b 18e9 ca3b 12be b53b 71c5 c23b
00000180: f0c7 8ebb 1609 6102 db87 79bc 47b7 e5bc
00000190: 4837 d1bb 7f9d b8bc a976 acbb eebb adbc
000001a0: 4b2d e2bb 608a 9ebc 9ce9 dfbb db04 92bc
000001b0: dca1 a73b d8c5 f681 b50a 9fbc ed1f f1bc
000001c0: c45b 35bc 52b4 58bc 9a98 23bc f7bb 2cbc
000001d0: 0c38 4bbc a374 e1bb 6653 7ebc 3c55 7dbb
000001e0: 13b2 ddbb 86f1 0a02 3973 ccbd b6ea 40bd
000001f0: eaa4 91bd 76e9 20bd f038 61bd 4611 08bd
00000200: 9c84 2cbd 20bb f2bc 3147 12bd f907 d8bc
00000210: ab1b 85bb 460c ef81 598a 6d3d 5d96 39bd
00000220: 414c 833d 739a f1bc b3a9 843d f7ea bebc
00000230: 6dcb 833d ddf5 b3bc dc5c 733d b2cf b6bc
00000240: a555 e8bb 4a89 2582 c888 e2bd eec9 62bd
00000250: b597 a5bd 03fb 26bd ed2c 77bd 6308 07bd
00000260: bb69 3dbd 0dc5 d3bc 0175 26bd a9e5 b5bc
00000270: ff99 0fbb ca6e b881 10f9 b63c 74cc 2ebc
00000280: 4782 6a3c a833 01bc 4627 243c 6adc f9bb
00000290: 318d 9a3b 8e3b c8bb 4767 0f3b fd21 9ebb
000002a0: c2f6 893c c066 3a02 e556 aabd b04e 20bc
000002b0: 04ff e7bc c210 e8bc 02c2 25bd 4e76 68bc
000002c0: c980 00bd ec04 60bc 2239 e8bc e795 47bc
000002d0: f513 ccb9 26f1 8882 a047 853c f98d f5bc
000002e0: bae0 833c 4ea2 8cbc 1e5b 8f3c 21c8 58bc
000002f0: 0413 7c3c 8129 2ebc 8a4d 6e3c 0656 18bc
00000300: d750 9c3c f3e4 3502 1175 fabc 568a c6bc
00000310: 70e9 64bc 5171 7abc d68d 20bc d981 81bc
00000320: ddf7 bbbb 214c 76bc 12e3 60bb fb25 5dbc
00000330: 05fe dab9 e652 5e02 559f 8c3b e670 e9bc
00000340: e301 4c3c 6347 91bc 1466 493c 5607 78bc
00000350: 69a6 303c 39b5 54bc 7c4b 2a3c 8772 47bc
00000360: f64e 143c d8ad 8a00 f245 623b 0d7c ff39
00000370: de7b 0f3b 3d6f a13a ecdb 203b d0e9 8f3a
00000380: 1ad9 423b 56ea b13a dc08 693b 12c0 bb3a
00000390: 8c2f f03b 2a93 c281 310a 02bb 0f88 f6bc
000003a0: 5795 6b3c 1179 89bc 4337 973c 0de7 3cbc
000003b0: fa5b 8a3c 2243 edbb 8105 7d3c dd13 b9bb
000003c0: c5e0 c63b 32d2 5682 1270 6cba edbb 2238
000003d0: 3e3f 69ba 1f0d 2138 8a33 6aba 372c 4d38
000003e0: 872b 68ba d347 1238 5692 67ba 8f20 5b38
000003f0: 036a 9b3b 3022 9781 72c2 653c f014 babc
-0.03064317 -1.3544889e-37 0.0027122411 -0.0040520257 0.0017572191 -0.0032787381 0.0005829222 -0.002661258
-0.00032632405 -0.001982829 -0.0022237287 -0.0015392874 -0.004192183 -1.8387994e-37 0.104380935 -0.057396457
0.09833116 -0.030986529 0.09196138 -0.023117224 0.08490518 -0.018383652 0.07552744 -0.015699618
-0.0046175085 2.9056215e-38 -0.11281148 -0.05665839 -0.08558235 -0.04654909 -0.0636824 -0.037531685
-0.052521575 -0.032897938 -0.04500053 -0.030676646 0.00059671636 -1.3781457e-38 0.015012214 -0.04425076
0.00773404 -0.016082475 0.009505602 -0.0139322365 0.008851115 -0.011698975 0.009004173 -0.0108896
0.010715857 1.7612306e-37 0.048573613 0.009476837 0.025713315 0.006189088 0.017795492 0.0052521573
0.0135343075 0.0046590497 0.012010828 0.0041311593 0.004501807 1.197218e-37 -0.0809764 -0.037413716
-0.05938794 -0.032085586 -0.042860817 -0.030424181 -0.03132626 -0.027672373 -0.022366432 -0.02582535
0.011662335 -4.2209004e-38 -0.016795559 -0.02265616 -0.010204122 -0.015111707 -0.014984577 -0.009373174
-0.019671613 -0.004713145 -0.025463404 -0.0008106709 0.0047079106 -2.389465e-37 0.041744 0.010380273
0.01974233 0.008768844 0.010975718 0.00699398 0.0066689556 0.0061923377 0.00554634 0.005943947
-0.0043573305 1.6532997e-37 -0.015230144 -0.028041495 -0.006384764 -0.022536037 -0.005263169 -0.021207776
-0.006902372 -0.019353092 -0.0068332683 -0.01782458 0.0051157307 -9.065002e-38 -0.019414285 -0.029434169
-0.011069242 -0.013226585 -0.0099851135 -0.010542861 -0.012403499 -0.0068803593 -0.015522813 -0.003865554
-0.006765613 1.0207953e-37 -0.099829145 -0.047098838 -0.07111533 -0.039285146 -0.05498594 -0.0332196
-0.042118654 -0.029630244 -0.035712425 -0.02637099 -0.004062136 -8.7812346e-38 0.057993267 -0.045309413
0.06411029 -0.029492592 0.0647768 -0.0233054 0.06435285 -0.021967823 0.05941473 -0.022315834
-0.0070902877 -1.2161686e-37 -0.11061245 -0.055368356 -0.080855764 -0.040766727 -0.06034558 -0.032966983
-0.04624341 -0.025850797 -0.040638927 -0.022204237 -0.0021911857 -6.77499e-38 0.02233556 -0.010668863
0.014313287 -0.007885851 0.010019129 -0.0076251524 0.0047165384 -0.006110615 0.0021881626 -0.004825829
0.016841296 1.369461e-37 -0.08317355 -0.009784386 -0.028319843 -0.028328303 -0.040468223 -0.014188362
-0.03137282 -0.0136730485 -0.028347556 -0.012181736 -0.0003892478 -2.0121816e-37 0.016269505 -0.029974924
0.016098369 -0.017167237 0.017499503 -0.013231308 0.015385393 -0.0106300125 0.014544854 -0.009297853
0.019081516 1.3363485e-37 -0.0305734 -0.024235886 -0.013971671 -0.015285806 -0.009799441 -0.015808986
-0.0057363347 -0.015032799 -0.0034315032 -0.013497825 -0.0004176946 1.6333775e-37 0.004291455 -0.028496217
0.012451622 -0.017734235 0.012292404 -0.015138468 0.010781863 -0.01298266 0.010393973 -0.012173302
0.009052029 1.2735662e-38 0.0034526554 0.00048729815 0.00218939 0.0012316477 0.0024545146 0.0010979716
0.0029731453 0.0013573866 0.003555826 0.0014324209 0.007329887 -7.1475515e-38 -0.00198425 -0.030094175
0.014378867 -0.016781362 0.018458968 -0.011529696 0.016889561 -0.007240669 0.015443207 -0.00564812
0.006069275 -1.578256e-37 -0.00090193853 3.879883e-05 -0.00088976684 3.839761e-05 -0.00089340715 4.8916987e-05
-0.0008856584 3.4876004e-05 -0.00088337564 5.224399e-05 0.004742862 -5.5517696e-38 0.01402341 -0.022715062
