neuraloperator/examples/para/fno_bc_para_202305121952_001002003004_modes36_epochs250.pth (torch, 606613 bytes, 15 tensors)

convs.bias f4 [4, 32, 1]
0	0xbc5daf99	-0.013530635
1	0x3c66deb6	0.014091184
2	0x3cc2aa1f	0.02376276
3	0x3b860833	0.004090333
4	0x3c252c5a	0.010081375
5	0xbbade6b9	-0.0053070453
6	0xbc44f85c	-0.012022104
7	0xbabd6876	-0.0014450687
8	0x3c25515a	0.0100901965
9	0xbb833499	-0.004004073
10	0x3d0ce9f5	0.034402806
11	0x3c0f873f	0.0087602725
12	0x3be6be09	0.007041697
13	0x3bd690d5	0.006548027
14	0x3c7b38b5	0.015333344
15	0x3bd2047e	0.006409227
16	0x3be51745	0.0069912993
17	0xbc32a6d9	-0.010904037
18	0xbc8266ec	-0.015918218
19	0x3be90788	0.0071114935
20	0x3ce92da4	0.028464146
21	0x3c00c47e	0.007859347
22	0x3c641ed6	0.0139233675
23	0x3bd4d161	0.0064946865
24	0xbbafb642	-0.005362303
25	0xbc426673	-0.011865246
26	0x3c004c8d	0.007830751
27	0x3c1fe4ec	0.009759169
28	0xbc4b995b	-0.0124266995
29	0x3b996494	0.0046811793
30	0x3bea96f2	0.0071591074
31	0x3ca1713f	0.01970732
32	0xbc8e6c38	-0.017385587
33	0xbbdc5765	-0.0067242854
34	0xbb499fca	-0.0030765408
35	0xbb303b82	-0.0026890938
36	0x3c236487	0.009972698
37	0xbc3eef55	-0.011653741
38	0xbbf9c13f	-0.0076219137
39	0xbaf62181	-0.0018778295
40	0x3c245903	0.010030988
41	0x3ad29837	0.0016067092
42	0x3c068f7f	0.008212923
43	0x3c0b4626	0.008500611
44	0x3bf970dd	0.0076123313
45	0x3c05cb29	0.008166113
46	0x3bbaae92	0.00569708
47	0xbb4ca820	-0.003122814
48	0x3be89db4	0.007098878
49	0xbc54d8f3	-0.012991178
50	0xbc8572b3	-0.016290044
51	0x3bd6c133	0.006553793
52	0x3bfdc5f1	0.0077445437
53	0x3bdcf12d	0.0067426176
54	0x3b872ab9	0.004124966
55	0x3bf6973c	0.0075253528
56	0xbc14049d	-0.009034303
57	0xbc0535fe	-0.0081305485
58	0x3bdb6a86	0.006696048
59	0x3bee97b7	0.0072812694
60	0xbc37a21d	-0.011208084
61	0x3c1042e4	0.0088050105
62	0x3bea0ced	0.007142654
63	0x3bd33d8b	0.0064465455
64	0xbc6547bd	-0.0139941545
65	0xbb8a7253	-0.0042250543
66	0xbb20d51d	-0.0024541088
67	0xbb41adab	-0.0029552977
68	0x3c109e3e	0.00882679
69	0xbc343b22	-0.0110004265
70	0xbbf45203	-0.0074560656
71	0xbb9de369	-0.004818369
72	0x3c22e58f	0.009942426
73	0x3bbb27bb	0.0057115234
74	0x3c0146ba	0.007890398
75	0x3c2c48af	0.010515376
76	0x3c070467	0.008240796
77	0x3c2febf2	0.010737406
78	0x3bc37471	0.0059648086
79	0xbb9b5830	-0.0047407374
80	0x3c0fd74e	0.00877936
81	0xbc753960	-0.014967293
82	0xbc830fac	-0.015998684
83	0x3bdc6582	0.006725968
84	0x3bb5a966	0.0055438755
85	0x3bee13af	0.00726553
86	0xba19b243	-0.000586305
87	0x3bf31d77	0.007419284
88	0xbc7fa565	-0.015603398
89	0xbbed0e16	-0.007234345
90	0x3c00154c	0.007817578
91	0x3c03551a	0.008015895
92	0xbc4b5197	-0.012409589
93	0x3bedc628	0.007256288
94	0x3c29ee43	0.010371747
95	0x3bc3bdd6	0.005973558
96	0xbc5888c1	-0.013216198
97	0xbc1bc198	-0.009506606
98	0xbb8072c2	-0.00391993
99	0xbbc0b6ea	-0.00588118
100	0x3c285627	0.010274447
101	0xbc0a2cc9	-0.008433529
102	0xbbd21c5a	-0.006412071
103	0xbc12eccd	-0.0089675905
104	0x3c155cd4	0.00911637
105	0x3c1d7d7f	0.00961244
106	0x3c0b6f18	0.0085103735
107	0x3c185874	0.009298433
108	0x3c0a8e30	0.008456752
109	0x3c13910d	0.009006751
110	0x3c0f8c79	0.008761519
111	0xbc0a5cbe	-0.008444963
112	0x3c1581c6	0.009125179
113	0xbc91dcc2	-0.01780546
114	0xbbc6aa0c	-0.0060627516
115	0x3c010631	0.007875011
116	0x3c235bd2	0.009970622
117	0x3bf5853f	0.007492691
118	0xbc05d618	-0.00816872
119	0x3c02474e	0.007951571
120	0xbc2a42dd	-0.010391918
121	0xbc09c0c7	-0.008407778
122	0x3c181707	0.009282834
123	0x3c1c7417	0.009549162
124	0xbc717677	-0.014737717
125	0x3c0a042f	0.008423849
126	0x3c1148a7	0.008867419
127	0x3c0697bf	0.00821489

convs.bias_bc f4 [4, 32, 1]
0	0x385009a9	4.960006e-05
1	0x3a0398f6	0.00050200464
2	0xb9e2c9ee	-0.00043256528
3	0xb8474409	-4.750866e-05
4	0xb926d248	-0.0001590933
5	0x3acc0eae	0.001556834
6	0x3a09c01c	0.0005254762
7	0x398a07ea	0.00026327308
8	0x39230431	0.00015546453
9	0x39e5936d	0.00043788124
10	0x38ebdd1c	0.00011246858
11	0x3a0ef3c6	0.0005453195
12	0x39ffa844	0.00048762758
13	0x37dcc606	2.6318256e-05
14	0xb8f64e06	-0.00011744727
15	0x3a87b6fa	0.0010354214
16	0x3a54e08c	0.00081206183
17	0xb6842801	-3.9385636e-06
18	0x39d71b16	0.00041028176
19	0xb8d91afd	-0.00010352393
20	0xba9b19ac	-0.0011833212
21	0xba5bbed3	-0.0008382622
22	0x38b9540b	8.837142e-05
23	0xb9fddb14	-0.00048419146
24	0x3ab5dab3	0.0013874382
25	0x3b195d22	0.0023401459
26	0x3a8b6400	0.0010634661
27	0xbb1b3901	-0.00236851
28	0x3a64cd3a	0.0008728091
29	0xb9bfc5c6	-0.00036577712
30	0x387d9c84	6.0465667e-05
31	0x3a5231f6	0.0008018309
32	0x3a5e053c	0.0008469408
33	0x3a54a72c	0.0008112069
34	0xb985e636	-0.00025539257
35	0x38b37c40	8.5585285e-05
36	0xba8939ae	-0.001046946
37	0x3a2b4a3c	0.0006534194
38	0xb926a405	-0.00015892096
39	0x3a14c1da	0.0005674638
40	0x3a017a59	0.00049391907
41	0xba17229f	-0.0005765352
42	0x39934264	0.0002808749
43	0xbaab3620	-0.0013062395
44	0xba20fd33	-0.0006141245
45	0xb981a726	-0.00024729333
46	0xba99ca79	-0.0011733315
47	0x3835ceff	4.3346543e-05
48	0xb92ecc6b	-0.00016670085
49	0x3a96c531	0.0011502859
50	0x3a3f8dfa	0.0007307228
51	0xba27f098	-0.00064063957
52	0x3a1a6e11	0.0005891035
53	0x390f9513	0.00013693077
54	0x39e9b8a6	0.00044578797
55	0x39d6e83c	0.0004099029
56	0xba9c3f48	-0.0011920715
57	0x39be7372	0.00036325637
58	0x39e5fcb8	0.00043866574
59	0x3aa783a9	0.0012780327
60	0x3a99259d	0.0011684183
61	0x390d8ca2	0.00013499198
62	0xbaaf3c6d	-0.0013369449
63	0xba62f19c	-0.00086572184
64	0xba1e0d6d	-0.0006029222
65	0xbac09130	-0.0014691707
66	0xb829e4f4	-4.050597e-05
67	0x39fa9f23	0.00047802282
68	0xba4ba020	-0.0007767696
69	0xba73cf33	-0.00093005894
70	0x3a939c85	0.0011261856
71	0x3ab32cfe	0.0013670025
72	0x3a2ff5ac	0.0006712328
73	0xbb3ebb39	-0.0029103293
74	0x39f6f43a	0.0004710274
75	0xba81068e	-0.0009843872
76	0xbae3b330	-0.0017372128
77	0x3a88fb3f	0.0010450854
78	0x3a70d224	0.0009186587
79	0x39e317f6	0.00043314666
80	0x39166ddf	0.00014346045
81	0x3b027cfd	0.0019910925
82	0x3968d351	0.00022203966
83	0xb85f1a52	-5.3191856e-05
84	0xba126e52	-0.0005585897
85	0x39ef4134	0.00045634212
86	0xbb0fa83b	-0.0021920342
87	0x399f4b6f	0.00030383046
88	0x3a95ac15	0.0011419082
89	0x3b139d3d	0.0022524141
90	0x3a4eb9c4	0.00078859576
91	0x3a0408b5	0.0005036698
92	0x3a7acbba	0.0009567101
93	0x396c74cb	0.00022550223
94	0x3b2bfbe0	0.0026242658
95	0x39feb507	0.0004858153
96	0x3a13da15	0.0005640102
97	0x38d4e4e0	0.00010151579
98	0x38d9972f	0.000103755265
99	0x3a9cce47	0.0011963331
100	0x3a85baf2	0.0010202809
101	0xb997b884	-0.0002893844
102	0x38ed5efc	0.00011318733
103	0x3a5cf688	0.000842907
104	0xba96adb4	-0.0011495859
105	0x3a2f76bb	0.00066934124
106	0x39ab44f2	0.0003266703
107	0xba55c2b8	-0.00081543205
108	0xbaa38cb2	-0.0012477844
109	0xb9017394	-0.00012345455
110	0x3a2e27a2	0.0006643479
111	0x3aecf14e	0.0018077285
112	0xb852875c	-5.0193965e-05
113	0x39a8b425	0.00032177675
114	0x38810853	6.15275e-05
115	0xba08dacd	-0.0005220592
116	0xb8955a64	-7.12171e-05
117	0x3ae5ae64	0.0017523286
118	0xba68738f	-0.0008867317
119	0xba897066	-0.0010485768
120	0xb9d836f1	-0.00041239665
121	0x3a921d1f	0.0011147595
122	0xb9e5afe9	-0.00043809347
123	0xb8f33703	-0.0001159739
124	0xb9fc0362	-0.00048067706
125	0x39dc4eb2	0.00042020302
126	0xb8a005bc	-7.630463e-05
127	0x3a43387b	0.0007447076

convs.weight.0.tensor f4 [32, 32, 18, 2]
0	0xbc13e1b3	-0.009025979
1	0x012ec63c	3.210098e-38
2	0x3d546f2b	0.05186383
3	0xbce3b1c4	-0.027794726
4	0x3cb9d738	0.022685632
5	0xbbc8fe41	-0.006133825
6	0x3cebd941	0.028790118
7	0x3a858569	0.0010186854
8	0x3cdb4f9a	0.026771355
9	0xba7475ef	-0.0009325435
10	0x3d208d5a	0.039197303
11	0x3c8ae587	0.01695515
12	0x3d2ac1c8	0.04168871
13	0x3cab5351	0.020913752
14	0x3d16bbfa	0.036800362
15	0x3bb3d611	0.005488165
16	0x3d75a95c	0.059975967
17	0x3cca7c89	0.024717586
18	0x3cfb7a9f	0.030698119
19	0x3c28b4c8	0.010297008
20	0x3ca2b9ea	0.019864041
21	0x3bed69de	0.0072452864
22	0x3ce12f15	0.02748827
23	0x3ca47289	0.020074146
24	0x3cf3ed2a	0.029776175
25	0x3c0fb370	0.008770809
26	0x3d27fc20	0.04101193
27	0x3c9408bb	0.01807057
28	0x3d7e134d	0.062030125
29	0x3c87c0dd	0.016571457
30	0x3dbda653	0.092602395
31	0x3d0f23ed	0.03494637
32	0x3dc38fe1	0.09548927
33	0x3d2f6989	0.042825256
34	0x3de295f7	0.1106376
35	0x3dbecee2	0.093168035
36	0x3c5628ce	0.013071252
37	0x807d2268	-1.149178e-38
38	0xbaad85a7	-0.0013238684
39	0x3a9e1b30	0.0012062546
40	0xbb468573	-0.0030291944
41	0x3a7cc691	0.0009642626
42	0xbb2159c8	-0.0024620164
43	0x39383205	0.00017566241
44	0xba938b18	-0.0011256663
45	0xb9164d25	-0.00014333853
46	0xb91b14bc	-0.00014789676
47	0xb8d7031e	-0.000102525795
48	0xb9307737	-0.00016829079
49	0xb74fb67e	-1.2380651e-05
50	0xb9276336	-0.0001596332
51	0x37c95556	2.4000805e-05
52	0xb90d911d	-0.00013500867
53	0xb7bacb54	-2.226761e-05
54	0xb8fbf913	-0.00012015006
55	0xb814b1ab	-3.5451416e-05
56	0xb87be8a5	-6.005973e-05
57	0xb4c764cc	-3.7139978e-07
58	0xb82053f1	-3.822515e-05
59	0x381d5cfb	3.751831e-05
60	0xb918ca38	-0.00014571182
61	0x382a3e93	4.0589435e-05
62	0xb930dd11	-0.00016867022
63	0x3812808f	3.4928842e-05
64	0xb94f7126	-0.0001978321
65	0x38479d01	4.759152e-05
66	0xb90b3f63	-0.00013279686
67	0x38661466	5.485527e-05
68	0xb9967ed0	-0.00028704712
69	0x38942c75	7.065471e-05
70	0xb97ab9dd	-0.00023911097
71	0xb8cfa20f	-9.900715e-05
72	0x3c9bd355	0.01902167
73	0x020e9bef	1.0477263e-37
74	0xbdd1ffa4	-0.10253838
75	0x3d3f9377	0.046771493
76	0xbd133c29	-0.035946045
77	0x3d5f9f95	0.05459555
78	0xbd047ea8	-0.03234735
79	0x3cd84874	0.026401736
80	0xbcbbd7df	-0.022930084
81	0x3c200fdf	0.009769409
82	0xbcddc0d4	-0.027069487
83	0x3c0b1338	0.008488469
84	0xbcd1e25a	-0.025620628
85	0x3b9a167c	0.0047023874
86	0xbcccd0ba	-0.025001872
87	0x3b6824d6	0.0035422347
88	0xbcc98f22	-0.024604384
89	0x3ad53d78	0.001626893
90	0xbc650a2e	-0.013979478
91	0xbb52166a	-0.0032056817
92	0xbc0493fd	-0.008091924
93	0x39f521b6	0.00046755158
94	0xbb8c7ca5	-0.0042873197
95	0x3ad4e081	0.0016241224
96	0xbc1f09e2	-0.009706946
97	0x3b48594e	0.0030570808
98	0xbc6e8eae	-0.014560385
99	0x3bb5ae30	0.0055444464
100	0xbcf51479	-0.029916989
101	0x3c78f8e4	0.015196059
102	0xbd121242	-0.035661943
103	0x3c95f39b	0.018304637
104	0xbd5a08eb	-0.05323116
105	0xba984b07	-0.001161904
106	0xbdaa8e1a	-0.08327885
107	0xbcf46149	-0.029831545
108	0x3bf9d688	0.007624451
109	0x81bc9022	-6.9267114e-38
110	0xbbd20d99	-0.0064103124
111	0xb9e07ef0	-0.00042819185
112	0xbba4b580	-0.0050265193
113	0xba94cb6c	-0.0011352128
114	0xbb6d7d1f	-0.0036237908
115	0xba1d32d7	-0.00059966504
116	0xbb2e2c8e	-0.002657685
117	0xb9b33fa5	-0.0003418896
118	0xb96d8965	-0.00022653265
119	0xb85638e4	-5.107456e-05
120	0xb8fbd63b	-0.00012008516
121	0xb7d9ad25	-2.5949043e-05
122	0xba1760e9	-0.00057746336
123	0xb7f70e8e	-2.9451472e-05
124	0xb981116d	-0.0002461778
125	0x3632a200	2.6618363e-06
126	0xb92d3033	-0.00016516521
127	0xb822fade	-3.8857448e-05
128	0xb9594b77	-0.00020722846
129	0x380ae009	3.3110413e-05
130	0xb904c087	-0.00012660223
131	0x36f584e6	7.3170404e-06
132	0xb9484a95	-0.0001910127
133	0xb84096ce	-4.5916815e-05
134	0xb98469e8	-0.00025255908
135	0xb79f6033	-1.8999073e-05
136	0xba1876c7	-0.0005816039
137	0x388cb0b9	6.7086374e-05
138	0xb939d78d	-0.00017723274
139	0x38959e73	7.134387e-05
140	0xb9f2ffc3	-0.00046348394
141	0xb8aaf4c0	-8.15182e-05
142	0xba1cdb52	-0.0005983609
143	0x395e4be4	0.00021199841
144	0x3c62758b	0.01382197
145	0x013ad02c	3.431216e-38
146	0x3d2a239a	0.04153786
147	0x3d34faff	0.04418468
148	0x3ca1391d	0.019680554
149	0x3c1f5cce	0.009726716
150	0x3c934caa	0.017980892
151	0x3b8a17e3	0.0042142733
152	0x3c8dff02	0.017333511
153	0xbca10dfe	-0.019659992
154	0x3cbc8c99	0.023016261
155	0x3b999bc7	0.0046877596
156	0x3cbc30b1	0.022972437
157	0x3bce6281	0.0062983637
158	0x3ccc3f49	0.02493252
159	0x3b9e029d	0.004822089
160	0x3cdd693c	0.027027719
161	0x3beb9f9a	0.007190657
162	0x3c9780fa	0.018494118
163	0x3bdcc5bd	0.0067374394
164	0x3c86fbf2	0.016477559
165	0x3b76a001	0.003763199
166	0x3c8ebae7	0.017423106
167	0xbc595dda	-0.013267005
168	0x3c8df4b5	0.0173286
169	0xb9e1cf52	-0.0004306981
170	0x3c85efd1	0.016349705
171	0xbca1bbfd	-0.01974296
172	0x3cc3af44	0.023887284
173	0x3ab3a886	0.001370684
174	0x3d143538	0.036183566
175	0x3b7fef38	0.0039052498
176	0x3d2f609f	0.042816754
177	0xbd12c6a6	-0.035833977
178	0x3d87a82f	0.06623875
179	0xbc4ac796	-0.012376687
180	0xba8e196e	-0.0010841319
181	0x8101af78	-2.381945e-38
182	0x3e1c3ae7	0.15256844
183	0x3c4b4447	0.012406415
184	0x3d471183	0.048600685
185	0xbde4be93	-0.11169162
186	0x3c6f4d9b	0.014605905
187	0xbd7d6a10	-0.061868727
188	0x3db07734	0.08616486
189	0xbc4d3823	-0.012525591
190	0x3cba8095	0.02276639
191	0xbdbb4bcf	-0.09145319
192	0x3d70ea7a	0.058817364
193	0x3abfa571	0.0014621449
194	0x3dbc5e89	0.09197719
195	0x3bfe4521	0.0077597057
196	0x3d12e7f8	0.035865754
197	0xbe116a8e	-0.14200804
198	0x3cfca917	0.030842347
199	0xbd2bdcab	-0.041958492
200	0x3ca966c1	0.02067888
201	0xbcd6c1b6	-0.026215415
202	0x3cc85ff9	0.024459826
203	0xbceeefff	-0.029167173
204	0x3d009163	0.03138865
205	0xbc98fe5c	-0.018675976
206	0x3d0e9853	0.034813236
207	0x3bdcf642	0.0067432234
208	0x3d6f2dbb	0.05839322
209	0xbd53ea6a	-0.051737227
210	0x3dcd4022	0.10021998
211	0xbda94404	-0.08264926
212	0x3e24c712	0.16091564
213	0xbde3bf5c	-0.11120483
214	0x3e0349b7	0.12821089
215	0xbe0a0eef	-0.13482259
216	0xbbb1ac07	-0.0054221186
217	0x020f8cf9	1.0546438e-37
218	0x3d7ca5e6	0.06168165
219	0xbde0aa86	-0.10970025
220	0x3d40065b	0.04688106
221	0x3cf237fb	0.02956771
222	0x3c50cf67	0.012744761
223	0xbd771db3	-0.060331058
224	0x3d1acce9	0.037793074
225	0x3ca273c2	0.019830588
226	0x3c3577d4	0.0110759325
227	0xbd1bcb3f	-0.038035627
228	0x3c243852	0.010023193
229	0xbd2083fb	-0.039188366
230	0x3d363a36	0.044489108
231	0x3ccafd15	0.024778882
232	0x3cb1a950	0.02168718
233	0xbda5a815	-0.080887
234	0x3bc16c87	0.00590283
235	0x3c294c64	0.010333154
236	0x3c14927d	0.009068129
237	0xbbfaf5b0	-0.0076586828
238	0x3bc67c08	0.006057266
239	0x3baa49ff	0.0051968093
240	0x3be31880	0.006930411
241	0x3ba94580	0.0051657557
242	0x3c8136e6	0.015773248
243	0x39fcf274	0.00048245827
244	0x3c8641de	0.01638883
245	0x3cd58b87	0.026067508
246	0x3d3d0f42	0.04615713
247	0xbd2ac049	-0.041687284
248	0x3da4a782	0.08039762
249	0x3d9519cd	0.07280312
250	0x3dcbfd49	0.0996042
251	0xbd973a36	-0.0738415
252	0x3ad4c6e1	0.0016233587
253	0x0113b338	2.712822e-38
254	0xb8b6e349	-8.7207714e-05
255	0x38131053	3.5062734e-05

convs.weight.1.tensor f4 [32, 32, 18, 2]
0	0xbc428812	-0.011873262
1	0x008bbc20	1.283262e-38
2	0x3cf0ffab	0.029418787
3	0xbc67b518	-0.014142297
4	0x3c540163	0.012939784
5	0x3b2948ff	0.0025830863
6	0x3ca946c2	0.020663623
7	0x3bf15e14	0.0073659513
8	0x3c9e6fb8	0.019340381
9	0x3bf18237	0.007370259
10	0x3cebd517	0.028788133
11	0x3c606610	0.013696209
12	0x3cfd4c2a	0.030920107
13	0x3c945b99	0.018110083
14	0x3cd48f42	0.025947217
15	0x3c4267e6	0.011865592
16	0x3d361385	0.04445221
17	0x3cb23a17	0.021756215
18	0x3cbeea64	0.023305126
19	0x3c8c4b55	0.017125765
20	0x3c811169	0.015755372
21	0x3c5eaaee	0.0135905575
22	0x3cd1b369	0.025598245
23	0x3ca0a259	0.019608663
24	0x3cdfa983	0.02730251
25	0x3c77f43d	0.015133915
26	0x3d20804c	0.039184853
27	0x3c808ec1	0.01569307
28	0x3d725603	0.05916406
29	0x3caa3e4f	0.020781664
30	0x3dafd29e	0.08585094
31	0x3cce64b8	0.02519451
32	0x3dac8ee8	0.08425695
33	0x3d03aa2e	0.032144718
34	0x3de43510	0.11142933
35	0x3cfb0069	0.030639844
36	0xbbd0be32	-0.0063703293
37	0x81f976c4	-9.1638574e-38
38	0xbbe3fdbb	-0.0069577373
39	0xbcc5da0e	-0.024151828
40	0xbb8b7d02	-0.0042568455
41	0xbca11482	-0.0196631
42	0x3af451e6	0.001864013
43	0xbbffa04b	-0.007801091
44	0xba188f89	-0.0005819728
45	0xbaec6113	-0.0018034301
46	0x3a674d60	0.00088234805
47	0x38c4676b	9.3652714e-05
48	0x3ab3cab7	0.001371703
49	0xb9c72932	-0.0003798693
50	0xb99d4057	-0.0002999331
51	0x3a02daf2	0.0004991732
52	0xb9f57d53	-0.00046823415
53	0x39dbe929	0.00041944653
54	0xba3217a2	-0.00067936827
55	0x3a2d4366	0.00066094694
56	0xba1b3894	-0.00059212116
57	0x3afe0026	0.0019378706
58	0xba145b56	-0.0005659362
59	0x3b4d5943	0.0031333722
60	0x3a60dc16	0.0008577717
61	0x3b395fe2	0.002828591
62	0x3a061fef	0.0005116453
63	0x3b1e6e41	0.0024174603
64	0x3b01d104	0.001980842
65	0x3b73caf9	0.0037199839
66	0x3a6dd01b	0.00090718427
67	0x3b8e7c33	0.004348302
68	0x3ad9d622	0.0016619603
69	0x3bad2b27	0.005284685
70	0x3bf96bff	0.007611751
71	0x3d18e9ea	0.037332453
72	0xbbbe3ac9	-0.0058053476
73	0x8202cdfb	-9.610005e-38
74	0xbc4a6e00	-0.012355328
75	0xbc9e1540	-0.019297242
76	0xbc17e4d7	-0.009270868
77	0x3b568f8f	0.0032739376
78	0xbc08b253	-0.008343297
79	0xbb69a761	-0.0035652744
80	0xbb78a3b8	-0.003793938
81	0xbb85f769	-0.0040883315
82	0xbafe46c6	-0.0019399754
83	0xba9d9d0e	-0.0012024955
84	0xbb194e09	-0.002339246
85	0xb99cf070	-0.0002993378
86	0xbb2c1887	-0.0026259737
87	0xba0546c2	-0.0005084091
88	0xba217bd1	-0.00061601127
89	0x3984a3b1	0.00025298962
90	0xbaa0da22	-0.001227204
91	0xb9e2588d	-0.00043172055
92	0xbaab057d	-0.00130479
93	0x3a3c7165	0.0007188528
94	0xbafdd5bf	-0.001936607
95	0x399c8c02	0.00029858953
96	0xbaa20f52	-0.0012364185
97	0x3a43a4a2	0.0007463192
98	0xbaac5cd2	-0.0013150221
99	0x3a46c18e	0.00075819425
100	0xba82a476	-0.0009967226
101	0x3b336b9d	0.0027377375
102	0x3b02cb6e	0.001995768
103	0x3af13cda	0.0018404976
104	0xbc2245b9	-0.0099043185
105	0xba0ca698	-0.00053654006
106	0xbd8e50c6	-0.06949
107	0x3cacc8ca	0.021091837
108	0xbbc95988	-0.006144706
109	0x81958bc6	-5.493452e-38
110	0x3c1a300c	0.009410869
111	0x3ce1369e	0.027491864
112	0xbcc4a220	-0.024003088
113	0x3c6831ec	0.014172059
114	0xbc70ba9b	-0.014692928
115	0x3c3d147b	0.011540527
116	0xbbc70833	-0.0060739755
117	0x3b94eec0	0.004545063
118	0x3a6904cb	0.0008888959
119	0x3b42f1c5	0.0029746157
120	0x3b527e57	0.0032118761
121	0x3b27c29b	0.0025598172
122	0xba2e6126	-0.00066520495
123	0x3a8df784	0.0010831212
124	0x3b63aedd	0.0034741678
125	0x39a4d4ba	0.0003143901
126	0x3b87bf53	0.0041426807
127	0x3a837b32	0.0010031222
128	0x399e39e7	0.0003017925
129	0x3b577f0f	0.003288213
130	0xbb084bbb	-0.0020797092
131	0x3acf670b	0.0015823556
132	0x39c53282	0.000376124
133	0x3a4feef2	0.0007932029
134	0x3994ddcc	0.0002839401
135	0x3a1ed1ef	0.0006058504
136	0x3abfc39e	0.0014630442
137	0x3b1b2e93	0.0023678883
138	0xbb68ec9a	-0.0035541416
139	0x395aa62f	0.00020852008
140	0x3c621083	0.013797882
141	0x3c08cafe	0.008349178
142	0xbd7b995a	-0.061425544
143	0x3db0ba84	0.08629325
144	0x3c5e4978	0.013567321
145	0x81776e38	-4.5445813e-38
146	0x3c966faa	0.018363792
147	0x3d341834	0.043968394
148	0x3c29d816	0.01036646
149	0x3c36ffff	0.011169433
150	0x3c131c9f	0.008978992
151	0x3bc7c4ab	0.0060964427
152	0x3c393a6d	0.011305434
153	0xbb14db52	-0.0022713733
154	0x3c5ef649	0.013608524
155	0x3b84f401	0.004057408
156	0x3c6447b1	0.013933108
157	0x3b3c68d4	0.0028749006
158	0x3c652e41	0.013988079
159	0x3b57e1e2	0.0032941033
160	0x3c7b65e8	0.015344121
161	0xbb26a0b1	-0.002542537
162	0x3c2a1fc6	0.010383552
163	0x3b9f9265	0.0048697465
164	0x3c490dd0	0.01227136
165	0x3af2243c	0.0018473933
166	0x3c29af24	0.010356698
167	0xbc70d95b	-0.014700259
168	0x3c42ed10	0.01189734
169	0xbb0b7084	-0.0021276781
170	0x3c0bc448	0.008530684
171	0xbc9ca9d5	-0.019123951
172	0x3c5f471f	0.013627796
173	0xbaf805b0	-0.0018922593
174	0x3c945cf3	0.018110728
175	0xbbbe69a4	-0.005810933
176	0x3cab63c0	0.020921588
177	0xbcf95063	-0.03043384
178	0x3cd8dfb4	0.026473857
179	0xbd13d223	-0.036089074
180	0xbb46cbd3	-0.003033389
181	0x01b10542	6.5027076e-38
182	0x3e2c9f65	0.16857679
183	0x3d53f188	0.051744014
184	0x3d941fd8	0.07232636
185	0xbde1f91f	-0.11033844
186	0x3b5919b8	0.0033126902
187	0xbd54b97f	-0.051934715
188	0x3dc9fdaa	0.09862836
189	0xbcaeed97	-0.021353526
190	0x3b905103	0.0044041886
191	0xbdbf77a4	-0.093489915
192	0x3d237d32	0.039914317
193	0xbbf90ca0	-0.007600382
194	0x3db92ea2	0.09042098
195	0xb9c68e48	-0.0003787151
196	0x3c267ef0	0.0101621
197	0xbe17c498	-0.14821088
198	0x3cac7527	0.021051956
199	0xbd1f639b	-0.03891335
200	0x3ca0fff6	0.019653302
201	0xbcc5a5b6	-0.024126869
202	0x3c83f90f	0.016109971
203	0xbcfb48d5	-0.030674377
204	0x3cd77c0a	0.026304264
205	0xbc8ef752	-0.017451916
206	0x3cee54e9	0.029093223
207	0xbb141f88	-0.0022601802
208	0x3d298923	0.04139055
209	0xbd380462	-0.044926055
210	0x3d7250e3	0.05915917
211	0xbda749ca	-0.08168371
212	0x3e0fdc6d	0.1404893
213	0xbe0f28ef	-0.13980459
214	0x3d2b8cc9	0.04188231
215	0xbe2852c2	-0.1643782
216	0xbbd0f0b9	-0.0063763526
217	0x81a73c28	-6.143243e-38
218	0x3dac9434	0.08426705
219	0xbde4a2f2	-0.11163892
220	0x3c99a579	0.018755661
221	0x3c8c1690	0.017100602
222	0x3c9f93d3	0.019479668
223	0xbd7565ab	-0.05991141
224	0x3caf1e67	0.021376802
225	0x3c78f4c1	0.015195073
226	0x3ce084d0	0.02740708
227	0xbcec8561	-0.028872194
228	0x3cbfa132	0.023392294
229	0xbc4fb02f	-0.012676283
230	0x3cbb28ee	0.022846665
231	0x3ca4ce71	0.02011797
232	0x3b6e533b	0.0036365527
233	0xbcc59520	-0.02411896
234	0x3b900847	0.004395518
235	0x3c4a8eaf	0.01236312
236	0x3be4ac24	0.0069785286
237	0xbbe3120f	-0.006929643
238	0x3bd246e1	0.006417141
239	0x3a8ca16d	0.0010729261
240	0x3b39b478	0.0028336328
241	0x381ef207	3.789554e-05
242	0x3b877b7d	0.004134594
243	0xbb242731	-0.0025047774
244	0xbb406ab8	-0.0029360484
245	0x3c4e9eae	0.012611074
246	0xbc0b0771	-0.008485661
247	0xbc429afa	-0.01187777
248	0x3c52dedf	0.012870519
249	0x3d2c91b0	0.042131126
250	0x3d090ca8	0.033459336
251	0xbd48d62b	-0.04903237
252	0xbb5890bf	-0.003304526
253	0x82021f9b	-9.559962e-38
254	0x3d06108a	0.032730617
255	0xbc96c7a9	-0.018405752

convs.weight.2.tensor f4 [32, 32, 18, 2]
0	0xbc2eb331	-0.01066284
1	0x812e494c	-3.201134e-38
2	0x3b9393e0	0.004503712
3	0xbc3581b2	-0.011078285
4	0xbb132c0f	-0.002245668
5	0x3c7a73a4	0.01528636
6	0x3c21beee	0.009872181
7	0x3cc0a078	0.023514017
8	0x3bcdfb06	0.006286028
9	0x3cc30b78	0.02380918
10	0x3c8c6b7d	0.017141098
11	0x3ca32033	0.019912815
12	0x3c8b9cf2	0.01704261
13	0x3cc7ffd6	0.024413984
14	0x3c783dc6	0.015151447
15	0x3ce364f2	0.027758095
16	0x3ce29797	0.027660174
17	0x3cff67de	0.031177457
18	0x3c4e0918	0.01257541
19	0x3cca7bbc	0.024717204
20	0x3c0482cc	0.008087825
21	0x3cacb63c	0.02108299
22	0x3c8afed1	0.016967209
23	0x3ca5e31b	0.020249894
24	0x3c9808f3	0.018558955
25	0x3cb4d857	0.022075815
26	0x3cdc262a	0.026873667
27	0x3c8a4671	0.016879292
28	0x3d354375	0.044253785
29	0x3ccb470d	0.024814153
30	0x3d81ab90	0.06331551
31	0x3cbb92a4	0.022897072
32	0x3d933e31	0.071895964
33	0x3d100f6d	0.03517096
34	0x3dc44934	0.09584275
35	0x3c758dfa	0.014987463
36	0xbbcf628d	-0.006328887
37	0x00d29828	1.9340038e-38
38	0xbcd72635	-0.026263336
39	0x3cb31edc	0.0218653
40	0xbd416778	-0.047217816
41	0x3d09e39b	0.033664327
42	0xbd6ba9e5	-0.05753507
43	0x3cc15de8	0.023604348
44	0xbd89afb3	-0.06722965
45	0x3bdfbe00	0.0068280697
46	0xbd944d80	-0.072413445
47	0x3cd57f04	0.026061542
48	0xbd9415b6	-0.072307035
49	0x3d019297	0.03163394
50	0xbd87248a	-0.06598766
51	0x3c54fcf5	0.012999763
52	0xbd50169b	-0.05080281
53	0x3d1cfdf7	0.038328137
54	0xbd266952	-0.040627785
55	0xbc166c2a	-0.009181062
56	0xbcd65f46	-0.026168477
57	0xbc9dbd97	-0.019255443
58	0xbcf7bf05	-0.030242452
59	0xbcbad866	-0.022808265
60	0xbc29133e	-0.010319529
61	0xbcd9f471	-0.026605817
62	0xbc602a9a	-0.013682032
63	0xbcc93f39	-0.02456628
64	0xba746875	-0.00093234266
65	0xbcd414d1	-0.025888832
66	0x3c947c72	0.018125746
67	0xbd833550	-0.06406653
68	0x3d3c58b9	0.04598305
69	0xbdbc7f1a	-0.0920393
70	0x3d2562cc	0.040377423
71	0xbe16d8e2	-0.14731172
72	0xbc18f3aa	-0.009335438
73	0x00d57b20	1.960513e-38
74	0x3cafd98f	0.021466045
75	0xbcdb319c	-0.026757054
76	0x3c12b38e	0.008953942
77	0xbba9b667	-0.0051792148
78	0x3bab8cce	0.005235291
79	0xbb7b295a	-0.0038324208
80	0x3a0ea10d	0.00054408686
81	0xbb84258b	-0.004032796
82	0x3b78da34	0.0037971856
83	0xbb451c1b	-0.0030076567
84	0x3b5968bd	0.0033174
85	0xbb273845	-0.0025515717
86	0xb8e01667	-0.00010685325
87	0xbb3af8e8	-0.0028529707
88	0x3c03309b	0.008007194
89	0x38eb346a	0.00011215436
90	0x3b351cf1	0.0027635659
91	0xba67c5f1	-0.0008841446
92	0xba22b40d	-0.0006206639
93	0x3b22508f	0.0024767255
94	0xbb44df8a	-0.0030040466
95	0x3a1dfc02	0.0006026627
96	0x3b86949f	0.0041070725
97	0x3b4e5968	0.0031486396
98	0x3bc31bfb	0.0059542633
99	0x3b2cd097	0.0026369446
100	0x3c3f1a82	0.011664035
101	0x3bcad7a4	0.006190257
102	0x3c382b1f	0.01124075
103	0x3a79f73d	0.00095354376
104	0x3cd85244	0.026406415
105	0x3c102c25	0.008799587
106	0x3d7dbb6b	0.061946314
107	0xbb05e919	-0.0020433126
108	0xbba4ed98	-0.005033206
109	0x8017d690	-2.189187e-39
110	0xbc542bdc	-0.01294991
111	0x3c7593fb	0.014988895
112	0xbc99f52f	-0.01879367
113	0x3cd1ac7d	0.025594944
114	0xbc305123	-0.010761532
115	0x3c9fdef9	0.019515501
116	0x3aacbb91	0.0013178458
117	0x3c2b45f5	0.010453691
118	0x3cc51f17	0.024062676
119	0x3c0df456	0.008664211
120	0x3cf653ec	0.030069314
121	0x3a9c4f8c	0.0011925562
122	0x3c862c22	0.016378466
123	0x3b6b6705	0.0035919559
124	0x3d3f9726	0.046775006
125	0x3b67a393	0.00353453
126	0x3c653547	0.013989753
127	0xbbaafc44	-0.0052180607
128	0xb9c1b2e8	-0.00036945124
129	0x3b63a193	0.0034733757
130	0xbbb0c095	-0.0053940513
131	0x3a5ac737	0.00083457254
132	0x3c308387	0.010773546
133	0xba82bbf1	-0.0009974224
134	0x3c683edc	0.014175143
135	0xb9a16510	-0.0003078361
136	0x3ccf5a55	0.025311628
137	0x3c8cde00	0.017195702
138	0x3cfb02a5	0.03064091
139	0x3cf327a6	0.029681992
140	0x3d46cf74	0.048537686
141	0x3d1071f0	0.03526491
142	0x3d8c7efa	0.06860156
143	0x3d661996	0.056176744
144	0x3c67d18e	0.014149083
145	0x80803bc8	-1.1776389e-38
146	0x3b104dbe	0.0022018994
147	0x3d220080	0.039551258
148	0x3ae232e9	0.0017257604
149	0x3c784ab7	0.015154532
150	0x3a99770d	0.0011708454
151	0x3c415da8	0.011802115
152	0x3b81c24f	0.003959931
153	0x3c36fa5e	0.011168091
154	0x3bdc356d	0.006720236
155	0xba6b3609	-0.00089725904
156	0x3baff575	0.005369837
157	0x392faa0b	0.00016752646
158	0x3ba3e95f	0.0050021852
159	0x3be0b53b	0.006857542
160	0x3b0b18df	0.002122454
161	0xba8af2e7	-0.0010600955
162	0x3b0218c0	0.0019851178
163	0x3baa8501	0.0052038436
164	0x3ba27c40	0.0049586594
165	0x3adfd873	0.0017078057
166	0x3b15a522	0.0022834023
167	0xbc270f81	-0.0101965675
168	0x3b3224b2	0.0027182517
169	0xbb10ed83	-0.0022114224
170	0xb9e583a7	-0.00043776372
171	0xbc4e76d3	-0.012601572
172	0xb92c707d	-0.00016445103
173	0xbb0c1541	-0.0021374973
174	0x3b180a9e	0.0023199688
175	0xbc3c4060	-0.011489958
176	0x3b6e8d9c	0.0036400324
177	0xbc4ef7b3	-0.012632298
178	0xbadcb860	-0.0016839616
179	0xbd0b5d77	-0.034024682
180	0xbbbbea72	-0.005734735
181	0x01564f7c	3.936262e-38
182	0x3e328664	0.17434078
183	0x3d99b7fb	0.075057946
184	0x3ddcd150	0.10782111
185	0xbdcb21d5	-0.09918562
186	0x3b6be043	0.0035991825
187	0xbcf045ee	-0.02933022
188	0x3d9e3d70	0.07726562
189	0xbcddf9f7	-0.027096732
190	0x3c1fb085	0.009746675
191	0xbd8a6734	-0.06757966
192	0x3b015a59	0.001973769
193	0xbc46652a	-0.01210908
194	0x3d423c7e	0.04742097
195	0xbc6dcd34	-0.014514256
196	0xbad7b9d5	-0.001645858
197	0xbda93ead	-0.082639076
198	0x3b763d82	0.0037573283
199	0xbcb2b194	-0.021813191
200	0x3c2e3da4	0.010634813
201	0xbc828fed	-0.01593777
202	0x3bc9dcba	0.006160346
203	0xbc9cfcf7	-0.019163592
204	0x3c8b7dd9	0.017027782
205	0xbc2e8d9b	-0.010653879
206	0x3c813ed1	0.015777024
207	0xbc432221	-0.011909992
208	0x3cd1f1da	0.02562802
209	0xbce380b9	-0.02777134
210	0x3d120835	0.035652358
211	0xbd76bf04	-0.06024076
212	0x3dce7c25	0.100822724
213	0xbe1b4f68	-0.1516701
214	0xbca68f66	-0.02033205
215	0xbe281d61	-0.16417457
216	0xbc0f1c20	-0.008734733
217	0x0118f9ac	2.8097122e-38
218	0x3bc6c25c	0.00606565
219	0x3bd17dda	0.0063931765
220	0xbc93058a	-0.017946977
221	0x3bcd0829	0.0062570763
222	0xbcb3793b	-0.021908393
223	0x3b0a776c	0.002112831
224	0xbc0c8542	-0.008576693
225	0x3ab5b4e4	0.0013863114
226	0xbbb6a804	-0.0055742282
227	0x3b4ed7ed	0.0031561807
228	0xbb2010b9	-0.002442403
229	0xb94acdf4	-0.00019340945
230	0x3a51b22b	0.00079992664
231	0xbace2464	-0.0015727398
232	0xbb2e54a5	-0.0026600745
233	0xbb3ed7e5	-0.0029120382
234	0xba99c2e8	-0.001173106
235	0xbba8550f	-0.005137093
236	0xba47bfa7	-0.0007619806
237	0xbb84d26c	-0.0040534046
238	0xb9b2f2e3	-0.0003413177
239	0xbb9f4ee3	-0.004861699
240	0xbb844f3a	-0.004037765
241	0xbbb68a48	-0.0055706836
242	0xbc03b336	-0.008038333
243	0xbbb06edd	-0.0053843097
244	0xbc62ef25	-0.013850962
245	0xbb9c0c76	-0.0047622276
246	0xbc43e6ff	-0.011956929
247	0x3bc596fa	0.0060299607
248	0xbc73c40e	-0.014878286
249	0xbb89a4b5	-0.004200543
250	0xbd63156f	-0.055440363
251	0xbd1d6030	-0.03842181
252	0xbbc5d515	-0.0060373642
253	0x013ee72c	3.5063346e-38
254	0x3cad9942	0.021191243
255	0x3c064427	0.00819496

convs.weight.3.tensor f4 [32, 32, 18, 2]
0	0xbc48d194	-0.012256999
1	0x01ed1928	8.709615e-38
2	0xbc68be8c	-0.014205586
3	0xbc5e34b2	-0.013562368
4	0x3b89c6f5	0.0042046257
5	0x3cd909ff	0.026494024
6	0x3c9f211e	0.019424971
7	0x3d153d18	0.036435217
8	0x3c723345	0.014782731
9	0x3d2290f3	0.039689016
10	0x3cd57ba5	0.026059935
11	0x3d18c2db	0.037295204
12	0x3cc938f6	0.024563294
13	0x3d141c72	0.03615994
14	0x3c9d47aa	0.019199211
15	0x3d2aeb9f	0.041728612
16	0x3d046d55	0.03233083
17	0x3d27cbbe	0.040965788
18	0x3c84ebe6	0.016225766
19	0x3ced0403	0.028932577
20	0x3c405ab1	0.0117403725
21	0x3ccde928	0.025135592
22	0x3cae5905	0.021282682
23	0x3cb5826b	0.022156915
24	0x3caafcb8	0.020872459
25	0x3ce31127	0.02771814
26	0x3cf052d1	0.029336365
27	0x3c9ac57c	0.018892996
28	0x3d292250	0.04129249
29	0x3cdb329a	0.026757527
30	0x3d7ed9cf	0.062219437
31	0x3cb22d3b	0.021750083
32	0x3d9f6bff	0.077842705
33	0x3d50a01d	0.050933946
34	0x3dd1320b	0.10214623
35	0x3c8a7ab4	0.016904213
36	0xbc441182	-0.011967065
37	0x812ed5a4	-3.2112032e-38
38	0x3c9f0a4c	0.01941409
39	0xbd5627e1	-0.052284125
40	0xbcbfc8dd	-0.023411209
41	0xbd3c8f3a	-0.04603503
42	0xbd08349a	-0.03325329
43	0xbd4b4fee	-0.049636774
44	0xbd128818	-0.03577432
45	0xbd4af786	-0.049552463
46	0xbd345ac5	-0.044031877
47	0xbd07a35b	-0.033114772
48	0xbd33769b	-0.043814283
49	0xbcdea3bb	-0.027177682
50	0xbd1b68e9	-0.037941847
51	0xbd2bc9ea	-0.041940607
52	0xbd365138	-0.04451105
53	0xbccde9d1	-0.025135906
54	0xbd071f7a	-0.032989003
55	0xbcd8c0a4	-0.026459046
56	0xbcb6ddde	-0.022322591
57	0xbcec06b8	-0.028811797
58	0xbcefc37b	-0.029268017
59	0xbca2ae83	-0.019858604
60	0xbcdfce2d	-0.027319992
61	0xbd0056b6	-0.031332694
62	0xbd037264	-0.032091513
63	0xbcb67a20	-0.02227503
64	0xbd2c40ed	-0.042054106
65	0xbd19453d	-0.037419546
66	0xbd63f289	-0.05565122
67	0xbd095d50	-0.033536255
68	0xbd74f96a	-0.059808172
69	0xbd3e8883	-0.046516906
70	0xbd88cf2f	-0.06680142
71	0xbccdfadb	-0.025144031
72	0xb9815a26	-0.00024671963
73	0x81a8a5d4	-6.1951405e-38
74	0xbc9fa07c	-0.019485705
75	0x3cc8cdb5	0.024512151
76	0xbcc4f571	-0.024042817
77	0x3bdfb2f3	0.0068267523
78	0xbcbd868e	-0.02313545
79	0xb8fb7ce5	-0.00011991876
80	0xbc6cf4f8	-0.014462702
81	0xbb7ddbc2	-0.0038735722
82	0xbcbc96f5	-0.0230212
83	0xbb896504	-0.00419295
84	0xbcc07d2b	-0.023497185
85	0xbb9e663e	-0.0048339656
86	0xbc956830	-0.018238157
87	0xbc1010d1	-0.008793072
88	0xbd07bddc	-0.03314005
89	0xbc03bc54	-0.008040506
90	0xbcac4b3b	-0.021031966
91	0xbb49a666	-0.0030769347
92	0xbbc54e76	-0.006021316
93	0xbc1f7b2c	-0.009733956
94	0xbc42be99	-0.011886262
95	0xbc277304	-0.010220293
96	0xbccd4133	-0.025055503
97	0xbc7e94c4	-0.015538398
98	0xbd04d84f	-0.03243285
99	0xbc3fe80f	-0.011713042
100	0xbd534a6f	-0.051584657
101	0xbcb528c3	-0.022114163
102	0xbd5fd218	-0.05464372
103	0xbc300890	-0.010744229
104	0xbd7d2ca7	-0.061810162
105	0xbca71fa2	-0.020400826
106	0xbd9eaffa	-0.077484086
107	0x392c699d	0.00016442542
108	0xbc439da7	-0.011939443
109	0x8133cc5c	-3.3023728e-38
110	0xbca84603	-0.020541197
111	0x3d5839f4	0.052789643
112	0x3cb2d0b9	0.021828042
113	0x3c56320f	0.013073458
114	0x3d1294b7	0.035786357
115	0x3c8f436f	0.01748821
116	0x3d19fcd5	0.037594635
117	0x3c373d8d	0.011184108
118	0x3d2d7cb8	0.04235527
119	0x3b17fdbf	0.0023192016
120	0x3d2fcd44	0.042920366
121	0xbbdb3884	-0.006690087
122	0x3d2ff7f7	0.042961087
123	0xbaf3130f	-0.0018545109
124	0x3d40c2ea	0.047060885
125	0xbbfe5aba	-0.0077622803
126	0x3d19cd44	0.037549272
127	0x3bda6e3b	0.0066659725
128	0x3cd9a9f8	0.026570305
129	0x3c9a24e8	0.018816426
130	0x3d165594	0.036702707
131	0x3c8909f1	0.016728373
132	0x3d020b08	0.0317488
133	0x3cb90185	0.022583732
134	0x3d19a3c6	0.037509702
135	0x3cb6719d	0.022270972
136	0x3d29690c	0.041359946
137	0x3cf6b79f	0.030116854
138	0x3d4058a7	0.046959545
139	0x3d129c36	0.035793506
140	0x3d471f79	0.048614
141	0x3d393d8c	0.04522471
142	0x3d7b0169	0.06128064
143	0x3d620ace	0.055186085
144	0x3c6b00aa	0.01434342
145	0x01ba10a4	6.834949e-38
146	0xbb8af33a	-0.0042404206
147	0x3d17d630	0.0370695
148	0xbb097d36	-0.0020979173
149	0x3cdd96e9	0.027049499
150	0xbbda6dbd	-0.006665914
151	0x3cc5c108	0.024139896
152	0xba932114	-0.0011225068
153	0x3cb9b5d2	0.022669706
154	0x3a77ff5d	0.00094603543
155	0x3c580b37	0.013186268
156	0x361e8cda	2.362582e-06
157	0x3c7d1da2	0.01544896
158	0xbacd6346	-0.0015669845
159	0x3cbc14e3	0.022959178
160	0xbb2e9a6c	-0.0026642336
161	0x3c4de8b6	0.01256769
162	0xbb018944	-0.0019765655
163	0x3c259a79	0.01010763
164	0x3a0cfb2e	0.0005378005
165	0x3b37f1f4	0.00280678
166	0xbb18ea39	-0.0023332967
167	0xbbc22369	-0.0059246314
168	0xbb524c65	-0.0032088992
169	0x3a1e3622	0.0006035288
170	0xbbafeefa	-0.0053690644
171	0xbc09d7eb	-0.008413295
172	0xbc0cc6bb	-0.008592303
173	0xba70506b	-0.00091672566
174	0xbc0c7aa8	-0.008574165
175	0xbb8a690d	-0.004223949
176	0xbc4fabfb	-0.012675281
177	0x3aa390c9	0.0012479062
178	0xbc9e50ba	-0.019325603
179	0xbc466651	-0.012109355
180	0xbb9aba91	-0.0047219475
181	0x80089370	-7.87575e-40
182	0x3b778d62	0.003777348
183	0x3cd58e27	0.02606876
184	0xbb64c46f	-0.0034907123
185	0xbc56f2ff	-0.013119458
186	0xbbee9c5f	-0.0072818245
187	0xbc233895	-0.009962221
188	0x3bc1a60e	0.005909688
189	0xbad2f01a	-0.0016093284
190	0xbb210675	-0.00245705
191	0x3ae05322	0.0017114619
192	0xbb563f4c	-0.0032691536
193	0xbb1560ee	-0.002279337
194	0x3beb49e6	0.0071804402
195	0xbb433156	-0.0029784045
196	0xbcd9cdef	-0.026587455
197	0xbb2cd137	-0.002636982
198	0xba56ee61	-0.00081989734
199	0xbbb2032f	-0.0054325084
200	0x3c441cbf	0.011969744
201	0xbc17b2c8	-0.009258933
202	0x3c262aa8	0.010142006
203	0xbc676ea8	-0.014125504
204	0xbbf30f34	-0.007417584
205	0xbc599590	-0.013280287
206	0xbc6c0bfd	-0.014407155
207	0xbc84e542	-0.0162226
208	0xbd1c9884	-0.038231388
209	0xbd04d3c3	-0.032428514
210	0xbd4b455e	-0.0496267
211	0xbcc30af2	-0.02380893
212	0xbd794ca0	-0.06086409
213	0xbce8c3d1	-0.028413685
214	0xbd775b4f	-0.060389813
215	0xbc99f63d	-0.018794173
216	0xbc45020c	-0.012024414
217	0x81bfdd90	-7.0480246e-38
218	0x3ad5b1e4	0.0016303626
219	0xbd2bdd7d	-0.041959275
220	0x3ce2cef5	0.027686575
221	0x3a4ab655	0.0007732858
222	0x3d4b94c7	0.049702432
223	0x3b8e1ff2	0.0043373043
224	0x3d34f9e7	0.044183638
225	0x3bd5e415	0.0065274336
226	0x3d55bf6d	0.05218451
227	0xbc472010	-0.01215364
228	0x3d6560c4	0.056000486
229	0xbc3f1547	-0.011662788
230	0x3d6637a7	0.056205418
231	0xba98cf9c	-0.0011658552
232	0x3de7162a	0.11283524
233	0xbce04580	-0.02737689
234	0x3d37ba3f	0.044855352
235	0x3b8123a0	0.0039410144
236	0x3c72e574	0.014825214
237	0x3cbc9d56	0.023024242
238	0x3d026f5b	0.031844478
239	0x3cceda51	0.025250586
240	0x3d279394	0.040912226
241	0x3cfc9ef1	0.030837508
242	0x3d4d196f	0.050073083
243	0x3cde2852	0.027118836
244	0x3dafface	0.08592759
245	0x3d0fa2f6	0.03506752
246	0x3e0a08c6	0.1347991
247	0x3ceaf159	0.028679537
248	0x3e1b182c	0.1514594
249	0x3dcb2ec5	0.0992103
250	0x3e2ab96e	0.16672298
251	0x3e0475eb	0.12935607
252	0xbc22af89	-0.009929546
253	0x0165d710	4.2214957e-38
254	0x3ca2531d	0.019815022
255	0xbd013d3c	-0.03155254

fno_skips.0.weight f4 [1, 32, 1]
0	0x3f7dd2d1	0.99149805
1	0x3f78fb72	0.97258675
2	0x3f7a4b73	0.97771376
3	0x3f7b98ec	0.98280215
4	0x3f81cf87	1.0141457
5	0x3f7f6e69	0.9977785
6	0x3f7e0a77	0.9923472
7	0x3f420c3f	0.75799936
8	0x3f7dcb76	0.9913858
9	0x3f74b610	0.95590305
10	0x3f6f9650	0.93588734
11	0x3f81b616	1.0133693
12	0x3f819af0	1.0125408
13	0x3f81c7d8	1.0139112
14	0x3f4298eb	0.76014584
15	0x3e7d80e1	0.24756195
16	0x3f833ed7	1.0253552
17	0x3f7e8b1b	0.9943101
18	0x3f7cd284	0.9875872
19	0x3f81a524	1.0128522
20	0x3f6d4dca	0.9269682
21	0x3f7ecd75	0.9953225
22	0x3f7e9ce6	0.9945816
23	0x3f814c47	1.0101403
24	0x3f7f8997	0.9981932
25	0x3f7dbda5	0.991175
26	0x3f81d54b	1.0143217
27	0x3f815ba9	1.0106097
28	0x3f7e7aed	0.9940632
29	0x3f7f88b5	0.99817973
30	0x3f8175ef	1.0114115
31	0x3f41b120	0.75660896

fno_skips.1.weight f4 [1, 32, 1]
0	0x3f7d7d2d	0.9901913
1	0x3f65677b	0.89611024
2	0x3f457e5c	0.77145934
3	0x3eb4eab1	0.35335305
4	0x3f81c1f2	1.0137312
5	0x3f7ec9f5	0.9952691
6	0x3f7d9e18	0.99069357
7	0x3e57cd8e	0.21074507
8	0x3f7fccbf	0.9992179
9	0x3f6952f8	0.91142225
10	0x3f7c1664	0.98471665
11	0x3f81b377	1.0132893
12	0x3f819b70	1.0125561
13	0x3f81bef0	1.0136395
14	0x3f2d2222	0.6763021
15	0x3e5f856f	0.21828245
16	0x3f818391	1.0118276
17	0x3f7de5fc	0.99179053
18	0x3f7cc619	0.98739773
19	0x3f81a37e	1.0128019
20	0x3f78594b	0.9701125
21	0x3f803b4f	1.00181
22	0x3f835e62	1.0263178
23	0x3f81593f	1.0105361
24	0x3f7e7f8f	0.9941339
25	0x3f7ef91e	0.9959887
26	0x3f81c9f7	1.013976
27	0x3f81769c	1.0114322
28	0x3f7dfdfd	0.9921568
29	0x3f8064d9	1.0030776
30	0x3f818904	1.0119939
31	0x3f35bb02	0.70988476

fno_skips.2.weight f4 [1, 32, 1]
0	0x3f7d5790	0.98961735
1	0x3f7cde96	0.9877714
2	0x3f73c38a	0.95220244
3	0x3f7a4408	0.9776006
4	0x3f81c26b	1.0137457
5	0x3f7f3c94	0.9970181
6	0x3f7d59d2	0.9896518
7	0x3f708638	0.939548
8	0x3f8114b6	1.0084445
9	0x3f7e82fe	0.9941863
10	0x3f810728	1.0080309
11	0x3f81b53d	1.0133435
12	0x3f819e9b	1.0126528
13	0x3f81bfe5	1.0136687
14	0x3f809b48	1.0047388
15	0x3f7fbe4e	0.99899757
16	0x3f8173ac	1.0113425
17	0x3f7d4028	0.9892602
18	0x3f7d2163	0.9887907
19	0x3f81a51c	1.0128512
20	0x3f812834	1.0090394
21	0x3f80b23d	1.0054394
22	0x3f82a286	1.0205848
23	0x3f8158b0	1.010519
24	0x3f7caeff	0.9870452
25	0x3f7ebed4	0.9950993
26	0x3f81c88c	1.0139327
27	0x3f817b4c	1.0115752
28	0x3f7da55b	0.9908044
29	0x3f80ead6	1.0071666
30	0x3f81a065	1.0127074
31	0x3f8116a6	1.0085037

fno_skips.3.weight f4 [1, 32, 1]
0	0x3f7d457a	0.9893414
1	0x3f811c53	1.0086769
2	0x3f7f7d10	0.99800205
3	0x3f80671f	1.003147
4	0x3f81c5cb	1.0138487
5	0x3f7f94c0	0.9983635
6	0x3f7ca793	0.986932
7	0x3f800f47	1.0004662
8	0x3f8168cc	1.0110106
9	0x3f7fa918	0.9986739
10	0x3f8129d2	1.0090888
11	0x3f81b67f	1.0133818
12	0x3f819f16	1.0126674
13	0x3f81c284	1.0137486
14	0x3f80e56e	1.0070016
15	0x3f812aa0	1.0091133
16	0x3f816847	1.0109948
17	0x3f7cb2ca	0.9871031
18	0x3f7c5dda	0.98580706
19	0x3f81a306	1.0127876
20	0x3f81a492	1.0128348
21	0x3f80d974	1.0066361
22	0x3f8095a0	1.0045662
23	0x3f815751	1.0104772
24	0x3f7c23eb	0.98492306
25	0x3f7d3fb7	0.98925346
26	0x3f81c757	1.0138959
27	0x3f817f48	1.0116968
28	0x3f7d8997	0.9903807
29	0x3f8149ed	1.0100685
30	0x3f81cc26	1.0140426
31	0x3f810c08	1.0081797

lifting.fc.weight f4 [32, 1, 1]
0	0x3f4c5ec3	0.79832095
1	0xbe502182	-0.20325282
2	0xbe7083fa	-0.23487845
3	0xbec4126a	-0.382953
4	0x3e8863ab	0.2663854
5	0x3e3e3007	0.18573008
6	0x3e1a65b6	0.15077862
7	0xbef470a4	-0.47742188
8	0xbe8865b4	-0.26640093
9	0xbe86be3c	-0.26317012
10	0xbefe4899	-0.49664763
11	0x3f2781c3	0.65432376
12	0x3f65b016	0.8972181
13	0x3f01af8c	0.5065849
14	0xbf28a6ba	-0.65879405
15	0xbf7d5090	-0.98951054
16	0x3d9a66cf	0.075391404
17	0x3f34d6bd	0.70640165
18	0x3e2ec13e	0.17065904
19	0x3f59eb4a	0.8512465
20	0xbf039365	-0.5139678
21	0xbe3154e1	-0.17317535
22	0xbe2f190c	-0.17099398
23	0x3d88d472	0.06681146
24	0x3f295319	0.6614242
25	0x3e120ca1	0.1426263
26	0x3f3dbe3b	0.74118394
27	0x3d8410cb	0.064485155
28	0x3f1e25fd	0.61776716
29	0xbe2d3460	-0.1691451
30	0x3e9a0da9	0.30088547
31	0xbf59e3f4	-0.85113454

lifting.fc.bias f4 [32]
0	0xbe93461c	-0.28764427
1	0xbf256375	-0.64604884
2	0xbe45e2d2	-0.19324806
3	0xbdf02e68	-0.11727601
4	0x3d9baddd	0.07601521
5	0x3dfc79fc	0.12327954
6	0x3e20db7a	0.15708724
7	0xbf5541c4	-0.83303475
8	0x3c4fdd72	0.012687074
9	0x3f5774ea	0.8416277
10	0x3d6d1cb1	0.05788869
11	0x3f1cc2cb	0.6123473
12	0x3f6d4555	0.9268392
13	0x3d8cb259	0.068699546
14	0xbf308028	-0.6894555
15	0xbdea9e33	-0.11455955
16	0xbf0a01e3	-0.5390913
17	0x3e7f6bf6	0.24943528
18	0x3f1ef444	0.6209147
19	0x3ee8515b	0.4537457
20	0x3f113bd2	0.56731904
21	0xbe940ea9	-0.28917435
22	0x3f604f96	0.8762144
23	0x3efc779d	0.49310008
24	0x3f5b4cea	0.85664237
25	0x3ede6496	0.43436116
26	0xbf601b21	-0.87541395
27	0x3f3ce2be	0.7378348
28	0xbe906193	-0.28199443
29	0x3c8c673f	0.017139075
30	0x3f3fb2e4	0.7488234
31	0x3f3f7406	0.7478641

projection.fc1.weight f4 [64, 32, 1]
0	0xbd5c1d25	-0.053738732
1	0xbd39d1cf	-0.045366105
2	0xbd896db9	-0.06710381
3	0x3e1933c8	0.14961159
4	0xbe0640f4	-0.13110715
5	0xbd1eaf9e	-0.0387417
6	0xbdcb683d	-0.09931991
7	0x3e19f066	0.15033111
8	0xbd4c32ed	-0.049853254
9	0x3e15b5b5	0.14620097
10	0x3e23d055	0.15997441
11	0x3e03014f	0.12793468
12	0x3d791c89	0.06081823
13	0xbde48c21	-0.1115954
14	0x3e2d71ff	0.16938017
15	0x3e08e01b	0.1336674
16	0x3d35e4ef	0.04440778
17	0xbe21e138	-0.1580857
18	0xbdf36276	-0.11884014
19	0xbd8b6e04	-0.06808093
20	0x3dbc0a4b	0.09181651
21	0x3d8542ba	0.06506868
22	0x3d907994	0.07054439
23	0xbe2f9400	-0.17146301
24	0x3e30e7ea	0.17275968
25	0xbb305ace	-0.0026909593
26	0xbe2b348c	-0.16719264
27	0x3d7ea4ba	0.062168814
28	0xbcb19239	-0.02167617
29	0x3cd03f99	0.02542095
30	0x3e2d3fcd	0.1691887
31	0xbceda9d8	-0.029011652
32	0x3d780f87	0.060561683
33	0xbc6ada23	-0.014334234
34	0x3e0f1ede	0.13976619
35	0xbdcfcad0	-0.10146105
36	0x3db23cfa	0.087030366
37	0x3e195777	0.14974771
38	0x3df9f859	0.12205572
39	0x3de30bae	0.11086212
40	0x3e11ffa9	0.14257683
41	0x3e14c214	0.1452716
42	0x3daf657b	0.08564278
43	0xbe169c64	-0.14708096
44	0x3d889a32	0.066700354
45	0x3d6eb5dd	0.058278907
46	0x3de8b0ac	0.113618225
47	0xbe1b74d0	-0.15181279
48	0xbdfce63e	-0.12348603
49	0xbe1e4379	-0.15455426
50	0x3e1bf874	0.15231496
51	0x3dc21ab2	0.09477748
52	0xbe295099	-0.16534652
53	0x3ba40b7d	0.0050062523
54	0x3c136719	0.008996748
55	0xbd1c11c8	-0.038102895
56	0xbd0de5d0	-0.034642994
57	0x38a4f05f	7.864902e-05
58	0x3e06bee7	0.13158761
59	0xbdda57d8	-0.10661286
60	0x3dde6a9c	0.10860178
61	0x3df80b57	0.12111538
62	0xbdc86e9d	-0.09786723
63	0xbd1f4735	-0.038886268
64	0xbe1e9ad9	-0.15488757
65	0xbdef077c	-0.116713494
66	0xbe0ce97e	-0.13760945
67	0x3e0c2171	0.13684632
68	0x3e2a6d84	0.1664334
69	0xbdefe016	-0.11712663
70	0xbe2302df	-0.15919064
71	0xbdb560c7	-0.088563494
72	0xbd36d504	-0.04463674
73	0xbd93fe86	-0.07226281
74	0x3d37c3fa	0.044864632
75	0xbda94a4a	-0.08266123
76	0x3d68db4d	0.056849767
77	0x3d9ef5f4	0.077617556
78	0x3d39809a	0.04528866
79	0x3a552665	0.00081310264
80	0x3d88f084	0.066865
81	0x3d971e0f	0.0737878
82	0xbdcb70c4	-0.09933618
83	0xbcd29792	-0.02570704
84	0x3c9f400d	0.019439721
85	0xbdcba273	-0.09943094
86	0xbc838a86	-0.016057264
87	0xbd2702bf	-0.040774103
88	0x3d9db490	0.07700455
89	0xbc015da4	-0.007895861
90	0x3e247f22	0.16064122
91	0xbdeaba26	-0.11461286
92	0xbd247485	-0.040150184
93	0xbd59cda1	-0.05317462
94	0x3d958a76	0.073018
95	0xbdc4c8be	-0.09608601
96	0xbe154739	-0.1457795
97	0xbd9e8360	-0.077399015
98	0x3c191072	0.0093423
99	0xbdb2dbef	-0.08733355
100	0x3dbe326c	0.09286961
101	0xbe098481	-0.13429452
102	0xbe07162d	-0.13192053
103	0xbdf5aa2d	-0.11995349
104	0x3d722d92	0.05912549
105	0x3db0d0cb	0.08633574
106	0x3e272b18	0.16325033
107	0xbe01b3e2	-0.12666276
108	0xbc653a37	-0.01399093
109	0xbe0e319a	-0.13886109
110	0x3da4aee3	0.080411695
111	0x3d1b143c	0.037861094
112	0xbd095d16	-0.03353604
113	0xbdd03450	-0.10166228
114	0xbdbb945f	-0.09159159
115	0x3cce71c6	0.025200736
116	0xbcff390d	-0.031155134
117	0x3cd8e227	0.026475025
118	0xbe14b0a0	-0.14520502
119	0x3e070911	0.13187052
120	0x3d92c0a3	0.07165649
121	0xbe2b12e8	-0.16706431
122	0xbdb660d8	-0.0890519
123	0x3d161b53	0.036647152
124	0xbdc0e98e	-0.09419547
125	0xbe099b57	-0.13438164
126	0x3e31cb7f	0.17362784
127	0xbdec9239	-0.11551327
128	0x3da7af2b	0.081877075
129	0xbc2ad048	-0.010425635
130	0x3d1c7508	0.038197547
131	0x3b1557d8	0.0022787955
132	0x3d4ec055	0.05047639
133	0xbd25baa8	-0.040461212
134	0x3e26bff3	0.1628416
135	0xbd37ce80	-0.044874668
136	0xbc20ce1a	-0.009814763
137	0x3da02335	0.07819215
138	0x3e1ff4e5	0.15620764
139	0x3dd45625	0.10367993
140	0x3cad5a01	0.021161081
141	0x3dc937a5	0.098250665
142	0xbd054e47	-0.032545354
143	0x3cd499a9	0.025952177
144	0xbded1ec7	-0.11578136
145	0xbdabd0f1	-0.08389462
146	0x3ddb1593	0.10697474
147	0xbd488788	-0.048957378
148	0x3d1ad22f	0.037798103
149	0xbdccd81c	-0.10002157
150	0x3db5bee0	0.08874297
151	0x3ddd6c02	0.108116165
152	0xbdd411f7	-0.10354989
153	0xbe1a2c0a	-0.15055862
154	0xbe31824e	-0.17334864
155	0x3dd9acb3	0.10628643
156	0xbdd1c688	-0.10242945
157	0xbdbeca55	-0.093159355
158	0xbcd0b20c	-0.025475524
159	0xbe36b318	-0.17841756
160	0x3e2ccb27	0.16874371
161	0xbdd3cccd	-0.10341797
162	0x3db86890	0.09004319
163	0x3e12f378	0.14350688
164	0xbdd04a49	-0.10170419
165	0x3d729c80	0.05923128
166	0xbe20508a	-0.15655723
167	0xbd2e3159	-0.04252753
168	0xbdefc92f	-0.117082946
169	0xbd461564	-0.048360243
170	0xbdba1c1b	-0.09087392
171	0xbe11356e	-0.14180538
172	0xbdc19e52	-0.09454025
173	0xbda5ff90	-0.08105385
174	0xbe030b5d	-0.12797303
175	0xbd6364f9	-0.055516217
176	0x3e26f406	0.16304025
177	0x3c9b9f04	0.018996723
178	0x3d4168b2	0.047218986
179	0x3dc595ff	0.0964775
180	0xbe092c92	-0.13395908
181	0x3c30e020	0.010795623
182	0x3b344032	0.0027504084
183	0xbe15a14c	-0.14612311
184	0xbe052754	-0.13003284
185	0x3ddca977	0.1077451
186	0x3d1a66dc	0.03769575
187	0xbe24f9e9	-0.16110958
188	0x3dfba193	0.12286677
189	0xbd0cedb5	-0.034406383
190	0x3c7d4af7	0.015459768
191	0x3db2ea63	0.08736112
192	0xbdfe6416	-0.12421434
193	0xbc0cff9b	-0.008605863
194	0x3c9b12d6	0.01892988
195	0xbd044be2	-0.03229893
196	0x3d9635a7	0.07334452
197	0x3dac09ce	0.084003076
198	0x3b293abc	0.0025822362
199	0xbd261934	-0.04055138
200	0x3c42b83e	0.011884747
201	0x3d3890d5	0.045059998
202	0x3b99562c	0.004679462
203	0xbdb8f8d5	-0.09031836
204	0x3e08eb51	0.13371016
205	0xbddc4f02	-0.10757257
206	0x3d600cc0	0.05469966
207	0x3da3cf36	0.07998507
208	0xbd4eede5	-0.050519843
209	0xbc6e6181	-0.014549614
210	0x3dbac486	0.09119515
211	0xbdf7efe3	-0.12106302
212	0x3c58347f	0.01319611
213	0x3c9d130e	0.019174125
214	0xbd8d01bb	-0.06885096
215	0x3b4b30e1	0.0031004476
216	0xbde53a31	-0.1119274
217	0xbc09db6a	-0.008414129
218	0xbdb3bbfd	-0.0877609
219	0xbda3a8c6	-0.07991175
220	0xbdcb4920	-0.09926057
221	0x3c0c30a1	0.008556516
222	0xbcf0bc93	-0.029386794
223	0x3c539e1f	0.012916117
224	0xbd12a0f6	-0.035798036
225	0xbd4fe51a	-0.050755598
226	0xbc265c18	-0.010153793
227	0x3e04b6ca	0.12960353
228	0x3cec3ecb	0.028838536
229	0x3dd2bfe6	0.10290508
230	0xbd9512a8	-0.07278949
231	0x3d4d552d	0.050130058
232	0xbdfff3b0	-0.124976516
233	0x3d4d542e	0.050129108
234	0x3d8e0b9e	0.069358096
235	0xbdcb12b9	-0.099156804
236	0x3e2921f5	0.1651686
237	0xbdeed836	-0.11662333
238	0xbd48a4d5	-0.04898532
239	0xbd2f0327	-0.042727616
240	0xbd8de784	-0.06928924
241	0x3decb4ed	0.11557946
242	0x3e139a29	0.14414276
243	0xbc8f88d6	-0.017521303
244	0x3e20476a	0.15652242
245	0xbe23f891	-0.1601279
246	0x3d06e6de	0.032935016
247	0x3d8767eb	0.06611618
248	0x3d5aa99f	0.05338442
249	0xbda84f57	-0.08218258
250	0xbe190434	-0.1494301
251	0xbd3367fc	-0.04380034
252	0x3d2b4c10	0.041820586
253	0x3d38d2ab	0.045122784
254	0x3d6a6411	0.057224337
255	0xbca5ecb8	-0.020254478

projection.fc1.bias f4 [64]
0	0xbdb52212	-0.08844389
1	0x3dcfdead	0.10149894
2	0x3dd4d072	0.1039132
3	0x3e20e2ec	0.15711564
4	0xbe3c7f61	-0.18407966
5	0x3e002dd0	0.12517476
6	0x3cfbae1a	0.030722667
7	0x3dc46c07	0.09590917
8	0x3e1663d8	0.14686525
9	0x3c107043	0.008815828
10	0x3c43acea	0.011943081
11	0xbde18263	-0.110111974
12	0x3db39269	0.0876816
13	0xbe1e9036	-0.154847
14	0x3df1f76b	0.11814769
15	0x3d44d7b3	0.04805727
16	0x3d499014	0.04920967
17	0x3df1d6b3	0.11808529
18	0xbcc4e91f	-0.024036942
19	0x3d9429a6	0.07234506
20	0xbc92903a	-0.017891038
21	0xbdc00817	-0.09376543
22	0x3dd3a348	0.10333878
23	0x3aeeff6a	0.0018234078
24	0xbdf94ac9	-0.12172467
25	0x3cb1804d	0.021667624
26	0x3d4e8fc6	0.05043008
27	0xbd8c45c8	-0.06849247
28	0x3e329958	0.17441308
29	0x3df9bdba	0.121943906
30	0x3dce5b65	0.10076026
31	0xbe058405	-0.13038643
32	0xbd264258	-0.040590614
33	0xbe2f4324	-0.17115456
34	0x3dc93c59	0.098259635
35	0x3d614d62	0.05500544
36	0xbd754193	-0.05987699
37	0x3dca07a6	0.0986474
38	0x3d87ad45	0.066248454
39	0x3db122eb	0.08649238
40	0x3de9de7a	0.11419387
41	0xbd3d82fc	-0.046267495
42	0xbe3a2e11	-0.18181635
43	0xbdd25bf2	-0.102714434
44	0xbdca4b49	-0.09877641
45	0xbdc6f8cb	-0.09715422
46	0x3dd3c0bc	0.103394955
47	0xbd2cf063	-0.04222144
48	0x3e2a3e98	0.1662544
49	0x3d1c8f40	0.03822255
50	0x3e11cedc	0.14239067
51	0xbd412ee0	-0.047163844
52	0x3e1d26c5	0.1534682
53	0xbdaac303	-0.08337977
54	0x3d95e3f2	0.07318868
55	0xbd95541a	-0.07291432
56	0x3df1cdc6	0.11806826
57	0xbd97ab50	-0.07405722
58	0x3d08b9c7	0.033380296
59	0xbd3442ae	-0.044008903
60	0xbd56859a	-0.052373506
61	0x3db0dbe3	0.0863569
62	0xbe308778	-0.17239177
63	0xbdc169c1	-0.09443999

projection.fc2.weight f4 [1, 64, 1]
0	0xbc682edf	-0.014171331
1	0x3c3ef7c6	0.0116557535
2	0x3cae2489	0.021257656
3	0xbda8eb3e	-0.08247994
4	0xbdcc6f73	-0.09982195
5	0xbd19ecd4	-0.037579373
6	0x3d21930d	0.03944688
7	0x3d769e86	0.060209773
8	0xbd9fa233	-0.07794609
9	0x3d072a9c	0.03299962
10	0xbdfe1084	-0.12405494
11	0x3e073e1c	0.13207287
12	0x3d64b071	0.05583233
13	0x3db27fab	0.08715757
14	0x3d769753	0.060202908
15	0xbd43ca94	-0.047800615
16	0xbdadfe5c	-0.08495781
17	0xbdd344fc	-0.10315892
18	0xbd392a92	-0.045206614
19	0x3da772f5	0.08176223
20	0x3cf17539	0.029474841
21	0x3d8ade8d	0.067807294
22	0x3ce13be9	0.027494388
23	0xbda56903	-0.0807667
24	0xbe03215c	-0.12805694
25	0xbca9014c	-0.020630501
26	0xbca2f971	-0.019894334
27	0xbd0dcab0	-0.034617126
28	0x3e019df3	0.12657909
29	0xbdbdd1e5	-0.0926855
30	0x3d91d3d3	0.071204804
31	0xbbd04935	-0.006356383
32	0xbd7ad3d0	-0.061237156
33	0xbc5e69b7	-0.013575009
34	0x3db39255	0.08768145
35	0x3d9410a9	0.0722974
36	0xbda51842	-0.080612674
37	0x3dbdd94c	0.09269962
38	0x3deda8de	0.116044745
39	0x3d0da796	0.03458365
40	0xbcfed2f6	-0.031106453
41	0xbdac6224	-0.08417156
42	0xbb959849	-0.004565273
43	0xbdb534fe	-0.08847998
44	0xbde087a4	-0.109633714
45	0x3dc11e91	0.09429658
46	0xbc7b07db	-0.015321697
47	0xbd398809	-0.04529575
48	0x3d77c41e	0.060489766
49	0x3aba7572	0.0014225675
50	0xbc82008e	-0.015869405
51	0x3d412f06	0.047163986
52	0x3dfc92a7	0.12332659
53	0xbdb062d4	-0.086126
54	0x3db5fb8d	0.0888587
55	0x3dedfa9c	0.116200656
56	0x3dd0a73d	0.10188148
57	0xbd98d4a0	-0.0746243
58	0xbd458666	-0.048223875
59	0xbde308ec	-0.11085686
60	0xbd9e0492	-0.077157155
61	0x3dc0ade5	0.09408168
62	0x3df530fb	0.11972233
63	0xbc9e9142	-0.019356374
