neuraloperator/examples/para/fno_para_202305121448_001_modes32_epochs250.pth (torch, 746319 bytes, 31 tensors)

convs.bias f4 [4, 32, 1]
0.01039328 -0.009719057 0.016452387 0.0017406243 0.0046124123 -0.0066391905 0.019034708 0.00352409
0.0033969786 0.004474905 0.003961879 0.01457679 0.014301025 -0.009541149 0.023566717 -0.008638109
1.0482809e-05 0.015709031 0.01697922 0.00040741608 0.0055417065 -0.00484077 -0.007059378 0.0013165815
-0.005071243 0.0015739022 0.010506642 0.004055437 0.0020298115 0.015302102 0.0030387898 -0.008170331
0.0024693634 -0.006208626 0.0013432979 0.0035423206 0.002245057 -0.0050165984 -5.81753e-05 0.0047984733
0.0021334367 0.004764335 0.0043565435 0.0006909042 0.0033386555 -0.011935229 0.005046095 -0.010580984
0.002793468 0.0027166854 0.0026342305 0.002369678 0.0026697922 -0.0013802272 -0.008317442 0.0030736248
-0.003756505 0.0042654886 0.004357782 0.0037066457 0.0031276105 0.0018759455 0.0031033251 -0.006332115
0.0004203391 -0.0063319877 0.0016532212 0.0038660953 0.002784886 -0.012601768 0.0009059108 0.0030563655
0.004260183 0.0037660925 0.003446994 0.0033178334 0.004274573 -0.005675376 0.004081672 -0.010160201
0.0039813383 0.00089369155 0.00022102527 0.0019449282 0.0016255178 -0.001339096 -0.011717451 0.002957064
0.001200799 0.0048291325 0.0030618687 0.0039982493 0.00228926 0.0021011636 0.003342548 -0.0022126278
-0.0040686605 -0.0056764977 0.002332122 0.004730557 0.0030512821 -0.00317147 0.008265005 0.0036429933
0.003336217 0.005343646 0.0031200193 -0.0049073454 0.002857938 -0.0057570185 0.00180633 -0.010685049
0.003528352 -0.004053805 -0.0011828736 0.001951512 -0.0035013163 -0.001372668 -0.0061091157 0.0036416647
-0.0031670025 0.0035480107 0.0029458168 0.004731926 0.0047048973 0.0027823416 0.0043714186 -0.0027388115
00000000: 9348 2a3c ae3c 1fbc 28c7 863c a925 e43a
00000010: b823 973b 918d d9bb adee 9b3c 6bf4 663b
00000020: d89f 5e3b 39a2 923b a6d2 813b 7dd3 6e3c
00000030: d94e 6a3c 7b52 1cbc fd0e c13c db86 0dbc
00000040: 52df 2f37 3ab0 803c 0118 8b3c 769a d539
00000050: 3497 b53b 529f 9ebb 5b52 e7bb 2591 ac3a
00000060: ab2c a6bb 654b ce3a 0d24 2c3c 79e3 843b
00000070: 9606 053b abb5 7a3c 6f26 473b dadc 05bc
00000080: 0bd5 213b bb71 cbbb 9911 b03a 4726 683b
00000090: ce21 133b 4762 a4bb 4101 74b8 833c 9d3b
000000a0: 21d1 0b3b 241e 9c3b 56c1 8e3b cc1d 353a
000000b0: 58cd 5a3b fb8b 43bc b659 a53b dd5b 2dbc
000000c0: 9e12 373b 6b0a 323b 0ea3 2c3b 9a4c 1b3b
000000d0: aef7 2e3b bde8 b4ba e145 08bc de6e 493b
000000e0: b22f 76bb 83c5 8b3b bacb 8e3b 32eb 723b
000000f0: 99f8 4c3b 49e2 f53a 2861 4b3b a17d cfbb
00000100: f660 dc39 907c cfbb e6b0 d83a 515e 7d3b
00000110: a282 363b a577 4ebc a57a 6d3a 4e4d 483b
00000120: 0199 8b3b 8cd0 763b f6e6 613b 0270 593b
00000130: b811 8c3b 81f8 b9bb 8cbf 853b f976 26bc
00000140: e375 823b a046 6a3a 05c3 6739 f6ec fe3a
00000150: 540f d53a 9b84 afba 8dfa 3fbc 4dcb 413b
00000160: 2164 9d3a b33d 9e3b a2a9 483b bf03 833b
00000170: 6907 163b adb3 093b a60e 5b3b bc01 11bb
00000180: 6652 85bb ea01 babb 84d6 183b ca02 9b3b
00000190: 05f8 473b 70d8 4fbb f269 073c 49bf 6e3b
000001a0: 6fa4 5a3b c019 af3b 3d79 4c3b cccd a0bb
000001b0: 3e4c 3b3b 5fa5 bcbb 61c2 ec3a 5810 2fbc
000001c0: ec3b 673b c8d5 84bb a70a 9bba e0c9 ff3a
000001d0: 5776 65bb 18eb b3ba fa2e c8bb ffa8 6e3b
000001e0: 7c8d 4fbb be85 683b 9b0e 413b 460e 9b3b
000001f0: 8a2b 9a3b f257 363b 1e3e 8f3b a27d 33bb

convs.bias_bc f4 [4, 32, 1]
-3.842312e-05 -0.000868726 -0.00049668713 -1.5122138e-05 -0.00068305957 -0.0005643759 0.0010833621 -0.0006778363
0.00056796486 -0.0021215354 0.00039153273 0.00037701038 -0.0015425865 -2.1726366e-05 4.0614814e-05 0.0012461349
0.0011730056 -0.0013069256 -0.0002916788 5.5385444e-05 -0.00069628214 -0.0012961417 -0.00049517583 0.00060895685
-0.00051634124 -0.00085981697 -0.0007119079 0.0004470042 -0.0005901331 -0.00020723401 -0.0005833176 -0.000680933
-0.0012388056 0.00035306197 -0.0010018316 -0.0008449106 0.00062867824 0.0010231514 -0.0008038672 -0.0019445803
-0.0015361405 -0.0011306119 -0.0010390788 0.00083244796 0.0013191449 0.0010718481 -0.0028619892 -0.00038653877
0.0011716541 0.00040931636 -0.0015446643 0.00042956506 -0.00041987112 0.00081839913 -4.7505815e-05 -0.00031670844
0.00080713537 0.0011689239 -0.00017121044 -0.0006518982 -0.0005470667 -0.0008093275 0.00013162044 -0.00014143588
0.0015245328 -0.00086936355 0.0012348836 -0.00068704627 0.0005680144 -8.710607e-05 -9.123427e-05 -0.0016787732
-0.0018153924 -0.00063931267 0.0017250231 0.0010101523 -2.5834064e-05 0.0006537664 -0.00026161366 -0.0002672681
-0.0005495667 0.00073745847 0.00032094054 0.0007015717 0.0011439127 0.00041561283 0.00010592485 -0.0005378693
-0.0003670511 7.235893e-05 -0.00026359473 0.00025259267 -0.001181832 -0.0016448216 -0.00080170325 -0.00059174513
0.00092954945 -0.00041476547 7.820808e-06 0.00030780846 -0.0017757945 0.00042601023 0.00095275784 0.00089624146
0.0007295608 0.00045920938 0.0010995556 0.0020512692 -2.934153e-05 0.0014128415 0.0006197527 -0.0009763714
0.0016306262 0.0013641769 -0.0006400605 0.0021425255 0.0004794929 0.0024619177 -0.0003375105 -0.0005331606
0.00014164609 -0.00095393014 -0.00083832577 0.0008239837 0.00035485803 -0.0008941967 -0.0005119766 -0.0004235305
00000000: 8328 21b8 37bb 63ba 1c34 02ba 17b5 7db7
00000010: 5a0f 33ba a0f2 13ba 9aff 8d3a d3b0 31ba
00000020: 7ae3 143a 7509 0bbb a246 cd39 7aa9 c539
00000030: 9d30 caba 0441 b6b7 d359 2a38 5955 a33a
00000040: 89bf 993a 254d abba 77ec 98b9 ab4d 6838
00000050: b486 36ba 4ce3 a9ba b0ce 01ba 67a2 1f3a
00000060: 135b 07ba 5765 61ba 559f 3aba e35b ea39
00000070: 29b3 1aba f54c 59b9 c8e9 18ba a480 32ba
00000080: 6b5f a2ba 2d1b b939 e44f 83ba fe7c 5dba
00000090: e2cd 243a 441b 863a 9dba 52ba 4ae1 feba
000000a0: 5258 c9ba 0a31 94ba b331 88ba a338 5a3a
000000b0: 28e7 ac3a 417d 8c3a 3690 3bbb 5ba8 cab9
000000c0: 3092 993a 8399 d639 5576 caba 3f37 e139
000000d0: 2622 dcb9 d689 563a fb40 47b8 e30b a6b9
000000e0: f095 533a 9436 993a f486 33b9 26e4 2aba
000000f0: 0669 0fba 0d29 54ba 9803 0a39 684e 14b9
00000100: d5d2 c73a 00e6 63ba d1db a13a e51a 34ba
00000110: cde6 143a b7ac b6b8 0755 bfb8 480a dcba
00000120: 76f2 edba 8c97 27ba 2c1a e23a 1667 843a
00000130: 3bb6 d8b7 8561 2b3a 3129 89b9 1e20 8cb9
00000140: cc10 10ba 0052 413a e943 a839 aee9 373a
00000150: 57ef 953a 9ce6 d939 f923 de38 ccff 0cba
00000160: c470 c0b9 68bf 9738 1633 8ab9 6a6e 8439
00000170: b4e7 9aba 0e97 d7ba 6529 52ba 581f 1bba
00000180: 02ad 733a e174 d9b9 1d36 0337 5a61 a139
00000190: c7c1 e8ba 205a df39 7fc2 793a bff1 6a3a
000001a0: ff3f 3f3a 0ac2 f039 f71e 903a 966e 063b
000001b0: 7522 f6b7 182f b93a e676 223a 2df3 7fba
000001c0: bcba d53a 2ece b23a bcc9 27ba 9d69 0c3b
000001d0: 7364 fb39 2058 213b e4f3 b0b9 cdc3 0bba
000001e0: d586 1439 2b11 7aba 17c3 5bba 9c00 583a
000001f0: 3d0c ba39 8668 6aba 2b36 06ba 4d0d deb9

convs.weight.0.tensor f4 [32, 32, 16, 2]
-0.010807601 5.2535296e-38 3.003136e-05 -5.7562433e-05 6.170906e-05 1.2065392e-05 7.1547e-05 3.4445042e-05
6.851097e-05 3.804744e-05 0.000101021964 4.4396205e-05 0.0007324083 5.5900455e-05 0.00037116927 5.0810054e-06
0.000117091025 -3.3479948e-05 3.5071364e-05 -4.672771e-05 2.5949825e-05 -5.2926614e-05 2.9613271e-05 -4.9091275e-05
2.9363819e-05 -4.7414316e-05 2.016766e-05 -4.9637132e-05 5.424748e-06 -4.9624236e-05 0.00038425063 0.00019552112
0.011566997 -1.5986701e-37 -0.0219389 -0.038516197 -0.0361703 -0.043339275 -0.043464907 -0.04381567
-0.046855185 -0.043200992 -0.046163265 -0.043076906 -0.029373467 -0.034757305 -0.02251179 -0.031815436
-0.015870288 -0.027114043 -0.010827584 -0.023388913 -0.007593827 -0.013551287 -0.0059968787 -0.01012832
-0.0062316554 -0.010113513 -0.010283484 -0.014693573 -0.027492153 -0.036329187 -0.06745442 -0.112398855
-0.018314438 2.1052817e-37 6.7042776e-05 -0.0010816801 0.00059100456 -0.00041090214 0.0008730579 0.00060625514
0.0010452755 0.0020492822 0.0011886809 0.0039102407 0.001018935 0.009668902 -6.5721375e-05 0.0067735207
-0.0005647235 0.0037567778 -0.00062713836 0.00196548 -0.00062701834 0.0011052007 -0.00057537196 0.0007454503
-0.0005569562 0.0006341824 -0.0005949143 0.00072920474 -0.00072382734 0.0014242217 -4.6960045e-05 0.0030675803
-0.0070591317 1.1237549e-37 -0.0030395787 0.0030621085 -0.0036907722 0.012838819 -0.0039842124 0.020059932
-0.0034792488 0.025205549 -0.0021907839 0.0294263 0.00016281795 0.023583947 0.0026314766 0.019432655
0.0038493464 0.014946433 0.0039995173 0.011601883 0.003127109 0.009491825 0.0022513394 0.008362986
0.0022963202 0.008564037 0.0033859492 0.011059487 0.0025362158 0.021575194 -0.013012601 0.05844694
-0.0076128254 3.4557453e-37 0.000833596 -0.01234642 -0.0012597936 -0.015154726 -0.0037363188 -0.013249125
-0.0060051437 -0.010378561 -0.007329058 -0.0074540637 0.00073284557 -0.008436526 0.0031782214 -0.0062261233
0.0049439617 -0.0040048664 0.005480136 -0.0020499262 0.0055647236 -0.00045236322 0.005158837 0.000604997
0.0049578305 0.0014769948 0.004544084 0.0035042516 -0.00065914675 0.011043403 -0.028508171 0.049667094
0.0035294187 -3.4049373e-37 -0.017031064 -0.029054828 -0.03555984 -0.026159182 -0.046398614 -0.029341923
-0.05814882 -0.034034498 -0.06507134 -0.037793033 -0.026430048 -0.011451754 -0.016983362 -0.00860263
-0.008827035 -0.0054689064 -0.0043504075 -0.0029653474 -0.0024537393 -0.00053995405 -0.0019391429 0.00044116573
-0.0023388339 0.00034402194 -0.003903662 -0.0014251161 -0.01782175 -0.017213004 -0.09480919 -0.122861
-0.019088551 -2.5014234e-37 0.0018658275 -0.0032632682 0.0011710455 -0.0024329578 0.00048084898 -0.0020750342
-0.00070119434 -0.0023424905 -0.0025261275 -0.004051866 -0.009597858 -0.010496983 -0.007318614 -0.008151971
-0.004086013 -0.0052090064 -0.0019345056 -0.0029523254 -0.0007706836 -0.0017114561 -0.00033776855 -0.0011846371
-0.0002341704 -0.0011335561 -0.00029828097 -0.001565027 -0.00080830546 -0.0031036325 -0.0015248865 -0.0064934995
-0.0073480457 1.7154828e-37 -0.0062476327 -0.0033943125 -0.009377989 -0.0046130368 -0.011220347 -0.0051864795
-0.01254241 -0.005596284 -0.012418674 -0.0059797913 -0.007634149 -0.0077182627 -0.005356724 -0.0059569157
-0.0029902882 -0.0037483724 -0.0016957981 -0.0012479728 -0.0007048552 0.00058454723 -0.0006303812 0.00080366334
-0.0013053537 2.7746006e-05 -0.0036261627 -0.002059427 -0.011278043 -0.0063188723 -0.033933442 -0.004935994
00000000: 5d12 31bc c203 8f01 dbeb fb37 316f 71b8
00000010: cd69 8138 776c 4a37 810b 9638 1579 1038
00000020: 8cad 8f38 2195 1f38 c1db d338 1036 3a38
00000030: 17ff 3f3a a876 6a38 7f99 c239 817d aa36
00000040: c48e f538 d26c 0cb8 9719 1338 7ffd 43b8
00000050: d3ae d937 85fd 5db8 046a f837 5be7 4db8
00000060: 5252 f637 bcde 46b8 b82d a937 7731 50b8
00000070: 3b06 b636 9e23 50b8 3f75 c939 cd04 4d39
00000080: 8083 3d3c 8699 5982 35b9 b3bc 29c3 1dbd
00000090: 4f27 14bd 8684 31bd 4208 32bd 0f78 33bd
000000a0: 39eb 3fbd 86f3 30bd b115 3dbd 6971 30bd
000000b0: a0a0 f0bc ad5d 0ebd a56a b8bc e750 02bd
000000c0: 6802 82bc 451e debc 2e66 31bc 1b9a bfbc
000000d0: a3d5 f8bb 3806 5ebc 7781 c4bb 41f1 25bc
000000e0: ea32 ccbb 26b3 25bc 0f7c 28bc 50bd 70bc
000000f0: 3937 e1bc eacd 14bd 8b25 8abd 5f31 e6bd
00000100: 2908 96bc 2e47 8f02 5199 8c38 29c7 8dba
00000110: a5ed 1a3a 5a6e d7b9 eddd 643a 18ed 1e3a
00000120: a001 893a 404d 063b 83cd 9b3a 7a21 803b
00000130: c98d 853a 506a 1e3c e5d3 89b8 69f4 dd3b
00000140: f409 14ba 4634 763b 8b66 24ba 48cf 003b
00000150: 7d5e 24ba 62dc 903a 8fd4 16ba 536a 433a
00000160: b300 12ba 433f 263a 06f4 1bba 1a28 3f3a
00000170: 3bbf 3dba f3ac ba3a f7f6 44b8 7509 493b
00000180: 4a50 e7bb 25f5 1802 ab33 47bb a8ad 483b
00000190: e2e0 71bb e959 523c ff8d 82bb ba54 a43c
000001a0: 1c04 64bb de7b ce3c 4193 0fbb 6d0f f13c
000001b0: 1cba 2a39 1f33 c13c da74 2c3b 3b31 9f3c
000001c0: 5145 7c3b e2e1 743c 620e 833b d315 3e3c
000001d0: 2ff0 4c3b 9983 1b3c 358b 133b e804 093c
000001e0: dc7d 163b 2d50 0c3c cde6 5d3b da32 353c
000001f0: a436 263b 76be b03c ce32 55bc 0f66 6f3d
00000200: 0275 f9bb 932f eb02 ae85 5a3a a448 4abc
00000210: a91f a5ba 874b 78bc 07dd 74bb dc12 59bc
00000220: ccc6 c4bb d70a 2abc 9828 f0bb 3841 f4bb
00000230: 6f1c 403a 5b39 0abc b549 503b 8204 ccbb
00000240: f500 a23b 413b 83bb b692 b33b 0e58 06bb
00000250: 4958 b63b 2a2b edb9 760b a93b a998 1e3a
00000260: 4c75 a23b b997 c13a 8ae6 943b 96a7 653b
00000270: 97ca 2cba 64ef 343c f889 e9bc b96f 4b3d
00000280: d24d 673b 60ba e782 bb84 8bbc 6404 eebc
00000290: 32a7 11bd c84b d6bc 790c 3ebd 795e f0bc
000002a0: 752d 6ebd c267 0bbd 1f44 85bd decc 1abd
000002b0: d483 d8bc 23a0 3bbc b120 8bbc 0cf2 0cbc
000002c0: 459f 10bc 8334 b3bb dd8d 8ebb 4656 42bb
000002d0: eace 20bb b48b 0dba d72a feba 434c e739
000002e0: 1f47 19bb d85d b439 95d4 7fbb f6ca baba
000002f0: ebfe 91bc 4902 8dbc 522b c2bd 8c9e fbbd
00000300: 985f 9cbc f13c aa82 c88e f43a 8edc 55bb
00000310: c47d 993a 4272 1fbb 751a fc39 4cfd 07bb
00000320: 5bd0 37ba 7884 19bb 638d 25bb 84c5 84bb
00000330: 5640 1dbc 8afb 2bbc fcd0 efbb d88f 05bc
00000340: f6e3 85bb 50b0 aabb 3d8f fdba cd7b 41bb
00000350: b307 4aba f052 e0ba 8716 b1b9 d345 9bba
00000360: a38b 75b9 d593 94ba 9862 9cb9 9821 cdba
00000370: 76e4 53ba 5066 4bbb b3de c7ba 6cc7 d4bb
00000380: e0c7 f0bb da7f 6902 f1b8 ccbb 1d73 5ebb
00000390: 23a6 19bc f528 97bb 8cd5 37bc 58f3 a9bb
000003a0: ae7e 4dbc 0861 b7bb b277 4bbc 20f2 c3bb
000003b0: e227 fabb 7be9 fcbb 7587 afbb 3b32 c3bb
000003c0: b6f8 43bb 41a7 75bb 8b45 deba 0593 a3ba
000003d0: 08c6 38ba 4d3c 193a 2b40 25ba efac 523a
000003e0: 6718 abba 18c0 e837 eaa4 6dbb 74f7 06bb
000003f0: 8ac7 38bc 8b0e cfbb cbfd 0abd 1ebe a1bb

convs.weight.1.tensor f4 [32, 32, 16, 2]
-0.009724295 3.5603366e-37 -0.00011518397 1.3028797e-05 -0.00011062015 4.8307393e-05 -0.00011803713 6.176747e-05
-0.00012573904 6.303537e-05 -0.0001382661 5.253426e-05 -0.00018187508 -0.00010942919 -0.00010822138 -7.017352e-05
-5.937774e-05 -3.454404e-05 -3.2209115e-05 -1.9165063e-05 -1.4109063e-05 -1.8464478e-05 -5.208081e-06 -1.8146991e-05
-4.657942e-06 -1.9342002e-05 -1.4381526e-05 -2.0590896e-05 -6.472998e-05 -2.2497117e-05 -0.0005015754 -0.00010828467
-0.011434317 3.6388241e-37 -0.0012946456 0.00035134482 -0.00092797395 0.0010949813 -0.00080452394 0.0013760745
-0.00043584526 0.0017348767 0.00055590883 0.002352811 0.004396673 0.0045576966 0.0033948475 0.00344723
0.0022139028 0.0022530602 0.0013189994 0.00135376 0.0007712402 0.00064367783 0.00051237975 0.0003549147
0.00042864145 0.00025150803 0.000490211 0.00031311842 0.0005616146 0.0007514173 -0.001426512 0.0021298989
0.013731504 2.3273839e-37 0.0007591618 -0.0010748339 0.00061266404 -0.0009905847 0.00061559776 -0.00090311974
0.0006053518 -0.0005424169 0.0005900329 0.00035268447 0.0004189898 0.0034734663 0.00014009484 0.0025119972
-4.199508e-06 0.0013753711 -4.2418957e-05 0.00066545897 -7.0818714e-05 0.00036701674 -7.8271674e-05 0.00024310731
-7.2026574e-05 0.00021190997 -4.2123254e-05 0.00024370993 0.00012869199 0.0003645818 0.0016834006 -0.0007195977
0.0154561475 -1.4073666e-38 0.0013781723 -0.00082501577 0.0011862764 -0.0011968586 0.0012357617 -0.0013000915
0.0012670815 -0.0014755902 0.0011180345 -0.0020730642 0.00052212767 -0.004190303 -2.4535882e-05 -0.003171657
-0.00028891917 -0.0020310644 -0.0003655391 -0.0012288144 -0.00041514533 -0.0006691004 -0.00039400868 -0.00040632303
-0.00036398077 -0.00029084086 -0.00031034736 -0.00032610615 9.266547e-05 -0.0007396195 0.002508898 -0.001957878
0.015650807 4.483247e-38 0.0014097919 -0.0021876064 0.00066195434 -0.0023078127 0.0005467996 -0.0021604374
0.0006390515 -0.0018602334 0.0008357519 -0.0015329226 -3.1186783e-06 -0.0012543171 -0.00029712863 -0.00085918384
-0.0004948727 -0.0004885036 -0.00047968028 -0.00022692015 -0.00035154336 5.370434e-05 -0.00022305896 0.000119345736
-0.00013738767 8.618191e-05 -7.624334e-05 -9.7579585e-05 0.00013545703 -0.0009607447 0.0014404096 -0.0037525378
0.012572368 -1.917361e-37 -0.00012413373 -0.0006171681 -3.220654e-05 -0.00020999057 0.00010182682 -0.00011002431
0.00026676376 3.6119756e-05 0.00077330193 0.00044321924 0.0029083234 0.0013817236 0.001798246 0.0009540436
0.0008408962 0.00052765856 0.00032936386 0.00024873528 8.4735155e-05 9.2698116e-05 1.1174218e-05 2.6160717e-05
1.5849218e-05 1.0190933e-05 7.874428e-05 3.2942564e-05 0.00040142244 0.00016316686 0.0011502916 0.0007167622
0.010208516 4.008651e-37 0.0007814611 -0.00093986717 0.00048616182 -0.0007756209 0.00037746519 -0.0006667839
0.00016201762 -0.0006718747 -0.00063147524 -0.0010018036 -0.004627889 -0.0024842785 -0.0034384436 -0.0019002815
-0.0019349012 -0.0011856558 -0.0009882952 -0.00067067205 -0.00051359774 -0.0003733909 -0.00031762774 -0.0002557343
-0.0002781631 -0.00024029973 -0.00034813196 -0.00031920985 -0.00062940345 -0.0004589073 -0.00015134214 9.2251874e-05
0.017124444 3.675335e-37 0.00277973 -0.0023953794 0.0022858663 -0.0029358235 0.0024766042 -0.0028680398
0.0028824264 -0.0025085146 0.0033282454 -0.0019967426 0.0027782896 -0.0015770706 0.0018239991 -0.0009088176
0.0009523357 -0.0004114679 0.00043317067 -0.00011255521 0.00015055867 0.00013931825 6.634721e-05 0.00022075174
0.0001381815 0.00024747412 0.00042615627 0.00015850112 0.0014552908 -0.00075932406 0.0050673294 -0.004511876
00000000: a652 1fbc d04d f202 ec8e f1b8 4296 5a37
00000010: befc e7b8 ab9d 4a38 b48a f7b8 2889 8138
00000020: d1d8 03b9 db31 8438 86fb 10b9 3b58 5c38
00000030: b8b5 3eb9 597d e5b8 e9f4 e2b8 1f2a 93b8
00000040: 5d0c 79b8 61e3 10b8 4618 07b8 a9c4 a0b7
00000050: f7b5 6cb7 2ae4 9ab7 13c1 aeb6 5e3a 98b7
00000060: 6b4b 9cb6 a240 a2b7 2f48 71b7 9dba acb7
00000070: a5bf 87b8 31b8 bcb7 287c 03ba e416 e3b8
00000080: 0057 3bbc 42a5 f702 19b1 a9ba b434 b839
00000090: 4743 73ba 7a85 8f3a b0e6 52ba 665d b43a
000000a0: 2982 e4b9 cd64 e33a 69ba 113a 9e31 1a3b
000000b0: f711 903b bb58 953b 177c 5e3b ecea 613b
000000c0: 2017 113b 14a8 133b 47e2 ac3a a670 b13a
000000d0: 0e2d 4a3a 7dbc 283a 3951 063a d813 ba39
000000e0: 48bb e039 d6dc 8339 8181 003a 0b2a a439
000000f0: 5139 133a c3fa 443a cdf9 baba c695 0b3b
00000100: 1afa 603c bf64 9e02 7c02 473a 71e1 8cba
00000110: 309b 203a 82d6 81ba 1160 213a 57bf 6cba
00000120: 79b0 1e3a fb30 0eba 70ac 1a3a 82e8 b839
00000130: dcab db39 18a3 633b 6ce6 1239 52a0 243b
00000140: 80e9 8cb6 cc45 b43a 02eb 31b8 3272 2e3a
00000150: 8284 94b8 276c c039 c925 a4b8 9fea 7e39
00000160: f90c 97b8 2634 5e39 80ad 30b8 638c 7f39
00000170: 7ef1 0639 5725 bf39 8da5 dc3a 62a3 3cba
00000180: c83b 7d3c a83f 9980 caa3 b43a df45 58ba
00000190: d57c 9b3a e9df 9cba 48f9 a13a d567 aaba
000001a0: 3314 a63a 9768 c1ba 038b 923a 3fdc 07bb
000001b0: 65df 083a cf4e 89bb 68d2 cdb7 93db 4fbb
000001c0: 137a 97b9 9b1b 05bb d4a5 bfb9 2b10 a1ba
000001d0: dda7 d9b9 9166 2fba f392 ceb9 c107 d5b9
000001e0: acd4 beb9 007c 98b9 1eb6 a2b9 3af9 aab9
000001f0: 6555 c238 06e3 41ba 536c 243b be4f 00bb
00000200: 1f36 803c 5817 7401 c4c8 b83a f25d 0fbb
00000210: 0187 2d3a ac3e 17bb 1a57 0f3a 2096 0dbb
00000220: 0586 273a 13d3 f3ba 5c16 5b3a 59ec c8ba
00000230: 7c4a 51b6 e667 a4ba eec7 9bb9 da3a 61ba
00000240: 58ba 01ba ec0e 00ba 997d fbb9 6af1 6db9
00000250: 5a4f b8b9 9940 6138 efe4 69b9 4149 fa38
00000260: b90f 10b9 90bc b438 d5e4 9fb8 a4a3 ccb8
00000270: 7809 0e39 7cda 7bba 20cc bc3a 23ed 75bb
00000280: 55fc 4d3c 247d 8282 e529 02b9 73c9 21ba
00000290: 8215 07b8 ea30 5cb9 dc8b d538 dabc e6b8
000002a0: 6ddc 8b39 4b7f 1738 6ab7 4a3a e15f e839
000002b0: 9299 3e3b f31a b53a 20b3 eb3a c818 7a3a
000002c0: 976f 5c3a 9152 0a3a 78ae ac39 af68 8239
000002d0: d7b3 b138 ec66 c238 e778 3b37 b673 db37
000002e0: f0f3 8437 b9f9 2a37 8323 a538 cf2b 0a38
000002f0: 0276 d239 c517 2b39 62c5 963a 19e5 3b3a
00000300: 9f41 273c 4668 0803 f7da 4c3a 6b61 76ba
00000310: 89e3 fe39 0a53 4bba 85e6 c539 1ccb 2eba
00000320: 46e3 2939 bf20 30ba 9689 25ba f34e 83ba
00000330: 8ca5 97bb 47cf 22bb 8357 61bb de12 f9ba
00000340: 839c fdba 0268 9bba af89 81ba 0ad0 2fba
00000350: f6a2 06ba aec3 c3b9 4687 a6b9 1414 86b9
00000360: 6bd6 91b9 f8f8 7bb9 7b85 b6b9 9f5b a7b9
00000370: 8dfe 24ba 7f99 f0b9 99b1 1eb9 5977 c138
00000380: 9048 8c3c 5e21 fa02 212c 363b ccfb 1cbb
00000390: 79ce 153b f266 40bb 864e 223b b9f5 3bbb
000003a0: 17e7 3c3b e465 24bb b11e 5a3b c8db 02bb
000003b0: f713 363b b5b5 ceba 4113 ef3a b73d 6eba
000003c0: 2ba6 793a 49ba d7b9 2f1b e339 9e0b ecb8
000003d0: 49df 1d39 f515 1239 e323 8b38 9879 6739
000003e0: d0e4 1039 6abf 8139 ba6d df39 5233 2639
000003f0: 75bf be3a 600d 47ba d70b a63b 5cd8 93bb

convs.weight.2.tensor f4 [32, 32, 16, 2]
-0.0032136973 -2.69251e-37 -7.713219e-05 -9.427387e-05 -3.0949748e-05 -8.160337e-05 -1.1446371e-05 -8.911531e-05
9.421715e-06 -0.00012325832 6.2861945e-05 -0.0002059016 0.00016738045 -0.0006022995 0.00010645806 -0.00047783728
7.828661e-05 -0.0003731159 7.234776e-05 -0.00029952 9.839936e-05 -0.00025136204 0.000107625034 -0.00020824013
0.00010774565 -0.00019144564 9.626411e-05 -0.00021065725 6.528374e-05 -0.00035898792 0.0019111863 -0.0021911873
0.0047615343 -5.5907347e-38 -0.00030022117 -0.00038473826 -0.0003492699 -0.00035157046 -0.0005126189 -0.000386907
-0.0010556969 -0.00025474877 -0.0026999458 0.00032433277 -0.0054210084 0.002275355 -0.0034050124 0.0019145769
-0.001942674 0.001136478 -0.001190991 0.0005208714 -0.00065831805 0.00011293769 -0.00042260808 1.2633939e-05
-0.00033194295 6.49683e-05 -0.00040063137 0.00029399426 -0.0012320967 0.00049975596 -0.009627399 0.0011485937
-0.0014757984 -2.7510188e-37 0.0005186174 0.00053189415 0.00027749714 0.00037270974 0.00015456595 0.00028496992
-0.00011448156 8.637908e-05 -0.0011474472 -0.00026633334 -0.00410284 0.00053555355 -0.0028819873 0.0010201138
-0.001711941 0.0010751021 -0.0010228456 0.00092607626 -0.0007240505 0.0007726589 -0.0005829011 0.0006136699
-0.0005330325 0.0005204342 -0.0005807111 0.00051401666 -0.0008188955 0.00061018835 -0.004273227 -0.0028964567
-0.0013972787 -3.7779258e-37 0.00069870154 0.00067916175 0.00047314138 0.0005760587 0.0005737587 0.0006771842
0.0009476925 0.0008064966 0.0020010215 0.0007276886 0.0036347734 0.00065267715 0.0024626963 0.00016823768
0.0013351314 0.00014271752 0.00068026927 0.00023268552 0.00019083472 0.00030039196 3.9622253e-05 0.0002419885
3.094294e-05 0.00013351788 0.00019404618 -4.2446252e-05 0.0011280931 9.927683e-05 0.007598814 0.0010575262
-0.0034185667 2.9220746e-37 0.0011899186 0.0007075006 0.0007875146 0.0004193214 0.00066902384 0.00018811638
0.0006013125 -9.589831e-06 0.00043196545 -0.00026803315 0.0005647244 6.1226536e-05 0.00053248624 0.00022707475
0.00047167635 0.00037119834 0.00037837704 0.00046152086 0.00018044555 0.00061603694 0.000104204315 0.00060629484
9.524145e-05 0.0005076036 0.00019658836 0.0003248811 0.0009726341 0.00019819527 0.007012347 -0.00044878913
0.013548752 3.4157908e-37 3.4115496e-05 0.00029014167 -3.8736154e-05 0.00021591994 -9.033629e-05 0.00027049344
-0.00014683866 0.00035970387 -0.00030630565 0.00043973292 -0.0010927328 0.00045786359 -0.0007287113 0.00032315997
-0.0004666962 0.0002138463 -0.0003138701 0.00012489592 -0.00020985649 5.5100176e-05 -0.00013458327 1.8067147e-05
-8.487991e-05 2.796083e-05 -5.7432026e-05 8.3411695e-05 -2.37155e-05 0.0003181274 -0.005782104 0.0036481486
-0.0019404378 -3.2653534e-37 7.267313e-05 0.00043821006 7.6088334e-05 0.00038090796 0.00018500233 0.00046958958
0.0005876012 0.0005444989 0.0020462733 -3.133756e-05 0.004617351 -0.006410573 0.0023693955 -0.0048105884
0.0010428033 -0.002894226 0.00056431076 -0.0017222016 0.00034826927 -0.0010509158 0.0002851362 -0.0007651031
0.0002948607 -0.0007489192 0.0004086444 -0.0009961152 0.00091382384 -0.0015816923 0.009702779 -0.0021030116
-0.002990829 -3.9925365e-37 0.0017144947 0.0013038381 0.001149481 0.0009978099 0.0009307664 0.0010489211
0.0003522776 0.0013096316 -0.00057575124 0.0016819541 -0.0006385422 0.004609324 -0.00041924234 0.0041645775
-0.00028536434 0.003591966 -0.00023884045 0.003046575 -0.00040990705 0.0026723975 -0.00046953824 0.002332691
-0.00046421817 0.0021418096 -0.00037175172 0.0021652454 0.00037290627 0.0029457412 -0.0027013405 0.0062092016
00000000: e59c 52bb 243e b782 07c2 a1b8 e6b4 c5b8
00000010: 0ad0 01b8 7a22 abb8 ca09 40b7 6be3 bab8
00000020: f511 1e37 e73e 01b9 c0d4 8338 4ae7 57b9
00000030: d982 2f39 a3e3 1dba 3c42 df38 3c86 fab9
00000040: ce2d a438 c59e c3b9 68b9 9738 e508 9db9
00000050: c15b ce38 3ec9 83b9 c0b4 e138 095b 5ab9
00000060: 81f5 e138 ccbe 48b9 67e1 c938 e0e3 5cb9
00000070: f1e8 8838 8b36 bcb9 c580 fa3a 069a 0fbb
00000080: a506 9c3b bc31 9881 0167 9db9 b2b6 c9b9
00000090: 361e b7b9 fd52 b8b9 4661 06ba c7d9 cab9
000000a0: 4f5f 8aba cd8f 85b9 93f1 30bb 350b aa39
000000b0: b7a2 b1bb 1f1e 153b a126 5fbb 8af2 fa3a
000000c0: 53a1 feba e0f5 943a 071b 9cba 178b 083a
000000d0: fa92 2cba f6d8 ec38 7f91 ddb9 5bf6 5337
000000e0: a108 aeb9 973f 8838 d50b d2b9 3e23 9a39
000000f0: 4e7e a1ba 0e02 033a 3dbc 1dbc 698c 963a
00000100: 946f c1ba 8239 bb82 d3f3 073a d06e 0b3a
00000110: 097d 9139 4168 c339 fb12 2239 0468 9539
00000120: d215 f0b8 6a26 b538 f065 96ba a8a2 8bb9
00000130: 1e71 86bb 6464 0c3a b9df 3cbb 57b5 853a
00000140: 3563 e0ba 71ea 8c3a 0111 86ba edc3 723a
00000150: 35ce 3dba 438c 4a3a d5cd 18ba b1de 203a
00000160: 35bb 0bba bf6d 083a dd3a 18ba 13bf 063a
00000170: 26ab 56ba 0cf5 1f3a 6d06 8cbb 7bd2 3dbb
00000180: e524 b7ba 608e 0083 1129 373a c609 323a
00000190: f60f f839 a502 173a 4b68 163a 1085 313a
000001a0: 916e 783a 126b 533a 9223 033b 5bc2 3e3a
000001b0: 6135 6e3b 6c18 2b3a 3065 213b f568 3039
000001c0: 93ff ae3a 71a6 1539 1954 323a 0bfd 7339
000001d0: ce1a 4839 ed7d 9d39 1230 2638 4bbe 7d39
000001e0: bbc8 0138 ef00 0c39 e078 4b39 5108 32b8
000001f0: 86dc 933a d832 d038 79ff f83b b19c 8a3a
00000200: 080a 60bb b8dd c602 0bf7 9b3a 9077 393a
00000210: 3671 4e3a 5ed8 db39 6e61 2f3a 1b41 4539
00000220: 66a1 1d3a 03e4 20b7 6c79 e239 cd86 8cb9
00000230: 030a 143a bf66 8038 8c96 0b3a ea1a 6e39
00000240: 544b f739 669d c239 e860 c639 48f8 f139
00000250: fc35 3d39 8a7d 213a 4488 da38 c2ef 1e3a
00000260: 5dbc c738 b310 053a 4923 4e39 ce54 aa39
00000270: 5ff8 7e3a a3d2 4f39 d5c7 e53b 754b ebb9
00000280: 96fb 5d3c 7877 e802 3c17 0f38 281e 9839
00000290: a178 22b8 9168 6239 ed72 bdb8 04d1 8d39
000002a0: b4f8 19b9 a396 bc39 a697 a0b9 f48b e639
000002b0: 073a 8fba 690d f039 fd06 3fba cc6d a939
000002c0: e7ae f4b9 ee3b 6039 ef8e a4b9 7ef6 0239
000002d0: ec0c 5cb9 5d1b 6738 ec1e 0db9 e78e 9737
000002e0: 8e01 b2b8 6d8d ea37 2be3 70b8 50ed ae38
000002f0: a6f0 c6b7 56ca a639 ce77 bdbb c715 6f3b
00000300: 4a56 feba 7b3a de82 1768 9838 8fbf e539
00000310: 9d91 9f38 9ab4 c739 2ffd 4139 3f33 f639
00000320: 4009 1a3a b4bc 0e3a c51a 063b 7370 03b8
00000330: 264d 973b c90f d2bb dc47 1b3b 24a2 9dbb
00000340: acae 883a 0ead 3dbb 41ee 133a 7fbb e1ba
00000350: e997 b639 e2be 89ba 557e 9539 3391 48ba
00000360: 8997 9a39 1e53 44ba 533f d639 1490 82ba
00000370: ae8d 6f3a c950 cfba 68f8 1e3c aed2 09bb
00000380: c901 44bb e6db 0783 e5b8 e03a 8ce5 aa3a
00000390: 2faa 963a f2c8 823a adfe 733a f47b 893a
000003a0: e6b1 b839 f2a7 ab3a 03ee 16ba 0475 dc3a
000003b0: d763 27ba d009 973b c1cd dbb9 0277 883b
000003c0: f49c 95b9 3067 6b3b 3f71 7ab9 0ca9 473b
000003d0: cbe8 d6b9 6423 2f3b 5b2c f6b9 10e0 183b
000003e0: 4f62 f3b9 9a5d 0c3b ace7 c2b9 cae6 0d3b
000003f0: a282 c339 560d 413b f908 31bb 8f76 cb3b

convs.weight.3.tensor f4 [32, 32, 16, 2]
0.002897606 -2.8191275e-37 0.00034488487 0.00012908813 0.00042938738 -0.000118226635 0.00053764536 -0.00039546232
0.0006741243 -0.00076389196 0.0008423232 -0.0011881281 0.00071773387 -0.0021833575 0.00036913838 -0.0016607161
0.00019935683 -0.0012053344 0.00014636075 -0.00089863234 0.0001903269 -0.00068670075 0.00022736259 -0.00053539925
0.0002520671 -0.00046925741 0.00027935597 -0.0005111638 0.00070064317 -0.0008857529 0.006860162 -0.004293612
0.0056505194 -3.721006e-37 0.0004720275 -0.00029610787 0.00022927324 -0.000899865 -0.0001721196 -0.0015411543
-0.00083308126 -0.002034123 -0.0019504408 -0.002149349 -0.0033485421 -0.0015402477 -0.0024876585 -0.0006952253
-0.0015056394 -0.00028672218 -0.0008630913 -0.00015204417 -0.00040736163 -5.626512e-05 -0.00022776086 -8.933799e-06
-0.00019113782 4.264942e-05 -0.00035128745 8.6640735e-05 -0.0010845193 -0.0006776186 -0.0028632542 -0.008533821
-0.00016035317 2.5796232e-37 -0.0007834963 0.00055587164 -0.0008587272 0.0005292532 -0.0010180288 0.0006040824
-0.0011422905 0.0004897127 -0.0013493815 0.00017032787 -0.0017975104 -0.000392661 -0.0014212978 -2.6814056e-05
-0.0010082868 0.00024196759 -0.00072196306 0.00034739374 -0.0006061715 0.00036418866 -0.000518696 0.0003069007
-0.00049151835 0.0002534366 -0.00054727576 0.0002205486 -0.0010471687 0.00016687806 -0.006143075 -0.00028660137
-0.004267077 -3.4526129e-37 -0.0008304819 0.0008131447 -0.00046346622 0.0013440244 9.717902e-07 0.0019032429
0.00063392636 0.0020935454 0.0015745239 0.0018994809 0.0024623112 0.0011611384 0.0017864042 0.00055181386
0.0010197648 0.00031758894 0.000525988 0.00025407565 0.00014043145 0.00017606745 2.1176254e-05 9.818015e-05
1.7939854e-05 1.7956374e-05 0.00018247943 -4.9270453e-05 0.000836732 0.00068937184 0.0017307991 0.0061800885
-0.0047409786 -5.9901653e-38 -0.000804069 0.0010571905 -0.00034721676 0.0010858132 2.5322948e-05 0.00095502223
0.0004384087 0.00047462023 0.000998473 -0.00030505128 0.0010058667 -0.0017312075 0.000254866 -0.0012462225
-0.00023020338 -0.00057435996 -0.00040298363 -0.00011657232 -0.00053671264 0.000111903144 -0.0004890919 0.00016469462
-0.000432296 0.00011972605 -0.00035213327 -8.66679e-06 -2.3717703e-06 4.6817633e-05 0.0024138375 0.00056884333
0.004377962 -2.6941745e-37 0.00061588857 -0.0005467318 0.0004515623 -0.0008035223 0.0002854185 -0.0011101561
5.463985e-05 -0.0013257045 -0.00029461866 -0.0013977357 -0.00074036827 -0.0014641138 -0.0005832532 -0.0010065588
-0.00033396413 -0.0007200783 -0.00015917324 -0.0005590468 1.2088614e-05 -0.00042579157 6.8119734e-05 -0.00031986285
7.267058e-05 -0.0002624919 1.3851041e-05 -0.00027487887 -3.3671276e-05 -0.00082626997 0.0021782056 -0.004692744
-0.007680917 -2.617865e-37 -0.00030040691 0.00023319553 -0.00011943705 0.00048299308 0.00011341285 0.0006743367
0.0007470815 0.00080461055 0.0023013966 0.00053436024 0.0044816537 -0.0018266119 0.0028036756 -0.0018317979
0.0014589746 -0.0014114005 0.0007580482 -0.001004211 0.00040427374 -0.00073771446 0.00029605688 -0.0005583072
0.00029615412 -0.0005346561 0.00046853992 -0.00067603023 0.0017965389 -0.00069627847 0.014949499 0.004357567
-0.0029527561 -2.2216432e-37 -0.0011859132 0.00046600617 -0.000992268 0.0006475941 -0.001074589 0.0004685202
-0.0012894074 0.00042759502 -0.0016007982 0.0004043992 -0.0023650492 0.0014970535 -0.0020891551 0.0016494547
-0.0017086101 0.001774508 -0.0013723616 0.0017418861 -0.0012831471 0.001590006 -0.0011687108 0.0013517726
-0.0011219855 0.0012009301 -0.0011957216 0.0011890236 -0.0019469181 0.001518538 -0.0063469857 0.0014288076
00000000: c3e5 3d3b 21dc bf82 aad1 b439 d55b 0739
00000010: 661f e139 71f0 f7b8 c5f0 0c3a 0e56 cfb9
00000020: b7b7 303a ec3f 48ba 5acf 5c3a f7ba 9bba
00000030: 4e26 3c3a a916 0fbb ea88 c139 63ac d9ba
00000040: 710a 5139 50fc 9dba 6a78 1939 3292 6bba
00000050: 7d92 4739 b503 34ba 2e68 6e39 095a 0cba
00000060: e027 8439 aa06 f6b9 8676 9239 9fff 05ba
00000070: 5eab 373a df31 68ba 36cb e03b 6eb1 8cbb
00000080: fe27 b93b 113d fd82 757a f739 ed3e 9bb9
00000090: 1169 7039 ebe4 6bba 017b 34b9 8f00 caba
000000a0: 2363 5aba ec4e 05bb efa5 ffba 18dc 0cbb
000000b0: 3773 5bbb 23e2 c9ba fc07 23bb c83f 36ba
000000c0: e058 c5ba 3353 96b9 1441 62ba 0c6e 1fb9
000000d0: 2793 d5b9 36fe 6bb8 17d3 6eb9 60e2 15b7
000000e0: 2b6c 48b9 77e2 3238 012d b8b9 e4b2 b538
000000f0: 6e26 8eba 37a2 31ba 6fa5 3bbb 71d1 0bbc
00000100: 7a24 28b9 608f af02 8c63 4dba eab7 113a
00000110: 351c 61ba 95bd 0a3a 616f 85ba 495b 1e3a
00000120: e9b8 95ba 1060 003a bbdd b0ba 0a9a 3239
00000130: 719a ebba 11de cdb9 d74a baba bfee e0b7
00000140: 7e28 84ba aeb8 7d39 1f42 3dba 6622 b639
00000150: 7be7 1eba 93f0 be39 19f9 07ba 84e7 a039
00000160: 3dd9 00ba afdf 8439 0e77 0fba 1043 6739
00000170: 2741 89ba fdfb 2e39 d94b c9bb fc42 96b9
00000180: d6d2 8bbb 00f9 ea82 b2b4 59ba 3829 553a
00000190: 62fd f2b9 fa29 b03a 756e 8235 3c76 f93a
000001a0: 142e 263a dd33 093b 4160 ce3a 01f8 f83a
000001b0: ba5e 213b 5731 983a c725 ea3a 9aa7 103a
000001c0: a1a9 853a 1182 a639 75e2 093a 7535 8539
000001d0: c840 1339 bf9e 3839 a9a3 b137 11e6 cd38
000001e0: 8b7d 9637 05a1 9637 f357 3f39 bfa7 4eb8
000001f0: 2258 5b3a f6b6 343a fbdb e23a 5782 ca3b
00000200: 365a 9bbb 5c11 a381 28c8 52ba 6d91 8a3a
00000210: a50a b6b9 d851 8e3a 9e6c d437 755a 7a3a
00000220: 38da e539 73d6 f839 32df 823a 4aef 9fb9
00000230: 49d7 833a afe9 e2ba 899f 8539 4a58 a3ba
00000240: c062 71b9 a590 16ba 8c47 d3b9 4a78 f4b8
00000250: 2db2 0cba 8bad ea38 6736 00ba e0b1 2c39
00000260: c9a5 e2b9 6f15 fb38 879e b8b9 9467 11b7
00000270: b42a 1fb6 0d5e 4438 7931 1e3b 6e1e 153a
00000280: 0275 8f3b 245b b782 9573 213a 8d52 0fba
00000290: aabf ec39 78a3 52ba 39a4 9539 a882 91ba
000002a0: 182d 6538 43c3 adba 0c77 9ab9 3a34 b7ba
000002b0: 4615 42ba 82e7 bfba 76e5 18ba 82ee 83ba
000002c0: e817 afb9 a3c3 3cba bee7 26b9 ff8c 12ba
000002d0: 34d0 4a37 c73c dfb9 81db 8e38 44b3 a7b9
000002e0: b866 9838 119f 89b9 c561 6837 9e1d 90b9
000002f0: 423a 0db8 0a9a 58ba 3ac0 0e3b 97c5 99bb
00000300: 34b0 fbbb a429 b282 ef7f 9db9 f385 7439
00000310: 477a fab8 3c3a fd39 0fd8 ed38 f8c5 303a
00000320: cad7 433a 80ec 523a 07d3 163b 4f14 0c3a
00000330: d6da 923b ed6a efba dfbd 373b f018 f0ba
00000340: 103b bf3a befe b8ba c1b7 463a bb9f 83ba
00000350: b4f4 d339 2e63 41ba 1538 9b39 5d5b 12ba
00000360: 2245 9b39 2a28 0cba 5da6 f539 9f37 31ba
00000370: d879 eb3a 7586 36ba beee 743c ecc9 8e3b
00000380: 0783 41bb 7c32 9782 a570 9bba 4a52 f439
00000390: fd0e 82ba 4ec3 293a 39d9 8cba b7a3 f539
000003a0: 5501 a9ba d52e e039 e0d1 d1ba 8b05 d439
000003b0: f1fe 1abb c838 c43a 35ea 08bb 8432 d83a
000003c0: 71f3 dfba 9c96 e83a d0e0 b3ba 0050 e43a
000003d0: 462f a8ba c067 d03a 6d2f 99ba f62d b13a
000003e0: 960f 93ba 8768 9d3a c2b9 9cba 03d9 9b3a
000003f0: bb2f ffba ae09 c73a 60fa cfbb d446 bb3a

convs_bc.bias f4 [4, 32, 1]
-0.000508054 -0.01255548 0.009481412 0.0017871298 0.003725543 -0.008498487 0.007455081 0.003439459
0.004431646 0.0029138874 0.002631415 -0.0031966143 -0.0030224125 -0.009291822 0.0022124853 -0.010983705
-0.0040874546 -0.00082972826 -0.0030233047 0.0029815948 0.0006454543 -0.006792668 -0.006406171 0.0034293383
0.00027299917 0.0033094047 0.0031519765 0.0033258167 0.0033410164 0.0037144637 0.0045879176 -0.005244567
-0.0032164652 -0.0045284503 0.0027760097 0.0036271443 0.0044493056 -0.0056137363 0.0064194323 0.0033466993
0.0031229975 0.00471859 0.00089785544 -0.00031596405 0.003957883 -0.010930593 0.005094319 -0.010392403
0.0024536701 -0.0017832796 -0.00094626227 0.0031416395 -0.0022835736 -0.0057508117 -0.012332952 0.0036132878
-0.0016415947 0.0017019018 0.0038819925 0.0042142053 0.0026051898 0.003516027 0.0038545576 -0.0023756602
-0.0018282089 -0.0050706216 0.0015807553 0.0012317605 0.0023094495 -0.005836019 0.0077556646 0.0023595304
0.004802003 0.0029705013 0.004962202 -0.0015048154 0.003998351 -0.0072784745 0.0027003074 -0.011835958
0.0025949115 -0.0040493235 -0.00011021267 0.0021621562 -0.0030607302 -0.004189404 -0.009410531 0.0033600319
0.00073055417 0.0020936497 0.0024844606 0.0017263524 0.0036340645 0.0035899903 0.003840472 -0.0014537771
-0.0029157125 -0.0037958003 0.0010132397 0.0039986293 0.004617496 -0.0023493909 0.0071138917 0.0035327899
0.0042213225 0.0047788695 0.003108454 -0.003174066 0.0050512725 -0.004824757 0.004542895 -0.008601042
0.0028752456 -0.00406397 -0.001981901 0.0017038957 -0.0038361119 -0.0014636327 -0.0076800385 0.0026461112
-0.0041447007 0.0039358595 0.0051410943 0.0031709583 0.0022721752 0.0029108918 0.0034844957 -0.0032102084
00000000: ed2e 05ba 80b5 4dbc ed57 1b3c 203e ea3a
00000010: 3d28 743b 3d3d 0bbc c149 f43b 8c68 613b
00000020: 5737 913b ebf6 3e3b d173 2c3b 4a7e 51bb
00000030: ab13 46bb ba3c 18bc 58ff 103b fff4 33bc
00000040: 0ef0 85bb 1f82 59ba a322 46bb dc66 433b
00000050: b433 293a 0795 debb dbea d1bb c0be 603b
00000060: 5421 8f39 99e2 583b 6491 4e3b f2f5 593b
00000070: f4f4 5a3b 5c6e 733b 3e56 963b 9eda abbb
00000080: 55cb 52bb 6563 94bb b7ed 353b 62b5 6d3b
00000090: 7bcb 913b 6ff3 b7bb 1a5a d23b 4c54 5b3b
000000a0: 34ab 4c3b 679e 9a3b 0f5e 6b3a faa7 a5b9
000000b0: 21b1 813b 3b16 33bc 3fee a63b e644 2abc
000000c0: c1cd 203b efbc e9ba 960e 78ba f7e3 4d3b
000000d0: 02a8 15bb 4e71 bcbb 2610 4abc e9cc 6c3b
000000e0: c72a d7ba 5912 df3a 0769 7e3b 5117 8a3b
000000f0: d5bb 2a3b 256d 663b bf9c 7c3b f7b0 1bbb
00000100: 83a0 efba 7527 a6bb 5931 cf3a 0673 a13a
00000110: 225a 173b 133c bfbb 3b23 fe3b 5aa2 1a3b
00000120: 1f5a 9d3b beac 423b f899 a23b 3a3d c5ba
00000130: 9904 833b 4580 eebb a4f7 303b 9beb 41bc
00000140: 640f 2a3b 30b0 84bb fa21 e7b8 f6b2 0d3b
00000150: 8896 48bb 4547 89bb a12e 1abc fb33 5c3b
00000160: a982 3f3a 9d35 093b 55d2 223b c646 e23a
00000170: 7c29 6e3b 0b46 6b3b 6eb0 7b3b aa8c beba
00000180: 8a15 3fbb f6c2 78bb afce 843a ef06 833b
00000190: 5d4e 973b 3df8 19bb a61b e93b 6186 673b
000001a0: 0553 8a3b 1098 9c3b 34b7 4b3b fe03 50bb
000001b0: 2585 a53b ff18 9ebb 91dc 943b 63eb 0cbc
000001c0: 9e6e 3c3b 0d2b 85bb c8e2 01bb 4155 df3a
000001d0: 4767 7bbb 5dd7 bfba d5a8 fbbb 616a 2d3b
000001e0: 45d0 87bb 62f8 803b a076 a83b dacf 4f3b
000001f0: c6e8 143b a9c4 3e3b 235c 643b 5c62 52bb

convs_bc.bias_bc f4 [4, 32, 1]
0.0019158107 -0.0012217503 -0.0007177679 0.00044998463 -3.9087838e-05 -0.00024430625 0.0008597503 0.00011597671
0.0009423541 0.0019893502 0.0015291887 0.0010215647 0.0006155669 -0.00016957575 0.00057605776 -0.0006176981
0.00021651392 0.0017471818 -0.00040998124 0.00021695992 -0.000285533 -0.0016994153 0.00096249237 -0.00067694247
-0.0015313862 0.0012904893 -0.0014566527 -8.061115e-05 0.0014003036 -0.0005350834 -0.0010193052 -0.001888018
0.00018630533 2.2404112e-05 -0.00069157075 0.0021509712 -0.002080115 0.00071384304 0.0005835821 -0.00013913994
0.0006198699 0.0010464323 0.000734666 -0.0012309058 0.00018325415 -0.0012033735 0.0022043332 -0.0008868985
0.00012629387 -0.00094642845 0.0006828852 0.0010269274 -0.00064608146 0.001846632 0.0004682959 0.0006807739
-0.0003351744 6.0819468e-05 0.00028140796 0.0012281352 -0.0011531939 0.00054093293 -0.0005636826 0.0014608304
0.00010402636 0.00027467016 0.0001050348 5.7460247e-06 -0.00014769995 -0.0013997165 -0.0004009835 -0.00040428867
-0.00052231434 0.0011457595 9.1799506e-05 0.0012525992 0.002293827 0.0005353738 0.00088045007 -0.0002355861
0.0010377046 0.00053442223 -0.00014957097 0.0006263092 -0.0010624499 -2.7095093e-05 0.0007277172 -0.0011211549
0.00075330585 0.0007439323 -0.0015649856 2.0557638e-05 -0.00079588674 0.0016416298 0.0011572842 -5.501609e-05
0.0004938663 -0.00026989589 -2.305193e-05 -0.00065479724 0.0011459478 0.00014957167 0.0010111261 0.00058633543
-0.0007771013 0.0008784383 -0.0018535643 0.00032927506 -0.00011425556 0.0025170627 -0.00021095076 -0.0012291335
-2.7292434e-05 0.0012502212 -0.00086502853 -0.00018428908 -0.00057675905 -0.00039425195 -0.0014022139 -1.6847474e-05
-0.00047529416 0.0014193625 -0.00026714074 -0.00057086453 -0.0011735073 5.5281715e-05 0.0006321414 -0.00091097754
00000000: f11b fb3a 2323 a0ba 9728 3cba eaeb eb39
00000010: 3ff2 23b8 3b16 80b9 de60 613a 8638 f338
00000020: 5008 773a c25f 023b 0f6f c83a 06e6 853a
00000030: ff5d 213a 25d0 31b9 9502 173a 05ed 21ba
00000040: 0308 6339 b101 e53a c0f2 d6b9 bc7f 6339
00000050: 97b3 95b9 eabe deba c54f 7c3a d774 31ba
00000060: cbb8 c8ba a325 a93a 27ed beba c80d a9b8
00000070: 648a b73a d744 0cba 359a 85ba 5f77 f7ba
00000080: f55a 4339 77f0 bb37 874a 35ba 4ff7 0c3b
00000090: 8a52 08bb 3221 3b3a 88fb 183a 18e6 11b9
000000a0: c47e 223a 7128 893a 9a96 403a 5856 a1ba
000000b0: e927 4039 84ba 9dba 9376 103b c07e 68ba
000000c0: c16d 0439 bd19 78ba a603 333a f799 863a
000000d0: cb5d 29ba b00a f23a 9d85 f539 f775 323a
000000e0: 59ba afb9 6818 7f38 f089 9339 61f9 a03a
000000f0: c426 97ba 65cd 0d3a 19c4 13ba 5679 bf3a
00000100: ba28 da38 9b01 9039 2146 dc38 facd c036
00000110: e7df 1ab9 b176 b7ba 183b d2b9 b5f6 d3b9
00000120: eceb 08ba 4f2d 963a 7c84 c038 412e a43a
00000130: 0854 163b 5458 0c3a 01ce 663a aa07 77b9
00000140: 9703 883a 7818 0c3a 27d6 1cb9 e62e 243a
00000150: e741 8bba 454a e3b7 46c4 3e3a b7f3 92ba
00000160: 8079 453a 7404 433a 3420 cdba 3173 ac37
00000170: 0ea3 50ba f52b d73a 04b0 973a 14c1 66b8
00000180: ce76 013a d080 8db9 a55f c1b7 b3a6 2bba
00000190: a133 963a 57d6 1c39 c387 843a 4eb4 193a
000001a0: 63b6 4bba ff46 663a 4cf3 f2ba 8da2 ac39
000001b0: 7d9c efb8 4ef5 243b aa32 5db9 e01a a1ba
000001c0: 0ef2 e4b7 76de a33a 15c3 62ba b93d 41b9
000001d0: a531 17ba 9ab3 ceb9 7eca b7ba ad53 8db7
000001e0: e730 f9b9 e709 ba3a 060f 8cb9 12a6 15ba
000001f0: 5fd0 99ba 4ade 6738 4bb6 253a abce 6eba

convs_bc.weight.0.tensor f4 [32, 32, 6, 2]
0.0005004675 3.491879e-37 0.004472323 -0.00064410234 0.0026320398 -0.0006804409 0.0021295717 -0.0006989179
0.0023738057 -0.0008115565 0.0036166275 -0.0009981082 -0.012520944 1.2451051e-37 -0.003717297 -0.004002324
-0.004377503 -0.0021371732 -0.0067481236 0.00364703 -0.008752431 0.013108448 -0.009912711 0.021326715
0.007050747 3.2931447e-37 0.0005586553 0.000434681 0.00030564843 0.000447691 0.00011461618 0.00045486182
-0.000238556 0.00047564364 -0.0011243094 0.0005694397 0.0025474243 3.4089634e-37 0.006865781 0.012410712
0.0054298127 0.010435529 0.008715456 0.008947444 0.01218179 0.007286961 0.015049195 0.0052151973
0.002639221 2.8753384e-37 0.05038358 0.032797772 0.028686363 0.02995864 0.01853168 0.026592769
0.012391473 0.023507487 0.008650082 0.020630432 -0.0070490325 -4.3890883e-37 -0.00094366015 -0.0022090133
-0.0012513817 -0.0004421556 -0.0018286626 0.0025816623 -0.0039588274 0.009234709 -0.0067756535 0.021749634
0.0060465513 1.2234947e-37 0.00072606246 6.2771665e-05 0.0006974322 6.418927e-05 0.0007569362 -3.6762576e-05
0.00095102174 -0.00044649947 0.0015013646 -0.002199355 0.0042839656 2.973948e-37 0.064650945 0.058741607
0.035585035 0.058383845 0.021224236 0.056083597 0.012412099 0.053252507 0.0063031744 0.049832497
0.0031810103 1.6248388e-37 0.011058078 0.037409347 -0.002089308 0.034611396 -0.005228498 0.03168693
-0.006642761 0.029213818 -0.007488712 0.026820054 0.0011451906 2.7188804e-37 0.018162644 0.023840645
0.0050861035 0.019747598 -0.00044306353 0.015978958 -0.0029283979 0.012375046 -0.0038898045 0.008944996
0.0014009677 2.04718e-37 0.03556821 0.026763514 0.025615932 0.025524618 0.024146428 0.025606312
0.024289504 0.026432542 0.02477176 0.027355202 -0.0021757565 -1.6941423e-37 -0.0036560963 -0.001465713
-0.0018734692 -0.0013174078 -0.0014451541 -0.0012911806 -0.0015807209 -0.0014947064 -0.0021010505 -0.0022066438
-0.0040066116 -1.887554e-37 -0.001542675 -0.0016168761 -0.0007767099 -0.0014923005 -0.00017838653 -0.001434148
0.0010434488 -0.0013797578 0.0028699527 -0.0013935866 -0.0114649525 3.1988832e-37 0.02494207 -0.0018347979
0.017399242 -0.0014869662 0.016842332 -0.00074987067 0.018881531 -0.00063091645 0.02212001 -0.001183879
0.003932447 -3.893633e-37 0.01068293 0.011549218 0.007202186 0.0101308245 0.008231374 0.010284125
0.009201412 0.011411505 0.00950695 0.012525433 -0.010263395 -7.074572e-38 -0.0035180037 0.017368404
-0.004687017 0.018289573 -0.0025948416 0.022726307 -0.00046171978 0.027011322 0.0014072784 0.030109601
-0.002409293 -2.399553e-37 -7.3665266e-05 -0.00021726434 3.263937e-05 -0.00014108505 4.7821784e-05 -8.154443e-05
-7.0365345e-06 -7.1136485e-05 -0.00030498832 -0.00017206802 0.0005160078 4.3183786e-37 -0.0020225076 -0.0009030031
-0.0010336919 -0.0006819329 -0.00083330134 -0.0005114885 -0.0011247881 -0.00026934998 -0.0020307966 0.0003036805
-0.0049822703 3.833993e-37 -0.006978538 -0.0011086604 -0.0043611457 -0.00063760317 -0.0045877965 -0.0002681612
-0.006147737 3.3225373e-05 -0.008620605 0.0002788435 0.0014506445 -7.072617e-38 0.014010904 0.009715637
0.0064186053 0.007189155 0.003506462 0.005040822 0.00414498 0.0016335337 0.007077109 -0.002010528
0.0007944132 1.8885131e-38 5.0924802e-05 9.102837e-05 2.0420013e-05 7.220091e-05 8.875919e-06 5.867416e-05
1.0190134e-06 4.438684e-05 -2.028759e-05 7.494859e-06 -0.0043039313 -1.8452951e-37 0.027612833 0.0013270524
00000000: ce31 033a 1da5 ed02 918c 923b fad8 28ba
00000010: 4d7e 2c3b 9e5f 32ba 4990 0b3b 9637 37ba
00000020: da91 1b3b a3be 54ba f104 6d3b f4d2 82ba
00000030: a524 4dbc 9579 2902 e59d 73bb ed25 83bb
00000040: 2871 8fbb d10f 0cbb 5d1f ddbb 0303 6f3b
00000050: 5b66 0fbc d1c4 563c ec68 22bc 5db5 ae3c
00000060: f409 e73b ac1e e002 b972 123a e5e5 e339
00000070: 703f a039 12b8 ea39 185e f038 857a ee39
00000080: e324 7ab9 cf5f f939 905d 93ba 7446 153a
00000090: b0f2 263b 8500 e802 58fa e03b 4d56 4b3c
000000a0: 92ec b13b c8f9 2a3c 46cb 0e3c 4d98 123c
000000b0: 2196 473c 76c7 ee3b e690 763c 3fe4 aa3b
000000c0: c8f6 2c3b 76af c302 035f 4e3d f556 063d
000000d0: aaff ea3c d26b f53c c0cf 973c 14d9 d93c
000000e0: 9b05 4b3c c692 c03c 13b9 0d3c 2701 a93c
000000f0: 92fb e6bb 5a5a 1583 f65f 77ba 18c5 10bb
00000100: 6705 a4ba 1fd1 e7b9 bcaf efba 1b31 293b
00000110: 0db9 81bb 2d4d 173c 4d06 debb 4a2c b23c
00000120: 2622 c63b 9188 2602 3a55 3e3a 48a4 8338
00000130: e2d3 363a 5a9d 8638 216d 463a 8431 1ab8
00000140: fd4d 793a 2518 eab9 70c9 c43a 0e23 10bb
00000150: 8260 8c3b 7b65 ca02 b767 843d 0a9b 703d
00000160: 9dc1 113d e623 6f3d 73de ad3c eab7 653d
00000170: 1e5c 4b3c 4d1f 5a3d dc8a ce3b 291d 4c3d
00000180: 7f78 503b 5e29 5d02 f12c 353c 8b3a 193d
00000190: c6ec 08bb aec4 0d3d d253 abbb 28ca 013d
000001a0: 85ab d9bb d151 ef3c df63 f5bb bbb5 db3c
000001b0: 381a 963a 9409 b902 d3c9 943c 754d c33c
000001c0: 54a9 a63b b7c5 a13c fb4a e8b9 4ee6 823c
000001d0: 5dea 3fbb b4c0 4a3c 17ec 7ebb 088e 123c
000001e0: ada0 b73a e852 8b02 f9af 113d 283f db3c
000001f0: 81d8 d13c 0119 d13c bbce c53c 54c4 d13c
00000200: c8fa c63c 0f89 d83c 25ee ca3c 0418 e03c
00000210: 2397 0ebb 3e98 6682 1e9b 6fbb 2b1d c0ba
00000220: 328f f5ba dfac acba 536b bdba d53c a9ba
00000230: 3130 cfba 06ea c3ba c7b1 09bb 579d 10bb
00000240: e549 83bb d475 8082 9533 caba 5ced d3ba
00000250: 1e9c 4bba 4c99 c3ba 450d 3bb9 06fa bbba
00000260: 55c4 883a fdd8 b4ba d115 3c3b 02a9 b6ba
00000270: 7fd7 3bbc 68b4 d902 5053 cc3c 9a7d f0ba
00000280: db88 8e3c 4ee6 c2ba eef8 893c f892 44ba
00000290: 71ad 9a3c 1664 25ba 0635 b53c 632c 9bba
000002a0: c2db 803b 547e 0483 7507 2f3c ee38 3d3c
000002b0: 5100 ec3b c2fb 253c e3dc 063c bf7e 283c
000002c0: 85c1 163c 52f7 3a3c 0ac3 1b3c 7937 4d3c
000002d0: cc27 28bc 9296 c081 4f8e 66bb 2f48 8e3c
000002e0: 8c95 99bb 04d4 953c 380e 2abb 852c ba3c
000002f0: fb12 f2b9 d946 dd3c 6d74 b83a 69a8 f63c
00000300: 3be5 1dbb 1c4e a382 bd7c 9ab8 74d1 63b9
00000310: 42e6 0838 3bf0 13b9 4094 4838 d502 abb8
00000320: 5f1b ecb6 1c2f 95b8 d7e6 9fb9 286d 34b9
00000330: b344 073a 62f2 1203 0c8c 04bb 83b7 6cba
00000340: f27c 87ba bec3 32ba e871 5aba 6a15 06ba
00000350: a06d 93ba 8b37 8db9 1d17 05bb 4f37 9f39
00000360: 5042 a3bb ca76 0203 38ac e4bb 7850 91ba
00000370: f1e7 8ebb d324 27ba 3a55 96bb fd97 8cb9
00000380: f572 c9bb 795b 0b38 703d 0dbc be31 9239
00000390: 8d23 be3a f288 c081 fe8d 653c 562e 1f3c
000003a0: 2a53 d23b 0193 eb3b accc 653b 7b2d a53b
000003b0: 9dd2 873b 4c1c d63a 18e7 e73b 10c3 03bb
000003c0: 2b40 503a 10a4 cd00 1798 5538 7ce6 be38
000003d0: a54b ab37 926a 9738 c8e9 1437 e618 7638
000003e0: 09c5 8835 022c 3a38 452f aab7 597c fb36
000003f0: fe07 8dbb 262b 7b82 4f34 e23c 7df0 ad3a
