neuraloperator/examples/para/fno_bc_para_202305121550_001002003004_modes36_epochs200.pth (torch, 606613 bytes, 15 tensors)

convs.bias f4 [4, 32, 1]
0.023743927 -0.002936023 0.008073958 0.004241228 0.006663394 -4.7685688e-05 -0.0030909495 -0.017603956
0.0012942876 0.019812986 0.007858489 -0.003520691 -0.0024250774 0.02377283 0.006732389 -0.002760133
0.014556611 0.008150058 0.022740215 0.008999018 0.011045797 -0.00023363334 -0.007316447 0.0057756333
0.009342828 0.0051624547 0.0073589054 -0.0012623743 0.0098036155 -0.008129201 -0.0133762155 0.016316691
0.0067111836 -0.0024328774 0.008899784 0.0069301347 0.005778327 0.0061370833 0.009029411 -0.01520948
0.0023612569 -0.010126556 0.007928077 -0.0038964285 -0.004628154 -0.008045122 0.008860882 0.006374188
-0.015177848 0.008017356 0.003368559 0.0074710506 -0.008236062 0.008556466 -0.009204867 -0.017172428
-0.010188988 0.006442645 0.00718408 0.009502623 -0.0071348846 0.004880433 -0.005567488 0.0056270435
0.006735119 -0.0030961873 0.0075691273 0.0067666466 0.008203919 0.0040813894 0.009846322 -0.016283935
0.0008849288 -0.0040143183 0.0079778535 -0.0052981824 -0.006795028 -0.0070024626 0.00907836 0.0048956433
-0.0074308915 0.008307077 0.0038949251 0.010834877 -0.00547663 0.0088438 -0.009515517 -0.008856034
-0.006657108 0.00703759 0.0059558665 0.007685172 -0.0058532464 0.005104877 -0.003074659 0.006885566
0.009556577 -0.0045714313 0.009161815 0.0072963755 0.008878883 -0.0024350681 0.00926317 -0.012075909
0.002972371 -0.0056699547 0.009188305 -0.0070187086 -0.006486523 -0.007106548 0.008438143 0.0046085333
-0.009851641 0.006977986 0.00495268 0.010356028 -0.0074270307 0.0102501195 -0.009968143 -0.006693843
-0.0018067074 0.008625888 0.0075421995 0.010492002 -0.00898229 0.0043061124 -0.0074485345 0.008144238
00000000: a082 c23c 4b6a 40bb a248 043c 00fa 8a3b
00000010: 9a58 da3b 1e02 48b8 8791 4abb 2c36 90bc
00000020: 16a5 a93a d84e a23c e4c0 003c 65bb 66bb
00000030: 0cee 1ebb 3dbf c23c 5f9b dc3b 59e3 34bb
00000040: da7e 6e3c d287 053c b049 ba3c 9e70 133c
00000050: 6ef9 343c 79fb 74b9 cebe efbb 8641 bd3b
00000060: a912 193c cf29 a93b f922 f13b 4176 a5ba
00000070: 589f 203c 5730 05bc ea27 5bbc 95aa 853c
00000080: 7de9 db3b e970 1fbb 66d0 113c 2f16 e33b
00000090: 1f58 bd3b 9619 c93b 18f0 133c 2f31 79bc
000000a0: 51bf 1a3b dbe9 25bc c4e4 013c 395b 7fbb
000000b0: c5a7 97bb b0cf 03bc 3c2d 113c 90de d03b
000000c0: 82ac 78bc 3a5b 033c 0bc3 5c3b b7cf f43b
000000d0: 8cf0 06bc 6b30 0c3c 03d0 16bc 31ad 8cbc
000000e0: b7ef 26bc d31c d33b 6e68 eb3b e4b0 1b3c
000000f0: c0cb e9bb 0aec 9f3b 796f b6bb 1063 b83b
00000100: 46b2 dc3b 67e9 4abb 7106 f83b bfba dd3b
00000110: bb69 063c 2dbd 853b 7852 213c e365 85bc
00000120: 91fa 673a 8b8a 83bb 8bb5 023c 609c adbb
00000130: d4a8 debb ea74 e5bb 67bd 143c a26b a03b
00000140: d67e f3bb 681a 083c 0042 7f3b c584 313c
00000150: 4d75 b3bb 96e5 103c f9e6 1bbc e618 11bc
00000160: df23 dabb 959b e63b 6e29 c33b e5d3 fb3b
00000170: 97cc bfbb d046 a73b 3880 49bb 50a0 e13b
00000180: 3093 1c3c f2cb 95bb 701b 163c 6f16 ef3b
00000190: bc78 113c aa95 1fbb 8dc4 173c 09da 45bc
000001a0: 1ccc 423b 07cb b9bb 8b8a 163c 32fd e5bb
000001b0: e68c d4bb 0cde e8bb 2340 0a3c 2e03 973b
000001c0: c768 21bc 97a7 e43b 174a a23b 54ac 293c
000001d0: 735e f3bb 1ef0 273c 6c51 23bc 0658 dbbb
000001e0: 0acf ecba 9953 0d3c 8e24 f73b a5e6 2b3c
000001f0: 742a 13bc 4a1a 8d3b d612 f4bb 696f 053c

convs.bias_bc f4 [4, 32, 1]
-0.0005363127 0.00058305846 0.0007602947 0.0010690294 0.00043897217 -0.0013475206 -0.00030645935 0.00018852731
-0.00028185124 -0.00077322643 -0.00082508806 0.00035358063 0.0026179317 -0.00075991737 0.0018418446 -0.000107810556
0.00017654197 -0.0021772378 -0.00047382226 0.0006672911 -0.0002485112 -6.354387e-05 0.0010865731 0.0009314216
0.00015453772 4.680126e-05 -0.0001483262 0.0005000508 0.00067664566 2.2123253e-05 0.00026832666 0.0004439232
-0.00048687853 -0.0020531053 0.00044730486 0.0004191702 -8.224642e-05 -0.0013096709 -0.0007941198 0.0012286006
-0.00092596124 0.00011990538 0.0012392846 0.00051526 -0.00055050646 0.0011761723 0.0002442149 -0.0009648344
-0.00069591 -0.00038154807 -0.0015080642 -0.0013404181 0.0006505185 0.00068812515 0.0008367103 -0.0001989894
-0.001229333 0.00066030206 -0.00031947333 -0.00092980295 -0.0005602382 0.00019826279 -5.49945e-05 1.9060015e-05
-0.00071930065 0.0007844765 0.00072600925 -0.0014130268 0.00046479813 -0.00013769475 -0.000115766285 0.0017683866
9.796597e-05 -0.0018992828 0.0020399375 0.0012544626 -0.00041924548 0.0014509632 0.00055376656 -0.00090122817
7.655709e-05 -0.0010149758 -0.0025292134 -0.0009520732 0.0010706029 0.0015747504 0.0007963715 0.0019450653
0.00016274021 -0.0010928512 6.522872e-05 -0.0009150887 -0.0001784956 0.00052874786 0.0001872012 -0.0007930477
-0.00089196477 0.00060549134 -0.00053652696 -0.00055349333 0.0006470519 0.0010926453 0.0011106704 0.00033956592
0.0014324624 -0.00079049694 -0.0004986231 -0.0017111332 0.00020426724 -9.6382995e-05 0.00015385343 0.00031959714
-0.00083799864 0.0011124992 0.00065208744 0.0006398552 0.0019232926 0.0012483441 -0.00031018959 -0.00021417339
-0.00108791 0.0011356435 0.0002639437 -0.00028984284 -0.0026169484 -0.00035772522 0.00055401854 -0.00031565674
00000000: 5697 0cba 64d8 183a 834e 473a ad1e 8c3a
00000010: d925 e639 4a9f b0ba 47ac a0b9 6aaf 4539
00000020: 6fc5 93b9 59b2 4aba b94a 58ba ca60 b939
00000030: 9b91 2b3b 3135 47ba 0d6a f13a 5a18 e2b8
00000040: 201e 3939 fdaf 0ebb 596b f8b9 26ed 2e3a
00000050: 9c4a 82b9 db42 85b8 586b 8e3a a52a 743a
00000060: 670b 2239 784c 4438 0388 1bb9 d715 033a
00000070: ec60 313a 5395 b937 32ae 8c39 5dbe e839
00000080: bb43 ffb9 648d 06bb 3e84 ea39 12c4 db39
00000090: b67b acb8 43a9 abba 7a2c 50ba ff08 a13a
000000a0: 35bc 72ba b675 fb38 7e6f a23a 8312 073a
000000b0: dd4f 10ba cb29 9a3a f809 8039 f1ec 7cba
000000c0: bb6d 36ba 840a c8b9 3daa c5ba f8b0 afba
000000d0: 8f87 2a3a 4c63 343a ad56 5b3a cfa7 50b9
000000e0: 9221 a1ba 1f18 2d3a fc7e a7b9 05be 73ba
000000f0: f3dc 12ba c3e4 4f39 e5a9 66b8 12e3 9f37
00000100: 738f 3cba 54a5 4d3a a851 3e3a 5035 b9ba
00000110: 26b0 f339 2762 10b9 8dc7 f2b8 35c9 e73a
00000120: 1473 cd38 5bf1 f8ba 79b0 053b c86c a43a
00000130: 2dce dbb9 3f2e be3a a52a 113a 6640 6cba
00000140: 468d a038 f008 85ba 29c1 25bb 8d94 79ba
00000150: 7953 8c3a db67 ce3a 96c3 503a 90f1 fe3a
00000160: 3ea5 2a39 003e 8fba 67cb 8838 90e2 6fba
00000170: 8c2a 3bb9 ab9b 0a3a 714b 4439 88e4 4fba
00000180: bed2 69ba d6b9 1e3a b7a5 0cba 4f18 11ba
00000190: eb9e 293a 1837 8f3a ea93 913a c407 b239
000001a0: 76c1 bb3a 5a39 4fba 08b6 02ba 1a48 e0ba
000001b0: 9230 5639 3a21 cab8 b753 2139 9a8f a739
000001c0: 23ad 5bba 47d1 913a d9f0 2a3a f5bb 273a
000001d0: fe16 fc3a 7a9f a33a f1a0 a2b9 bb93 60b9
000001e0: 3498 8eba dfd9 943a ec61 8a39 0cf6 97b9
000001f0: 1c81 2bbb 118d bbb9 8e3b 113a bb7e a5b9

convs.weight.0.tensor f4 [32, 32, 18, 2]
-0.025501693 -6.497044e-38 -0.0129184425 0.020051967 -0.013039353 -0.0024762724 -0.008168392 -0.002314325
-0.005185313 -0.0028499633 -0.003906787 -0.0025559587 -0.003336045 -0.0058667934 -0.0024524613 -0.0047772466
-0.0024734703 -0.004004944 -0.008761034 -0.0078156395 -0.005966773 -0.0049315803 -0.005022916 -0.0038970155
-0.005322725 -0.0044442564 -0.0052959705 -0.0050212345 -0.0046315156 -0.0054645985 -0.0033765214 -0.0056567634
-0.0031502033 -0.007756043 -0.00074398733 -0.0024342039 0.00016154321 -4.9992287e-38 -0.020193303 -0.03247409
-0.010651643 0.004069452 -0.010266445 0.0007887929 -0.014422152 0.00045611867 -0.015839417 -0.0019123751
-0.01931665 -0.027054524 -0.024222458 -0.008811445 -0.03324691 -0.034659334 -0.020220118 -0.00076546293
-0.021189898 -0.0155161545 -0.02929385 -0.01489754 -0.03055431 -0.0154193705 -0.029415155 -0.0026286338
-0.039333127 -0.007803148 -0.047095582 -0.013788161 -0.04183672 -0.061172012 -0.046706147 -0.086059004
-0.008912595 -3.9881347e-38 -0.027796792 0.0017265836 -0.013464169 0.012011137 -0.01653152 -0.005143383
-0.017851844 -0.005649894 -0.016405951 0.007032818 -0.018510161 0.0070492774 -0.019769689 0.0054255333
-0.028601855 0.00638099 -0.01806251 0.005940531 -0.018323997 -0.0012981521 -0.021384902 0.00011818256
-0.022157742 -0.002294457 -0.019408338 0.0060809916 -0.026444705 -0.00049337465 -0.030727314 0.008816992
-0.035663236 -0.0005009778 -0.049906343 0.024036853 -0.0087126475 5.132967e-39 -0.043549504 0.017093407
-0.015021942 0.0042972043 -0.015426682 0.003358653 -0.021235613 -0.008361896 -0.02211331 0.0010341502
-0.02672619 -0.00017010579 -0.033427786 -0.0104627395 -0.04094536 0.00085491955 -0.02697722 -0.004970897
-0.024008365 0.0011350439 -0.031071536 -0.002959793 -0.034183245 -0.0051648943 -0.030974265 0.0019006855
-0.04194939 0.0016398822 -0.052384432 -0.0067432052 -0.061128307 -0.0077776695 -0.060977485 -0.025858438
-0.0076864003 -1.6291048e-38 -0.032892015 0.020299917 -0.0119281765 0.021526055 -0.00896547 0.023656126
-0.00844089 0.028382864 -0.007899196 0.029196644 -0.0074162167 0.03399119 -0.0091822455 0.042531077
-0.0265954 0.030864013 -0.00092284416 0.028542623 0.0005960865 0.029019503 0.002892161 0.036119442
0.005185323 0.040682826 0.01696202 0.03305286 0.002736222 0.054376155 -0.006434516 0.06221452
-0.023344452 0.020433808 -0.04710674 0.06819182 0.00901535 -2.6765014e-38 -0.0006646844 0.0018858874
5.6678626e-05 -0.00033922336 5.7956284e-05 -5.7762292e-05 1.2977528e-05 -8.979535e-05 -1.6749915e-05 -6.6331595e-05
-6.107642e-05 -6.7873974e-05 -4.457988e-05 -0.00010527063 -6.0245467e-05 -0.00010113581 -4.9958213e-05 -8.891044e-05
-1.6735592e-05 -5.584122e-05 1.0581815e-05 -6.408424e-06 2.426634e-06 -1.9792033e-05 3.4675127e-06 -3.5563764e-05
-1.0445893e-05 -7.36357e-06 -4.4414508e-05 -3.6712077e-05 -4.3948938e-05 -4.1696938e-05 -1.0483497e-05 -9.44911e-05
0.0045799213 -4.176329e-38 -3.359936e-05 0.00011032327 2.5658186e-05 5.5978603e-06 1.7231423e-05 1.7321421e-05
2.2380715e-05 1.0959843e-05 1.9980973e-05 7.522767e-06 1.5944168e-05 3.7832328e-06 1.3115147e-05 -3.685401e-06
6.9904318e-06 -6.940225e-06 7.1103427e-06 -1.2704192e-05 1.0737762e-05 -3.0964543e-06 1.0177003e-05 2.967162e-06
8.576298e-06 3.3224476e-06 9.3322615e-06 5.3482436e-06 4.967705e-06 9.785296e-06 1.6382235e-06 8.720739e-06
1.2476422e-06 -4.1996637e-07 -3.587828e-07 2.7443016e-06 0.0150770005 7.339952e-38 -0.06742083 -0.021804469
00000000: ede8 d0bc cadd b081 e0a7 53bc 0644 a43c
00000010: 03a3 55bc f548 22bb b8d4 05bc eeab 17bb
00000020: 8fe9 a9bb 73c6 3abb 8104 80bb df81 27bb
00000030: 8ca1 5abb 3b3e c0bb 79b9 20bb 738a 9cbb
00000040: f219 22bb e83b 83bb 718a 0fbc 2b0d 00bc
00000050: eb84 c3bb 1899 a1bb 4697 a4bb 1265 7fbb
00000060: 416a aebb 20a1 91bb d289 adbb 2b89 a4bb
00000070: f8c3 97bb 6010 b3bb a148 5dbb 5f5c b9bb
00000080: a473 4ebb 6826 febb 2508 43ba 2a87 1fbb
00000090: ed63 2939 8a17 8881 6d6c a5bc 8d03 05bd
000000a0: 3b84 2ebc 0a59 853b 9734 28bc ffc6 4e3a
000000b0: e44a 6cbc 3623 ef39 aac1 81bc a9a8 faba
000000c0: f43d 9ebc 73a1 ddbc 2d6e c6bc e15d 10bc
000000d0: e92d 08bd f2f6 0dbd a9a4 a5bc 59a9 48ba
000000e0: 7096 adbc 7837 7ebc a8f9 efbc d014 74bc
000000f0: 084d fabc 87a1 7cbc 0df8 f0bc 2845 2cbb
00000100: c61b 21bd 8db1 ffbb 4ce7 40bd bde7 61bc
00000110: fb5c 2bbd 818f 7abd f24e 3fbd b43f b0bd
00000120: 2206 12bc 7c22 5981 19b6 e3bc 884e e23a
00000130: d198 5cbc 5cca 443c 1c6d 87bc d389 a8bb
00000140: 083e 92bc bf22 b9bb c665 86bc 8e73 e63b
00000150: 9fa2 97bc a0fd e63b 0bf4 a1bc acc8 b13b
00000160: 704e eabc a017 d13b d4f7 93bc c9a8 c23b
00000170: 351c 96bc c226 aaba 642f afbc c7d8 f738
00000180: 2784 b5bc 9a5e 16bb 3cfe 9ebc 0e43 c73b
00000190: 91a2 d8bc d055 01ba d9b7 fbbc 2575 103c
000001a0: 9d13 12bd 0d54 03ba 986a 4cbd efe8 c43c
000001b0: 7ebf 0ebc a0e4 3700 f760 32bd 7907 8c3c
000001c0: 971e 76bc 90cf 8c3b 32c0 7cbc d91c 5c3b
000001d0: 4ff6 adbc 5500 09bc f926 b5bc 538c 873a
000001e0: e2f0 dabc 6d5e 32b9 93eb 08bd e96b 2bbc
000001f0: 52b6 27bd ae1c 603a 55ff dcbc e8e2 a2bb
00000200: 31ad c4bc c1c5 943a bc89 febc 16f9 41bb
00000210: bb03 0cbd 463e a9bb bebd fdbc 6c20 f93a
00000220: 20d3 2bbd 51f1 d63a 0f91 56bd 1bf6 dcbb
00000230: ad61 7abd d2db febb 87c3 79bd 13d5 d3bc
00000240: 33de fbbb d064 b180 c7b9 06bd 034c a63c
00000250: 666e 43bc 6957 b03c e8e3 12bc 7eca c13c
00000260: a94b 0abc 2e83 e83c a16b 01bc cd2d ef3c
00000270: bc03 f3bb 593a 0b3d 2171 16bc 1135 2e3d
00000280: 99de d9bc 87d6 fc3c 06eb 71ba 38d2 e93c
00000290: b042 1c3a 4fba ed3c 698a 3d3b fbf1 133d
000002a0: a4e9 a93b 09a3 263d eff3 8a3c 7062 073d
000002b0: 3052 333b 88b9 5e3d a2d8 d2bb a7d4 7e3d
000002c0: dd3c bfbc cd64 a73c fff2 40bd 27a8 8b3d
000002d0: 1eb5 133c fcb8 1181 373e 2eba e12f f73a
000002e0: 36ba 6d38 cad9 b1b9 1616 7338 ca45 72b8
000002f0: 0fba 5937 8350 bcb8 2b82 8cb7 811b 8bb8
00000300: 2716 80b8 9057 8eb8 48fb 3ab8 bdc4 dcb8
00000310: 14b0 7cb8 e018 d4b8 398a 51b8 6e75 bab8
00000320: 6963 8cb7 0e37 6ab8 8d88 3137 f107 d7b6
00000330: 41d9 2236 1107 a6b7 6ab3 6836 4d2a 15b8
00000340: c540 2fb7 9614 f7b6 b749 3ab8 4bfb 19b8
00000350: d055 38b8 bfe3 2eb8 47e2 2fb7 8629 c6b8
00000360: 2a13 963b 8861 6381 0aed 0cb8 5b5d e738
00000370: 893c d737 41d5 bb36 338c 9037 784d 9137
00000380: 38be bb37 2be0 3737 d09c a737 146c fc36
00000390: d7bf 8537 72e3 7d36 2109 5c37 b552 77b6
000003a0: 5a8f ea36 14e0 e8b6 6195 ee36 1724 55b7
000003b0: 5626 3437 aecc 4fb6 e5bd 2a37 741f 4736
000003c0: ebe2 0f37 37f7 5e36 c291 1c37 1075 b336
000003d0: 43b0 a636 872b 2437 eee0 db35 4a4f 1237
000003e0: a974 a735 bd77 e1b4 bc9e c0b4 be2a 3836
000003f0: 8605 773c 00d0 c701 ef13 8abd 499f b2bc

convs.weight.1.tensor f4 [32, 32, 18, 2]
0.016452452 7.340655e-38 0.021853479 0.007636252 -0.000909204 -0.0037865203 -0.0016232696 -0.003486165
-0.0012107644 -0.0037120502 -0.0014952956 -0.0033607655 -0.0014657183 -0.006513405 -0.001401551 -0.0052679987
-0.0019799913 -0.004054489 -0.0066840816 -0.008113687 -0.0046903975 -0.004690021 -0.0042375443 -0.0037318303
-0.00434656 -0.0043174536 -0.004471438 -0.004975605 -0.004294913 -0.0054513514 -0.0032784902 -0.0057867425
-0.0029486665 -0.010260327 -0.0071329707 -0.021814154 0.016950574 -4.856463e-38 0.01070534 0.005793617
0.00080137566 0.0033674708 0.0010336711 0.0051655066 0.0022151347 0.005781571 0.0031589333 0.005143065
0.0012007437 0.007814322 0.00472725 0.006206702 0.0019924077 0.009559747 0.0038907097 0.0073624304
0.0016842562 0.006756612 0.0038255993 0.00607337 0.0046612974 0.00594017 0.0067609996 0.003938361
0.0073599685 0.005048885 0.0075397836 0.005541802 0.0009822748 0.00851215 0.008621171 0.0095509915
0.016553717 7.134291e-39 0.000511192 -0.007340358 -0.0020171488 0.00067398883 -0.0017025871 0.0029611457
-0.0015469036 0.002895908 -0.000115187264 0.0039333 0.00087067526 0.00417425 0.0006547684 0.0041106115
0.00017448598 0.0050366386 0.00077405357 0.0060272743 2.7130953e-05 0.0054977657 0.002914116 0.0047876346
0.0037664257 0.0043854653 0.004888405 0.003709582 0.0054860255 0.004371149 0.005791824 0.002827216
0.0032697262 -0.0067900424 0.011328018 -0.0080855945 0.016575009 3.2389803e-38 0.0073628086 -0.007933792
0.00072524144 0.0020417739 0.0015849156 0.005312321 0.0016967405 0.0047742175 0.0032827593 0.004681318
0.0050076195 0.00505348 0.004130008 0.004882225 0.0052903867 0.0072547207 0.0035024807 0.007630231
0.0039793677 0.005931936 0.0052408157 0.0049627884 0.005882634 0.0049386322 0.0073327706 0.0038435808
0.00829839 0.0041266526 0.0075729904 0.00430555 0.0058621643 0.0028695632 0.009875646 0.002526536
0.015936304 1.4462813e-38 0.008536003 -0.0016237169 0.0006798902 -0.0034151608 0.00082543876 -0.0025849072
0.001275318 -0.0031175008 0.0008797874 -0.0037122618 0.00092692964 -0.006399832 0.0010706567 -0.005605071
0.0017484727 -0.0039358283 -0.00089207 -0.0064846035 -0.00081401726 -0.0048270137 -0.0008362846 -0.0045874515
-0.0008780248 -0.0051770746 -0.0032818269 -0.005670385 -0.00054544525 -0.006727706 0.00049071974 -0.007051699
-0.0007154796 -0.00453995 -0.0013169824 -0.015334084 -0.0233064 -1.0229024e-37 -0.00037606963 0.058306072
-0.0022642876 -0.0008558347 -0.008917433 -0.0008563218 -0.008594043 -0.0029979718 -0.008602912 -0.004354024
-0.010515925 -0.008877071 -0.0084786825 -0.00631506 -0.00557793 -0.005359383 -0.0072514946 -0.008355769
-0.003300757 -0.0045026634 -0.0035307733 -0.0024613596 -0.0030481368 -0.003297842 -0.003346933 -0.0056591346
-0.002494059 -0.00643206 -0.0014113213 -0.008687047 -0.0034381757 -0.005586342 -6.353047e-06 -0.004787083
0.016413108 -3.1270368e-38 -0.0062993667 -0.0094676325 -0.003674487 -0.00086332357 -0.0038078106 0.002123634
-0.0038342387 0.0024120235 -0.0028011193 0.0023139531 -0.002558036 0.0018293562 -0.001981767 0.0018142049
-0.0023775536 0.0028513467 -0.0039610257 0.0028488666 -0.003777249 0.0032452557 -0.0014475171 0.002908976
-0.00082488306 0.0019948932 -0.0004506879 0.0013037822 -0.0007713536 0.0013319006 -0.0011912873 0.0013864045
-0.0014835267 -0.005305315 0.0014928266 0.0028481404 0.01665936 -5.3042106e-38 0.023160912 -0.028112177
00000000: 4bc7 863c e6d4 c701 1106 b33c 8639 fa3b
00000010: a657 6eba 4527 78bb e4c3 d4ba 2578 64bb
00000020: 83b2 9eba de45 73bb cbfd c3ba 4a40 5cbb
00000030: 581d c0ba 676e d5bb 3fb4 b7ba 2d9f acbb
00000040: bec2 01bb 85db 84bb 2406 dbbb 45ef 04bc
00000050: e8b1 99bb bfae 99bb 19db 8abb b991 74bb
00000060: 976d 8ebb 6d79 8dbb 2485 92bb 660a a3bb
00000070: 57bc 8cbb 40a1 b2bb f0db 56bb b79e bdbb
00000080: 6a3e 41bb ee1a 28bc b2bb e9bb 99b3 b2bc
00000090: eedb 8a3c 9c34 8481 7365 2f3c 62d8 bd3b
000000a0: 6913 523a c9b0 5c3b 3f7c 873a 6943 a93b
000000b0: cb2b 113b 5573 bd3b 1b06 4f3b 2887 a83b
000000c0: 4662 9d3a a407 003c 0ce7 9a3b 9761 cb3b
000000d0: 0e93 023b 7ca0 1c3c 47fb 7e3b 8b40 f13b
000000e0: 43c2 dc3a 9266 dd3b e8b6 7a3b 1f03 c73b
000000f0: ccbd 983b c2a5 c23b 608b dd3b 5e0d 813b
00000100: e42b f13b 1e71 a53b 4a10 f73b 0198 b53b
00000110: acbf 803a 8b76 0b3c d03f 0d3c c37b 1c3c
00000120: a99b 873c 80af 4d00 8401 063a 6387 f0bb
00000130: 2432 04bb a0ae 303a 5829 dfba c80f 423b
00000140: 79c1 caba 46c9 3d3b b190 f1b8 e9e2 803b
00000150: 073e 643a 26c8 883b c3a4 2b3a 4fb2 863b
00000160: 39f6 3639 630a a53b dbe9 4a3a 7180 c53b
00000170: 4797 e337 9a26 b43b c1fa 3e3b 97e1 9c3b
00000180: 23d6 763b f3b3 8f3b ea2e a03b 751c 733b
00000190: 1ec4 b33b db3b 8f3b 57c9 bd3b d048 393b
000001a0: e748 563b 017f debb 2799 393c 7179 04bc
000001b0: 50c8 873c cc58 3001 b743 f13b bcfc 01bc
000001c0: 211e 3e3a 48cf 053b f1bc cf3a fa12 ae3b
000001d0: 2a65 de3a 0a71 9c3b 9023 573b be65 993b
000001e0: f516 a43b aa97 a53b 0555 873b 12fb 9f3b
000001f0: fb5a ad3b 02b9 ed3b e089 653b 0407 fa3b
00000200: 5b65 823b b060 c23b 26bb ab3b e39e a23b
00000210: 1cc3 c03b 40d4 a13b bd47 f03b 96e4 7b3b
00000220: f8f5 073c df38 873b d926 f83b 9215 8d3b
00000230: 6617 c03b 480f 3c3b 76cd 213c 3d94 253b
00000240: da8c 823c 707c 9d00 97da 0b3c e6d2 d4ba
00000250: a93a 323a e4d0 5fbb 4262 583a 8c67 29bb
00000260: 9228 a73a fc4e 4cbb 88a1 663a 6b49 73bb
00000270: 32fd 723a afb5 d1bb 4755 8c3a beaa b7bb
00000280: 022d e53a 1ff8 80bb ced9 69ba cc7c d4bb
00000290: c663 55ba ed2b 9ebb 1c3a 5bba 5552 96bb
000002a0: 3f2b 66ba 73a4 a9bb eb13 57bb a3ce b9bb
000002b0: 36fc 0eba 1774 dcbb a5a3 003a f011 e7bb
000002c0: 068f 3bba dcc3 94bb 999e acba cf3b 7bbc
000002d0: 10ed bebc f23a 0b82 362b c5b9 59d2 6e3d
000002e0: 7164 14bb 185a 60ba 6d1a 12bc c97a 60ba
000002f0: 07ce 0cbc 9f79 44bb 3af3 0cbc 33ac 8ebb
00000300: fc4a 2cbc 2271 11bc 2cea 0abc 90ee cebb
00000310: 11c7 b6bb c39d afbb f29d edbb a3e6 08bc
00000320: 8351 58bb 148b 93bb 8c64 67bb c34e 21bb
00000330: 40c3 47bb 9c20 58bb 3858 5bbb 4370 b9bb
00000340: 5e73 23bb 08c4 d2bb 16fc b8ba 1e54 0ebc
00000350: 0453 61bb a20d b7bb 422c d5b6 f6dc 9cbb
00000360: c874 863c 8840 2a81 eb6a cebb 211e 1bbc
00000370: a9cf 70bb aa50 62ba 768c 79bb ab2c 0b3b
00000380: da47 7bbb 0a13 1e3b fc92 37bb b1a5 173b
00000390: b9a4 27bb 02c7 ef3a 88e0 01bb 9dca ed3a
000003a0: bbd0 1bbb a9dd 3a3b 7ecb 81bb 0db4 3a3b
000003b0: b98b 77bb 5bae 543b 9dba bdba 85a4 3e3b
000003c0: f73c 58ba c1bc 023b 4e4a ecb9 ace3 aa3a
000003d0: aa34 4aba 2b93 ae3a f824 9cba 04b8 b53a
000003e0: e572 c2ba 35d8 adbb f3aa c33a dea7 3a3b
000003f0: 3679 883c f464 9081 f4bb bd3c 824b e6bc

convs.weight.2.tensor f4 [32, 32, 18, 2]
0.005135027 4.835477e-39 0.01529369 0.008120846 -0.001963693 -0.0042390376 0.0012440704 -0.010061019
0.006154373 -0.018176882 0.0023548861 -0.01570255 0.014875912 -0.024457803 0.018658824 -0.025689706
0.02496979 -0.026628325 0.017844329 -0.007462035 0.0138613265 -0.00962784 0.016708173 -0.012976393
0.018489705 -0.0110767195 0.01997459 -0.011938893 0.021978494 -0.016409457 0.018803202 -0.025193024
0.018311465 -0.042968653 0.04789185 -0.05543472 -0.0010828611 4.5466e-40 -0.000561037 0.008786138
-4.3670507e-06 0.00032167163 0.0007018673 0.005119327 -0.00034238715 0.013811081 0.00066153967 0.007491209
-0.009757356 0.012081552 -0.008942761 0.01798389 -0.022049133 0.013848123 -0.008852873 0.004614603
-0.005947562 0.0030208689 -0.0070024 0.0047992277 -0.008194081 0.004937809 -0.008069441 0.006237783
-0.012291124 0.0074178427 -0.017790094 0.013724159 -0.026462749 0.021397326 -0.055872694 0.033223946
0.006725166 4.392017e-38 -0.0036640721 -0.009424381 0.004223166 0.0015414302 0.0034415356 0.0033279073
0.0025432634 0.004304776 0.0002823673 0.0013291424 -0.000561929 0.003352174 -0.0025051152 0.0054794224
-0.0042037074 0.009669228 -0.007833649 0.0027331696 -0.0045332722 0.0020288727 -0.005166584 0.0016203026
-0.0062917294 0.00015592472 -0.0068610264 -0.001272541 -0.006701126 -0.0012033768 -0.006833857 0.0018958169
-0.0012009116 0.0035231316 0.0021919492 0.022915281 0.006571917 -9.571703e-38 0.0003159743 -0.009416531
0.0026948135 0.00047561605 -0.0005059283 0.007776489 0.000612255 0.007407921 0.00039678463 0.0067797005
-0.00079421717 0.015159013 -0.005068749 0.012974749 -0.012687481 0.02091947 -0.011524815 0.004658326
-0.007339402 0.0046229553 -0.008301524 0.0065745735 -0.0097865425 0.006427444 -0.01037646 0.006360828
-0.01321742 0.009604775 -0.014276361 0.013465217 -0.008379611 0.023245418 -0.036876522 0.04235314
0.0047071837 -7.722213e-38 0.022510614 0.014915106 -0.005431728 -0.002839406 -0.0038661894 -0.0068764566
-0.0018388086 -0.013585626 -0.002629618 -0.0065114005 0.0059287366 -0.013454351 0.010360104 -0.01855479
0.019789543 -0.009809203 0.014672858 -0.0015015274 0.011293136 -0.0039673257 0.013620436 -0.0065148408
0.015594494 -0.004599882 0.018641792 -0.008081743 0.01915806 -0.008001594 0.0149933165 -0.012910175
0.009197433 -0.030855736 0.047354605 -0.027828548 -0.00090068165 -8.9536055e-38 0.07011972 0.13654244
-0.02994462 -0.006081488 -0.021542072 -0.016322171 -0.011248877 -0.021821631 -0.0013169132 -0.016233936
0.00897411 -0.024815023 0.014276522 -0.02091635 0.04406612 -0.027740229 0.031757034 -0.011535231
0.015360448 -0.009335721 0.012711433 -0.010164153 0.017832506 -0.008599625 0.02391483 -0.0064651505
0.026615318 -0.0068948576 0.030030118 -0.0066136513 0.054800093 -0.03616749 0.1037532 -0.049532473
0.0056152362 4.2775645e-38 -0.004733872 -0.0005794941 0.003131314 -0.0012645002 0.002267148 -0.0010477683
0.0012754876 -0.0047245403 -0.00089323975 -0.0059804916 0.00090810267 -0.0077552837 0.0021295035 -0.005171645
0.0010033699 -0.004194241 -0.0035608232 -0.0029444504 -0.0015515453 -0.0044329823 -0.0007295912 -0.005657975
-0.00078069075 -0.005458512 -0.0004536849 -0.006053812 -5.7099518e-05 -0.008396037 -0.0013627757 -0.010842193
0.0030196726 -0.010635405 -0.007587718 -0.018634457 -0.018740512 1.1392791e-37 -0.00031069785 -0.03757433
00000000: bb43 a83b 58a7 3400 6392 7a3c 4c0d 053c
00000010: 4db1 00bb a0e7 8abb 1310 a33a f9d6 24bc
00000020: 9faa c93b afe7 94bc 6f54 1a3b a2a2 80bc
00000030: 19ba 733c bb5b c8bc 64da 983c 3873 d2bc
00000040: 728d cc3c a523 dabc 452e 923c 1684 f4bb
00000050: 9e1a 633c 16be 1dbc 94df 883c f09a 54bc
00000060: b977 973c 217b 35bc c0a1 a33c 599b 43bc
00000070: 3e0c b43c 206d 86bc 2c09 9a3c 9a61 cebc
00000080: ed01 963c e6ff 2fbd 3f2a 443d 840f 63bd
00000090: caee 8dba 68f3 0400 8e12 13ba bcf3 0f3c
000000a0: ae88 92b6 09a6 a839 84fd 373a 07c0 a73b
000000b0: 6d82 b3b9 df47 623c 2d6b 2d3a d178 f53b
000000c0: 51dd 1fbc b4f1 453c a984 12bc f352 933c
000000d0: 62a0 b4bc 3de3 623c a40b 11bc 1836 973b
000000e0: c4e3 c2bb c5f9 453b 6374 e5bb d742 9d3b
000000f0: 7740 06bc 58cd a13b b035 04bc 5166 cc3b
00000100: b660 49bc 6011 f33b 88bc 91bc 4cdb 603c
00000110: 68c8 d8bc 7249 af3c c4da 64bd d515 083d
00000120: c85e dc3b c81f 6f01 ee20 70bb b868 1abc
00000130: 7c62 8a3b d109 ca3a 638b 613b 0519 5a3b
00000140: e1ac 263b 140f 8d3b b30a 9439 9e36 ae3a
00000150: 6b4e 13ba 26b0 5b3b dc2c 24bb ba8c b33b
00000160: 41bf 89bb af6b 1e3c b558 00bc fa1e 333b
00000170: d88b 94bb d6f6 043b 734c a9bb 5560 d43a
00000180: da2a cebb b97f 2339 76d2 e0bb 64cb a6ba
00000190: 1f95 dbbb a0ba 9dba 8cee dfbb 0f7d f83a
000001a0: e867 9dba 57e4 663b cea6 0f3b d4b8 bb3c
000001b0: 3c59 d73b 8448 0282 5aa9 a539 cb47 1abc
000001c0: 789b 303b 1b5c f939 46a0 04ba ebd1 fe3b
000001d0: bd7f 203a 25be f23b 8807 d039 4028 de3b
000001e0: 0333 50ba 825d 783c c017 a6bb 0b94 543c
000001f0: 27df 4fbc 4f5f ab3c 94d2 3cbc dfa4 983b
00000200: 5e7f f0bb 297c 973b 1e03 08bc 856f d73b
00000210: bc57 20bc 4f9d d23b 0702 2abc 7e6e d03b
00000220: e18d 58bc 595d 1d3c 66e7 69bc 379d 5c3c
00000230: a34a 09bc 2d6d be3c d60b 17bd 7c7a 2d3d
00000240: b83e 9a3b f837 d281 2e68 b83c 7d5e 743c
00000250: a3fc b1bb 5415 3abb e55f 7dbb e653 e1bb
00000260: 2e04 f1ba 3f96 5ebc ab55 2cbb 965d d5bb
00000270: d945 c23b a36f 5cbc 6dbd 293c 3700 98bc
00000280: ae1d a23c c8b6 20bc 6d66 703c e6ce c4ba
00000290: d806 393c 5700 82bb 4028 5f3c 727a d5bb
000002a0: 0c80 7f3c 9bba 96bb acb6 983c 4969 04bc
000002b0: 5df1 9c3c 1e19 03bc 87a6 753c 3385 53bc
000002c0: d4b0 163c 2bc5 fcbc e7f6 413d b2f8 e3bc
000002d0: b91b 6cba 86bd f381 ee9a 8f3d c8d1 0b3e
000002e0: 6b4e f5bc 3847 c7bb 0079 b0bc 13b6 85bc
000002f0: 364d 38bc 47c3 b2bc 469c acba 08fd 84bc
00000300: 2508 133c e048 cbbc 13e8 693c c458 abbc
00000310: ad7e 343d 7a3f e3bc aa13 023d 44fe 3cbc
00000320: 63aa 7b3c daf4 18bc 9d43 503c 8c87 26bc
00000330: 7a15 923c 71e5 0cbc 09e9 c33c 9dd9 d3bb
00000340: 5e08 da3c 42ee e1bb b901 f63c 54b7 d8bb
00000350: 1076 603d 5d24 14bd 8f7c d43d 90e2 4abd
00000360: 0400 b83b 8ce4 6801 991e 9bbb 31e9 17ba
00000370: bb36 4d3b 96bd a5ba 6f94 143b 4555 89ba
00000380: 432e a73a 51d0 9abb 4e28 6aba 00f8 c3bb
00000390: bd0d 6e3a 0920 febb 248f 0b3b e776 a9bb
000003a0: 8283 833a d86f 89bb b35c 69bb aef7 40bb
000003b0: 395d cbba 8d42 91bb 0942 3fba 8966 b9bb
000003c0: 45a7 4cba 51dd b2bb 8edc edb9 0e5f c6bb
000003d0: 247e 6fb8 888f 09bc 2a9f b2ba 74a3 31bc
000003e0: b3e5 453b 1f40 2ebc 64a2 f8bb 4aa7 98bc
000003f0: b485 99bc 1512 1b02 29e5 a2b9 8ae7 19bd

convs.weight.3.tensor f4 [32, 32, 18, 2]
0.007861347 6.162673e-38 0.009802026 0.007556737 0.0025161311 -0.006277749 0.00890295 -0.01330996
0.012579814 -0.026810778 0.008833962 -0.029310994 0.017144706 -0.037943818 0.021533582 -0.034034874
0.025673194 -0.03318362 0.01653061 -0.007597723 0.019488657 -0.013358694 0.021353783 -0.018248368
0.022384303 -0.014758551 0.02459594 -0.014319185 0.026885573 -0.021050317 0.02267566 -0.033777587
0.022254828 -0.04871849 0.0469953 -0.063341394 -0.0023873555 6.776743e-38 -0.00069134525 0.024156492
-0.009596254 -8.339671e-05 -0.0073938486 0.0022636089 -0.00797269 0.01188249 -0.005964856 0.011462246
-0.014162649 0.0150484275 -0.016607516 0.012129309 -0.021923458 0.010130876 -0.012346308 -0.0016731167
-0.009901551 0.00042602356 -0.011492327 0.0027907104 -0.011502858 0.0021311345 -0.011018924 0.002008804
-0.012870916 0.0019702204 -0.013900597 0.007071457 -0.013722707 0.020302737 -0.034655657 0.028843235
0.0074872575 -3.4351868e-38 -0.0037284438 -0.0053925007 0.004738904 0.0026209317 0.0022233832 0.0039790138
0.00012312779 0.002686451 -0.002486587 -0.0024734878 -0.006418914 -0.0028735872 -0.0052290354 0.0010354639
-0.0070034675 0.0014446953 -0.013163315 -0.0036544825 -0.00856218 -0.0012984215 -0.0089919 -0.001057681
-0.010262081 -0.0031138873 -0.010487155 -0.0036305848 -0.007745747 -0.004432371 -0.0055364966 -0.0056999326
0.00034074846 -0.0024648735 -0.0015488423 -0.0028005128 0.0034054029 -5.484032e-38 0.0030446115 0.0044049425
-0.0017394398 -0.0009090421 -0.0067914184 0.0051802727 -0.0076648453 0.011446212 -0.007151053 0.009677014
-0.016195653 0.013644467 -0.016746324 0.011186105 -0.022535479 0.008359172 -0.017191539 -0.0032482073
-0.014485767 -0.00073344784 -0.015883805 0.0022148087 -0.016576745 0.0016831312 -0.016804732 0.0030822086
-0.019228254 0.003698823 -0.018778373 0.007667342 -0.013733241 0.020805823 -0.034551978 0.0209648
0.0068841716 3.2497916e-38 0.021328298 0.019121557 -0.003970198 -0.0056969365 0.0015369232 -0.011782532
0.0053343982 -0.023613218 0.002705272 -0.023456465 0.010804001 -0.03225821 0.015336512 -0.033276815
0.02028134 -0.03350799 0.017366393 -0.007229666 0.01781211 -0.01127917 0.018709995 -0.016429784
0.020565322 -0.013442659 0.02302163 -0.012933289 0.024717381 -0.017841695 0.019972991 -0.030193912
0.018392473 -0.051882237 0.04641296 -0.06375572 -0.0038346467 1.1119196e-37 0.03589592 0.020931764
-0.00253219 -0.0015801289 0.001983144 -0.0086337365 0.005830636 -0.019301184 0.006002339 -0.018164521
0.017794894 -0.027764019 0.02276767 -0.027340256 0.030712139 -0.026647773 0.023763439 -0.0025774103
0.019737078 -0.005014643 0.020285374 -0.008703367 0.022654897 -0.007010082 0.024109283 -0.0069301687
0.027390694 -0.0074371803 0.02523531 -0.014522438 0.019616269 -0.044929862 0.051162984 -0.07252583
0.007757131 -1.0431202e-37 -0.0060453927 -0.0019853015 0.0040645013 -9.698322e-05 0.003436586 -0.0019185252
0.0034113252 -0.008317275 0.00013219658 -0.013663509 -0.00019625617 -0.01634199 0.0019136858 -0.010815797
0.001698408 -0.010618724 -0.006581113 -0.006812398 -0.002194497 -0.006851635 -0.0015606615 -0.008014205
-0.0021737332 -0.008629632 -0.001674277 -0.008305195 0.00077785086 -0.01154029 0.0021772294 -0.017004183
0.007481445 -0.018281965 0.0155776 -0.022330115 -0.010561178 9.45977e-40 -0.0126785645 0.011787415
00000000: e1cc 003c 90c3 a701 ad98 203c 819e f73b
00000010: ade5 243b 93b5 cdbb aedd 113c 0512 5abc
00000020: 901b 4e3c 47a2 dbbc 52bc 103c 9c1d f0bc
00000030: 0e73 8c3c fa6a 1bbd 3267 b03c 2768 0bbd
00000040: 9750 d23c 8ceb 07bd 346b 873c 52f6 f8bb
00000050: ada6 9f3c 6cde 5abc 21ee ae3c 9a7d 95bc
00000060: 495f b73c d9cd 71bc 6d7d c93c 049b 6abc
00000070: 223f dc3c b771 acbc 4ec2 b93c 5e5a 0abd
00000080: c24f b63c 0a8d 47bd 257e 403d 22b9 81bd
00000090: 2e75 1cbb 027b b801 653b 35ba d6e3 c53c
000000a0: 9b39 1dbc 45e5 aeb8 1948 f2bb 0e59 143b
000000b0: e39f 02bc c6ae 423c d774 c3bb 25cc 3b3c
000000c0: 750a 68bc ae8d 763c 7c0c 88bc 02ba 463c
000000d0: d398 b3bc f9fb 253c 2b48 4abc 7b4c dbba
000000e0: 1d3a 22bc ea5b df39 504a 3cbc 5ae4 363b
000000f0: 7c76 3cbc 81aa 0b3b b888 34bc 23a6 033b
00000100: 89e0 52bc d01e 013b 54bf 63bc aeb7 e73b
00000110: 34d5 60bc ed51 a63c 17f3 0dbd a648 ec3c
00000120: ab57 f53b 8407 3b81 e858 74bb 93b3 b0bb
00000130: cf48 9b3b f0c3 2b3b 2eb6 113b 6362 823b
00000140: dd1b 0139 2b0f 303b 02f6 22bb 3d1a 22bb
00000150: c155 d2bb cb52 3cbb 5458 abbb 67b8 873a
00000160: 587d e5bb ee5b bd3a f2aa 57bc 0b80 6fbb
00000170: 6348 0cbc cc2f aaba c352 13bc e3a1 8aba
00000180: 4a22 28bc 5c12 4cbb 51d2 2bbc 1bef 6dbb
00000190: 09d0 fdbb 6c3d 91bb 806b b5bb 80c6 babb
000001a0: 7ca6 b239 b789 21bb 8602 cbba cf88 37bb
000001b0: 2e2d 5f3b 204a 9581 1b88 473b 5657 903b
000001c0: eafd e3ba c84c 6eba 8c8a debb 47bf a93b
000001d0: 6229 fbbb e588 3b3c 6153 eabb 578c 1e3c
000001e0: bfac 84bc 0b8d 5f3c 962f 89bc ed45 373c
000001f0: 539c b8bc e9f4 083c 45d5 8cbc e0df 54bb
00000200: b655 6dbc da44 40ba c11e 82bc 5326 113b
00000210: f4cb 87bc 839c dc3a 14aa 89bc e1fe 493b
00000220: 9284 9dbc f467 723b 1ad5 99bc 543e fb3b
00000230: 6301 61bc f970 aa3c 6086 0dbd 5fbe ab3c
00000240: 9e94 e13b 7cef 3001 afb8 ae3c d0a4 9c3c
00000250: 6f18 82bb 5ead babb 9672 c93a 850b 41bc
00000260: 2dcc ae3b 8270 c1bc ef4a 313b c627 c0bc
00000270: 4403 313c 2f21 04bd fe45 7b3c 454d 08bd
00000280: 0e25 a63c ad3f 09bd f743 8e3c d6e6 ecbb
00000290: b4ea 913c 45cc 38bc b445 993c c197 86bc
000002a0: 9b78 a83c 993e 5cbc db97 bc3c 25e6 53bc
000002b0: 1b7c ca3c bf28 92bc 669e a33c 3959 f7bc
000002c0: d0ab 963c 7882 54bd 841b 3e3d 5c92 82bd
000002d0: b24e 7bbb be58 1702 9a07 133d 1779 ab3c
000002e0: 19f3 25bb 541c cfba a3f7 013b 8474 0dbc
000002f0: eb0e bf3b 841d 9ebc 45af c43b c3cd 94bc
00000300: 99c6 913c 5e71 e3bc 4483 ba3c acf8 dfbc
00000310: 0698 fb3c 6e4c dabc 8bab c23c c5e9 28bb
00000320: a7af a13c e051 a4bb 832d a63c 9198 0ebc
00000330: c396 b93c d4b4 e5bb d580 c53c 7816 e3bb
00000340: 7362 e03c 97b3 f3bb 48ba ce3c 85ef 6dbc
00000350: 4cb2 a03c 6008 38bd 4790 513d 6c88 94bd
00000360: 882f fe3b 6ffb 0d82 6e18 c6bb d51b 02bb
00000370: 822f 853b 7863 cbb8 5838 613b 0677 fbba
00000380: 8a90 5f3b 2e45 08bc 409e 0a39 e9dc 5fbc
00000390: 1dca 4db9 a3df 85bc a4d4 fa3a be34 31bc
000003a0: 1e9d de3a 28fa 2dbc 61a6 d7bb 893a dfbb
000003b0: 8dd1 0fbb ae83 e0bb 1c8f ccba 034e 03bc
000003c0: 3175 0ebb 4d63 0dbc 6a73 dbba 8312 08bc
000003d0: b0e8 4b3a 7c13 3dbc d9af 0e3b 5b4c 8bbc
000003e0: e926 f53b 0fc4 95bc 3139 7f3c a5ed b6bc
000003f0: cb08 2dbc 004d 0a00 c1b9 4fbc 0020 413c

fno_skips.0.weight f4 [1, 32, 1]
0.93510807 1.000528 1.0106137 1.0086131 1.0109327 0.32273015 0.39784402 0.9852984
1.0047232 0.9799614 1.0103608 0.9993215 0.99872273 0.98160046 1.0080482 1.0008017
0.9887202 1.0103809 0.93897176 1.0120153 0.36341053 0.8152506 0.9939464 0.3388588
0.9869177 1.0090468 1.0081002 0.8987585 0.3753631 0.97583455 0.9871432 0.9282333
00000000: 3e63 6f3f 4d11 803f ca5b 813f 3c1a 813f
00000010: 3e66 813f e33c a53e 36b2 cb3e 843c 7c3f
00000020: c59a 803f c0de 7a3f 8153 813f 89d3 7f3f
00000030: 4bac 7f3f 2b4a 7b3f b907 813f 451a 803f
00000040: c41c 7d3f 2954 813f 7460 703f b889 813f
00000050: f210 ba3e 43b4 503f 4573 7e3f e77e ad3e
00000060: a3a6 7c3f 7228 813f 6d09 813f 0915 663f
00000070: 982f c03e 4bd0 793f 6bb5 7c3f b3a0 6d3f

fno_skips.1.weight f4 [1, 32, 1]
0.9542423 0.99873894 1.0105985 1.0084403 1.0077289 0.3161631 0.31771418 0.98499626
1.0032105 0.69473195 1.0100039 0.9981337 0.9970696 0.7521675 1.0079987 0.99152046
0.8091061 1.0103251 0.95428896 1.0119163 0.32558876 0.4997685 0.99257094 0.31671453
0.8489169 1.0088612 1.0075287 0.5884304 0.3226184 0.96434474 0.99427134 0.92790097
00000000: 3949 743f 5bad 7f3f 4b5b 813f 9214 813f
00000010: 43fd 803f 21e0 a13e 6fab a23e b728 7c3f
00000020: 3469 803f f4d9 313f cf47 813f b185 7f3f
00000030: f43f 7f3f 0d8e 403f 1a06 813f 49d4 7d3f
00000040: 9421 4f3f 5552 813f 484c 743f 7986 813f
00000050: 92b3 a63e a8e1 ff3e 2119 7e3f 6828 a23e
00000060: 9e52 593f 5d22 813f b3f6 803f 60a3 163f
00000070: 3d2e a53e 4cdf 763f 9188 7e3f eb8a 6d3f

fno_skips.2.weight f4 [1, 32, 1]
1.0061675 0.9973721 1.0107062 1.0084145 1.0075802 0.99052286 1.0073601 0.98519987
1.0024862 0.98750484 1.0099586 0.99676466 0.9955846 0.9951899 1.0081887 0.99917275
0.98941296 1.0104517 1.0012441 1.0119417 0.9926665 1.00518 0.99163365 0.9896433
0.9435945 1.0088655 1.007509 1.0064629 0.9937256 0.9980569 0.999821 0.999882
00000000: 19ca 803f c753 7f3f d25e 813f ba13 813f
00000010: 63f8 803f e892 7d3f 2df1 803f 0f36 7c3f
00000020: 7851 803f 1ecd 7c3f 5346 813f f82b 7f3f
00000030: a2de 7e3f c4c4 7e3f 540c 813f c9c9 7f3f
00000040: 2b4a 7d3f 7b56 813f c428 803f 4e87 813f
00000050: 641f 7e3f bda9 803f b4db 7d3f 4359 7d3f
00000060: 698f 713f 8122 813f 0ef6 803f c7d3 803f
00000070: cd64 7e3f a880 7f3f 45f4 7f3f 44f8 7f3f

fno_skips.3.weight f4 [1, 32, 1]
1.0066082 0.99513614 1.0108517 1.0083865 1.0078408 0.98260415 1.0076226 0.9875669
1.0019678 1.0028305 1.0099564 0.99385196 0.99366415 1.0068071 1.008607 1.0018189
1.0080698 1.0106864 1.0002226 1.0119863 1.0045086 1.006434 0.9914147 1.0011144
0.9807595 1.0088724 1.0077217 1.0065608 1.0054195 1.004455 0.98258775 1.0019201
00000000: 8ad8 803f 3ec1 7e3f 9763 813f cf12 813f
00000010: ed00 813f f28b 7b3f c7f9 803f 2fd1 7c3f
00000020: 7b40 803f c05c 803f 4046 813f 156d 7e3f
00000030: c660 7e3f 0edf 803f 091a 813f 9a3b 803f
00000040: 6e08 813f 2c5e 813f 4b07 803f c488 813f
00000050: bd93 803f d4d2 803f 5bcd 7d3f 8424 803f
00000060: 0e13 7b3f bb22 813f 06fd 803f fcd6 803f
00000070: 96b1 803f fb91 803f df8a 7b3f eb3e 803f

lifting.fc.weight f4 [32, 1, 1]
-0.59215087 0.30667636 0.8425512 0.8794052 0.09042648 -0.6328809 -0.9345078 0.72539425
0.26329732 -0.21397942 0.22931458 0.99687594 0.4824174 -0.32967138 0.050306004 -0.14394195
-0.256122 0.82567436 -0.46631747 0.98526 -0.80948824 -0.42436787 0.7364829 -0.9024448
-0.19381031 0.86842024 0.09035661 -0.41579163 -0.64001614 -0.05349382 0.3480788 -0.4172923
00000000: 3397 17bf af04 9d3e 6fb1 573f b320 613f
00000010: 8531 b93d 7c04 22bf e73b 6fbf 70b3 393f
00000020: e8ce 863e 6c1d 5bbe 71d1 6a3e 4333 7f3f
00000030: 6aff f63e b0ca a8be ab0d 4e3d 8565 13be
00000040: 6c22 83be 655f 533f 2ac1 eebe 003a 7c3f
00000050: 9f3a 4fbf bf46 d9be 258a 3c3f 9f06 67bf
00000060: 3676 46be ca50 5e3f e30c b93d a4e2 d4be
00000070: 19d8 23bf 561c 5bbd 6237 b23e 56a7 d5be

lifting.fc.bias f4 [32]
-0.52233565 -0.50690377 0.7443058 -0.5161954 -0.46396634 -0.9826977 -0.96467566 0.23193055
-0.7721085 0.04333334 0.53793883 0.5736024 -0.96678835 0.8295339 0.9229116 -0.0034949325
0.8575145 0.3082807 -0.30072987 -0.26940364 0.95207417 0.14586653 -0.5079725 -0.13843326
0.82740647 -0.39730158 0.2798659 0.8352072 0.05875848 -0.86055636 0.76664126 -0.24369185
00000000: cab7 05bf 72c4 01bf d38a 3e3f 6225 04bf
00000010: ff8c edbe 1492 7bbf fcf4 76bf 347f 6d3e
00000020: e7a8 45bf 4d7e 313d 5cb6 093f 9bd7 123f
00000030: 717f 77bf 555c 543f ef43 6c3f 3d0b 65bb
00000040: 1286 5b3f f8d6 9d3e 44f9 99be 46ef 89be
00000050: 22bb 733f 095e 153e 7c0a 02bf 73c1 0dbe
00000060: e9d0 533f 1d6b cbbe 954a 8f3e 24d0 553f
00000070: bbac 703d 6c4d 5cbf 9a42 443f 5b8a 79be

projection.fc1.weight f4 [64, 32, 1]
0.10676864 -0.17268714 -0.015808772 -0.15366404 -0.064159594 -0.028773103 -0.14614373 -0.0029848185
0.14353624 -0.104465514 0.0311962 0.15896955 0.069712445 0.12481541 -0.10575245 -0.023594324
-0.122598864 0.046121214 -0.059121493 -0.14981228 -0.02878646 -0.013538726 0.0107911965 0.02498806
0.11656373 0.04839389 0.043582134 -0.16125242 0.10520223 -0.0037935278 -0.017729137 0.09781643
0.07896002 -0.09577027 -0.04680888 0.1871424 -0.012721171 -0.02151276 0.16761735 0.04569149
-0.08026555 0.14138074 -0.055387035 0.060799375 -0.01011027 -0.016975017 -0.037219986 -0.05950624
-0.17228152 0.0820841 0.046558768 0.14783658 0.086358584 -0.08179918 0.1615823 0.07385419
0.13372947 -0.15494727 0.04354709 0.1792577 -0.07867569 -0.12858036 -0.044969812 0.16248608
-0.048269875 -0.107916184 -0.09186228 -0.15481502 -0.1253688 -0.102058336 -0.056572795 0.12346371
-0.04848971 0.049125303 0.17066987 0.1370076 -0.12642506 -0.035898626 0.11928121 -0.010860855
0.012088962 -0.06932314 -0.14979735 0.18106844 -0.034707278 0.024121186 0.008048591 0.16452354
-0.13018599 0.07111489 -0.050207477 -0.12261069 -0.052286997 0.13798748 0.09231942 -0.08849248
0.16764079 -0.14886157 -0.06180533 0.017199347 0.08238303 0.07646212 0.09168147 0.06756718
0.08479211 0.120324686 0.07038084 -0.12869206 -0.014480823 -0.13294718 0.15138495 -0.16917163
-0.02237993 0.01545754 0.053206176 0.14019509 0.06884723 0.072130024 0.1100135 0.016532468
0.090668984 0.0929517 -0.06996862 -0.058041345 0.1595308 -0.036617618 -0.14292528 0.1718797
-0.04319072 -0.026416754 0.1567968 0.10678197 0.038937807 -0.10196168 -0.026826492 -0.044101026
-0.1511103 -0.11814681 -0.14722037 -0.13701887 0.0017425995 0.0493371 0.15087877 0.11713183
0.1232119 0.15204908 0.019525448 -0.13929327 -0.1068048 0.12634113 -0.13378945 -0.06454884
0.07429678 0.13480127 -0.084892906 -0.13587067 0.04614337 0.044964932 0.09035965 0.13494022
-0.12225281 0.09709556 0.12043858 -0.15945013 0.0692321 0.10962304 -0.1824419 0.12481772
0.006841837 0.15382643 -0.10138863 0.07761188 -0.11582767 -0.088136815 0.15735197 0.014503918
0.15697822 0.14305937 -0.1510247 -0.16062088 -0.14872836 0.019334301 0.14846788 0.027784811
0.18136497 -0.07050078 0.064213045 0.11494089 -0.08843603 -0.065252826 -0.14774987 0.024333244
0.024618434 0.16659641 -0.12214222 0.05108743 -0.01899998 -0.0095047755 0.098144084 -0.14435804
0.113423586 -0.095039934 0.1360915 0.08852053 0.15281081 0.18181136 -0.09719884 -0.071776524
0.10924357 0.004531004 -0.0485926 0.14708118 -0.05903556 0.14244238 0.12363363 -0.041487224
-0.089656934 -0.1413171 0.12803088 0.012635638 -0.15523961 -0.1654955 0.06582958 -0.1220532
-0.10860105 -0.15153338 -0.14149539 0.12100603 0.06637889 -0.07340031 0.018321814 0.013000327
-0.11330339 0.120723 -0.012674956 -0.134556 -0.097818494 -0.08523543 0.072014965 0.07791893
-0.044564582 -0.0544415 -0.020349333 0.1385551 -0.0042910464 -0.013807604 -0.16875653 -0.074694976
-0.10402268 -0.09652951 0.1619887 -0.16751668 0.03609912 0.0882892 -0.12454472 0.09948783
00000000: 84a9 da3d e6d4 30be 6681 81bc 1b5a 1dbe
00000010: 1b66 83bd 92b5 ebbc b4a6 15be f29c 43bb
00000020: 2afb 123e 04f2 d5bd 2c8f ff3c eac8 223e
00000030: 66c5 8e3d 399f ff3d be94 d8bd e248 c1bc
00000040: 1d15 fbbd 99e9 3c3d 6129 72bd 6468 19be
00000050: 95d1 ebbc 88d1 5dbc 8fcd 303c c3b3 cc3c
00000060: f7b8 ee3d ac38 463d 2e83 323d 5b1f 25be
00000070: 4474 d73d d69c 78bb b23c 91bc fb53 c83d
00000080: cab5 a13d 3423 c4bd abba 3fbd 42a2 3f3e
00000090: 756c 50bc 873b b0bc e2a3 2b3e 0027 3b3d
000000a0: 4462 a4bd 1dc6 103e 84dd 62bd c408 793d
000000b0: 8ca5 25bc 310f 8bbc fc73 18bd d1bc 73bd
000000c0: 916a 30be b51b a83d 68b4 3e3d 7962 173e
000000d0: c5dc b03d 5486 a7bd d575 253e de40 973d
000000e0: 61f0 083e 7faa 1ebe 6f5e 323d 558f 373e
000000f0: b820 a1bd 92aa 03be 4432 38bd c062 263e
00000100: a2b6 45bd 2903 ddbd 4b22 bcbd d487 1ebe
00000110: ae60 00be f603 d1bd e0b8 67bd 8bda fc3d
00000120: 259d 46bd 9d37 493d 15c4 2e3e b84b 0c3e
00000130: 9275 01be 700a 13bd b549 f43d baf1 31bc
00000140: c810 463c 4af9 8dbd 7a64 19be 016a 393e
00000150: 3829 0ebd cb99 c53c 3dde 033c dc78 283e
00000160: 7a4f 05be afa4 913d 5ba6 4dbd 501b fbbd
00000170: e42a 56bd 974c 0d3e f711 bd3d 8c3b b5bd
00000180: 07aa 2b3e 2b6f 18be 9627 7dbd a5e5 8c3c
00000190: 6fb8 a83d 2c98 9c3d 7fc3 bb3d a960 8a3d
000001a0: 7ca7 ad3d ca6c f63d d423 903d dac7 03be
000001b0: f940 6dbc 4e23 08be a804 1b3e 543b 2dbe
000001c0: 1d56 b7bc 9f41 7d3c b8ee 593d 4d8f 0f3e
000001d0: c7ff 8c3d e8b8 933d c24e e13d 196f 873c
000001e0: a9b0 b93d 765d be3d b54b 8fbd c3bc 6dbd
000001f0: 0b5c 233e 5bfc 15bd 015b 12be 3b01 303e
00000200: c1e8 30bd f367 d8bc 578f 203e 81b0 da3d
00000210: 407d 1f3d 49d1 d0bd 3bc3 dbbc 47a3 34bd
00000220: a9bc 1abe f4f6 f1bd f0c0 16be ad4e 0cbe
00000230: f067 e43a b315 4a3d f77f 1a3e d0e2 ef3d
00000240: 8556 fc3d c1b2 1b3e d5f3 9f3c e5a2 0ebe
00000250: 7abc dabd 925f 013e 1a00 09be 2f32 84bd
00000260: e928 983d 5809 0a3e 55dc adbd ae21 0bbe
00000270: d500 3d3d 262d 383d 7b0e b93d c52d 0a3e
00000280: ae5f fabd 09da c63d 81a8 f63d e546 23be
00000290: 8fc9 8d3d 0b82 e03d 0dd2 3abe 6fa0 ff3d
000002a0: 7d31 e03b ad84 1d3e d8a4 cfbd faf2 9e3d
000002b0: 0f37 edbd 1381 b4bd e020 213e d7a1 6d3c
000002c0: e6be 203e 287e 123e 38a6 1abe cd79 24be
000002d0: 3f4c 18be f862 9e3c f707 183e f99c e33c
000002e0: bdb7 393e b762 90bd 2182 833d 2166 eb3d
000002f0: f31d b5bd 46a3 85bd be4b 17be 8356 c73c
00000300: 99ac c93c 4098 2a3e b325 fabd 0e41 513d
00000310: d9a5 9bbc ebb9 1bbc c4ff c83d 98d2 13be
00000320: a04a e83d 4ca4 c2bd 925b 0b3e 404a b53d
00000330: 707a 1c3e c22c 3a3e 2f10 c7bd 92ff 92bd
00000340: 18bb df3d d178 943b 0909 47bd 739c 163e
00000350: 45cf 71bd 6adc 113e a133 fd3d 82ee 29bd
00000360: 0e9e b7bd 6eb5 10be 871a 033e b505 4f3c
00000370: 22f7 1ebe a777 29be a9d1 863d 07f7 f9bd
00000380: 3a6a debd 912b 1bbe 2be4 10be 02d2 f73d
00000390: a8f1 873d e752 96bd a117 963c 53ff 543c
000003a0: 9c0b e8bd 9f3d f73d 9eaa 4fbc 0cc9 09be
000003b0: 1055 c8bd ea8f aebd 957c 933d f693 9f3d
000003c0: 5a89 36bd 0dfe 5ebd a5b3 a6bc 63e1 0d3e
000003d0: e89b 8cbb 4a39 62bc 83ce 2cbe aef9 98bd
000003e0: d809 d5bd 44b1 c5bd 5ee0 253e 7e89 2bbe
000003f0: acdc 133d f8d0 b43d 4d11 ffbd 47c0 cb3d

projection.fc1.bias f4 [64]
-0.01610466 0.11027513 -0.15157962 -0.0075080357 0.011715542 -0.12541363 0.095344305 0.09342818
0.17067271 -0.14246066 0.055590365 0.10455041 -0.07432472 0.0060875313 0.07139279 0.15249269
-0.15357187 0.024176868 -0.12590326 0.087779306 -0.13986872 -0.11076372 -0.0014589923 0.05376973
0.17831123 0.051331352 -0.15522838 0.016856266 0.039318215 0.13396536 0.15665412 0.06292918
0.1273422 0.14860435 0.1074576 -0.07061081 -0.015389561 -0.048355065 0.12170747 0.044649098
0.13664761 -0.09818323 0.11412067 -0.16991165 0.14173043 -0.071137264 0.030501718 -0.1652998
-0.10668139 0.09019021 0.15735899 0.12624758 -0.1448752 0.1615568 -0.082892 -0.002953337
0.07983314 0.019211693 -0.048212238 0.13690516 -0.1270701 0.128474 0.057150494 0.04371279
00000000: eced 83bc edd7 e13d b037 1bbe f805 f6bb
00000010: 8bf2 3f3c 6e6c 00be e043 c33d 4657 bf3d
00000020: d4c4 2e3e 35e1 11be b9b2 633d 861e d63d
00000030: 8f37 98bd ea79 c73b 6236 923d 0b27 1c3e
00000040: f241 1dbe 910e c63c c9ec 00be a3c5 b33d
00000050: bf39 0fbe 17d8 e2bd a83b bfba a63d 5c3d
00000060: 3897 363e d340 523d 30f4 1ebe 2716 8a3c
00000070: 230c 213d 372e 093e f069 203e 04e1 803d
00000080: fe65 023e bd2b 183e bb12 dc3d 669c 90bd
00000090: 7f24 7cbc f60f 46bd c441 f93d f9e1 363d
000000a0: 5aed 0b3e 4a14 c9bd 19b8 e93d 52fd 2dbe
000000b0: c821 113e 6ab0 91bd bdde f93c 5a44 29be
000000c0: c67b dabd a5b5 b83d b722 213e 0c47 013e
000000d0: 2a5a 14be 256f 253e 48c3 a9bd c68c 41bb
000000e0: 8f7f a33d d761 9d3c 327a 45bd de30 0c3e
000000f0: aa1e 02be b08e 033e a316 6a3d 2f0c 333d

projection.fc2.weight f4 [1, 64, 1]
-0.11722185 0.057208516 0.08570779 0.052768786 -0.031177772 -0.031924285 -0.049818385 0.051546045
0.10893099 0.019321905 0.07407917 0.059268847 -0.08902289 -0.034277648 -0.039076276 0.030746983
0.017977487 -0.10580608 -0.009249497 -0.022104042 0.08979974 -0.114019476 -0.0024455532 -0.016428098
0.11359265 -0.0022824549 0.061040618 0.025052063 0.05306582 0.009610013 0.1057388 0.12171199
0.011384025 0.09748775 -0.013393481 0.116656795 0.08663033 0.011828409 0.112881064 0.058726873
-0.07835918 0.08040815 0.06918332 -0.06850707 -0.123427175 0.108117454 0.122333564 0.11773116
-0.036271196 -0.03393846 -0.053717382 0.023858072 0.11689108 -0.11373831 -0.11127675 0.08318919
-0.111003995 -0.047855165 -0.062482994 0.09060848 0.124590375 -0.11730001 -0.051171165 0.111455254
00000000: 0212 f0bd 7a53 6a3d 9187 af3d 1524 583d
00000010: 8768 ffbc 0ac3 02bd 5d0e 4cbd f221 533d
00000020: 3617 df3d f948 9e3c d2b6 973d e4c3 723d
00000030: a251 b6bd b866 0cbd 720e 20bd 19e1 fb3c
00000040: 8645 933c dcb0 d8bd 348b 17bc 8913 b5bc
00000050: ede8 b73d 0b83 e9bd 9345 20bb 3894 86bc
00000060: 43a3 e83d 3d95 15bb ba05 7a3d fc39 cd3c
00000070: 8c5b 593d 5173 1d3c 958d d83d 2344 f93d
00000080: 1084 3a3c a8a7 c73d 5570 5bbc c2e9 ee3d
00000090: 3e6b b13d f1cb 413c 302e e73d 978b 703d
000000a0: c77a a0bd 07ad a43d fcaf 8d3d 6f4d 8cbd
000000b0: 63c7 fcbd af6c dd3d 058a fa3d 091d f13d
000000c0: 1b91 14bd 0e03 0bbd c206 5cbd 0172 c33c
000000d0: 9764 ef3d a2ef e8bd 11e5 e3bd 185f aa3d
000000e0: 1056 e3bd c703 44bd 2bee 7fbd f090 b93d
000000f0: 3d29 ff3d fd3a f0bd db98 51bd a742 e43d
