neuraloperator/examples/para/fno_bc_para_202305121622_001002003004_modes36_epochs250.pth (torch, 606613 bytes, 15 tensors)

convs.bias f4 [4, 32, 1]
-0.0018929365 0.01970208 0.007733229 0.005333281 0.002945586 0.012049713 -0.016823709 0.006704176
-0.0058928225 -0.01914132 0.0059749694 -0.017670456 0.004063836 0.030950278 0.0064003244 -0.009209191
0.007823498 0.007103343 -0.01587989 0.0023706004 0.010646879 0.02486335 0.0069991737 0.007330899
0.006580756 -0.008126241 0.0052700946 -0.0032134214 0.0018862663 0.0062482236 0.007361575 0.0013970335
-0.0029534595 0.00584385 0.0069667716 0.0070296237 0.005659826 -0.0030235853 -0.012437943 0.006890562
-0.0073121265 -0.016341373 0.0050217067 -0.017181925 0.0052640704 0.007229069 0.00481568 -0.0049868515
0.00718161 0.0054491786 -0.013855052 0.0006534601 -0.0005694609 0.004953343 0.007402272 -0.0008503992
0.007408591 -0.008631762 0.007181419 -0.0019233926 0.0055738697 0.006992159 0.006054941 0.005076537
-0.004399051 0.009830033 0.0074486323 0.0062592784 0.0070106504 -0.0042638527 -0.008802293 0.008020936
-0.0066904393 -0.01421284 0.0051338305 -0.007142596 0.0049303914 0.008202408 0.0067090495 -0.002408538
0.008044762 0.008698657 -0.012199979 0.0023667102 -0.00020496942 0.008916742 0.007764575 0.0019084413
0.007094679 -0.009474214 0.009703055 -0.0020938315 0.005961179 0.0075769406 0.0064785425 -0.009122314
-0.0077896737 0.009921593 0.0072202994 0.0074416013 0.008582034 -0.014445505 -0.010218027 0.009721408
-0.0072477246 -0.009359495 0.00749455 -0.00731794 0.002792287 0.010029663 0.008461602 -0.012126804
0.008522641 0.008791793 -0.009077701 -0.00073408417 -0.007196209 0.007971058 0.007478636 -0.008786315
0.0043445327 -0.0048278035 0.01056158 -5.6430265e-05 0.0063599595 0.009168173 0.0025633078 -0.00941779
00000000: 691c f8ba 4266 a13c 0767 fd3b cec2 ae3b
00000010: bc0a 413b 296c 453c e0d1 89bc b4ae db3b
00000020: 9418 c1bb 42ce 9cbc adc9 c33b a2c1 90bc
00000030: ed29 853b 708b fd3c d0b9 d13b 26e2 16bc
00000040: 212e 003c 29c3 e83b 8b16 82bc 135c 1b3b
00000050: 3f70 2e3c 39ae cb3c 5359 e53b 0a38 f03b
00000060: 62a3 d73b ed23 05bc c2b0 ac3b 4498 52bb
00000070: 983c f73a e6bd cc3b 5e39 f13b aa1c b73a
00000080: d48e 41bb c47d bf3b 8449 e43b c258 e63b
00000090: 1076 b93b 5827 46bb 84c8 4bbc 39ca e13b
000000a0: 909a efbb 58de 85bc 218d a43b 1cc1 8cbc
000000b0: 397e ac3b d3e1 ec3b dacc 9d3b be68 a3bb
000000c0: b653 eb3b 068f b23b 4d00 63bc f74c 2b3a
000000d0: e047 15ba a74f a23b c28e f23b 53ed 5eba
000000e0: c4c3 f23b 3c6c 0dbc 1c52 eb3b 591a fcba
000000f0: 02a5 b63b 7b1e e53b 8768 c63b 1459 a63b
00000100: ea25 90bb 260e 213c a813 f43b a21a cd3b
00000110: 99b9 e53b cab7 8bbb 7e37 10bc 3e6a 033c
00000120: 793b dbbb f9dc 68bc b139 a83b 700c eabb
00000130: 1f8f a13b 6563 063c 96d7 db3b 90d8 1dbb
00000140: 2dce 033c d084 0e3c 6ce2 47bc cf1a 1b3b
00000150: 0fed 56b9 8717 123c fa6d fe3b aa24 fa3a
00000160: 7b7a e83b bc39 1bbc 90f9 1e3c aa38 09bb
00000170: fe55 c33b fc47 f83b f449 d43b c275 15bc
00000180: 8540 ffbb 2d8e 223c 4398 ec3b add8 f33b
00000190: a99b 0c3c d7ac 6cbc 8369 27bc 8a46 1f3c
000001a0: 527e edbb 9158 19bc d894 f53b 54cb efbb
000001b0: cdfe 363b 7553 243c 88a2 0a3c 81af 46bc
000001c0: 8ca2 0b3c 740b 103c a3ba 14bc 8e6f 40ba
000001d0: 2dce ebbb 0a99 023c 590f f53b 7af4 0fbc
000001e0: 955c 8e3b 8d32 9ebb 7a0a 2d3c 89af 6cb8
000001f0: 3567 d03b 1b36 163c 2bfd 273b 134d 1abc

convs.bias_bc f4 [4, 32, 1]
0.0017011188 0.0008626361 0.002889161 -0.00043771553 0.00078195665 0.0011010322 -0.0001362619 -0.0016981765
-0.000751382 -0.0009662786 -0.000692558 -0.0005680058 -0.00060818944 0.00024642094 0.0010714536 -0.00035859473
0.0003623401 -0.00014643118 0.00068366434 -0.0021104824 -0.0005803388 -0.0012400266 -0.00031285535 0.00022596
5.306538e-05 -0.0005121483 -0.00069618796 -0.0005255667 -0.0007286939 -0.0011843664 -0.00071808015 0.000750073
-0.0012047386 -0.0013466957 0.00013198351 0.000893798 2.9155432e-05 0.00048420194 -0.0003985936 -0.0015344168
-0.00037425582 -0.0011890166 -0.00040527334 -0.00050641736 0.0025476718 -0.0009035927 0.00047495955 -0.00018893319
-0.00038929083 0.0014030709 0.00068582554 0.0003504191 -0.0007208864 -0.0012333898 0.00059804623 -0.00086632144
-0.0011588854 -0.0015202406 0.0008637994 0.00042884098 -0.00021086565 0.00024226934 0.0012519282 -0.001499235
-0.0020620206 -0.000113272545 -0.0011622809 -0.0011032679 -0.0011942334 0.00091920356 -0.0021342966 -0.0011304029
-0.0009454144 7.984348e-06 5.3743614e-05 -0.00036906367 0.00031295273 0.00078001426 0.00035261124 -0.0023406744
-0.0009529757 -0.00027046917 -0.0007952486 8.865465e-05 -9.5803516e-05 0.00035144866 0.0005788753 0.0006751054
0.00013522773 2.5689757e-05 0.0020229707 0.0002272659 0.0008125469 0.00033195186 -0.0010137244 0.00015441023
0.00024788233 -0.0007936611 -0.0019125725 -0.00024082178 0.001197021 -0.0003674477 -4.0852177e-05 0.0013501724
0.000794752 -0.00038420048 5.7873117e-06 0.00072941266 0.00048781137 -0.0009831784 0.0001354328 2.1847969e-05
-7.420756e-05 0.00057559647 0.00047279216 0.00030863762 0.00023489248 -0.0013196943 -0.00094629894 0.0006149662
0.00097458495 -0.00036366316 -0.001590624 0.0010086753 -0.00047185342 -0.001039865 0.00018040837 -0.00012478323
00000000: 13f8 de3a 8722 623a 1458 3d3b 2f7d e5b9
00000010: 39fc 4c3a 8350 903a 86e1 0eb9 5995 deba
00000020: 64f8 44ba dc4d 7dba c88c 35ba 39e6 14ba
00000030: e76e 1fba 0f32 8139 0470 8c3a c501 bcb9
00000040: 77f8 bd39 528b 19b9 f037 333a 0550 0abb
00000050: e121 18ba 6388 a2ba bc06 a4b9 adef 6c39
00000060: 8592 5e38 b141 06ba 6280 36ba 2fc6 09ba
00000070: d205 3fba be3c 9bba 8b3d 3cba 8ca0 443a
00000080: 52e8 9dba 9c83 b0ba 0e65 0a39 c54d 6a3a
00000090: d092 f437 7cdc fd39 54fa d0b9 7c1e c9ba
000000a0: c437 c4b9 c7d8 9bba de7a d4b9 18c1 04ba
000000b0: d7f6 263b 14df 6cba fe03 f939 5e1c 46b9
000000c0: bb19 ccb9 3fe7 b73a f9c8 333a 75b8 b739
000000d0: def9 3cba b2a9 a1ba 34c6 1c3a d919 63ba
000000e0: bee5 97ba cf42 c7ba 9970 623a 10d6 e039
000000f0: d11b 5db9 ae09 7e39 bd17 a43a fb81 c4ba
00000100: f722 07bb bc8c edb8 ad57 98ba 879b 90ba
00000110: d387 9cba b5f6 703a 8edf 0bbb 072a 94ba
00000120: b0d5 77ba 83f4 0537 c46a 6138 e37e c1b9
00000130: ce13 a439 df79 4c3a aede b839 0066 19bb
00000140: 1ed1 79ba c2cd 8db9 3b78 50ba 1aec b938
00000150: 1fea c8b8 a442 b839 aabf 173a 8ef9 303a
00000160: ebcb 0d39 5580 d737 d193 043b 3a4e 6e39
00000170: 1901 553a d309 ae39 f2de 84ba 2ee9 2139
00000180: 34f6 8139 b20d 50ba 49af faba 1b85 7cb9
00000190: 5ce5 9c3a ffa5 c0b9 b158 2bb8 45f8 b03a
000001a0: e756 503a 846e c9b9 a130 c236 0e36 3f3a
000001b0: efc0 ff39 fedd 80ba f702 0e39 2846 b737
000001c0: e19f 9bb8 a0e3 163a 17e1 f739 a4d0 a139
000001d0: 784d 7639 98f9 acba 0c11 78ba af35 213a
000001e0: 4a7b 7f3a 0baa beb9 7c7c d0ba 8735 843a
000001f0: 1863 f7b9 144c 88ba 012c 3d39 3ed8 02b9

convs.weight.0.tensor f4 [32, 32, 18, 2]
0.0042205863 4.6744223e-38 0.07878231 -0.022283403 0.051772144 0.0023118954 0.035515483 -0.0063515874
0.0030805746 -0.032371115 0.019462882 0.002540117 0.008306115 0.0033218751 0.0023607528 -0.003774697
-0.0050019817 -0.04935983 0.0018218674 -0.014152242 0.0145188505 -0.02491522 0.021591675 -0.023682656
0.036021676 -0.02714729 0.043323547 -0.030895703 0.03540449 -0.05848971 0.042076677 -0.067017764
0.052911643 -0.055116355 0.04817974 -0.059172157 0.019876355 9.1307005e-38 -0.029904837 -0.012396487
-0.01943093 -0.018086301 -0.008511767 0.0022835848 -0.008862906 0.0072087846 -0.010917967 0.006781849
-0.014694781 0.005580878 -0.012925734 0.0039302567 -0.0055275103 0.0023256221 -0.00139292 0.0024100984
-0.0034517946 0.002211119 -0.00084348704 -0.0026428264 -0.000777118 -0.0014456826 -0.002868906 -0.0023524808
-0.00530163 -0.0008542092 -0.008303371 0.0005810384 -0.0064758803 0.00080134143 -0.011454609 0.00599314
0.012344423 1.6548909e-38 -0.017259816 -0.0085351085 -0.00063460553 0.00011566437 0.00094891223 0.000119761375
-0.00051998405 -0.00030590766 -0.0025546288 0.0011916361 -0.0023088402 0.0012921501 -0.0024927135 0.0012181698
-0.0003734213 -7.268424e-05 0.00025141687 3.700898e-05 -0.00083981344 0.0005412991 -0.00012300424 0.00023732659
0.00022570974 0.00012244924 0.00023323405 -3.211923e-05 0.00014648073 -2.3871042e-05 -0.00021336121 -0.00028514385
9.779459e-05 0.000457381 0.00075340166 0.0016587061 0.011327434 -1.2503484e-38 0.04695288 -0.019709969
0.027009144 -0.01318126 0.02589508 -0.010842485 0.024840243 0.013921004 0.023905309 0.013940418
0.027217278 -0.01738399 0.029432898 -0.016754115 0.03348269 -0.024976745 0.03335967 -0.015939336
0.029285002 -0.0112423925 0.03247142 0.017592557 0.025674455 0.014431085 0.025557322 -0.008756713
0.030956618 -0.0058352393 0.035803396 0.026686812 0.038360205 -0.012264558 0.039492007 -0.029029898
0.008898815 -3.6931737e-38 -0.07903432 0.01967109 -0.041635334 0.00043492924 -0.03207907 -0.010272883
-0.03460377 0.0049908007 -0.024993064 -0.03812399 -0.022858309 -0.041165 -0.021280942 -0.05179385
-0.044342414 0.0033868945 -0.024963874 -0.079217486 -0.047126815 -0.027294632 -0.032668967 -0.066018775
-0.045384757 -0.05975241 -0.0125205275 -0.07654421 -0.017836813 -0.09412077 -0.027782058 -0.096190296
-0.014131145 -0.08750028 0.02805411 -0.08065539 0.012536365 2.1483665e-38 -0.045475308 -0.008944913
-0.026537996 -0.0037990788 -0.005366913 -6.536301e-05 -0.002189374 -0.00088774855 -0.0059401835 -0.0003500208
-0.00655577 -0.0006563782 -0.0066036605 -0.0006068214 -0.0017502352 0.00018600338 -0.00065603893 0.0005611468
-0.0018682556 -0.00032703555 -0.00090923527 6.371372e-05 -0.0005796383 0.00022964606 -0.00069350953 -7.003133e-05
-0.001018372 7.9478246e-05 -0.0011099419 -5.401488e-05 -0.00074527494 -0.0013314205 -0.0014978353 -0.0022765456
-0.015539197 -3.5548408e-38 0.070381425 0.0070728944 0.03134501 0.028374944 0.035481572 -0.0035768482
0.03337132 -0.004501685 0.04170918 -0.006932865 0.042178266 0.03213289 0.059801005 0.032718852
0.084008105 0.031409435 0.08489043 0.03876288 0.07360602 0.04563014 0.081065305 0.04221356
0.08394155 0.04097832 0.069815375 0.03795099 0.07447103 0.037505247 0.06787202 0.008651888
0.07932615 0.04294481 0.05066908 0.014292502 0.012071496 -4.1879935e-38 0.054802738 -0.0024828608
00000000: d84c 8a3b f07f 7e01 9f58 a13d af8b b6bc
00000010: 070f 543d 2b83 173b af78 113d fa20 d0bb
00000020: 77e3 493b 9397 04bd 9f70 9f3c 1778 263b
00000030: 5f16 083c d1b3 593b dcb6 1a3b e860 77bb
00000040: aae7 a3bb 882d 4abd bacb ee3a cede 67bc
00000050: 79e0 6d3c 011b ccbc 06e1 b03c 2102 c2bc
00000060: 778b 133d fe63 debc 0874 313d fc18 fdbc
00000070: 4c04 113d e892 6fbd 9858 2c3d 9c40 89bd
00000080: e1b9 583d b0c1 61bd 1e58 453d 815e 72bd
00000090: bdd3 a23c b28f f801 fdfa f4bc a31a 4bbc
000000a0: 9d2d 9fbc b929 94bc f074 0bbc 32a8 153b
000000b0: b935 11bc ab37 ec3b 46e1 32bc 463a de3b
000000c0: 61c2 70bc ccdf b63b 75c6 53bc 62c9 803b
000000d0: 1e20 b5bb 7769 183b a492 b6ba bef2 1d3b
000000e0: 8137 62bb 6ce8 103b 751d 5dba 4533 2dbb
000000f0: 82b7 4bba 0f7d bdba 4104 3cbb 142c 1abb
00000100: 4cb9 adbb 02ed 5fba dd0a 08bc d450 183a
00000110: 9f33 d4bb 1d11 523a 1dac 3bbc 1a62 c43b
00000120: 4340 4a3c a033 b400 7564 8dbc d7d6 0bbc
00000130: a85b 26ba d690 f238 6cc0 783a 6628 fb38
00000140: 8a4f 08ba 3b62 a0b9 8f6b 27bb ac30 9c3a
00000150: e94f 17bb 5d5d a93a cb5c 23bb ffaa 9f3a
00000160: c2c7 c3b9 0e6e 98b8 9ad0 8339 173a 1b38
00000170: ed26 5cba f8e5 0d3a b3fa 00b9 dfda 7839
00000180: 7fac 6c39 b865 0039 4a90 7439 c3b7 06b8
00000190: 9f98 1939 ac3e c8b7 b7b9 5fb9 5c7f 95b9
000001a0: 1217 cd38 a3cc ef39 ee7f 453a f168 d93a
000001b0: b496 393c a026 8880 aa51 403d cd76 a1bc
000001c0: 4842 dd3c 36f6 57bc eb21 d43c aea4 31bc
000001d0: c47d cb3c ec14 643c 11d5 c33c 5a66 643c
000001e0: c5f6 de3c df68 8ebc 431d f13c ed3f 89bc
000001f0: 2525 093d 089c ccbc 26a4 083d 3693 82bc
00000200: 1ae7 ef3c 0332 38bc c000 053d 441e 903c
00000210: 3c53 d23c 5c70 6c3c 975d d13c 5178 0fbc
00000220: bc98 fd3c 8935 bfbb 95a6 123d 4d9e da3c
00000230: 971f 1d3d 49f1 48bc 5fc2 213d 1cd0 edbc
00000240: 56cc 113c 5413 4981 bfdc a1bd 4425 a13c
00000250: d089 2abd 3707 e439 5865 03bd 984f 28bc
00000260: afbc 0dbd df89 a33b 41be ccbc e727 1cbd
00000270: 5941 bbbc a29c 28bd 5f55 aebc ca25 54bd
00000280: 64a0 35bd a9f6 5d3b 0a81 ccbc c73c a2bd
00000290: 0c08 41bd fe98 dfbc e5cf 05bd da34 87bd
000002a0: 5ee5 39bd f1be 74bd e622 4dbc 36c3 9cbd
000002b0: 821e 92bc 64c2 c0bd 3397 e3bc 6bff c4bd
000002c0: 5186 67bc 5933 b3bd bcd1 e53c a72e a5bd
000002d0: 5365 4d3c b8ef e900 5144 3abd af8d 12bc
000002e0: 3666 d9bc f7f9 78bb eedc afbb 8013 89b8
000002f0: 9a7b 0fbb ccb7 68ba dfa5 c2bb ff82 b7b9
00000300: c9d1 d6bb cc10 2cba 8563 d8bb 1813 1fba
00000310: 2668 e5ba e709 4339 07fa 2bba ed19 133a
00000320: 41e0 f4ba f875 abb9 bf59 6eba 0b9e 8538
00000330: def2 17ba 25cd 7039 a3cc 35ba c9dd 92b8
00000340: e57a 85ba 8fad a638 787b 91ba 098e 62b8
00000350: 8e5e 43ba 0f83 aeba 0353 c4ba 1932 15bb
00000360: 1e98 7ebc 408b 4181 2324 903d bdc3 e73b
00000370: a063 003d 9272 e83c 2055 113d 8e69 6abb
00000380: 5eb0 083d df82 93bb 3fd7 2a3d 162d e3bb
00000390: 1ec3 2c3d c79d 033d e6f1 743d 3404 063d
000003a0: 710c ac3d 2ea7 003d 09db ad3d d3c5 1e3d
000003b0: c1be 963d abe6 3a3d 9105 a63d 20e8 2c3d
000003c0: 8ce9 ab3d e2d8 273d 5dfb 8e3d 7f72 1b3d
000003d0: 4484 983d 1a9f 193d 7c00 8b3d a6c0 0d3c
000003e0: c075 a23d e6e6 2f3d 628a 4f3d 192b 6a3c
000003f0: 86c7 453c 1c04 6481 d678 603d 7eb7 22bb

convs.weight.1.tensor f4 [32, 32, 18, 2]
0.0008053948 -3.287749e-38 -0.001145903 -0.008499455 -0.00076743995 -0.001692315 -0.0026233932 -0.004536934
-0.010301001 -0.021291446 -0.0038573123 -0.0012435312 -0.011082084 -0.002678022 -0.016803471 -0.003401877
-0.008045762 -0.04627616 -0.020647213 -0.01639607 -0.0063264575 -0.025422899 -0.0072427024 -0.026623627
0.0024134377 -0.028122006 0.011270595 -0.03155072 0.02744622 -0.048378397 0.055307694 -0.06025017
0.041199952 -0.06406592 0.058348034 -0.06318308 0.00975809 1.0057136e-37 0.025448613 -0.025285501
0.006566487 -0.013966394 0.012600823 -0.023358747 0.015307868 -0.007776395 0.012893591 -0.0017502666
0.014629742 0.0043743467 0.016136056 0.012476369 -0.001447321 0.029240873 0.009912256 0.02882247
0.012851471 0.022278775 0.010384084 0.0010703943 0.006030409 0.012247098 0.015267903 0.0016759975
0.021922624 0.0004802848 0.04953741 -0.008638732 0.056372676 -0.012788102 0.05771999 -0.067849144
0.011396394 -2.975728e-38 0.007272585 -0.022162324 0.013672205 -0.004811614 0.012915936 0.0002581406
0.010894658 0.010638122 0.011762946 0.0018506143 0.0155541 -0.0039682845 0.017011918 -0.007935669
0.027615217 0.0005489486 0.02085936 -0.0017117431 0.015441537 -0.0036285892 0.014024363 -0.002945173
0.007960218 0.002111735 0.0096683325 0.0005713583 0.010148594 0.011465684 0.036748786 0.022747269
0.040555578 0.0061269095 0.04384272 0.030041186 0.011621682 -8.9269113e-38 -0.0075478973 -0.010000729
0.006538727 -0.0046614124 0.007165127 -0.0015560641 -0.0006879185 0.010039918 0.004717105 -1.3800328e-05
0.014093021 -0.005679603 0.0154569 -0.008519269 0.029020868 -0.003464487 0.02374629 -0.0055997106
0.017351273 -0.0022728047 0.015600133 0.012857986 0.010514954 0.009521295 0.011820401 -0.0038778123
0.018877685 0.0049781497 0.020395147 0.024819257 0.034088776 0.0060324697 0.036837615 0.0070258193
0.009027622 6.8515883e-38 0.0054413076 -0.0025023583 0.0033079912 -0.0077893767 -0.0023050397 -0.016205272
-0.0052465186 -0.012670421 -0.012289339 -0.019124864 -0.015542819 -0.022265606 -0.015653076 -0.025210202
-0.022407858 -0.02723186 -0.016569836 -0.05056198 -0.016521383 -0.019840762 -0.011588026 -0.044266447
-0.012342756 -0.03538163 0.0004603918 -0.051319677 0.0235353 -0.06202287 0.028657928 -0.08521851
0.023495309 -0.08950245 0.049727816 -0.09410219 -0.004167662 -8.989761e-38 0.00048200856 -0.013123857
0.02035676 -0.01888272 0.01364865 0.0025743134 -0.00017724486 0.0013657892 -0.0020814738 0.005959675
0.00014796572 0.0067701265 -0.0029636319 0.005029267 -0.0006379709 0.00061279995 0.0005617362 0.0008696979
-0.0010002074 0.0015053031 0.000232148 0.0007014742 0.001206141 0.0005385934 0.0019199585 -0.000116646035
0.003596759 0.0002842693 0.0038410819 0.0011600065 0.0063043577 0.0013407832 2.6170726e-05 -0.00298554
-0.014045078 8.9169027e-38 -0.013433039 0.012285371 -0.010203353 0.020473354 -0.0021633774 0.005707849
-0.0065804985 0.010866074 0.0097336685 0.0010976256 0.018898018 0.020885509 0.029503042 0.028262192
0.030288989 0.06414706 0.040231004 0.04575386 0.035538584 0.05116287 0.04389565 0.04909664
0.04359767 0.05013174 0.036179285 0.04578063 0.031871278 0.06149779 0.041028377 0.054126862
0.048822585 0.06899632 0.045091726 0.04826614 0.012836778 1.9738668e-38 0.015948264 -0.011954263
00000000: 2121 533a 8800 3381 2032 96ba 4c41 0bbc
00000010: 062e 49ba abd0 ddba 3ced 2bbb 90aa 94bb
00000020: 88c5 28bc 666b aebc f6ca 7cbb fcfd a2ba
00000030: a191 35bc c181 2fbb 6fa7 89bc 06f2 5ebb
00000040: 5fd2 03bc 128c 3dbd 5824 a9bc 0d51 86bc
00000050: 2c4e cfbb af43 d0bc 3154 edbb cb19 dabc
00000060: c42a 1e3b 1f60 e6bc 4da8 383c 543b 01bd
00000070: e5d6 e03c 6d28 46bd 528a 623d e2c8 76bd
00000080: 48c1 283d fe34 83bd 59fe 6e3d 2166 81bd
00000090: 65e0 1f3c 01e4 0802 9c79 d03c 8a23 cfbc
000000a0: af2b d73b 4dd3 64bc af73 4e3c d85a bfbc
000000b0: dacd 7a3c 21d1 febb a43f 533c 3469 e5ba
000000c0: 96b1 6f3c ae56 8f3b c32f 843c af69 4c3c
000000d0: 09b4 bdba 8e8a ef3c 0467 223c 1a1d ec3c
000000e0: fa8e 523c fa81 b63c 0122 2a3c 794c 8c3a
000000f0: bd9a c53b 0da8 483c 3a26 7a3c 25ad db3a
00000100: 1397 b33c bcce fb39 bde7 4a3d 7889 0dbc
00000110: 09e7 663d 3085 51bc cc6b 6c3d 7ef4 8abd
00000120: f1b7 3a3c 9803 2281 dd4e ee3b c38d b5bc
00000130: 6201 603c beaa 9dbb 5d9d 533c 0b57 8739
00000140: 827f 323c 854b 2e3c 5fb9 403c 5090 f23a
00000150: a0d6 7e3c 6208 82bb 945c 8b3c 9c04 02bc
00000160: 4f39 e23c 51e7 0f3a 40e1 aa3c 915c e0ba
00000170: 80fe 7c3c a0cd 6dbb 71c6 653c ce03 41bb
00000180: 936b 023c 0965 0a3b ed67 1e3c 35c7 153a
00000190: 4a46 263c 90da 3b3c e585 163d 7b58 ba3c
000001a0: 9b1d 263d 3ec4 c83b 6d94 333d ef18 f63c
000001b0: de68 3e3c 7e03 f381 5a54 f7bb 19da 23bc
000001c0: d142 d63b c3be 98bb 71c9 ea3b d9f4 cbba
000001d0: 6e55 34ba 787e 243c f291 9a3b f587 67b7
000001e0: 6ae6 663c f71b babb f03e 7d3c 6794 0bbc
000001f0: 2cbd ed3c 720c 63bb 9487 c23c c77d b7bb
00000200: 4224 8e3c 56f3 14bb b397 7f3c 4daa 523c
00000210: ea46 2c3c 35ff 1b3c 5baa 413c e522 7ebb
00000220: 60a5 9a3c bf1f a33b b913 a73c c151 cb3c
00000230: aca0 0b3d 06ac c53b 0ae3 163d d838 e63b
00000240: 97e8 133c 9a84 ba01 ff4c b23b 9bfe 23bb
00000250: e2ca 583b 073e ffbb 2610 17bb ebc0 84bc
00000260: fdea abbb 9997 4fbc 3959 49bc bfab 9cbc
00000270: 4fa7 7ebc 5c66 b6bc e13a 80bc a085 cebc
00000280: af90 b7bc 5a15 dfbc 77bd 87bc 141a 4fbd
00000290: da57 87bc 1889 a2bc b4db 3dbc bc50 35bd
000002a0: 4539 4abc 54ec 10bd be60 f139 9534 52bd
000002b0: 1acd c03c b10b 7ebd 08c4 ea3c 0b87 aebd
000002c0: 3c79 c03c 0f4d b7bd 65af 4b3d a6b8 c0bd
000002d0: e290 88bb 7eb9 f481 18b6 fc39 7205 57bc
000002e0: 38c3 a63c efaf 9abc 969e 5f3c d0b5 283b
000002f0: ceda 39b9 4804 b33a 5669 08bb 6149 c33b
00000300: 3f27 1b39 f0d7 dd3b 7e39 42bb 8dcc a43b
00000310: 813d 27ba 4fa4 203a 7a41 133a 70fc 633a
00000320: 6419 83ba 974d c53a c16c 7339 23e3 373a
00000330: 6017 9e3a 6430 0d3a 1ea7 fb3a dd9f f4b8
00000340: 9ab7 6b3b fb09 9539 a9ba 7b3b 5c0b 983a
00000350: c994 ce3b 38bd af3a 3589 db37 0da9 43bb
00000360: 541d 66bc bebd f201 4016 5cbc 9548 493c
00000370: f72b 27bc bcb7 a73c 73c7 0dbb e808 bb3b
00000380: 39a1 d7bb 9e07 323c f779 1f3c 34de 8f3a
00000390: 04d0 9a3c 1618 ab3c 5db0 f13c 1d86 e73c
000003a0: 9d20 f83c 895f 833d 44c9 243d 6668 3b3d
000003b0: e890 113d 2890 513d edcb 333d 8f19 493d
000003c0: 7893 323d f056 4d3d bb30 143d 7884 3b3d
000003d0: 758b 023d 1be5 7b3d 5f0d 283d 21b4 5d3d
000003e0: 31fa 473d f14d 8d3d 1ab2 383d b7b2 453d
000003f0: 5951 523c 60ef d600 efa5 823c d0db 43bc

convs.weight.2.tensor f4 [32, 32, 18, 2]
-0.0020171844 3.0647743e-38 -0.01699606 -0.0123214135 -0.0030268931 0.007752962 -0.0010002536 -0.00034798033
-0.010786464 -0.026784707 0.0007630336 -0.0045193797 -0.0037394578 -0.004334994 -0.0014829072 -0.00077835674
0.020964075 -0.06686018 -0.0034012431 -0.022235211 0.006197641 -0.030883798 0.0049541653 -0.035303026
0.005357555 -0.035923194 0.012405529 -0.038093947 0.035115402 -0.0576214 0.053555835 -0.07578042
0.0401262 -0.08266305 0.06332302 -0.079677455 0.013241485 4.385767e-38 0.032882713 -0.016536048
0.015086853 -0.030096127 0.016279023 -0.033182517 0.018492492 0.0046335803 0.009129138 -0.016370658
0.00774101 -0.007842909 0.0056663565 0.002306303 -0.022363538 0.0050872136 -0.013729566 0.00913818
-0.010223546 0.01820453 -0.005092825 0.0055073937 -0.0033327036 0.009020136 0.008103769 0.00533192
0.010457707 0.004608931 0.028787741 0.002349511 0.0308732 -0.015200799 0.052160062 -0.058114145
0.011520424 -1.4639948e-38 0.0099351695 -0.021220379 0.011295984 -0.015648589 0.007445074 -0.0060956897
0.008079925 0.01075685 0.0016649321 -0.0032468548 0.002343775 -0.0007906037 -0.003156961 0.00096410315
0.010421946 0.011489508 -0.00017612873 0.0032550932 0.005352749 0.000119797194 0.003979932 0.00033415106
0.002156352 -0.00029602944 0.006238627 9.3942335e-06 0.0073810914 0.008623325 0.021291662 0.017953826
0.016641894 0.0039205505 0.019371536 0.01945299 0.01151172 -8.8318416e-38 -0.009587113 -0.00920768
-0.0003397908 0.00022745486 -0.006020561 0.0039111055 0.005180377 0.0053120805 -0.0022162122 0.0054975203
-0.0005494064 0.0043382365 -0.005810869 -0.00024336774 0.016577227 0.01830908 0.0052070194 0.002497208
0.0072810394 -3.0248424e-05 0.00463627 0.0036083907 0.0054997527 0.001523367 0.0070800222 -0.002097622
0.009245122 0.009855237 0.0059237373 0.016219217 0.009560117 0.010365793 0.005205193 0.017372407
0.010161555 -3.701578e-38 -0.001576319 0.00057290227 0.00046717274 0.004419488 -0.00040172413 0.0013119348
0.0013043641 -0.015365079 0.002228496 0.003605229 -0.0024540694 0.0032896854 -0.0034096036 0.0013896173
0.0076422514 -0.050338957 0.008523544 -0.02889036 -4.1180283e-05 -0.030671299 0.007485326 -0.04085233
0.0006896376 -0.040462878 0.009748798 -0.0472062 0.03391834 -0.048146732 0.03492514 -0.066864565
0.027414368 -0.07789055 0.053688236 -0.088639475 -0.009602654 -7.765376e-38 -0.0019928156 0.0034774921
0.006608205 -0.0014937753 0.0071652536 0.003994556 -0.0023691899 0.002104249 -7.636549e-06 0.004182851
1.1461864e-05 0.003417991 -0.0017770971 0.0011472104 0.00025279235 -0.0051268875 -0.0004439691 -0.00073379104
-0.0010032447 -0.0024072605 0.00074899517 -0.0022008813 0.0026098646 -0.0015711519 0.0050087217 -0.004011128
0.008634511 -0.0028558525 0.0114368675 -0.004152892 0.010905346 -0.010738518 0.03246742 -0.030895453
-0.011725977 4.014996e-38 -0.012331954 0.0040569846 -0.011758531 0.016545951 -0.017113008 0.0076071597
-0.012291132 0.0065666926 0.0025739262 0.012520673 0.0020870117 0.004442718 0.0013142477 0.0056985375
-0.031408202 0.05003116 -0.017603712 0.029219477 -0.0041327504 0.047755297 0.0019142289 0.050933007
0.011008079 0.05704802 0.013590365 0.057889525 -0.0056443284 0.062199045 -0.0052268174 0.059823696
0.0028763094 0.0712264 0.016245004 0.06332187 0.011589769 -1.2123507e-38 0.015724352 -0.022102095
00000000: bd32 04bb b8dc 2601 523b 8bbc c1df 49bc
00000010: d75e 46bb 8f0c fe3b f11a 83ba 2171 b6b9
00000020: b6b9 30bc 9a6b dbbc 5106 483a 4e17 94bb
00000030: b111 75bb 910c 8ebb 1c5e c2ba a30a 4cba
00000040: dabc ab3c fded 88bd 64e7 5ebb 9e26 b6bc
00000050: 9515 cb3b 0500 fdbc 8d56 a23b e899 10bd
00000060: 6e8e af3b 3324 13bd 8f40 4b3c 6608 1cbd
00000070: 2bd5 0f3d 6b04 6cbd 5d5d 5b3d c432 9bbd
00000080: 5f5b 243d 3f4b a9bd 80af 813d ef2d a3bd
00000090: d0f2 583c acc8 6e01 06b0 063d 9b76 87bc
000000a0: d92e 773c 278c f6bc 965b 853c 64ea 07bd
000000b0: 917d 973c 4ad5 973b 6192 153c c21b 86bc
000000c0: 4ca8 fd3b 8b7f 00bc d8ac b93b 5825 173b
000000d0: bd33 b7bc a4b2 a63b f9f1 60bc 4eb8 153c
000000e0: a980 27bc ab21 953c b6e1 a6bb 5e77 b43b
000000f0: 7d69 5abb 31c9 133c acc5 043c 63b7 ae3b
00000100: cd56 2b3c 8406 973b 45d4 eb3c 41fa 193b
00000110: cbe9 fc3c c60c 79bc caa5 553d 1909 6ebd
00000120: 29c0 3c3c 386a 9f80 1fc7 223c 5cd6 adbc
00000130: ca12 393c 7831 80bc cff5 f33b 5abe c7bb
00000140: a961 043c 803d 303c da39 da3a 2fc9 54bb
00000150: 059a 193b 8440 4fba 04e5 4ebb debb 7c3a
00000160: cfc0 2a3c 7d3e 3c3c 32af 38b9 6753 553b
00000170: 1d66 af3b a13b fb38 176a 823b ff30 af39
00000180: 9551 0d3b 6634 9bb9 656d cc3b ed9b 1d37
00000190: 15dd f13b d948 0d3c da6b ae3c e713 933c
000001a0: 9554 883c f677 803b 0eb1 9e3c e05b 9f3c
000001b0: a79b 3c3c f46c f081 4413 1dbc cfdb 16bc
000001c0: f325 b2b9 f380 6e39 2048 c5bb bb28 803b
000001d0: 27c0 a93b f610 ae3b df3d 11bb 8b24 b43b
000001e0: 0a06 10ba c427 8e3b 1a69 bebb 8830 7fb9
000001f0: f7cc 873c ecfc 953c a59f aa3b 33a8 233b
00000200: c995 ee3b ffbd fdb7 daeb 973b c07a 6c3b
00000210: 4537 b43b b7ab c73a 88ff e73b 4278 09bb
00000220: da78 173c dc77 213c e91b c23b 2ade 843c
00000230: 09a2 1c3c 49d5 293c 5390 aa3b 9450 8e3c
00000240: a77c 263c 7888 4981 7d9c ceba d22e 163a
00000250: ddee f439 5ad1 903b 809e d2b9 3af5 ab3a
00000260: 32f7 aa3a d0bd 7bbc f50b 123b b545 6c3b
00000270: 74d4 20bb c397 573b a873 5fbb d223 b63a
00000280: da6b fa3b 3930 4ebd 56a6 0b3c 7aab ecbc
00000290: feb8 2cb8 6042 fbbc 7747 f53b c654 27bd
000002a0: ccc8 343a 67bc 25bd 6cb9 1f3c 4a5b 41bd
000002b0: f5ed 0a3d 8235 45bd aa0d 0f3d 4af0 88bd
000002c0: 1994 e03c 1585 9fbd 32e8 5b3d 9d88 b5bd
000002d0: 7354 1dbc c664 d381 e699 02bb a3e6 633b
000002e0: a489 d83b c8ca c3ba 81ca ea3b c4e4 823b
000002f0: 6944 1bbb 71e7 093b ba1e 00b7 4c10 893b
00000300: 554c 4037 6000 603b 7ced e8ba fe5d 963a
00000310: 3789 8439 73ff a7bb 86c4 e8b9 e25b 40ba
00000320: 4e7f 83ba 21c3 1dbb 3758 443a a93c 10bb
00000330: 430a 2b3b 1cef cdba 3420 a43b c86f 83bb
00000340: c477 0d3c 4129 3bbb b361 3b3c fc14 88bb
00000350: 56ac 323c 9cf0 2fbc 8ffc 043d 7618 fdbc
00000360: 501e 40bc e098 5a01 f70b 4abc 74f0 843b
00000370: dba6 40bc 608b 873c 9430 8cbc 7b45 f93b
00000380: be60 49bc 692d d73b 51af 283b 8223 4d3c
00000390: 3fc6 083b 3894 913b d642 ac3a ccba ba3b
000003a0: e3a5 00bd 79ed 4c3d a935 90bc af5d ef3c
000003b0: 066c 87bb 0f9b 433d dde6 fa3a 219f 503d
000003c0: 3b5b 343c 2fab 693d 1faa 5e3c 911d 6d3d
000003d0: 0ff4 b8bb 6dc4 7e3d b945 abbb b109 753d
000003e0: 7780 3c3b 26df 913d 3e14 853c e6ae 813d
000003f0: 04e3 3d3c 6803 8480 5bd0 803c 740f b5bc

convs.weight.3.tensor f4 [32, 32, 18, 2]
-0.007628055 1.4600947e-38 -0.019896735 -0.0051315734 0.02460556 0.041632637 0.045121536 0.02452397
0.026706833 -0.031800073 0.05966995 0.042692695 0.06882695 0.042274136 0.05140434 0.034595035
0.05803741 -0.09145978 0.06264463 -0.009025384 0.061909344 -0.021596463 0.06262695 -0.032595236
0.07086416 -0.045938198 0.08475936 -0.04933182 0.082997456 -0.07525039 0.08761549 -0.10303062
0.058107235 -0.11596102 0.06624224 -0.13071728 0.013790754 3.2692136e-38 0.018372906 -0.0013085003
0.052274078 -2.3615246e-05 0.0471698 -0.014914233 0.033178266 -0.0029475936 0.02471767 0.0010691064
0.018064598 -0.00097349763 0.008953363 0.000275781 -0.0042814002 -0.022129463 0.0032991986 -0.018778937
-0.013368696 0.00033078002 -0.011236889 -0.004465114 -0.01001855 0.0046108123 0.0038382988 0.009812189
0.00691029 0.003178441 0.017924815 -0.0054802704 0.01787677 -0.023367371 0.045933537 -0.054558594
0.01023148 -2.1408276e-38 0.021275226 -0.011501851 0.028394343 -0.0042219926 0.010945452 0.011800565
0.012124318 0.01603293 0.004440253 0.005581021 0.006857423 -0.004603179 0.005865411 -0.005116652
0.0060965917 0.0036079811 0.003271221 -0.0061023184 0.0028313487 -0.005729777 -0.00021332518 -0.005363905
-0.00418469 -0.0035101664 -0.002628038 -0.00508188 0.0049948012 -0.0006518316 0.0036768324 -0.00043854443
-0.0008202935 -0.014391928 -0.009399314 -0.016791219 0.01238749 -9.687124e-38 -0.0004118831 -0.0075738644
0.0034770553 -0.0032892115 -0.0076037394 0.0104458975 0.0074838055 0.0073614973 -0.00034353518 0.0024090686
0.0024405206 -0.009494185 0.0050492133 -0.008375525 0.007208681 0.016620116 0.00012379674 -0.0039264937
0.00051764894 -0.0074155065 9.1279195e-05 -0.0034609511 -0.0039306083 -0.0021319566 -0.005124743 -0.005992343
-0.00038612363 0.003563122 -0.008552941 0.0044774497 -0.010857239 -0.0012311857 -0.024249204 0.0023608906
0.00907935 -7.9124486e-38 -0.007908174 -0.0012384427 0.045726195 0.027201038 0.06738046 0.02320267
0.04552742 -0.024219098 0.068370834 0.038624287 0.070821755 0.025635272 0.05452021 0.020437628
0.055563323 -0.061045036 0.058501046 -0.020112658 0.04952696 -0.028788934 0.055135168 -0.03758621
0.061310276 -0.046563756 0.07485153 -0.049617827 0.072755255 -0.04915571 0.0661046 -0.0630896
0.037346236 -0.07614656 0.05978056 -0.0855044 -0.011076446 3.077719e-38 0.008558582 0.0032875948
-0.010967835 -0.0032223016 -0.024450358 -0.003621937 -0.02087512 0.015079839 -0.033985525 -0.006250671
-0.034544133 -0.008295062 -0.031316936 -0.004588953 -0.029739238 0.017774085 -0.035618525 0.0032999986
-0.032662544 0.018259507 -0.03725733 0.017755367 -0.040696844 0.028788246 -0.03699426 0.033190835
-0.037153292 0.020768292 -0.039012022 0.028627843 -0.030630948 0.04132194 -0.038091514 0.051440187
-0.0116595905 1.1396536e-38 0.0021488986 -0.004760592 -0.04185779 -0.015241381 -0.046913184 -0.021551728
-0.036256753 -0.0004901618 -0.03245847 -0.033834454 -0.036289338 -0.017909179 -0.028749552 -0.012004854
-0.02690198 0.025386581 -0.029188614 0.0076298853 -0.03018782 0.022041522 -0.030441433 0.026149636
-0.03360505 0.038065866 -0.033660907 0.04334132 -0.0403713 0.039741404 -0.038347982 0.04417112
-0.019856859 0.058823887 -0.016166387 0.06546609 0.011656404 1.9677246e-38 0.019638177 -0.02128195
00000000: c3f4 f9bb 80fd 9e00 7afe a2bc c226 a8bb
00000010: 9991 c93c fc86 2a3d 5cd1 383d 7ee6 c83c
00000020: 4ac8 da3c cb40 02bd 7a68 743d 89de 2e3d
00000030: 25f5 8c3d a527 2d3d 5b8d 523d 86b3 0d3d
00000040: a3b8 6d3d 444f bbbd d44b 803d 34df 13bc
00000050: a794 7d3d 11eb b0bc 8f42 803d 9582 05bd
00000060: 3b21 913d b129 3cbd 5196 ad3d 2a10 4abd
00000070: 92fa a93d e01c 9abd c06f b33d b801 d3bd
00000080: da01 6e3d f97c edbd 03aa 873d c0da 05be
00000090: 9df2 613c 30fe 3101 c782 963c fc81 abba
000000a0: 581d 563d 5b19 c6b7 1f35 413d d45a 74bc
000000b0: efe5 073d 6a2c 41bb b67c ca3c 4221 8c3a
000000c0: 35fc 933c 5232 7fba 20b1 123c b396 9039
000000d0: fd4a 8cbb d948 b5bc 5e37 583b 49d6 99bc
000000e0: 6008 5bbc 8b6c ad39 ee1a 38bc 1750 92bb
000000f0: d824 24bc 4c16 973b f88b 7b3b 4ec3 203c
00000100: b76f e23b 644d 503b 10d7 923c d793 b3bb
00000110: 4e72 923c ee6c bfbc ce24 3c3d d578 5fbd
00000120: f0a1 273c 901d e980 6249 ae3c 4272 3cbc
00000130: 419b e83c a458 8abb 8e54 333c 2857 413c
00000140: 13a5 463c 7e57 833c 8b7f 913b ffe0 b63b
00000150: 3cb4 e03b 44d6 96bb a232 c03b 97a9 a7bb
00000160: ebc5 c73b e173 6c3b fb61 563b f5f5 c7bb
00000170: 268e 393b dac0 bbbb 0bb0 5fb9 b2c3 afbb
00000180: b91f 89bb d20a 66bb 293b 2cbb e685 a6bb
00000190: 6eab a33b aedf 2aba 03f7 703b 70ec e5b9
000001a0: f708 57ba 1fcc 6bbc 95ff 19bc bd8d 89bc
000001b0: e6f4 4a3c b3da 0382 04f2 d7b9 2e2e f8bb
000001c0: 4fdf 633b d08f 57bb ca28 f9bb 4525 2b3c
000001d0: b63a f53b b738 f13b 831c b4b9 77e1 1d3b
000001e0: 24f1 1f3b 808d 1bbc df73 a53b 7f39 09bc
000001f0: cd36 ec3b e926 883c 6fcf 0139 d1a9 80bb
00000200: d5b2 073a c7fd f2bb 256d bf38 20d1 62bb
00000210: 55cc 80bb 4cb8 0bbb 76ed a7bb 6b5b c4bb
00000220: a370 cab9 4483 693b a221 0cbc 92b7 923b
00000230: 90e2 31bc bd5f a1ba 44a6 c6bc 2cb9 1a3b
00000240: 8ec1 143c b865 d781 4991 01bc 3e53 a2ba
00000250: 644b 3b3d b6d4 de3c c4fe 893d 8713 be3c
00000260: f67a 3a3d 2167 c6bc 0206 8c3d 8034 1e3d
00000270: ff0a 913d 1001 d23c 9550 5f3d d06c a73c
00000280: 5e96 633d 5c0a 7abd cb9e 6f3d 4dc3 a4bc
00000290: c8dc 4a3d c5d6 ebbc 6ad5 613d fff3 19bd
000002a0: 7c20 7b3d a3b9 3ebd c24b 993d 103c 4bbd
000002b0: b500 953d 7f57 49bd d961 873d 1f35 81bd
000002c0: 5ef8 183d baf2 9bbd 76dc 743d ee1c afbd
000002d0: fb79 35bc 2491 2701 4b39 0c3c b074 573b
000002e0: 6fb2 33bc 402d 53bb 1e4c c8bc 055e 6dbb
000002f0: 4d02 abbc 6e11 773c 6834 0bbd 6ed2 ccbb
00000300: 267e 0dbd 03e8 07bc 3046 00bd ee5e 96bb
00000310: b49f f3bc f59a 913c bbe4 11bd ca44 583b
00000320: 29c9 05bd f694 953c 249b 18bd b473 913c
00000330: bcb1 26bd 54d5 eb3c 4b87 17bd 1df3 073d
00000340: 0d2e 18bd 4422 aa3c 12cb 1fbd f084 ea3c
00000350: c1ed fabc 3241 293d d905 1cbd f2b2 523d
00000360: de07 3fbc e818 7c00 89d4 0c3b bdfe 9bbb
00000370: 1373 2bbd fcb6 79bc 0a28 40bd 408d b0bc
00000380: f681 14bd 347e 00ba 2cf3 04bd ff95 0abd
00000390: 21a4 14bd 45b6 92bc 2e84 ebbc 02b0 44bc
000003a0: 8b61 dcbc 85f7 cf3c f61c efbc 1e04 fa3b
000003b0: 724c f7bc 6c90 b43c 5060 f9bc c337 d63c
000003c0: 73a5 09bd f4ea 1b3d 05e0 09bd ab86 313d
000003d0: 605c 25bd e2c7 223d c612 1dbd c7ec 343d
000003e0: daaa a2bc 51f1 703d 5f6f 84bc 1613 863d
000003f0: 80fa 3e3c 2844 d600 3ee0 a03c 7c57 aebc

fno_skips.0.weight f4 [1, 32, 1]
1.0036854 0.7717319 0.5468306 1.0118595 0.98656493 0.8284664 0.9848669 1.0118388
1.0001001 0.98610973 1.0111957 0.98542446 1.0104219 0.9445209 1.0094844 0.99291414
1.012997 1.012146 0.9888084 1.008663 1.0104781 0.9201515 1.0134884 0.76326096
1.0123714 0.99630404 1.0110891 1.0023115 1.0000933 1.0125202 1.0126227 0.6815213
00000000: c378 803f 3990 453f 17fd 0b3f 9d84 813f
00000010: 858f 7c3f 6016 543f 3d20 7c3f ef83 813f
00000020: 4803 803f b071 7c3f dc6e 813f c744 7c3f
00000030: 8155 813f 1fcc 713f c936 813f 9f2f 7e3f
00000040: e3a9 813f 008e 813f 8c22 7d3f df1b 813f
00000050: 5957 813f 0c8f 6b3f fdb9 813f 1265 433f
00000060: 6395 813f c80d 7f3f 5e6b 813f be4b 803f
00000070: 0f03 803f 439a 813f 9f9d 813f 2e78 2e3f

fno_skips.1.weight f4 [1, 32, 1]
1.0017478 0.7219279 0.40541846 1.0107808 0.9946318 0.29189432 0.98551744 1.0117127
0.99834436 0.9868522 1.010947 0.98266387 1.0099847 0.9841243 1.009682 1.0027798
1.0127739 1.0120776 0.9886712 1.0076331 0.9990008 0.951444 1.011014 0.25728014
1.0121114 0.99466264 1.0106578 1.001385 0.9972628 1.0122039 1.0114665 0.23223442
00000000: 4639 803f 44d0 383f 0293 cf3e 4461 813f
00000010: 31a0 7e3f 2c73 953e df4a 7c3f cd7f 813f
00000020: 7f93 7f3f 59a2 7c3f b666 813f dc8f 7b3f
00000030: 2e47 813f 92ef 7b3f 433d 813f 175b 803f
00000040: 93a2 813f c28b 813f 8e19 7d3f 1ffa 803f
00000050: 84be 7f3f d591 733f e868 813f 39ba 833e
00000060: de8c 813f 36a2 7e3f 3c5d 813f 622d 803f
00000070: 9d4c 7f3f e68f 813f bc77 813f dcce 6d3e

fno_skips.2.weight f4 [1, 32, 1]
0.9985116 1.0094986 1.0071558 1.0106261 1.0031003 0.9523642 0.9875519 1.0117369
0.996835 0.98831016 1.0106972 0.9875672 1.0094439 1.0099772 1.0098093 1.0030891
1.0126505 1.0120435 0.98858833 1.0064312 0.9759058 1.0061139 1.0106273 0.9835703
1.011985 0.9933015 1.0107336 1.0013615 1.0035224 1.0118456 1.0107627 0.96773064
00000000: 759e 7f3f 4037 813f 7bea 803f 325c 813f
00000010: 9765 803f 24ce 733f 34d0 7c3f 9880 813f
00000020: 9430 7f3f e501 7d3f 875e 813f 34d1 7c3f
00000030: 7535 813f ef46 813f 6e41 813f 3965 803f
00000040: 889e 813f a48a 813f 2014 7d3f bdd2 803f
00000050: f6d4 793f 57c8 803f 3c5c 813f 43cb 7b3f
00000060: b988 813f 0249 7e3f b85f 813f 9d2c 803f
00000070: 6c73 803f 2884 813f ac60 813f 32bd 773f

fno_skips.3.weight f4 [1, 32, 1]
0.9928516 1.0134928 1.0084542 1.0107372 1.0069822 1.0101091 0.9873268 1.0117911
0.995961 0.98840463 1.010166 0.9876214 1.0079637 1.0108757 1.009923 0.98732007
1.0123917 1.0119637 0.98970675 1.0043845 1.0047956 1.0072685 1.0104958 1.0068654
1.0118549 0.9938595 1.0116274 1.0019889 1.0062789 1.011111 1.0059729 1.0086331
00000000: 862b 7e3f 22ba 813f 0715 813f d65f 813f
00000010: cbe4 803f 414b 813f 73c1 7c3f 5f82 813f
00000020: 4df7 7e3f 1608 7d3f 1f4d 813f c2d4 7c3f
00000030: f404 813f 6064 813f 2845 813f 02c1 7c3f
00000040: 0d96 813f 0788 813f 6c5d 7d3f ac8f 803f
00000050: 249d 803f 2dee 803f ed57 813f f7e0 803f
00000060: 7684 813f 946d 7e3f 027d 813f 2c41 803f
00000070: bfcd 803f 166c 813f b8c3 803f e41a 813f

lifting.fc.weight f4 [32, 1, 1]
0.77149075 -0.755903 -0.8747362 0.11721871 -0.074147664 -0.5950043 0.73578876 0.31686094
0.5821105 0.5356115 0.8629898 0.8962311 0.6243015 -0.56796986 0.14139678 0.19608773
0.9279509 0.82079136 0.7054731 0.9537131 -0.09805013 -0.47361806 0.077967964 -0.5417679
0.82194775 0.6232203 0.33946723 0.7043872 -0.14693455 0.8694272 0.31495807 -0.5530734
00000000: 6b80 453f dc82 41bf b6ee 5fbf 5d10 f03d
00000010: bbda 97bd 3452 18bf a75c 3c3f 993b a23e
00000020: 3205 153f d61d 093f e6ec 5c3f 676f 653f
00000030: 39d2 1f3f 7966 11bf 51ca 103e 39cb 483e
00000040: 318e 6d3f 621f 523f e399 343f 8b26 743f
00000050: 82ce c8bd 117e f2be abad 9f3d 4db1 0abf
00000060: 2b6b 523f 5e8b 1f3f a6ce ad3e b852 343f
00000070: 0376 16be c892 5e3f 2f42 a13e 3896 0dbf

lifting.fc.bias f4 [32]
-0.09616434 0.48097697 -0.9628715 -0.15033339 0.30008882 0.175534 0.42564476 0.4274207
-0.83814645 -0.008856957 -0.021363428 0.2813468 0.3430544 0.10592406 0.67586297 0.3190547
-0.76716447 0.7994641 0.080226175 -0.28517556 0.7016852 0.20691618 -0.22459137 -0.47213686
-0.5208764 0.017633216 -0.44219956 0.8014824 0.35055992 -0.34744057 -0.4184593 -0.5533056
00000000: cff1 c4bd 9d42 f63e bf7e 76bf fff0 19be
00000010: 3ea5 993e 2fbf 333e 1cee d93e e3d6 da3e
00000020: c490 56bf c51c 11bc 5b02 afbc b00c 903e
00000030: d4a4 af3e b7ee d83d 5b05 2d3f 235b a33e
00000040: e464 44bf aea9 4c3f 9f4d a43d 8802 92be
00000050: a4a1 333f d6e1 533e 48fb 65be ecbb f1be
00000060: 2858 05bf 8973 903c fb67 e2be f32d 4d3f
00000070: 977c b33e bbe3 b1be 4c40 d6be 70a5 0dbf

projection.fc1.weight f4 [64, 32, 1]
0.097184956 0.038767423 0.07650431 -0.051801138 0.058836926 0.023787472 0.010615332 -0.07298858
-0.052020397 -0.11502301 -0.019361984 -0.025994407 0.042730764 -0.10769847 0.098881185 0.103715084
-0.052376334 -0.13796467 0.11532338 -0.085869834 0.044221353 -0.109450996 -0.11535607 0.05001932
0.011598511 -0.028574618 0.007812303 -0.047337294 0.12742329 -0.034587137 0.08821014 -0.09029485
0.07370682 -0.0012338194 -0.0320661 -0.09843007 0.011254545 0.0081642 -0.024179287 0.04249188
-0.067503974 -0.0924814 0.046708293 -0.041688442 -0.06308102 -0.019779565 0.037634972 -0.04384905
-0.056420937 -0.0045685186 -0.00056197995 -0.11377793 -0.0077908253 0.0048651425 -0.07093448 0.0010119695
-0.09085393 -0.11325598 -0.09471404 0.07587893 0.0003567163 -0.034462538 0.00026694915 -0.016765535
-0.002061502 0.037090506 0.041340973 0.119823 0.08902761 0.034571085 -0.014133274 0.10604288
-0.183024 0.13324949 -0.0411463 0.11038484 0.05009888 -0.07329616 -0.13362539 0.17512143
-0.13728787 0.122182526 -0.10164983 0.09647573 0.04487036 0.05023081 -0.02534695 0.10331792
0.0042393454 0.10799214 -0.15418042 -0.05450282 0.15418081 -0.006018791 0.008831544 0.18618348
0.06978024 0.0009850867 -0.10829844 -0.14518438 -0.07238919 -0.0634497 0.15633477 -0.010753032
0.12304067 0.1158773 -0.13298976 0.050402656 -0.045438945 -0.08422367 -0.07757043 -0.13105841
0.1646633 -0.17968713 -0.03270851 0.09437179 -0.06603772 0.04576263 0.047350142 -0.04793937
-0.010192274 0.0046877963 -0.16860111 -0.104251765 -0.08459816 0.1571064 0.1113864 0.014296875
0.04835623 -0.17740935 -0.044174608 -0.004060402 -0.16329645 0.0922565 0.16657929 0.1086221
0.087505214 0.002471254 -0.11907925 -0.0032265843 -0.06525308 0.13766989 -0.009109583 -0.024504326
-0.095610835 0.0773556 0.11231285 -0.07709824 -0.14229338 0.034397826 0.092748396 0.13067499
-0.015448369 0.101428084 0.07942642 0.07042041 0.039171744 -0.14743099 -0.016521495 -0.087776184
0.116425455 0.07121784 0.049950432 -0.06709053 -0.0063322736 0.1469246 -0.14292312 0.036125775
-0.14307286 0.072967775 0.096374966 -0.13485707 0.037870068 0.059796587 -0.07262899 0.049763452
-0.069744945 0.064535566 0.08482681 -0.1087424 -0.049984485 0.09373662 -0.12847356 -0.042199492
0.13080142 0.08553501 -0.055143185 0.071088366 -0.08442474 0.18660188 0.11448919 -0.17357218
-0.15051733 -0.04205146 0.097532146 -0.12174629 0.03450408 0.0015181175 -0.17543617 -0.10882998
0.06555647 -0.14164285 -0.0727557 0.069921926 -0.11821893 0.017629767 0.081806004 0.09052432
-0.12819266 0.03787758 -0.037678976 -0.02767359 -0.05266751 0.0026725715 -0.0013922468 0.014958271
-0.102406755 -0.13343035 0.11804143 0.04737279 0.084947236 0.16122745 0.12726986 0.022498993
-0.11244152 0.065813735 0.085465804 -0.020537762 0.16097316 0.06218588 0.09206109 0.07071773
-0.10964346 0.0019424178 -0.13175361 -0.09648615 -0.12881573 -0.08482388 0.12256307 -0.12751839
0.027124157 -0.059552643 -0.1127801 0.059555367 -0.0049190563 -0.11292224 0.14373906 -0.062829144
-0.11011124 -0.06601003 -0.17286806 0.059902094 -0.16692056 0.09152041 0.12994596 0.12874131
00000000: e808 c73d 97ca 1e3d 4bae 9c3d 6e2d 54bd
00000010: fdfe 703d f2dd c23c eeeb 2d3c 097b 95bd
00000020: 5713 55bd 2f91 ebbd 069d 9ebc 39f2 d4bc
00000030: 7406 2f3d 0491 dcbd 3882 ca3d 9368 d43d
00000040: 9188 56bd 9c46 0dbe aa2e ec3d 86dc afbd
00000050: 7321 353d d827 e0bd ce3f ecbd 0fe1 4c3d
00000060: ae07 3e3c 5115 eabc 59fe ff3b c0e4 41bd
00000070: 407b 023e 3eab 0dbd 85a7 b43d 82ec b8bd
00000080: 9af3 963d 1cb8 a1ba be57 03bd b495 c9bd
00000090: fc64 383c 23c3 053c a413 c6bc f70b 2e3d
000000a0: 863f 8abd e366 bdbd 3251 3f3d 80c1 2abd
000000b0: 9f30 81bd c108 a2bc 2127 1a3d 109b 33bd
000000c0: a419 67bd 83b3 95bb d651 13ba 6704 e9bd
000000d0: 2e4a ffbb c66b 9f3b 1946 91bd 10a4 843a
000000e0: a011 babd c0f2 e7bd 6ff9 c1bd 6a66 9b3d
000000f0: a705 bb39 9728 0dbd 4ff5 8b39 e057 89bc
00000100: 441a 07bb 37ec 173d 2755 293d c365 f53d
00000110: 1c54 b63d 699a 0d3d 3f8f 67bc 022d d93d
00000120: a56a 3bbe 8e72 083e 0689 28bd 7211 e23d
00000130: 7c34 4d3d 4c1c 96bd 18d5 08be 0853 333e
00000140: 3195 0cbe d53a fa3d c92d d0bd 1195 c53d
00000150: fcc9 373d d2be 4d3d 68a4 cfbc 5898 d33d
00000160: 35ea 8a3b fc2a dd3d 79e1 1dbe 593e 5fbd
00000170: 93e1 1d3e 4739 c5bb 2eb2 103c e2a6 3e3e
00000180: f1e8 8e3d 061e 813a 93cb ddbd 37ab 14be
00000190: c940 94bd ebf1 81bd 3916 203e 7c2d 30bc
000001a0: bffc fb3d 1451 ed3d 782e 08be 0473 4e3d
000001b0: 301e 3abd 767d acbd 3fdd 9ebd 2d34 06be
000001c0: 7f9d 283e e7ff 37be 5cf9 05bd ff45 c13d
000001d0: c93e 87bd 9871 3b3d 39f2 413d 135c 44bd
000001e0: 7ffd 26bc 169c 993b c5a5 2cbe f381 d5bd
000001f0: cd41 adbd 80e0 203e 8e1e e43d 713d 6a3c
00000200: 2f11 463d ccaa 35be 6ff0 34bd 1f0d 85bb
00000210: 2f37 27be faf0 bc3d c393 2a3e 4375 de3d
00000220: ef35 b33d c3f4 213b d2df f3bd 1a75 53bb
00000230: 68a3 85bd 56f9 0c3e 5c40 15bc 4cbd c8bc
00000240: 9dcf c3bd 9d6c 9e3d 4804 e63d afe5 9dbd
00000250: 5bb5 11be bce4 0c3d dff2 bd3d aacf 053e
00000260: 281b 7dbc 87b9 cf3d 52aa a23d 9338 903d
00000270: 8d72 203d 26f8 16be 1658 87bc 00c4 b3bd
00000280: 7870 ee3d a9da 913d d398 4c3d c366 89bd
00000290: f67e cfbb 6773 163e 705a 12be 9ff8 133d
000002a0: b181 12be 2170 953d 3d60 c53d f917 0abe
000002b0: a51d 1b3d 44ed 743d 82be 94bd c3d4 4b3d
000002c0: 70d6 8ebd 392b 843d aeb9 ad3d 56b4 debd
000002d0: 88bc 4cbd fcf8 bf3d 938e 03be 60d9 2cbd
000002e0: cff0 053e fb2c af3d d2dd 61bd c796 913d
000002f0: e1e6 acbd 9014 3f3e 4f79 ea3d e8bc 31be
00000300: 3721 1abe 273e 2cbd efbe c73d 1e56 f9bd
00000310: 2654 0d3d 92fb c63a 8aa5 33be 41e2 debd
00000320: 7842 863d d30a 11be f100 95bd 3a33 8f3d
00000330: c41c f2bd 4d6c 903c e889 a73d d164 b93d
00000340: f044 03be 8525 1b3d 4555 1abd bab3 e2bc
00000350: e3b9 57bd 4f26 2f3b 0d7c b6ba 8913 753c
00000360: a2ba d1bd f7a1 08be b5bf f13d f809 423d
00000370: d1f8 ad3d cf18 253e 0853 023e cf4f b83c
00000380: bd47 e6bd 5ac9 863d b208 af3d cf3e a8bc
00000390: 26d6 243e 9fb6 7e3d 868a bc3d 75d4 903d
000003a0: c08c e0bd ba98 fe3a 6bea 06be 889a c5bd
000003b0: 45e8 03be 24b8 adbd 5902 fb3d 2e94 02be
000003c0: 7b33 de3c 79ed 73bd 41f9 e6bd 54f0 733d
000003d0: 0930 a1bb c643 e7bd 5530 133e 91ac 80bd
000003e0: 0082 e1bd 4430 87bd 5304 31be e65b 753d
000003f0: 39ed 2abe 0d6f bb3d 8e10 053e c3d4 033e

projection.fc1.bias f4 [64]
0.061415754 0.09889857 0.10639047 0.16463652 -0.017431542 0.16459236 -0.07886229 0.14816804
-0.047440104 0.05932879 -0.033298478 -0.077385694 0.013870286 0.03615964 -0.07447704 0.07919566
0.03897869 -0.094777465 0.13937265 0.054486036 -0.1626146 0.04640028 -0.07150425 -0.023266038
0.07970308 -0.08157742 0.093215324 -0.13097645 0.0056363824 0.12416402 -0.026367959 -0.0012303545
0.06300766 0.18887815 -0.00076636043 0.10666442 0.10113047 0.152718 -0.020430446 -0.08384835
0.046013836 -0.082228094 0.10043885 -0.15541393 -0.07319369 0.14050923 0.055271063 -0.15111539
0.019542063 0.05654582 0.027600551 0.16275504 -0.066892184 0.081375815 -0.061649393 -0.16720222
-0.13662338 0.0014100007 0.06190454 0.069959775 0.119227655 -0.098993294 0.11618996 0.008110254
00000000: 168f 7b3d 558b ca3d 3fe3 d93d 7a96 283e
00000010: 98cc 8ebc e68a 283e 8d82 a1bd 5db9 173e
00000020: 8e50 42bd bf02 733d fc63 08bd 647c 9ebd
00000030: 3240 633c 211c 143d 6b87 98bd 5631 a23d
00000040: 1ea8 1f3d b01a c2bd b4b7 0e3e c02c 5f3d
00000050: 7184 26be 380e 3e3d d270 92bd 6b98 bebc
00000060: 5e3b a33d 1012 a7bd ade7 be3d b11e 06be
00000070: 67b1 b83b b549 fe3d 9e01 d8bc d943 a1ba
00000080: 290a 813d 4669 413e 94e5 48ba e072 da3d
00000090: 7e1d cf3d 1b62 1c3e c05d a7bc afb8 abbd
000000a0: 0179 3c3d 3467 a8bd e2b2 cd3d d424 1fbe
000000b0: 93e6 95bd a7e1 0f3e e963 623d febd 1abe
000000c0: ad16 a03c 979c 673d 8d1a e23c 42a9 263e
000000d0: c5fe 88bd 5da8 a63d 1384 7cbd 0f37 2bbe
000000e0: 00e7 0bbe c6cf b83a 9d8f 7d3d 1247 8f3d
000000f0: a12d f43d ffbc cabd 00f5 ed3d dfe0 043c

projection.fc2.weight f4 [1, 64, 1]
-0.01931068 0.07441315 -0.017818382 -0.10280826 -0.11267452 0.05377264 0.09701656 0.008833802
-0.03208295 -0.092391476 0.026877 0.12093812 -0.006476364 -0.061242122 0.012648133 0.1094499
0.069963194 0.06607658 0.00331948 0.089612916 -0.08427413 0.04098813 -0.08118309 -0.11419718
-0.08247534 -0.11070514 -0.025791641 -0.009097541 -0.11692229 0.12103591 0.06913089 0.0072992137
-0.0860678 -0.015393371 0.0055873706 0.088557474 0.087645814 0.12275817 0.030720634 -0.05930766
0.09391194 -0.02626691 -0.10072922 -0.09634123 -0.09544817 -0.06810471 0.047075566 -0.06801791
0.01895177 0.069106966 -0.107718796 0.04167792 -0.06737898 -0.022932667 -0.0371864 -0.113944665
0.06628796 0.039177336 0.1129359 -0.020719869 -0.026753547 0.003981327 0.01448651 -0.045745965
00000000: 6e31 9ebc ec65 983d dbf7 91bc 238d d2bd
00000010: e6c1 e6bd b340 5c3d 9eb0 c63d a7bb 103c
00000020: 6969 03bd be37 bdbd 282d dc3c 68ae f73d
00000030: ae37 d4bb 05d9 7abd 1d3a 4f3c 4527 e03d
00000040: dd48 8f3d 2853 873d a28b 593b fa86 b73d
00000050: ea97 acbd 2be3 273d 5243 a6bd 36e0 e9bd
00000060: d5e8 a8bd 60b9 e2bd fe48 d3bc da0d 15bc
00000070: f474 efbd ade1 f73d 7f94 8d3d 3e2e ef3b
00000080: 5144 b0bd 7a34 7cbc 4316 b73b 9f5d b53d
00000090: a67f b33d a368 fb3d d7a9 fb3c 97ec 72bd
000000a0: e754 c03d b42d d7bc 1f4b cebd 8d4e c5bd
000000b0: 557a c3bd 7b7a 8bbd 4fd2 403d f94c 8bbd
000000c0: be40 9b3c f487 8d3d ac9b dcbd 77b6 2a3d
000000d0: fefd 89bd 4add bbbc c450 18bd d25b e9bd
000000e0: fbc1 873d 6a78 203d f04a e73d b7bc a9bc
000000f0: 412a dbbc cb75 823b d458 6d3c 1f60 3bbd
