neuraloperator/examples/para/fno_para_202305141401_001_modes32_epochs1.pth (torch, 746247 bytes, 31 tensors)

convs.bias f4 [4, 32, 1]
00000000: a273 93bb 0882 9e3b a0b5 1cb9 9e3e 3d3b
00000010: 0677 04bb fc5c a4b8 c554 2e3b 75e5 8cbb
00000020: 2500 733b 046a 61bb 1c1d 9abb 57e1 76ba
00000030: 3462 0939 b94e 803b 4357 a53b 5d67 4c3b
00000040: b129 993b db2d 84bb 931e 01bb c327 8dbb
00000050: b3e4 713b 8f7a 8ebb 784e 49bb 5b2e 5c3b
00000060: c1e8 523b df2b 38bb 89b3 263a 4a02 71bb
00000070: aa23 1dbb f21a 463b 709f 4038 e65c 783b
00000080: 7fdb 763b 24e5 723b 065a ccba c958 503b
00000090: 3c41 443b fe27 28bb 8288 823b 5679 85bb
000000a0: 4d27 5d3b faec 793b b385 713b 1d1e 25bb
000000b0: eb23 60bb f698 853b 57c6 80bb 6ba0 77bb
000000c0: a006 5cbb 7450 9cbb 0b75 17bb 4152 7c3b
000000d0: ec96 973b 8353 ac3b 4f78 86bb 29f9 863b
000000e0: 66c5 6c3b 0975 8cbb 1104 1539 ff18 95bb
000000f0: a9db 773b 1a94 4c3b 0854 9839 d60d a839
00000100: 91cf af3b 042e 163b 444b 86ba 168d 7f3b
00000110: 0f90 373b 1452 49bb b3fd 9d3b 68f4 78bb
00000120: b3f4 553b 99eb a33b 8624 683b 9006 3dbb
00000130: 7232 0ebb 5961 033b 2976 54bb 46a0 27bb
00000140: d007 57bb 317c 98bb e774 65ba 6796 8a3b
00000150: 77d0 593b 9e24 863b c2b4 43bb 3e6c 6f3b
00000160: e5ad 653b ec86 2ebb ca60 963a c100 60bb
00000170: dac5 853b 2de1 9e3b 2c42 783a 8477 413b
00000180: 24ad be3b 554a 833b 72f4 22bb 760e 803b
00000190: 00e8 1937 c778 54bb 74d5 6b3b b822 87bb
000001a0: 153f 893b df36 473b 7716 263b 8b88 2ebb
000001b0: b547 46bb dcba 8a3a a9b7 5fbb 673e 12bb
000001c0: f2be 38bb a543 1ebb 9f49 b5ba c7af b03b
000001d0: f617 883b dddd 213b 6aa5 69bb cf38 423b
000001e0: 6bcc 8b3b 080a c0ba 5dcc d3ba d612 48bb
000001f0: 5ca9 6d3b 6df3 813b 1a8c 7d3a e95c 4c3b
-0.0044998685 0.0048372783 -0.0001494498 0.0028876434 -0.0020212545 -7.837449e-05 0.002660082 -0.0042998143
0.0037078944 -0.0034395466 -0.004703177 -0.00094177335 0.00013101922 0.0039156345 0.005045803 0.003118954
0.0046741595 -0.0040337867 -0.0019702062 -0.0043077185 0.0036909997 -0.004348106 -0.0030716937 0.0033596966
0.003218219 -0.002810232 0.000635915 -0.0036775046 -0.0023977556 0.0030228463 4.5924855e-05 0.0037897169
0.003766745 0.0037062848 -0.0015590794 0.0031791201 0.002994611 -0.0025658603 0.003983558 -0.0040733023
0.003374535 0.0038135634 0.0036853373 -0.002519495 -0.0034201096 0.0040770723 -0.003929894 -0.0037784826
-0.0033573285 -0.004770333 -0.0023110535 0.0038501176 0.0046261456 0.005258979 -0.0041036974 0.0041190577
0.00361284 -0.0042864126 0.00014211262 -0.004550099 0.0037820137 0.0031216205 0.00029054307 0.00032053766
0.00536532 0.002291561 -0.001024582 0.0038994006 0.002800945 -0.0030719088 0.004821503 -0.0037987474
0.0032647073 0.0050024507 0.003542216 -0.0028843023 -0.0021697548 0.0020047037 -0.0032419062 -0.0025577708
-0.0032811053 -0.0046534766 -0.00087530765 0.004229355 0.0033235827 0.0040937206 -0.0029862379 0.0036533023
0.0035046276 -0.0026630713 0.0011472937 -0.0034180137 0.0040824236 0.0048486204 0.00094703096 0.00295207
0.00581898 0.004006664 -0.002486494 0.003907974 9.173527e-06 -0.0032420622 0.0035985382 -0.004124012
0.004188428 0.0030397696 0.002534298 -0.002663168 -0.0030255143 0.0010584253 -0.003413657 -0.0022315027
-0.0028189984 -0.0024149206 -0.0013831145 0.005392048 0.004153247 0.0024698891 -0.0035651573 0.0029635911
0.004266312 -0.0014651427 -0.0016158927 -0.0030528805 0.0036264276 0.003965786 0.0009672061 0.0031183308

convs.bias_bc f4 [4, 32, 1]
00000000: 8c06 85ba c6eb cb3a 11e7 20b9 f45a 723a
00000010: cf53 163a 181e 8b38 d21c e93a 938a 523a
00000020: 6272 aaba aae2 9a3a da1e 233a 911d 24bb
00000030: 604d 2fba 0199 d4b9 f267 2e3b e640 72b9
00000040: 689c dbb9 2c90 153b b19c 2e39 7103 68ba
00000050: a23a abba 837b ae3a bcbf adba 313b 78ba
00000060: 55e9 01ba aa31 c7b9 0bd2 0b3a 040b 03ba
00000070: 6ea9 81ba 673f a93a fd56 24b9 4afa d2ba
00000080: 8aa7 1a39 b752 4638 5b49 eeb9 565c 823a
00000090: f1a7 7138 becd 5cba 4f67 8a3a 80e8 c8b9
000000a0: dc94 3f3a 1355 1a3a eec8 62b9 f743 c3ba
000000b0: 07c8 bab8 3ea1 8f3a fd98 a3b9 816b 3eba
000000c0: cb3f cab9 f337 663a 4d88 3d3a e5f7 82b9
000000d0: 5ac9 3db9 370c 09bb c8f6 8dba 6f2d b639
000000e0: c8d9 29ba 19c2 a43a 6c42 fcb9 5859 de3a
000000f0: 39b2 49ba 36d8 87ba 4e49 f2b9 a9a1 243a
00000100: 0319 20ba 4d7a 8639 3c08 183a 1799 87ba
00000110: 5123 2eba c13a f53a 92aa 14ba 7010 89ba
00000120: 10d2 2aba 480c ad39 54c9 0f3a a8f2 5a39
00000130: 0c58 a63a 064f ed39 fa6b 9f39 e30f 013a
00000140: 0166 d4ba 8276 cf39 9598 6b3b 44b1 df38
00000150: 0905 bc3a a6fd 68ba d0b5 90ba 4fe1 8bba
00000160: 978c 17ba e7dc d2b9 9d15 8eba 0f2c 1a39
00000170: 93f4 cab9 7002 95b8 13b0 223b bccd feba
00000180: e718 b4ba 218a 8c3a f74a eeb9 5f5b 773a
00000190: a8a0 1d3a 3add 16ba 3808 e93a 9824 9eb9
000001a0: f62d a9ba e234 aa3a 9a0f 7b39 f1a5 ecb9
000001b0: f92c c2b9 e87a 203a 6817 a138 7fe3 9b3a
000001c0: 3652 4aba 80fb 893a 7578 9439 0f77 fb3a
000001d0: 7dd0 aaba f7ff 81b7 dabe eb39 1029 ebb9
000001e0: 9c82 a937 4b0b efb9 f940 3d3a d3d9 1dba
000001f0: fda4 c2b9 7cfe 863a 6338 883a fe2b dbb8
-0.0010149046 0.0015557937 -0.00015344868 0.00092451205 0.00057345344 6.633642e-05 0.0017785078 0.00080315134
-0.001300406 0.0011816819 0.0006222554 -0.0025042037 -0.000668725 -0.00040549788 0.002661225 -0.00023103095
-0.00041887467 0.002282153 0.00016652305 -0.00088506105 -0.0013063739 0.0013311956 -0.0013255994 -0.00094692694
-0.00049557287 -0.0003799324 0.0005333728 -0.0004998895 -0.0009892413 0.0012912572 -0.00015672664 -0.001609632
0.00014748998 4.7283913e-05 -0.00045449552 0.0009945731 5.7615285e-05 -0.0008422992 0.0010559353 -0.000383202
0.00073082536 0.0005887311 -0.00021627892 -0.0014897574 -8.906429e-05 0.0010958088 -0.00031203768 -0.0007263944
-0.00038575972 0.0008782141 0.0007230088 -0.00024980228 -0.00018099454 -0.0020911822 -0.0010830993 0.00034747596
-0.00064792903 0.0012570053 -0.00048114674 0.0016963882 -0.0007694099 -0.0010364118 -0.00046212453 0.0006280193
-0.00061072427 0.00025649593 0.0005799567 -0.0010345307 -0.0006642836 0.0018709527 -0.0005671169 -0.0010457169
-0.0006516287 0.00033006282 0.00054850173 0.00020880497 0.0012691035 0.0004526304 0.00030407292 0.0004923327
-0.0016204716 0.00039570412 0.00359491 0.00010666487 0.0014344762 -0.0008887894 -0.0011040512 -0.0010672006
-0.00057811424 -0.00040218906 -0.0010840181 0.00014702998 -0.00038710664 -7.105328e-05 0.0024824187 -0.0019439976
-0.0013740332 0.0010722318 -0.0004545075 0.00094359176 0.00060130144 -0.0005755011 0.0017778939 -0.00030163373
-0.0012907374 0.0012985731 0.00023943037 -0.00045137064 -0.0003703607 0.000612183 7.681438e-05 0.0011893361
-0.0007717939 0.0010527223 0.00028318507 0.0019185262 -0.0013032105 -1.5497191e-05 0.00044964888 -0.00044853287
2.020719e-05 -0.00045594046 0.00072194595 -0.0006021533 -0.0003712549 0.0010299231 0.0010392781 -0.00010450928

convs.weight.0.tensor f4 [32, 32, 16, 2]
00000000: dcdb 4e3b 650f eb38 279f 5b39 7387 69ba
00000010: 260e ff39 11d5 a9b9 e825 053a f7bc d6b9
00000020: 3b67 2f3a 5d72 18b9 9ecc 213a eec5 a1b9
00000030: 9ac5 043a d701 9cb9 d305 2a3a 746a b236
00000040: 9361 2e3a 64e3 eeb7 1eac 063a a2f4 1c38
00000050: 2326 093a dc1d 52b7 221b c439 263c 6fb9
00000060: 30aa c139 9bbd 9437 ca57 0f3a 9684 dfb8
00000070: 39f1 083a 70c0 f8b6 c02d 9739 28b8 3e38
00000080: 84cc 67bb 963c cb37 4b53 55bb 910b a0ba
00000090: 33e1 3dbb b476 96ba edcd 1bbb d1d5 06ba
000000a0: fa8d 09bb 9230 9db9 4c28 1abb c07c 4db6
000000b0: 74f5 37bb 52d2 98b7 cf34 41bb bf15 a939
000000c0: b48b 25bb 78fe d739 8f85 32bb 9010 bd39
000000d0: d793 0dbb f8f4 d539 53d2 00bb a6f2 7839
000000e0: c364 e6ba 45e4 8739 2fdc fdba 160b b539
000000f0: a195 d0ba 33c0 9d39 0412 c6ba 70b2 0839
00000100: 1597 1d39 e297 acb8 3092 b7b8 5f2f 9637
00000110: 3811 19b9 5f28 16b9 817a 1ab9 2548 a6b8
00000120: c6bc 7bb8 86ff 8738 1388 1e38 ab98 a0b8
00000130: 0b23 bb38 4037 4d38 8d7a 08b9 2069 f0b7
00000140: cc64 fc38 95c9 b538 0a5e bf38 09b4 63b8
00000150: c11f 67b8 0456 19b9 93b6 14b9 9ae9 1339
00000160: 3f78 c1b8 394b 8bb8 394e 18b9 0bbc f038
00000170: 4ec0 19b9 1aae 1bb9 77b0 bcb6 0c40 1bb9
00000180: 4e8f 0ebb fda8 bbb8 2bed 99bb c06d 403a
00000190: 3005 5dbb ee4e bc3a ef4d 17bb 38fa 7a3a
000001a0: 00a7 82bb eaee 563a b6bc 8fbb a8e5 0a3a
000001b0: 5ff0 6abb 3f46 353a 8ac0 57bb df5c f339
000001c0: 3e74 7cbb eaf1 5f39 8939 74bb cc11 4339
000001d0: 50f7 36bb a9c4 e639 05ca 81bb 254f 9138
000001e0: 0284 3abb 4049 6439 a619 52bb 7f82 9f39
000001f0: e3f4 05bb 5077 5d39 1d0c 1abb 8759 bb38
00000200: bc27 3f3b de2c 0339 22cc 7b36 0e7b 01b9
00000210: 66ec 3438 bb10 0db9 721f 88b8 452f 12b9
00000220: 8201 9939 19f4 00b9 7d75 0bb9 1ac9 b6b8
00000230: c1f9 c038 761c 5038 e23c 1bb9 b8e6 9c38
00000240: 82f6 2bb7 4666 f938 103d af38 c352 c8b6
00000250: 96e4 9b38 308e 3e38 7924 4e38 da6c 59b8
00000260: 2a56 00b9 cb20 a938 e9e0 c238 7e43 f837
00000270: 6eac e038 2af6 1a39 f2f6 47b8 ab5c 1639
00000280: 0e27 dab8 f262 06b9 5d89 e937 3e80 13b9
00000290: 1c91 0fb7 1f2c 7338 0d37 1bb9 aef8 ef38
000002a0: 3f44 0839 481b eab8 a632 24b8 06bf 61b8
000002b0: cb02 02b9 09f8 d6b8 2957 13b9 ab74 f037
000002c0: 1f58 1ab9 b5bc 1bb9 46ab cb38 bd9a d4b8
000002d0: 04f0 feb8 8cfe 1bb9 6ecd be38 ea5c f3b8
000002e0: c6be 1ab9 56d3 d938 243a 0db8 1e64 0739
000002f0: 96c8 45b8 f68e 1239 d6cf f438 16d9 a336
00000300: 89d7 8bbb c663 f838 5c36 13bb 946c df3a
00000310: 59a1 86bb 406d 8b3a 1823 2bbb def5 513a
00000320: 40c5 55bb 02d1 e539 2216 62bb 048c 4a39
00000330: 71cf 2dbb ad1f 093a 4f59 53bb a9c2 d439
00000340: 79bb 26bb 1a9e 6c39 5202 57bb 29ad 2a39
00000350: 3e85 75bb e457 9b39 eec4 64bb 4e13 a339
00000360: 5247 37bb f2a2 9239 ada4 3ebb 52c7 2538
00000370: 5d48 84bb c65e a339 5309 25bb 8a51 c039
00000380: 44f8 853b 22ac a2b7 eb89 333b 05d9 f2b9
00000390: 841f 113b 6667 28ba fb08 513b 47ba 3cba
000003a0: 76c0 153b a903 4eba 6823 4b3b 380e 03ba
000003b0: a5c6 423b 3be2 3dba 5df7 173b 80b1 56ba
000003c0: 1162 b13a f3f8 52ba da75 053b bb85 47ba
000003d0: 780e 1d3b 7396 55ba 055f 2d3b d4d9 3aba
000003e0: da6b 033b ff41 1cba fdb3 223b e422 efb9
000003f0: acb8 033b 4464 e4b9 a804 1b3b 3264 16ba
0.0031564152 0.00011208541 0.00020944756 -0.0008908428 0.00048647932 -0.0003239294 0.0005079196 -0.0004095805
0.0006691103 -0.00014538453 0.0006172153 -0.00030855782 0.00050648453 -0.0002975601 0.0006485853 5.317206e-06
0.0006652113 -2.8477698e-05 0.0005137342 3.742113e-05 0.0005231818 -1.2523928e-05 0.0003740425 -0.00022815223
0.00036938628 1.7731267e-05 0.00054680987 -0.00010658165 0.0005223933 -7.4133786e-06 0.0002883505 4.547104e-05
-0.0035369704 2.4227698e-05 -0.0032550867 -0.0012210478 -0.002897334 -0.0011479468 -0.0023773864 -0.00051435555
-0.0020989166 -0.0002998156 -0.0023522554 -3.0619995e-06 -0.0028069885 -1.821775e-05 -0.002948094 0.00032250394
-0.0025260272 0.0004119759 -0.0027240252 0.0003606123 -0.0021603012 0.00040809042 -0.0019656613 0.00023741517
-0.0017577637 0.0002591928 -0.0019367988 0.0003453127 -0.0015913734 0.00030088573 -0.001511157 0.00013036444
0.00015028969 -8.2298895e-05 -8.7533495e-05 1.7903452e-05 -0.00014597632 -0.00014320154 -0.00014732221 -7.928935e-05
-6.0018872e-05 6.4848966e-05 3.7796864e-05 -7.657831e-05 8.923382e-05 4.8927264e-05 -0.00013015624 -2.8659182e-05
0.00012035071 8.6683e-05 9.125106e-05 -5.428869e-05 -5.5104265e-05 -0.0001462326 -0.00014182394 0.00014106036
-9.225355e-05 -6.642048e-05 -0.0001452499 0.000114791175 -0.00014662856 -0.0001484681 -5.62338e-06 -0.00014805811
-0.0021752897 -8.9483314e-05 -0.004697462 0.0007340573 -0.0033725016 0.0014366785 -0.0023087224 0.00095740287
-0.003987193 0.0008199053 -0.00438651 0.00052985037 -0.0035848839 0.00069150695 -0.0032921159 0.00046417766
-0.0038521434 0.00021357057 -0.003726574 0.00018603279 -0.0027918406 0.00044015542 -0.00396085 6.9288806e-05
-0.002846003 0.00021771062 -0.0032058745 0.0003042407 -0.0020440153 0.0002112065 -0.0023505755 8.9335306e-05
0.002916797 0.00012509848 3.7520736e-06 -0.0001234824 4.3135507e-05 -0.0001345304 -6.4908425e-05 -0.00013941254
0.00029183557 -0.00012297965 -0.00013299841 -8.7158944e-05 9.201794e-05 4.961757e-05 -0.00014804633 7.4816344e-05
-1.0249789e-05 0.00011892295 8.356024e-05 -5.970099e-06 7.4335534e-05 4.5431952e-05 4.9148195e-05 -5.1838208e-05
-0.0001223913 8.064656e-05 9.292534e-05 2.9595332e-05 0.0001071327 0.00014778288 -4.7675283e-05 0.00014339636
-0.000104023246 -0.00012816096 2.783973e-05 -0.00014066786 -8.55725e-06 5.7976806e-05 -0.0001480246 0.00011442728
0.00012995394 -0.00011163071 -3.9147817e-05 -5.3822085e-05 -0.00012398807 -0.00010250515 -0.00014051482 2.8664557e-05
-0.00014719412 -0.00014852251 9.7116965e-05 -0.0001013777 -0.0001215637 -0.00014876778 9.09817e-05 -0.000116044495
-0.00014757653 0.00010386731 -3.3671167e-05 0.000129119 -4.715527e-05 0.00013976902 0.00011673539 4.8830507e-06
-0.004267637 0.00011844146 -0.002246282 0.0017045909 -0.0041085896 0.0010637417 -0.0026113447 0.00080093544
-0.003261879 0.00043834007 -0.0034498055 0.00019316381 -0.002652135 0.00052308553 -0.0032249277 0.00040580824
-0.0025441332 0.00022565611 -0.003280778 0.0001627697 -0.0037463452 0.00029629387 -0.0034907418 0.00031104166
-0.0027966094 0.00027968694 -0.0029089854 3.9524697e-05 -0.0040369467 0.00031160394 -0.002518256 0.00036681845
0.0040884335 -1.939206e-05 0.0027395438 -0.0004631953 0.002214403 -0.0006424099 0.0031896222 -0.00071993883
0.0022850311 -0.0007858822 0.0030996446 -0.0004999372 0.0029720452 -0.0007243489 0.0023188211 -0.0008189902
0.0013533254 -0.00080479606 0.0020364434 -0.0007611175 0.0023964923 -0.0008147724 0.002645434 -0.0007127796
0.0020053298 -0.0005960762 0.002482652 -0.00045611628 0.0020099087 -0.00043562253 0.0023653898 -0.0005736976

convs.weight.1.tensor f4 [32, 32, 16, 2]
00000000: 2abb a4bb cc1e e136 a5ad df3a f9d4 4bba
00000010: cd75 883a fb0a 20ba ffa7 4f3a a5b8 bab9
00000020: 793c 0c3a 06cf 1aba 3aae 153a 11c6 1dba
00000030: 3508 dd39 5271 23ba 7fa0 023a f0a5 29ba
00000040: 16ef d939 6176 24ba 8700 6739 826f bfb9
00000050: ce91 1438 ce69 24ba 1fd0 2639 bc35 27ba
00000060: 0c45 f1b8 8b3e 21ba 7b29 a837 7e55 e9b9
00000070: 2424 1cb9 3383 deb9 f804 c537 9e69 06ba
00000080: 7d99 4dbb 9195 06b8 e787 f139 8009 1c39
00000090: f850 6539 d624 5fb8 3c48 8139 839e ee38
000000a0: 5ef8 cc39 623d 66b8 1326 a639 9296 2bb9
000000b0: 9b22 0c39 a1ea 85b9 7a60 9c39 059e 8fb9
000000c0: d649 fa38 df9f 30b9 ef41 7639 bea1 9ab9
000000d0: e481 a938 f490 8cb8 a14f 3939 3b0e 10b9
000000e0: 9a39 94b8 d4d9 a8b9 227e 1f39 83c1 23b9
000000f0: 518e 1db9 c49b 5eb9 2cdf 0938 38a8 ba36
00000100: b265 283b 5fa0 df34 97fc 91b8 35c5 9bb8
00000110: b7c6 aeb8 9366 0eb9 2a93 a6b8 edbc c238
00000120: a76f 2db9 5d7c 0cb9 0033 26b9 3b73 68b8
00000130: d941 0039 340f 20b9 ff63 0cb9 47a2 f838
00000140: 5f32 d5b7 3432 d437 5adc 0fb9 bc3b e6b8
00000150: 5642 0bb9 d255 0439 1cb0 21b9 997b 14b9
00000160: a9e8 84b8 54f5 f4b8 52bf 5f37 d0ac 13b8
00000170: dc6c 13b9 4cdd 1a39 fcb3 1bb9 8df5 09b9
00000180: a4d8 97bb b916 1bb9 6f99 f93a dd7a 94b9
00000190: 60a4 973a 5c24 dcb9 6438 783a ae6b e5b9
000001a0: 6b5a 4a3a a24f 09ba be26 0e3a eb61 a8b9
000001b0: fa79 273a 2972 eeb9 bc9a 253a 639b 20ba
000001c0: f1ca c439 de6e 25ba c9b0 e939 6454 2dba
000001d0: 56a8 c039 3ff1 1fba 3db9 2339 a29e 07ba
000001e0: c6bb 5639 848a 15ba 8d9e 0539 5805 0dba
000001f0: 3836 33b9 d00c 1eba 79a9 adb8 d76f cbb9
00000200: a760 71bb a4a4 1bb9 2049 b8b9 3f5f 25b9
00000210: 968f 49b9 a2ee 2439 95ed 0238 4af4 0ab7
00000220: 9aa8 3b38 05ca 3b38 cc13 ee38 f83e eeb7
00000230: edb5 acb8 e834 10b9 843d ddb8 9142 99b8
00000240: bb1a 1db9 ed10 2eb9 e720 3cb7 99fd ccb8
00000250: a3ce 0d39 14fd 0739 d308 25b9 2184 1139
00000260: 2bb4 c637 2ba0 22b9 44b7 0839 7ca0 22b9
00000270: 5a83 e2b8 f6c8 0fb8 8fb1 a0b8 a9a3 1539
00000280: cf4f 493b a175 93b8 87e6 5fb9 d739 9238
00000290: 7038 03b9 da86 3ab8 4260 ab38 19bd 1e39
000002a0: 842b a7b8 e608 be38 6021 2bb9 f2d7 84b7
000002b0: 6547 12b9 d927 98b7 e1c1 a6b8 e4db 1f39
000002c0: b16f 36b8 8cf9 8db8 3c7d d538 fed2 d8b8
000002d0: 648e 7b38 9cc2 15b8 126c 1039 4a46 2d39
000002e0: eaf4 1539 89b8 f0b8 f14e 13b9 2a7e 3539
000002f0: e847 1e39 4f4e a338 a563 e936 1fc1 d2b8
00000300: d0c1 9ebb fb19 57b8 1f75 f83a 8b69 d7b9
00000310: 77f0 943a 4009 deb9 0526 713a eb47 f5b9
00000320: 382e 553a 746f e1b9 8aea 313a 6f1f d2b9
00000330: 7139 333a 8aaf 24ba 1d11 213a a06f 2fba
00000340: 612c 043a 2445 09ba 8864 c339 7fca 00ba
00000350: 8bcc d039 0e44 3bba ad64 a639 2230 20ba
00000360: 1593 7c39 dce8 0eba 56ca 37b7 7511 2dba
00000370: 7c82 59b8 8daf 0eba 3db8 24b8 6b78 feb9
00000380: 85fa 3d3b 61a1 0a39 ec70 94ba 8b57 96b8
00000390: ec1c 84b9 2605 2e39 1d36 d8b9 d212 ab39
000003a0: 8f92 c6b9 cd02 bb39 0758 e1b9 3bcb 5d39
000003b0: 466c b8b9 aacb 1239 5908 a5b9 65d6 b539
000003c0: 8669 6cb8 3a0c 1e39 5793 59b9 746b bc39
000003d0: 0208 16b9 53f2 7f39 cbc0 e6b8 879f 4a39
000003e0: 4e4d a938 673b b439 aae3 1b39 6066 1139
000003f0: a4ad f938 2aec 3439 5696 e037 5d9e 9d39
-0.0050271945 6.7091078e-06 0.00170653 -0.0007775571 0.0010411084 -0.0006105152 0.00079214567 -0.00035614255
0.00053495873 -0.00059054827 0.00057098607 -0.0006018589 0.0004215852 -0.00062348426 0.0004983022 -0.0006471565
0.00041567598 -0.00062737433 0.00022030073 -0.0003651344 3.542174e-05 -0.00062718696 0.00015908525 -0.00063785515
-0.000115046365 -0.0006150982 2.0046476e-05 -0.0004450492 -0.00014890783 -0.0004244089 2.3486544e-05 -0.00051274325
-0.0031372004 -3.2087384e-05 0.00046068357 0.00014880858 0.00021869305 -5.320165e-05 0.00024658616 0.000113782495
0.0003909496 -5.489344e-05 0.00031690355 -0.00016363923 0.00013364332 -0.0002554255 0.0002982652 -0.0002739282
0.00011934682 -0.00016844225 0.0002348495 -0.00029493676 8.082742e-05 -6.70272e-05 0.00017672639 -0.00013738211
-7.067919e-05 -0.00032205752 0.0001521041 -0.0001561698 -0.00015025704 -0.00021229597 3.287119e-05 5.562815e-06
0.002569538 4.1653672e-07 -6.961187e-05 -7.4277086e-05 -8.33398e-05 -0.00013580387 -7.942908e-05 9.285831e-05
-0.0001654016 -0.0001339777 -0.00015849993 -5.5420427e-05 0.00012231561 -0.00015264453 -0.00013388692 0.00011855788
-2.5415035e-05 2.5295747e-05 -0.0001371963 -0.00010978381 -0.00013280785 0.00012620472 -0.00015419762 -0.00014160424
-6.337587e-05 -0.000116805226 1.3336381e-05 -3.5208475e-05 -0.00014059566 0.00014769024 -0.00014849001 -0.00013156813
-0.00463398 -0.00014790417 0.0019042919 -0.000283203 0.0011569373 -0.0004198876 0.0009468852 -0.0004375851
0.0007719162 -0.00052380015 0.0005422643 -0.00032116412 0.00063887204 -0.00045479953 0.00063173077 -0.000612667
0.00037535236 -0.0006310771 0.00044572938 -0.00066120015 0.00036746514 -0.0006101317 0.00015613898 -0.00051734794
0.00020478581 -0.00057045394 0.00012742933 -0.00053795194 -0.00017090968 -0.0006029131 -8.2808496e-05 -0.00038802504
-0.003683129 -0.00014843285 -0.00035149697 -0.00015771108 -0.00019222344 0.00015729156 3.121568e-05 -8.282319e-06
4.4741297e-05 4.477242e-05 0.00011352412 -2.8401133e-05 -8.2354854e-05 -0.00013752619 -0.000105495594 -7.3080075e-05
-0.00014982645 -0.00016600238 -1.1213334e-05 -9.774714e-05 0.00013523786 0.00012968882 -0.00015738913 0.000138775
2.3687337e-05 -0.00015509191 0.00013038242 -0.00015509309 -0.00010800986 -3.4281016e-05 -7.6624674e-05 0.00014270715
0.0030717736 -7.031416e-05 -0.00021352815 6.972596e-05 -0.00012514158 -4.4471446e-05 8.171845e-05 0.00015138499
-7.971286e-05 9.0615635e-05 -0.00016320264 -1.5836184e-05 -0.00013950242 -1.8138368e-05 -7.9516096e-05 0.00015245337
-4.3496202e-05 -6.769886e-05 0.00010179958 -0.00010338983 5.9975675e-05 -3.5705612e-05 0.0001377317 0.0001652475
0.00014300985 -0.00011478464 -0.0001404842 0.00017308505 0.00015094841 7.787032e-05 6.9555413e-06 -0.00010049552
-0.0048448816 -5.128419e-05 0.0018955803 -0.0004108663 0.0011363168 -0.0004235003 0.0009199086 -0.00046783625
0.00081321923 -0.00042998383 0.0006786963 -0.0004007774 0.00068368675 -0.0006282261 0.00061442127 -0.00066923536
0.00050420134 -0.0005236438 0.000372682 -0.0004912987 0.00039825248 -0.0007143625 0.00031736997 -0.0006110688
0.00024087385 -0.0005451569 -1.095476e-05 -0.00066020276 -5.1858355e-05 -0.0005443029 -3.9272232e-05 -0.00048536374
0.0028988433 0.00013220824 -0.0011325157 -7.1688635e-05 -0.0002519855 0.00016595851 -0.00041239048 0.00032629684
-0.00037874698 0.00035669506 -0.0004298093 0.00021151912 -0.00035175885 0.00013999516 -0.00031477472 0.00034682747
-5.636506e-05 0.00015072609 -0.00020749621 0.00035938213 -0.00014308098 0.00024408968 -0.00011003165 0.0001932365
8.072947e-05 0.00034376534 0.00014866763 0.00013866415 0.00011905588 0.00017254116 2.6772886e-05 0.00030063363

convs.weight.2.tensor f4 [32, 32, 16, 2]
00000000: b0bb 533b 664d 1ab9 38cb 693b 62dc 043b
00000010: a650 d13a 8755 0a3b 064f 123b 5248 f73a
00000020: 76c9 b23a 4ab1 2c3b 8d40 e03a 846e 3d3b
00000030: a467 433b f087 223b c639 463b 3a23 2f3b
00000040: 3ad3 3b3b 7516 323b 7934 3c3b 53dd 1a3b
00000050: 4f07 183b dc9e 343b 9931 583b 8eff 223b
00000060: b319 563b 74cb 123b 3d92 143b d9b4 253b
00000070: dbea 573b 10c7 143b 74cb 063b 932f 1e3b
00000080: 6954 9d3b 644d 1a39 de2a e539 5704 743a
00000090: 0f6f de39 45a5 813a 4287 0d3a f8e6 8d3a
000000a0: 6b4d 313a f77f ac3a 3d60 633a 0123 bc3a
000000b0: 674e 5e3a c6da c83a eecd 783a cba6 c93a
000000c0: 26fb 943a ad66 d63a ed2a 8c3a ae21 dd3a
000000d0: 8946 ae3a 9d56 d63a 4bab bb3a eefc d33a
000000e0: fa17 b13a 59e5 a53a 255f c83a 7c6b a43a
000000f0: 3ae6 ad3a 8ba6 aa3a 41b6 c53a e073 9e3a
00000100: 641e e0ba 702d 16b9 163e 2639 9cf1 09ba
00000110: f1e2 8139 c602 52b9 5e7c 9139 323a e537
00000120: fa72 c838 6fd3 74b9 e947 de38 6621 50b9
00000130: 8e2a 6439 34e1 5ab9 a960 8039 f0bd 22b9
00000140: 6045 5839 a6d4 b8b8 486d 8739 32da 14b9
00000150: f823 9a38 2785 71b8 402d 2a39 e7be 65b9
00000160: c03e 6835 007c 1336 da86 2338 f5c7 8bb8
00000170: 7231 4639 0da6 31b9 ca66 b238 36fb 4fb8
00000180: 3378 5a3b e3bb 1139 5094 e43a f069 0d3b
00000190: 9c29 053b e9d9 d63a 2b95 093b d528 193b
000001a0: e9c7 223b e5c2 133b 78a4 3e3b c198 103b
000001b0: 7c48 3d3b 0dc5 6a3b 2c3b 263b a762 0a3b
000001c0: bef5 2e3b 12b0 4e3b 3000 063b bb09 143b
000001d0: 334d 383b db24 e93a 4eb7 133b e1c5 163b
000001e0: e503 023b 4e36 403b fa27 263b 580d eb3a
000001f0: 828a 553b 672c 253b 615f 603a 0199 203b
00000200: 1a78 423b defb 1bb9 df4a 28ba 7996 24ba
00000210: 20b4 73b9 9d36 b5b9 9bbc a0b9 1b2b a537
00000220: a0ef 7138 339f 7bb9 68a4 8138 2a14 09b9
00000230: d8a8 9cb8 944a 0cb9 f6b4 24b9 4a4b 5b37
00000240: 3d90 cc38 56f7 65b9 3d4e 2839 4a90 31b7
00000250: 7a3b 11b9 284b 9a36 a1e9 3c38 fcbb 7b38
00000260: 6493 fd38 949e de37 9ad3 09b9 96b1 23b7
00000270: e81c 79b6 bc45 0b38 6745 0eb9 b423 d0b8
00000280: 9311 5ebb 9f8d 18b9 75b3 40ba 741b 04ba
00000290: ac96 10ba 0b8b 1eba 6d31 c2b9 c0df 1aba
000002a0: fe25 07ba b27f 37ba d77e 31ba b47c 37ba
000002b0: 5a46 35ba cc06 67ba 9975 efb9 f41e 4bba
000002c0: 7bc1 0bba e455 7dba 0c9d 49ba c2ed 7dba
000002d0: d849 5cba f89f 24ba 6b6d 61ba 34bb 82ba
000002e0: fdde 84ba 3dbd 45ba 5cbc 8bba e308 60ba
000002f0: 7968 8eba 3645 5aba f895 81ba 425c 4cba
00000300: f637 813b de7f 8837 41c0 2b3b ae0e 903a
00000310: bb6c 143b b874 0f3b 5aa3 fc3a 1d40 0b3b
00000320: 71db 123b 343d 293b 8832 253b f491 013b
00000330: e0f9 093b ae2a f63a 9e61 363b 86a0 143b
00000340: 4d0e 123b 13b2 253b 7e08 043b b97c e53a
00000350: 7cf1 5f3b 163d 053b d025 163b a340 053b
00000360: 5e4c 3f3b 6b6c 463b f1b1 043b 1bd8 223b
00000370: 535b 363b 4470 223b 1316 293b af40 2f3b
00000380: 96a9 27bb d0c8 cc38 febf f1ba 18aa c5ba
00000390: b33a a4ba 9304 c2ba 79d6 b3ba 19d0 97ba
000003a0: b7b0 bdba 0521 d1ba 1dfb c2ba bd39 00bb
000003b0: a997 e4ba 7194 e4ba f905 e3ba 6e1d 0fbb
000003c0: 8c04 e8ba 4662 e7ba 9c5e afba e216 cfba
000003d0: 66b3 fdba cc30 01bb 681d 0abb 5222 f2ba
000003e0: f0f0 fcba 8877 f1ba f810 f9ba af27 02bb
000003f0: 3e52 1cbb a467 eeba 1c93 01bb 8868 e0ba
0.0032307915 -0.00014715418 0.0035674106 0.002027296 0.001596947 0.0021108107 0.0022324934 0.0018866158
0.0013640362 0.002635079 0.0017109081 0.0028904984 0.0029816413 0.0024800263 0.0030246838 0.0026723878
0.0028659836 0.002717403 0.00287178 0.0023630455 0.0023197716 0.0027560508 0.0032988547 0.002487156
0.0032669127 0.00223991 0.0022670173 0.0025284796 0.0032946381 0.0022701658 0.0020568045 0.0024137243
0.0048013222 0.00014715415 0.00043710222 0.0009308508 0.00042425885 0.0009891173 0.0005398878 0.001082628
0.00067635503 0.0013160695 0.00086737034 0.0014353694 0.0008480311 0.0015323989 0.0009491135 0.0015384791
0.0011366352 0.0016357504 0.0010693945 0.0016870999 0.0013296168 0.0016352717 0.0014318017 0.0016173401
0.0013511174 0.0012656852 0.0015287144 0.001254424 0.0013267465 0.0013019604 0.0015084223 0.0012088977
-0.0017098901 -0.00014322042 0.00015854122 -0.0005262138 0.00024773882 -0.00020028194 0.00027749216 2.7326027e-05
9.558159e-05 -0.00023348418 0.00010599179 -0.00019848868 0.00021759627 -0.00020873995 0.0002448608 -0.00015520281
0.0002062521 -8.8134126e-05 0.00025830627 -0.00014195664 7.349992e-05 -5.7582885e-05 0.0001622932 -0.00021910259
8.651805e-07 2.1976884e-06 3.898782e-05 -6.6652814e-05 0.00018901171 -0.00016941894 8.5068474e-05 -4.9586604e-05
0.0033335804 0.00013898271 0.001743922 0.0021578036 0.002031899 0.0016391847 0.0020993452 0.0023370285
0.0024838394 0.0022546586 0.002908973 0.0022063705 0.0028882315 0.0035823018 0.002536486 0.002111593
0.0026696767 0.0031538052 0.002044689 0.0022588808 0.0028122186 0.0017787473 0.0022539678 0.0023006129
0.0019838747 0.0029329243 0.0025353418 0.0017933054 0.0032583778 0.0025203468 0.00085591344 0.002450526
0.0029673637 -0.0001487578 -0.0006419848 -0.00062785257 -0.00023241388 -0.000345637 -0.000306581 1.9689605e-05
5.7682046e-05 -0.00023996532 6.1818224e-05 -0.0001307285 -7.470109e-05 -0.00013379223 -0.00015707672 1.3070947e-05
9.7543445e-05 -0.00021931282 0.00016050875 -1.0583617e-05 -0.00013850434 4.598307e-06 4.5040277e-05 6.0018137e-05
0.00012091434 2.6538306e-05 -0.00013144166 -9.756905e-06 -3.7120717e-06 3.3205128e-05 -0.0001356803 -9.924863e-05
-0.0033884987 -0.00014548608 -0.000735096 -0.0005039491 -0.0005515616 -0.00060479407 -0.0003703939 -0.0005907975
-0.00051555026 -0.0006999924 -0.0006770915 -0.0006999478 -0.0006915085 -0.00088129635 -0.0004567325 -0.0007748448
-0.000533126 -0.0009663983 -0.00076909433 -0.0009686613 -0.00084033376 -0.0006279941 -0.00085993734 -0.0009974004
-0.0010137256 -0.00075431523 -0.0010660994 -0.0008546246 -0.0010864876 -0.0008326353 -0.0009886613 -0.000779573
0.0039434386 1.6272006e-05 0.0026207122 0.0010990703 0.0022647816 0.0021889638 0.0019274757 0.0021247931
0.002240863 0.0025823833 0.002520712 0.0019770833 0.0021053478 0.001878103 0.002782918 0.0022678687
0.0022286356 0.0025283142 0.0020146663 0.0017508484 0.0034171036 0.00203306 0.0022910722 0.0020332716
0.0029189806 0.0030277024 0.0020247663 0.0024848047 0.002782543 0.0024786154 0.002580051 0.0026741435
-0.0025583259 9.764882e-05 -0.0018444059 -0.0015080599 -0.0012529701 -0.0014802389 -0.0013720534 -0.0011582404
-0.0014472221 -0.0015955275 -0.0014875863 -0.0019565665 -0.0017440218 -0.0017439259 -0.0017320506 -0.002183761
-0.001770155 -0.0017653189 -0.0013379636 -0.0015799666 -0.0019355833 -0.0019712923 -0.0021074656 -0.0018473363
-0.0019297879 -0.0018422464 -0.001900225 -0.001986008 -0.002385273 -0.0018188846 -0.0019771522 -0.0017120996

convs.weight.3.tensor f4 [32, 32, 16, 2]
00000000: 3a63 873b 8f89 1339 bd42 4d3b a4bc 473b
00000010: 6812 433b e83e 613b 9d16 1d3b d028 843b
00000020: 7819 3e3b f986 7c3b df3e 493b 4990 d93a
00000030: 0dd4 653b 9fab 5c3b 7c22 543b 31d9 513b
00000040: e4ef 3d3b b6a9 663b 0b85 2e3b 1231 733b
00000050: 1450 653b 8007 553b 58f3 4a3b 719d 1c3b
00000060: 8b8f 873b bd01 163b 36d9 4f3b a6a3 8d3b
00000070: 0982 4a3b 6c76 3b3b af0b 3b3b a590 483b
00000080: a787 783b f2bd cd37 feec 3b39 4ad4 b13a
00000090: 49b1 1b38 0397 d33a 7876 0b3a 7043 063b
000000a0: 00e2 153a 69de 153b eb03 5e3a 76b8 083b
000000b0: 5e4e 163a e6ea ce3a 332c a83a 1614 363b
000000c0: 4c88 c33a 0f24 1c3b a2df b03a a1a4 fb3a
000000d0: 08ef f33a 12c5 0f3b 16b4 043b 7c4d 253b
000000e0: ff47 103b cc4d 283b 2a13 ba3a 549a 0f3b
000000f0: 6b4f 093b fbe4 a93a fe92 ea3a bd9d 2f3a
00000100: bc5e b4ba b4e0 f937 42a7 2639 8dd6 72ba
00000110: 483e f639 549e b4b9 c3b6 0c3a 3080 f3b9
00000120: 4a3f ea39 746c b0b9 ff2f 7f39 4a9e dcb9
00000130: 35d0 b339 aeca f3b9 a1a2 3039 cc0c a0b9
00000140: 5e6e 8938 0f0c 07ba 38ee a138 e515 c3b9
00000150: fcac c5b7 8d73 10ba b4ab 29b8 95ae 0eba
00000160: 3432 e4b8 328f fab9 5b41 e7b8 a217 86b9
00000170: 3741 46b9 10d3 c5b9 8452 15b9 4923 4ab9
00000180: cb7e 533b 0e4c f138 8c9c 4e3b ea75 063b
00000190: 4577 323b cf8a f93a 98bd 2c3b 40cb ff3a
000001a0: d6bb 6a3b 6a93 3b3b 2c85 263b 1e38 843b
000001b0: bc03 823b 4391 f93a 6f2d 593b a8c7 393b
000001c0: 4ded 753b 1968 7a3b 61ce 333b a7c4 403b
000001d0: 00b5 733b 3acf 383b a4ba 4d3b 3d70 603b
000001e0: 5f4e 813b 3145 563b f4ef 3b3b 0cd1 313b
000001f0: 83bd 583b 65a3 3e3b bad5 3e3b 42b3 6c3b
00000200: 8082 01b8 2148 09b9 5596 74ba 213c 82ba
00000210: eda7 f8b9 3791 08ba 2e7f 1aba 02ea e6b8
00000220: f694 d8b9 1eb2 82b8 dd8a bbb9 b02f 16b9
00000230: 9415 a0b9 adec 38b9 107c bcb9 5da7 9ab9
00000240: d657 06ba cecf 96b9 60d9 07ba b842 76b7
00000250: 5b55 c9b9 f47a 1eb9 a664 f3b9 c404 54b9
00000260: 764c d4b9 a23f 78b9 2cb8 edb9 7576 86b9
00000270: 0c96 f9b9 471f 6bb9 c543 06ba 25bc 8bb8
00000280: f8cc 74bb 7278 f638 db48 3dbb 8c20 23bb
00000290: 2d8f 1ebb 1df9 2ebb 8dd5 35bb 4297 39bb
000002a0: 97ae e0ba a242 60bb a44d 45bb 5402 36bb
000002b0: 45b1 64bb 1ab9 41bb 0a49 47bb 1bbb 4ebb
000002c0: 84dc 1bbb 0c81 aaba 24bc 49bb d1cc 21bb
000002d0: 0d1e 0dbb 6018 64bb 603b 0ebb 0628 7cbb
000002e0: 8596 7abb 6695 68bb 55cd 46bb 3c90 6ebb
000002f0: 3376 75bb f6d8 4bbb cb88 54bb 655c 6fbb
00000300: e698 8a3b 5d41 7bb7 c2e5 4e3b 1256 603b
00000310: c640 313b 0f62 5b3b c0f8 0b3b 5afe 643b
00000320: 9b53 213b b352 473b 1152 2b3b d9f2 0c3b
00000330: 36d9 393b 11fa 513b 5be6 d33a a76e 663b
00000340: 69c1 4d3b be7f 273b 8b89 523b 5707 453b
00000350: 7586 733b cae1 873b 3297 833b 45d3 3d3b
00000360: 48c9 9f3b e37c 853b 53cb 633b 3da5 883b
00000370: fe27 3a3b c73a 483b 8e23 183b 96ed 1c3b
00000380: ad11 b4bb 5106 92b7 f3fe 0abb b869 e3ba
00000390: 19b5 baba 253c 2fbb 4cf6 f9ba ec9b e8ba
000003a0: d6d8 03bb bd96 37bb b977 0ebb a8b7 63bb
000003b0: 7784 1ebb 9080 36bb bfd9 45bb 66c4 49bb
000003c0: be57 11bb 7fbf fcba c75e 4bbb 1422 44bb
000003d0: d41c 54bb d2ae 1ebb 347c 3bbb c977 77bb
000003e0: e9d6 32bb 10ab 3dbb 4d89 67bb 1d5f 16bb
000003f0: ab2f 39bb 0295 0bbb 81d5 51bb c459 dbba
0.004131702 0.00014070257 0.0031320297 0.0030477429 0.002976561 0.003436977 0.0023969777 0.0040331855
0.002900688 0.0038532598 0.003070764 0.0016598786 0.003506902 0.003367163 0.0032369187 0.0032020325
0.0028982097 0.003519637 0.0026629593 0.0037108106 0.0034990357 0.003250569 0.0030967798 0.0023897553
0.0041369847 0.002288922 0.0031715161 0.004322487 0.003090026 0.002860452 0.00285409 0.0030603793
0.0037922652 2.4526355e-05 0.00017921996 0.0013567295 3.711999e-05 0.0016143027 0.00053200824 0.0020486973
0.00057175756 0.0022868162 0.0008469212 0.00208619 0.00057337235 0.0015786558 0.0012830555 0.0027782968
0.0014917939 0.0023825204 0.0013494382 0.0019198844 0.0018610666 0.0021937531 0.002024894 0.0025223186
0.002201557 0.0025681136 0.0014196385 0.0021912055 0.0020951878 0.0012961918 0.001789659 0.0006699225
-0.0013761143 2.9787749e-05 0.00015893302 -0.0009263538 0.0004696718 -0.0003445024 0.000536781 -0.0004644408
0.00044679112 -0.0003365014 0.00024336575 -0.00042079604 0.00034296667 -0.0004649958 0.00016845252 -0.00030527113
6.5532266e-05 -0.0005151638 7.72145e-05 -0.0003720961 -2.3564782e-05 -0.00055103825 -4.045265e-05 -0.0005442885
-0.00010881238 -0.00047790405 -0.00011027112 -0.0002557608 -0.00018907046 -0.00037732022 -0.00014240487 -0.00019277366
0.003227162 0.00011505942 0.0031526415 0.002051706 0.0027231735 0.001903856 0.0026358124 0.0019515529
0.0035817525 0.0028621801 0.0025408966 0.00403501 0.0039677303 0.0019040484 0.0033138653 0.0028347764
0.0037525475 0.003820902 0.0027436244 0.002941409 0.0037186742 0.0028199689 0.0031391764 0.0034246587
0.00394611 0.003269505 0.0028676959 0.0027132658 0.0033071942 0.002908909 0.002911909 0.0036117588
-3.0877534e-05 -0.00013092208 -0.00093302625 -0.0009936133 -0.0004742736 -0.0005209627 -0.0005893585 -0.00011010842
-0.00041309715 -6.23206e-05 -0.0003577088 -0.0001432288 -0.00030533655 -0.00017635776 -0.00035950588 -0.00029497864
-0.0005124783 -0.00028765056 -0.00051822327 -1.4678277e-05 -0.00038401302 -0.00015113858 -0.0004642356 -0.00020219671
-0.0004049276 -0.00023674828 -0.0004534138 -0.0002564673 -0.00047604775 -0.00022422998 -0.0005121793 -6.663081e-05
-0.0037353616 0.00011752629 -0.0028882537 -0.0024891226 -0.0024194226 -0.0026698776 -0.0027745694 -0.0028318916
-0.0017141876 -0.0034219404 -0.0030106092 -0.0027772384 -0.00348957 -0.0029559792 -0.0030408525 -0.003154463
-0.002378256 -0.001300843 -0.0030782307 -0.002468873 -0.0021532804 -0.0034804568 -0.002170287 -0.0038476004
-0.003823669 -0.003548944 -0.003033479 -0.0036401888 -0.0037454485 -0.003110466 -0.0032430168 -0.0036523577
0.0042296527 -1.4975984e-05 0.0031570052 0.003423099 0.0027046665 0.0033475196 0.0021357983 0.0034941644
0.0024616483 0.0030414283 0.0026141445 0.0021507053 0.0028358228 0.003203992 0.0016166674 0.0035161169
0.00313958 0.0025558318 0.003212544 0.003006419 0.0037159 0.004146789 0.0040158266 0.0028965038
0.0048762895 0.0040737255 0.0034758642 0.0041700886 0.0028405185 0.0030552612 0.0023214552 0.0023945323
-0.005495271 -1.7407498e-05 -0.002120909 -0.0017350232 -0.0014244645 -0.002673873 -0.0019070595 -0.0017746664
-0.0020118258 -0.002801343 -0.002173884 -0.0034746919 -0.0024187842 -0.0027847625 -0.0030189601 -0.0030787229
-0.0022177543 -0.0019283145 -0.0031031833 -0.0029927539 -0.0032365816 -0.0024213088 -0.0028607966 -0.0037760607
-0.002728874 -0.0028941073 -0.003532964 -0.0022944876 -0.0028257172 -0.0021298532 -0.0032018127 -0.0016735126

convs_bc.bias f4 [4, 32, 1]
00000000: 43cc 983b cee8 733b 86dc 28ba 351f a23b
00000010: 9df4 b33b b99b 773b 549a 373b f27f 0bbb
00000020: cad9 583b 90f4 8e3b 8327 bc3b 37ab 29bb
00000030: fc7d 7dbb 2bd9 843a c0e7 79bb d233 83bb
00000040: 08f9 77bb 94c7 73bb afb8 8bbb 4fef 753b
00000050: a26d 5a3b d215 9f3b bc1d 71bb fbc7 523b
00000060: 0196 503b 2409 37b9 d8ac 5139 6daa 5cbb
00000070: 5f19 4a3b 551a 8f3b 3d3c c9b9 c6ea 343b
00000080: f09b 383b 0a79 aa3b 9ed4 81ba 093b c53b
00000090: dc6e 963b f65a 6fbb 3c43 9d3b 85b3 d8ba
000000a0: 0bb3 893b b322 4a3b cf78 9e3b dcab efba
000000b0: 250b 90bb 621f 893a 97fa ceba 8c80 a8bb
000000c0: 89e3 83bb 1506 3abb a58d 4abb f71b 603b
000000d0: 5e37 813b a1e4 6b3b 1225 53bb 3609 653b
000000e0: b535 a13b 8b81 f7b9 acca f73a aa5e 7ebb
000000f0: f515 9d3b dbed 963b 98d4 e539 6a1b a03b
00000100: f0a3 f43a 5da2 7a3b e06d 31bb d35e 593b
00000110: 23c3 143b 9efe 7cbb 0d5c 9c3a 284c 80bb
00000120: a85c a03b c412 a63b 8459 763b 24a9 6fbb
00000130: 27e9 4abb ed99 5aba c833 76bb b18b 9bbb
00000140: bc89 58bb 7e46 92bb 599c 40bb 9974 323b
00000150: 3d81 313b bbd4 8b3b aa53 53bb 3cae b03b
00000160: 6721 513b 093f 96bb 2a8e b139 bdd3 90bb
00000170: befa 923b 49f2 583b 4721 01bb 54a3 843b
00000180: bc82 893b 39ae 613b f81f 82b9 8dfc 2e3b
00000190: d2f4 013a edd5 6cbb 9844 6f3b 7a93 72bb
000001a0: f196 943b 267e 8b3b 9c3f 953b 89b3 84bb
000001b0: faf0 6bbb 0368 11b9 cf8d 97bb 89cf 4abb
000001c0: ba9c 64bb 53dc 88bb acc2 c6b9 4cc2 823b
000001d0: 63c0 603b 473a 7c3b afb3 0fbb f26a 673b
000001e0: 7dd7 603b 3431 1cbb afcf ea3a 9418 57bb
000001f0: 11e9 523b 60d0 0e3b ed49 09ba ec2e 133b
0.004663022 0.003721762 -0.0006441552 0.004947568 0.0054918067 0.0037782027 0.002801557 -0.0021285978
0.0033088797 0.00436265 0.005742015 -0.0025889406 -0.003867983 0.0010135522 -0.0038132519 -0.00400398
-0.0037837643 -0.0037197815 -0.0042639594 0.0037526672 0.0033329506 0.004854896 -0.0036791405 0.0032162655
0.003182769 -0.00017455645 0.00019996183 -0.0033670918 0.0030837876 0.0043671527 -0.00038382589 0.0027605756
0.0028169118 0.0052024173 -0.0009905284 0.0060190004 0.004590852 -0.0036522723 0.0047992747 -0.0016532993
0.004202252 0.0030843436 0.004836179 -0.0018285471 -0.00439586 0.0010461623 -0.0015791234 -0.005142277
-0.004024927 -0.0028384973 -0.003090718 0.0034196356 0.003943368 0.0035994428 -0.003221814 0.0034948117
0.0049197325 -0.00047208028 0.0018905005 -0.0038813748 0.0047938772 0.0046059913 0.00043836678 0.0048860805
0.001866458 0.0038243749 -0.0027073547 0.0033168092 0.0022699318 -0.0038603912 0.0011929289 -0.0039153285
0.004893858 0.005068155 0.0037589977 -0.0036569322 -0.0030961724 -0.0008338977 -0.0037567485 -0.004746877
-0.003304108 -0.0044639697 -0.0029390065 0.0027230142 0.0027085089 0.004267303 -0.0032245913 0.005391864
0.0031910778 -0.004585151 0.0003386599 -0.0044197724 0.004485457 0.0033103398 -0.0019703673 0.0040477905
0.004196493 0.003443612 -0.0002481935 0.0026700825 0.00049574405 -0.0036138252 0.003650939 -0.0037014172
0.004534595 0.0042569814 0.004554702 -0.0040497226 -0.0036001788 -0.00013867025 -0.004625059 -0.0030946454
-0.0034883455 -0.0041766553 -0.00037910545 0.003990447 0.003429436 0.0038486884 -0.0021927168 0.0035311547
0.0034308129 -0.0023833038 0.0017914678 -0.0032821046 0.0032182375 0.0021791682 -0.0005237151 0.0022458388

convs_bc.bias_bc f4 [4, 32, 1]
00000000: 73e6 1039 679b 3039 aecf d239 b5ff f136
00000010: 5326 99ba 6015 053b 10c2 4fba 0852 e2b9
00000020: aba6 b0ba 1408 1eb9 4609 6e3a c728 b139
00000030: 3ef5 6a39 0d2f 5b3a 6ed5 5fba 9d6a 9f3a
00000040: 1439 bd39 3c5c d437 ab76 cb39 20d9 823a
00000050: 55c0 8bb9 ba5d 3fba 71bc eb39 c625 1bb9
00000060: 56bd 883a 16e0 8939 dbb2 84b9 63a6 8cb9
00000070: 64a6 dcba 4799 bc3a bef4 16ba 8ae0 13ba
00000080: b6b9 30ba 3d5c 983a b587 c6b9 4bb0 1b3b
00000090: c560 493a 905f b539 2e40 d8ba 0a22 94ba
000000a0: 6368 fdb9 15eb 86ba 4e2b 833a c54f 28ba
000000b0: 5ef9 7bb8 ef02 b8ba 8b30 a7b9 72a0 a7ba
000000c0: e965 633a d1a7 8a3a 9df7 fab9 f969 de3a
000000d0: e51b 8aba 10be e7ba a30a 56b9 1d69 3f3a
000000e0: 8d7e f639 e759 c039 462b 1fba 2060 0e3a
000000f0: 8edd fcb9 f508 a6b9 3770 02bb b3ae fb38
00000100: d548 d739 0fc0 6bba a700 fb37 4ae8 7fba
00000110: 2367 de39 677c ff39 d842 76ba 7df8 223a
00000120: 5d09 dc39 6f37 9aba 334b 473a 5dca bb39
00000130: b0e9 03ba a038 9bb9 c634 64ba 81ce 91b9
00000140: 3932 1fba b769 b73a 7804 4eba dc9d 9dba
00000150: 0ce0 ce39 e9cd 3a3a 3a24 1bba 52f9 86ba
00000160: 2500 99b9 cf18 283a 2433 9c3a 0101 71ba
00000170: 90e9 a4ba 01d8 3bba cd1c 033a 7168 89b9
00000180: ba52 5339 238c 38ba ba85 9d39 8226 99ba
00000190: cc41 90b9 ceec a7b9 bff5 fcb9 30a3 03ba
000001a0: 0b6d 9439 ec9b 1aba 247d 4b3a 6ee2 cb39
000001b0: 0797 10bb 6c05 d1ba b175 10ba 93b9 8a3a
000001c0: f3c5 9cba 8aa3 68b9 c769 e9b9 aeaa e63a
000001d0: b4fe a43a c4e0 12bb f36e bbba 2278 e23a
000001e0: c5ec 9337 82a7 053b 1048 093a 055c 8fba
000001f0: 19d5 8fb8 75ef 5e3a 493f c93a ab9a 9dba
0.00013818759 0.0001684256 0.00040209055 7.212128e-06 -0.0011684395 0.002030693 -0.0007925341 -0.00043167197
-0.0013477405 -0.00015071064 0.00090803613 0.00033790452 0.00022407339 0.0008361198 -0.00085385784 0.001216251
0.00036091416 2.531532e-05 0.00038807592 0.0009982921 -0.00026655445 -0.0007300038 0.00044963093 -0.00014796024
0.0010432403 0.00026297633 -0.0002531026 -0.0002682685 -0.0016834256 0.0014388942 -0.00057585153 -0.0005641064
-0.000674154 0.0011624169 -0.00037866613 0.0023756202 0.0007681961 0.0003459421 -0.0016498619 -0.0011301648
-0.00048333695 -0.0010293449 0.0010007413 -0.0006420578 -6.0075305e-05 -0.001403896 -0.0003188889 -0.0012788905
0.00086745486 0.0010578578 -0.00047868202 0.0016968838 -0.0010536878 -0.0017680544 -0.00020412593 0.0007301735
0.00047015064 0.00036688076 -0.0006071817 0.0005431194 -0.00048230257 -0.0003166866 -0.001990331 0.00012001153
0.0004106226 -0.00089931575 2.9921835e-05 -0.0009762092 0.00042419982 0.00048730077 -0.0009394116 0.0006216837
0.00041968646 -0.0011765788 0.0007602453 0.00035818192 -0.00050320756 -0.00029606093 -0.00087053736 -0.00027810413
-0.00060728524 0.0013993297 -0.0007858942 -0.0012025195 0.0003945831 0.000712602 -0.0005918179 -0.0010297692
-0.00029182542 0.0006412388 0.0011917097 -0.000919357 -0.0012581814 -0.0007165671 0.0005001545 -0.0002620849
0.00020153346 -0.0007039925 0.00030045008 -0.001168445 -0.00027514843 -0.00032029155 -0.0004824828 -0.000502157
0.00028310003 -0.0005897868 0.0007762483 0.0003888788 -0.0022062676 -0.001594705 -0.00055107014 0.001058387
-0.0011960849 -0.00022186167 -0.00044520033 0.0017598474 0.0012588114 -0.0022411803 -0.0014300033 0.0017278234
1.763402e-05 0.0020394032 0.00052368734 -0.0010937458 -6.858464e-05 0.000850431 0.0015353943 -0.0012024244

convs_bc.weight.0.tensor f4 [32, 32, 6, 2]
00000000: d626 893b a90d bbb8 a77a 363b 514e 483b
00000010: 2196 3c3b d0dd 7a3b 4c82 6a3b ae6c 513b
00000020: 3733 843b 010a 2c3b 18b6 3c3b d47f 7c3b
00000030: 951d 553b 1529 0339 2e9d 7f3a 6c38 523a
00000040: 5a9a 823a 2b75 ac3a ffca 913a 5bfb d63a
00000050: 72dd b23a 4aed f43a aa2f da3a 4cc2 f53a
00000060: 4cf3 b8ba 99d7 71b8 e127 4939 c9d0 90b9
00000070: 149c cd39 6ab7 0ab9 ffff f539 42a6 0ab9
00000080: f335 ff39 c20a afb9 1f86 e839 5955 a3b9
00000090: ef80 8d3b b3a3 18b8 bb67 e93a ec35 703b
000000a0: 5d86 fc3a 48e1 603b e8b2 293b 28cf 4b3b
000000b0: 8ce5 2e3b 00cd 993b 4bc3 7b3b 8f07 3e3b
000000c0: be50 6b3b 387d 04b9 43b5 27b9 e77e 60ba
000000d0: 7c97 39b6 137f bfb9 f576 5639 d234 37b9
000000e0: 57a7 d639 3e63 b3b9 85d1 e039 0040 b5b8
000000f0: ba84 7e3b fe90 6d36 afd5 a6b8 b79c 9b38
00000100: 3109 d237 02b5 d7b8 9148 be38 6193 2439
00000110: fd76 9f38 51b0 d138 df23 5739 1376 e738
00000120: f90d 713b ab6d d2b8 6997 9f3a faa8 213b
00000130: 35da 903a 19cf 5b3b 4f28 ae3a 12bb 233b
00000140: 8e32 c13a 8a80 363b 2f08 d93a 33a0 693b
00000150: 0f4c 2ebb c5f3 99b8 15df fdb9 c347 b2ba
00000160: 19f6 cfb9 4d98 bdba c43c 30ba 6b2a d7ba
00000170: 88c4 79ba b9bb caba 13db 9bba b39f e0ba
00000180: ad56 933b 00be fbb8 8a22 883a 9686 903a
00000190: cadd 6a3a b2b8 ce3a bfd2 973a 3de0 f93a
000001a0: df5e ae3a dc3f 093b a57a b53a 80c0 133b
000001b0: 82f4 9e3b 9fcd 0b39 fc0c 5737 8a6e 5939
000001c0: 09cf 7c39 57a1 0938 41ac 6739 3f2f b938
000001d0: 1ce5 8a38 ea42 ae39 5027 3a39 b157 9939
000001e0: daf6 633b 11c7 1eb6 fb76 573b b867 3e3b
000001f0: 36d1 3d3b 0d2c 2f3b 6e57 4c3b e5cb 6a3b
00000200: cc70 6a3b a987 013b 64da 1f3b 6e4f 3d3b
00000210: 55b2 4cbb 2dac 1939 b287 7abb 1a05 21bb
00000220: 1a47 d9ba 7de4 daba 0de6 36bb 2c16 1dbb
00000230: f92b 55bb 64d5 05bb 9a75 26bb 7953 48bb
00000240: 8bc8 64bb 31da d438 7c4f 193a 6a0a ddb9
00000250: 412e 123a d7f5 17ba 0274 d539 766e 3dba
00000260: 6524 ab39 ccfc 73ba 2202 bd39 0511 83ba
00000270: 8d56 543b 8467 1139 22f1 ef38 e977 95b9
00000280: db13 9c38 69f0 4238 0c9c 49b9 249d eab8
00000290: 14dc de38 4944 8db8 36c9 a038 9682 12b8
000002a0: f611 7abb cede ddb8 0e10 c4b8 4a59 3bba
000002b0: eda9 d8b8 8f67 82ba d0cd 19b9 5213 88ba
000002c0: 294b f3b9 be02 bdba 2aa9 afb9 6ab9 02bb
000002d0: d0ab 36bb e715 a7b8 7793 88b9 6a0a 9fb9
000002e0: 6049 cab7 9e6c 03ba f767 e9b8 1617 24ba
000002f0: dd3d afb9 b1b4 37ba d188 e9b8 e191 59ba
00000300: d699 84bb 2e05 d638 feeb 14bb f249 d4ba
00000310: 3d2f 38bb eccf 25ba bac8 3dbb 2f49 13bb
00000320: 7202 3bbb a549 3bbb dad4 29bb d0cf 32bb
00000330: c2b5 58bb e923 1539 cd97 b338 8b7a d7ba
00000340: c53c bab8 2fee f7ba 6df4 07ba 4c8c 38bb
00000350: 8b3f 94ba dce1 72bb 37f1 ddba 5fc1 0cbb
00000360: e243 bfba a49b 01b9 939c dd38 2800 09b8
00000370: d60f e8b7 fe38 ac39 64dd c4b8 cbff 8ab9
00000380: 86d0 e2b7 cbec 99b9 266c 5c38 d2dd b0b9
00000390: 024d 4a3b 51f0 abb8 f26b cd3a 7f12 3a3b
000003a0: 6ee6 e93a 22c4 113b a5f8 003b 5ee1 073b
000003b0: 29cf 043b b6ad 523b e320 183b 17e8 393b
000003c0: 29b2 913b 5534 80b7 c75b e83a 1f34 b23a
000003d0: f40b 093b ddfc 9c3a 08a3 2e3b dbd8 183b
000003e0: fbd2 ed3a 0eaa 273b a06d 133b bf79 343b
000003f0: ff1d 8d3b 893d 4db7 26bf 0a39 c3f2 f139
0.004185538 -8.919399e-05 0.0027844103 0.0030564258 0.0028776007 0.0038279183 0.003578323 0.0031955647
0.0040344256 0.002625108 0.002879506 0.003852834 0.0032518853 0.00012508438 0.00097508996 0.0008019272
0.0009964213 0.0013157477 0.001112312 0.0016401814 0.0013646318 0.001868644 0.0016646285 0.0018749922
-0.0014110594 -5.765967e-05 0.0001918371 -0.00027621377 0.00039216934 -0.00013229033 0.00046920773 -0.00013222641
0.00048677585 -0.00033386616 0.00044350416 -0.00031153372 0.0043183486 -3.639208e-05 0.0017807403 0.0036653234
0.0019266118 0.0034313966 0.002589399 0.0031098817 0.0026687114 0.0046936274 0.0038415964 0.0028996204
0.003590628 -0.00012635149 -0.00015993886 -0.0008563832 -2.7655324e-06 -0.00036525037 0.00020452945 -0.00017471917
0.0004094194 -0.00034215482 0.00042880714 -8.6426735e-05 0.0038836435 3.5400149e-06 -7.9552985e-05 7.4201664e-05
2.503823e-05 -0.00010285714 9.0734226e-05 0.00015695162 7.603874e-05 9.998738e-05 0.00020517361 0.000110369314
0.003678201 -0.000100340076 0.0012175861 0.0024667368 0.0011051359 0.0033540188 0.0013287159 0.0024983329
0.0014739798 0.0027847611 0.0016558225 0.0035648465 -0.0026595627 -7.341014e-05 -0.0004842213 -0.0013601709
-0.00039665474 -0.0014464945 -0.0006722922 -0.001641584 -0.00095278816 -0.0015467323 -0.0011890851 -0.0017137438
0.0044964165 -0.00012004003 0.001038627 0.0011026438 0.0008959441 0.0015771596 0.0011583193 0.0019064021
0.001330342 0.0020942604 0.0013845755 0.002254516 0.004850925 0.00013332673 1.2818022e-05 0.00020735912
0.0002410972 3.2813605e-05 0.00022094046 8.830288e-05 6.623028e-05 0.0003323772 0.00017752987 0.0002924777
0.0034784586 -2.3659707e-06 0.0032877314 0.002905352 0.002896381 0.0026729137 0.0031180042 0.0035827097
0.0035772799 0.0019764698 0.0024391646 0.0028886455 -0.0031234224 0.00014655358 -0.0038227853 -0.002456969
-0.0016576976 -0.0016700175 -0.0027908117 -0.0023969514 -0.003252743 -0.002042138 -0.0025399686 -0.0030567332
-0.0034909572 0.00010149589 0.0005848331 -0.00042160164 0.00055763504 -0.0005796826 0.00040712958 -0.0007226238
0.00032642778 -0.0009307384 0.00036050478 -0.0009999579 0.003240022 0.0001386684 0.000114413226 -0.00028508835
7.442358e-05 4.6477104e-05 -0.00019226986 -0.00011187259 0.00010626778 -6.736123e-05 7.666873e-05 -3.493073e-05
-0.0038157678 -0.00010579602 -9.348999e-05 -0.0007146789 -0.00010331334 -0.0009949076 -0.00014667888 -0.0010381734
-0.0004640457 -0.0014420373 -0.00033504638 -0.0019946941 -0.0027873404 -7.96726e-05 -0.0002604981 -0.00030334602
-2.4114444e-05 -0.00050134386 -0.00011129671 -0.00062595436 -0.00033424693 -0.0007007821 -0.0001113579 -0.0008299631
-0.004046659 0.0001020528 -0.002272367 -0.0016196354 -0.0028104328 -0.0006325233 -0.0028958754 -0.002247404
-0.0028535393 -0.002857783 -0.0025914223 -0.002728451 -0.003306732 0.00014223125 8.56366e-05 -0.0016439719
-8.88049e-05 -0.0018915589 -0.00051862636 -0.0028159795 -0.0011310441 -0.0037060892 -0.001693285 -0.0021477563
-0.0014592374 -0.0001236038 0.000105672654 -3.266349e-05 -2.766393e-05 0.0003284886 -9.3872455e-05 -0.00026511992
-2.70384e-05 -0.0002935886 5.255281e-05 -0.00033734605 0.0030868654 -8.198678e-05 0.0015672429 0.0028392372
0.0017845163 0.0022242148 0.0019679454 0.0020733695 0.0020265079 0.0032146997 0.0023212961 0.0028367096
0.004446287 -1.5283158e-05 0.0017727547 0.0013595856 0.0020911666 0.0011977215 0.0026647467 0.0023322615
0.0018144542 0.0025583538 0.0022495762 0.0027538387 0.0043065543 -1.2233279e-05 0.00013231914 0.00046147974
