neuraloperator/examples/para/fno_para_202305121546_001002003004_modes36_epochs200.pth (torch, 812179 bytes, 31 tensors)

convs.bias f4 [4, 32, 1]
0	0x3c80d939	0.01572858
1	0x3c8278cc	0.015926741
2	0x39704082	0.00022912215
3	0x3c8ff52f	0.017572967
4	0xbca33273	-0.019921517
5	0x3d0495ff	0.03236961
6	0x3ba296b4	0.004961813
7	0x3d29153e	0.041280024
8	0x3d077fa0	0.033080697
9	0x3a73418d	0.0009279482
10	0xbbba9de9	-0.005695094
11	0x3bb20609	0.0054328484
12	0xbb340b59	-0.0027472584
13	0xbb9a39dd	-0.004706605
14	0x3cbf293d	0.023335094
15	0x3bbc0cce	0.005738831
16	0xbcb9a04c	-0.022659443
17	0xba1fe863	-0.0006099997
18	0x3bc4c1b3	0.006004536
19	0x3c867fbb	0.016418329
20	0x3bb67726	0.005568403
21	0x3b86cb02	0.004113556
22	0xbb852b70	-0.004064016
23	0x3b4d3b16	0.0031315736
24	0x3cf8c274	0.03036616
25	0x3a685d9b	0.0008864046
26	0x3d2cdbf0	0.042201936
27	0xbca5b5ed	-0.02022835
28	0x3bd60045	0.006530794
29	0x3b069fdd	0.0020542063
30	0x3bbd5466	0.0057778833
31	0x3c9eb4b4	0.019373275
32	0xbb87d574	-0.0041453186
33	0x3bc57ab7	0.0060265916
34	0xba8ba5f6	-0.0010654319
35	0xbb98c3eb	-0.004662027
36	0xbc8aa1eb	-0.016922912
37	0x3bbfc9db	0.0058529205
38	0x3b5be3de	0.0033552567
39	0x3bc0cdba	0.0058838995
40	0x3b9b283a	0.00473502
41	0xbafda4ee	-0.0019351521
42	0xbbd4486a	-0.006478359
43	0x3b9ef8fa	0.0048514577
44	0x391fea65	0.0001525074
45	0xbbad8fb3	-0.0052966713
46	0x3be0d8f6	0.0068618013
47	0x3bb8dcd2	0.005641558
48	0xbc988152	-0.018616352
49	0xbbd3b2d9	-0.0064605293
50	0x3be1a0b4	0.0068856124
51	0xbba44c02	-0.0050139436
52	0x3be4e6e8	0.006985534
53	0x3b7b2ccd	0.0038326264
54	0xbb553aa2	-0.0032536169
55	0x3bc2f9c6	0.0059501855
56	0x3bea2ee2	0.007146702
57	0x3b2645ab	0.0025371115
58	0x3b8afc76	0.0042415215
59	0xbca29730	-0.019847482
60	0x3bc66caf	0.0060554366
61	0x3ada519c	0.0016656402
62	0x3b6bf4f6	0.0036004162
63	0x3c058d55	0.008151372
64	0xbb1f1fdf	-0.0024280471
65	0x3be72351	0.0070537706
66	0xbb1a17e0	-0.0023512766
67	0xbb6d9452	-0.0036251736
68	0xbc50d1d8	-0.012745343
69	0x3bac1039	0.0052509573
70	0x3bed7740	0.0072468817
71	0x3bf23ca0	0.007392481
72	0x3b89532e	0.004190824
73	0xbb185964	-0.002324664
74	0xbbcaa118	-0.0061837547
75	0x3be8e347	0.0071071717
76	0x3b7a8b61	0.003823005
77	0xbb7374ed	-0.003714855
78	0x3bdf9ba9	0.006823976
79	0x3c06d20a	0.008228788
80	0xbc18eaa2	-0.009333285
81	0xbc115119	-0.008869433
82	0x3be58bca	0.0070051895
83	0xbb6f8b29	-0.0036551452
84	0x3bd84cd6	0.0066009564
85	0x3ba490b2	0.005022132
86	0xbb896eec	-0.004194131
87	0x3b985510	0.004648812
88	0x3c09d929	0.008413591
89	0xba93be33	-0.0011271894
90	0x3b7e1e33	0.0038775324
91	0xbc6810ef	-0.0141641935
92	0x3bf27ecf	0.0074003707
93	0x3a64d230	0.000872883
94	0x3bf943cf	0.0076069604
95	0x3bf7104b	0.007539784
96	0xbbdb89b5	-0.0066997656
97	0x3c2177a5	0.009855186
98	0x3a4616f2	0.00075565197
99	0xbbdec2e4	-0.006798135
100	0xbc085328	-0.008320607
101	0x3bd00dc3	0.006349297
102	0x3bf1f8ce	0.007384396
103	0x3c1b3e58	0.009475313
104	0x3bc5017e	0.006012141
105	0xbbc79673	-0.006090933
106	0xbc227844	-0.009916369
107	0x3be30d29	0.006929059
108	0xbbef07ad	-0.007294616
109	0xbb8feac6	-0.004392001
110	0x3c062cec	0.008189421
111	0x3c1fb40d	0.009747517
112	0xbc0db5a0	-0.00864926
113	0xbbf20a24	-0.0073864628
114	0x3bcb89b6	0.006211485
115	0xbc179148	-0.009250946
116	0x3c07ccab	0.008288543
117	0x3b19e9ae	0.0023485231
118	0xbb438b48	-0.0029837657
119	0x3bcb835e	0.0062107285
120	0x3c14c2a8	0.009079613
121	0xbb9ed2e4	-0.0048469175
122	0x3b1a940e	0.0023586783
123	0xbc160fc9	-0.009159037
124	0x3c0eba28	0.008711375
125	0x3af520ba	0.001870177
126	0x3b99622e	0.0046808934
127	0x3c1d02fb	0.00958323

convs.bias_bc f4 [4, 32, 1]
0	0xb989643b	-0.00026205354
1	0x3a83dc05	0.0010060078
2	0xbae32fb4	-0.0017332942
3	0x3867f98f	5.530711e-05
4	0xba2ad580	-0.00065167993
5	0xb9dff0cd	-0.00042713285
6	0x3a930ca4	0.0011218977
7	0xbb04062d	-0.0020145283
8	0x3a26bb11	0.00063602725
9	0xba5b0a1b	-0.0008355693
10	0x3a8cadb5	0.0010732921
11	0xb8e65fa4	-0.00010985069
12	0x3a5c0fd6	0.0008394694
13	0xb9f0b4b2	-0.00045910996
14	0xba61da81	-0.00086156285
15	0xba3175c1	-0.0006769561
16	0xb9fe30a2	-0.0004848289
17	0x39732176	0.00023186751
18	0x3a24607b	0.000627048
19	0x3b1d17c9	0.0023970476
20	0x36ceae88	6.1595965e-06
21	0xb8307b4b	-4.2076495e-05
22	0xb9ce0652	-0.0003929609
23	0xbad21fd3	-0.0016031213
24	0xba4c787d	-0.00077999366
25	0x3a080c71	0.0005189842
26	0x39153c22	0.00014232149
27	0x3a9faf01	0.0012182893
28	0xb9d4e3c8	-0.000406055
29	0xbae1d461	-0.0017229432
30	0xb9a74d4e	-0.0003191032
31	0xbaa12314	-0.0012293779
32	0x3ab0b66f	0.0013482104
33	0x3ad7677e	0.0016434041
34	0x3897637e	7.218773e-05
35	0x385ed16b	5.312396e-05
36	0xbae2ad5f	-0.00172941
37	0x3abf5ed2	0.0014600402
38	0x396641bb	0.00021958996
39	0x3ad7ec3f	0.0016473605
40	0xb99876b8	-0.00029080152
41	0xbaac05d7	-0.0013124299
42	0x38e59541	0.000109473716
43	0x3ac5d6bc	0.0015093903
44	0x39a22700	0.00030928105
45	0xbaaccece	-0.0013184191
46	0x3ab62a69	0.0013898137
47	0xba66b948	-0.0008801413
48	0xba007dac	-0.0004901539
49	0xb9a7132f	-0.00031867015
50	0xbaf87755	-0.0018956462
51	0x39b45765	0.0003439739
52	0xba29b697	-0.00064740464
53	0x3a024775	0.00049697544
54	0x3aa0461e	0.0012227928
55	0xb92df852	-0.00016591072
56	0x3aab2093	0.0013055973
57	0x37b58a74	2.1641354e-05
58	0x3ae16f87	0.0017199375
59	0x3a5b9b2b	0.0008377309
60	0x39ae02f3	0.00033190064
61	0xbaf1c7da	-0.0018446401
62	0xb9d762b3	-0.00041081532
63	0xbace3a01	-0.0015733839
64	0xb9f6d209	-0.00047077265
65	0xb912d134	-0.00014001579
66	0xbab872ac	-0.0014072261
67	0x3a48982c	0.000765207
68	0x39ae9059	0.00033295414
69	0x3a82a83a	0.0009968348
70	0x3988cbd1	0.00026091796
71	0x3a91f779	0.0011136375
72	0xba46dae5	-0.00075857184
73	0xb942aae7	-0.00018564948
74	0x39664dda	0.00021963511
75	0x39e38f57	0.0004340361
76	0xba4604ae	-0.0007553798
77	0xb9a20aa4	-0.00030906976
78	0xba79f579	-0.00095351745
79	0xb9bc4d4d	-0.00035915748
80	0x3a1a11f9	0.0005877312
81	0xba2455cb	-0.00062688877
82	0x3b218445	0.002464549
83	0x3aab0326	0.0013047203
84	0x3ac1c015	0.0014781976
85	0xb9498c7c	-0.00019221188
86	0xbaf177f4	-0.001842259
87	0x3a5f9b9c	0.00085299625
88	0x3ae2716a	0.0017276232
89	0x390fa6aa	0.0001369963
90	0xba64eaa2	-0.0008732473
91	0xba0e0749	-0.00054179557
92	0x3a5b1e3a	0.0008358691
93	0x3a69121d	0.0008890944
94	0x3af97e55	0.0019034842
95	0x3a3b30f8	0.0007140781
96	0xba912a04	-0.0011075144
97	0xba34cd81	-0.00068970775
98	0xba2758b0	-0.000638376
99	0xba370995	-0.0006982324
100	0xba5d7ca0	-0.00084490515
101	0xb997578d	-0.00028866195
102	0x380eaff5	3.401931e-05
103	0x38da6f09	0.00010415732
104	0x3a8cbc3d	0.0010737252
105	0xba45f813	-0.00075519196
106	0x3a03ddd7	0.000503031
107	0x3aaa2477	0.0012980838
108	0x3ab38721	0.0013696888
109	0xba18a27a	-0.0005822551
110	0xbae89c40	-0.0017746761
111	0x3a263268	0.00063399086
112	0xbaf40788	-0.0018617967
113	0xba31ee96	-0.0006787566
114	0xba63e001	-0.0008692742
115	0xbb38c4b1	-0.002819341
116	0xba5adc23	-0.0008348843
117	0xba29f112	-0.00064827607
118	0xb6e7309e	-6.8899963e-06
119	0x3b13c282	0.0022546356
120	0x3ae90e24	0.0017780703
121	0xbb4da2f7	-0.0031377652
122	0xbb01ecbc	-0.0019824943
123	0x3a41d691	0.00073943386
124	0xba903dac	-0.0011004708
125	0xba3ed79d	-0.00072800537
126	0xb9d8118b	-0.000412118
127	0x3931af14	0.00016945257

convs.weight.0.tensor f4 [32, 32, 18, 2]
0	0xbc749be8	-0.014929749
1	0x01854872	4.896044e-38
2	0xbc47e848	-0.012201376
3	0xbad2972f	-0.0016066785
4	0xbb552fbf	-0.003252968
5	0xba38a698	-0.00070438674
6	0xbab5613f	-0.0013838186
7	0xb99bceb8	-0.0002971792
8	0xba711153	-0.0009196002
9	0xb93a2121	-0.00017750684
10	0xba300dcc	-0.0006715923
11	0xb91e73af	-0.0001511115
12	0xb7aa327e	-2.0289091e-05
13	0xb903e9de	-0.00012580256
14	0x3937643a	0.00017489577
15	0xb8f05df2	-0.000114615905
16	0x3a23f861	0.0006254968
17	0xb884f4c7	-6.339844e-05
18	0xb8b40e2f	-8.585711e-05
19	0xb8a6690a	-7.935062e-05
20	0xb91db833	-0.00015041306
21	0xb8cd4dbb	-9.78964e-05
22	0xb9102d92	-0.00013749886
23	0xb8c3c7d0	-9.3355426e-05
24	0xb8a71e7c	-7.968859e-05
25	0xb89eb95b	-7.568552e-05
26	0xb6e65361	-6.8642407e-06
27	0xb86fcffb	-5.7175737e-05
28	0x38f1e3e9	0.00011534227
29	0xb7d7ee44	-2.5740948e-05
30	0x39f974a6	0.0004757989
31	0x386049bd	5.3474436e-05
32	0x3a46f4f0	0.0007589599
33	0x391c0669	0.00014879707
34	0x3a86978a	0.0010268551
35	0x39f1e5a6	0.00046138203
36	0xbbf86fd6	-0.0075816913
37	0x8197e6c2	-5.579976e-38
38	0xbc63e95d	-0.013910619
39	0x3b57d91b	0.0032935801
40	0xbbe0ae7b	-0.006856737
41	0x3ba304ed	0.0049749524
42	0xbb853cbb	-0.0040660775
43	0x3b9d6316	0.0048030717
44	0xbb541d1e	-0.0032365988
45	0x3b70ba5b	0.003673217
46	0xbb396b2b	-0.0028292637
47	0x3b35f8a3	0.0027766607
48	0xbb6605ad	-0.0035098598
49	0x3b38b911	0.002818648
50	0xbb61323e	-0.0034362222
51	0x3b0c101e	0.0021371911
52	0xbad85be3	-0.0016506877
53	0x3b482e0a	0.003054502
54	0xbb74ad2d	-0.0037334666
55	0x3ab06cfd	0.0013460215
56	0xbb1617fe	-0.0022902484
57	0x3a693b80	0.0008897111
58	0xba9cee54	-0.0011972883
59	0x3aa5d87e	0.0012653021
60	0xb990704b	-0.00027549485
61	0x3ad5953b	0.0016295084
62	0xb90026af	-0.00012221442
63	0x3adc5fb8	0.0016813194
64	0x3979a34c	0.00023807323
65	0x3aee4b2d	0.0018180363
66	0x3acc0ba6	0.0015567436
67	0x3abbcc4d	0.0014327854
68	0x3adc313a	0.0016799339
69	0x391e8f72	0.00015121492
70	0x3b3bda77	0.002866415
71	0x3af9a141	0.001904525
72	0xbbcdb844	-0.0062780697
73	0x012775c0	3.0757537e-38
74	0xbc348c44	-0.01101977
75	0xbc3e112d	-0.011600775
76	0xbc448dfc	-0.011996742
77	0xbc9976ba	-0.018733371
78	0xbc5e888b	-0.013582359
79	0xbc16deba	-0.009208376
80	0xbc922b6f	-0.017842976
81	0xbc4baef0	-0.012431845
82	0xbcb3dd09	-0.021955984
83	0xbc8bec9d	-0.0170806
84	0xbcd3dc13	-0.025861776
85	0xbce9f673	-0.028559899
86	0xbcd154d8	-0.025553152
87	0xbcebd392	-0.028787408
88	0xbd0f9f5b	-0.035064083
89	0xbd1b7c49	-0.037960324
90	0x3adb2014	0.0016717934
91	0xbbd883a8	-0.0066074915
92	0x3b960f3f	0.004579454
93	0xba895df2	-0.0010480268
94	0x3b028dce	0.0019920948
95	0xbbb67ba2	-0.0055689374
96	0xbb8f7350	-0.00437776
97	0xbbb5c618	-0.0055472963
98	0xbc26f818	-0.010190986
99	0xbbe18b39	-0.0068830517
100	0xbcb19ba7	-0.021680666
101	0xbc3c69d4	-0.011499841
102	0xbd3af00c	-0.045639083
103	0xbc912ee2	-0.01772255
104	0xbd86e069	-0.065857716
105	0xbc12e3a3	-0.008965406
106	0xbd9e164b	-0.07719096
107	0x3ad4f975	0.001624866
108	0xbc9c7dd6	-0.019102972
109	0x80996000	-1.4085269e-38
110	0xbc73808e	-0.014862193
111	0xbb2fa373	-0.0026800304
112	0xbb6b55be	-0.003590926
113	0xbab3579e	-0.0013682728
114	0xbab945b4	-0.0014135153
115	0xba1bebc7	-0.00059479143
116	0xba89a51b	-0.0010501476
117	0xb99f9c35	-0.00030443227
118	0xba5b2d1c	-0.0008360909
119	0xb97530cf	-0.00023383203
120	0x39d7d772	0.00041168515
121	0xb9b314f6	-0.00034157158
122	0x3a388cf6	0.0007040048
123	0xb9c1dabd	-0.000369748
124	0x3abacaf2	0.0014251156
125	0xb9e97c19	-0.00044533683
126	0x3739662f	1.1050651e-05
127	0xb8feb71b	-0.0001214577
128	0xb95bdeda	-0.00020968486
129	0xb8cf3fd8	-9.882421e-05
130	0xb961fce9	-0.00021551888
131	0xb8c3b66f	-9.3323055e-05
132	0xb8d4a614	-0.00010139882
133	0xb8ca648b	-9.650838e-05
134	0x3851aba3	4.9989332e-05
135	0xb8da61f0	-0.00010413292
136	0x39aacb59	0.00032576433
137	0xb901e8c8	-0.00012389116
138	0x3a90f8b4	0.0011060447
139	0xb93e7af1	-0.00018165611
140	0x3adb6c58	0.0016740663
141	0xb90d8415	-0.00013496012
142	0x3b0bac58	0.0021312442
143	0xb944566c	-0.00018724211
144	0x3c27eb41	0.01024896
145	0x01674bac	4.248229e-38
146	0xbb39632c	-0.002828787
147	0xbccdc06e	-0.025116172
148	0xbcbc419d	-0.022980506
149	0xbd0e0c66	-0.034679793
150	0xbcc7db9e	-0.024396714
151	0xbd36cc11	-0.044628207
152	0xbcfe1712	-0.03101686
153	0xbd5fb3f8	-0.05461499
154	0xbd15a9a4	-0.036538735
155	0xbd859f9c	-0.06524584
156	0xbcc13f71	-0.023589822
157	0xbd4a7c05	-0.04943468
158	0xbcb09f88	-0.021560445
159	0xbd532fef	-0.051559385
160	0xbcd91ae4	-0.02650208
161	0xbd7e60b5	-0.062103946
162	0xb92d30c7	-0.00016516737
163	0xbc6b9739	-0.014379316
164	0x3b1639a7	0.0022922547
165	0xbc3b8d17	-0.011447213
166	0x3a6a28c0	0.0008932464
167	0xbc39ded2	-0.011344628
168	0xbb15f131	-0.0022879357
169	0xbc67d04d	-0.014148784
170	0xbbe31eaf	-0.006931148
171	0xbc996dd0	-0.01872912
172	0xbc81c539	-0.015841113
173	0xbcfc59ce	-0.030804541
174	0xbd313169	-0.04326001
175	0xbd7de99c	-0.061990365
176	0xbd8d87d1	-0.069106705
177	0xbdc33beb	-0.09532913
178	0xbdab5ca2	-0.08367278
179	0xbdc3ca98	-0.09560126
180	0xbc8dd36a	-0.017312724
181	0x015072bc	3.8285884e-38
182	0xbbfaea0f	-0.0076572965
183	0xbaec2241	-0.001801558
184	0xbb6ae4d7	-0.0035841966
185	0x3ab6ba47	0.0013941013
186	0xbadabcd1	-0.0016688352
187	0x3b373f51	0.0027961324
188	0xba49a0ee	-0.0007691522
189	0x3b234905	0.002491535
190	0xba95bb6e	-0.0011423656
191	0x3b1d1d8c	0.002397391
192	0x374def18	1.22746205e-05
193	0x3b8c10e2	0.0042744735
194	0x39afad4c	0.00033507717
195	0x3b937c5f	0.00450091
196	0x3b056fb2	0.0020360765
197	0x3c053665	0.008130644
198	0xbb38bf3f	-0.0028190163
199	0x3b9bcae2	0.00475441
200	0xbb1fb888	-0.0024371464
201	0x3b6d789a	0.0036235214
202	0xba89644e	-0.0010482164
203	0x3b536680	0.003225714
204	0x3aabe72a	0.0013115157
205	0x3b6f7415	0.0036537696
206	0x3b278eaf	0.0025567224
207	0x3b79bd6f	0.0038107296
208	0x3b8779ce	0.0041343933
209	0x3b975c9b	0.0046191937
210	0x3bc21b54	0.005923668
211	0x3b8efce4	0.004363643
212	0x3b8e9b08	0.0043519773
213	0x3ac4c388	0.0015011886
214	0x3c40f433	0.011776972
215	0x3bb9d819	0.005671513
216	0xbc547134	-0.012966443
217	0x821db9f8	-1.1587909e-37
218	0xbc77ed9d	-0.015132335
219	0xbb7dc75b	-0.0038723561
220	0xbca69b76	-0.020337801
221	0x36e490af	6.811773e-06
222	0xbcb0898d	-0.021549964
223	0xb917bb3a	-0.0001447023
224	0xbcbd75a5	-0.023127386
225	0x3a2c70b1	0.00065780716
226	0xbcd29dfb	-0.025710097
227	0x392f4656	0.00016715503
228	0xbcaad494	-0.020853318
229	0xbb526f40	-0.0032109767
230	0xbca2d63e	-0.01987755
231	0xbb3d22c1	-0.0028859826
232	0xbcbff0d0	-0.023430258
233	0xbbd4dc76	-0.0064960076
234	0xbc636f47	-0.013881511
235	0xba9e833b	-0.0012093553
236	0xbc475d66	-0.012168264
237	0xbb5e768a	-0.0033945167
238	0xbc04729f	-0.008083968
239	0xb8cf6cc3	-9.8907876e-05
240	0xbb836fe0	-0.0040111393
241	0x3a624efb	0.0008632985
242	0xba82e9af	-0.0009987856
243	0xbb4fd496	-0.0031712404
244	0x3bb49b3a	0.0055116685
245	0xbbf2360b	-0.0073916963
246	0x3c968424	0.018373556
247	0xbc931608	-0.017954841
248	0x3d87ea87	0.066365294
249	0xbcc03bbb	-0.023465982
250	0x3d9fa66e	0.07795416
251	0xbd455589	-0.048177276
252	0xbcda212f	-0.026627151
253	0x01ff4e9a	9.3784994e-38
254	0xbc5c8d8b	-0.013461481
255	0xbbf4426f	-0.0074542086

convs.weight.1.tensor f4 [32, 32, 18, 2]
0	0xba85d930	-0.0010211822
1	0x81406ba0	-3.5342048e-38
2	0xb9a66055	-0.0003173376
3	0xb8f6f52c	-0.00011775861
4	0xb99c3ade	-0.00029798498
5	0xb856cafa	-5.1210613e-05
6	0xb93e0c15	-0.00018124313
7	0xb81f2c2f	-3.7949703e-05
8	0xb8dbb72a	-0.00010476851
9	0xb803b2d1	-3.139937e-05
10	0xb86a7633	-5.590003e-05
11	0xb8106814	-3.4429206e-05
12	0xb77ca0d6	-1.5057818e-05
13	0xb8927b13	-6.984747e-05
14	0x373ad135	1.1135174e-05
15	0xb8bfb146	-9.1406095e-05
16	0x38340310	4.2918196e-05
17	0xb928319c	-0.0001604021
18	0xb7390e13	-1.1030136e-05
19	0xb86059f8	-5.348955e-05
20	0x358d5b68	1.0531921e-06
21	0xb88717ad	-6.4417116e-05
22	0xb716b3bd	-8.982545e-06
23	0xb85ced19	-5.26729e-05
24	0xb799adf8	-1.8320032e-05
25	0xb84f3101	-4.9398284e-05
26	0xb7c958f8	-2.4002497e-05
27	0xb85580ec	-5.0903225e-05
28	0xb8189a4f	-3.6383335e-05
29	0xb85560c0	-5.0873263e-05
30	0xb893bc4c	-7.044579e-05
31	0xb82281e2	-3.8744773e-05
32	0xb8db22cf	-0.000104492174
33	0xb6866a48	-4.005884e-06
34	0xb89288ab	-6.987279e-05
35	0xb87c417f	-6.014248e-05
36	0x3c927a5e	0.017880615
37	0x0065e458	9.3573e-39
38	0xbb7e7a67	-0.0038830282
39	0x3c64e1a6	0.013969814
40	0x3b64424b	0.0034829553
41	0x3c26aaae	0.010172529
42	0x3b0f7e52	0.002189536
43	0x3bf276f3	0.0073994338
44	0x3a3c442f	0.0007181791
45	0x3bab233e	0.005222707
46	0xb9d15cb5	-0.0003993266
47	0x3b815c45	0.003947767
48	0xbaf058e1	-0.0018337035
49	0x3b954be0	0.004556164
50	0xbb0c2411	-0.0021383802
51	0x3b903157	0.004400413
52	0xba8d3a47	-0.0010774814
53	0x3babe360	0.005245611
54	0xbb094d63	-0.0020950667
55	0x3ae386ab	0.001735886
56	0xba10162f	-0.00054964697
57	0x3a51eeb5	0.00080082874
58	0x39a75475	0.00031915648
59	0x3a510472	0.00079733797
60	0x3a81fb43	0.0009916801
61	0x3a9ff42d	0.0012203507
62	0x3ab3300c	0.0013670935
63	0x3ab41e46	0.0013741932
64	0x3b0bdfa7	0.0021343024
65	0x3aa1ed04	0.0012353961
66	0x3b89559c	0.0041911136
67	0x355ad0ff	8.151546e-07
68	0x3bacee3f	0.0052774246
69	0xbad075ad	-0.0015904211
70	0x3bd67b94	0.0065454934
71	0xbae9c53c	-0.001783527
72	0x3c9f1522	0.019419257
73	0x01e8d3ac	8.5527075e-38
74	0xbb5374e6	-0.0032265722
75	0x3c6037e2	0.0136851985
76	0x3b8cda4e	0.004298485
77	0x3c4891aa	0.01224176
78	0x3b9cd115	0.0047856667
79	0x3c06aee5	0.008220409
80	0x3b51c940	0.0032010823
81	0x3bbc0c77	0.0057387906
82	0x3ae8b16f	0.0017753075
83	0x3b8ae214	0.0042383764
84	0x3ac90156	0.0015335481
85	0x3ba0aed8	0.0049036555
86	0x3a90fa9a	0.0011061013
87	0x3b8db2ce	0.0043242937
88	0x3ae7bc09	0.001767994
89	0x3b74c982	0.0037351553
90	0xba074d24	-0.0005161336
91	0x3af42d6d	0.0018629261
92	0x39da6408	0.0004165473
93	0x3a84512f	0.0010094995
94	0x3a88d869	0.0010440472
95	0x3a4ae46c	0.0007739726
96	0x3af4945d	0.0018659938
97	0x3a698b8b	0.0008909038
98	0x3b23f0eb	0.0025015424
99	0x3a6058ae	0.0008558136
100	0x3b6442da	0.0034829886
101	0x3a0eb095	0.0005443183
102	0x3b9dbbce	0.004813648
103	0xba4f7c41	-0.00079149386
104	0x3b9751d5	0.0046179094
105	0xbb0b4a4d	-0.0021254004
106	0x3b926dda	0.0044686617
107	0xbb0cbe0d	-0.0021475584
108	0xbad4a78b	-0.0016224248
109	0x020bc168	1.0267612e-37
110	0xb9a16c78	-0.00030789129
111	0xb99d90c9	-0.00030053247
112	0xb988f27a	-0.000261206
113	0xb9747705	-0.00023313992
114	0xb90c214a	-0.00013363842
115	0xb9238a9b	-0.00015596526
116	0xb892a542	-6.992604e-05
117	0xb8e5c4ce	-0.00010956229
118	0xb8056598	-3.1804288e-05
119	0xb8bc67cc	-8.983872e-05
120	0x3782333f	1.5521071e-05
121	0xb91270ee	-0.00013965715
122	0x385b919f	5.234929e-05
123	0xb929cdac	-0.00016193715
124	0x38817426	6.172834e-05
125	0xb9688b7d	-0.00022177208
126	0x37c36cc3	2.3296458e-05
127	0xb88aca8b	-6.618079e-05
128	0x37430ae9	1.1625446e-05
129	0xb8506285	-4.9682818e-05
130	0xb740d67c	-1.149403e-05
131	0xb7e0f59d	-2.6817253e-05
132	0xb7f115c0	-2.8739567e-05
133	0xb7c1d0e5	-2.3104667e-05
134	0xb81d821f	-3.75529e-05
135	0xb7c9b645	-2.4045943e-05
136	0xb8652369	-5.4630833e-05
137	0xb7c33989	-2.3272603e-05
138	0xb8e225f9	-0.00010783593
139	0xb5c3beba	-1.4584141e-06
140	0xb91e2ec8	-0.00015085482
141	0x373c4ef4	1.1224056e-05
142	0xb8b0cf90	-8.4309955e-05
143	0xb96e101b	-0.00022703448
144	0x3ced6091	0.02897671
145	0x80648530	-9.231328e-39
146	0xbaa5dfd0	-0.0012655202
147	0x3c26b850	0.010175779
148	0x3b5b1534	0.0033429386
149	0x3c25d358	0.010121189
150	0x3b67c3ed	0.0035364584
151	0x3c01d01e	0.007923154
152	0x3b459daf	0.0030153801
153	0x3bae3382	0.005316199
154	0x3b170adc	0.0023047244
155	0x3b6e475f	0.0036358458
156	0x3a78a79b	0.00094854244
157	0x3ab12aea	0.0013516818
158	0x39b4615a	0.00034404808
159	0x3a1929c1	0.00058427086
160	0xba591a70	-0.00082818326
161	0xb92d4771	-0.0001652518
162	0xba30f2da	-0.0006750055
163	0x3a1c1926	0.0005954675
164	0x39786eab	0.0002369235
165	0x3a740e72	0.0009310014
166	0x3a01429b	0.00049308845
167	0x3a9cf825	0.0011975808
168	0x3a5a7ef7	0.0008334959
169	0x3ae825a4	0.0017711413
170	0x3a9d3101	0.0011992754
171	0x3b07f0ab	0.0020742815
172	0x3b03d34a	0.0020114952
173	0x3b1b86ba	0.0023731426
174	0x3b5ed7b0	0.0034003071
175	0x3b573f16	0.0032843999
176	0x3b4255ef	0.0029653271
177	0x3b5c1eae	0.0033587622
178	0x3aa7cc74	0.0012802021
179	0x3b52d82d	0.0032172308
180	0x3c837de7	0.016051246
181	0x001f2c98	2.862898e-39
182	0xbae04032	-0.0017108975
183	0x3c516173	0.012779581
184	0x3b8c1e48	0.0042760707
185	0x3c426b71	0.011866436
186	0x3b5f4590	0.0034068562
187	0x3c16d063	0.009204957
188	0x3b3aa4a4	0.002847948
189	0x3bccee75	0.006254012
190	0x3a700e37	0.00091573916
191	0x3b95e619	0.004574549
192	0xb9239d1f	-0.00015603424
193	0x3b68696c	0.0035463227
194	0xba43d8d5	-0.000747097
195	0x3b47f0da	0.003050855
196	0xba4e3f7c	-0.0007867736
197	0x3b404f6f	0.002934422
198	0xba83f8cb	-0.0010068653
199	0x3ae8cd52	0.0017761386
200	0x39df66e0	0.00042610522
201	0x3ad9fb09	0.00166306
202	0x3a8bf65a	0.0010678277
203	0x3ac2cd99	0.0014862298
204	0x3ae997de	0.0017821749
205	0x3ae84bd5	0.0017722795
206	0x3b15b084	0.0022840807
207	0x3b015169	0.0019732362
208	0x3b4bba74	0.0031086477
209	0x3b053de9	0.002033109
210	0x3b94e551	0.004543938
211	0x3a9ed014	0.0012116455
212	0x3b9c3371	0.0047668745
213	0x3708fb4f	8.164744e-06
214	0x3b8bd85e	0.0042677363
215	0xb9bf5f70	-0.00036501465
216	0x3c71a239	0.01474815
217	0x801fc088	-2.915968e-39
218	0xbafa33e4	-0.0019088951
219	0x3b03b46d	0.0020096556
220	0x3b077140	0.0020666867
221	0xb8b8c3f3	-8.810302e-05
222	0x3addf56c	0.0016934103
223	0xba981e7f	-0.0011605768
224	0x3a83a0e8	0.0010042461
225	0xba9c2de7	-0.0011915535
226	0x3a1749fc	0.00057712174
227	0xba7bdf78	-0.00096081896
228	0xbad6bf60	-0.0016383938
229	0xbb165e6e	-0.0022944468
230	0xbafd30ce	-0.0019316913
231	0xbae401db	-0.0017395573
232	0xbb42da48	-0.0029732157
233	0xba81b602	-0.0009896162
234	0xb9a7978a	-0.00031965628
235	0xb9d14a46	-0.00039918924
236	0x3696451f	4.478395e-06
237	0xb94fe418	-0.0001982603
238	0xb8ade140	-8.291239e-05
239	0x392bd7dc	0.00016388245
240	0xb9a35308	-0.00031151646
241	0x3a1ba24b	0.00059369643
242	0xb9d5c16e	-0.00040770642
243	0x3a834025	0.0010013623
244	0xb9ed2383	-0.0004523062
245	0x3ac5c7a7	0.0015089408
246	0xb938edef	-0.00017636245
247	0x3b0043a6	0.0019571572
248	0xba1f7b50	-0.00060837436
249	0x3b2739ba	0.0025516585
250	0xb9827040	-0.00024879165
251	0x3b30b930	0.002696585
252	0x3c907f8a	0.01763894
253	0x00122c50	1.668935e-39
254	0xbb1072c6	-0.0022041067
255	0x3caf0fd0	0.021369845

convs.weight.2.tensor f4 [32, 32, 18, 2]
0	0x3ac8ca2a	0.0015319039
1	0x822461f9	-1.2076934e-37
2	0x36598ee6	3.2418698e-06
3	0xb8b82ba2	-8.781931e-05
4	0x3799cacf	1.8333461e-05
5	0xb8be635f	-9.078415e-05
6	0xb7387356	-1.0994108e-05
7	0xb897fb01	-7.246994e-05
8	0xb756cd68	-1.2803219e-05
9	0xb86983c7	-5.5674256e-05
10	0xb6c898c8	-5.9782506e-06
11	0xb8193a9b	-3.6532623e-05
12	0x38ba26bb	8.876385e-05
13	0xb843d97a	-4.6694164e-05
14	0x392e4dff	0.00016622989
15	0xb8806b5f	-6.123515e-05
16	0x39fd545b	0.0004831877
17	0xb8af7f32	-8.368342e-05
18	0x388f26bf	6.8259884e-05
19	0xb8cd5ff1	-9.793032e-05
20	0x3941e077	0.00018489534
21	0xb864d2f8	-5.4555916e-05
22	0x3915f3de	0.00014300595
23	0xb8055b17	-3.1794505e-05
24	0x38f6acbb	0.00011762368
25	0xb810a7cf	-3.448856e-05
26	0x39106cc9	0.00013773436
27	0xb8467268	-4.7313428e-05
28	0x390fdfd5	0.00013720927
29	0xb8a3c631	-7.809362e-05
30	0x386bfe4b	5.6265195e-05
31	0xb9014982	-0.00012329782
32	0xb7174826	-9.0171e-06
33	0xb79c6e78	-1.864809e-05
34	0x3a2de2d7	0.0006633228
35	0xb94dfbf4	-0.00019644183
36	0xbbf60a88	-0.0075085796
37	0x00839310	1.2083206e-38
38	0x3a127bd8	0.0005587912
39	0xb81c67b2	-3.7289872e-05
40	0x390a9794	0.00013217173
41	0xb943157a	-0.0001860465
42	0xb9690906	-0.00022223973
43	0xb7c05be4	-2.2930974e-05
44	0xb9915695	-0.00027721064
45	0x38800b31	6.1056e-05
46	0xb9c279dd	-0.0003709336
47	0xb9002473	-0.0001222061
48	0xba6f39e0	-0.00091257505
49	0xb950bd8d	-0.00019907039
50	0xbaa3de6e	-0.0012502202
51	0xb97c4a57	-0.00024060287
52	0xbaa1f059	-0.0012354954
53	0xb95f2e30	-0.00021284143
54	0xba41ff5d	-0.0007400418
55	0xb8fd12ba	-0.00012067468
56	0xba20ca33	-0.00061336457
57	0xb81e004a	-3.7670405e-05
58	0xba0ecd22	-0.0005447437
59	0x386e30bb	5.6789006e-05
60	0xba1dfb30	-0.00060265046
61	0x398de233	0.00027062147
62	0xba363f17	-0.000695215
63	0x39f2b10d	0.0004628975
64	0xba241204	-0.0006258788
65	0x3a31d956	0.00067844
66	0xb82b303b	-4.0814495e-05
67	0x3a229956	0.00062026584
68	0xb9da55bc	-0.00041644077
69	0x3aa1a24e	0.0012331696
70	0xb88bec8f	-6.672099e-05
71	0x3be8caa4	0.007104235
72	0xb898d8b2	-7.2882875e-05
73	0x007c54a0	1.1417959e-38
74	0xb8a4cf97	-7.858796e-05
75	0x39ce7e22	0.00039385358
76	0xb940cf8a	-0.00018387861
77	0x38e164c1	0.00010747603
78	0xb9734c4d	-0.0002320271
79	0x396eb6a9	0.00022765495
80	0xb9845faf	-0.00025248292
81	0x395c6976	0.00021020122
82	0xb99eb485	-0.00030270606
83	0x392947c1	0.00016143826
84	0xba45974a	-0.00075374974
85	0x389e0250	7.534458e-05
86	0xba83021a	-0.0009995133
87	0x38aabf5a	8.141874e-05
88	0xba9694f2	-0.0011488481
89	0xb940d06d	-0.00018388192
90	0xba46f10c	-0.00075890194
91	0xb860ae33	-5.3567997e-05
92	0xba2478f0	-0.00062741246
93	0x391f9449	0.00015218662
94	0xba06e342	-0.00051455584
95	0x3986b8d1	0.0002569617
96	0xb9f6c351	-0.00047066298
97	0x3a1d7a0c	0.0006007261
98	0xb9e30565	-0.00043300833
99	0x3a77671d	0.00094376673
100	0xb9a15eac	-0.0003077885
101	0x3aa7dcf3	0.0012806937
102	0xb8e53c3c	-0.000109307904
103	0x3a83d6fd	0.0010058578
104	0xb9054472	-0.00012709366
105	0x39edc88b	0.0004535358
106	0x3a126b20	0.0005585421
107	0x3b998fa8	0.0046863146
108	0x3b9d6ba3	0.004804091
109	0x81868ada	-4.942307e-38
110	0x3832a0c2	4.2588224e-05
111	0xb831cebb	-4.239262e-05
112	0x38444f74	4.6804038e-05
113	0xb84600ad	-4.7207508e-05
114	0x36ecb34d	7.0542214e-06
115	0xb85e86f4	-5.305461e-05
116	0x36760e10	3.6665042e-06
117	0xb846658a	-4.7301444e-05
118	0x36e9c5b4	6.966957e-06
119	0xb8262349	-3.9610346e-05
120	0x38d854ed	0.00010315501
121	0xb816c283	-3.594394e-05
122	0x3942804a	0.00018549073
123	0xb84515da	-4.698881e-05
124	0x39eca47f	0.00045135987
125	0xb8ee613d	-0.000113668364
126	0x389c7811	7.461024e-05
127	0xb73bf115	-1.12022e-05
128	0x38d6e6d1	0.00010247308
129	0x38226f04	3.87272e-05
130	0x3853f322	5.0532755e-05
131	0x381467e6	3.5382713e-05
132	0x380627bb	3.198509e-05
133	0x3658bff7	3.2298246e-06
134	0x382c37fd	4.106014e-05
135	0xb7931a12	-1.7535905e-05
136	0x37f45f42	2.9131425e-05
137	0xb86ed61a	-5.694302e-05
138	0xb856f6b1	-5.1251325e-05
139	0xb90cf02e	-0.00013440914
140	0xb893cfe8	-7.048232e-05
141	0xb7911189	-1.7293512e-05
142	0x39dd0a24	0.0004215996
143	0xb975e0d5	-0.00023448777
144	0x3c8049b7	0.01566015
145	0x01c8126c	7.349483e-38
146	0xba3d801c	-0.00072288676
147	0xba73fe92	-0.0009307648
148	0xba556dd6	-0.0008141672
149	0xba4cff4f	-0.00078200264
150	0xba32aae9	-0.0006815629
151	0xb989fc3d	-0.00026318608
152	0xba1fc6d9	-0.0006094999
153	0x384bdc63	4.8604223e-05
154	0xba012a7c	-0.000492729
155	0x39b661e2	0.00034786673
156	0xba0d32e1	-0.00053863047
157	0x39e7b4a3	0.00044194338
158	0xba23b047	-0.0006244224
159	0x3a18f45c	0.0005834752
160	0xba9024b3	-0.0010997265
161	0x3a51cd33	0.00080032944
162	0xba240975	-0.0006257513
163	0x384af3e9	4.8387712e-05
164	0xba3b73a7	-0.00071507174
165	0x3918f15d	0.00014585764
166	0xba21b170	-0.0006168103
167	0x3867202e	5.510466e-05
168	0xba2403e3	-0.00062566827
169	0x393ebfc7	0.00018191255
170	0xba1d3fe4	-0.0005998595
171	0x39b3df1b	0.00034307767
172	0xb9cd8477	-0.0003919934
173	0x3a09c868	0.0005255998
174	0xb9bc7822	-0.0003594766
175	0x3a2cad7a	0.00065871293
176	0xb917f2df	-0.00014490959
177	0x3a7f5607	0.0009740297
178	0xbb88560c	-0.004160648
179	0x3bf8f739	0.0075978306
180	0xbbb831a3	-0.0056211515
181	0x01abc91e	6.310407e-38
182	0x397a261a	0.00023856052
183	0xb69ceebd	-4.676955e-06
184	0xb8e40a58	-0.00010873814
185	0xb8b59fe1	-8.660532e-05
186	0xb9b57a2e	-0.0003461404
187	0x3929a889	0.0001617988
188	0xb9c5dde9	-0.00037740104
189	0x395e837e	0.00021220554
190	0xb9f23cad	-0.00046203044
191	0x3913e785	0.0001410526
192	0xba782148	-0.00094654085
193	0xb8441b27	-4.675533e-05
194	0xba9b598a	-0.0011852246
195	0xb890b79d	-6.900656e-05
196	0xbac312c6	-0.0014882914
197	0xb9a7233c	-0.00031878974
198	0xba7609a9	-0.0009385595
199	0xb81fc5a3	-3.8092618e-05
200	0xba7a1944	-0.0009540508
201	0x39a83bd2	0.00032088027
202	0xba4ce8b0	-0.00078166556
203	0x39d7de1a	0.00041173474
204	0xba4387f9	-0.0007458921
205	0x3a47278b	0.000759714
206	0xba4a94ff	-0.00077278906
207	0x3a949771	0.0011336637
208	0xba42cf70	-0.00074314233
209	0x3ac3c842	0.0014937001
210	0xba065890	-0.0005124891
211	0x3a95e910	0.0011437256
212	0xba055d20	-0.0005087424
213	0x3a4fbc91	0.0007924522
214	0xbb165629	-0.002293954
215	0x3bd8eac3	0.0066197827
216	0xbbbb2257	-0.0057108807
217	0x8223588f	-1.2000764e-37
218	0x3934d016	0.00017243656
219	0xb790eeec	-1.7277394e-05
220	0x37f2cce8	2.8944065e-05
221	0x384aacd1	4.83215e-05
222	0x3758511f	1.2893491e-05
223	0x38248760	3.9226725e-05
224	0x376df903	1.4184278e-05
225	0x379ccdd3	1.8692494e-05
226	0x37b2f58c	2.1333595e-05
227	0xb708518c	-8.125218e-06
228	0x388bf1bc	6.673063e-05
229	0xb95f593b	-0.00021300178
230	0x38d22b8f	0.00010021694
231	0xb9829c2e	-0.00024911895
232	0xb8ed260a	-0.00011308126
233	0xb8d63c24	-0.00010215517
234	0x38ae9822	8.3253035e-05
235	0x38962ea6	7.161246e-05
236	0x3878dba6	5.933237e-05
237	0xb2fc1000	-2.9343937e-08
238	0xb7ddebc3	-2.6455038e-05
239	0xb88232be	-6.2083345e-05
240	0xb9011f19	-0.00012313983
241	0xb92a01d8	-0.0001621315
242	0xb981ba01	-0.0002474338
243	0xb95df5a3	-0.00021167709
244	0xb9cd8656	-0.00039200735
245	0xb98df038	-0.00027072593
246	0xb924ea7c	-0.00015727611
247	0xb994f6b2	-0.00028412562
248	0xb9157539	-0.00014253416
249	0xb9db3e10	-0.00041817175
250	0xbab08e77	-0.0013470192
251	0xbb28857f	-0.0025714335
252	0xbbaf1002	-0.0053424845
253	0x81a0bc68	-5.904507e-38
254	0x3a9f2ca2	0.0012144039
255	0xb999eb06	-0.0002935754

convs.weight.3.tensor f4 [32, 32, 18, 2]
0	0x3be759b3	0.0070602535
1	0x811c8ffc	-2.8755979e-38
2	0xbbfdccca	-0.00774536
3	0x3bc49e77	0.006000336
4	0xbbd70904	-0.006562354
5	0x3ba05054	0.0048923884
6	0xbbeb7e89	-0.007186715
7	0x3bacc0c4	0.005272003
8	0xbbff3320	-0.007788077
9	0x3b9332e1	0.004492149
10	0xbbfcf64d	-0.007719791
11	0x3b665c16	0.0035150102
12	0xbc000ced	-0.007815582
13	0x3ad25044	0.001604565
14	0xbc08881a	-0.00833323
15	0xba5a48f4	-0.0008326911
16	0xbbfe5459	-0.00776152
17	0xbb815bd3	-0.003947714
18	0xb9e86c83	-0.00044331336
19	0xb9ab00a5	-0.00032616142
20	0x395e37cf	0.0002119236
21	0x3ab8c5bd	0.0014097017
22	0x396dcbbf	0.00022677983
23	0x3a7b0e22	0.0009576996
24	0x3a14e34c	0.0005679622
25	0x3a30f10c	0.0006749786
26	0x3aaa8884	0.0013010656
27	0x3a066bd3	0.00051277614
28	0x3afe2f4b	0.0019392757
29	0x37d41134	2.528038e-05
30	0x3ab27aa0	0.0013616867
31	0xb8a1225a	-7.683477e-05
32	0xbb1e375f	-0.002414189
33	0x3bac73e6	0.0052628396
34	0xbc891f6e	-0.01673862
35	0x3c75705e	0.014980404
36	0xbbbcf817	-0.0057668793
37	0x819ac5fa	-5.685475e-38
38	0x3c012cab	0.007884185
39	0xbc0b5232	-0.008503484
40	0x3bb716eb	0.005587449
41	0xbc1f401a	-0.009719873
42	0x3b9794cc	0.0046258923
43	0xbc16156a	-0.009160379
44	0x3ba9f233	0.005186343
45	0xbbdda07d	-0.0067635165
46	0x3bafadcf	0.005361296
47	0xbbbb5026	-0.0057163415
48	0x3bc252c7	0.005930278
49	0xbb4674f8	-0.003028212
50	0x3bd5fe24	0.00653054
51	0xbaccc3d6	-0.0015622329
52	0x3c014a7f	0.007891296
53	0x3a7b723c	0.00095919124
54	0x3aabc713	0.0013105593
55	0x39dc48ee	0.00042016007
56	0xb8a208a9	-7.726375e-05
57	0xba3e5598	-0.0007260679
58	0xb985cb5e	-0.00025519257
59	0xb9c5c9e1	-0.0003772518
60	0xba16751a	-0.00057394954
61	0xb917b733	-0.00014468729
62	0xba8c3247	-0.0010696136
63	0x3926c4b1	0.00015904267
64	0xbab35197	-0.0013680932
65	0x3a422d58	0.00074072694
66	0xba60d7d4	-0.0008577083
67	0x3b0251c8	0.0019885171
68	0xbb0a8f5d	-0.002114258
69	0x3bc39661	0.0059688543
70	0x3b5bbf21	0.003353067
71	0x3c1ccbad	0.009570044
72	0xba809b30	-0.0009811874
73	0x019113d2	5.329303e-38
74	0x3b9ad0e4	0.0047246087
75	0xbc05cfc9	-0.008167216
76	0x3a96b405	0.0011497742
77	0xbc316a36	-0.010828545
78	0xb9b75ff5	-0.00034975974
79	0xbc061257	-0.0081830835
80	0x39642f22	0.00021761333
81	0xbbb08dc9	-0.005387996
82	0x3a5be4b0	0.0008388264
83	0xbb7a7f4b	-0.0038222845
84	0x3ae259f3	0.0017269239
85	0xbb029187	-0.0019923167
86	0x3b0c5243	0.0021411336
87	0xbaa6687d	-0.0012695935
88	0x3ba36f50	0.0049876347
89	0x3846656c	4.7301335e-05
90	0x3a3e67f0	0.00072634127
91	0x39a5718c	0.00031555851
92	0xb9ed8aff	-0.00045307723
93	0x39a863c8	0.000321178
94	0xba206697	-0.00061188027
95	0x39d77de4	0.0004110179
96	0xba4f616d	-0.0007910941
97	0x39fe93c0	0.00048556738
98	0xba6abe76	-0.00089547725
99	0x3a67c2b4	0.0008840964
100	0xba4f495f	-0.00079073565
101	0x3aaf55dc	0.0013377029
102	0xb9fd263e	-0.00048284413
103	0x3b491af3	0.003068623
104	0xbaa3b592	-0.0012490025
105	0x3c6c2323	0.014412674
106	0xbbf12ab7	-0.0073598283
107	0x3d040277	0.032228913
108	0x3bd9bb4d	0.0066446424
109	0x814f1810	-3.803716e-38
110	0xbba0e1f8	-0.00490975
111	0x3b4148f6	0.002949295
112	0xbb9c138f	-0.0047630738
113	0x3aa90dbb	0.0012897769
114	0xbbb7eab0	-0.0056126937
115	0x3b2af2ed	0.0026084736
116	0xbbcfd7f2	-0.0063428814
117	0x3b15950a	0.002282443
118	0xbbcafa3f	-0.0061943824
119	0x3af58b08	0.0018733451
120	0xbbd3c84c	-0.006463086
121	0x3a364995	0.00069537136
122	0xbbdc2477	-0.006718214
123	0xba9e1ac4	-0.001206242
124	0xbbf0aa28	-0.007344503
125	0xbb6fc29d	-0.0036584504
126	0xb989f4e5	-0.00026313137
127	0x384367ef	4.658842e-05
128	0xb8a87ef6	-8.0345126e-05
129	0x3abd579d	0.0014445666
130	0xb8e00e6f	-0.00010683841
131	0x3a84b65f	0.0010125152
132	0x3955074c	0.00020315981
133	0x3a488446	0.0007649105
134	0x3a58422a	0.00082496053
135	0x3a3c2a4a	0.00071779324
136	0x3ab769cc	0.0013993322
137	0x39b9f366	0.00035467296
138	0x39fe8d49	0.0004855192
139	0x39db9896	0.0004188462
140	0xbbb642eb	-0.0055621765
141	0x3c03d6ec	0.008046847
142	0xbcaf9707	-0.02143432
143	0x3c9d589a	0.019207288
144	0x3c089106	0.0083353575
145	0x817bef04	-4.6272904e-38
146	0xb98d5339	-0.0002695562
147	0xbac59978	-0.0015075644
148	0xba9010a8	-0.0010991292
149	0xbb221c0c	-0.0024735956
150	0xbabe48b7	-0.001451752
151	0xbabb0ab6	-0.001427016
152	0xbaa3540e	-0.0012460963
153	0xba679ad8	-0.0008835024
154	0xba8aad40	-0.0010580197
155	0xba076f13	-0.00051663927
156	0xba543fd8	-0.00080966717
157	0xb887ea5f	-6.480957e-05
158	0xba36a6e3	-0.0006967617
159	0x38e186fe	0.0001075398
160	0xba88bc86	-0.0010432161
161	0x3a6f89de	0.000913767
162	0xb7e8faa4	-2.7773269e-05
163	0x3945df1c	0.00018870499
164	0xb96c49eb	-0.0002253425
165	0x3a0f404b	0.00054645975
166	0xb98a49ba	-0.00026376342
167	0x39ecb03d	0.00045144735
168	0xb9635798	-0.00021681038
169	0x39dc720e	0.00042046647
170	0xb82bd309	-4.096612e-05
171	0x3a0ad9d1	0.00052967394
172	0x39006525	0.0001224471
173	0x3a1096cd	0.0005515635
174	0xb968ef1e	-0.00022214322
175	0x3a4d0e25	0.0007822237
176	0xbaae7588	-0.0013310174
177	0x3b2e710f	0.002661768
178	0xbb935398	-0.004496049
179	0x3bfcc8e1	0.0077143763
180	0xbbe71d5b	-0.00705306
181	0x8062f0b8	-9.086232e-39
182	0x3bae2275	0.005314166
183	0xbc0905bf	-0.008363186
184	0x3ad98257	0.001659463
185	0xbc2dedae	-0.010615749
186	0x3961646a	0.0002149508
187	0xbc09fa20	-0.008421451
188	0x3a62cf63	0.0008652119
189	0xbbb72fb4	-0.0055904035
190	0x3acb4ab1	0.0015509931
191	0xbb88733a	-0.0041641267
192	0x3b204f73	0.0024461418
193	0xbb0e1c4c	-0.0021684347
194	0x3b4149f3	0.002949354
195	0xbab9c492	-0.0014172962
196	0x3bbb77ee	0.005721084
197	0x38485878	4.776611e-05
198	0x3a81ad95	0.000989365
199	0x399d8092	0.00030041166
200	0xb9d50b2b	-0.00040634847
201	0x391282c5	0.0001397236
202	0xba1b6860	-0.0005928334
203	0x3973610a	0.00023210436
204	0xba4c63a3	-0.00077968294
205	0x399cb6a2	0.0002989071
206	0xba817f8e	-0.0009879933
207	0x3a372c5b	0.00069875055
208	0xba7e5dfe	-0.0009703337
209	0x3a9d93f6	0.0012022245
210	0xba68f93d	-0.0008887237
211	0x3b409aff	0.002938926
212	0xbb8f97c1	-0.004382104
213	0x3c550f30	0.013004109
214	0xbc109e58	-0.008826815
215	0x3cdf9ddc	0.027296953
216	0xbbd5b761	-0.0065221046
217	0x8178636c	-4.5621738e-38
218	0xb9c36728	-0.00037270156
219	0xb99c91d3	-0.00029863286
220	0xb8f876d8	-0.00011847698
221	0x3a95730d	0.0011402086
222	0x39ec0d77	0.0004502346
223	0x3a3f80a2	0.00073052396
224	0x3a0be502	0.0005336554
225	0x3a0830ea	0.0005195277
226	0x3a14f71b	0.00056825735
227	0x39b6aa40	0.0003484059
228	0x3a12f890	0.00056064967
229	0xb71d0610	-9.359341e-06
230	0x3a0e1ab1	0.00054208474
231	0xb911c3a1	-0.00013901155
232	0x3a88beb9	0.0010432816
233	0xba444df5	-0.0007488423
234	0x380de311	3.382849e-05
235	0xb8e2334d	-0.00010786075
236	0x38b16639	8.459058e-05
237	0xb9bae212	-0.0003564512
238	0x38bdfe4a	9.059587e-05
239	0xb9a7aaf3	-0.0003198009
240	0x381ca274	3.7344595e-05
241	0xb9a65cc7	-0.00031731112
242	0xb91a5c29	-0.00014720917
243	0xb9bded7f	-0.00036225838
244	0xb9a28adb	-0.00031002503
245	0xb9ac55c7	-0.00032870306
246	0xb90efbb6	-0.00013635945
247	0xb9c19ec1	-0.0003693011
248	0x394342c0	0.00018621515
249	0xbb0eb99c	-0.0021778112
250	0x3a8cfcb6	0.0010756466
251	0xbc2969a4	-0.010340128
252	0xbbf0ee46	-0.007352623
253	0x00412720	5.983343e-39
254	0x3c80d8e7	0.015728427
255	0xbc47c2db	-0.012192453

convs_bc.bias f4 [4, 32, 1]
0	0xbbe6a3f9	-0.00703859
1	0x3c449037	0.011997274
2	0xba8726ef	-0.0010311286
3	0xbc571d2b	-0.013129513
4	0xbc9ff469	-0.019525724
5	0x3bdf602d	0.006816885
6	0x3b38526e	0.0028125304
7	0x3bb997fc	0.00566387
8	0x3bc29e8e	0.0059393113
9	0x3ae369c1	0.0017350243
10	0xbbb62b9c	-0.005559398
11	0x3ab8370f	0.0014054495
12	0x3c893871	0.016750546
13	0xbbc1c7d5	-0.0059137144
14	0x3bbf9f6c	0.005847862
15	0x3be1bdee	0.0068890965
16	0xbcbfd896	-0.023418706
17	0xbc9166a4	-0.017749138
18	0x3bca5529	0.0061747027
19	0x3c3d9727	0.011571682
20	0x3bcff9e8	0.00634693
21	0x3af47a14	0.0018652105
22	0xbbb776ad	-0.005598864
23	0x3b7d5636	0.0038656122
24	0x3bda258c	0.006657308
25	0xbc614d6c	-0.013751369
26	0x3b269779	0.0025419875
27	0xbc904733	-0.017612075
28	0x3b8c2c21	0.0042777215
29	0x3a685d55	0.0008864005
30	0x3b8b4ab0	0.004250847
31	0x3c86e24d	0.01646533
32	0xbba1953b	-0.0049311197
33	0x3bee47ab	0.007271727
34	0xbb0032b1	-0.0019561464
35	0xbc1da9b6	-0.009622982
36	0xbc81ba73	-0.015835976
37	0x3b69ba12	0.0035663885
38	0x3bbee16e	0.005825213
39	0x3c01aa04	0.00791407
40	0x3bd5d2f4	0.0065253917
41	0xbaaa74df	-0.0013004801
42	0xbbcf02a0	-0.0063174516
43	0x3bcbcf36	0.00621977
44	0xbb94df15	-0.004543195
45	0xbba6f971	-0.0050956537
46	0x3bded679	0.0068004695
47	0x3bd01ccc	0.006351089
48	0xbc57f239	-0.013180309
49	0xbc633750	-0.013868168
50	0x3bc4f471	0.006010585
51	0xbb753fdf	-0.0037422103
52	0x3bf99a2c	0.0076172557
53	0x3b631cc1	0.003465459
54	0xbb3a9d21	-0.0028475004
55	0x3b50d465	0.0031864878
56	0x3b902552	0.00439898
57	0xbc15ab75	-0.009135117
58	0x3b8abf28	0.0042342134
59	0xbc9499a4	-0.018139668
60	0x3ba89c6b	0.0051455996
61	0x3ae19d9f	0.0017213112
62	0x3bdb0870	0.0066843554
63	0x3c00cd7d	0.007861492
64	0xbbbe21d0	-0.0058023706
65	0x3c04d688	0.008107789
66	0x3a72648f	0.0009246552
67	0xbbd80017	-0.0065918076
68	0xbc2ccdd1	-0.010547117
69	0x3bdd4ef9	0.006753799
70	0x3bd43eb3	0.006477201
71	0x3c08d012	0.008350389
72	0x3bd62fbc	0.006536452
73	0xbb849ca7	-0.0040469947
74	0xbc081764	-0.008306358
75	0x3bf0d1fe	0.007349252
76	0xbb71311e	-0.0036802958
77	0xbbcefcf5	-0.006316776
78	0x3c11fde4	0.00891063
79	0x3bed8d1a	0.0072494866
80	0xbc1962e2	-0.009361954
81	0xbc160d8e	-0.009158505
82	0x3bbdeb39	0.005795863
83	0xbb87f3c9	-0.0041489345
84	0x3c0c3e8a	0.008559832
85	0x3b3a8a60	0.0028463826
86	0xbbcbd389	-0.0062202853
87	0x3baaf2d4	0.0052169356
88	0x3bffeab0	0.0078099594
89	0xbb98b34b	-0.0046600453
90	0x3b604963	0.003422343
91	0xbc615e41	-0.013755382
92	0x3bfcaf3c	0.0077113193
93	0x39549ac0	0.00020275544
94	0x3b92a6ee	0.004475466
95	0x3c21d03b	0.009876306
96	0xbbfa34cc	-0.0076356884
97	0x3bff24a0	0.0077863485
98	0x3b1a38b2	0.0023532328
99	0xbc0a2a96	-0.008433005
100	0xbc127b66	-0.008940553
101	0x3c0374c0	0.008023441
102	0x3c172db6	0.009227207
103	0x3c1dc5b9	0.00962966
104	0x3bad1bf7	0.0052828747
105	0xbba2f61e	-0.004973187
106	0xbc174f33	-0.009235191
107	0x3be70277	0.0070498544
108	0xbbf8d222	-0.007593409
109	0xbba8e673	-0.005154425
110	0x3c1419e3	0.009039375
111	0x3c03d132	0.0080454815
112	0xbc08270c	-0.008310091
113	0xbc17e484	-0.009270791
114	0x3bd6acaf	0.006551347
115	0xbbc5f7ef	-0.006041519
116	0x3c142c19	0.009043717
117	0x3b2aca2a	0.002606044
118	0xbb88dd2c	-0.0041767564
119	0x3b995ac2	0.0046800086
120	0x3c087d55	0.008330663
121	0xbb958a46	-0.0045636026
122	0x3b48cce6	0.0030639707
123	0xbc3256bd	-0.010884938
124	0x3bce9c19	0.0063052294
125	0xba2916f4	-0.00064502587
126	0x3baff366	0.0053695915
127	0x3bf95a5b	0.007609648

convs_bc.bias_bc f4 [4, 32, 1]
0	0xba855d6e	-0.0010174939
1	0x3985668b	0.00025444137
2	0xbab62a97	-0.0013898191
3	0xb9622615	-0.00021567226
4	0x3a1a8fab	0.0005896042
5	0xba8e6a0a	-0.0010865342
6	0x39121f8d	0.00013935399
7	0x36659f0b	3.4216234e-06
8	0xbae18ecc	-0.0017208694
9	0xb9a7305f	-0.0003188876
10	0xbb5fdd39	-0.0034158959
11	0xb9359928	-0.0001731856
12	0xba57e064	-0.0008235036
13	0x3adc76c3	0.0016820062
14	0xbaec5027	-0.0018029258
15	0xb9d2857e	-0.0004015378
16	0xbaed2966	-0.0018094003
17	0xbb0dcc5d	-0.0021636703
18	0x3a6fc469	0.0009146394
19	0xb92c5a26	-0.00016436781
20	0xba84d0f5	-0.0010133075
21	0xb702dab9	-7.799529e-06
22	0xba14e016	-0.00056791434
23	0xbb13eec6	-0.002257274
24	0x3ab3f93f	0.0013730897
25	0xba06ab85	-0.0005137253
26	0xb9b5978c	-0.00034635921
27	0xba592b21	-0.000828432
28	0x399ca786	0.00029879453
29	0xbabdcf54	-0.0014481344
30	0xba51a0cb	-0.00079966773
31	0xbab4e0ca	-0.0013799903
32	0xb8a450b0	-7.8351586e-05
33	0xb981c5d7	-0.000247522
34	0xb9ed862d	-0.0004530413
35	0x39d16822	0.0003994117
36	0x3ae20340	0.00172434
37	0x3a55078e	0.0008126431
38	0xb9b6f06f	-0.00034892882
39	0xba180a09	-0.0005799835
40	0xb9e4d11e	-0.00043643353
41	0x39eb888e	0.00044924434
42	0x3aeed975	0.0018222766
43	0xba75ed9a	-0.00093814137
44	0x3a45ce6c	0.0007545713
45	0x39bd34a2	0.00036088104
46	0xba8ab3e8	-0.0010582181
47	0x3acdc023	0.001569752
48	0xb9f7ce7d	-0.00047265357
49	0x38cd744f	9.796826e-05
50	0x3a25c837	0.0006324085
51	0x3ac4ad6b	0.0015005296
52	0x3989b1c5	0.00026263125
53	0xba7735a5	-0.0009430296
54	0x39b4379b	0.00034373705
55	0x3a21139c	0.00061445846
56	0xbaaf84cf	-0.001339102
57	0x38e81da7	0.00011068145
58	0x3926df25	0.00015914121
59	0x383b29b9	4.462313e-05
60	0xbad4d5c2	-0.0016238021
61	0x3a05b28f	0.00051001547
62	0xbb06c6a9	-0.0020565188
63	0xb94ff31b	-0.00019831622
64	0xb95946d3	-0.00020721117
65	0x3a00d8cf	0.00049151195
66	0xbad829cc	-0.0016491949
67	0xba81c08c	-0.0009899302
68	0x3ab06dfa	0.001346051
69	0xba7bb941	-0.0009602495
70	0x3a3618f5	0.0006946468
71	0xba297550	-0.00064643193
72	0xba8664ad	-0.0010253392
73	0x3965197d	0.00021848637
74	0x386e1279	5.6760826e-05
75	0xbad97652	-0.0016591048
76	0x39861dac	0.0002558058
77	0x394c3d23	0.00019477731
78	0x3a9c020d	0.0011902467
79	0xb7bd54a4	-2.256997e-05
80	0x39b6ea1d	0.00034888173
81	0xba2b766f	-0.00065407803
82	0xba257eab	-0.00063131255
83	0x3ad096f4	0.0015914128
84	0x3b16bad8	0.002299955
85	0x392bebe3	0.00016395705
86	0x38c2506b	9.26562e-05
87	0x39a46b2e	0.00031360373
88	0x3a167e1b	0.0005740837
89	0xb9fc5374	-0.00048127363
90	0xb94af52f	-0.00019355559
91	0xb85711e5	-5.127666e-05
92	0xb92b77fc	-0.00016352528
93	0xba103faf	-0.00055026537
94	0x3a514e97	0.0007984428
95	0xb83cfbf9	-4.505736e-05
96	0x3a220fbb	0.00061821536
97	0x38e5f227	0.00010964675
98	0xbaea03b1	-0.0017853883
99	0x3a92e278	0.0011206409
100	0x39b5e702	0.00034695124
101	0xba09234d	-0.00052313955
102	0xbabbe084	-0.0014333879
103	0xb9dcbcfd	-0.00042102477
104	0x39b234a1	0.00033990017
105	0x3aad03bb	0.0013199964
106	0xb99faed9	-0.00030457115
107	0x39ab0044	0.0003261586
108	0xbab92622	-0.0014125744
109	0xb8b6c285	-8.7146684e-05
110	0x3a8bcf34	0.001066661
111	0xb9a006c7	-0.00030522628
112	0xb96be949	-0.00022498252
113	0x3ab2d29e	0.0013643091
114	0x38909d40	6.895745e-05
115	0x39f62c6d	0.00046953876
116	0xba6a8ee7	-0.0008947686
117	0xb9dcd235	-0.00042118286
118	0x39817788	0.00024693855
119	0x3a8972ad	0.0010486447
120	0x3ab3ad65	0.0013708292
121	0xba21e4ff	-0.00061757857
122	0xb82b3139	-4.081542e-05
123	0x3a38d024	0.00070500583
124	0x39bbdf90	0.00035833986
125	0x3a5a713a	0.0008332912
126	0x39a49581	0.00031391907
127	0xba0e0543	-0.0005417654

convs_bc.weight.0.tensor f4 [32, 32, 6, 2]
0	0x3be1f379	0.0068954793
1	0x00736d08	1.0600195e-38
2	0x39cb9d8f	0.00038836568
3	0x39551902	0.00020322579
4	0x39762560	0.00023474311
5	0x38904317	6.8789515e-05
6	0x39691944	0.00022230024
7	0x38867e3f	6.413133e-05
8	0x396b6218	0.00022447889
9	0x38aff0b3	8.389484e-05
10	0x39819a49	0.0002471975
11	0x39074726	0.00012901108
12	0xbc34e009	-0.011039742
13	0x81e52f82	-8.4189485e-38
14	0xbb405cc3	-0.0029352165
15	0x3a6de3d6	0.0009074783
16	0xbb4238cb	-0.0029635902
17	0x3a2d9fe5	0.00066232524
18	0xbb42321f	-0.0029631925
19	0x3a08a59b	0.00052126654
20	0xbb39db1e	-0.0028359364
21	0x3a167c15	0.00057405356
22	0xbb313884	-0.0027041743
23	0x3a32ec6f	0.00068253925
24	0x3b42164d	0.0029615343
25	0x01410dac	3.545831e-38
26	0xbb4c9744	-0.003121809
27	0x3c108c6f	0.0088225445
28	0xbc26277d	-0.010141251
29	0x3bde8865	0.006791162
30	0xbbd4e8bf	-0.006497472
31	0x3c044de8	0.008075215
32	0xbc0c2e32	-0.008555936
33	0x3c1eebbb	0.009699757
34	0xbc28bf94	-0.010299582
35	0x3c4440cf	0.011978342
36	0x3c7779f1	0.015104757
37	0x807fd010	-1.1737747e-38
38	0xb7a3630f	-1.9477242e-05
39	0xb92561d6	-0.00015772073
40	0xb9c96e3c	-0.00038419839
41	0xb9ab1ba9	-0.0003263627
42	0xba0bff01	-0.0005340428
43	0xb88d6f89	-6.744179e-05
44	0xba02d0d6	-0.00049902254
45	0x38cb6a33	9.6995755e-05
46	0xb9f5df8d	-0.000468966
47	0x39963149	0.0002864695
48	0x3c99d1bf	0.018776773
49	0x810ae25c	-2.5509002e-38
50	0xbc0d9fb3	-0.008644032
51	0x3b8a435f	0.004219457
52	0xbc45e4b8	-0.012078457
53	0x3bc8f772	0.0061330134
54	0xbc72099e	-0.014772801
55	0x3bcfde41	0.0063436334
56	0xbc80dfe1	-0.015731754
57	0x3c05a62e	0.008157296
58	0xbc853cb0	-0.01626429
59	0x3c252a08	0.010080822
60	0xbba85c21	-0.0051379357
61	0x0064cf90	9.258009e-39
62	0xbb649f0f	-0.0034884845
63	0x3b0d819e	0.002159215
64	0xbc05457c	-0.008134242
65	0x390a9f81	0.00013220125
66	0xbc21dda3	-0.0098795025
67	0x3938c00d	0.00017619152
68	0xbc13df73	-0.009025442
69	0x3aa08605	0.0012246972
70	0xbc1a8a5f	-0.009432404
71	0x3abfc98f	0.0014632213
72	0xbb6d7b2a	-0.0036236742
73	0x80ba3d18	-1.7103319e-38
74	0xbc5d1c7b	-0.01349556
75	0x3c363551	0.01112111
76	0xbc1226b1	-0.008920358
77	0x3c1ed226	0.009693658
78	0xbbc04d72	-0.005868607
79	0x3c08934d	0.0083359005
80	0xbb5e10d0	-0.0033884533
81	0x3c06d045	0.008228366
82	0xbacbaa56	-0.0015538435
83	0x3c0b58e1	0.008505077
84	0xbbd829be	-0.006596773
85	0x02088960	1.0031127e-37
86	0x3d1ee484	0.03879215
87	0x3ca6645e	0.02031153
88	0x3cc79f83	0.024368053
89	0x3c7e943f	0.015538274
90	0x3c95ae01	0.018271448
91	0x3c5a980a	0.013341913
92	0x3c4c6372	0.0124748815
93	0x3c3b5431	0.011433647
94	0x3c221472	0.00989257
95	0x3c32de0f	0.010917201
96	0xbbe1c9e8	-0.006890524
97	0x01e28c1c	8.3220336e-38
98	0x3cb5032a	0.022096235
99	0x3c88f931	0.016720386
100	0x3bf9f2a3	0.0076278015
101	0x3c776e9e	0.015102057
102	0x3b53e13e	0.00323303
103	0x3c627f8b	0.013824354
104	0x39a7153e	0.0003186855
105	0x3c5b4a2f	0.013384386
106	0xba891562	-0.0010458643
107	0x3c5cf96a	0.013487199
108	0xb9c18190	-0.0003690836
109	0x00104e68	1.497495e-39
110	0x3cf612c8	0.030038252
111	0x3c4cdf34	0.012504388
112	0x3caa1576	0.020762186
113	0x3c5b3212	0.013378637
114	0x3c91f4cb	0.017816922
115	0x3c4e9876	0.012609592
116	0x3c91b305	0.017785558
117	0x3c2b2595	0.010445972
118	0x3c9e4676	0.019320708
119	0x3bedeea8	0.007261116
120	0x3bfae44c	0.0076566096
121	0x015300f4	3.8755263e-38
122	0x3b4e05e8	0.0031436626
123	0x3b835b54	0.00400869
124	0x3b8f8772	0.00438016
125	0x3bd57277	0.0065138894
126	0x3b825772	0.0039777094
127	0x3c053157	0.008129439
128	0x3b97d664	0.0046337117
129	0x3c082dac	0.00831167
130	0x3ba411dc	0.005007012
131	0x3c06a72d	0.008218569
132	0xbb401366	-0.0029308437
133	0x821443bc	-1.0892762e-37
134	0xbca581c3	-0.020203477
135	0x3c38559c	0.01125088
136	0xbca2e9c2	-0.019886855
137	0x3c1defcf	0.009639694
138	0xbc9e8953	-0.01935259
139	0x3bfd8a11	0.007737406
140	0xbc9f9caf	-0.019483892
141	0x3bbea792	0.005818316
142	0xbcae57a0	-0.021282017
143	0x3b784485	0.0037882638
144	0xbc7be9dc	-0.015375581
145	0x80971f28	-1.3878337e-38
146	0x39dd8aec	0.0004225591
147	0xb74a0390	-1.2040968e-05
148	0x39c5c6aa	0.00037722784
149	0xb88ec314	-6.807424e-05
150	0x39ba7994	0.00035567267
151	0xb8c0f1d6	-9.200319e-05
152	0x39ba16a4	0.00035493553
153	0xb8ae1355	-8.3005674e-05
154	0x39ba6760	0.00035553705
155	0xb89a4ccc	-7.357597e-05
156	0x3bcaf083	0.006193222
157	0x82058e11	-9.812068e-38
158	0xbb587288	-0.003302725
159	0x3bf7e6ed	0.0075653703
160	0xbba8c43d	-0.0051503466
161	0x3c1344bb	0.008988555
162	0xbbd030ff	-0.006353497
163	0x3bfb3a87	0.007666889
164	0xbbdc969a	-0.0067318203
165	0x3bf7b036	0.007558848
166	0xbbf4ea23	-0.0074742003
167	0x3bec78a7	0.0072165313
168	0xbbd075a2	-0.006361679
169	0x80695320	-9.672547e-39
170	0xbb12816e	-0.0022354978
171	0x3c800537	0.015627487
172	0xbbd28550	-0.0064245835
173	0x3c1d90e4	0.009617064
174	0xbc2c0490	-0.010499135
175	0x3bd856b4	0.0066021327
176	0xbc31af44	-0.010845009
177	0x3bb3fe14	0.005492935
178	0xbc246a38	-0.01003509
179	0x3bb23641	0.0054385965
180	0xbbc725df	-0.0060775126
181	0x01920f9c	5.365433e-38
182	0x3b7f2c11	0.0038936178
183	0x3cadcc4b	0.021215579
184	0xbbc5428f	-0.0060198973
185	0x3c8a3619	0.016871499
186	0xbbf1318c	-0.007360643
187	0x3c4285c4	0.0118727125
188	0xbbe45ae8	-0.0069688447
189	0x3c27dcef	0.010245546
190	0xbbd9ef0a	-0.00665081
191	0x3c1156b8	0.008870773
192	0x3cb08c94	0.021551408
193	0x011f7350	2.928642e-38
194	0xbc29ec89	-0.010371336
195	0xba3dc74a	-0.0007239474
196	0xbc97c545	-0.018526683
197	0x3a40b62f	0.0007351366
198	0xbcbd72ae	-0.023125973
199	0x3adf58e1	0.0017040038
200	0xbccd2514	-0.025042094
201	0x3b8098ef	0.003924481
202	0xbcccf339	-0.025018321
203	0x3c0429ab	0.008066575
204	0x3c964013	0.0183411
205	0x80923d18	-1.3429899e-38
206	0x3bf4fc40	0.0074763596
207	0x3a7a5ab9	0.0009550262
208	0x3bc8244f	0.006107844
209	0x3a130c50	0.00056094397
210	0x3bb898ee	0.005633465
211	0x3a06904c	0.0005133196
212	0x3bcb135a	0.0061973752
213	0x3a0d092e	0.0005380091
214	0x3bdbd0ec	0.006708255
215	0x3a3407e9	0.0006867634
216	0xbbb1ccbf	-0.005426019
217	0x80903c88	-1.3246026e-38
218	0x3cf8af40	0.030357003
219	0x3c8909a8	0.016728237
220	0x3cc6f1dd	0.024285251
221	0x3c855bb0	0.016279072
222	0x3cc9cb57	0.024633093
223	0x3c742092	0.0149003435
224	0x3cb6cda6	0.022314858
225	0x3c5011b1	0.01269953
226	0x3cb7dc00	0.022443771
227	0x3c2a94c1	0.010411442
228	0xbc344008	-0.011001594
229	0x0126f178	3.066263e-38
230	0x3976d059	0.00023538004
231	0x39f095db	0.00045888018
232	0x38ab9b01	8.182787e-05
233	0x38a8cc26	8.04889e-05
234	0x38aa2eca	8.114947e-05
235	0xb8858ca1	-6.3681284e-05
236	0x38fe2e15	0.00012120247
237	0xb7fb05eb	-2.9924287e-05
238	0x3917ca1d	0.00014475775
239	0x371dbc50	9.401774e-06
240	0xbba888af	-0.005143247
241	0x82085654	-1.0016477e-37
242	0x3ccc2826	0.024921488
243	0x3ce48bc9	0.027898686
244	0x3c11c04d	0.008895946
245	0x3ccea761	0.025226297
246	0x3b7ac8ae	0.0038266587
247	0x3cb35127	0.021889282
248	0x3aa13a93	0.0012300782
249	0x3c9fe298	0.019517228
250	0x39c6104b	0.00037777642
251	0x3c8dd386	0.017312776
252	0xbb6022e6	-0.0034200489
253	0x81d4be72	-7.8149776e-38
254	0xbc354ad0	-0.0110652
255	0x3c0f00d5	0.008728226
