neuraloperator/examples/para/fno_bc_para_202305121613_001002003004_modes36_epochs250.pth (torch, 606613 bytes, 15 tensors)

convs.bias f4 [4, 32, 1]
0	0x398edb80	0.0002724789
1	0xbc1bc36d	-0.009507042
2	0x3aaf420b	0.0013371123
3	0x3c2937a3	0.010328206
4	0xbc4a3634	-0.012342025
5	0x39d03ca9	0.00039718047
6	0x3cb469e5	0.02202315
7	0xbbe2ec88	-0.0069251694
8	0x3c103802	0.008802416
9	0xbc3b66a3	-0.011438045
10	0xbcc462d5	-0.023972908
11	0x3b079916	0.0020690612
12	0xbc4f1172	-0.012638437
13	0x3c131b72	0.008978711
14	0xb9c78886	-0.00038057956
15	0x3aa49fd4	0.001255984
16	0x3ccc6deb	0.024954757
17	0x3d289fbf	0.04116797
18	0xbbab7e0e	-0.0052335327
19	0xbba2aefc	-0.0049647074
20	0x3c6d19c6	0.014471477
21	0x3b298928	0.0025869105
22	0xb8cf0cc4	-9.872907e-05
23	0x3c259fc6	0.010108894
24	0x3b1e6b09	0.0024172685
25	0x3c04b073	0.008098709
26	0x3d14934f	0.036273297
27	0xbcd87c2b	-0.026426395
28	0x3b8b2dea	0.0042474167
29	0xb948238a	-0.00019086726
30	0xbad4d413	-0.001623752
31	0xb93856a4	-0.00017579884
32	0x3ac1cd30	0.0014785882
33	0xbc30e6b3	-0.0107971905
34	0x3ab92d03	0.0014127794
35	0x3c2cb655	0.010541518
36	0xbc4812d7	-0.012211523
37	0x3972e842	0.00023165441
38	0x39a84487	0.00032094514
39	0xbbea745e	-0.0071549853
40	0xbb222c53	-0.0024745658
41	0xbb0ffbf9	-0.0021970256
42	0xbcabb53a	-0.020960439
43	0x3b46f6ad	0.0030359433
44	0xbc630437	-0.013855985
45	0x38f8f5fd	0.000118713804
46	0x3acabd32	0.0015467762
47	0x3b3a76d6	0.002845218
48	0x391a595f	0.00014719878
49	0xb8966c76	-7.17276e-05
50	0xbb45f149	-0.0030203632
51	0xbb8efb0d	-0.0043634237
52	0x3a424683	0.000741102
53	0x3b5d16f1	0.0033735598
54	0x3afb55f6	0.0019175399
55	0xbc5fff4f	-0.01367171
56	0x3a170bde	0.0005761961
57	0xbb29c9a7	-0.0025907548
58	0x3b13aff2	0.0022535292
59	0xbc8e89ea	-0.017399747
60	0x3b5a6344	0.0033323327
61	0xba3a9472	-0.0007117457
62	0x3a06e916	0.0005146427
63	0x3b1693bd	0.0022976242
64	0x3b14803e	0.0022659446
65	0xbc351d26	-0.011054313
66	0x3b579bed	0.0032899335
67	0x3bbd1708	0.005770568
68	0xba9225c4	-0.0011150171
69	0x3b16b54d	0.0022996247
70	0x3b11040b	0.0022127654
71	0xbc152bc8	-0.009104677
72	0xbb77b2d6	-0.0037795804
73	0xbc0a5114	-0.008442182
74	0xbcb85312	-0.022500549
75	0x3b462846	0.0030236407
76	0xbc74d496	-0.014943263
77	0x3b79f8e7	0.0038142742
78	0x3c7081da	0.0146793965
79	0x3ad937cc	0.0016572415
80	0xbbeef608	-0.007292513
81	0x39e3392e	0.00043339416
82	0xbb9670d0	-0.004591085
83	0xba1eae30	-0.00060531776
84	0xba74d630	-0.0009339778
85	0x3b94fd54	0.0045468006
86	0x3aa9ad5a	0.001294534
87	0xbae0aa53	-0.0017140604
88	0x3a654ddc	0.00087472587
89	0xbb5a6fbe	-0.0033330764
90	0x39a6df83	0.00031828517
91	0xbb80e519	-0.0039335606
92	0x3c06a18a	0.008217225
93	0x3a3ac528	0.00071247155
94	0x3aa93717	0.0012910095
95	0x3b474664	0.0030406946
96	0x3b1b36ab	0.0023683708
97	0xbc682519	-0.014169001
98	0x3b83c438	0.004021194
99	0x3b76b942	0.0037647043
100	0xbaf02d23	-0.0018323999
101	0x3b500a7e	0.0031744535
102	0x3c240c86	0.010012751
103	0xbbd9fc7c	-0.006652413
104	0xbabc8022	-0.0014381448
105	0xbb8c78c5	-0.004286858
106	0xbc65b0fb	-0.014019246
107	0x3b58600e	0.0033016237
108	0xbc9463a0	-0.018113911
109	0x3a8546c8	0.0010168189
110	0x3c931339	0.017953502
111	0x3b1a3d86	0.0023535206
112	0xbaba92f2	-0.0014234467
113	0x3b0ca819	0.0021462499
114	0xbb146a67	-0.0022646429
115	0xbabca977	-0.0014393766
116	0x39a6af80	0.00031792745
117	0x3b84de3c	0.0040548127
118	0x3b27b2e7	0.0025588812
119	0xba34cd8c	-0.0006897084
120	0x3b09fa01	0.0021053555
121	0x3c420b0d	0.011843455
122	0xbb3b8895	-0.0028615345
123	0x3a6773d9	0.00088292133
124	0x3c93c872	0.018039916
125	0xbaa10e47	-0.001228758
126	0x3bd714ff	0.006563782
127	0x3b890765	0.0041817897

convs.bias_bc f4 [4, 32, 1]
0	0xb940c7bb	-0.00018384952
1	0x3a8c7290	0.0010715295
2	0xba01cc5f	-0.0004951413
3	0x39fa1518	0.00047699432
4	0xb9e99bbf	-0.00044557263
5	0xbacb3ad1	-0.00155052
6	0xba80fab2	-0.0009840338
7	0x38080e12	3.243803e-05
8	0x3b0b0d68	0.0021217708
9	0x392644cb	0.00015856621
10	0xb9a45748	-0.00031345547
11	0xbaaa7af7	-0.0013006617
12	0xb88cdbe1	-6.716676e-05
13	0xb92ab3c0	-0.00016279425
14	0x380c38e8	3.34316e-05
15	0x3a75cbf1	0.0009376398
16	0x3a12a81c	0.0005594508
17	0xb9df410e	-0.00042582344
18	0xb8fa8520	-0.000119457254
19	0x386c404b	5.6326662e-05
20	0xb9893e71	-0.000261772
21	0xb9f668ce	-0.00046998862
22	0xba2eb393	-0.0006664332
23	0x376b3957	1.4020442e-05
24	0x3a6477af	0.0008715344
25	0x39d539b4	0.00040669518
26	0xbadd2cd8	-0.0016874326
27	0x3abe27ff	0.0014507769
28	0xb8eccb27	-0.00011291197
29	0xb9a1789d	-0.00030798177
30	0xb873428a	-5.7997684e-05
31	0x3a5dfe7d	0.00084684027
32	0xba88715d	-0.0010409761
33	0x3a0f01fe	0.0005455314
34	0x3a6952cc	0.00089005823
35	0x3a969554	0.0011488595
36	0x3987c5fb	0.00025896713
37	0x3a84cecb	0.001013243
38	0x3a8f6908	0.0010941336
39	0x3ad4c386	0.0016232587
40	0xb9a95fa7	-0.00032305458
41	0x383a7b51	4.4460703e-05
42	0x3a1c56f6	0.0005963886
43	0x3b15029d	0.0022737153
44	0x3b00deb6	0.0019663996
45	0xbaa1fc32	-0.0012358485
46	0x38957013	7.125749e-05
47	0xb7838cf4	-1.5682053e-05
48	0xba050df8	-0.0005075629
49	0xbab2204f	-0.0013589951
50	0x3a8ddd6e	0.0010823437
51	0xba61cfa5	-0.00086140103
52	0xb87ba714	-5.9998667e-05
53	0xb9630791	-0.00021651226
54	0xbaf5c170	-0.0018749665
55	0xba226827	-0.00061953295
56	0xba16274f	-0.00057279033
57	0x3a6e1a1e	0.0009082871
58	0xbaec6868	-0.0018036487
59	0x39c256cb	0.0003706723
60	0x3b1947ee	0.002338882
61	0xb9d974f7	-0.0004147661
62	0x3ad5e248	0.0016318047
63	0x3b0d7963	0.0021587245
64	0x396796e2	0.00022086085
65	0x3ac6df50	0.0015172753
66	0xba30ffa7	-0.00067519624
67	0xb9c09d2f	-0.00036738205
68	0xbafe81df	-0.0019417367
69	0xb8f74980	-0.00011791568
70	0x3967a07c	0.00022089662
71	0x39ed5610	0.00045268284
72	0x3b2633fe	0.002536058
73	0xbb05f1c3	-0.002043829
74	0xba45d6e8	-0.0007546977
75	0x392e2f38	0.00016611523
76	0xb959139b	-0.00020702036
77	0xb8b6d08c	-8.717281e-05
78	0xba6045ad	-0.00085553044
79	0xbadf95ef	-0.0017058233
80	0xba966091	-0.0011472871
81	0xba80d99c	-0.0009830478
82	0xba9fdb78	-0.0012196144
83	0xb9df1db0	-0.00042555993
84	0xb9d8d1e9	-0.00041355126
85	0xb9e18e3f	-0.00043021326
86	0xb9913a0b	-0.000276998
87	0x3a345695	0.0006879357
88	0x3aa16352	0.0012312925
89	0xbaef0eee	-0.0018238702
90	0x39ea83b6	0.0004473009
91	0x3868a69a	5.546827e-05
92	0x39cf8f1d	0.00039588744
93	0x393ac3d6	0.00017811297
94	0xb9aeaf1e	-0.0003331834
95	0xba6df143	-0.00090767833
96	0x3abeba33	0.0014551341
97	0x39b2e217	0.00034119256
98	0xba91b979	-0.0011117897
99	0xb950fc9b	-0.00019930529
100	0x39ad4494	0.00033048226
101	0x3ae4d2b5	0.0017457815
102	0xbab0fb12	-0.0013502559
103	0x3afe02bb	0.0019379476
104	0xb9e12c55	-0.00042948374
105	0x3a0d566e	0.0005391602
106	0xb9173d81	-0.00014423394
107	0x397671b0	0.0002350274
108	0xba80f7b5	-0.0009839447
109	0x3a975eda	0.0011548654
110	0x396b87ea	0.00022461978
111	0x3a88c8d2	0.0010435826
112	0x39f16ca6	0.0004604805
113	0xb8c8b460	-9.5703406e-05
114	0xba6b5f12	-0.0008978705
115	0x3ad982ae	0.0016594732
116	0xba22659d	-0.0006194951
117	0x3a4c1c3b	0.0007786189
118	0x3ae5f1ed	0.0017543413
119	0x3b07227f	0.0020619927
120	0x3a6026b8	0.00085506914
121	0xb94e1a36	-0.00019655455
122	0xba0c1613	-0.00053438655
123	0x391f2543	0.00015177303
124	0x3a03da79	0.00050298084
125	0x3a69c25e	0.00089172076
126	0x3ae90149	0.0017776872
127	0x3a4dec99	0.0007855385

convs.weight.0.tensor f4 [32, 32, 18, 2]
0	0x3c19f522	0.009396823
1	0x8131af44	-3.2635513e-38
2	0x3d1ef1ae	0.038804702
3	0x3ce20de7	0.02759452
4	0x3cac22ea	0.021012742
5	0x3c43027c	0.011902448
6	0x3cca8f32	0.024726484
7	0x3c424181	0.011856438
8	0x3cc54bc7	0.024083985
9	0x3c11c9c8	0.008898206
10	0x3cbb1f67	0.022842122
11	0xbb46487b	-0.0030255604
12	0x3cb20b34	0.021733858
13	0xbbae265f	-0.005314633
14	0x3cc220b5	0.023697237
15	0xbc0334d6	-0.008008203
16	0x3cd9f752	0.02660719
17	0x3bbda81e	0.0057878634
18	0x3ce51bfd	0.027967447
19	0x3b6ac2cb	0.0035821672
20	0x3cf07522	0.029352728
21	0x3c066378	0.008202426
22	0x3cdb3863	0.026760286
23	0xbbd05727	-0.0063580456
24	0x3cde634e	0.027146962
25	0xbba28103	-0.004959227
26	0x3cea8113	0.028626
27	0x3c3e361a	0.0116095785
28	0x3d15ee31	0.03660411
29	0x3b123ed9	0.0022315292
30	0x3d258868	0.04041329
31	0x3a7d0e10	0.00096532796
32	0x3d323319	0.04350576
33	0x3c9cc969	0.019139009
34	0x3d4ccabe	0.049998038
35	0x3a0e0088	0.0005416949
36	0xb9ef1520	-0.00045601372
37	0x016f2288	4.3922142e-38
38	0x3d336c15	0.043804247
39	0x3c6a4d50	0.014300659
40	0x3c79cf60	0.015247196
41	0x3c2cc9a2	0.01054612
42	0x3ca630c9	0.020286934
43	0x3c2b91cd	0.010471773
44	0x3c94c5d4	0.018160738
45	0x3c0b1a31	0.008490131
46	0x3c69ae36	0.0142627265
47	0xbbb7b459	-0.005606216
48	0x3c8d587e	0.01725411
49	0x3c29505a	0.010334099
50	0x3c90e50a	0.01768734
51	0x3c2c90ec	0.010532599
52	0x3c977c89	0.018492
53	0xbc3abc16	-0.011397382
54	0x3c9d9ed0	0.019240767
55	0xbc009869	-0.007848837
56	0x3c9b9140	0.018990159
57	0xbbc8b49a	-0.006125045
58	0x3c9af707	0.01891662
59	0xbb4f0534	-0.0031588795
60	0x3ca49026	0.020088267
61	0xbb28d87b	-0.0025763798
62	0x3caae811	0.020862611
63	0xbb9ce28e	-0.0047877496
64	0x3cccac86	0.02498461
65	0x3cbe61ac	0.023239933
66	0x3d16c9e3	0.036813628
67	0x3c1658f0	0.009176478
68	0x3d19ca01	0.03754616
69	0x3caafbc8	0.020872012
70	0x3d3230b9	0.043503497
71	0x3d3318a1	0.04372466
72	0x3c14e88d	0.009088648
73	0x8089aa68	-1.2642593e-38
74	0x3d3b7eee	0.045775346
75	0xbc8078e5	-0.015682647
76	0x3ca3b761	0.019984903
77	0x3afa1d10	0.0019082148
78	0x3cc1411b	0.023590615
79	0x3b8a12b6	0.0042136563
80	0x3c9feb73	0.01952145
81	0xbc6bd1b3	-0.014393258
82	0x3cced441	0.025247695
83	0x3a720803	0.0009232761
84	0x3cc534e1	0.024073066
85	0xbb8bbe56	-0.004264633
86	0x3cdaf291	0.026726993
87	0xbba637d8	-0.005072575
88	0x3cfe305b	0.031028917
89	0xbb02aca9	-0.001993934
90	0x3ce30a3d	0.027714843
91	0xbc8ed105	-0.017433653
92	0x3d033114	0.032029226
93	0x3bbf0a62	0.005830095
94	0x3cfb392e	0.030666914
95	0x36891246	4.0850455e-06
96	0x3d018f3a	0.031630732
97	0x3b017b9f	0.0019757522
98	0x3ce7ec3e	0.028310891
99	0xbb60678a	-0.0034241402
100	0x3d284576	0.041081868
101	0x3b097364	0.002097332
102	0x3d4766f2	0.04868216
103	0xbc70dd81	-0.014701248
104	0x3d410344	0.047122255
105	0xbcdf5426	-0.027261805
106	0x3d63ebf9	0.055644963
107	0x3ad066aa	0.0015899737
108	0x3c20cf29	0.009815016
109	0x015234b8	3.8608732e-38
110	0xbe05e7f5	-0.13076766
111	0x3da78697	0.08179968
112	0x3bf3f48a	0.007444923
113	0x3be6c63f	0.0070426757
114	0xbca97829	-0.02068718
115	0xbabe2814	-0.0014507794
116	0xbc78c835	-0.015184452
117	0x3aa197c6	0.0012328557
118	0xbca56f50	-0.02019468
119	0x3bcfbb89	0.0063394946
120	0xbc8b2b3a	-0.016988385
121	0x3bbdb107	0.0057889256
122	0xbc5b903f	-0.01340109
123	0x3b45fdfc	0.00302112
124	0xbc73126d	-0.014835936
125	0xba9769aa	-0.0011551876
126	0xbc8ec6e1	-0.017428817
127	0xbb08aa50	-0.0020853467
128	0xbc8c41af	-0.017121164
129	0x3ae1677e	0.0017196981
130	0xbcbc3911	-0.02297643
131	0xb9ae6201	-0.00033260885
132	0xbcdef45e	-0.027216133
133	0xbb984360	-0.0046467036
134	0xbc95c063	-0.018280214
135	0xbbb488df	-0.0055094804
136	0xbc86163c	-0.016368024
137	0xbbadadcb	-0.0053002588
138	0xbc4256e9	-0.011861541
139	0xbaaecafb	-0.0013335639
140	0xbc52d392	-0.012867825
141	0x3acb72b1	0.0015521852
142	0xbbe911ab	-0.007112702
143	0xbbe04c00	-0.0068449974
144	0xbb8c94d4	-0.0042902026
145	0x8133c644	-3.3019356e-38
146	0x3d82f2ad	0.06393943
147	0xbe827169	-0.2547715
148	0xbcb4bd76	-0.022062998
149	0xbda7b50e	-0.0818883
150	0xbd225fb0	-0.039642036
151	0xbd8fc5df	-0.07020163
152	0xbd19d755	-0.037558872
153	0xbd50ee94	-0.051008776
154	0xbd0c23e2	-0.034213908
155	0xbd24315e	-0.040086143
156	0xbc35a2af	-0.01108615
157	0xbcaaed20	-0.020865023
158	0x3a1cadc3	0.000597682
159	0xbc966908	-0.01836063
160	0x3d77aaec	0.06046574
161	0x3b651960	0.0034957752
162	0x3d223e13	0.03960998
163	0x3c375ad8	0.011191092
164	0x3d5f6fc2	0.05454994
165	0x3c0d5ed8	0.00862857
166	0x3d3c83c7	0.04602411
167	0x3ca2d774	0.019878127
168	0x3d6f24e5	0.058384795
169	0x3cc86f89	0.024467247
170	0x3d6083cd	0.054813195
171	0x3d14697b	0.036233407
172	0x3dbf13d5	0.093299545
173	0x3c8348bc	0.016025893
174	0x3dd92f5d	0.10604737
175	0x3c117212	0.008877294
176	0x3dc3af9d	0.0955498
177	0xbd21bd6f	-0.0394873
178	0x3dd0c587	0.10193925
179	0xbbc11d51	-0.0058933874
180	0x3c2a16f4	0.010381449
181	0x01b02f16	6.4719754e-38
182	0x3d3b57c0	0.04573798
183	0x3d325b32	0.043544002
184	0x3c58c785	0.013231163
185	0x3bd86550	0.0066038743
186	0x3c8bd8d0	0.017071158
187	0x3b375341	0.0027973207
188	0x3c96641a	0.018358279
189	0x3b02f787	0.0019983964
190	0x3c9ea1c4	0.019364245
191	0xb9a1c7df	-0.0003085723
192	0x3c859550	0.01630655
193	0xbcac0c25	-0.021001885
194	0x3ca45ac7	0.020062817
195	0xbad69c32	-0.0016373454
196	0x3cbb9660	0.022898853
197	0xbb387b72	-0.002814975
198	0x3cafc6ef	0.021457164
199	0x3ae4967f	0.0017439871
200	0x3c9b3ef4	0.018950917
201	0xbca11cda	-0.019667078
202	0x3ca663a5	0.020311186
203	0x3ad28187	0.0016060331
204	0x3caa51a2	0.020790879
205	0xbc8c97fe	-0.01716232
206	0x3cae2c32	0.021261308
207	0x3b8b316e	0.004247836
208	0x3d043abe	0.032282583
209	0xbc967073	-0.018364167
210	0x3d291ddb	0.041288238
211	0xbcaea64a	-0.021319527
212	0x3d3bdc13	0.045864176
213	0x3c6b82d1	0.014374451
214	0x3d5316fc	0.05153559
215	0xbcf71395	-0.030160705
216	0x3ccd6bd7	0.025075836
217	0x013c2ce0	3.4562343e-38
218	0xbcbc59b2	-0.022991989
219	0xbc4c1981	-0.0124572525
220	0x3b33dc99	0.002744472
221	0xbbf5c8e2	-0.0075007537
222	0x3bf7e9a8	0.007565696
223	0xbb95d5f9	-0.0045726267
224	0x3bf0fdff	0.0073544974
225	0xbb3e9327	-0.002907941
226	0x3c11cb5c	0.008898582
227	0xbb6ec719	-0.003643459
228	0x3c2376ae	0.009977026
229	0xbaec5e01	-0.0018033386
230	0x3c18049f	0.0092784455
231	0x3b1f4419	0.0024302064
232	0x3c11c1fd	0.008896348
233	0x3ba31d80	0.004977882
234	0x3c20ebae	0.009821815
235	0x3b324543	0.0027201928
236	0x3c0982f3	0.008393037
237	0xb8cfee74	-9.9149445e-05
238	0x3c1a0eb1	0.009402917
239	0xb91aad89	-0.00014751231
240	0x3c13a7c9	0.009012171
241	0x3b1a6eda	0.0023564608
242	0x3bfd0014	0.0077209566
243	0x3b4be31e	0.0031110714
244	0x3ba83ac8	0.0051339604
245	0x3bfdd583	0.0077464
246	0x3b4d90a1	0.0031366723
247	0x3bf948f9	0.007607576
248	0x3a7ef936	0.00097264664
249	0x3bc3e1d5	0.005977849
250	0xbbc33dd3	-0.0059582978
251	0x3bb0ae42	0.005391867
252	0x3a848c4b	0.0010112611
253	0x80b7e160	-1.6886745e-38
254	0x3d734c28	0.0593988
255	0xbd4599fb	-0.04824255

convs.weight.1.tensor f4 [32, 32, 18, 2]
0	0x3c2173cf	0.009854271
1	0x0202e159	9.615563e-38
2	0x3bdb2107	0.006687287
3	0x3c43d25d	0.01195201
4	0x3c825d3c	0.015913598
5	0x3bfad371	0.0076546003
6	0x3c937e9e	0.018004712
7	0x3b524a91	0.0032087902
8	0x3c92f49b	0.017938903
9	0x3b63af27	0.003474185
10	0x3c891572	0.016733859
11	0x3a60602c	0.00085592526
12	0x3c8f6352	0.017503414
13	0x3985d7e0	0.00025528576
14	0x3c8ee289	0.017442005
15	0xbb4f044f	-0.0031588261
16	0x3c8c3c7d	0.017118687
17	0x3b183129	0.002322266
18	0x3c97a360	0.01851052
19	0x3b419205	0.0029536497
20	0x3ca4fb79	0.020139443
21	0x3bcbb1cd	0.006216264
22	0x3ca01fd4	0.019546427
23	0xba84fc80	-0.0010146052
24	0x3c93925c	0.018014126
25	0x39acf3c8	0.00032988028
26	0x3c99e617	0.018786473
27	0x3c231a24	0.009954963
28	0x3cb65af7	0.022260172
29	0x3acf3810	0.0015809555
30	0x3cc515b0	0.024058193
31	0x3b85d926	0.004084724
32	0x3cd2f8ea	0.025753457
33	0x3be2a0ae	0.006916127
34	0x3cfe37b8	0.031032428
35	0x3b3ea4ca	0.002908992
36	0xbb1daa3e	-0.002405777
37	0x00966770	1.3812431e-38
38	0xba8a6829	-0.0010559607
39	0x3b6d041e	0.0036165784
40	0x3c165f54	0.009178001
41	0x3c2d95db	0.01059481
42	0x3c3a4201	0.011368276
43	0x3c35f08d	0.011104715
44	0x3c27201e	0.010200528
45	0x3c2aa74d	0.010415864
46	0x3be5f9bb	0.0070182956
47	0x3a02927e	0.00049809355
48	0x3c0e6ae8	0.008692481
49	0x3c423d75	0.011855473
50	0x3c12fe9d	0.008971837
51	0x3c49d4cf	0.012318804
52	0x3be6a40f	0.0070386003
53	0xbc004101	-0.007827998
54	0x3c136a5c	0.008997526
55	0xbbb4d51e	-0.0055185696
56	0x3c216a13	0.00985195
57	0xbb9764f0	-0.004620187
58	0x3c32ae95	0.010905881
59	0x3b263648	0.0025361944
60	0x3c28ca95	0.010302206
61	0x3b434f13	0.002980177
62	0x3c323b7a	0.010878438
63	0xbb9afa3d	-0.0047295378
64	0x3c263721	0.01014498
65	0x3ca12646	0.01967157
66	0x3c8a85e6	0.01690955
67	0x3c5a12b5	0.013310124
68	0x3ca63c18	0.020292327
69	0x3c0f3dbd	0.008742747
70	0x3cbd3b63	0.023099607
71	0x3d11983c	0.035545573
72	0x3c29bb08	0.010359533
73	0x00ffebf0	2.350269e-38
74	0x3c012fd1	0.0078849355
75	0xbb90da7c	-0.0044205766
76	0x3c6b3a1c	0.014357116
77	0xbc04f52d	-0.008115095
78	0x3c840642	0.016116265
79	0xbbeda797	-0.0072526443
80	0x3c75947e	0.014989017
81	0xbc26f974	-0.01019131
82	0x3c9d607f	0.019211052
83	0x3b10ed4d	0.0022114099
84	0x3c956e95	0.018241206
85	0xbaaafc84	-0.0013045226
86	0x3ca96db7	0.020682199
87	0xbb139687	-0.0022520141
88	0x3ca2ec28	0.019887999
89	0xbc90ed93	-0.01769141
90	0x3c9b2171	0.018936845
91	0xbc4c5054	-0.012470324
92	0x3cbaaeae	0.022788372
93	0xbb03cb76	-0.0020110286
94	0x3cbab334	0.022790529
95	0x3b974a8e	0.004617042
96	0x3caf8e19	0.021430062
97	0x3ba122f1	0.0049174954
98	0x3ca4f650	0.020136982
99	0xbb8df98f	-0.004332728
100	0x3cd6e55f	0.02623242
101	0xb9ab0531	-0.0003261953
102	0x3cf94849	0.030429976
103	0xbc1a5f55	-0.009422143
104	0x3cd8e03d	0.026474113
105	0xbcdc9d23	-0.026930397
106	0x3d058e64	0.032606497
107	0xbae6ddc1	-0.0017613695
108	0x3a46f07a	0.00075889344
109	0x81992c3e	-5.626681e-38
110	0xbd6067e5	-0.05478658
111	0x3cd768b8	0.026295051
112	0x399b6ff6	0.0002964732
113	0x3b548a65	0.0032431122
114	0xbc4b9f07	-0.012428052
115	0x3809de27	3.287024e-05
116	0xbc8dbd3d	-0.01730215
117	0x3b59896c	0.0033193482
118	0xbc8b7fa8	-0.017028645
119	0x3c173fa9	0.009231486
120	0xbcb826e9	-0.022479491
121	0x3c0fe138	0.008781724
122	0xbc9eb6a6	-0.019374203
123	0x3b72c455	0.0037043293
124	0xbc93dcf5	-0.018049696
125	0xba86a32b	-0.0010272017
126	0xbc94e2aa	-0.018174488
127	0xbb846506	-0.0040403632
128	0xbc408e02	-0.011752607
129	0x3a73ad7d	0.0009295566
130	0xbc6c4c99	-0.014422559
131	0xbae2f349	-0.0017314936
132	0xbcbcf025	-0.023063729
133	0xbbdba252	-0.0067026997
134	0xbc5c74c5	-0.013455574
135	0xbb1438b3	-0.0022616803
136	0xbc5345d8	-0.01289507
137	0xbbb00b55	-0.0053724446
138	0xbc0e3853	-0.008680421
139	0xbb17ae3b	-0.002314462
140	0xbcab6920	-0.020924151
141	0x3ba79b36	0.005114938
142	0xbd18788d	-0.03722434
143	0xbbd0e59f	-0.006375029
144	0xbbb2ff81	-0.0054625873
145	0x8006d830	-6.28566e-40
146	0xbe3f7ed8	-0.18700731
147	0xbe935953	-0.28779086
148	0xbd6339b7	-0.055474963
149	0xbdd05567	-0.10172539
150	0xbd9c09a3	-0.076190256
151	0xbd9087dd	-0.07057164
152	0xbda192f8	-0.0788936
153	0xbd22d0e7	-0.039750006
154	0xbd9e6fc7	-0.077361636
155	0xbccd97ae	-0.02509674
156	0xbcf343fb	-0.029695502
157	0xbadff35d	-0.0017086078
158	0xbc821a0b	-0.015881559
159	0xbb238581	-0.00249514
160	0x3c9e1bad	0.019300306
161	0x3b986540	0.004650742
162	0x3c549180	0.012974143
163	0x3c677db4	0.014129091
164	0x3cdc659a	0.026903916
165	0x3c770cb3	0.015078711
166	0x3cb4c934	0.022068597
167	0x3cef6a0c	0.029225372
168	0x3ce4460b	0.02786543
169	0x3d01b6b7	0.03166839
170	0x3d226e35	0.039655883
171	0x3cc647c8	0.02420415
172	0x3d56619d	0.052339185
173	0x3c8e9ccf	0.017408757
174	0x3d8241c3	0.06360199
175	0x3c72bb88	0.014815219
176	0x3d8018a3	0.06254699
177	0xbd04a550	-0.032384217
178	0x3da1aef6	0.07894699
179	0x3c5d2af7	0.013499013
180	0x3c16439d	0.009171394
181	0x8173d724	-4.4786407e-38
182	0x3a8748db	0.0010321395
183	0x3c2d3316	0.010571262
184	0x3bdc7b1f	0.0067285444
185	0x3b785daa	0.0037897625
186	0x3c0e0320	0.008667737
187	0xbba7804a	-0.005111729
188	0x3c0b58bd	0.008505044
189	0xbb31a71f	-0.0027107669
190	0x3c35ece8	0.011103846
191	0x3a18d4ec	0.00058300677
192	0x3c29f17f	0.010372519
193	0xbc8149ec	-0.015782319
194	0x3c486318	0.012230657
195	0xbad6b22c	-0.0016380004
196	0x3c2641d7	0.010147533
197	0xbc48f1e6	-0.012264704
198	0x3c2030df	0.009777277
199	0xbb0e8556	-0.0021746955
200	0x3c132370	0.008980617
201	0xbc9227de	-0.017841276
202	0x3c3d8514	0.011567373
203	0xb9ec8ed0	-0.0004511983
204	0x3c45cfbe	0.012073455
205	0xbc7f0fb4	-0.015567709
206	0x3c158fad	0.009128493
207	0xb9d26e72	-0.0004013661
208	0x3c82c777	0.015964253
209	0xbc951e07	-0.018202795
210	0x3c9d1e41	0.019179465
211	0xbca4290f	-0.02003911
212	0x3ca31445	0.019907126
213	0xbb9a7e7e	-0.004714786
214	0x3cc89e34	0.0244895
215	0xbce0461c	-0.02737718
216	0x3beab4e0	0.0071626753
217	0x80f153b0	-2.2162376e-38
218	0x3baa7fa1	0.005203203
219	0xbc801879	-0.01563667
220	0xbcd6422b	-0.026154598
221	0xbd11b9b7	-0.035577502
222	0xbd278bbb	-0.04090474
223	0xbd321ab5	-0.0434825
224	0xbd513ca1	-0.05108321
225	0xbd65c5d3	-0.056096863
226	0xbd07bf48	-0.033141404
227	0xbd98680d	-0.07441721
228	0xbd346721	-0.044043664
229	0xbdaed5a9	-0.08536846
230	0xbd254b94	-0.04035528
231	0xbdc4ac6a	-0.09603198
232	0xbd93817a	-0.0720243
233	0xbe02054a	-0.1269733
234	0xbd869f21	-0.0657332
235	0xbde8d8ca	-0.11369474
236	0xbd8ff84a	-0.07029779
237	0xbdd5ee64	-0.1044586
238	0xbd48b3b4	-0.048999503
239	0xbdd6095d	-0.10451005
240	0xbd1a09af	-0.03760689
241	0xbdfa625d	-0.122257926
242	0xbd7f1151	-0.062272374
243	0xbdbadf56	-0.09124629
244	0xbd165b57	-0.036708202
245	0xbe060832	-0.13089064
246	0xbd42bf64	-0.047545806
247	0xbddeb019	-0.10873432
248	0xbd921dc4	-0.071345836
249	0xbdfe471f	-0.12415909
250	0xbd912291	-0.07086671
251	0xbdf9adca	-0.12191351
252	0x3a341f1b	0.000687109
253	0x8050db30	-7.42547e-39
254	0x39d3ba04	0.0004038365
255	0xbcca806e	-0.024719443

convs.weight.2.tensor f4 [32, 32, 18, 2]
0	0x3c185bb3	0.009299207
1	0x00160f70	2.025919e-39
2	0x3bc2a99f	0.0059406306
3	0x3c3a8ebc	0.01138657
4	0x3c56153b	0.013066585
5	0x3c10356b	0.008801798
6	0x3c68f1e6	0.014217829
7	0x3bc42a50	0.0059864894
8	0x3c47261b	0.012155081
9	0x3b5f14f6	0.0034039593
10	0x3c37fb10	0.011229292
11	0x3bdefaa5	0.0068047815
12	0x3c37fca6	0.01122967
13	0x3c22e0c7	0.009941286
14	0x3c4615ec	0.0120901875
15	0x3bd7f9bc	0.00659105
16	0x3c2e960f	0.010655894
17	0x3ad02696	0.001588064
18	0x3c35a465	0.011086558
19	0x3adcdcb3	0.0016850441
20	0x3c39f1b4	0.01134913
21	0x3a51ec35	0.0008007915
22	0x3c33861c	0.010957267
23	0x3bf50afd	0.0074781165
24	0x3c1c15de	0.009526698
25	0x3bcd0dd0	0.00625775
26	0x3c179170	0.009250984
27	0x3ab8eb1a	0.0014108152
28	0x3c3676de	0.011136739
29	0x3b9d6de2	0.004804359
30	0x3c3eb03a	0.011638695
31	0x3c21b2ba	0.009869272
32	0x3c68e720	0.014215261
33	0x38d11236	9.969289e-05
34	0x3c8c012f	0.017090408
35	0x3c1ddbd9	0.009634935
36	0xbb47aa47	-0.0030466483
37	0x82052404	-9.781633e-38
38	0xbbad6f0b	-0.0052927784
39	0xb9cd143d	-0.00039115726
40	0x3b5eb019	0.0033979474
41	0x3bcce70c	0.006253129
42	0x3ba6be54	0.005088607
43	0x3c1eace4	0.009684775
44	0x3b75e0ef	0.0037518104
45	0x3c224718	0.009904645
46	0x3a68b5d5	0.0008877193
47	0x3b42e3af	0.002973776
48	0x3a8ace65	0.0010590075
49	0x3c3f1fa6	0.01166526
50	0x3998fd09	0.00029180225
51	0x3c548380	0.012970805
52	0x3883338c	6.256168e-05
53	0xb7d56a65	-2.5441122e-05
54	0x3a2a472a	0.00064955896
55	0xb9fb0ec8	-0.00047885464
56	0x3a878223	0.0010338466
57	0xb9ec0460	-0.00045016687
58	0x3b21d895	0.0024695743
59	0x3b95514d	0.004556811
60	0x3abbbe44	0.0014323671
61	0x3be958be	0.0071211746
62	0x3af21daa	0.0018471975
63	0xbb067b6e	-0.0020520347
64	0xbaa2dbb9	-0.0012425102
65	0x3c823737	0.01589547
66	0x3ae5d86c	0.0017535812
67	0x3c78bf6f	0.01518236
68	0x3bbffe3b	0.005859164
69	0x3c26df72	0.010185109
70	0x3c05e91e	0.008173255
71	0x3cdea814	0.027179755
72	0x3c251d98	0.0100778565
73	0x00ec8790	2.1721808e-38
74	0x3bad083b	0.005280522
75	0xbb8cbc4e	-0.0042949086
76	0x3c241e56	0.010016998
77	0xbbb3c4a3	-0.0054860874
78	0x3c33023c	0.010925826
79	0xbb999dfe	-0.0046880236
80	0x3c0c37df	0.008558243
81	0xbb8624e1	-0.004093752
82	0x3c34bcf0	0.011031374
83	0x3bbf1c25	0.0058322125
84	0x3c469927	0.012121475
85	0x3b0d9120	0.0021601394
86	0x3c2483b3	0.010041165
87	0x3afcaa59	0.0019276842
88	0x3c31ad7f	0.010844587
89	0xbc651353	-0.013981658
90	0x3c4e8a9b	0.012606288
91	0xbbb66744	-0.0055665094
92	0x3c62927d	0.013828871
93	0xbbbc6094	-0.0057488177
94	0x3c579193	0.013157266
95	0x3bd70ef8	0.0065630637
96	0x3c3ddf74	0.01158892
97	0x3bcfec95	0.0063453414
98	0x3c384cbd	0.011248765
99	0xbb3662fb	-0.0027829993
100	0x3c4aff34	0.012389947
101	0xbacdf56e	-0.0015713403
102	0x3c71ff93	0.014770406
103	0xbbb9673b	-0.005658058
104	0x3c353bcd	0.011061621
105	0xbc942b41	-0.018087031
106	0x3c39d687	0.011342651
107	0xbb8520c1	-0.0040627425
108	0x3a9e2a60	0.0012067072
109	0x0003d3e8	3.51524e-40
110	0xbc81b6eb	-0.015834292
111	0x3c498519	0.012299799
112	0xbba18d69	-0.0049301875
113	0xbbbf3db2	-0.005836212
114	0xbc2df79f	-0.0106181195
115	0x39eb9d37	0.00044939827
116	0xbc957af1	-0.0182471
117	0x3ab3e9aa	0.0013726254
118	0xbc71fadb	-0.014769281
119	0x3c2a7af5	0.010405292
120	0xbc9ce7fe	-0.019153591
121	0x3c3eeca2	0.011653097
122	0xbca8681f	-0.020557461
123	0x3b34c12b	0.0027580957
124	0xbcbbde25	-0.022933075
125	0xba9cf0c9	-0.0011973615
126	0xbc6c094b	-0.0144065125
127	0xbbba813b	-0.005691675
128	0xbc14f860	-0.00909242
129	0xba1f5b71	-0.00060789945
130	0xbc40d30b	-0.011769067
131	0xbb14fae0	-0.002273254
132	0xbc92980b	-0.017894765
133	0xbbcfd0de	-0.0063420376
134	0xbc5de172	-0.01354252
135	0xba43162a	-0.00074419624
136	0xbc366c73	-0.011134255
137	0xbc0b3f19	-0.00849893
138	0xbbcac79e	-0.006188347
139	0xbc1ec353	-0.009690124
140	0xbc7df1ea	-0.015499571
141	0x38f115eb	0.00011495858
142	0xbd267477	-0.040638413
143	0xbc21ae40	-0.009868205
144	0xbc1733c5	-0.009228651
145	0x02005708	9.428932e-38
146	0xbd9892b8	-0.074498594
147	0xbc92a5b3	-0.017901277
148	0xbdf9f4c1	-0.12204886
149	0xbd4458ea	-0.047936358
150	0xbe01b70d	-0.12667485
151	0xbcb1afdf	-0.021690307
152	0xbdee90e6	-0.11648731
153	0x3cd33584	0.025782354
154	0xbdc39506	-0.09549908
155	0x3d374ed7	0.044752922
156	0xbd906948	-0.07051331
157	0x3d7310ee	0.059342317
158	0xbd63836c	-0.055545256
159	0x3d80365d	0.06260369
160	0xbd0665c7	-0.032811906
161	0x3daa3c55	0.08312289
162	0xbc69d4d6	-0.014271935
163	0x3d99e69c	0.075146884
164	0x3c914727	0.017734123
165	0x3d8fb4ec	0.0701693
166	0x3b6a9206	0.0035792603
167	0x3d6f22a8	0.05838266
168	0x3c20d776	0.009816995
169	0x3d6052f0	0.054766595
170	0x3cf9b861	0.030483427
171	0x3d4cbe57	0.04998621
172	0x3d0a1c2a	0.033718266
173	0x3d68eafe	0.05686473
174	0x3d498b6a	0.04920522
175	0x3d56be9b	0.05242787
176	0x3db1df6d	0.08685193
177	0x3d173a16	0.03692063
178	0x3c058e19	0.0081515545
179	0xb8671e4a	-5.51029e-05
180	0x3c223304	0.009899858
181	0x80317288	-4.541025e-39
182	0x3aae3a25	0.0013292475
183	0x3bd6fc9a	0.006560874
184	0x3aff7e57	0.0019492608
185	0xbb721c77	-0.0036943236
186	0x3ac238c7	0.0014817946
187	0xbb91176f	-0.0044278423
188	0x39fed225	0.00048603225
189	0xbbec2dae	-0.007207594
190	0x3b1b9120	0.0023737624
191	0x3a94c72c	0.0011350862
192	0x3b0e7995	0.002173995
193	0xbb8ccbc8	-0.0042967536
194	0x3af01e42	0.0018319564
195	0xbaf157a8	-0.0018412964
196	0xb9fdb189	-0.00048388194
197	0xbc2ac240	-0.010422289
198	0x39d30765	0.00040250566
199	0xbbead347	-0.0071662995
200	0x3a17ddd1	0.0005793246
201	0xbc4c05a7	-0.0124525195
202	0x3b371e4c	0.0027941642
203	0xbb29d5c9	-0.002591478
204	0x3b7ca30a	0.0038549327
205	0xbc0e430f	-0.00868298
206	0xb9075b27	-0.0001290856
207	0xbc02c959	-0.007982575
208	0x3b3fcdbc	0.0029266914
209	0xbc6c5951	-0.014425592
210	0x3b47e911	0.0030503909
211	0xbc5772eb	-0.013149957
212	0x39a4e755	0.00031452873
213	0xbc7ce8eb	-0.015436391
214	0x3b138bb3	0.0022513687
215	0xbc923707	-0.017848505
216	0x3bf06d67	0.0073372605
217	0x0208343a	1.000669e-37
218	0x3c3e680a	0.0116214845
219	0xbcb095cb	-0.021555802
220	0xbd0e2123	-0.03469957
221	0xbd2dd5fb	-0.042440396
222	0xbd4ab16a	-0.0494856
223	0xbd4bbc65	-0.049740214
224	0xbd72ea8f	-0.059305724
225	0xbd5a656d	-0.053319383
226	0xbd36cd8a	-0.04462961
227	0xbd84cc78	-0.06484312
228	0xbd54d1dd	-0.051957954
229	0xbd95de53	-0.073177956
230	0xbd46c500	-0.048527718
231	0xbdae3bfc	-0.08507535
232	0xbdb26ce9	-0.08712179
233	0xbdbff311	-0.09372533
234	0xbd9c3733	-0.07627716
235	0xbdbe10f1	-0.09280575
236	0xbd9cbe30	-0.07653463
237	0xbdb5d420	-0.0887835
238	0xbd4d450e	-0.050114684
239	0xbdc4d739	-0.09611363
240	0xbd2ae9a6	-0.04172673
241	0xbddabab4	-0.10680142
242	0xbd8bef75	-0.06832782
243	0xbdabfe88	-0.08398157
244	0xbd460c25	-0.048351426
245	0xbdf409c5	-0.11915926
246	0xbd71e559	-0.059056614
247	0xbdda7af4	-0.10667983
248	0xbdb6423b	-0.08899351
249	0xbdf4890b	-0.11940201
250	0xbda883ca	-0.08228262
251	0xbe06193d	-0.13095565
252	0x3adee100	0.0017004311
253	0x80df0488	-2.0480941e-38
254	0xbb83ef1c	-0.004026307
255	0xbcd827b1	-0.026386114

convs.weight.3.tensor f4 [32, 32, 18, 2]
0	0x3c33827c	0.010956403
1	0x019b61c6	5.7078306e-38
2	0x3bc24a0d	0.0059292377
3	0x3c309540	0.0107777715
4	0x3c44e840	0.012018263
5	0x3c361671	0.011113749
6	0x3c370e67	0.011172867
7	0x3bca0c90	0.0061660483
8	0x3c099056	0.008396229
9	0x3bbe4bf2	0.005807393
10	0x3beb9e1b	0.0071904785
11	0x3c8ea8ee	0.017414536
12	0x3bb533ee	0.005529872
13	0x3c8558e6	0.016277742
14	0x3bd20356	0.006409089
15	0x3c83a7f5	0.0160713
16	0x3baf8d6d	0.0053574354
17	0x3bd09c0e	0.0063662594
18	0x3bae8ef7	0.0053271013
19	0x3b9d3dfa	0.004798648
20	0x3bcac5ea	0.006188144
21	0x3a2a330f	0.00064925937
22	0x3b846d1a	0.004041326
23	0x3c4d4a3d	0.012529907
24	0x3b3938f8	0.0028262716
25	0x3c526ecf	0.012843802
26	0x3b922c5c	0.0044608545
27	0xb9fc5b1e	-0.00048133073
28	0x3b02b2a9	0.0019942916
29	0x3c582917	0.01319339
30	0x3ad47f04	0.001621217
31	0x3c7506ba	0.014955217
32	0x3be722d3	0.007053712
33	0x3c0c248f	0.008553638
34	0x3bab1b6d	0.0052217753
35	0x3c6d1beb	0.014471988
36	0xbb7d0df9	-0.0038613065
37	0x8100fad4	-2.3689847e-38
38	0xbbb3912d	-0.005479953
39	0x3afbd6ed	0.0019213833
40	0x39e026f1	0.00042753623
41	0x3bd93d62	0.006629632
42	0x38de851b	0.00010610578
43	0x3c15de22	0.009147199
44	0xbac3f701	-0.0014950932
45	0x3c18380a	0.0092907045
46	0xbb2ba4eb	-0.0026190828
47	0x3c22a1ab	0.00992624
48	0xbb4b100d	-0.0030984909
49	0x3c37ecd8	0.011225902
50	0xbbb78532	-0.005600595
51	0x3c502d48	0.012706108
52	0xbbbd67e6	-0.005780208
53	0x3c3a1194	0.01135673
54	0xbbc21868	-0.0059233196
55	0x3c176f3a	0.009242827
56	0xbba7f782	-0.005125941
57	0x3bb2a67e	0.0054519763
58	0xbb778153	-0.0037766292
59	0x3bece4d7	0.0072294283
60	0xbba03b24	-0.0048898626
61	0x3c18cffb	0.00932693
62	0xbb771aef	-0.0037705263
63	0x3b6685ca	0.003517496
64	0xbbf6a394	-0.0075268243
65	0x3c7921f5	0.01520585
66	0xbc0d50a5	-0.008625184
67	0x3c59dd11	0.013297335
68	0xbb3de421	-0.0028975087
69	0x3c948f82	0.018134836
70	0xbb14962c	-0.0022672517
71	0x3c8eb129	0.01741846
72	0x3c1efcfe	0.009703873
73	0x810c0e28	-2.5724096e-38
74	0x3bcae656	0.006192009
75	0xbbbff6f2	-0.0058582956
76	0x3c1fafeb	0.009746532
77	0xbada93e2	-0.0016676153
78	0x3bf1401c	0.0073623788
79	0xb966eeb1	-0.00022023429
80	0x3be7d81f	0.007075324
81	0xb9cee2b8	-0.000394603
82	0x3b9decaf	0.0048194746
83	0x3c4baf3b	0.012431915
84	0x3b618a2f	0.003441464
85	0x3c0c0eed	0.00854848
86	0x3b80ffbb	0.0039367354
87	0x3bd6a23e	0.0065501025
88	0x3b4b9e58	0.0031069722
89	0xb9d6fc6d	-0.00041005333
90	0x3bb0cd1c	0.0053955447
91	0xbad6b18c	-0.0016379817
92	0x3bd50640	0.006500989
93	0xbac84ac0	-0.0015281066
94	0x3b8a9153	0.00422875
95	0x3c253d3b	0.010085399
96	0x3b1f3bb7	0.0024297067
97	0x3c08bffd	0.008346555
98	0x3bb351be	0.005472391
99	0xbaa2b3e2	-0.0012413228
100	0x3acdf242	0.0015712457
101	0x3acca65f	0.0015613547
102	0x3a88c27a	0.0010433935
103	0x3b832dc7	0.00400326
104	0x3a576cea	0.00082178286
105	0xbbba7e1d	-0.0056913034
106	0xbb6f401f	-0.0036506725
107	0x3b4d2486	0.0031302287
108	0x3b4d51a5	0.0031329182
109	0x801509f8	-1.932122e-39
110	0xbbd8676d	-0.006604126
111	0xbcff76ad	-0.031184519
112	0xbc34712a	-0.011013309
113	0xbd281ad0	-0.041041195
114	0xbca930e7	-0.020653201
115	0xbcba12c9	-0.022714036
116	0xbcbf0a8e	-0.023320463
117	0xbc911d46	-0.017714154
118	0xbc5d6887	-0.013513691
119	0xbba7e7cd	-0.0051240684
120	0xbc87aee0	-0.01656288
121	0xbadaa4c5	-0.0016681185
122	0xbccd3560	-0.025049865
123	0xbba8c44f	-0.005150355
124	0xbd013113	-0.03154094
125	0xbbbf9a67	-0.0058472636
126	0xbc93497e	-0.01797938
127	0xbbe83ac1	-0.007087082
128	0xbc3a4859	-0.011369788
129	0xbbc8b244	-0.0061247665
130	0xbc56f598	-0.013120078
131	0xbc07f9d6	-0.008299312
132	0xbc3c2bc6	-0.011485046
133	0xbc48e571	-0.012261734
134	0xbc720c4f	-0.014773442
135	0xbc23f67c	-0.010007497
136	0xbc265d21	-0.01015404
137	0xbc89eedf	-0.016837535
138	0xbc3546e7	-0.011064268
139	0xbcbf55b8	-0.023356304
140	0xbc6a0c1a	-0.014285112
141	0xbcda80de	-0.026672777
142	0xbd140e49	-0.036146436
143	0xbd8d77da	-0.069076255
144	0xbc230231	-0.009949253
145	0x0135221c	3.3268922e-38
146	0xbb527ca5	-0.003211775
147	0x3c0577dd	0.008146253
148	0xbc823c4b	-0.01589789
149	0xba57a30e	-0.0008225896
150	0xbc81cf7a	-0.015846003
151	0xbb7210d3	-0.0036936298
152	0xbc62aee9	-0.013835647
153	0xbbf34a43	-0.007424624
154	0xbc5b004f	-0.013366773
155	0xbcbb2e6c	-0.022849284
156	0xbc4e034f	-0.012574031
157	0xbcdaede7	-0.026724769
158	0xbc49962f	-0.012303873
159	0xbce63767	-0.02810259
160	0xbc5a43e0	-0.013321847
161	0xbc88be1e	-0.016692217
162	0xbc72ff46	-0.01483137
163	0xbc918422	-0.017763201
164	0xbc7c2da6	-0.015391743
165	0xbc5a1efd	-0.013313052
166	0xbc159850	-0.009130552
167	0xbccf7fd7	-0.025329513
168	0xbbfa0bd4	-0.0076308046
169	0xbcd47e2b	-0.025939068
170	0xbc4a0d30	-0.012332246
171	0xbc3b652f	-0.011437698
172	0xbc0be92d	-0.00853948
173	0xbcf9cdd0	-0.030493647
174	0xbc213f8b	-0.00984181
175	0xbd0eb55e	-0.034840934
176	0xbc9cfaa9	-0.019162493
177	0xbcfec65e	-0.031100448
178	0xbc746341	-0.014916242
179	0xbd0de966	-0.034646414
180	0x3c2ba4bf	0.01047629
181	0x01a80c6a	6.1731267e-38
182	0x3b26acb0	0.002543252
183	0x3bf8f3e4	0.0075974334
184	0xbb3d09ac	-0.0028844876
185	0x3ab14d20	0.0013527013
186	0xbb811e6a	-0.003940393
187	0xb9d5abcd	-0.00040754527
188	0xbb87e7d9	-0.0041475114
189	0xbb2074d1	-0.002448369
190	0xbb1e5b12	-0.002416317
191	0x3bb3ba72	0.0054848725
192	0xbb6ee1a1	-0.0036450403
193	0x3b46fcd5	0.0030363102
194	0xbb8c9d3b	-0.0042912043
195	0x39e4c5d9	0.00043634957
196	0xbbb2797a	-0.00544661
197	0xbb59667f	-0.0033172665
198	0xbba91d4a	-0.005160962
199	0xbbb770ef	-0.0055981795
200	0xbb918d9b	-0.0044419295
201	0xbc0d8fca	-0.008640239
202	0xbb6840a5	-0.0035438922
203	0xbb509484	-0.0031826803
204	0xbb80e52c	-0.0039335694
205	0xbb67035d	-0.0035249807
206	0xbbc7663e	-0.0060851863
207	0xbc2802e7	-0.010254598
208	0xbc0556a9	-0.008138337
209	0xbba18574	-0.004929239
210	0xbc41bd25	-0.011824881
211	0xbbb36f8f	-0.0054759453
212	0xbc26862f	-0.010163828
213	0xbc0b48ff	-0.00850129
214	0xbc5f2ee6	-0.013622021
215	0xbc0ac5f7	-0.00847005
216	0x3c4f339c	0.012646582
217	0x800a76a8	-9.60921e-40
218	0x3c3a1403	0.01135731
219	0xbd5c5274	-0.05378957
220	0xbd35097f	-0.04419851
221	0xbd9c6b5e	-0.07637666
222	0xbd7813c9	-0.060565744
223	0xbd8dfa4a	-0.069325045
224	0xbd609a55	-0.054834682
225	0xbd95079a	-0.072768405
226	0xbd410b47	-0.047129896
227	0xbd5ebcca	-0.054379262
228	0xbd43c3f7	-0.04779431
229	0xbd8da7cf	-0.069167726
230	0xbd522f94	-0.051314905
231	0xbd9b2014	-0.07574478
232	0xbda6a4f2	-0.081369296
233	0xbd906d13	-0.07052054
234	0xbd9117e2	-0.070846334
235	0xbd92d7f4	-0.07170096
236	0xbd8174a7	-0.06321078
237	0xbd8a89e9	-0.067645855
238	0xbd1cd482	-0.0382886
239	0xbd988911	-0.07448018
240	0xbd086dfd	-0.033308018
241	0xbd98f847	-0.0746923
242	0xbd51a437	-0.051181998
243	0xbd8f8831	-0.07008398
244	0xbd33c606	-0.04389002
245	0xbda8f063	-0.08248975
246	0xbd54ac96	-0.051922403
247	0xbda184fa	-0.078866914
248	0xbd9866fc	-0.07441518
249	0xbd8f70c3	-0.070039295
250	0xbda0e02d	-0.07855258
251	0xbdb68514	-0.089121014
252	0x3a6bbbde	0.0008992533
253	0x011cc768	2.8795742e-38
254	0xbc1d4a8e	-0.009600295
255	0xbd0ec251	-0.034853283

fno_skips.0.weight f4 [1, 32, 1]
0	0x3f814cb8	1.0101538
1	0x3f802be9	1.00134
2	0x3f818841	1.0119706
3	0x3f73d708	0.95249987
4	0x3f8038f5	1.0017382
5	0x3f81fd33	1.0155395
6	0x3f4ba3ce	0.7954682
7	0x3f8077de	1.003658
8	0x3ec918a3	0.3927661
9	0x3f7ffc42	0.9999429
10	0x3f7c73ef	0.986144
11	0x3f7ebf54	0.99510694
12	0x3f7f19da	0.9964882
13	0x3f36850c	0.71296763
14	0x3f8070fd	1.0034481
15	0x3f816073	1.0107559
16	0x3f79f3e4	0.9763777
17	0x3f721940	0.9456978
18	0x3f80af29	1.0053455
19	0x3f80638b	1.0030378
20	0x3f15539c	0.583307
21	0x3f81481b	1.010013
22	0x3f80e2b2	1.0069182
23	0x3f197331	0.59941393
24	0x3f814f9a	1.0102417
25	0x3f7eca67	0.9952759
26	0x3f7bd0d6	0.98365533
27	0x3f7d0adf	0.9884471
28	0x3eb1fa00	0.34761047
29	0x3f815383	1.0103611
30	0x3f806a83	1.0032505
31	0x3f81acf6	1.0130908

fno_skips.1.weight f4 [1, 32, 1]
0	0x3f814a1f	1.0100745
1	0x3f7ff140	0.99977493
2	0x3f8170ff	1.0112609
3	0x3f669691	0.90073496
4	0x3f7fbf54	0.9990132
5	0x3f819f6d	1.0126778
6	0x3f39f0b1	0.7263289
7	0x3f80584e	1.0026948
8	0x3e77f0a8	0.24212897
9	0x3f7fcbe6	0.999205
10	0x3f7c76aa	0.98618567
11	0x3f80b47e	1.0055082
12	0x3f7eac85	0.99481994
13	0x3f49927b	0.78739136
14	0x3f80696c	1.0032172
15	0x3f815d16	1.0106533
16	0x3f0a9df3	0.5414726
17	0x3f81d382	1.0142672
18	0x3f8098cd	1.0046631
19	0x3f8034b3	1.0016083
20	0x3f0d6672	0.55234444
21	0x3f81486a	1.0100224
22	0x3f80fe84	1.0077672
23	0x3e8138f9	0.2523878
24	0x3f814ab0	1.0100918
25	0x3f7f541b	0.9973771
26	0x3f8237e9	1.0173312
27	0x3f7e9386	0.9944385
28	0x3e601233	0.21881942
29	0x3f8147d7	1.0100049
30	0x3f80aca9	1.0052692
31	0x3f8188eb	1.0119909

fno_skips.2.weight f4 [1, 32, 1]
0	0x3f814ba9	1.0101215
1	0x3f7f982d	0.99841577
2	0x3f816bb4	1.0110993
3	0x3f6dd267	0.92899173
4	0x3f7c00e4	0.9843886
5	0x3f818858	1.0119734
6	0x3f80c229	1.0059253
7	0x3f80403c	1.0019603
8	0x3f7bcf46	0.9836315
9	0x3f7e5a4c	0.9935653
10	0x3f7c8629	0.9864221
11	0x3f80e464	1.0069699
12	0x3f7e4893	0.9932949
13	0x3f78d9dd	0.97207433
14	0x3f80fda7	1.0077409
15	0x3f815ea0	1.0107002
16	0x3f5dabc8	0.8659024
17	0x3f80f0f8	1.0073538
18	0x3f808c24	1.0042768
19	0x3f804361	1.0020562
20	0x3f80dfaf	1.0068263
21	0x3f814dab	1.0101827
22	0x3f810c73	1.0081924
23	0x3f7a0c40	0.9767494
24	0x3f814a1a	1.0100739
25	0x3f802781	1.0012056
26	0x3f7d40d4	0.98927045
27	0x3f7e7b14	0.9940655
28	0x3f7fcc87	0.9992146
29	0x3f8148b9	1.0100318
30	0x3f80d701	1.0065614
31	0x3f818da3	1.0121349

fno_skips.3.weight f4 [1, 32, 1]
0	0x3f814cb5	1.0101534
1	0x3f7f2378	0.99663496
2	0x3f8168c1	1.0110093
3	0x3f70c9e3	0.94058055
4	0x3f7a6f5b	0.97826165
5	0x3f818083	1.0117344
6	0x3f81c5f6	1.0138538
7	0x3f802032	1.0009825
8	0x3f7fc47e	0.999092
9	0x3f7d7ec7	0.9902157
10	0x3f7cf039	0.9880405
11	0x3f81021a	1.0078766
12	0x3f7dc262	0.9912473
13	0x3f7dfed2	0.9921695
14	0x3f815431	1.0103818
15	0x3f815efc	1.0107112
16	0x3f7ce8dc	0.98792815
17	0x3f8107fc	1.0080562
18	0x3f806da9	1.0033466
19	0x3f801f8b	1.0009626
20	0x3f81108c	1.0083175
21	0x3f815454	1.010386
22	0x3f8117e4	1.0085416
23	0x3f7f7118	0.9978194
24	0x3f814864	1.0100217
25	0x3f807498	1.0035582
26	0x3f7fa3e3	0.99859446
27	0x3f79c26a	0.9756228
28	0x3f80867d	1.0041043
29	0x3f814b38	1.010108
30	0x3f81314d	1.009317
31	0x3f81a9bd	1.0129925

lifting.fc.weight f4 [32, 1, 1]
0	0x3f3e5560	0.7434902
1	0x3f079d1c	0.52974105
2	0x3ee53880	0.4476967
3	0xbced173a	-0.02894174
4	0x3e8e6c7d	0.27817145
5	0x3e97ae80	0.2962532
6	0xbf310365	-0.69145805
7	0x3f0ffc2e	0.5624417
8	0xbf76d804	-0.96423364
9	0x3e0d6318	0.13807333
10	0x3f603888	0.8758626
11	0xbcc77b12	-0.024350677
12	0x3f252789	0.6451345
13	0x3c9490a7	0.018135382
14	0x3f1fb145	0.62379867
15	0x3f37b1fb	0.7175595
16	0xbec1ba48	-0.37837434
17	0xbf1c38c7	-0.61024135
18	0x3f453103	0.7702791
19	0x3e87e7bd	0.2654399
20	0xbf4afc5b	-0.79291314
21	0x3e8f636f	0.2800555
22	0x3e014e62	0.12627557
23	0xbf30b5b4	-0.69027257
24	0x3f3c761b	0.73617715
25	0xbdd5dcda	-0.10442515
26	0xbe927a44	-0.28608906
27	0x3efe59d0	0.49677896
28	0xbf554afd	-0.8331755
29	0x3f48e2dd	0.78471166
30	0x3db09020	0.0862124
31	0x3ebe7c21	0.37204078

lifting.fc.bias f4 [32]
0	0x3f7f3a52	0.99698365
1	0xbf11bfe1	-0.5693341
2	0xbe702096	-0.2344993
3	0xbee1dc40	-0.4411335
4	0xbf7a7fd0	-0.97851276
5	0xbf607fe7	-0.87695163
6	0xbef84d1b	-0.48496327
7	0xbe5eca67	-0.21756898
8	0xbf7109a8	-0.9415536
9	0xbed90e67	-0.423938
10	0x3dfdbfe6	0.12390117
11	0x3f2f6d7e	0.68526447
12	0x3f4c870b	0.7989356
13	0xbe762a19	-0.24039496
14	0x3f112d0d	0.5670937
15	0x3f447308	0.76738024
16	0xbf381b97	-0.719171
17	0x3e9178bd	0.28412428
18	0x3dc7f4f7	0.0976352
19	0x3f58e7ed	0.8472889
20	0xbf516c56	-0.8180593
21	0x3f4915dc	0.7854898
22	0x3f513b0f	0.8173074
23	0xbf74669c	-0.9546907
24	0x3f25dd7e	0.64791095
25	0xbe90b731	-0.28264764
26	0x3e6903ed	0.22755404
27	0xbf5b33cf	-0.8562593
28	0xbf66ec38	-0.9020419
29	0xbf060e77	-0.5236582
30	0x3f206678	0.62656355
31	0xbf2ae8e1	-0.66761595

projection.fc1.weight f4 [64, 32, 1]
0	0x3de7dacf	0.11321031
1	0xbca52ac1	-0.020161988
2	0x3e1e06a2	0.15432218
3	0xbd362bcc	-0.04447536
4	0xbde241d8	-0.11047715
5	0xbcaac007	-0.020843519
6	0xbdb017ac	-0.08598265
7	0xbdc5cc7f	-0.09658145
8	0xbe0a1359	-0.13483943
9	0x3e04960b	0.12947862
10	0x3db06fa2	0.08615042
11	0xbe25601c	-0.16149944
12	0x3d8e2d53	0.06942239
13	0xbe1611f8	-0.14655292
14	0xbd5995db	-0.05312143
15	0x3d0145a1	0.031560544
16	0x3df63818	0.12022418
17	0x3da79989	0.081835814
18	0xbdd5d3b9	-0.104407735
19	0xbd6266c1	-0.055273775
20	0xbe0932e5	-0.13398321
21	0xbdc45495	-0.09586445
22	0xbd9186e3	-0.07105806
23	0xbe28727c	-0.16449922
24	0x3e01d25c	0.12677902
25	0x3e35ad39	0.1774186
26	0xbd3f6f0d	-0.046736766
27	0x3de1f5d0	0.11033213
28	0xbcb9279c	-0.022601895
29	0x3cbc61ed	0.022995913
30	0xbd086611	-0.033300463
31	0x3e0bd83f	0.1365671
32	0x3d56ff4b	0.05248956
33	0x3d95c82c	0.073135704
34	0x3e095fdc	0.13415474
35	0x3e1a7b69	0.1508614
36	0xbd56b6df	-0.052420493
37	0xbdd71830	-0.1050266
38	0x3d6b7156	0.057481132
39	0x3db6a12e	0.08917461
40	0xbdd70427	-0.10498839
41	0xbd9f817b	-0.07788368
42	0xbe3f2139	-0.18665017
43	0x3e1b9dd9	0.15196933
44	0xbe116016	-0.1419681
45	0xbda1682d	-0.07881198
46	0xbda650ec	-0.081209034
47	0xbc7e57a6	-0.015523827
48	0x3d98f850	0.07469237
49	0x3ddd562b	0.10807451
50	0xbdd541ab	-0.10412916
51	0x3a9e3f5f	0.0012073329
52	0x3c9916cf	0.018687634
53	0xbd2cdc61	-0.042202357
54	0x3d2a2e0c	0.04154782
55	0xbcc81c9a	-0.0244277
56	0xbda71a83	-0.081593536
57	0xbdc6d58b	-0.09708699
58	0x3ce7fdb9	0.028319227
59	0x3def0d5a	0.116724685
60	0x3d7806d3	0.060553383
61	0xbc508940	-0.012728035
62	0xbe2e494c	-0.17020148
63	0xbb650747	-0.0034946965
64	0xbe17139e	-0.14753577
65	0xbc158032	-0.009124802
66	0xbd4c52e3	-0.049883734
67	0x3d2f520d	0.04280286
68	0x3e1ba83d	0.15200897
69	0xbc6d6452	-0.01448925
70	0xbcec4bab	-0.028844675
71	0x3e25db3d	0.16196914
72	0x3c8582c1	0.0162977
73	0xbdb4b897	-0.0882427
74	0xbe3352ef	-0.17512105
75	0x3c5dbc7e	0.01353371
76	0xbb8f30b6	-0.0043698205
77	0x3db539dc	0.088489264
78	0x3d296bd1	0.041362587
79	0x3d93d947	0.07219177
80	0xbd8f96e2	-0.070112005
81	0x3b555e57	0.0032557452
82	0x3d93bbfa	0.07213588
83	0xbd527a08	-0.05138591
84	0x3df09536	0.1174721
85	0xbcdf86c6	-0.027285945
86	0x3d17493b	0.036935072
87	0xbe1c85d2	-0.15285423
88	0xbdb0dd37	-0.086359434
89	0xbe16ba61	-0.14719535
90	0xbd9fde07	-0.0780602
91	0x3d9b3542	0.075785175
92	0x3ca09e68	0.019606784
93	0x3cc47b40	0.023984551
94	0xbe28f14c	-0.16498297
95	0x3d99881a	0.074966624
96	0x3e1e6fa1	0.1547227
97	0xbddd110e	-0.107942685
98	0x3d763436	0.060108386
99	0xbe19d51e	-0.15022704
100	0x3dac3e0e	0.084102735
101	0x3e220f6c	0.15826195
102	0x3d0c3218	0.03422746
103	0x3e024ff0	0.12725806
104	0xbe263052	-0.1622937
105	0x3d7f789f	0.062370893
106	0x3e2bb647	0.16768752
107	0x3dfcaa16	0.12337129
108	0xbdf1de55	-0.118099846
109	0xbdfc22fb	-0.123113595
110	0x3c1f5d08	0.00972677
111	0x3e305023	0.1721807
112	0x3beff69d	0.0073230998
113	0xbe1f0399	-0.15528716
114	0xbdcd0efb	-0.10012623
115	0x3dfb7e9a	0.12280007
116	0x3e235462	0.15950158
117	0x3d6e1da9	0.058133755
118	0xbe0d5d80	-0.13805199
119	0xbdd1983f	-0.10234117
120	0x3c588726	0.013215816
121	0x3d1f8c86	0.038952373
122	0x3da09007	0.07839971
123	0xbda749a4	-0.08168343
124	0x3d193959	0.037408207
125	0xbc409e72	-0.011756526
126	0x3dfb6270	0.12274635
127	0x3d5855d9	0.052816246
128	0x3e13c194	0.14429313
129	0xbd93f028	-0.072235405
130	0xbaea87ed	-0.0017893292
131	0xbe3ed9d9	-0.1863779
132	0xbbf71cd3	-0.007541278
133	0xbd1dc514	-0.038518026
134	0xbdd52a17	-0.104084186
135	0xbe287d9a	-0.16454163
136	0x3de5ad75	0.11214725
137	0x3db736a5	0.089459695
138	0xbe155678	-0.14583766
139	0xbde44247	-0.11145454
140	0xbd9a87e6	-0.07545452
141	0x3e109a2d	0.14121313
142	0x3d3e7229	0.04649559
143	0x3cdba28d	0.026810909
144	0x3a5aa6e0	0.00083409064
145	0x3d79bee8	0.060973078
146	0x3dbf9417	0.09354418
147	0xbce900ff	-0.028442858
148	0xbe1aec5d	-0.15129228
149	0xbd6a90e0	-0.05726707
150	0xbdd36361	-0.103216894
151	0x3e00416d	0.12524958
152	0x3deb4c96	0.11489217
153	0xbd0f85ad	-0.035039593
154	0xbcb2df29	-0.021834927
155	0xbe0fd238	-0.14045036
156	0xbe089fac	-0.1334216
157	0xbcaeb6f3	-0.021327471
158	0xbe05271a	-0.13003197
159	0x3da2f2c4	0.0795646
160	0x3b8e5247	0.0043433043
161	0x3dada919	0.084795184
162	0xbd878a86	-0.06618218
163	0xbd9f4fc3	-0.07778885
164	0x3d6d88e0	0.057991862
165	0xbe26e527	-0.16298352
166	0xbe025b07	-0.12730037
167	0x3e254336	0.1613892
168	0x3d2be3b7	0.041965213
169	0x3e17742a	0.14790407
170	0x3d89b17f	0.06723308
171	0xbcc3ac67	-0.023885919
172	0x3e29434e	0.16529581
173	0xbe1b01f4	-0.15137464
174	0x3d786106	0.060639404
175	0xbd452cc1	-0.048138384
176	0xbdb3dd06	-0.08782391
177	0xbe02f40a	-0.12788406
178	0xbdd2ae67	-0.10287171
179	0xbd008589	-0.03137735
180	0x3c20e2cb	0.009819697
181	0xbdebe573	-0.11518373
182	0xbcb6be86	-0.022307646
183	0x3db3d09d	0.08780024
184	0xbd1a9054	-0.0377353
185	0x3d3150ea	0.043290056
186	0xbd1673a3	-0.036731374
187	0xbe0130e7	-0.12616311
188	0x3dc41daf	0.09575974
189	0xbe254207	-0.16138469
190	0xbdd9ab8c	-0.10628423
191	0x3dc3da03	0.09563067
192	0xbdb9ad18	-0.09066218
193	0xbdd47904	-0.103746444
194	0x3e10cb8a	0.14140144
195	0x3dc5851a	0.09644528
196	0xbde9bad9	-0.114125915
197	0xbc08380f	-0.008314147
198	0xbddd3e0f	-0.10802852
199	0x3cf352ff	0.029702662
200	0xbe28f681	-0.16500284
201	0x3e228a1e	0.15873
202	0xbe353b87	-0.17698489
203	0x3e0602b6	0.13086972
204	0x3d8b5d45	0.06804899
205	0x3e15d243	0.1463099
206	0xbd876f9a	-0.06613083
207	0xbdc2079f	-0.0947411
208	0x3e0b51ea	0.13605466
209	0x3e1a7c1e	0.1508641
210	0x3e1d7161	0.15375282
211	0x3dd334c4	0.103127986
212	0xbe0706d6	-0.13186201
213	0x3df0e903	0.117631935
214	0xbdef7487	-0.11692148
215	0xbd126100	-0.035737038
216	0x3d16783c	0.03673576
217	0xbe11fe8c	-0.14257258
218	0x3d7f03f1	0.06225962
219	0x3df07690	0.11741364
220	0x3d02a7e9	0.031898413
221	0xbd2f5c1f	-0.042812463
222	0xbe299965	-0.16562422
223	0x3d1d5f36	0.03842088
224	0x3b4a3760	0.003085576
225	0x3c84ff6f	0.016235081
226	0xbd2a7209	-0.04161266
227	0xbcdaeecd	-0.026725197
228	0x3cbf5397	0.023355288
229	0x3c0f0d96	0.0087312665
230	0xbda50658	-0.080578506
231	0xbda876dc	-0.082257956
232	0x3d8bee7c	0.06832597
233	0xbdc0be76	-0.094113275
234	0xbdab0ad9	-0.083516784
235	0x3c727c58	0.014800154
236	0xbd56172a	-0.052268185
237	0xbca13181	-0.019676926
238	0xbcb3a9d8	-0.021931574
239	0x3c936bdb	0.017995765
240	0xbc930be6	-0.01795001
241	0xbd392585	-0.045201797
242	0xbd1aa45c	-0.0377544
243	0x3b2f8c5d	0.0026786544
244	0x3c90ac0e	0.017660167
245	0x3d9ea944	0.077471286
246	0x3dd5e2b9	0.104436345
247	0xbc84bbab	-0.016202768
248	0xbd459ab7	-0.04824325
249	0x3d212d1f	0.03934967
250	0xbdca3d2e	-0.0987495
251	0xbb24ac2b	-0.0025127034
252	0xbbc6c6f8	-0.0060661994
253	0xbd6daa59	-0.058023784
254	0xbd6dc0eb	-0.05804531
255	0x3bf53c65	0.007484006

projection.fc1.bias f4 [64]
0	0x3bf0ee12	0.007352599
1	0x3de74411	0.112922795
2	0xbe08b5a5	-0.13350542
3	0xbccb2ea2	-0.02480251
4	0xbd4b35c5	-0.049611825
5	0xbe0da860	-0.13833761
6	0x3d147206	0.036241554
7	0x3cafa862	0.021442596
8	0xbe1951c2	-0.14972594
9	0x3d14f7bf	0.03636908
10	0x3c9c0fcb	0.0190505
11	0xbc9de7e1	-0.019275608
12	0x3dd62911	0.104570515
13	0x3d831793	0.06400981
14	0x3af034c2	0.001832627
15	0xbdbb6c1b	-0.09151479
16	0x3b6a9230	0.00357927
17	0xbbded0a9	-0.0067997766
18	0x3d290514	0.04126461
19	0x3e26ccd3	0.16289072
20	0xbd744082	-0.059631832
21	0x3e18e27d	0.14930148
22	0xbd2c7db9	-0.042112086
23	0xbc1c4fed	-0.00954054
24	0x3c91617e	0.017746683
25	0xbcee3d3e	-0.029081937
26	0x3cf90b1c	0.030400805
27	0xbc97dd84	-0.018538244
28	0xbdf05479	-0.11734862
29	0x3d5fdcc1	0.054653887
30	0x3d3dbbec	0.046321794
31	0x3d8d1620	0.06888986
32	0x3d70628c	0.05868773
33	0x3c00e5f2	0.007867323
34	0x3df328dd	0.118730284
35	0x3d69b64a	0.05705861
36	0xbdf8670c	-0.1212903
37	0x3c457254	0.012051184
38	0x3dbf012a	0.09326394
39	0x3d7ab265	0.061205287
40	0xbcf07f86	-0.029357683
41	0x3dbc4762	0.09193303
42	0xbc664d92	-0.01405658
43	0xbe238650	-0.15969205
44	0xbe16f1e6	-0.14740714
45	0xbd63c8e9	-0.055611525
46	0x3ddaa943	0.10676815
47	0x3d04f27d	0.032457817
48	0xbe16ac2c	-0.14714116
49	0xbddfbc30	-0.10924566
50	0xbe12aa48	-0.1432277
51	0xbd43d18d	-0.047807265
52	0x3be03430	0.0068421587
53	0x3db42cf9	0.0879764
54	0x3c3883d2	0.011261897
55	0xbc6c5c3f	-0.01442629
56	0xbdda4eb0	-0.1065954
57	0x3d537fea	0.05163566
58	0xbd766d6b	-0.060162943
59	0xbcdc546f	-0.02689573
60	0x3e15ae23	0.14617209
61	0x3e298449	0.16554369
62	0xbd72bc67	-0.059261706
63	0xbddc0f15	-0.10745064

projection.fc2.weight f4 [1, 64, 1]
0	0x3dca5f83	0.09881499
1	0x3d3c7214	0.04600723
2	0xbd1b12ec	-0.037859842
3	0x3ca35117	0.019936128
4	0xbd9478c5	-0.072495975
5	0x3d8f8d2a	0.07009347
6	0xbdf3c631	-0.119030364
7	0x3d19d1c0	0.03755355
8	0x3dd93420	0.10605645
9	0xbc970e63	-0.018439477
10	0x3d8324d3	0.06403508
11	0x3d0ef7e2	0.03490437
12	0x3cb292b1	0.021798464
13	0xbd88a2bb	-0.066716634
14	0x3dc60945	0.09669737
15	0x3cb25793	0.021770274
16	0x3bcb0831	0.006196045
17	0x3d91a85c	0.0711219
18	0x3dffadfc	0.12484357
19	0x3d9076cc	0.07053909
20	0x39a41685	0.00031297296
21	0x3da2c1c6	0.079471156
22	0xbc2405ae	-0.01001112
23	0xbd4a6352	-0.049411125
24	0x3d142fa6	0.036178254
25	0xbd37a16b	-0.044831675
26	0xbae3c547	-0.0017377519
27	0x3deac085	0.114625014
28	0x3e001951	0.12509657
29	0xbd3cbef2	-0.046080537
30	0xbdbb97e4	-0.0915983
31	0xbdaff8e4	-0.08592394
32	0x3d78574e	0.060630135
33	0xbdc5f8d9	-0.096666045
34	0xbd847ed4	-0.06469503
35	0xbb3ac1fa	-0.0028496967
36	0xbdd30051	-0.10302795
37	0xbc81c363	-0.015840238
38	0x3b211af8	0.0024582725
39	0x3d50e77b	0.051002007
40	0x3dc0d69c	0.094159335
41	0x3c4f7b59	0.012663686
42	0x3d50ea54	0.051004723
43	0x3d8743d9	0.06604738
44	0x3dc82885	0.097733535
45	0xbcd2d78a	-0.025737543
46	0x3dd9da15	0.10637299
47	0x3d71b8df	0.059014197
48	0xbdbc8ad0	-0.09206164
49	0x3d7dd851	0.061973874
50	0xbd94d6d6	-0.07267539
51	0x3ded74a2	0.115945116
52	0xbce06d57	-0.027395887
53	0x3d6ba94b	0.057534497
54	0x3ccc3621	0.024928154
55	0x3db793fb	0.08963772
56	0xbda37977	-0.07982152
57	0xbda4200b	-0.08013924
58	0xbd5abcf0	-0.05340284
59	0x3d3b73d1	0.045764748
60	0xbdbc5844	-0.09196523
61	0xbd9ed71e	-0.07755874
62	0xbde42df2	-0.11141576
63	0x3d675a44	0.05648257
