neuraloperator/examples/para/fno_bc_para_202305122010_001002003004_modes36_epochs250.pth (torch, 606613 bytes, 15 tensors)

convs.bias f4 [4, 32, 1]
00000000: 626d 6b3c 5561 a13c 0942 25bb b67d 99bb
00000010: db49 bf3b b2a5 8c3c 037b 7b3c 6eb4 c33b
00000020: e31b 193a 1d9f a8ba cae4 5fbc 7c0c 513c
00000030: dc69 a73c fbb3 2b37 30b6 833c 59c3 533c
00000040: ee30 a53c 34c6 843c 0737 fb3b d52e 6f3c
00000050: 4b9b 853c 2a3e 8b39 bd28 393b b60c 74bc
00000060: fa5f 5b3c d021 e7bb f037 8d3b c84f fb3c
00000070: 4a28 9a3c 74cb 9c3c 379f 093c da76 a63b
00000080: c871 833c a4cc abbc 7e0d 833c ea27 8bbb
00000090: fbac 5a3b cada 833c 5770 653c f5f6 43bc
000000a0: 6d25 87bc a4fd 9ebb ab71 943c 9881 24bc
000000b0: fb87 60bc 0ba1 3ebc 09e5 833c 21b9 80bc
000000c0: 6c12 6f3c 8ba5 843c b849 78bc e237 603c
000000d0: 7e6b 8e3c 7df9 bebb 2b7f 1f3b 9e90 73bc
000000e0: bc01 4f3c c4a9 833c 2fb4 38bc 10ce 843c
000000f0: 243f 89bc 31bb 99bc bb60 34bc 00ae d13b
00000100: 3034 893c ea0f 44bc 6638 923c f679 81bb
00000110: 4bcd 863b e77d 883c 6926 5b3c 7119 44bc
00000120: 6bea 11bc b8d4 0fbc 6faa 953c fb67 2bbb
00000130: d1ac 02bc df46 26bc 17d7 8a3c 7e80 39bc
00000140: 9066 7f3c cd34 843c a901 22bc 5e64 5a3c
00000150: 95ad 8a3c 905c 34bc 31b4 a63a 2a11 7ebc
00000160: 634a 003c abac 873c c91d 20bc 0184 8c3c
00000170: bf74 00bc 9c50 1ebc d138 40bc 7b27 153b
00000180: b220 863c ed8e 92bc 21f8 883c 79da 0abc
00000190: 7b0e 463b 9b05 763c dfcc 063c 059c 96bc
000001a0: e1f4 94bc 5d25 6fbc 5350 783c 5a29 abba
000001b0: ea72 4ebc 514b 8dbc 61b0 7f3c cc8d 42bc
000001c0: c2e3 553c 0a30 943c 5bed 8fbc f157 793c
000001d0: 8d8f 863c 5103 73bc 765d 90b9 4e88 68bc
000001e0: c599 45ba 1b02 7c3c 8150 4abc 1db0 9a3c
000001f0: bcf0 59ba 1e41 80bc 38a1 83bc ca35 f23a
0.014369341 0.019699732 -0.0025216362 -0.0046841754 0.0058376617 0.017168853 0.0153491525 0.0059724366
0.0005840642 -0.0012864802 -0.013665387 0.012759324 0.02043622 1.0234299e-05 0.016078085 0.0129249925
0.020164933 0.016207792 0.007666472 0.014598568 0.016309401 0.00026558462 0.0028253042 -0.014895609
0.013389582 -0.0070535913 0.004309647 0.030677691 0.01881804 0.019139983 0.008399776 0.005080086
0.016045466 -0.020971604 0.015997645 -0.0042467015 0.0033367265 0.016095538 0.014003835 -0.011960735
-0.016497338 -0.0048520137 0.018120607 -0.010040663 -0.013704295 -0.011635075 0.016100423 -0.015713276
0.014591794 0.016192218 -0.015154295 0.0136851985 0.01738524 -0.005828081 0.0024337273 -0.014866022
0.012634691 0.016072161 -0.011273428 0.01621154 -0.01675374 -0.018766018 -0.0110093905 0.0063989162
0.016748518 -0.011966685 0.017849158 -0.0039513065 0.0041138283 0.016661597 0.013375857 -0.011968956
-0.008905987 -0.008778743 0.018269746 -0.0026154506 -0.007975773 -0.010148733 0.016948266 -0.011322139
0.015588418 0.016138459 -0.009888091 0.013329593 0.016928473 -0.011008397 0.0012718496 -0.015507022
0.007830235 0.016561827 -0.009772726 0.017152788 -0.007840334 -0.009662773 -0.011732296 0.0022759128
0.016373012 -0.017890418 0.01671988 -0.0084749395 0.0030221033 0.015015985 0.008227556 -0.018384943
-0.018183174 -0.01459631 0.01515587 -0.0013058588 -0.01260064 -0.017247828 0.015606017 -0.011874627
0.01305479 0.018089313 -0.017569235 0.015218721 0.016425872 -0.014832334 -0.00027535454 -0.014192654
-0.0007537867 0.015381361 -0.012348295 0.018882805 -0.0008313765 -0.01565605 -0.016068086 0.0018479165

convs.bias_bc f4 [4, 32, 1]
00000000: 9dcf c539 63b9 25b8 fa0f ea39 c8bd 3bb8
00000010: a28a 64ba bfa7 9539 eaaa 52ba d08e 033b
00000020: aed1 713a 58ee 9b3a 2c3d 97ba 737f fab8
00000030: 3061 693a a898 bbb9 b468 59b8 d651 caba
00000040: 75bb a939 973d b73a 9004 83ba 1847 99ba
00000050: ef8a 02ba a6e9 53ba 68ad 1cba 70ef a339
00000060: 4acc bbba d390 e539 d0fb bc3a b288 f4b9
00000070: 3040 4b39 c8dd 9cb9 abf9 e7ba bfaf d43a
00000080: a2d3 22ba 1c80 8e39 dbcd 133a 7abe d3b9
00000090: 4169 1d3a 17a1 d0b9 28ea c6b8 8433 6d3a
000000a0: ff7e 6539 3b92 89b9 1589 273a 6200 55b9
000000b0: 8940 c538 73d1 25ba 4225 edba 8c1f eeba
000000c0: 8661 913a 0d60 e53a 13a2 883a 1084 b7ba
000000d0: a39e b4ba f3f4 0c3a 5611 ebb8 1edc d939
000000e0: 6f6f 81ba 1769 ac3a bef5 703a d8db 093a
000000f0: 1e76 ec39 2e3b 13ba fb62 113a e9fd 2039
00000100: 1585 2bba f601 e8b9 e04e 463a 1c11 1f3a
00000110: 15cd fcb9 b3c8 023a 62db 6939 1035 113b
00000120: 09c2 c6ba b025 9eb9 3df6 1b39 4305 d139
00000130: 2b88 623a 3765 b7b8 c0b7 7cba 5149 0bbb
00000140: 399e a939 f2d2 993a d831 edb9 a33c 26ba
00000150: 7de7 b03a 1288 d7b8 262d cb3a 9e9f 02ba
00000160: dbf1 56ba cf8c ad3a fdb5 8d3a 31e5 2eba
00000170: ba1d 143a 04ad ceb8 a724 9039 2d62 ad3a
00000180: acaf c3ba b95d cb39 a660 9338 bf9b 15bb
00000190: 1bdd 2eba 32ca d93a 5552 c839 1110 86ba
000001a0: 0c6b 753a fe40 1239 ffce 8839 8e64 353a
000001b0: 65b0 ba38 ec52 103a a940 7838 0b8d 9f39
000001c0: 6b73 aa39 f2ed 493a a74e 29b9 e4de ad39
000001d0: f503 cbba 3365 92b9 4aeb 84b8 6c16 933a
000001e0: 6310 22ba c233 b2b9 a85e b9b9 c4e3 483a
000001f0: 5d00 57ba 8855 4cba e113 7eba 23c9 f539
0.00037729452 -3.951172e-05 0.00044643861 -4.4761022e-05 -0.00087181677 0.00028544475 -0.00080363324 0.0020074137
0.0009224665 0.0011896593 -0.0011538616 -0.00011944668 0.00089027267 -0.00035781157 -5.1834344e-05 -0.0015435766
0.00032373858 0.0013980147 -0.0009995867 -0.0011694161 -0.0004979809 -0.00080838276 -0.0005976767 0.00031268178
-0.0014327851 0.00043786186 0.0014418308 -0.00046641153 0.000193835 -0.0002991988 -0.0017698308 0.0016226693
-0.00062113453 0.000271798 0.000563828 -0.00040386972 0.0006004759 -0.00039792873 -9.484991e-05 0.0009048509
0.00021886452 -0.00026239626 0.0006390971 -0.00020313406 9.4057126e-05 -0.0006325461 -0.0018092769 -0.0018167361
0.0011091686 0.0017499939 0.0010424278 -0.001400115 -0.0013780188 0.00053770764 -0.00011208902 0.00041553465
-0.0009875129 0.0013153878 0.0009191892 0.00052588945 0.00045101432 -0.00056164234 0.000554606 0.00015353378
-0.0006542963 -0.0004425195 0.0007564854 0.0006067918 -0.00048217984 0.0004989013 0.00022302338 0.0022156872
-0.0015164028 -0.00030164188 0.00014873683 0.00039867507 0.00086415064 -8.744973e-05 -0.0009640418 -0.0021253417
0.00032352077 0.001173584 -0.000452413 -0.0006341433 0.0013496723 -0.00010277344 0.0015501126 -0.0004982891
-0.00081994914 0.0013240817 0.0010811683 -0.00066717254 0.00056501816 -9.855072e-05 0.00027493128 0.0013228111
-0.0014929674 0.00038789006 7.0275084e-05 -0.0022828428 -0.00066705205 0.0016616045 0.00038208315 -0.0010228177
0.00093619595 0.00013947856 0.00026094166 0.0006919586 8.902027e-05 0.00055055204 5.9188027e-05 0.00030431928
0.0003251092 0.0007702998 -0.00016146396 0.00033163198 -0.001548885 -0.0002792269 -6.3380765e-05 0.0011221892
-0.00061822514 -0.00033989368 -0.00035356474 0.0007663334 -0.0008201653 -0.00077947276 -0.0009692293 0.000468799

convs.weight.0.tensor f4 [32, 32, 18, 2]
00000000: 4621 8d3c b05b f001 9828 693c 74e4 9abc
00000010: 02bf 663c 9e8e a1bc cbb7 903c 5734 84bc
00000020: df28 b23c fde0 79bc b177 c53c 2e03 80bc
00000030: a651 e03c 72da 6a3c cc69 043d 14c0 7e3c
00000040: d712 053d 13f0 8fbc 9b97 6c3c 9a4a a7bc
00000050: bb45 903c 13aa 4abc ef86 9c3c ca66 7dbc
00000060: 266a 9d3c c541 81bc a553 963c 0132 9abc
00000070: 8b17 d23c 0095 363c 5075 223d b3ed 4b3c
00000080: 0a89 6c3d 113b 8b3b eef4 a13d c09e 383c
00000090: 8a0d 9b3c 14db 5b01 6974 84b9 b607 f8bc
000000a0: dc87 d9bb 0726 28bd 2982 13bc 86dd 04bd
000000b0: 7fd3 0fbc 7e0e 0abd 9f16 fbbb 6e6b dfbc
000000c0: 1baf f4bb 236e ccbc 330d 11bc 612b 34bd
000000d0: 2a1a 5bbc dafc 82bd 1828 47b9 3908 8dbc
000000e0: d74b 8bba f17a 88bc 9a01 8dbb f1fb 94bc
000000f0: eb72 8dbb b9fd 73bc 5486 5abb 52a9 c3bb
00000100: 72bd c0bb 7b75 8bbb 2885 01bc ea7e c4bb
00000110: a3aa 19bd 58db 0a3d c090 97bd 3905 b33c
00000120: a54b 3bbb 7aa8 6882 eef2 c837 7990 ddb8
00000130: ebfb 39b8 3cec 22b8 012a 57b8 9f0f 75b8
00000140: 8552 48b8 cde3 4ab8 6323 48b8 7dbb e8b7
00000150: 6156 38b8 09b2 a2b7 1b12 18b8 a824 c0b7
00000160: fd50 d6b7 86fd abb7 1dd9 59b8 3ff2 93b7
00000170: 2884 4eb8 ff9a b0b7 cca8 3fb8 d1ef 96b7
00000180: c6fb 35b8 c57d b5b7 e4bf 40b8 9dea 83b7
00000190: a99c 29b8 3d6a 50b7 eb9a c8b7 4f8b f3b5
000001a0: 8fff 7bb7 eb20 ab36 585b 3837 f134 5f37
000001b0: e4d3 a2ba 6e61 1282 4048 88bb b485 90bc
000001c0: 425e 83bb fe4d aabc bc76 a6ba 326c bfbc
000001d0: 3a84 ab3b db31 cdbc 2800 4a3c 9011 463c
000001e0: f77f 033c fdca 13bd 2b67 353c b925 2ebd
000001f0: 3a27 af3c 6ea4 35bd 0cb3 f9ba 252e b0bc
00000200: 5239 68ba aaca 92bc c65c 133b b9fb 94bc
00000210: 15ec 873b 860e 413c 1f27 673b 9d2c 193c
00000220: 1ed4 253c 588d aebc 0432 e53c b791 a03c
00000230: 90ec 423d 977a d03c 5021 7e3d 1a35 c03d
00000240: bf00 053c d8c6 ea80 b549 303b ac9d 0abc
00000250: 7d30 d13b 2f90 b73c c233 123c 6044 14bc
00000260: b999 5c3c 2b4e 1fbc 1dd2 b53c 527a c23c
00000270: 7e26 c63c f20a cb3c 00f1 b43c 254f 38bc
00000280: 89eb 163d a6a9 983a 1d83 533c 9f1e d23b
00000290: 23ae 233c 52a5 45bc 9a5d 4f3c c0b1 57bc
000002a0: 49de 823c f148 6c3c 65d0 643c aa4b 503c
000002b0: df49 a63c 460b 46bc b0bb 163d 097c e33c
000002c0: 3da9 5c3d dab0 163d bf68 943d 0f7d b53d
000002d0: 64ad 9b3c 7e02 c481 3459 9c3c c3f1 7a3b
000002e0: 9f81 923c f1a8 133b c0e7 993c 4524 df3b
000002f0: 20f3 b73c a265 173c 625b e93c 024e 8ab9
00000300: 2e01 c43c c3f9 bebc 52e8 d63c e508 08bd
00000310: 8ff2 2c3d 2761 2e3c d36e a83c e9b5 c73b
00000320: 19fc a23c efcd 6fbc 4f1a ba3c f86b 4d3c
00000330: 1bca 9a3c c8d9 353c 535b 993c c01b 87bc
00000340: ac27 dd3c 2a26 94bc 53c6 143d c04e b3bc
00000350: ab24 493d b697 17bd a1c6 913d ca82 383d
00000360: 9fc1 8e3c e6a6 7702 447f 0f3c 480e bfbc
00000370: d35b 0a3c 580c c9bc 17d3 5f3c 6356 dfbc
00000380: d54e 8c3c 3234 f9bc 9e94 943c bf99 06bd
00000390: 1dc6 b53c 9ca6 22bd cf58 423d f33b cd3c
000003a0: ee1e 4f3d fd1d 0d3d 6116 263c df86 c5bc
000003b0: 6c21 5e3c f238 b8bc 763d 9f3c 7414 6c3c
000003c0: 3ee2 8a3c fcd8 763c a814 7f3c f203 a6bc
000003d0: 5c30 c13c 6bd4 f5bc cdc5 4b3d 6d91 1d3d
000003e0: 0433 983d d3ca 4f3d 9198 b53d f6ae ba3d
000003f0: 9623 d13b 8b26 0582 daf2 66bb fde5 0db9
0.01722778 8.829364e-38 0.01423087 -0.018907763 0.014083626 -0.019721325 0.017665764 -0.016138239
0.021748004 -0.015251395 0.024104925 -0.015626516 0.027382683 0.014334308 0.03232746 0.015548725
0.03248867 -0.017570531 0.014440442 -0.020421315 0.017611375 -0.01236965 0.01910731 -0.015466401
0.019215655 -0.015778432 0.018350432 -0.018822672 0.025645992 0.011143923 0.03966266 0.012446809
0.057747878 0.0042489846 0.07908045 0.011268318 0.018927354 4.0381128e-38 -0.00025263734 -0.030277114
-0.00663851 -0.04105189 -0.009003201 -0.032437824 -0.008778452 -0.033705227 -0.0076626088 -0.027272906
-0.0074671633 -0.024954861 -0.008853245 -0.04398668 -0.013372937 -0.06395884 -0.00018993055 -0.017215835
-0.001062746 -0.016660186 -0.0043031694 -0.018186541 -0.004316678 -0.014892035 -0.0033344226 -0.0059711123
-0.0058819586 -0.004255948 -0.007905282 -0.0059965746 -0.037516247 0.03390059 -0.07400656 0.021853076
-0.0028579023 -1.7093018e-37 2.395498e-05 -0.00010565011 -4.4342054e-05 -3.884382e-05 -5.1299114e-05 -5.84271e-05
-4.7760568e-05 -4.837271e-05 -4.7716672e-05 -2.7743861e-05 -4.3949465e-05 -1.9394809e-05 -3.6256486e-05 -2.2905253e-05
-2.5548501e-05 -2.0502845e-05 -5.1939034e-05 -1.763657e-05 -4.9237307e-05 -2.105301e-05 -4.5695153e-05 -1.7993067e-05
-4.3388245e-05 -2.1635447e-05 -4.595508e-05 -1.5725667e-05 -4.043864e-05 -1.2422502e-05 -2.3913997e-05 -1.8145455e-06
-1.5020268e-05 5.1000293e-06 1.0988522e-05 1.3304162e-05 -0.0012422767 -1.0754347e-37 -0.0041590035 -0.01764188
-0.004009039 -0.020789143 -0.001270018 -0.023367021 0.0052342685 -0.025048187 0.012329139 0.012089148
0.008026115 -0.036082257 0.01107196 -0.042516444 0.02138101 -0.044346265 -0.0019050553 -0.021506378
-0.0008858639 -0.017918903 0.0022485717 -0.018186437 0.004148016 0.011783248 0.003527112 0.009349016
0.010121373 -0.021307632 0.02797795 0.019600732 0.047588885 0.02544908 0.062043488 0.09385128
0.008117854 -2.1560838e-38 0.0026899402 -0.0084604435 0.006383954 0.02240762 0.008923473 -0.009049505
0.013464385 -0.009723227 0.022194916 0.023739967 0.024188276 0.024785493 0.022087574 -0.011249338
0.036845718 0.0011647239 0.012909678 0.0064123417 0.009990248 -0.012063341 0.012656594 -0.0131649375
0.015975134 0.014421687 0.013965701 0.012713352 0.020298896 -0.012087649 0.036800086 0.027769106
0.053872336 0.036789753 0.07246541 0.08861744 0.019003578 -7.2002605e-38 0.019085504 0.0038291074
0.017884074 0.0022531117 0.018787265 0.0068097436 0.022454798 0.00924054 0.028485958 -0.00026379531
0.023926344 -0.023312455 0.026233826 -0.033211607 0.04222351 0.01064328 0.020560658 0.0060946834
0.0198956 -0.014636501 0.022717623 0.012537949 0.0188952 0.011099286 0.018720305 -0.016492724
0.026996456 -0.018084604 0.03632195 -0.021888137 0.049107235 -0.037009917 0.071179636 0.045046605
0.01742631 1.8194592e-37 0.00875837 -0.02332224 0.008444744 -0.024542019 0.013661168 -0.027262872
0.017127434 -0.030420396 0.018137272 -0.032861467 0.022189194 -0.039709672 0.047447976 0.025053
0.050566606 0.034452427 0.0101371715 -0.024112163 0.013557773 -0.022488091 0.019438487 0.014409173
0.016953584 0.015066382 0.01556889 -0.020265553 0.02358263 -0.030008515 0.049749184 0.038468767
0.074316055 0.050730538 0.0886699 0.091154024 0.006382416 -9.782358e-38 -0.0035239966 -0.00013532485

convs.weight.1.tensor f4 [32, 32, 18, 2]
00000000: fc85 903c 7a27 fa81 dceb 6d3c 5a89 153b
00000010: 823b 763c 8e89 93bb bbd4 923c a429 823c
00000020: 6d58 b73c 96c4 ee3c 534c b13c 1719 563c
00000030: b995 ca3c 7af9 303c f0b7 dd3c 7791 1b3c
00000040: ed8e d73c a8d0 743b 175f 833c 68cb 9cbc
00000050: 1403 923c b2ea 0aba 2de4 9d3c 89c4 84bb
00000060: 4ff0 943c 0563 17bc 278e 943c 57b6 89bc
00000070: 550d ac3c a7e3 d13b cf33 f03c ca4a c73b
00000080: bf04 273d 7efd f6bc c597 823d 6354 efbc
00000090: cc8f a0bc de62 1b02 bb5c 413d 5415 053c
000000a0: 9e39 383d e27b 61bb 6333 2b3d 8f06 78bc
000000b0: 2de9 3f3d 7942 dfbb c293 2f3d 6397 e13b
000000c0: 7831 f93c ade8 15bc 9c55 0d3d f6bf 6fbc
000000d0: a7f6 2c3d 9458 18bb 967d 013d 20b1 4fbb
000000e0: 5155 883c 7621 4b3b 32f0 813c c7b6 a83b
000000f0: 2dee 4d3c dd57 013c d156 f83b 2526 413c
00000100: 3179 4c3c f1ed 3b3c 8861 0e3c 2e0c 9c3c
00000110: 54c8 35bc f466 403d a871 aebd 5d95 e63d
00000120: 2530 943c eeb7 b581 5047 3b3c 056f 8a3a
00000130: a45c 213c c317 1bbd a939 6e3c bc58 6fba
00000140: f1de 9e3c 7999 1ebb 1d38 883c 06fc e6bc
00000150: a760 273c 2651 20bd fd95 6a3c 6366 49bd
00000160: 5664 a73c 0a81 8ebb c727 0c3c 474a 21bb
00000170: 2985 313c 0e29 2ebc 4f0d 113c 3f72 943b
00000180: 9ecd df3b 5e69 133c fa98 193c dbfb e5ba
00000190: 1fa9 f23b 4af0 86bc ea2f b23b 9a6e bdbc
000001a0: 58e4 9c3c 8fdd 6abd e81d b43b 02d9 afbd
000001b0: db84 1fbb 1c3f 1001 3970 89bb 7aed 0bbc
000001c0: 437c edba 0642 8ebc e943 dab9 8342 94bc
000001d0: ff55 433b e78d aabc 03ff 203c a85a 603c
000001e0: 0a40 5a3b ba35 02bd 8b20 ad3a c36a 1cbd
000001f0: ed0f 673c ca0f 0cbd 63dc deba 71c7 b4bc
00000200: ac7d 53ba b297 86bc f5c4 223b 256a 8fbc
00000210: 7f22 69b9 a7e5 3e3c 1edc 623a c460 0c3c
00000220: 93c5 613b d5dc 8abc ae43 593c c857 8f3c
00000230: 1adf ae3c 9e0a b43c 3e00 463d cf1b b93d
00000240: 224e d93b 7389 8e82 c820 713b 2c32 0e3c
00000250: e35d 053c 637f b93c 1086 063c 0848 df3c
00000260: bdb8 243c d4e4 d43c 6d15 993c ddda d23c
00000270: c3a7 ad3c 2c46 d83c 9788 9f3c ca28 43bc
00000280: 719e e33c 72ef b63c 369b 633c 55d9 123c
00000290: d49e 193c e1a6 29bc 4307 683c 5bbc e6bb
000002a0: 9317 383c a108 8b3c 86f6 2c3c d393 833c
000002b0: 1fd3 903c 88f7 2fbc 2d1c de3c 3166 cc3c
000002c0: 5546 163d 4f25 0a3d bd1f 853d cb55 993d
000002d0: 7d47 8a3c 5847 0480 21d2 993c 62e9 183c
000002e0: f089 9c3c d235 153c 2f7e aa3c 93a8 253c
000002f0: 3e7e d13c f6a3 4d3c 2534 e03c 0f08 233c
00000300: 0bc6 ab3c ae83 fabc af5b b73c b54c 01bd
00000310: d633 083d dd91 663c d2f0 a63c 6d58 1c3c
00000320: 4168 903c c005 3cbc b9be be3c cfbf 513c
00000330: 945d 973c 0a45 613c 80ec 9a3c 050d c43a
00000340: 65a4 b93c c5dd a0bc 82db dc3c 1d21 a9bc
00000350: 8f55 0e3d 3cb7 edbc d744 593d 26ce ab3b
00000360: 05e4 7e3c b402 2e01 1363 1d3c ffd8 e9bc
00000370: 1ed6 2f3c 1d81 05bd 31d6 503c 41e7 13bd
00000380: 4ec4 8c3c 7a64 11bd 3142 913c 76e8 13bd
00000390: a403 5e3c 66f6 13bd 7513 163d 39c3 3b3c
000003a0: 7962 0f3d 698e 063d fbca 3d3c 8117 d7bc
000003b0: 87d1 3d3c 978e b9bc a316 7b3c dea1 5a3c
000003c0: a646 2b3c 1aef 5d3c 2f80 803c 28be a7bc
000003d0: c1da 873c aa15 00bd b8a5 1d3d 32dc ff3c
000003e0: 6664 523d d8b9 263d 57b5 ae3d a42c 973d
000003f0: da8e 3bbc c218 3b02 42f9 0dbd a705 553d
0.017642014 -9.189214e-38 0.014521565 0.0022817464 0.015028836 -0.004502482 0.017923703 0.015888996
0.022381032 0.029146474 0.02164284 0.013067505 0.024729596 0.010801667 0.027065247 0.009495131
0.02631327 0.0037355814 0.016036553 -0.01913996 0.017823733 -0.00052992546 0.019273842 -0.004051749
0.018180994 -0.009239917 0.01813419 -0.01681058 0.021002451 0.006405312 0.02932158 0.0060819136
0.04077601 -0.030150171 0.06376604 -0.029215043 -0.019599818 1.1415975e-37 0.047207575 0.008122761
0.044976823 -0.0034406115 0.041797053 -0.015138282 0.046853233 -0.006813344 0.042865522 0.006884502
0.030419096 -0.0091497125 0.03450547 -0.014633169 0.042227414 -0.0023246156 0.03161391 -0.0031691268
0.016642245 0.0030995286 0.015861604 0.005148742 0.012568993 0.007894483 0.0075787087 0.0117888795
0.012480066 0.011470304 0.008690245 0.019048776 -0.011095125 0.046973184 -0.08517772 0.112589575
0.018089363 -6.6752825e-38 0.011430576 0.0010561651 0.009848747 -0.037864458 0.014540114 -0.0009130349
0.019393416 -0.0024200364 0.01662832 -0.028196346 0.010215915 -0.03913989 0.014317987 -0.04916991
0.020433586 -0.0043488787 0.0085544055 -0.0024610923 0.0108349705 -0.010629905 0.008853271 0.0045302208
0.0068299314 0.008997289 0.009374851 -0.0017546372 0.0074054147 -0.016472 0.0054378407 -0.023124028
0.019151852 -0.0573402 0.005496729 -0.08586313 -0.0024340663 2.6493902e-38 -0.004194286 -0.008540506
-0.0018118698 -0.017365467 -0.00041630797 -0.018098122 0.0029805896 -0.020819617 0.0098264245 0.013693489
0.003330233 -0.03178952 0.0013208551 -0.038187753 0.014102918 -0.034194745 -0.0017002936 -0.022067757
-0.0008067738 -0.016429756 0.0024836634 -0.017506668 -0.00022233462 0.011651433 0.0008654016 0.008567993
0.0034450039 -0.016951004 0.013260765 0.017497912 0.021346617 0.021977719 0.048340075 0.09038507
0.0066316286 -2.0943917e-37 0.003679322 0.008678954 0.00814006 0.02264375 0.008210674 0.027256027
0.010053811 0.02598802 0.018686974 0.025739128 0.02119816 0.026400648 0.01947431 -0.01191158
0.027785512 0.022330973 0.013891986 0.008962949 0.0093762465 -0.010354728 0.014161888 -0.0070414967
0.011236089 0.016971888 0.010556823 0.016061699 0.017678795 -0.010740168 0.027113045 0.024951072
0.036688168 0.033726986 0.06500194 0.07487067 0.016879791 -3.92935e-40 0.018776955 0.009332987
0.019108742 0.00910707 0.020812122 0.010110992 0.025572892 0.012551298 0.027368614 0.009950652
0.020968458 -0.030580368 0.022382585 -0.031567294 0.03325256 0.014072862 0.020378504 0.009542567
0.017627837 -0.01147598 0.023284303 0.012802078 0.018477239 0.01374937 0.0189116 0.0014957493
0.022661397 -0.019636998 0.026960138 -0.020645672 0.034749564 -0.029018037 0.053044166 0.0052430807
0.015557294 3.1960692e-38 0.009606141 -0.028545855 0.010732202 -0.032593835 0.01274638 -0.036109213
0.01718345 -0.035496213 0.017731758 -0.036110364 0.013550673 -0.036123656 0.03663965 0.011460119
0.03500602 0.032850657 0.011584039 -0.026256325 0.0115856 -0.022651 0.015325221 0.013344256
0.010453856 0.013545776 0.015686123 -0.020476416 0.016583802 -0.03127066 0.03848812 0.031232927
0.05136528 0.04070458 0.085306816 0.073815614 -0.011447633 1.3745695e-37 -0.03466154 0.052007344

convs.weight.2.tensor f4 [32, 32, 18, 2]
00000000: d430 8d3c 42d7 f401 c68c 653c 4626 193c
00000010: 2fe9 603c c2ca ca3c 1a04 573c 3693 e03c
00000020: cefe 8e3c 8e9e 093d a276 723c ba82 c63c
00000030: c9bc 993c 63db 883a 795c a73c 251d 09bc
00000040: b6c9 8d3c eebb a33c 4c46 823c 70ac 3e3b
00000050: 66ee 813c 7d29 53bb 2195 a13c f95e 183c
00000060: 0b99 873c 2523 fe3b b752 953c dc79 d03b
00000070: 26bb 8f3c 35f2 20bc 94c2 9d3c f57e 3abc
00000080: c422 cc3c 9e95 b8bc 0a64 273d d899 c1bc
00000090: 55bc fcbb 085d c501 49b3 c9bd 9671 a8bc
000000a0: 4b57 febd a2e3 45bd c9f2 10be c92d a8bc
000000b0: 4d9c 1fbe 1650 c2bc 80d8 1dbe 00c8 50bd
000000c0: 5950 24be a0e3 793d f28f 27be 222c 8a3d
000000d0: 355c 1ebe 567b b6bc f7e5 08be 5704 5ebc
000000e0: 75fb d4bd a87d 6ebc 79c3 dabd 7948 1ebd
000000f0: abd5 93bd 1c55 8fbd 6b7f f8bc ba86 cebd
00000100: 041d 92bd b3a0 e8bd d0b5 8abd 8ab2 14be
00000110: f10d 083d 6dd2 4bbe aea4 ad3d 2d9d 6bbe
00000120: d83e 963c acfa 1981 3883 063c 3d27 be3b
00000130: 83f8 cd3b ebdb d0bb e1cc dc3b 5400 fd3a
00000140: 0fbe e83b 3c9e 9039 28a7 053c 6f14 50bc
00000150: 6a52 b63b 56cc d2bc 913f e03b 8206 11bd
00000160: a888 eb3b d4f0 9738 fe42 123c 6f73 583b
00000170: faac 003c a2cc 0bbc 338c e53b 1876 fc3b
00000180: ad44 953b 3c2b 2e3c 7b2b 003c 7f5c 833b
00000190: cdb6 8c3b afb4 4abc c4c6 90ba ac3c 68bc
000001a0: a0ee d43b 7a79 17bd 84bf 64bc 9ddc 76bd
000001b0: 47fc 78bb 0420 4c81 fc88 c8bb 4041 173b
000001c0: cd3f abbb 6c79 08bc 8a94 bcbb ad75 c9ba
000001d0: 0108 b7bb 88e9 08bc 6bec 39bb 060a d33b
000001e0: 49c5 a5bb 45f8 a2bc b2cf f0bb 1cdb 92bc
000001f0: 3b12 93b9 48cf dbbc 6a22 42bb 0ee6 a5bc
00000200: 0d83 81bb 3b71 7fbc 45c9 1dba baa4 88bc
00000210: 962d 69bb 04f2 d33b c8fe 34bb 79a4 413b
00000220: 500e a5bb 9039 3dbc 3b57 62bb 13fe 783c
00000230: 8c71 74bb 6b86 953c 845d 783c f5be 843d
00000240: 4eb7 af3b 6652 ae81 b75d 123b 80b7 983c
00000250: 935b a93b 5ac9 d13c 7456 d33b bf3e 233d
00000260: a392 013c 9fe0 5d3d 53f5 343c 020f d63c
00000270: f412 733c 73e7 f93c 722b 773c 8f6f 353a
00000280: d8ad 7e3c 9495 a83c 93c9 523c ceee f43b
00000290: fb64 1c3c b98d 02bc e25f 443c 0cb4 60bb
000002a0: 8ae7 443c 4796 883c f585 303c 6f64 743c
000002b0: fcb1 613c b308 06bc 3157 933c 1cd3 bc3c
000002c0: a8f0 a13c 4b38 fb3c d611 2c3d b14d 753d
000002d0: 32ae 973c 3c27 a881 5d9f 993c 4e96 293c
000002e0: a006 923c 4725 023c fefa 813c 94dd 083c
000002f0: 6409 8d3c 2ec8 163c 8192 9e3c b36a 1c3c
00000300: 2e19 883c 0375 b2bc 7257 933c 9f91 ccbc
00000310: debe ae3c 60f9 3d3c 251e 983c 2538 113c
00000320: cfd1 9b3c 7062 f4bb 5dd0 aa3c c943 453c
00000330: 3312 943c 2454 4f3c c558 953c 241b d13b
00000340: 080e 923c ab17 88bc 7dca 8b3c 8a59 88bc
00000350: bd43 a73c fc9c acbc 5e2e cf3c b312 08bc
00000360: ec3c 713c 36d9 ba01 a7ff 043c 8b27 e2bc
00000370: 57ce be3b 1d36 e8bc 4c45 e03b e462 e7bc
00000380: e809 ce3b 1830 cdbc 14f7 033c 1288 d2bc
00000390: 0867 c33b db9d e0bc 6bee a83c 12dc 3c3b
000003a0: 26d0 703c 5777 b93c 835f f03b f7f1 c3bc
000003b0: a5f9 183c aa2c bcbc 9020 2e3c 4f70 1d3c
000003c0: 2875 d53b 136f 1c3c 5764 463c e18a bcbc
000003d0: 58c3 f13b fcba d9bc ae55 a63c 800f b13c
000003e0: 3202 c43c ae1b b03c 1132 913d 5589 093d
000003f0: 9f04 0dbc 0c1e 5c81 8729 11bd 5869 45bc
0.017235197 8.9940324e-38 0.014010614 0.009347504 0.01372747 0.024754886 0.0131235365 0.027413946
0.017455485 0.033598475 0.014798792 0.024232257 0.018766778 0.0010441359 0.020429837 -0.008368765
0.017308097 0.019987073 0.01590266 0.002909448 0.015860748 -0.0032220774 0.01972443 0.009299987
0.016552469 0.0077556544 0.018227918 0.006362183 0.017545294 -0.009823372 0.019257821 -0.011382808
0.024918921 -0.02253228 0.04086689 -0.023632929 -0.0077128806 7.2499864e-38 -0.09848649 -0.020561974
-0.124189936 -0.04831279 -0.14155115 -0.020529645 -0.15586968 -0.023719829 -0.1541462 -0.050971985
-0.16046275 0.061008096 -0.16363505 0.06746699 -0.15464862 -0.022275608 -0.13368975 -0.013550839
-0.10399524 -0.014556326 -0.10681815 -0.038643334 -0.07218488 -0.06998655 -0.030334195 -0.10084291
-0.071344405 -0.11358776 -0.06772959 -0.14521232 0.03321642 -0.1990449 0.08478676 -0.23009177
0.018340513 -2.828151e-38 0.008209996 0.0058030174 0.0062857284 -0.0063738725 0.0067382907 0.0019302466
0.007102735 0.00027583714 0.008157529 -0.012700184 0.0055640237 -0.0257322 0.006843515 -0.035406597
0.0071879216 7.245099e-05 0.008927105 0.0033027788 0.007853741 -0.008532675 0.0070052384 0.0077045076
0.004555306 0.010630425 0.007822867 0.004008829 0.0042942525 -0.01237218 -0.0011045565 -0.014174622
0.006498173 -0.036981083 -0.0139616765 -0.060268987 -0.0037992166 -3.7491853e-38 -0.0061198454 0.0023079664
-0.0052261115 -0.0083297305 -0.005755012 -0.0015370153 -0.005585671 -0.008356459 -0.0028369676 0.006440404
-0.0050589186 -0.019893775 -0.007348978 -0.017926745 -0.00028051608 -0.026832238 -0.0029622563 -0.0202513
-0.00395239 -0.015590961 -0.0006019066 -0.01668011 -0.003558015 0.0064680595 -0.0027617682 0.0029547496
-0.0050371066 -0.0115493685 -0.0034536857 0.015197295 -0.0037299125 0.018252572 0.015159015 0.06481735
0.005362428 -6.403574e-38 0.002233369 0.018642187 0.005168387 0.025608707 0.006449515 0.03985476
0.007908496 0.054169293 0.011044818 0.026130203 0.014836062 0.030505871 0.015086042 0.00069212256
0.015544377 0.020579137 0.012865442 0.007474757 0.00954556 -0.00796836 0.011985751 -0.0034287004
0.012018094 0.01667322 0.010774125 0.014916523 0.013775345 -0.008180785 0.017985912 0.023049884
0.019768074 0.030666491 0.042009197 0.059888545 0.01851568 -6.176975e-38 0.018752748 0.010350777
0.017825425 0.007943458 0.015866753 0.00835361 0.017216392 0.009203 0.019356968 0.009546923
0.01661357 -0.021784311 0.017986033 -0.024971781 0.021331247 0.0115951 0.018569062 0.008863484
0.019020943 -0.0074580237 0.020851308 0.012040087 0.018075084 0.012654338 0.018230805 0.0063814092
0.017828956 -0.016612848 0.017064327 -0.016644258 0.020418042 -0.02107095 0.025290664 -0.0083052395
0.014723998 6.863729e-38 0.008117593 -0.027606746 0.0058229375 -0.028346116 0.0068441983 -0.028245397
0.006287802 -0.025047347 0.0080545135 -0.025699649 0.00596321 -0.027419021 0.020621499 0.0028817696
0.014698064 0.022639913 0.0073356046 -0.023919089 0.009336864 -0.022970516 0.010627881 0.009609296
0.0065142103 0.0095479665 0.012108884 -0.023015441 0.007378023 -0.026578419 0.020304527 0.021613836
0.023926828 0.021497574 0.070896275 0.033578236 -0.008607059 -4.0429176e-38 -0.035439994 -0.012049042

convs.weight.3.tensor f4 [32, 32, 18, 2]
00000000: 09db 8a3c 9800 8d80 76e2 803c 42b0 723c
00000010: 250a 8d3c a14f b33c 34b4 5a3c ce22 e83c
00000020: 1050 333c edf7 033d 5e3f 113c ba5f da3c
00000030: dbcd 353c 5b48 cc3b e83e 173c 478d 523b
00000040: 3dda 9b3b f9cd bb3c 2736 723c d700 263c
00000050: 0e47 6c3c a0a9 973b 264f 663c d095 313c
00000060: 3088 763c 5de0 333c 9ae7 803c dfd2 333c
00000070: 7504 5d3c f1ef 35bc 4fe7 173c 42d1 e7bb
00000080: 421f 0c3c 12d3 47bb 7aa5 503c 5156 94bb
00000090: e255 86bc 42b7 7c02 ff1f 00bc 1848 d6bc
000000a0: e4bc 29bc 969d f7bc 8349 08bc 6e8f 04bd
000000b0: 6773 ddbb bad5 1bbd d3ec bbbb df5d 02bd
000000c0: a460 2cbc 2bc1 8cbc 1834 1fbc da4e 91bc
000000d0: e77a 80bb 6837 ecbc c2f3 73bc a076 62bc
000000e0: fb0e 54bc af46 27bc 804d 60bc ac77 76bc
000000f0: a6c6 6dbc 7361 79bc 7265 6bbc 1079 71bc
00000100: 26d9 85bc efa7 113b 2812 4bbc 9634 84bb
00000110: 5c97 30bc 94c7 5bbc 816d 54bc 3595 7fbc
00000120: a7b4 983c c04e da81 8cc8 6c3c 66b8 003c
00000130: fe8e 433c deb1 04bc dc9b eb3b 747b 8fbb
00000140: 20c0 1a39 1c0b 27bc 6d3a 473a 70a1 07ba
00000150: 8849 91bb 7f19 8bbc 89c7 d2bb f1ad 97bc
00000160: 9879 0cbc 942d 31ba 1b56 803b d2f0 173b
00000170: 6233 893b e267 09bc 206e b5b9 d418 2f3b
00000180: c3cf 66ba 8f97 913a 9541 023b 11b9 e2ba
00000190: f9b4 a0bb c80a 6abc 9fc2 53bc 77e8 81bc
000001a0: 52e4 71bc 8c74 d4bc 9982 11bd 7165 33bd
000001b0: 1ebe 91bb 8ebd 1102 c768 b6bb 0253 8d3c
000001c0: 5387 0ebb d3d5 e13b ddce c5bb 901b dc3b
000001d0: d0af 31bc 505c 813b 1819 42bc 7713 6fba
000001e0: 8458 4cbc 2d97 203c d949 70bc 2506 173c
000001f0: be24 91bc 1c4d 9bbb 3cdd c3bb d080 f4bb
00000200: bc5c f7bb 3aba 7aba e51a 0dbc a34c c5bb
00000210: 34a2 0cbc 5665 f5bb 2f80 cabb d705 26bc
00000220: 01e0 60bc 29d4 e73a 62a3 99bc 3e33 8d3a
00000230: abc1 b3bc be85 7bbb 5cb5 a7bc 55e3 f4bb
00000240: 465e 563b 39ce 1c02 0c3d 193b e94a c43c
00000250: 0542 d73b 5783 d53c da6f 943b 7eb5 103d
00000260: 3c91 a83b 12ad 353d 9d33 803b 0f0d 003d
00000270: 0d5b 193c 9137 b53c 3704 f73b e3fd cc3c
00000280: 4748 183b 9d65 d93c 14a9 1a3c 6aba e73b
00000290: 0568 fe3b aefe 403c e767 0b3c 9e05 1f3c
000002a0: 75fb 0c3c 5542 163c d891 1b3c 78b8 093c
000002b0: 50d4 233c 31cc 113b cb62 df3b 7631 073c
000002c0: c65d d33b cc7a 8d3c 0dd8 9c3c cdc8 a73c
000002d0: 889b a23c e8f6 8b02 14c0 a73c 1def 213c
000002e0: 48e2 923c 137d cb3b 6344 793c 3a0c 033c
000002f0: 31b6 503c 39d4 073c e5e5 493c 9be3 4f3c
00000300: a702 513c ba50 27bc b90f 3a3c 4d09 5fbc
00000310: b0f4 083c f0bf 5e3c cecf 933c 71a7 203c
00000320: 7d29 7b3c 50f6 af3b 3d73 8a3c a841 263c
00000330: 4c95 653c eff7 293c 4d1b 6e3c b054 263c
00000340: b749 3d3c 28fc 2fbc 3814 e93b aa1c 21bc
00000350: c52d 783b f2bd 0dbc c014 3bbb afb1 32bc
00000360: 0f8f 383c f49e c601 f8a9 663c 1371 f3bc
00000370: 001b 5c3c bcf1 aebc 4b81 9d3b 87d1 bdbb
00000380: 3ae9 84bb 68f2 08bb c726 bcbb f815 163c
00000390: c055 d4bb f016 943c 8109 25bc 3379 bb3b
000003a0: 98a4 89bc 1d1f ee3a d1f5 67bb 703a 11bc
000003b0: fc36 8eba f04b 59bc 91a7 b0bb 5639 0dbc
000003c0: fe80 c8bb 1562 59bc db70 f2ba 2ab7 61bc
000003d0: 4267 17bc 17a4 19bc 4a4a 73bc af2d 18bc
000003e0: fd23 1cbc 11e6 dfbc 98d3 ad3b d5a3 24bd
000003f0: 8128 99bc f340 0602 46c2 f7bc d68e c33a
0.016950147 -1.2949018e-38 0.015732985 0.014812531 0.017216751 0.021888556 0.013348628 0.028336909
0.010944381 0.032218862 0.008865206 0.026656974 0.011096443 0.0062342114 0.009231307 0.0032127665
0.0047562406 0.022925364 0.014783419 0.010132036 0.014421238 0.004628375 0.014056956 0.010838941
0.015047118 0.010978785 0.015735436 0.010975569 0.013489832 -0.01110457 0.009271457 -0.007074506
0.008552374 -0.0030490798 0.012734765 -0.0045268913 -0.016398374 1.8566628e-37 -0.007820128 -0.026157424
-0.010359976 -0.03022651 -0.008318308 -0.032363348 -0.006758142 -0.038045622 -0.0057350188 -0.031827804
-0.010521088 -0.017181953 -0.00971701 -0.017737795 -0.003920901 -0.028835014 -0.014889659 -0.013822228
-0.012943025 -0.010209723 -0.013690352 -0.01504318 -0.0145126935 -0.015220988 -0.014367448 -0.014738336
-0.016338896 0.002222534 -0.0123944655 -0.004034589 -0.010778274 -0.013414282 -0.012965561 -0.015599539
0.01864083 -8.0193553e-38 0.014452111 0.007856464 0.011935947 -0.0080990475 0.0071902107 -0.0043787304
0.00014758157 -0.01019552 0.00075999537 -0.00051738974 -0.0044338144 -0.01697993 -0.006432478 -0.018515559
-0.008573912 -0.0006758806 0.0039165146 0.0023184312 0.0041870335 -0.008386584 -0.0003460506 0.002671768
-0.00088047626 0.001110779 0.0019875516 -0.0017297586 -0.004904386 -0.014284797 -0.012924819 -0.015857918
-0.014763908 -0.02593448 -0.03552494 -0.043797914 -0.0044477126 1.0707317e-37 -0.0055666897 0.017251495
-0.002174814 0.006891945 -0.006036623 0.006717153 -0.01084514 0.003947772 -0.011846803 -0.0009120027
-0.012472276 0.009801668 -0.014666044 0.009217774 -0.017717715 -0.0047394168 -0.005977301 -0.0074616447
-0.0075488966 -0.0009564493 -0.008612369 -0.0060210987 -0.008583594 -0.007488887 -0.0061798315 -0.010133228
-0.013725282 0.001768713 -0.018754665 0.0010772718 -0.021942934 -0.0038379277 -0.020472221 -0.007473389
0.003271 1.1520253e-37 0.0023382334 0.023961501 0.0065691494 0.026063604 0.0045299353 0.035329334
0.0051442664 0.044354506 0.003912403 0.031262454 0.009360087 0.022121223 0.0075383442 0.025023406
0.002323644 0.02653771 0.009439725 0.007071783 0.007763865 0.01177947 0.008508659 0.009705929
0.008604874 0.009171088 0.009495221 0.008405797 0.00999935 0.0022246952 0.006817197 0.0082515385
0.0064503876 0.017270468 0.01914599 0.020481491 0.019849554 2.0565932e-37 0.020477332 0.009883669
0.017930165 0.0062099784 0.015214059 0.0079985205 0.01273875 0.008290344 0.0123228775 0.012688543
0.01275698 -0.010212118 0.011356288 -0.013613057 0.008359119 0.013595566 0.018043425 0.009805546
0.015329716 0.005369939 0.016900653 0.01014749 0.014012646 0.010374053 0.014532876 0.010152027
0.0115532195 -0.010741271 0.007113006 -0.009833494 0.0037869078 -0.0086512435 -0.0028546304 -0.010906621
0.011264577 7.29618e-38 0.01407861 -0.029717004 0.013434172 -0.021355502 0.0048066727 -0.0057928
-0.004056123 -0.0020896439 -0.0057419273 0.009160511 -0.0064799488 0.018077344 -0.010073067 0.005721235
-0.016802117 0.0018167231 -0.003539432 -0.00886403 -0.0010850127 -0.013262734 -0.005391069 -0.008619627
-0.0061188927 -0.0132680135 -0.0018496768 -0.01377658 -0.009240927 -0.009377501 -0.014849255 -0.009288236
-0.009530065 -0.027331384 0.005304765 -0.040195305 -0.018696072 9.863405e-38 -0.030244004 0.0014919888

fno_skips.0.weight f4 [1, 32, 1]
00000000: 7659 823f c2e0 7a3f 1686 183f 43d1 7f3f
00000010: d700 813f 8161 823f 70fc 813f 9789 0e3f
00000020: 9b87 0c3f f2ff 7f3f effb 803f bb6a 693f
00000030: c1f4 7a3f 2f8a 0c3f 6226 823f e171 7d3f
00000040: 0774 6e3f 36ed 823f 829d 1c3f 2028 823f
00000050: 22d5 6d3f f316 7f3f 4bba 803f b6d1 7c3f
00000060: 010f 7b3f 367d 4b3f 353c 173f 1d57 6e3f
00000070: 21aa 7b3f 092e 7b3f b2ec 1e3f b0e8 803f
1.0183551 0.97999203 0.595796 0.99928683 1.0078381 1.0186006 1.0155163 0.55678695
0.5489442 0.99999917 1.0076884 0.9117848 0.98029715 0.5489835 1.0167964 0.9900189
0.93145794 1.0228641 0.6117784 1.0168495 0.9290334 0.9964439 1.0056852 0.98757493
0.9806977 0.7948793 0.59076244 0.93101674 0.9830647 0.9811712 0.6207992 1.007101

fno_skips.1.weight f4 [1, 32, 1]
00000000: aa50 823f 0815 813f 2985 0c3f 595b 7f3f
00000010: 91d3 803f b65a 823f dbf2 813f 738c 0c3f
00000020: 518a 0c3f 0afa 7e3f 63fa 763f ba87 0c3f
00000030: 6f2d 7b3f 5b8a 0c3f b63d 823f 361d 803f
00000040: a95f 753f e442 823f 998f 0c3f e327 823f
00000050: ab2f 743f 790d 803f 0a81 803f beac 7c3f
00000060: 6aea 793f 2c27 0f3f b691 0c3f 9601 7a3f
00000070: 541b 813f b2f2 7f3f 5598 0c3f fac1 803f
1.0180867 1.0084543 0.54890686 0.9974876 1.0064565 1.0183933 1.0152239 0.5490181
0.54898554 0.9960028 0.9647581 0.548946 0.981162 0.54898614 1.0175083 1.0008914
0.9584909 1.0176663 0.5490661 1.0168422 0.95385236 1.0004112 1.003938 0.98701084
0.9762331 0.55919147 0.5490984 0.9765867 1.0086465 0.999797 0.5491994 1.0059197

fno_skips.2.weight f4 [1, 32, 1]
00000000: 1b50 823f adae 803f 0113 823f be06 7f3f
00000010: 56b2 803f f15c 823f e2eb 813f d41b 813f
00000020: 2c66 803f 09d6 7d3f 7c54 813f ee78 7e3f
00000030: 4ac8 803f 1aef 803f f642 823f 04b0 803f
00000040: e0ed 813f f83f 823f bf1e 803f da26 823f
00000050: 5ae3 813f 9e8b 803f 4658 803f 6600 7d3f
00000060: ff74 813f 52e3 813f 82bf 803f d528 823f
00000070: 1f23 7f3f 8e67 803f 4d30 813f 0ca4 803f
1.0180696 1.0053307 1.016205 0.9961966 1.0054424 1.0184613 1.0150111 1.0086617
1.003118 0.99154717 1.0103908 0.99403274 1.0061123 1.0072968 1.0176685 1.0053716
1.0150719 1.0175772 1.0009383 1.0168107 1.0147507 1.0042608 1.0026939 0.9882873
1.0113829 1.0147498 1.0058444 1.0168711 0.99662966 1.0031602 1.0092865 1.0050063

fno_skips.3.weight f4 [1, 32, 1]
00000000: 134d 823f 8af7 813f f21b 823f a79a 7e3f
00000010: 777c 803f 585f 823f f393 813f 3109 823f
00000020: 6dd2 813f 2447 7d3f 12a9 813f 43ac 7e3f
00000030: 499e 813f d422 823f 1447 823f 268c 813f
00000040: 62f1 813f 2544 823f 05cc 813f f41e 823f
00000050: 98d3 813f 198b 813f 090c 803f f318 7d3f
00000060: 18f5 7e3f a020 823f 0ca8 813f 190c 823f
00000070: f44e 7f3f 55c8 813f 25ef 813f 3c71 803f
1.0179771 1.0153668 1.0164778 0.9945473 1.0037984 1.0185347 1.0123276 1.0159055
1.0142342 0.98936677 1.0129721 0.994816 1.012643 1.0166879 1.0177941 1.0120895
1.0151789 1.0177046 1.0140387 1.0165696 1.0142698 1.0120574 1.0003673 0.98866194
0.99592733 1.0166206 1.0129409 1.0159942 0.9972985 1.0139261 1.0151106 1.0034556

lifting.fc.weight f4 [32, 1, 1]
00000000: a90a 263f 1a80 70be ee98 3fbf 87e6 133f
00000010: 7cdf de3e 92ac c93e 8412 073d 5282 54bf
00000020: a6f6 76bf f2df 8f3e 598c 7cbe d325 35bf
00000030: c870 a9be 7fcc 74bf 45be 013d 4bce 07be
00000040: 7151 d5be 4af0 d13d c6d1 4abf b512 623f
00000050: 309c b9be 8d46 a43c 9e4d db3e 3df0 633e
00000060: 1de1 ccbe 7f0a cfbe f809 29bf 6d86 0cbf
00000070: 9eb9 9fbe 83b2 a1be 5583 4dbf 2012 e93e
0.64860016 -0.23486367 -0.7484273 0.5777363 0.4352988 0.39389473 0.032976642 -0.83011353
-0.96470106 0.28100544 -0.24662913 -0.7076084 -0.33093858 -0.95624536 0.031675596 -0.13262288
-0.41663697 0.102509096 -0.7922634 0.88309795 -0.36251974 0.020053172 0.42832655 0.22259612
-0.40015498 -0.40437695 -0.66030836 -0.5489262 -0.31196302 -0.31581506 -0.8027852 0.4552164

lifting.fc.bias f4 [32]
00000000: 3356 67bf 9ae2 44bf 4a9f 91be 0b33 4bbf
00000010: 7b28 bdbe 9b6e 04be bfa0 0d3e bb85 5ebe
00000020: fb14 643b 0ea8 3b3f c411 2d3f bd20 633f
00000030: ce7b 403e 261a 6bbf d0db e13e b473 b3bd
00000040: ce13 b7be f277 31bf 4015 233f 09a8 0c3f
00000050: 461f 09bf 9362 853d abe4 0fbf e98f 103f
00000060: bf07 263f b8db 36be 2ea3 19bf 2d42 c23e
00000070: 1cb4 463e 415f ed3d 8c39 723f ec14 603e
-0.90365905 -0.76908267 -0.2844184 -0.7937476 -0.36944947 -0.12932818 0.13830851 -0.21730702
0.0034802544 0.73303306 0.67605233 0.8872183 0.18797228 -0.91836774 0.44113016 -0.08762303
-0.35757297 -0.6932365 0.637043 0.549439 -0.53563344 0.06512942 -0.56208295 0.5646959
0.6485557 -0.17857254 -0.6001462 0.37941113 0.19404644 0.11590434 0.9461906 0.21882981

projection.fc1.weight f4 [64, 32, 1]
00000000: b575 3a3c 7c28 1dbd 244a a3bd e02f 38bd
00000010: 7dd6 0fbc b93a 3d3e 4c44 14be 289d 15be
00000020: f052 e3bd 9f3b 90bd 5596 de3d 0ea0 923d
00000030: c3e5 323c b464 3bbc 896b 3cbd 2948 09be
00000040: bc9a 163d c7d6 82bc 5279 773d ad4a 12be
00000050: 4780 a5bd d4be 02be 3e14 8b3d 7826 233e
00000060: cb16 0bbe 5a89 233e ee7d e6bd 3c12 2b3e
00000070: 0647 713d bd5c e2bd 0e16 2abe c7e4 dcbd
00000080: e227 f33d 72ab ce3d 825b 6d3d d43b 243d
00000090: 358e e33d 5e4c f2bd fdbc 7b3d a1e0 ccbd
000000a0: a3e3 9e3d e642 63bd cd08 28be fde6 1cbe
000000b0: 6424 2c3d df93 37be 0efc 27be 4851 b2bd
000000c0: 0918 93bd 6035 10be 0356 7dbd 40e1 5fbd
000000d0: fa67 cdbd 2d73 c13d 7597 30bb f68c 703d
000000e0: bef3 1d3e 1718 823d b73d 03be 3fed 9e3d
000000f0: a4e9 8d3d 9076 44bd 1dd3 a13d 5393 97bb
00000100: 8b39 fbbd 1318 f1bd f5db 243d 777d b03d
00000110: 7343 03be 889c c83d 39f8 61bd c0d3 2d3e
00000120: b598 c23d 4a65 16be a57e 5e3b 5f0e d33d
00000130: 9a83 0ebe 5fa4 1b3e 0999 873d 5de1 0e3e
00000140: c7e8 18bd 15cf f43d da77 ea3d cb1b 28bd
00000150: a264 913d 0c2c 9c3d d51e d23d cfe5 cdbd
00000160: 1588 aa3c 5acd e43d 4c8b aa3d 97f2 8dbd
00000170: 1864 ad3d 552a 1f3e de9a 043e 4a9a 3c3d
00000180: ec9c de3d 3e3c 8cbd 1fc2 9ebd 4456 ae3b
00000190: 193a 593d c7ed a1bd ad52 3b3d a668 313e
000001a0: 914f 6ebd e450 69bd c6f9 6cbd 10f9 18bc
000001b0: 7a8a c1ba 6442 363e 801c febd ef7f 143d
000001c0: b01b b33d b11d 36be 9370 80bd 0d5b fa3d
000001d0: b18e 36bd 0be0 a43d fb05 b1bd 234d 273d
000001e0: 7f3b b2bd 8ecc e7bd 013e 2d3d 8f03 24be
000001f0: 4452 1bbe b7e9 523c a035 cb3c 3960 d63d
00000200: 5254 9a3d 5be1 f83d bae1 9f3d 9758 1ebc
00000210: 598e efbd 01c1 363d 91b0 94bc 86d6 143e
00000220: f06d 173e 9c58 abbd 1902 953d dca1 a03d
00000230: e8fb c23d fb49 c13d f2d5 033e 8da8 293e
00000240: 1bb1 1f3e f8da bcbd 2160 85bd e074 f9bd
00000250: b65f 04be 33ff 6e3d cc72 fcbd c470 12be
00000260: 0caa 1a3e 51dc a83d 448e c83d ea14 9ebc
00000270: 76e6 2abd face 96bb 36b4 15be c4bc ff3d
00000280: dff0 0c3e b63f 2bbc fc13 1bbe 1cc8 36bd
00000290: 1d37 a4bd 1d1e 20be 5d37 0fbd 6594 08bd
000002a0: 46b7 34bd 479d 173b 049f 20bd 7082 3a3c
000002b0: 2d97 ed3d 0e8c 08be c965 343d 3be9 d4bd
000002c0: 558b bd3c 4737 283e 350e e43d 4526 093e
000002d0: a300 79bb e3c1 3abe 89ce 153e 3d3c f83c
000002e0: f615 a1bd e6ff c6bc 7fd9 0bbd 1a22 563d
000002f0: 53a9 d73d d025 70bb 7b4b b2bd 95a0 1f3e
00000300: 8d58 873d ab68 c6bd 7fd6 673c 3f13 173d
00000310: 500f 413e 6d73 8e3d 6aa1 ff3d 2f6a 03bd
00000320: e1be 7bbd d7f9 1e3e 54f4 13bc 251c 05be
00000330: b224 2b3d 51e6 d2bb 11a0 073e 97ae 073e
00000340: 4a81 9c3d 6b14 f23c 6d71 f93d a22e 923d
00000350: 76e5 b63d fe77 10be ea48 f8bd b02d 98bc
00000360: 050d e4bd 4a94 43bd 49ce d5bc 3644 603c
00000370: f0d3 8ebd 4778 b5bd 1ed7 2ebe 827d edbd
00000380: e8df 25bd 0ff7 393c bbe5 123e 0561 9c3d
00000390: 17d0 ec3a d69d debd 142f a1bd 6815 b83d
000003a0: c347 f7bd 718b 093e d0aa 0abe 490c 8abd
000003b0: 8dba eb3d 4958 15be c906 b5bd 5f94 6e3d
000003c0: 5633 35be 3648 e1bd 3eaf 20be c8bc 33be
000003d0: 2360 d33d 2e7e b9bd bb71 f83d e74d 18bc
000003e0: d36c 3bbe 2e9e dfbd 0131 80bd 2673 cd3d
000003f0: 8743 f63c 1edb 4d3d 4e52 a7bd fa1d 06be
0.011380603 -0.038368687 -0.079731256 -0.044967532 -0.008779165 0.18479432 -0.14479178 -0.14610732
-0.110998034 -0.07042622 0.10868517 0.07159434 0.010919037 -0.011437584 -0.04600099 -0.13406433
0.03676866 -0.015971554 0.060418434 -0.14286299 -0.080811076 -0.12768108 0.0679097 0.15932643
-0.13582914 0.15970364 -0.11254488 0.16706175 0.058905624 -0.11052845 -0.16609976 -0.10785823
0.118728414 0.10091294 0.057948597 0.04009612 0.11111108 -0.11830972 0.06145953 -0.10003782
0.07758262 -0.05548372 -0.16409607 -0.1532249 0.042026892 -0.17927502 -0.16404745 -0.087069094
-0.07182319 -0.14082861 -0.061849605 -0.054658175 -0.100295976 0.09445796 -0.0026945744 0.05872818
0.15425012 0.06352251 -0.12816511 0.07760095 0.06929329 -0.047964633 0.07901595 -0.0046257167
-0.12266835 -0.1177217 0.04024883 0.086176805 -0.12818699 0.09795481 -0.055168364 0.16975307
0.09501783 -0.14687076 0.0033949998 0.103054754 -0.1391739 0.15199421 0.06620986 0.13953157
-0.03733137 0.1195356 0.11448641 -0.04104213 0.07099272 0.07625589 0.10259787 -0.10053598
0.020816842 0.1117198 0.0832735 -0.06931036 0.08466357 0.15543492 0.12949702 0.04604558
0.10869774 -0.06847428 -0.077518694 0.0053203423 0.053033922 -0.079066806 0.045733143 0.17325076
-0.05818135 -0.05696191 -0.05785539 -0.009336725 -0.0014766001 0.17798764 -0.1240778 0.03625482
0.08745515 -0.17784764 -0.06271472 0.12224398 -0.044569675 0.08050545 -0.08643719 0.040845048
-0.08702754 -0.113183126 0.04229546 -0.16016982 -0.151681 0.012873105 0.024805844 0.10467572
0.07535614 0.12152358 0.07806726 -0.009664676 -0.116970725 0.044617657 -0.0181506 0.14534959
0.14788032 -0.0836651 0.07275791 0.07843372 0.095207036 0.09437939 0.12874582 0.16568203
0.15594904 -0.092214525 -0.06512476 -0.12180495 -0.12927136 0.058348846 -0.12326583 -0.14300829
0.1510393 0.08245147 0.0979276 -0.019297082 -0.04172369 -0.0046023102 -0.14619526 0.12487176
0.1376376 -0.010452202 -0.15144342 -0.044624433 -0.080183245 -0.15636487 -0.034964908 -0.033344645
-0.044120096 0.0023134516 -0.03921415 0.011383638 0.116011 -0.13334677 0.044042382 -0.10396048
0.023137728 0.16427337 0.11135522 0.13393505 -0.0037994764 -0.18238024 0.14629568 0.030302161
-0.07865517 -0.024291944 -0.034142967 0.052278616 0.10530343 -0.0036643632 -0.08705803 0.15588601
0.066086866 -0.096879326 0.014150261 0.03688359 0.18853498 0.069556095 0.12481959 -0.032083686
-0.061461333 0.15524994 -0.00903042 -0.12999018 0.041783042 -0.0064361473 0.13244654 0.13250194
0.076418474 0.029550752 0.121798374 0.07137801 0.08930485 -0.14108273 -0.12123282 -0.018576473
-0.11135296 -0.04774884 -0.026099341 0.013688138 -0.069740176 -0.08860832 -0.17074248 -0.11596204
-0.040496737 0.011350407 0.14345448 0.076356925 0.0018067387 -0.108699486 -0.078703076 0.08988458
-0.12074234 0.13432099 -0.13541722 -0.067406245 0.11510191 -0.1458446 -0.08839185 0.058246966
-0.17695364 -0.11000101 -0.1569185 -0.17552483 0.10321071 -0.0905727 0.12131067 -0.009295917
-0.18303232 -0.10918842 -0.06259347 0.100317284 0.030061496 0.050257795 -0.08169995 -0.13097373

projection.fc1.bias f4 [64]
00000000: e627 08be 9c06 debd ed1c f0bc b8be 553d
00000010: abc0 c2bc 4f15 0ebc e099 2d3d 9309 cb3d
00000020: c98a 553d de7f 183e c81a 893d 1b27 9f3d
00000030: 8214 23be 3748 c3bb 238b 3d3e 6722 91bd
00000040: ea27 933d cb56 103e 5d3e 1d3e 5d9e 373e
00000050: 98c5 0bbc 1c5a 233e 288b 483d d8a8 033d
00000060: fa15 40bc 6f37 2c3d 236f 033d 6570 0c3e
00000070: f4a7 1a3e 9010 46bd 70d7 13be 7849 183d
00000080: 7fec 8e3b c407 a83c ae91 b73d 084b 27be
00000090: 086c 123e 60c5 aabb b2cc c5bd bbbd 0d3e
000000a0: 0380 53bb 9980 f4bd 3e42 edbd 0de1 113e
000000b0: f1d3 f73d eeac 51bd ac44 983b 9a22 803c
000000c0: 7a38 25be 0bd3 b6bd 8f6a 34be ad8a ad3d
000000d0: 9c6c babd 4c30 07be 9a07 183d 7363 223d
000000e0: 66e1 a9bb 38c4 3d3e 0b5e ab39 0ec1 fabd
000000f0: 9915 17be fad0 053d 8c2b 1c3e d474 2abd
-0.1329647 -0.108411044 -0.029310668 0.052183837 -0.023773512 -0.008672073 0.042383075 0.099139355
0.05213431 0.14892527 0.06694561 0.07771131 -0.15925792 -0.0059595364 0.18510108 -0.0708664
0.071853474 0.14095609 0.15355821 0.17931505 -0.008530997 0.15952343 0.048960835 0.032143444
-0.01172399 0.042045053 0.03208841 0.1371475 0.15103132 -0.04835564 -0.14437652 0.03717944
0.0043616886 0.020511515 0.08963333 -0.16337216 0.14299023 -0.005211517 -0.09658183 0.13841908
-0.0032272346 -0.119385906 -0.115849 0.14246006 0.121009715 -0.05119031 0.004646858 0.0156415
-0.16134825 -0.08926972 -0.17618774 0.08473716 -0.09102747 -0.13202018 0.037116624 0.039645623
-0.0051843403 0.18531883 0.0003268573 -0.122438535 -0.14754333 0.03267 0.15250987 -0.041615322

projection.fc2.weight f4 [1, 64, 1]
00000000: b34e bfbd 60f5 cc3d 45f7 e8bd 0ff5 b7bd
00000010: c35e 133d 5938 8c3d 8007 d63d 25d0 e23c
00000020: bcda dd3b 10c1 03be 96a4 9cbd caee d63c
00000030: 5db4 043e 55f9 773d abf4 e33d fe2f d0bd
00000040: 1b06 c43d a5fc 863d 7e83 3a3d ceb1 d73d
00000050: e467 ddbd eb47 e93d 2d6a ed3d 6ed8 c23d
00000060: 0182 753d c3aa 943d 4f3f 9d3c 625b c43a
00000070: d00f ae3d 0879 693d 974b e9bd b2c8 8a3d
00000080: b9e6 983d 423b 8abd 9217 7ebd 661a 72bd
00000090: be95 0a3e 5f79 0a3e 7a1e 69bd 1569 583d
000000a0: da95 84bd 6f7c e8bd 881d 70bd a139 08be
000000b0: 951a f43d f65b 0abd 2838 c6bd 6872 d3bd
000000c0: 8790 153c 5d80 e73c 1a9e e13a 44b9 91bd
000000d0: 7c38 cebd de79 a2bd 435e ddbd a919 dfbc
000000e0: 5230 71bd 0ffa 9b3c 1d1e 0b3d 9e79 0f3d
000000f0: 45ae c0bb 0830 b9bd 849e 81bc 3bb9 4fbc
-0.093411826 0.10007739 -0.11375288 -0.08982288 0.035979044 0.06846685 0.10450649 0.027687142
0.00677046 -0.12866616 -0.0764858 0.02623691 0.12959428 0.060540516 0.11130651 -0.10165404
0.09571477 0.06591157 0.045535557 0.105319604 -0.10810831 0.113906704 0.11592517 0.09513937
0.059938435 0.07259133 0.019195227 0.0014980847 0.0849911 0.05700019 -0.11391371 0.06776561
0.07465882 -0.06749584 -0.062034197 -0.059107207 0.13533685 0.13522862 -0.05691383 0.05283459
-0.064738944 -0.11351859 -0.058621913 -0.13303234 0.119191326 -0.033779107 -0.0967868 -0.10324556
0.009128696 0.02825945 0.0017213256 -0.07115415 -0.10069367 -0.079334006 -0.108089946 -0.027233915
-0.058883972 0.019040136 0.033964265 0.035028093 -0.0058801495 -0.09042364 -0.015822656 -0.01267844
