neuraloperator/examples/para/fno_para_202305121932_001002003004_modes36_epochs250.pth (torch, 812179 bytes, 31 tensors)

convs.bias f4 [4, 32, 1]
000000 6d 8a 83 35 34 ca 22 3c 11 37 8a 3c 79 75 44 3c
       9.800548e-07 0.009935904 0.01687196 0.011990898
000010 4b 4a 59 bb 68 36 ce bb ac dd 90 bb 46 98 d1 3b
       -0.0033155854 -0.006293107 -0.0044209566 0.0063963262
000020 c1 a9 a0 3b ea 19 e9 b8 b6 10 a8 38 50 f1 04 3c
       0.0049030487 -0.00011115133 8.013977e-05 0.008114174
000030 13 20 04 bb 30 11 e3 3c e8 ca 83 bb 32 fa 17 3c
       -0.002016072 0.027718157 -0.004021991 0.00927596
000040 40 90 c9 3c 9b 35 6c ba 7c f3 0c b8 83 cb 9f 3a
       0.024604917 -0.00090106734 -3.3605364e-05 0.0012191389
000050 63 bb 18 3c 42 d5 2b 3c 18 3c 0a 3c 14 11 9e 3c
       0.00932202 0.010487856 0.008437179 0.019295253
000060 5d bd 07 3b d9 be a1 3b e2 64 8b 3c 5b 1a 9e 3c
       0.0020712235 0.004936081 0.017015878 0.019299677
000070 9c fb b0 3b a4 7a 7e bb fd cb fe 3b 5b 02 70 3c
       0.005401088 -0.0038830424 0.007775782 0.014648999
000080 95 6c 86 bb d3 eb 04 3c 43 6e e5 3b 79 3f 1b 3c
       -0.0041022995 0.0081128655 0.0070016696 0.009475582
000090 68 b1 e0 bb de 92 a0 bb 69 66 95 bb 87 4f 19 3c
       -0.006857086 -0.0049003204 -0.0045593274 0.00935734
0000a0 62 5b 82 bc 3c 37 04 3c 01 80 9a bb da 24 bb 3b
       -0.015912715 0.0080698095 -0.0047149663 0.00571118
0000b0 66 d3 ec ba b0 ff d7 3b a4 09 f5 3b a1 64 f3 3b
       -0.0018068373 0.0065917596 0.007477956 0.0074277674
0000c0 10 ba 07 3c e8 2a 21 3c b4 d7 9a 3b 35 8d 3b 3b
       0.008284107 0.00983689 0.004725421 0.0028618101
0000d0 2f 99 1a 3c 16 8d 2b 3c 4e 21 fb 3b cc 3a 09 3c
       0.009435936 0.010470649 0.0076638823 0.008375835
0000e0 c1 66 c9 3b 82 80 b7 3b 65 47 30 3c 77 df 2a 3c
       0.0061462824 0.005600036 0.010759209 0.010429255
0000f0 3a c1 1c 3c f6 03 6d bb da c7 30 3c 77 e4 66 bb
       0.009567553 -0.003616569 0.010789836 -0.003523139
000100 55 c2 5e bb b1 58 01 3c 1c 17 e6 3b 14 74 0e 3c
       -0.0033990343 0.007894681 0.007021798 0.008694667
000110 19 c6 38 bb 16 81 f6 ba 61 2a 9d bb 15 43 08 3c
       -0.0028194247 -0.0018806781 -0.0047963117 0.008316775
000120 ec 8a 58 bb 4d 4f 41 3c 77 13 a5 bb f8 54 f7 3b
       -0.0033041788 0.011798692 -0.005037721 0.007547971
000130 b6 1d ef ba 10 09 f7 3b 6f 7c ed 3b 35 7c 20 3c
       -0.0018243107 0.007538922 0.0072474997 0.009795238
000140 45 b4 15 3c b2 a4 37 3c f4 d2 86 3b bb ec d4 3a
       0.009137218 0.0112087 0.004114503 0.0016244868
000150 41 33 26 3c 15 4a 21 3c ae 1c 24 3c 18 52 0a 3c
       0.010144056 0.009844323 0.010016603 0.008442424
000160 3f d3 fa 3b db ec d4 3b 13 ce 38 3c d2 48 2e 3c
       0.007654577 0.006497962 0.011279601 0.010637479
000170 88 0b 33 3c d7 15 98 bb ec 74 19 3c 90 33 ba bb
       0.010928042 -0.0046412754 0.009366255 -0.0056824163
000180 33 cf 42 bc ff 5e 17 3c d6 68 a1 3b f4 0c 06 3c
       -0.01189022 0.009238957 0.0049258275 0.008181799
000190 53 5c 93 ba ad 69 5a b9 d6 f4 9b bb f3 37 2f 3c
       -0.0011242725 -0.00020829467 -0.0047594113 0.010694492
0001a0 1e 5c 42 bc 5e d9 61 3c 0d 2c 37 bc f1 4f 18 3c
       -0.011862783 0.0137847345 -0.011179936 0.009296403
0001b0 67 6c 28 bb 28 dd 10 3c 40 e2 1f 3c 00 46 2c 3c
       -0.0025699378 0.00884179 0.009758532 0.010514736
0001c0 e9 32 2a 3c e9 b6 36 3c 8a 75 51 b9 f8 ee d7 3a
       0.0103881145 0.011152008 -0.0001997558 0.0016474416
0001d0 f3 94 19 3c 7b 47 23 3c 2a af 23 3c a8 5e e2 3b
       0.009373891 0.009965773 0.009990493 0.0069082566
0001e0 21 24 e8 3b 0b 08 fe 3b 2f 9f 3b 3c cb 7a 3c 3c
       0.007084385 0.0077524236 0.011451527 0.0115038855
0001f0 98 54 29 3c 04 87 96 bb c9 c1 1b 3c ea de 2a bc
       0.01033511 -0.004593732 0.009506651 -0.010429123

convs.bias_bc f4 [4, 32, 1]
000000 1a 85 b2 b8 32 7a ef b8 d8 18 70 b7 b8 9d 00 39
       -8.5124935e-05 -0.00011419169 -1.4310899e-05 0.00012265786
000010 e4 66 35 ba 51 22 9b 39 33 73 42 3a 3f 14 83 39
       -0.0006919934 0.00029589472 0.0007417679 0.00025001352
000020 2f 23 cf 38 29 50 61 3a cc df 0e 39 7b 8c d7 39
       9.8770826e-05 0.00085950136 0.00013625546 0.00041112662
000030 42 e6 39 b9 c1 1c 94 3a 00 aa dc 3a 5b 81 90 ba
       -0.00017728753 0.0011300073 0.0016835332 -0.0011024879
000040 c0 4b f7 3a d1 ad 04 bb ba ac 49 39 04 a4 4a 39
       0.001886718 -0.0020245204 0.000192332 0.00019325322
000050 db 54 0f bb ae 21 bc 39 98 dd 96 3a 31 64 81 b9
       -0.0021870646 0.00035883248 0.0011510132 -0.00024679446
000060 0d 42 1c bb 2d ce b2 ba 51 4d 0e 38 b9 40 17 3a
       -0.002384308 -0.0013641767 3.3927445e-05 0.00057698373
000070 9e 5f 62 39 38 94 fe 3a 2c 22 90 3a 36 97 03 39
       0.0002158866 0.0019422835 0.0010996512 0.00012549464
000080 6a 39 01 ba aa 94 ae b9 ea 58 81 b9 05 d1 70 ba
       -0.0004929515 -0.0003329863 -0.00024671044 -0.000918642
000090 5f 7d 27 b9 70 c7 a1 39 19 b0 ad b7 55 74 95 3a
       -0.00015973065 0.00030856906 -2.0705209e-05 0.0011402467
0000a0 7c fa 3d ba f4 50 df 39 26 59 8d 3a 10 d8 30 3b
       -0.0007247103 0.0004259419 0.0010784015 0.0026984252
0000b0 f4 e1 86 b9 f4 54 6d ba 49 fd 25 3a 65 8f fa 38
       -0.0002572682 -0.00090534915 0.0006331993 0.00011947638
0000c0 02 30 4a 3a 96 c5 7d ba f5 4f 1a 3a 33 e1 32 39
       0.0007712842 -0.00096806267 0.00058865483 0.00017059296
0000d0 ab d9 e1 b9 7f af db 39 3c b3 7e ba 17 db b7 37
       -0.0004307752 0.0004190169 -0.0009716039 2.1917322e-05
0000e0 69 24 97 3a 72 73 a4 b9 a8 c2 ff 39 ae d7 80 3a
       0.0011531237 -0.0003136653 0.0004878242 0.0009829903
0000f0 83 16 c2 b9 78 f2 57 3a fe f3 fc b8 3d 15 a8 b9
       -0.00037019336 0.000823773 -0.000120617435 -0.0003205928
000100 46 ed 3f ba f2 24 4e ba 53 e8 82 ba 07 f0 46 ba
       -0.0007321428 -0.00078637816 -0.0009987451 -0.00075888674
000110 13 83 54 ba 2e 3b dd b9 54 00 8d b8 1b 8f 67 ba
       -0.000810669 -0.00042196497 -6.723465e-05 -0.0008833275
000120 6e ba 85 ba 76 a6 9d ba 11 51 80 3a db 5b 46 ba
       -0.0010202655 -0.0012027759 0.0009789785 -0.0007566788
000130 85 d8 be 39 a0 97 81 b9 31 64 b6 b9 69 18 dd b9
       0.00036400944 -0.00024717767 -0.00034788394 -0.00042170592
000140 5c 9f 11 3a 98 a0 6e bb f8 5c f2 b9 28 58 2e 3b
       0.00055550574 -0.003641164 -0.00046227104 0.0026602838
000150 b5 ba 9f b7 ab ad db 39 a7 d3 d7 b9 0b aa 54 3a
       -1.904122e-05 0.00041900328 -0.0004116569 0.00081124966
000160 e7 c9 23 b9 94 c3 df 39 31 1d d3 b9 c0 dc 5e b9
       -0.00015620106 0.00042679592 -0.00040266805 -0.00021253806
000170 57 b5 ba 38 2b 1d 52 38 d3 c0 d2 38 f0 4d 36 39
       8.902948e-05 5.0095066e-05 0.000100494966 0.00017385907
000180 61 4a 91 39 70 e5 c8 ba 5e 52 8b 39 04 3e 25 ba
       0.00027711972 -0.0015327167 0.00026573514 -0.00063034915
000190 a5 b2 1d ba 96 d5 80 ba 70 6d 23 ba 00 4c 90 3a
       -0.0006015695 -0.0009829279 -0.0006234264 0.0011008978
0001a0 82 0b e7 37 ab ce ca 3a aa 6f 19 b9 82 2f 8f b9
       2.7542705e-05 0.0015472969 -0.00014632815 -0.00027310482
0001b0 8e 86 82 3a 2b 66 04 ba 78 bd d7 b9 a5 ee 03 3a
       0.0009958313 -0.00050506246 -0.0004114916 0.0005032814
0001c0 0d 88 80 ba 1a d3 7a 3a 21 6f 11 b9 3e bc 64 b8
       -0.0009806171 0.00095682 -0.00013869676 -5.453475e-05
0001d0 81 16 1c 37 a5 33 bf b9 df 65 ac 3a 92 8d d6 3a
       9.303564e-06 -0.00036468837 0.0013152919 0.0016369096
0001e0 48 17 25 34 73 13 78 b9 07 2e ca 39 ac cf 83 ba
       1.5375292e-07 -0.00023658368 0.00038562735 -0.0010056398
0001f0 57 30 92 ba e4 de 73 b9 e6 03 ca 39 be 88 8b ba
       -0.0011153322 -0.00023257319 0.00038531347 -0.0010645611

convs.weight.0.tensor f4 [32, 32, 18, 2]
000000 7d ec 10 b7 28 83 d9 00 be ea 9d 33 fa a6 54 b1
       -8.638131e-06 1.9975353e-38 7.3535816e-08 -3.0944975e-09
000010 de 99 3d 32 5d 13 13 b2 0c 78 3e 31 a6 4e 16 b2
       1.1036233e-08 -8.560929e-09 2.7716878e-09 -8.749032e-09
000020 3b 25 2a 31 30 8e 01 b2 a0 be 40 31 89 c1 e0 b1
       2.475942e-09 -7.541118e-09 2.8048035e-09 -6.5412604e-09
000030 26 3b 09 32 13 1f 66 b2 88 a6 cb 31 cf a2 07 b2
       7.987898e-09 -1.33948275e-08 5.92701e-09 -7.895053e-09
000040 d1 40 ed 31 b8 b3 19 b2 a7 b7 e2 31 e5 d3 d2 b1
       6.9049766e-09 -8.946635e-09 6.5983445e-09 -6.135894e-09
000050 fd 4b b4 31 9f 50 75 b1 a1 31 cf 31 8d 5b 90 b1
       5.2473283e-09 -3.569802e-09 6.030135e-09 -4.2013597e-09
000060 25 25 b6 31 80 2c 80 b1 13 17 a4 31 a4 2d 4a b1
       5.30112e-09 -3.7303494e-09 4.7756514e-09 -2.9420812e-09
000070 78 20 93 31 41 31 33 b1 cb 8b 95 31 fa dd 2c b1
       4.2819543e-09 -2.6075926e-09 4.3523634e-09 -2.5155473e-09
000080 2d 1d 91 31 b4 dd 50 b1 36 67 6c 30 fd d7 af 31
       4.2233723e-09 -3.0394007e-09 8.600297e-10 5.1177254e-09
000090 e7 49 67 bc ac 80 ae 01 55 0b 04 bc ab e9 eb ba
       -0.014116741 6.410214e-38 -0.008059342 -0.0017998716
0000a0 27 21 cc bb 19 62 ad bb 12 0d f0 bb 54 5a 1f bc
       -0.006229538 -0.005291235 -0.007325777 -0.009726126
0000b0 9b 64 09 bc 6a 0a 3f bc 6d 68 12 bc b2 78 55 bc
       -0.008385803 -0.011660198 -0.00893603 -0.013029264
0000c0 a3 87 fe bb a4 97 df bc 51 52 fb bb f3 32 ee bc
       -0.007767634 -0.027293988 -0.007669725 -0.029077029
0000d0 71 d2 57 bc 98 d9 04 bd 2e ef 03 bc c3 75 d9 bc
       -0.013172732 -0.032434076 -0.00805263 -0.026545411
0000e0 8a e8 a4 ba 96 7e ea bc a3 37 16 bb 7a 79 e0 bc
       -0.0012581509 -0.028624814 -0.0022921346 -0.027401675
0000f0 35 1a 33 bb ae b1 cd bc ec c0 62 39 63 07 e1 bc
       -0.0027328853 -0.025109138 0.00021624909 -0.027469343
000100 b7 7a 9e 3a 6e eb 07 bd a7 52 f0 ba cb 9d 3d bd
       0.0012091015 -0.033183508 -0.0018335179 -0.04629306
000110 4e 42 a5 bb 27 c3 7b bd b7 21 8c bb 6b 53 8a bd
       -0.0050433045 -0.06146541 -0.00427648 -0.06754192
000120 18 f0 5f bc 72 1f c6 01 fe db b7 bc 98 83 b1 3a
       -0.013668083 7.2778835e-38 -0.022443768 0.0013543246
000130 00 2e 41 bc 90 ce 99 3b 20 1c 92 bb 3f 0b e9 3b
       -0.011790752 0.0046938136 -0.004458919 0.0071119363
000140 a3 56 21 bb 15 42 e8 3b b0 a0 28 bb a3 fa ee 3b
       -0.002461829 0.0070879557 -0.0025730543 0.007293062
000150 6d be d6 bb fa 54 44 3b 3a e1 78 bb 8a a3 7f 3b
       -0.0065534622 0.0029957877 -0.0037976042 0.003900739
000160 0b 98 b1 bb 58 8f 99 3b 96 4f a2 bb 2b ad 84 3b
       -0.0054197363 0.0046862774 -0.004953335 0.0040489635
000170 c5 ba 4c bb b7 06 3d 3b be 60 15 bb 09 9b 37 3b
       -0.0031239253 0.0028843114 -0.0022793259 0.0028015992
000180 9b 12 94 ba b2 83 35 3b dc 90 9b 3a 47 eb 4c 3b
       -0.0011297049 0.0027696905 0.0011868733 0.0031268166
000190 52 a0 3b 3b 75 03 8d 3b 7c 46 7e 3b 15 92 c9 3b
       0.0028629494 0.0043033906 0.0038799336 0.0061514475
0001a0 30 aa a1 3b 17 3d 0b 3c 46 bf ee 3b 56 a7 49 3c
       0.004933618 0.008498452 0.007285985 0.012307962
0001b0 29 53 15 bc da 23 f3 81 f9 4a 3d bc 2a c0 1d 3b
       -0.009114065 -8.9315547e-38 -0.011553519 0.0024070838
0001c0 5c 5e 93 bb 12 46 e9 b9 a4 66 c7 b8 98 5f 6c ba
       -0.0044973325 -0.0004449343 -9.508178e-05 -0.000901693
0001d0 30 40 24 3a 56 dc ac ba 9d 7d ae b9 e2 21 76 39
       0.0006265668 -0.0013188224 -0.00033281455 0.0002347301
0001e0 a2 e9 1b ba 28 1e a5 3b 3b 62 f7 b9 b7 f2 96 3a
       -0.0005947595 0.0050389953 -0.000471847 0.0011516426
0001f0 b8 c8 97 b9 76 cc 6c 3b 35 72 93 ba 48 43 f2 3a
       -0.00028950511 0.003613261 -0.0011249246 0.0018483186
000200 fe b3 85 b7 0e 7f 08 3b 8c ea 3c 3a 29 27 bb 3a
       -1.593865e-05 0.0020827684 0.0007206581 0.0014278638
000210 ca 03 c9 3a e7 f3 49 3a e6 06 2d 3b d7 49 e9 b9
       0.0015336212 0.0007703886 0.0026401817 -0.00044496238
000220 61 73 90 3b 96 03 87 ba f7 6b c3 3b bd eb 90 ba
       0.0044082855 -0.0010300751 0.005963798 -0.0011056584
000230 ea df d1 3b 5b 5c 3f ba 67 6d 20 3c a9 35 0c ba
       0.0064048665 -0.0007299834 0.009791709 -0.0005348572
000240 bb a6 98 3a 08 21 bb 80 18 dc 1c 3a f3 07 eb bb
       0.0011646369 -1.7185087e-38 0.0005983724 -0.0071725785
000250 7d 3e c6 3a c3 ef 13 bc 44 c2 6b b9 00 3c 18 bc
       0.0015124824 -0.009029332 -0.00022483716 -0.009291649
000260 be 1d 93 b9 53 61 34 bc 0c 5b 82 3b 7a 50 2e bc
       -0.00028060185 -0.011009532 0.003978139 -0.010639304
000270 f0 2a 94 bc da fa fa bc a8 32 a9 bc 92 33 0d bd
       -0.01808688 -0.030637193 -0.020654038 -0.03447301
000280 99 ac fa bc 1e 2d eb bc 38 1a 63 bc c5 49 e1 bc
       -0.03059988 -0.028708037 -0.0138612315 -0.027500996
000290 d9 87 9f bb 02 9f 2a bd 99 71 78 bb c9 1c 21 bd
       -0.004868489 -0.041655548 -0.0037909506 -0.039334092
0002a0 47 7d d1 b9 76 48 0e bd dd 38 c0 3b af 25 36 bd
       -0.00039956925 -0.034737073 0.0058661536 -0.04446953
0002b0 3c 02 89 b8 99 d5 6c bd 37 71 eb bb 9a 9e 91 bd
       -6.533085e-05 -0.05782089 -0.007185127 -0.07110329
0002c0 a0 ef d6 bc 2d 9a a7 bd 37 ef 42 bd 2e df a4 bd
       -0.026237309 -0.081837036 -0.047591414 -0.08050381
0002d0 25 32 b8 3a c5 ee 83 02 d8 07 35 bc 8d 44 74 3c
       0.001405303 1.9385767e-37 -0.011049233 0.014908922
0002e0 fe 47 04 bc c0 01 44 3b da ae e0 bb e7 5c 14 3b
       -0.008073805 0.002990827 -0.0068567814 0.0022638382
0002f0 15 6f 8d bb 80 8c 36 3b 94 c4 b8 ba 22 ac 89 3b
       -0.0043162205 0.002785474 -0.0014096671 0.004201428
000300 53 97 9e 3b a7 d7 a9 3c db 1b 1f 3c e4 ef a9 3c
       0.0048398166 0.020732714 0.009711231 0.020744272
000310 6b f2 b1 3c 70 e9 be 3c 85 1f 17 3c 6e 05 8c 3c
       0.02172204 0.023304671 0.009223823 0.017092433
000320 2c 9e dd bb ec 76 8e 3c 01 e6 88 bc 6c 74 72 3c
       -0.0067632403 0.01739069 -0.016711237 0.014798265
000330 42 14 a5 bc 5d 2d d0 3b aa 93 f7 bc 01 95 d2 3b
       -0.020151261 0.006353064 -0.030221779 0.006426454
000340 23 f7 1e bd c2 c9 6c 3c 47 63 01 bd f9 bf cb 3c
       -0.038809907 0.0144524 -0.03158882 0.024871813
000350 f2 d3 44 bc 24 5b 0c 3d eb b5 c1 bc 49 41 74 3d
       -0.012013422 0.034266606 -0.023646316 0.059632573
000360 9e ea 41 3a 2e f3 87 81 9f 2c 07 3c 1e 9c b2 3b
       0.00073973264 -4.9940114e-38 0.008250385 0.0054507395
000370 79 ca f6 3b c5 81 71 3b dc 94 d7 3b 5f 4e cb 3b
       0.007531461 0.003685103 0.0065790247 0.006204411
000380 2c be d8 3b b2 74 03 3c d7 6f ad 3b e0 f4 09 3c
       0.006614467 0.008023428 0.0052928734 0.008420199
000390 41 34 92 3b 69 72 5b 3c 05 db a5 3b a4 52 3e 3c
       0.0044617956 0.013393977 0.0050615096 0.011616383
0003a0 d6 be d4 3b 38 87 76 3c dd 11 af 3b 0a 45 3a 3c
       0.006492476 0.015046887 0.0053427056 0.011368999
0003b0 13 3f da 3a 80 37 41 3c 36 2f a5 3a 52 29 33 3c
       0.0016650878 0.011793017 0.0012602571 0.0109351445
0003c0 96 34 ce 3a 3b 1f 2d 3c 4b f8 92 ba 31 f2 1b 3c
       0.0015732225 0.010566528 -0.0011212913 0.009518192
0003d0 b2 a5 39 bb 2a 5a 1e 3c b4 9d b5 bb 40 b3 5b 3c
       -0.0028327522 0.0096650515 -0.0055424813 0.013409436
0003e0 9f 4e 29 bc 88 9a ab 3c 06 4a 96 bc fd 94 ec 3c
       -0.010333686 0.02094771 -0.018345844 0.028879637
0003f0 be 82 37 bc c8 af 96 02 aa bc ac bb b2 17 25 3b
       -0.011200605 2.2141413e-37 -0.005271514 0.0025191125

convs.weight.1.tensor f4 [32, 32, 18, 2]
000000 be 8d 43 35 e8 fe 19 02 fe 81 dc b0 99 38 fa af
       7.2849423e-07 1.1313819e-37 -1.6044053e-09 -4.551495e-10
000010 5f 63 bc b1 31 09 81 b1 62 20 df b1 aa a6 32 b1
       -5.4828173e-09 -3.755439e-09 -6.4938357e-09 -2.5997147e-09
000020 6e 45 89 b1 01 78 ec b0 1e 20 2e b1 f4 9b 95 b0
       -3.995118e-09 -1.7205367e-09 -2.533859e-09 -1.0885501e-09
000030 e3 b7 83 31 73 28 d1 b1 7d bd 0a 30 3f 72 75 b0
       3.8335073e-09 -6.087299e-09 5.0473387e-10 -8.9292834e-10
000040 d6 3e 23 31 ef 22 16 b1 a8 cd 0b 31 f4 a4 a9 b0
       2.375534e-09 -2.184773e-09 2.0344064e-09 -1.2343251e-09
000050 27 18 db 30 7b b6 b8 30 93 11 52 31 f7 0b 99 30
       1.5941212e-09 1.3439626e-09 3.0569012e-09 1.1135616e-09
000060 0c 0d 3f 31 3d 0c 5e 30 ce 9a 10 31 06 da c5 30
       2.7801574e-09 8.078052e-10 2.1042754e-09 1.4395602e-09
000070 8d 6e e2 30 f6 2c 0e 31 c2 b6 2a 30 f0 a8 1c 31
       1.6475085e-09 2.0689277e-09 6.2105354e-10 2.2797018e-09
000080 58 07 8b b1 f8 47 1c 32 7c 8e 18 32 f0 4c c4 32
       -4.0462673e-09 9.096759e-09 8.879962e-09 2.285239e-08
000090 89 38 22 b8 ad fa 4e 02 86 cd b4 b3 f3 2e a9 35
       -3.8676462e-05 1.520643e-37 -8.419288e-08 1.2605145e-06
0000a0 61 64 80 b2 79 77 f2 34 5c dd 97 33 89 f9 c5 34
       -1.4946808e-08 4.516294e-07 7.0717505e-08 3.687567e-07
0000b0 5c 34 24 33 dc d4 69 34 f7 c3 aa 33 78 f5 31 34
       3.8231846e-08 2.1777254e-07 7.951888e-08 1.657371e-07
0000c0 f0 b9 3d b4 c6 aa 41 b4 7f a6 88 33 fa d9 1e b3
       -1.766964e-07 -1.8036653e-07 6.363279e-08 -3.698549e-08
0000d0 34 89 86 b3 e7 2f 76 b2 26 e6 15 b3 bd a5 fd b2
       -6.264818e-08 -1.4329976e-08 -3.4901085e-08 -2.9528445e-08
0000e0 a8 e9 be 33 cd 25 04 b4 81 74 93 33 2e 3a 1a b4
       8.890066e-08 -1.230721e-07 6.866413e-08 -1.4363533e-07
0000f0 d5 58 84 33 d0 62 f8 b3 b5 40 05 34 b0 f8 c5 b3
       6.1628874e-08 -1.1566374e-07 1.241013e-07 -9.218763e-08
000100 84 e5 3c 34 dd a3 aa b3 f0 6e 51 34 04 ed 4b b2
       1.7592362e-07 -7.9460484e-08 1.9505e-07 -1.1870046e-08
000110 ca b7 9d 34 74 81 12 33 df f7 c7 34 47 b6 9b 33
       2.9377253e-07 3.411101e-08 3.7246988e-07 7.250906e-08
000120 a3 8a 0c b8 fc 21 5c 01 84 c9 a1 33 83 36 9a 35
       -3.3507717e-05 4.0432e-38 7.533802e-08 1.1489759e-06
000130 0c 31 e2 33 ee 55 e1 34 ea 5c 5a 34 92 57 9b 34
       1.0532867e-07 4.1972038e-07 2.0336634e-07 2.8934716e-07
000140 7a 46 18 34 ea 9f 11 34 71 b2 2a 34 d9 f4 cb 33
       1.4181742e-07 1.3562354e-07 1.58974e-07 9.497462e-08
000150 82 d5 6a b4 c3 12 f3 b3 c0 62 11 33 1f 70 95 b3
       -2.1870622e-07 -1.1318982e-07 3.3850256e-08 -6.958748e-08
000160 68 71 b6 b3 20 81 c4 31 96 82 94 b3 b1 13 83 b2
       -8.495664e-08 5.7190306e-09 -6.9155405e-08 -1.5259362e-08
000170 5d 31 9d 32 97 ee 29 b4 5c 5c ad af 37 90 35 b4
       1.8299653e-08 -1.582615e-07 -3.1534142e-10 -1.6909404e-07
000180 22 09 0c 32 58 36 15 b4 ee e8 96 33 1c c7 1f b4
       8.151149e-09 -1.3896477e-07 7.027289e-08 -1.4880465e-07
000190 20 b2 17 34 7d 71 38 b4 0f 67 52 34 e0 ce f0 b3
       1.4127772e-07 -1.7177622e-07 1.9595267e-07 -1.1213501e-07
0001a0 83 6c b8 34 f0 7a 1f b4 78 5f 07 35 1d 95 40 b4
       3.4351623e-07 -1.4852753e-07 5.0430344e-07 -1.793564e-07
0001b0 56 31 c0 b7 ea 88 ab 01 98 c7 7e 34 ab 87 3b 35
       -2.2911157e-05 6.301194e-38 2.3728205e-07 6.986035e-07
0001c0 c3 45 ff 33 a0 4c 6c 34 f8 d9 36 34 e7 2d f5 33
       1.18870524e-07 2.2007089e-07 1.7029367e-07 1.1417051e-07
0001d0 12 54 01 34 c3 5d fd 32 14 2a ee 33 47 c5 8e b1
       1.2044646e-07 2.9495714e-08 1.10903926e-07 -4.1551718e-09
0001e0 d5 c7 29 b4 2c 80 39 34 33 02 2c b0 fd 96 61 32
       -1.581205e-07 1.7276096e-07 -6.257636e-10 1.31310545e-08
0001f0 ad a3 b6 b1 57 b3 af 33 be e9 85 b2 c9 3a 46 33
       -5.315505e-09 8.181694e-08 -1.5589531e-08 4.6153932e-08
000200 c9 a4 45 b3 e4 37 5e b3 9a b5 7f b3 33 cc 62 b3
       -4.6017508e-08 -5.1739235e-08 -5.953698e-08 -5.2805444e-08
000210 e7 82 4f b3 ad 0a 54 b3 1d 42 d2 b2 90 63 ee b3
       -4.8315e-08 -4.9369806e-08 -2.4477282e-08 -1.1100849e-07
000220 72 d5 8a 32 ef ee 40 b4 cb cc ba 33 f3 8a 54 b4
       1.6162378e-08 -1.7968317e-07 8.6985516e-08 -1.9794588e-07
000230 b3 0d 4c 34 79 11 99 b4 6d 20 bb 34 85 2b 97 b4
       1.9003964e-07 -2.8511184e-07 3.4855057e-07 -2.8157606e-07
000240 37 83 05 b7 22 c6 93 02 ad 26 69 34 db eb 26 34
       -7.957969e-06 2.1713431e-37 2.1713886e-07 1.5545758e-07
000250 3b 6b e8 34 49 91 90 34 85 f6 13 35 6b 9e 51 34
       4.3291388e-07 2.69278e-07 5.51205e-07 1.9522274e-07
000260 f4 29 06 35 12 bb d6 33 57 1d db 34 b2 1a e6 33
       4.997994e-07 9.9991794e-08 4.0813276e-07 1.07150655e-07
000270 63 01 02 35 2e 7e fd 30 1d 1a db 34 95 10 a1 33
       4.843079e-07 1.8444035e-09 4.081093e-07 7.500163e-08
000280 6d 55 93 34 d5 c4 09 33 84 55 3f 34 1b 44 f1 32
       2.744304e-07 3.2076816e-08 1.7819372e-07 2.8087063e-08
000290 21 75 66 34 5f 10 e3 32 04 e7 50 34 ab ad 98 32
       2.146303e-07 2.6433723e-08 1.9455553e-07 1.7774104e-08
0002a0 70 98 38 34 64 ca c1 32 74 29 85 34 84 4e 83 33
       1.7191792e-07 2.2560194e-08 2.4803342e-07 6.114445e-08
0002b0 d7 ef a3 34 44 6e e8 33 5d d5 98 34 12 85 35 34
       3.0535622e-07 1.0823399e-07 2.8467448e-07 1.690535e-07
0002c0 8b 1b 80 34 97 de 73 34 0b 5a 64 31 1b 3d 82 34
       2.3861898e-07 2.2712116e-07 3.322955e-09 2.4258847e-07
0002d0 89 30 a9 b6 08 c5 17 02 55 cd 09 33 8f 45 44 34
       -5.0422427e-06 1.1150273e-37 3.2084547e-08 1.8279228e-07
0002e0 bf 81 63 b4 32 fa 6b b3 cd b3 91 b4 63 03 30 b3
       -2.1188224e-07 -5.4942753e-08 -2.7139177e-07 -4.0981273e-08
0002f0 e1 36 88 b4 2b df 0f b3 31 f6 3e b4 ac 7b 48 b3
       -2.5371904e-07 -3.3497752e-08 -1.7784693e-07 -4.6678608e-08
000300 8b 06 89 b4 b4 0e 92 32 98 95 3c b4 54 6f bb b2
       -2.5523e-07 1.7003323e-08 -1.7563286e-07 -2.1820291e-08
000310 37 6f c7 b3 c4 38 51 32 59 5d 8c b3 33 4c 56 32
       -9.2868895e-08 1.2178308e-08 -6.536238e-08 1.2473765e-08
000320 de 86 ad b3 1a b3 90 b2 ae a3 74 b3 7d c1 eb b2
       -8.0804725e-08 -1.6845252e-08 -5.6959543e-08 -2.7445589e-08
000330 52 f5 2d b3 64 89 1a b3 fa db 6b b3 9e 33 27 b3
       -4.050282e-08 -3.5980875e-08 -5.491527e-08 -3.8929663e-08
000340 80 6a 91 b3 ed 5e 3d b3 52 e3 93 b3 6b 80 78 b3
       -6.771461e-08 -4.4091326e-08 -6.88657e-08 -5.7858795e-08
000350 ea 3c 73 b3 98 b8 06 b3 c0 01 75 33 83 b6 21 34
       -5.6633247e-08 -3.1367193e-08 5.70451e-08 1.5060691e-07
000360 15 7b 0e b8 1c e7 a6 81 64 6d 1d 34 c7 56 0a 35
       -3.3970067e-05 -6.1310395e-38 1.466156e-07 5.1535284e-07
000370 8e c4 37 b4 a8 4b 5d b4 6b c9 8f b4 69 76 6a b4
       -1.711471e-07 -2.0609752e-07 -2.6782376e-07 -2.1836026e-07
000380 ef cf 9f b4 e0 4e 4c b4 d4 41 47 b4 d2 17 33 b4
       -2.976735e-07 -1.9027675e-07 -1.8557267e-07 -1.667934e-07
000390 6d b6 e4 b4 c1 c1 9c 32 56 71 75 b4 15 cb a3 b3
       -4.2601042e-07 1.82489e-08 -2.2858634e-07 -7.6272194e-08
0003a0 42 21 43 b4 31 75 c3 32 42 60 29 b4 3b ba 63 32
       -1.817289e-07 2.275428e-08 -1.577437e-07 1.3255483e-08
0003b0 a7 89 53 b4 a9 6e eb b3 63 b3 5e b4 6f 55 04 b4
       -1.9700984e-07 -1.0963169e-07 -2.0740622e-07 -1.2324539e-07
0003c0 8a 22 4f b4 f7 02 01 b4 a9 6a 3c b4 f2 bf 3a b4
       -1.9290943e-07 -1.201514e-07 -1.7547667e-07 -1.7392429e-07
0003d0 52 9c 1b b4 28 4e 77 b4 b2 f1 99 b3 e5 f4 84 b4
       -1.4492369e-07 -2.30321e-07 -7.168582e-08 -2.47651e-07
0003e0 7c 9b a9 33 90 ae ba b4 e7 a9 f2 34 23 32 e4 b4
       7.897958e-08 -3.477221e-07 4.5199633e-07 -4.250479e-07
0003f0 a5 dc 0c b8 45 53 3e 02 9c d8 af 34 1f 76 4a 35
       -3.3584092e-05 1.3982893e-37 3.2753894e-07 7.5422753e-07

convs.weight.2.tensor f4 [32, 32, 18, 2]
000000 0a 83 f6 39 6c a4 38 01 72 93 fa 39 7a 6c ae b8
       0.00047018408 3.391343e-38 0.0004779357 -8.317172e-05
000010 92 77 a2 3a b0 2d 43 b9 2f 0f 82 3a 46 38 6d b9
       0.0012395254 -0.00018613669 0.0009922738 -0.00022623045
000020 d3 a5 4a 3a 4a 62 2a b9 4a 87 3b 3a 6b 69 21 b9
       0.0007730398 -0.00016249079 0.00071536435 -0.00015393428
000030 6e e5 47 3a 12 f7 d2 38 74 5e 24 3a 58 09 ae 38
       0.0007625435 0.00010059601 0.0006270178 8.298707e-05
000040 8c 76 3c 3a 9e 34 f6 b7 85 68 3d 3a ac 1f f6 b8
       0.0007189296 -2.9349987e-05 0.00072253525 -0.000117360934
000050 f9 9f 18 3a c7 d0 af 37 5b e9 10 3a f3 bb e3 38
       0.00058221776 2.0958845e-05 0.0005527937 0.00010859212
000060 c8 05 0f 3a b0 0b 97 38 2a d3 1a 3a 9a 0e 5f 38
       0.00054558786 7.202418e-05 0.00059060997 5.3180942e-05
000070 88 eb 26 3a 54 81 9d 38 97 87 76 3a e9 81 e5 38
       0.00063674944 7.5104326e-05 0.000940436 0.000109437686
000080 07 53 cb 3a cf 2f 97 39 64 2c d2 38 55 57 4e ba
       0.0015512415 0.00028836585 0.00010021849 -0.000787129
000090 8d 96 f7 bb 1e 78 8e 81 55 82 82 ba 3f 34 0e b9
       -0.007555789 -5.233492e-38 -0.0009957055 -0.00013561638
0000a0 f5 39 68 bb 5d 95 c7 bb 47 13 56 bb 63 a1 b1 bb
       -0.0035434936 -0.0060908035 -0.0032665299 -0.00542085
0000b0 00 4d 4a bb b2 3c 8d bb 27 6d 87 bb 38 59 81 bb
       -0.003086865 -0.004310214 -0.004132885 -0.0039474033
0000c0 dc 44 6f bb 18 1d c5 bb cf d1 72 bb 11 57 90 bb
       -0.003650955 -0.006015431 -0.0037051325 -0.0044049104
0000d0 96 5e ae bb 31 17 81 bb 18 06 bd bb cc 78 64 bb
       -0.005321334 -0.003939532 -0.0057685487 -0.003486204
0000e0 aa 63 ad bb 28 af 4c bb fd 02 a3 bb b1 06 58 bb
       -0.005291422 -0.003123233 -0.0049747215 -0.0032962973
0000f0 97 1d 95 bb 60 c7 1b bb 41 7e 8a bb 00 23 00 bb
       -0.0045506465 -0.002376996 -0.0042264764 -0.0019552112
000100 a3 da 86 bb df 10 07 bb cc 32 ac bb 16 d9 1c bb
       -0.004115419 -0.0020609421 -0.005255079 -0.0023933104
000110 16 84 12 bc a6 c2 84 bb f1 b9 b7 b8 31 01 ef bb
       -0.008942625 -0.004051524 -8.760754e-05 -0.007293843
000120 55 81 f3 bb 98 49 51 82 6d 61 85 ba 16 19 4f b9
       -0.007431189 -1.5376015e-37 -0.001017613 -0.00019750404
000130 b4 b8 a1 bb 1c bf aa bb ad 53 9a bb 61 72 8b bb
       -0.0049353484 -0.0052107703 -0.004709682 -0.0042555784
000140 95 90 86 bb ad ed 55 bb b5 6b 9e bb bd dc 39 bb
       -0.004106591 -0.0032642887 -0.004834617 -0.002836033
000150 c7 bb 9e bb e4 5d a0 bb ac cf 9c bb 1a 55 62 bb
       -0.004844162 -0.004894005 -0.0047854986 -0.0034535588
000160 87 08 d3 bb 39 fc 3f bb ee 8c df bb 78 97 21 bb
       -0.0064402255 -0.0029294624 -0.00682222 -0.0024656933
000170 a7 67 ca bb 5a dc 17 bb 21 86 c4 bb 99 00 2f bb
       -0.006176907 -0.0023172111 -0.0059974347 -0.0026703237
000180 8d 71 b5 bb 71 fb 09 bb 89 b7 a6 bb 8e 4e d6 ba
       -0.005537218 -0.0021054412 -0.005087797 -0.0016350315
000190 88 f4 9f bb 3b 93 d7 ba 4f 5d c3 bb 4e fa c5 ba
       -0.0048814453 -0.0016447076 -0.005962051 -0.0015104504
0001a0 d3 d6 1d bc 47 a4 3d bb 5f 27 e1 3a d1 85 10 bc
       -0.009633738 -0.0028937028 0.0017177871 -0.008820967
0001b0 46 13 00 bc dc 2b 60 02 a4 56 c6 ba a0 23 a1 39
       -0.007817095 1.6469508e-37 -0.0015132022 0.00030734856
0001c0 65 a6 89 bb c0 80 fe ba a8 40 78 bb b5 f1 a0 ba
       -0.004200744 -0.0019417033 -0.0037880335 -0.0012279066
0001d0 f0 40 47 bb 08 35 45 ba 6e f1 54 bb f2 4c 0a ba
       -0.0030403696 -0.0007522856 -0.0032492536 -0.0005275748
0001e0 4a 09 a4 bb b4 62 ab ba 7c a2 83 bb 6b 54 ee b9
       -0.00500599 -0.001307568 -0.0040171724 -0.00045457794
0001f0 f6 c2 90 bb d8 5c f7 39 59 7a 86 bb c1 ca 13 3a
       -0.0044177724 0.00047180685 -0.0041039404 0.00056378177
000200 81 5e 7a bb 30 94 d2 39 e0 b9 78 bb ba 83 0f 38
       -0.0038203301 0.0004016473 -0.0037952587 3.4216537e-05
000210 37 91 65 bb 71 b3 29 39 48 9e 4d bb db f0 5f 39
       -0.0035029182 0.00016183943 -0.003137486 0.00021356663
000220 a2 4d 35 bb dd dc 8b 39 ae f6 5c bb 95 e0 f4 39
       -0.002766468 0.00026676702 -0.0033716368 0.00046706633
000230 71 4f d3 bb 4d 13 ea b9 80 dc a8 3a 16 47 e9 bb
       -0.006448679 -0.00044646338 0.0012883097 -0.00711907
000240 02 15 9c 3b 28 db 13 82 13 68 13 bb 42 bb 21 38
       0.0047632465 -1.0862749e-37 -0.0022492453 3.855979e-05
000250 66 25 07 bc 07 9e a3 ba 10 30 ef bb 7b bd f4 38
       -0.008248663 -0.0012483009 -0.0072994307 0.0001167012
000260 0d f3 b0 bb c1 18 99 3a 28 dc 8f bb ed 86 b3 3a
       -0.0054000677 0.0011680351 -0.0043902583 0.0013696827
000270 e1 5f 29 bb c2 d0 29 3b cd c2 0a bb 89 71 4a 3a
       -0.0025844502 0.0025911783 -0.002117324 0.00077226065
000280 74 a3 c1 ba 82 60 85 39 19 64 f2 ba 96 75 ff b9
       -0.0014773444 0.0002543964 -0.0018492966 -0.00048724998
000290 6d 43 36 bb 42 01 db 39 23 e4 1c bb 94 4c b4 3a
       -0.0027811185 0.00041771872 -0.002393969 0.0013755732
0002a0 34 e0 13 bb 6e 4d b4 3a 47 79 1c bb ea 9a fd 3a
       -0.0022564055 0.0013755986 -0.0023875998 0.0019348536
0002b0 e1 cb 10 bb e5 50 34 3b 47 38 cd ba bc 3e 64 3b
       -0.0022094178 0.0027514037 -0.0015657031 0.0034827432
0002c0 a5 ac fd 3a 5d 85 47 3b 69 9a d8 3b 17 d6 12 3c
       0.001935382 0.003044448 0.006610204 0.008962176
0002d0 af 4d f3 3a c7 b6 0a 82 0a 7f 09 3b 90 56 71 39
       0.001856258 -1.0191093e-37 0.0020980262 0.00023015798
0002e0 c7 5c 95 3b a9 94 73 3a b2 6f 67 3b dc 13 cf 39
       0.004558179 0.00092918664 0.0035314378 0.00039496913
0002f0 9e 63 1e 3b 33 35 8d 38 07 41 eb 3a 66 71 85 39
       0.0024168263 6.733313e-05 0.0017948457 0.00025452225
000300 92 d6 89 3a 96 d2 9f b9 13 2c 5d 3a 03 57 5a 3a
       0.0010516217 -0.00030483742 0.00084370485 0.0008329006
000310 5e f1 2b 3a 96 f2 d1 3a 41 ad ac 3a 58 56 e8 3a
       0.0006559099 0.0016017731 0.0013174192 0.0017725928
000320 68 0c 16 3b 8b 74 27 3a 85 4b 18 3b 27 27 51 b9
       0.0022895578 0.00063879107 0.0023238373 -0.00019946379
000330 04 b9 0e 3b 00 8e 1c ba ee af 16 3b 6a 22 03 ba
       0.0021777758 -0.00059720874 0.0022993046 -0.00050023815
000340 f6 6f 22 3b 64 f6 0b ba 5e 8a 4a 3b 50 f4 3d ba
       0.0024785972 -0.0005339144 0.0030905227 -0.0007246183
000350 72 21 6e 3b 7c a1 fb ba 70 3d 31 3b 4c 0c d7 bb
       0.0036335853 -0.0019197906 0.0027044676 -0.006562745
000360 63 06 bc 3b 6e 2a 64 82 24 88 20 3a be 4d da 39
       0.005738066 -1.6762971e-37 0.0006123802 0.00041638123
000370 c0 f6 6b 3b 17 18 65 3a 77 ab 39 3b 92 d8 33 ba
       0.0036005229 0.00087392464 0.002833096 -0.00068605796
000380 3e 30 db 3a 98 74 d2 ba 2c fd a8 39 02 41 ea ba
       0.0016722751 -0.0016056476 0.00032232085 -0.0017872157
000390 5a ce 10 bb d6 40 76 bb 9e 36 20 bb 03 78 df ba
       -0.0022095651 -0.0037575266 -0.0024446617 -0.0017049316
0003a0 35 fd 7f bb c3 ac 90 ba 62 17 73 bb 02 cc 38 b9
       -0.0039060835 -0.0011037815 -0.0037092795 -0.00017623606
0003b0 4a 78 0b bb b8 40 ab ba 1c c7 0d bb ae bf 2f bb
       -0.0021281415 -0.0013065552 -0.002163357 -0.002681713
0003c0 c6 37 fc ba 67 d2 33 bb 5f f6 d3 ba 56 d8 47 bb
       -0.0019242696 -0.0027438642 -0.0016171447 -0.0030493937
0003d0 4e fa cc ba 4a c4 6e bb 82 ba 45 bb e7 11 8a bb
       -0.0015638561 -0.0036432915 -0.0030170982 -0.00421356
0003e0 8b ef 09 bc 97 38 a4 bb 29 cb 9a ba 50 a6 84 bc
       -0.008418928 -0.005011629 -0.0011809814 -0.016192585
0003f0 b3 3c d9 bb 39 93 05 82 87 a5 18 39 df 62 b4 39
       -0.0066295504 -9.813548e-38 0.00014557513 0.0003440594

convs.weight.3.tensor f4 [32, 32, 18, 2]
000000 07 7f 45 3c 8a ac d9 01 a9 04 db bb 76 b3 a1 3c
       0.012054211 7.996079e-38 -0.006683905 0.019738894
000010 e2 29 6a bb ed f0 9f 3c ed 36 0d 3a fd a4 8a 3c
       -0.003573053 0.019524062 0.0005386908 0.016924376
000020 a2 ce 0b 3b 97 23 76 3c 94 33 1d 3b db 6e 7a 3c
       0.002133288 0.015023134 0.0023987042 0.015285219
000030 89 fe 58 3b 8d 39 40 3c 6c 04 8d 3b 12 61 09 3c
       0.00331107 0.011732471 0.0043035056 0.00838496
000040 b6 c0 ea 3a 0e a8 26 3c d1 ca 82 3b ab 67 b0 3b
       0.0017910216 0.010171903 0.0039914628 0.005383452
000050 c5 5d b3 3b 70 07 55 3b 84 86 d1 3b 69 98 6b 3b
       0.0054738247 0.0032505654 0.0063942093 0.0035948998
000060 97 9d 02 3c e1 5d 0c 3b c8 b9 0e 3c 19 83 47 ba
       0.007972143 0.002141826 0.008711286 -0.00076107826
000070 ad 07 2e 3c 53 d8 2a bb 3e d1 37 3c 71 27 89 bb
       0.010621947 -0.002606888 0.011219321 -0.00418561
000080 f1 c1 02 3c 2a 1c bb bb a5 d0 92 bb c2 83 47 bc
       0.00798081 -0.0057101445 -0.004480439 -0.01217741
000090 f3 62 23 bc 06 0c cb 81 27 00 62 3c 03 93 c0 bc
       -0.009972322 -7.4587676e-38 0.013793982 -0.0235076
0000a0 bd c6 26 3c e5 c9 cf bc 02 68 86 3b 39 56 c6 bc
       0.010179219 -0.025364826 0.004101754 -0.024211036
0000b0 14 5b 13 3a 92 97 b5 bc af 70 b8 ba 3d bb b0 bc
       0.00056211767 -0.022167 -0.0014071668 -0.021573657
0000c0 3b ce 6f bb 1e 6d 89 bc 88 ad 9d bb 1d ca 48 bc
       -0.0036591429 -0.016775664 -0.0048119463 -0.012255219
0000d0 8d d3 ef ba 44 85 63 bc c7 0b 87 bb f6 c9 f6 bb
       -0.00182973 -0.0138867535 -0.004121277 -0.0075314
0000e0 0d 55 cc bb 3c 24 7c bb f3 fb ff bb 99 fd 67 bb
       -0.006235725 -0.0038473746 -0.007812017 -0.0035398959
0000f0 2c 6a 22 bc 7d 6a a5 ba 0a 35 2e bc dc b1 28 3b
       -0.009913009 -0.0012620237 -0.010632763 0.0025740778
000100 04 bf 48 bc 8e 39 b6 3b 8c 0f 33 bc b6 76 20 3c
       -0.012252573 0.0055610603 -0.010929 0.009793928
000110 f3 e1 8e bb 30 b0 8f 3c e8 93 9c 3c c5 83 23 3d
       -0.0043604313 0.017540067 0.019113496 0.039920587
000120 54 87 cc bb 94 c1 96 01 37 69 0e 3c d0 4a b4 bc
       -0.0062417183 5.537907e-38 0.008692077 -0.02200833
000130 b7 11 82 3b 66 81 c4 bc f2 2d ad ba 18 08 b4 bc
       0.003969397 -0.023987483 -0.0013212545 -0.021976516
000140 58 0c 7a bb f8 b1 9f bc d8 1c bc bb bc de 99 bc
       -0.003815433 -0.019494042 -0.005740743 -0.018782966
000150 54 3a be bb 4f 0e 5c bc 2e 61 d1 bb de bc 19 bc
       -0.005805293 -0.013431146 -0.0063897585 -0.009383408
000160 16 10 8b bb 00 ee 36 bc 34 24 ab bb 78 4c c1 bb
       -0.004243861 -0.011165142 -0.0052228216 -0.0058990084
000170 82 2e dc bb bc 6e 62 bb fa 0f 01 bc 59 cd 71 bb
       -0.0067194114 -0.0034550866 -0.007877344 -0.0036896078
000180 08 76 1e bc fc 0b 04 bb 84 4b 2f bc 79 d6 c9 3a
       -0.0096716955 -0.0020148745 -0.010699157 0.0015399001
000190 c3 29 5d bc 1c ae 99 3b c6 5f 75 bc c9 5e 1c 3c
       -0.013498726 0.004689945 -0.014976447 0.009544083
0001a0 52 07 2b bc bc 08 8e 3c c2 85 33 3c 18 ca 1b 3d
       -0.010438757 0.01733815 0.010957183 0.03803453
0001b0 83 89 2c bc a0 07 39 81 a7 3f b0 3b 9e 85 80 bc
       -0.010530832 -3.3984604e-38 0.0053786817 -0.015688714
0001c0 74 02 12 3b bb 8e 85 bc 65 29 d3 ba 4f 53 6d bc
       0.0022279294 -0.01630341 -0.0016110359 -0.014485194
0001d0 4b e4 49 bb f4 6e 4f bc 3a 28 4b bb f8 24 44 bc
       -0.003080624 -0.012660731 -0.0030999319 -0.011971705
0001e0 69 67 0d bb 6d 36 01 bc 8a 5c 5c bb 92 ed 9d bb
       -0.002157653 -0.007886511 -0.0033624494 -0.0048195804
0001f0 ed 97 ae ba 1a b0 d4 bb 18 ca 5a bb c1 d6 46 bb
       -0.0013320424 -0.0064907195 -0.0033384617 -0.0030340406
000200 51 4a 8d bb c7 cb 00 bb 16 24 9b bb 03 67 1a bb
       -0.0043118377 -0.001965271 -0.0047345264 -0.0023559935
000210 cc 55 c2 bb c8 2a ac ba 23 0a d5 bb 19 f1 48 3a
       -0.005930638 -0.0013135308 -0.0065014525 0.0007665321
000220 8b e9 00 bc 19 ce 3a 3b 8b 2d 10 bc 24 d2 db 3b
       -0.007868181 0.0028504191 -0.008799921 0.0067084003
000230 0d 2d af bb 35 95 62 3c 09 fa 81 3c db 21 05 3d
       -0.0053459466 0.013829519 0.015866296 0.03250299
000240 22 eb 42 3b 1d eb 2b 02 d2 1a 69 ba 30 24 1a bc
       0.00297422 1.263057e-37 -0.0008892241 -0.009408042
000250 71 71 32 bc a8 81 65 bc 96 3f 66 bc a4 a3 f9 bb
       -0.010891304 -0.014007963 -0.014053246 -0.0076183844
000260 11 3a 4f bc f0 68 55 bb 50 cb 34 bc 6b c8 c8 b9
       -0.012648121 -0.0032563768 -0.011034802 -0.00038296296
000270 d6 a1 0c bc 5f 31 b1 3a e4 09 9b bb 5a cd bb 3a
       -0.008583507 0.0013518742 -0.0047314037 0.0014328167
000280 fe 97 d8 bb be e3 b2 3a a5 96 3e bb 29 f0 6f 3a
       -0.0066099158 0.0013648195 -0.002908149 0.0009152913
000290 70 c8 71 bb 19 b2 2e 39 cc 78 85 bb 03 53 24 3a
       -0.0036893152 0.0001666028 -0.004073238 0.0006268473
0002a0 6a 6d 86 bb 26 1d 70 b8 62 6e a4 bb 1c f6 0b b9
       -0.0041023986 -5.7247606e-05 -0.0050180415 -0.00013347756
0002b0 f1 04 d7 bb f6 b2 03 3a f4 cd 32 bc 82 79 69 3b
       -0.0065618684 0.00050239207 -0.010913361 0.0035625403
0002c0 f8 1a c5 bc 39 cd 3b 3c 37 b6 2c bd 2c b0 a4 3c
       -0.024060711 0.011462503 -0.04216596 0.020103537
0002d0 97 13 4f bb e0 86 70 01 00 6e 92 3b 90 43 62 3c
       -0.003159737 4.4177806e-38 0.0044686794 0.0138100535
0002e0 35 08 6f 3c 46 98 97 3c dd 2e 9a 3c cf 79 4f 3c
       0.014589359 0.018505227 0.018821174 0.012663319
0002f0 a2 25 92 3c 87 02 c5 3b af bd 7c 3c 60 97 12 3b
       0.01784021 0.006012264 0.0154260835 0.0022368059
000300 fb e2 23 3c 34 05 c5 b9 6d 78 dc 3b b2 b5 8e ba
       0.010002847 -0.00037578645 0.006728223 -0.001088789
000310 70 6d bf 3b ed 9d ad 39 65 37 99 3b 5a 77 71 b9
       0.0058419034 0.00033114795 0.004675793 -0.00023028013
000320 ba d5 b9 3b 29 73 c4 39 6e d1 c0 3b 89 99 20 3a
       0.00567123 0.00037469834 0.005884341 0.0006126394
000330 73 c0 d0 3b b8 08 8d 3a 68 00 f4 3b 0f 77 1d 3a
       0.006370598 0.0010760045 0.0074463375 0.0006006816
000340 71 85 20 3c fd ed ac b9 e7 ca 4a 3c d0 b8 3f bb
       0.00979744 -0.00032983712 0.012377477 -0.0029254444
000350 62 fe 85 3c 61 ba c8 bb dc 4b e0 3c 87 ed 1f bc
       0.01635665 -0.0061257337 0.027379923 -0.009761221
000360 8b 5b 58 3b 42 a7 a0 81 57 a1 a3 3b 3a bc 5d bb
       0.0033013548 -5.901472e-38 0.0049935984 -0.0033834116
000370 c1 a7 37 3c a8 60 01 ba 33 c4 33 3c 1a 88 49 bb
       0.011209429 -0.00049353624 0.0109720705 -0.003075129
000380 8e 9f 15 3c 53 f0 54 bb 2f a6 1f 3c a8 f5 b2 bb
       0.009132279 -0.0032491877 0.009744211 -0.0054614134
000390 a4 bf ee 3b 67 7a fb bb 77 11 7a 3b 04 4c cf bb
       0.007286029 -0.0076745036 0.0038157383 -0.0063262004
0003a0 76 c9 14 3c 2a 53 03 bc 2c 64 d2 3a 07 1d a1 bb
       0.009081235 -0.008015433 0.0016051582 -0.0049167904
0003b0 3d 53 8e b8 f3 66 1a bb db 5c f1 b9 c1 60 48 bb
       -6.786592e-05 -0.0023559898 -0.00046036285 -0.0030575248
0003c0 56 e5 c6 ba 07 5e c8 ba 73 af a3 ba 7c 95 02 3a
       -0.0015174549 -0.0015286811 -0.0012488201 0.00049813814
0003d0 fa dd b3 3a d0 fe 11 3a 00 cd 17 3c c3 fa 09 bb
       0.001372277 0.0005569281 0.009265184 -0.0021054007
0003e0 0b 96 77 3c 1d b1 e8 bb 3b 96 a2 3c 88 b3 ea bb
       0.015111457 -0.0071011917 0.019847026 -0.007162515
0003f0 32 20 17 bc 78 b2 32 80 6b ac ba 3b 65 56 06 bc
       -0.009223985 -4.655797e-39 0.0056968234 -0.008199309

convs_bc.bias f4 [4, 32, 1]
000000 98 19 2a bc a8 f4 bb 3b 8f df f5 3b ca 03 bb bc
       -0.010382079 0.0057359524 0.007503457 -0.022828955
000010 56 67 35 bb 04 a4 c3 bb 1e 21 c1 bb 3c 54 29 3c
       -0.0027680001 -0.00597048 -0.0058938405 0.010335024
000020 61 0b 9b 3c 92 e5 cf 3b 27 c3 e6 bb 5d 7c 8c 3b
       0.018926324 0.0063445056 -0.007042307 0.004287286
000030 96 24 85 bb 2e 44 f2 3b 02 f8 b5 3b 61 06 3b 3c
       -0.0040631993 0.0073933816 0.0055532465 0.011415095
000040 f5 e9 5e bc 63 8c 42 3c cf 91 22 bb 12 69 a2 3b
       -0.013605584 0.011874291 -0.0024806147 0.004956373
000050 78 6a 1d 3c 01 a1 36 3c e6 0c aa 3b 20 1a 37 3b
       0.009607904 0.011146785 0.005189526 0.0027939156
000060 0f 5a 2d 3d 25 cb 96 3b 9f ee 86 3c df 8b fd 3b
       0.042322215 0.0046018534 0.016471205 0.007737621
000070 b7 00 89 3c 37 41 69 bb 3a d9 f4 3b 25 ad 42 bc
       0.016723974 -0.003559185 0.0074721845 -0.011882101
000080 a5 0e 49 bc 04 b7 26 3c 85 bb f4 3b 2a 65 12 3c
       -0.012271558 0.01017547 0.007468643 0.008935252
000090 64 33 80 bb c4 1e 8e bb 1d 65 aa bb 7e 44 10 3c
       -0.0039123762 -0.0043371636 -0.005200042 0.008805392
0000a0 a3 bb 0a bc a9 5b 33 3c ab 19 c0 bb 65 6b df 3b
       -0.008467588 0.010947146 -0.005862435 0.0068182223
0000b0 1a a6 2e bb 96 82 0d 3c 11 16 14 3c 55 f9 15 3c
       -0.0026649297 0.008637091 0.009038464 0.009153684
0000c0 35 d6 0f 3c c1 8e 35 3c 48 c7 f1 3a 73 c7 20 3b
       0.008779098 0.011081398 0.0018446231 0.0024532943
0000d0 4b 44 2e 3c cb 96 27 3c 88 2f 1e 3c b8 80 fc 3b
       0.0106363995 0.010228823 0.009654887 0.007705774
0000e0 ed b5 d2 3b e1 88 da 3b 47 eb 3d 3c 00 71 0f 3c
       0.0064303786 0.0066691493 0.011591739 0.008754969
0000f0 e6 ee 44 3c 2a 74 8e bb 88 3b fd 3b bb a1 89 bc
       0.012019848 -0.004347344 0.007728044 -0.016800752
000100 47 c4 1e bc f3 24 17 3c 6e 4d d0 3b 90 04 0d 3c
       -0.009690351 0.009225118 0.0063568866 0.008607045
000110 57 7b 27 bb 15 fd 62 bb c3 13 d0 bb ae c2 16 3c
       -0.0025555694 -0.0034635712 -0.006350012 0.009201689
000120 ac 46 ee bb 85 80 3e 3c 3a e8 fb bb 26 54 b1 3b
       -0.0072716083 0.011627321 -0.0076875957 0.0054116426
000130 ae 87 52 bb e7 08 f4 3b c4 89 b8 3b cb f2 36 3c
       -0.0032124328 0.0074473503 0.0056316573 0.011166285
000140 f2 1e 09 3c f8 1e 04 3c 1b 69 4e 3a 64 1d 22 3b
       0.008369194 0.008064024 0.00078739383 0.0024736756
000150 e1 08 16 3c d1 c0 26 3c 5f 51 02 3c 62 b5 eb 3b
       0.00915739 0.010177807 0.007953971 0.0071932534
000160 3f 76 c6 3b be ca b0 3b cc 77 29 3c 5b 7c 22 3c
       0.0060565765 0.0053952625 0.010343503 0.009917344
000170 94 6a 46 3c 3b 1e d0 bb 49 82 fc 3b 4f c3 3c bc
       0.012110371 -0.00635126 0.007705961 -0.011521175
000180 3e 22 3e bc c7 01 2a 3c 69 fa d5 3b 84 ab 14 3c
       -0.011604844 0.0103764 0.0065300954 0.009074096
000190 b5 1b 75 ba 38 6c 97 b9 d0 31 f8 bb 0b 02 22 3c
       -0.0009350137 -0.00028881594 -0.0075742975 0.009888182
0001a0 b3 06 41 bc 62 58 64 3c d3 d3 39 bc 90 36 c1 3b
       -0.011781382 0.013937088 -0.011342007 0.005896397
0001b0 82 2b 2f bb 7c a5 04 3c c0 b1 22 3c b7 31 09 3c
       -0.0026728814 0.008096095 0.009930074 0.008373669
0001c0 1a 1f 02 3c c3 f3 30 3c 6a a0 b2 ba a0 fe 94 3a
       0.0079419855 0.010800305 -0.0013628129 0.0011367388
0001d0 ec 9e 1b 3c 02 30 1b 3c b0 b7 26 3c 6f 88 f7 3b
       0.009498339 0.009471895 0.01017563 0.007554106
0001e0 34 35 ec 3b 0f d5 f7 3b 44 e2 2e 3c 1d 90 27 3c
       0.0072084907 0.0075632404 0.010674063 0.01022723
0001f0 22 a6 42 3c c2 e0 dc bb 09 6b 1a 3c 19 26 28 bc
       0.011880429 -0.0067406604 0.009424933 -0.010262989

convs_bc.bias_bc f4 [4, 32, 1]
000000 15 58 78 b9 91 18 89 39 67 b5 88 b9 29 37 a8 39
       -0.00023683936 0.0002614898 -0.00026075097 0.00032084555
000010 c7 8b 48 ba 99 cf a6 b9 f8 7c 52 39 83 d5 87 b9
       -0.0007650223 -0.0003181666 0.00020073715 -0.00025908285
000020 f6 3c da 36 9a f8 73 ba ce 66 29 3b 56 46 1f b7
       6.504003e-06 -0.0009306759 0.002584863 -9.493515e-06
000030 b1 01 44 b8 bf a6 be b6 a0 b1 2e ba 2f 00 6e b9
       -4.6731617e-05 -5.681853e-06 -0.00066640414 -0.00022697517
000040 b7 63 8b ba bb c6 06 3a 42 7f d1 39 ed 26 5f b9
       -0.0010634576 0.00051413075 0.000399584 -0.00021281438
000050 17 3b a3 38 34 e7 46 ba ac 19 89 38 a8 16 5f 3a
       7.783452e-05 -0.00075875525 6.537451e-05 0.0008510151
000060 5e 16 e2 3a 6f 34 06 3b af 0c 21 3b 39 2b d4 39
       0.0017249098 0.002047803 0.002457421 0.00040467994
000070 58 a7 20 38 db 92 0c ba 17 be bd ba c5 6f 94 3a
       3.8302824e-05 -0.00053624593 -0.0014476207 0.0011324814
000080 dc 07 34 ba b6 22 1a b8 a4 06 ce b9 84 67 95 3a
       -0.0006867626 -3.674879e-05 -0.0003929633 0.0011398648
000090 8a ae d3 b8 c3 7d 3c 3a 3f 7f 20 b9 d9 85 fc 39
       -0.000100937745 0.0007190371 -0.00015306192 0.0004816491
0000a0 b2 2d d1 39 3d 96 d6 39 4b 5e da ba f9 6d 5f 3a
       0.00039897632 0.00040929197 -0.0016660182 0.0008523162
0000b0 42 48 a4 b9 4b 7a 07 39 49 10 4c 38 f0 d5 50 ba
       -0.00031334354 0.00012920161 4.8652557e-05 -0.00079664495
0000c0 72 aa f5 b8 70 72 b7 b9 4f b1 0e ba e3 49 dc 39
       -0.00011714258 -0.00034989743 -0.0005443291 0.0004201672
0000d0 a6 1a 9c 39 cd dd 74 ba 1e 1c 42 3a 37 d9 53 39
       0.00029774493 -0.0009340912 0.00074047025 0.00020203447
0000e0 6b f5 63 3a fd 8b 46 ba 42 10 4d ba ff 79 38 3a
       0.0008695933 -0.00075739605 -0.0007822552 0.0007037222
0000f0 d1 6f af b4 e1 29 8a ba 92 4d d0 b9 f9 d6 a5 ba
       -3.2677647e-07 -0.0010541045 -0.00039730646 -0.0012652568
000100 ff f4 ae ba 8e d8 c3 37 c4 39 34 3a db 0b 87 39
       -0.0013348161 2.3346653e-05 0.0006875063 0.0002575804
000110 4d a6 20 b9 e2 86 ec b9 43 18 52 3a 2c 38 99 ba
       -0.00015320741 -0.00045113923 0.00080144795 -0.0011689714
000120 fe bc f6 3a 14 90 01 ba af 65 2f 3a b9 a0 a1 b7
       0.0018824635 -0.0004942429 0.0006690872 -1.9267538e-05
000130 07 8a 0c ba a6 a3 f0 39 4e 9d ce ba 75 9e 00 3a
       -0.0005361144 0.00045898295 -0.0015763433 0.00049064244
000140 63 e4 39 ba d0 b7 c2 38 6d 8b 78 39 fe 29 75 39
       -0.0007091222 9.2848786e-05 0.00023703063 0.00023380664
000150 8c 43 22 b9 32 96 86 3a a2 70 b7 b9 ed 12 46 ba
       -0.00015474687 0.001026815 -0.00034988398 -0.0007555921
000160 31 92 ef b9 de 17 5c b8 3b c6 03 ba 69 03 29 3a
       -0.00045694553 -5.2474315e-05 -0.0005026792 0.00064473465
000170 fe 2a 0b 3a e6 84 69 b9 9c 92 3e 3a 46 68 70 3a
       0.00053088355 -0.0002227012 0.00072697713 0.00091708114
000180 89 b5 81 39 6e b7 75 38 40 dc 21 3a ad 87 9d ba
       0.00024740052 5.8583384e-05 0.00061744824 -0.0012018584
000190 ea 9d 95 ba 7f aa 8b 39 96 5f b6 3a 72 24 bc 39
       -0.001141486 0.00026639175 0.0013913985 0.00035885308
0001a0 ff 2d cf 39 3b 26 7c 39 ff b0 a4 3a 2f cd 87 3a
       0.00039516386 0.00024046835 0.0012564956 0.0010360832
0001b0 6e fd cf 3a e4 bb 6a 39 3c 91 d6 39 4d 5f 2d ba
       0.0015868375 0.00022385974 0.0004092547 -0.0006613627
0001c0 fe a3 ad b9 89 13 8e ba 41 40 02 bb 0b 8a ca b8
       -0.00033119315 -0.0010839562 -0.0019874724 -9.657823e-05
0001d0 4d 8d 04 3b 89 9e 86 39 75 32 36 b9 37 3a 3d 3b
       0.0020225823 0.0002567659 -0.00017375669 0.002887381
0001e0 78 ba 15 3b d8 5b c5 b9 ac f0 18 3a f0 23 e1 b9
       0.002284674 -0.00037643197 0.0005834203 -0.0004294212
0001f0 aa 28 21 3a 72 f3 e2 3a a4 ec 42 ba 9f f7 c0 b8
       0.0006147722 0.0017314984 -0.0007435775 -9.2013965e-05
