neuraloperator/examples/para/fno_bc_para_202305121525_001_modes32_epochs250.pth (torch, 540915 bytes, 15 tensors)

convs.bias f4 [4, 32, 1]
0	0x365310b5	3.1451175e-06
1	0x3c02e175	0.007988323
2	0xbb69ef67	-0.0035695673
3	0x3c37f0e6	0.011226868
4	0x3c038909	0.008028277
5	0x3b25935b	0.0025264833
6	0x3c40f620	0.011777431
7	0x3c41efe5	0.0118369805
8	0x3881da6d	6.191884e-05
9	0xb8820814	-6.200388e-05
10	0xb793d1b4	-1.7621416e-05
11	0x3c3a88be	0.011385141
12	0x3c3bfb63	0.0114735095
13	0x3c758f6c	0.014987808
14	0x3c4eec7e	0.012629626
15	0x3c3a5e2f	0.011374994
16	0x3c5c6192	0.013450997
17	0x3c5d18f5	0.01349472
18	0xbac10606	-0.0014726527
19	0x3c5046ac	0.012712162
20	0x3bbd83e1	0.0057835435
21	0x3a38f1fc	0.00070551015
22	0x364dcd1a	3.0666765e-06
23	0x3c859a19	0.016308831
24	0x3bc3b7af	0.0059728245
25	0xbc4507df	-0.012025802
26	0xb81fadc3	-3.8070382e-05
27	0x3c4fb302	0.012676956
28	0x3c574194	0.013138194
29	0x3c5a2055	0.013313373
30	0x3bdf50e2	0.006815062
31	0x3c40d66b	0.011769871
32	0xbbd8845f	-0.0066075767
33	0xbbfff004	-0.0078105945
34	0xbbc98490	-0.006149836
35	0x3c3ce493	0.011529106
36	0xbbd45b7e	-0.0064806333
37	0xb9a18aff	-0.00030811873
38	0xbc1f98b5	-0.009740998
39	0x3c6dc398	0.014511965
40	0x3c35963d	0.011083183
41	0xbbf6575b	-0.007517738
42	0x3c548d70	0.012973174
43	0x3c139abd	0.00900906
44	0x3c3b0935	0.011415769
45	0xbb9cf912	-0.0047904337
46	0x3c531e82	0.012885692
47	0x3c39e5b3	0.0113462685
48	0x3c3b645d	0.011437503
49	0x3c4fd552	0.012685137
50	0xbaee5828	-0.0018184232
51	0x3c580799	0.013185405
52	0x3c43ddb5	0.011954715
53	0xbbe1e570	-0.006893806
54	0xbc0c4895	-0.008562227
55	0x3c46961e	0.012120752
56	0xbbf44786	-0.0074548153
57	0xbc31fce4	-0.0108635165
58	0x3c6df12b	0.014522831
59	0x3c4e16ac	0.012578648
60	0x3c3bc464	0.011460397
61	0x3c4c70e0	0.012478083
62	0xbb9dccb1	-0.004815661
63	0x3c11e359	0.008904302
64	0xbbcc0035	-0.0062256106
65	0xbc090a38	-0.008364253
66	0xbbb3a915	-0.0054828026
67	0x3c3d6240	0.011559069
68	0xbbbb92bf	-0.0057242806
69	0xbbdef88c	-0.0068045314
70	0xbb8c986a	-0.00429063
71	0x3c53275a	0.0128878
72	0x3bf95ed7	0.0076101827
73	0xbb599a40	-0.0033203512
74	0x3c524fcd	0.012836409
75	0x3c148934	0.009065915
76	0x3c42ebfa	0.0118970815
77	0xbbc81316	-0.006105791
78	0x3c437f7a	0.011932248
79	0x3c5bedef	0.013423427
80	0x3c539511	0.012913958
81	0x3c2ed2ab	0.010670344
82	0xbbf7f40a	-0.0075669335
83	0x3c5944b6	0.013261011
84	0x3c48b4ad	0.012250108
85	0xbbb3ca9d	-0.0054868
86	0xbbcba703	-0.0062149777
87	0x3c5f52aa	0.0136305485
88	0xbb5b3b5a	-0.0033452124
89	0xbc398e6a	-0.011325458
90	0x3c60103b	0.013675745
91	0x3c41688d	0.011804712
92	0x3c3ac0a5	0.011398469
93	0x3c4ce677	0.012506119
94	0xbbf8a956	-0.007588546
95	0x3b8086c0	0.0039223135
96	0xbc5fc99c	-0.013658907
97	0xbc559e75	-0.013038267
98	0xbc037c6b	-0.008025269
99	0x3c47f070	0.012203321
100	0xbc3d75d6	-0.011563739
101	0xbc05959f	-0.008153348
102	0xbc5b9ba4	-0.013403807
103	0x3c4bb582	0.012433412
104	0x3c025097	0.007953784
105	0xbc66269d	-0.014047292
106	0x3c49eb1e	0.012324123
107	0x3bb7dacf	0.005610801
108	0x3c058a0f	0.0081505915
109	0xbc351809	-0.011053094
110	0x3c3f03c7	0.011658615
111	0x3c3db82f	0.011579557
112	0x3c284e62	0.010272594
113	0x3c3c6ae7	0.011500097
114	0xbc761bad	-0.015021247
115	0x3c68d8be	0.014211832
116	0x3c5318d9	0.012884342
117	0xbc4c3161	-0.012462945
118	0xbc068727	-0.008210934
119	0x3c54b0f9	0.012981647
120	0xbc600920	-0.013674051
121	0xbc1bcaed	-0.0095088305
122	0x3c2c7ec9	0.010528275
123	0x3c4d6131	0.012535379
124	0x3c28c93d	0.010301885
125	0x3c0ed5f8	0.008718006
126	0x3a68c012	0.00088787184
127	0xbbb126e7	-0.005406249

convs.bias_bc f4 [4, 32, 1]
0	0xba6e3788	-0.00090872543
1	0xba0ef25c	-0.00054529845
2	0xba82cb10	-0.000997873
3	0x3aa39ae4	0.0012482074
4	0x3a8be64f	0.0010673496
5	0xba16d524	-0.00057538063
6	0xba880989	-0.0010378818
7	0x3a06768f	0.0005129361
8	0x3a4745d4	0.0007601653
9	0xb9e2dfa1	-0.00043272696
10	0xb98ce525	-0.00026873607
11	0x39d928ef	0.00041419963
12	0xba7b9397	-0.0009596883
13	0xba97cfb6	-0.0011582288
14	0xb9813138	-0.00024641468
15	0x39490917	0.0001917224
16	0x3a0d25ca	0.0005384354
17	0x393e032b	0.00018120992
18	0xba8d67bc	-0.0010788362
19	0xba3625cf	-0.0006948383
20	0xbb19dc0b	-0.0023477103
21	0x3a780131	0.0009460627
22	0x3a3ef54d	0.00072844775
23	0xb9967d5f	-0.00028703638
24	0xb9d338f8	-0.000402875
25	0x3aa479a2	0.0012548456
26	0x3a8d3cd1	0.0010775571
27	0x399e5721	0.00030201024
28	0x3a2a871c	0.0006505118
29	0x3a87c0ce	0.0010357143
30	0x398c6743	0.00026779817
31	0x3a16eef8	0.0005757655
32	0xbb0e622e	-0.0021726
33	0x3a9bbc32	0.0011881648
34	0xba177983	-0.00057782995
35	0xba1f6ab8	-0.0006081271
36	0xba3e8a4a	-0.00072685315
37	0xb9a37440	-0.00031176396
38	0x3a627d84	0.0008639919
39	0xbab85a66	-0.0014065027
40	0xba93ed38	-0.0011285907
41	0xba4958cc	-0.0007680773
42	0x3aab028f	0.0013047027
43	0x396a83fe	0.0002236515
44	0x39ef9241	0.000456946
45	0x39dba2d2	0.00041892246
46	0x3a6b72ad	0.00089816266
47	0x3b059812	0.002038483
48	0x3a513810	0.0007981071
49	0xb9bcbc17	-0.00035998292
50	0x38a36a4a	7.7922436e-05
51	0xb94e29be	-0.00019661241
52	0x3a8ea446	0.0010882698
53	0x39eb8bf1	0.00044926957
54	0x395d3748	0.00021096796
55	0xba966e76	-0.0011477012
56	0x3a1ea252	0.00060514093
57	0xbafd1cf9	-0.0019311003
58	0x3aa1c59e	0.001234222
59	0xba1722de	-0.00057653885
60	0xba8a119b	-0.0010533811
61	0x39b9d17e	0.00035442034
62	0xb972860d	-0.00023128856
63	0x3a030bdb	0.000499902
64	0x394f18a6	0.0001975024
65	0xb8e47535	-0.00010893719
66	0xb67ab11a	-3.735599e-06
67	0x3ab3a9d3	0.0013707228
68	0x386ba587	5.6182525e-05
69	0xba9ebdcd	-0.0012111008
70	0xba04e66b	-0.00050697353
71	0x3a6d2396	0.0009046135
72	0xba579dcb	-0.0008225112
73	0x3a40b176	0.00073506625
74	0xba2b89a7	-0.0006543644
75	0x3a29c6c9	0.00064764597
76	0x3aa9237d	0.0012904253
77	0xbaf20102	-0.0018463435
78	0x3a2ea9a3	0.0006662851
79	0x37a92eb0	2.016811e-05
80	0x39acc155	0.0003295044
81	0x3a7781c0	0.00094416365
82	0xba658177	-0.00087549485
83	0x3a8bd590	0.0010668505
84	0xb8b2c645	-8.524632e-05
85	0x3a461075	0.0007555553
86	0x3a20d379	0.00061350275
87	0x3981cb9f	0.00024756507
88	0x3952872a	0.00020077513
89	0xb8c12732	-9.210258e-05
90	0x3a80ec7d	0.0009836104
91	0xbb1489d1	-0.0022665153
92	0x3925e485	0.00015820756
93	0x3a6fb41e	0.0009143966
94	0xba85526e	-0.0010171661
95	0xb6664056	-3.431012e-06
96	0x3b040126	0.0020142286
97	0x3923b4dd	0.00015612268
98	0xbad2d111	-0.0016084035
99	0x3ad609a4	0.0016329777
100	0x390af0c4	0.00013250398
101	0x399a3e4d	0.00029419587
102	0x3a40a645	0.0007348995
103	0xba45e6aa	-0.0007549325
104	0x3946f4b5	0.00018973912
105	0x393e0fdb	0.00018125719
106	0x3abb899f	0.0014307982
107	0xbb30beeb	-0.0026969265
108	0x3a4a6481	0.0007720665
109	0x3a0f10dc	0.00054575293
110	0x3b08bf4a	0.002086597
111	0xba26146d	-0.0006335441
112	0x3893ccc8	7.04765e-05
113	0x3a0854e4	0.0005200638
114	0xbae12ac2	-0.001717888
115	0x3a88ff8c	0.0010452135
116	0xba8275a6	-0.0009953275
117	0xb944e66b	-0.00018777854
118	0xb804eb40	-3.1690346e-05
119	0x39f316e6	0.00046365632
120	0xba028346	-0.0004978668
121	0xba0cc6b1	-0.00053701835
122	0xba9a8c81	-0.0011791141
123	0x3a294591	0.00064572046
124	0x3a14c30c	0.0005674816
125	0x3ae2e693	0.0017311148
126	0xbadd3ea0	-0.0016879626
127	0x37a1054a	1.9195159e-05

convs.weight.0.tensor f4 [32, 32, 16, 2]
0	0xb7b94eef	-2.2090475e-05
1	0x8239741e	-1.3624977e-37
2	0x30ff2eaa	1.8566955e-09
3	0xb186b8e1	-3.9209316e-09
4	0xb009de0f	-5.0155874e-10
5	0xb0c5bc7b	-1.4387206e-09
6	0xb047dc4c	-7.270884e-10
7	0xb0b327a6	-1.3035233e-09
8	0xb021de73	-5.888758e-10
9	0xb0a64133	-1.209662e-09
10	0xb02af9cd	-6.220063e-10
11	0xb03df8eb	-6.9111533e-10
12	0xafe95fc7	-4.2450507e-10
13	0xb0461f64	-7.207659e-10
14	0xaf9b6501	-2.8266103e-10
15	0xb00664d9	-4.889223e-10
16	0x2d928b05	1.6660015e-11
17	0xaf8d8c92	-2.5747632e-10
18	0x2eab2c5e	7.784061e-11
19	0x2dd4c1df	2.4187706e-11
20	0x2f88e435	2.4900407e-10
21	0xaed06650	-9.476919e-11
22	0xaeb61a52	-8.281077e-11
23	0xb0073f66	-4.920281e-10
24	0xaf0f2cc9	-1.3021685e-10
25	0xb06a6199	-8.52674e-10
26	0x2e36038a	4.1385152e-11
27	0xb0c9d351	-1.4684735e-09
28	0xb03c06a5	-6.8403444e-10
29	0xb186e916	-3.926412e-09
30	0xb0a35c29	-1.1886004e-09
31	0xb0b50016	-1.3169508e-09
32	0xbc08cf47	-0.0083502
33	0x0241b6e4	1.4231888e-37
34	0x3720c8dd	9.58351e-06
35	0xb635ddc3	-2.7100184e-06
36	0x36a13a49	4.804959e-06
37	0xb54a3942	-7.5334185e-07
38	0x36ab9c1c	5.1143707e-06
39	0xb53a8569	-6.9484537e-07
40	0x36978474	4.5155703e-06
41	0xb5397e9c	-6.910211e-07
42	0x365babbd	3.2733508e-06
43	0xb5091467	-5.1066166e-07
44	0x36135f2b	2.1960102e-06
45	0xb50ab3a9	-5.1670446e-07
46	0x35ad533c	1.2913729e-06
47	0xb4eff58e	-4.4695884e-07
48	0x34f66247	4.5892577e-07
49	0xb4ad74d8	-3.2308776e-07
50	0x33c27c67	9.0564576e-08
51	0xb427df62	-1.5634353e-07
52	0x33898f58	6.405634e-08
53	0xb3b7177c	-8.525873e-08
54	0x3590f40e	1.0799865e-06
55	0xb32c5b70	-4.0130033e-08
56	0x36a8e65a	5.0336066e-06
57	0x3405dae2	1.246622e-07
58	0x36969bca	4.4884846e-06
59	0xb400fa53	-1.2011996e-07
60	0x372ce43c	1.0305139e-05
61	0xb583b7db	-9.81377e-07
62	0x3629cacb	2.5301003e-06
63	0xb4be16b8	-3.5406788e-07
64	0x3b6b86b1	0.0035938437
65	0x8302cc8a	-3.8438366e-37
66	0xbc2fbade	-0.010725705
67	0x3cee432b	0.029084763
68	0xbd0e400e	-0.034729056
69	0xbcca6cc7	-0.024710072
70	0xbd51a755	-0.05118497
71	0xbd044f46	-0.032302164
72	0xbd8568dd	-0.06514142
73	0xbcfbbe2d	-0.030730331
74	0xbda12e10	-0.07870114
75	0xbd048a4c	-0.032358453
76	0xbdbb28bc	-0.09138629
77	0xbd00a2eb	-0.03140537
78	0xbdd54a18	-0.10414523
79	0xbd25511f	-0.040360566
80	0xbdec3dc0	-0.115352154
81	0xbd471a58	-0.048609108
82	0xbe0966e9	-0.13418163
83	0xbd6ec937	-0.058297362
84	0xbe1c37f3	-0.15255718
85	0xbd743a03	-0.059625637
86	0xbe26a767	-0.16274796
87	0xbd82d2d3	-0.06387868
88	0xbe138b74	-0.14408666
89	0xbd6d0c7e	-0.05787324
90	0xbda901cc	-0.08252296
91	0xbd4f2e21	-0.0505811
92	0xbdac2951	-0.08406318
93	0xbe0999ec	-0.13437623
94	0xbe1fdc02	-0.1561127
95	0xbe88068a	-0.2656749
96	0xbc427176	-0.0118678715
97	0x82ff8214	-3.7543544e-37
98	0xbc7a367d	-0.01527178
99	0xbb859378	-0.0040764175
100	0xbc9dd8dd	-0.019268448
101	0xb8b2c3fd	-8.524207e-05
102	0xbcbd32ba	-0.023095477
103	0x3aa5c64c	0.0012647598
104	0xbcd8e136	-0.026474576
105	0x3b0dc9db	0.0021635208
106	0xbcf170a0	-0.02947265
107	0x3b0b8a7f	0.0021292267
108	0xbcfd8a8d	-0.030949855
109	0x3b01697c	0.0019746711
110	0xbd08b008	-0.033371
111	0x3b1b9334	0.0023738863
112	0xbd0bd1cb	-0.03413562
113	0x3b1d5857	0.0024008953
114	0xbd12a94a	-0.035805978
115	0x3b3f58cf	0.002919722
116	0xbd14e3d5	-0.03635009
117	0x3b62656d	0.0034545318
118	0xbd186124	-0.037202016
119	0x3b7abc97	0.003825938
120	0xbd07c88d	-0.033150245
121	0x3b7f9403	0.0038998134
122	0xbcf01549	-0.029307025
123	0x3b420bef	0.0029609164
124	0xbd2e3be9	-0.042537604
125	0x3b1cfd06	0.0023954525
126	0xbd9104a1	-0.07080961
127	0x3b7c3b4d	0.0038487494
128	0xbc18b476	-0.009320369
129	0x8108a304	-2.5096213e-38
130	0x383c5d3f	4.4909535e-05
131	0xb683faba	-3.9332926e-06
132	0x380a52fa	3.2979042e-05
133	0x353e5b21	7.0913126e-07
134	0x38217155	3.849094e-05
135	0xb51e643a	-5.9005436e-07
136	0x3811b031	3.4734785e-05
137	0xb600cb0c	-1.9191675e-06
138	0x37d76a95	2.5679628e-05
139	0xb5e713c2	-1.7216591e-06
140	0x3792df68	1.7508588e-05
141	0xb6095333	-2.046302e-06
142	0x373266ae	1.0633534e-05
143	0xb5f3149b	-1.8110908e-06
144	0x3688630a	4.0646455e-06
145	0xb58fe70c	-1.0721574e-06
146	0x35b221ce	1.3271872e-06
147	0xb45707ac	-2.0026226e-07
148	0x358b19f0	1.0363856e-06
149	0x34779ef7	2.3061499e-07
150	0x37176a58	9.025061e-06
151	0x330209e0	3.0276965e-08
152	0x3814f935	3.5518042e-05
153	0x345518fc	1.984626e-07
154	0x380e7a59	3.3969383e-05
155	0xb51ed418	-5.9168224e-07
156	0x38af46f9	8.35787e-05
157	0xb644d768	-2.933166e-06
158	0x37dcb7e8	2.6311682e-05
159	0x361d857d	2.3472523e-06
160	0xba49c07d	-0.00076962245
161	0x82b8ef4e	-2.7173724e-37
162	0xbd282e36	-0.041059695
163	0xbd418566	-0.04724636
164	0xbd80424c	-0.06262645
165	0xbd660af4	-0.05616279
166	0xbd9fd9a1	-0.07805181
167	0xbd8a73b1	-0.06760348
168	0xbdb4b588	-0.08823687
169	0xbd9dd209	-0.07706077
170	0xbdca2c48	-0.09871727
171	0xbdaa2524	-0.08307865
172	0xbddce261	-0.10785366
173	0xbdbeb0a0	-0.09311032
174	0xbdec7f57	-0.11547726
175	0xbdce0a8c	-0.100606054
176	0xbe00bf86	-0.1257306
177	0xbdddd94a	-0.1083246
178	0xbe18410c	-0.14868563
179	0xbddc7e7d	-0.10766313
180	0xbe216df0	-0.15764594
181	0xbdcf49a5	-0.101214685
182	0xbe29b2a2	-0.1657205
183	0xbdbbdcb7	-0.091729574
184	0xbe213a77	-0.15744959
185	0xbd967d35	-0.073481
186	0xbde05859	-0.10954351
187	0xbd887431	-0.06662787
188	0xbe029f6f	-0.12756132
189	0xbe19a327	-0.15003644
190	0xbe6ba7c2	-0.23013213
191	0xbe91b7fb	-0.28460678
192	0xbc2b34d3	-0.010449606
193	0x82b4d284	-2.6569453e-37
194	0x397c53f1	0.00024063863
195	0xb8884b64	-6.499028e-05
196	0x393079fb	0.00016830109
197	0xb7d99386	-2.5937112e-05
198	0x395d92a3	0.00021130829
199	0xb825c7f6	-3.9525294e-05
200	0x39559ec9	0.00020372415
201	0xb853d62d	-5.0505787e-05
202	0x3921c13d	0.00015426143
203	0xb8405bef	-4.5861987e-05
204	0x38f9c054	0.00011909069
205	0xb8407bab	-4.5891542e-05
206	0x38b0f9de	8.4388754e-05
207	0xb8284bd8	-4.0124956e-05
208	0x383c3c36	4.487877e-05
209	0xb7e39955	-2.713191e-05
210	0x379d637f	1.876219e-05
211	0xb77b3416	-1.4972893e-05
212	0x37d14355	2.4946095e-05
213	0xb6afe3bf	-5.2419196e-06
214	0x39a832f6	0.00032081426
215	0xb712527d	-8.721484e-06
216	0x3a9ca55e	0.0011951139
217	0xb718f7af	-9.117574e-06
218	0x3a0ba1de	0.0005326549
219	0xb7ca4c59	-2.4115829e-05
220	0x3a04ee81	0.000507094
221	0xb76d280c	-1.4135625e-05
222	0x39f459aa	0.00046606112
223	0x37ebd5bc	2.811371e-05
224	0xbc33d64d	-0.010976386
225	0x0035d2c0	4.942884e-39
226	0xba30e664	-0.0006748198
227	0x388a833c	6.604797e-05
228	0xbaacd9fd	-0.0013187524
229	0xb9993ebd	-0.00029229178
230	0xbac6a30b	-0.0015154792
231	0xba0ea2c2	-0.0005441123
232	0xbab252a6	-0.0013604953
233	0xba304643	-0.0006724337
234	0xbaa0fab8	-0.0012281751
235	0xb9fd5759	-0.00048321
236	0xba709844	-0.0009177963
237	0xba08468c	-0.00051985006
238	0xba373e88	-0.0006990214
239	0xb9deedab	-0.00042520216
240	0xb9c7c713	-0.0003810456
241	0xb9aa9ed9	-0.00032543277
242	0xb99c9e7b	-0.00029872716
243	0xb93940f2	-0.00017667169
244	0xb9754f2f	-0.00023394519
245	0xb9b60f30	-0.0003472506
246	0xba726c5c	-0.0009247714
247	0xba1bef10	-0.0005948404
248	0xbac61c73	-0.001511468
249	0xba617347	-0.00086002465
250	0xba8cef64	-0.0010752496
251	0xbaa57e63	-0.0012626167
252	0xbaf7306c	-0.0018859035
253	0xbae505d4	-0.001747305
254	0xbacb8491	-0.0015527179
255	0x3921b6cc	0.00015422254

convs.weight.1.tensor f4 [32, 32, 16, 2]
0	0x351b516c	5.7860484e-07
1	0x024274ba	1.4286368e-37
2	0xb1040848	-1.9213235e-09
3	0xb187f107	-3.9564187e-09
4	0xb105dc1d	-1.9479167e-09
5	0xb0cd3ba3	-1.4932663e-09
6	0xb1028c26	-1.8997155e-09
7	0xb0bab9bb	-1.3586069e-09
8	0xb0d6acb9	-1.561964e-09
9	0xb0ab8fc3	-1.2482747e-09
10	0xb0b6248b	-1.3252629e-09
11	0xb05d9629	-8.061272e-10
12	0xb05f3a75	-8.121e-10
13	0xb047868b	-7.2586975e-10
14	0xb00e8fc0	-5.186358e-10
15	0xb01cf9f9	-5.71077e-10
16	0xae5d6ec1	-5.034795e-11
17	0xafb25da1	-3.244454e-10
18	0x2e62b4cf	5.154704e-11
19	0xae91ac8d	-6.624488e-11
20	0x2f3e1c9a	1.729056e-10
21	0xaf76040a	-2.2375005e-10
22	0xaf8deaa6	-2.5814478e-10
23	0xb015b021	-5.445618e-10
24	0xb022fbf5	-5.929331e-10
25	0xb078644c	-9.0364405e-10
26	0xb05092da	-7.587865e-10
27	0xb0d06628	-1.5163026e-09
28	0xb14efe49	-3.012149e-09
29	0xb18702e3	-3.9293453e-09
30	0xb0b32c08	-1.3036479e-09
31	0xb0c8759c	-1.4585342e-09
32	0x35188252	5.6814054e-07
33	0x82d3f7b5	-3.114584e-37
34	0xb1b7dae7	-5.3508873e-09
35	0xb29282a5	-1.7056047e-08
36	0xb19e5a3d	-4.608664e-09
37	0xb1c78a0d	-5.807357e-09
38	0xb1887b5e	-3.972146e-09
39	0xb197eef5	-4.4218447e-09
40	0xb14fc64c	-3.0235183e-09
41	0xb16fa50d	-3.4872898e-09
42	0xb12c5f43	-2.5083444e-09
43	0xb11659b6	-2.1878868e-09
44	0xb0cc5060	-1.4865797e-09
45	0xb106ade4	-1.9598412e-09
46	0xb0874206	-9.841308e-10
47	0xb0e284a1	-1.648136e-09
48	0xaf1c34b7	-1.4206845e-10
49	0xb0a7edab	-1.2218399e-09
50	0x2d1a845e	8.783278e-12
51	0xb026397f	-6.0472155e-10
52	0x2f73fada	2.2189842e-10
53	0xb054f9d1	-7.748016e-10
54	0xafeab456	-4.2692488e-10
55	0xb05611e8	-7.7878193e-10
56	0xb05702e4	-7.822065e-10
57	0xafbc8c20	-3.4296566e-10
58	0xb094a3f7	-1.0815019e-09
59	0xb0c5b9ef	-1.4386482e-09
60	0xb1b9bc98	-5.4056493e-09
61	0xb1cab42c	-5.899457e-09
62	0xb130ea36	-2.5744504e-09
63	0xb13f0f19	-2.780274e-09
64	0xb8558e48	-5.0915667e-05
65	0x0233bb8b	1.3204665e-37
66	0x358720a8	1.0067788e-06
67	0xb636f600	-2.7263304e-06
68	0x349c795e	2.914557e-07
69	0xb5807d1a	-9.573153e-07
70	0x33b1e172	8.283213e-08
71	0xb3e6daac	-1.0749986e-07
72	0x3122845c	2.364934e-09
73	0x34a17f7d	3.0081347e-07
74	0xb2294e3c	-9.854883e-09
75	0x35322328	6.6361326e-07
76	0xb3891acb	-6.384433e-08
77	0x350d459d	5.2627894e-07
78	0xb39ac4bd	-7.20697e-08
79	0x34ecde62	4.412023e-07
80	0xb40cec29	-1.312443e-07
81	0x345739c5	2.0044452e-07
82	0xb3c6be97	-9.2547616e-08
83	0x3434d770	1.6842182e-07
84	0xb425246a	-1.538007e-07
85	0x34a13ad7	3.0031399e-07
86	0x355f58f4	8.320342e-07
87	0x35633bd9	8.465118e-07
88	0x36159ca1	2.22939e-06
89	0x35db486e	1.6337851e-06
90	0x35aed24e	1.3025217e-06
91	0x35ee3bc1	1.7749772e-06
92	0xb490366f	-2.6861696e-07
93	0x3637ff36	2.7417677e-06
94	0xb453c9d9	-1.9724338e-07
95	0x35d8cb71	1.6152463e-06
96	0xb955aa98	-0.00020376814
97	0x018f4204	5.262463e-38
98	0xb67d3c31	-3.7734974e-06
99	0xb7312ab4	-1.0559965e-05
100	0xb72770d1	-9.980243e-06
101	0xb6f5b3ed	-7.322515e-06
102	0xb73f99dd	-1.1420311e-05
103	0xb6f360ad	-7.253219e-06
104	0xb72976b2	-1.0100821e-05
105	0xb6fe5291	-7.579402e-06
106	0xb7235184	-9.734536e-06
107	0xb6b3cb6f	-5.3582985e-06
108	0xb6e222ec	-6.7393903e-06
109	0xb6aca885	-5.1456177e-06
110	0xb6a91ff6	-5.040313e-06
111	0xb67e6392	-3.7906907e-06
112	0xb605323b	-1.9847782e-06
113	0xb61ff237	-2.3833834e-06
114	0xb577e9ca	-9.235488e-07
115	0xb4df087b	-4.1543157e-07
116	0xb36491ad	-5.3217878e-08
117	0xb5ab7405	-1.2774259e-06
118	0xb5f62dc2	-1.8341746e-06
119	0xb679e96e	-3.7239765e-06
120	0xb65bab44	-3.2733233e-06
121	0xb6e1e44d	-6.7321002e-06
122	0xb6a433d0	-4.8936126e-06
123	0xb72d17b2	-1.03171205e-05
124	0xb76bb23f	-1.4048593e-05
125	0xb7897fe5	-1.6391228e-05
126	0xb69e1910	-4.7116846e-06
127	0xb6ba261b	-5.547668e-06
128	0x3542a957	7.2517054e-07
129	0x82d5998c	-3.1385669e-37
130	0xb1962fb9	-4.371e-09
131	0xb1ff23ce	-7.4255473e-09
132	0xb132f953	-2.6044134e-09
133	0xb11cfe47	-2.2845528e-09
134	0xb10ebdef	-2.0771684e-09
135	0xb0f1a952	-1.7583182e-09
136	0xb0ce7ccc	-1.5023942e-09
137	0xb0bde542	-1.3816719e-09
138	0xb09e9249	-1.153759e-09
139	0xb070f383	-8.765754e-10
140	0xb0406407	-6.999134e-10
141	0xb063b667	-8.284133e-10
142	0xb0046367	-4.816258e-10
143	0xb048cf93	-7.3054557e-10
144	0xaf121562	-1.328622e-10
145	0xb01827b2	-5.535369e-10
146	0xae983130	-6.920897e-11
147	0xafaaac87	-3.1045408e-10
148	0x2e0d95d9	3.219278e-11
149	0xafcd6798	-3.736289e-10
150	0xaf98c53f	-2.778879e-10
151	0xafdb9a24	-3.9945391e-10
152	0xb008a47f	-4.9710275e-10
153	0xaf9b73a1	-2.8276495e-10
154	0xb022d57c	-5.9238636e-10
155	0xb04e4bcf	-7.5050094e-10
156	0xb1270df3	-2.4309628e-09
157	0xb1482cf4	-2.9129383e-09
158	0xb0baa826	-1.3581072e-09
159	0xb0a01447	-1.1647295e-09
160	0xb6d65383	-6.387419e-06
161	0x828d1aa8	-2.0733388e-37
162	0x364165fd	2.8818606e-06
163	0x34cfbd92	3.8694685e-07
164	0x358efb1d	1.0652908e-06
165	0x34d30ac3	3.9309643e-07
166	0x345e37a1	2.0695599e-07
167	0x354393cd	7.285824e-07
168	0xb470cc73	-2.242612e-07
169	0x3543435b	7.2741176e-07
170	0xb48fdff6	-2.679878e-07
171	0x355a96e0	8.143088e-07
172	0xb4da532b	-4.0666177e-07
173	0x350d698f	5.26802e-07
174	0xb4bcb087	-3.514617e-07
175	0x34ca7c82	3.7716023e-07
176	0xb4901331	-2.6836054e-07
177	0x33c1f4cf	9.031793e-08
178	0xb41fee49	-1.4894717e-07
179	0x344b444f	1.8930699e-07
180	0xb4416f50	-1.8015021e-07
181	0x340a5a3d	1.288508e-07
182	0x35032263	4.885134e-07
183	0x3529d0d5	6.3261297e-07
184	0x360b3210	2.0741754e-06
185	0x35aaa93f	1.2715244e-06
186	0x360fc8e3	2.1425592e-06
187	0x359091eb	1.0771304e-06
188	0x35924941	1.0899167e-06
189	0x3605ce05	1.9938464e-06
190	0x34996dab	2.8578265e-07
191	0x35da142a	1.6248134e-06
192	0xb4fa65ab	-4.6640102e-07
193	0x82e0c4ca	-3.3026793e-37
194	0x30460e25	7.205208e-10
195	0x31c21a6c	5.649147e-09
196	0xaf005bd4	-1.1674156e-10
197	0x30a2a375	1.1833509e-09
198	0xafe1c0ab	-4.106416e-10
199	0x3016316c	5.4639915e-10
200	0xb0122fbd	-5.318233e-10
201	0x2ebee537	8.6809164e-11
202	0xb019d978	-5.597012e-10
203	0xadac62f9	-1.9598089e-11
204	0xafedc021	-4.3246565e-10
205	0x2dad7e2d	1.9723856e-11
206	0xafb06356	-3.2084796e-10
207	0x2edf314f	1.0149625e-10
208	0xaf1d8ce7	-1.4329125e-10
209	0x2f58056c	1.9647012e-10
210	0xae40a1d1	-4.3799468e-11
211	0x2f74d774	2.2268215e-10
212	0x2d51b56a	1.19205566e-11
213	0x2efced7b	1.1501818e-10
214	0xaf8463f8	-2.4081692e-10
215	0xafc7a01c	-3.6311654e-10
216	0xb0243e5d	-5.9751476e-10
217	0xb0a1ad5c	-1.1763563e-09
218	0xb044c3f3	-7.1582845e-10
219	0xb0b161a1	-1.2906193e-09
220	0xb05713f8	-7.824492e-10
221	0xb056ff1f	-7.8215295e-10
222	0xaf1499bd	-1.351514e-10
223	0xafb32ab1	-3.2590244e-10
224	0xb8e33327	-0.00010833731
225	0x82fede26	-3.7449453e-37
226	0xb60a653a	-2.0622524e-06
227	0xb63c348e	-2.8044774e-06
228	0xb67ddf2b	-3.7829839e-06
229	0xb615f4ae	-2.2345153e-06
230	0xb688f836	-4.0820114e-06
231	0xb61783a6	-2.2577383e-06
232	0xb66df1d6	-3.545652e-06
233	0xb618125d	-2.2660454e-06
234	0xb65fdc61	-3.3357867e-06
235	0xb5cf6d04	-1.545443e-06
236	0xb61ab05c	-2.3050443e-06
237	0xb5c8f6bc	-1.497297e-06
238	0xb5e84ae6	-1.7307145e-06
239	0xb592071c	-1.0879917e-06
240	0xb547773f	-7.4306803e-07
241	0xb546969a	-7.39799e-07
242	0xb4be05ea	-3.539456e-07
243	0xb45da029	-2.0640495e-07
244	0xb3fa4fe4	-1.1656064e-07
245	0xb521a36d	-6.021499e-07
246	0xb5a7f214	-1.2512924e-06
247	0xb5b9ab0f	-1.3833359e-06
248	0xb628c92b	-2.5151046e-06
249	0xb62639a4	-2.4769479e-06
250	0xb61856c4	-2.270027e-06
251	0xb675b872	-3.6615206e-06
252	0xb6aad0b9	-5.0906933e-06
253	0xb6a99f59	-5.055143e-06
254	0xb60046ef	-1.9114775e-06
255	0xb58da2ac	-1.0552662e-06

convs.weight.2.tensor f4 [32, 32, 16, 2]
0	0x3beb3f1e	0.007179155
1	0x0080d978	1.1832957e-38
2	0x36f6d447	7.3560836e-06
3	0xb34e4a38	-4.8030614e-08
4	0x367c5971	3.7602988e-06
5	0x3204b6ac	7.724946e-09
6	0x368c9012	4.189097e-06
7	0x3115caf1	2.1797713e-09
8	0x3686e286	4.019882e-06
9	0xb2cd9aaa	-2.3935474e-08
10	0x36604276	3.3417286e-06
11	0xb2e16162	-2.6237732e-08
12	0x36318894	2.6454554e-06
13	0xb33ae799	-4.3517137e-08
14	0x360418f2	1.9684053e-06
15	0xb32fff9c	-4.0977838e-08
16	0x3592f7f5	1.0950013e-06
17	0xb333e44b	-4.1884316e-08
18	0x3525d1da	6.1772664e-07
19	0xb2d56a8d	-2.4844917e-08
20	0x34d49b92	3.960127e-07
21	0xb301561a	-3.0113462e-08
22	0x3598bda7	1.1380079e-06
23	0xb303ca99	-3.0685076e-08
24	0x35e18ef7	1.6805415e-06
25	0xb2a1dd07	-1.8843378e-08
26	0x35fcdfc1	1.8840584e-06
27	0xb2f520ee	-2.8536729e-08
28	0x379e28a8	1.8854e-05
29	0xb2f89d4a	-2.8942527e-08
30	0x37f332f7	2.899159e-05
31	0x36107ddf	2.1530939e-06
32	0x3bea2c0f	0.0071463655
33	0x82c8479e	-2.9428465e-37
34	0x377be848	1.5014848e-05
35	0x365745b9	3.207808e-06
36	0x36d195d7	6.246129e-06
37	0x35b07f33	1.3150042e-06
38	0x36d34f96	6.297555e-06
39	0x35936779	1.0982468e-06
40	0x36bf94fe	5.7095885e-06
41	0x353d8742	7.060481e-07
42	0x369738bd	4.506756e-06
43	0x34f573eb	4.5719148e-07
44	0x366fc116	3.5726166e-06
45	0x349d7f04	2.9335945e-07
46	0x36344052	2.685953e-06
47	0x345650ee	1.9959745e-07
48	0x35cec563	1.5405643e-06
49	0x33e1cc9c	1.0514597e-07
50	0x356a82c3	8.7362076e-07
51	0x33a1fd32	7.543203e-08
52	0x3519f0b3	5.7347205e-07
53	0x31f054b0	6.994547e-09
54	0x35c41bd1	1.4611234e-06
55	0xb2e882ba	-2.7067802e-08
56	0x36030277	1.9521956e-06
57	0xb3c71347	-9.270166e-08
58	0x3613b26a	2.2008558e-06
59	0xb3d0207d	-9.6916644e-08
60	0x37c67b1c	2.3660767e-05
61	0xb54d439d	-7.646684e-07
62	0x381c8933	3.7321075e-05
63	0x368e8018	4.246842e-06
64	0x3b6e08d6	0.0036321185
65	0x02fb9014	3.6963832e-37
66	0x3792b463	1.7488555e-05
67	0x380dba67	3.379062e-05
68	0x348c91c0	2.618308e-07
69	0x3733d693	1.0719191e-05
70	0xb6dddc0b	-6.6119296e-06
71	0x35452985	7.344864e-07
72	0xb71b55f4	-9.2587325e-06
73	0xb6de343d	-6.622197e-06
74	0xb7209dcd	-9.573484e-06
75	0xb7578e5c	-1.2848144e-05
76	0xb70448ce	-7.884764e-06
77	0xb731396a	-1.056339e-05
78	0xb6c941ac	-5.997912e-06
79	0xb72547b6	-9.851463e-06
80	0xb66accb1	-3.4987863e-06
81	0xb69ca5b3	-4.668452e-06
82	0xb6278c27	-2.4966519e-06
83	0xb60fdf6e	-2.1438714e-06
84	0xb608047a	-2.0268185e-06
85	0xb5c6fd8d	-1.4825943e-06
86	0xb70baa4a	-8.324694e-06
87	0xb6886c35	-4.065713e-06
88	0xb77b79e3	-1.4989145e-05
89	0xb6d306ed	-6.2890963e-06
90	0xb78a1145	-1.6458924e-05
91	0xb6e56e3b	-6.8375643e-06
92	0xb873d52c	-5.8134247e-05
93	0xb8509458	-4.972922e-05
94	0x360adf67	2.069364e-06
95	0xb6cb7e98	-6.064609e-06
96	0xbc50e526	-0.012749946
97	0x8299c168	-2.259234e-37
98	0x398eb335	0.0002721787
99	0xb8228a00	-3.8752332e-05
100	0x396e0972	0.00022700967
101	0xb805e3e0	-3.1921896e-05
102	0x3999172e	0.00029199704
103	0xb8139dae	-3.519438e-05
104	0x399c67e9	0.00029832058
105	0xb7e3d6aa	-2.716047e-05
106	0x39863133	0.00025595128
107	0xb7d8c737	-2.5841973e-05
108	0x395077ae	0.0001988101
109	0xb7ad41f4	-2.0653919e-05
110	0x3914efbc	0.00014203688
111	0xb7825fa3	-1.5541742e-05
112	0x3895383a	7.115347e-05
113	0xb70915ff	-8.170958e-06
114	0x38137a90	3.5161676e-05
115	0xb6ef2fdd	-7.128327e-06
116	0x37b05552	2.1020565e-05
117	0xb5f20780	-1.8032588e-06
118	0x38b02c9f	8.400645e-05
119	0x34b0a0e3	3.2899615e-07
120	0x39145f19	0.00014149807
121	0x36f7532e	7.370857e-06
122	0x392e3970	0.0001661533
123	0x36ab6254	5.107644e-06
124	0x3abb792b	0.0014303079
125	0x378dfc56	1.6926013e-05
126	0x3aeb4cd1	0.001795197
127	0x39bad656	0.00035636377
128	0x3bd7e86a	0.006588985
129	0x02b9a554	2.72782e-37
130	0x371dd2ef	9.407041e-06
131	0x352398b4	6.0944444e-07
132	0x367f2410	3.8018952e-06
133	0x34d83ed9	4.0278863e-07
134	0x367daa3c	3.7799027e-06
135	0x34c0cc88	3.5911603e-07
136	0x3660e06b	3.350923e-06
137	0x346785e8	2.1562266e-07
138	0x363079e8	2.6297002e-06
139	0x343a8926	1.7372494e-07
140	0x360cabd2	2.0961638e-06
141	0x3404adce	1.2356688e-07
142	0x35d63aac	1.5961318e-06
143	0x33c14953	9.0006004e-08
144	0x357bc5e5	9.379276e-07
145	0x33295163	3.94224e-08
146	0x35141e4e	5.5178396e-07
147	0x33228a3c	3.7844288e-08
148	0x34c49c07	3.662137e-07
149	0xb2517d99	-1.2193959e-08
150	0x356f6fc8	8.91971e-07
151	0xb31d10f5	-3.6569833e-08
152	0x359da449	1.1745225e-06
153	0xb3afcf57	-8.1867874e-08
154	0x35acd4ee	1.2876969e-06
155	0xb3b52a77	-8.4361936e-08
156	0x376aa656	1.3986215e-05
157	0xb4c4bad5	-3.6643783e-07
158	0x37c4ad1a	2.3445627e-05
159	0xb2d371e6	-2.4615428e-08
160	0x3c37a482	0.011208655
161	0x82fb527e	-3.6928483e-37
162	0xb82de892	-4.1463012e-05
163	0x3820d78b	3.8347713e-05
164	0xb7b9bb0e	-2.2140823e-05
165	0x36c864b1	5.9721865e-06
166	0xb7a224d0	-1.9329047e-05
167	0xb6d75d47	-6.418358e-06
168	0xb75278fc	-1.2545144e-05
169	0xb7388729	-1.0998724e-05
170	0xb6fdc544	-7.5629523e-06
171	0xb7755dfc	-1.462502e-05
172	0xb61456c7	-2.210423e-06
173	0xb73cac76	-1.1245827e-05
174	0x32a56a6f	1.9256928e-08
175	0xb718df2f	-9.11187e-06
176	0x3588190c	1.0140079e-06
177	0xb6a3a737	-4.877245e-06
178	0x347e0650	2.365789e-07
179	0xb661cc5e	-3.364657e-06
180	0x343c4c08	1.7536524e-07
181	0xb60d5f55	-2.1066128e-06
182	0xb2ca82b7	-2.3575337e-08
183	0xb6c83eed	-5.96779e-06
184	0xb67ba42d	-3.7497477e-06
185	0xb6912740	-4.325906e-06
186	0xb725f7e0	-9.892479e-06
187	0x36bccaf4	5.6264635e-06
188	0xb8964ef7	-7.167266e-05
189	0x380d8c6c	3.3747798e-05
190	0xb86ca36e	-5.641899e-05
191	0x37a87995	2.0083777e-05
192	0x3bb715af	0.0055873017
193	0x02d13a9a	3.0743426e-37
194	0x367303bb	3.6211993e-06
195	0x359875d7	1.1359178e-06
196	0x3548a5d4	7.474712e-07
197	0x34c89681	3.736241e-07
198	0x350d56c7	5.265287e-07
199	0x34a265be	3.024888e-07
200	0x34a12d9a	3.0021766e-07
201	0x341a6327	1.4378439e-07
202	0x3425af85	1.5430676e-07
203	0x33c27099	9.0543104e-08
204	0x341f1b2c	1.4817914e-07
205	0x33b62711	8.4821416e-08
206	0x341f84db	1.4856361e-07
207	0x33a47e59	7.6598276e-08
208	0x340436de	1.2313419e-07
209	0x335ef69e	5.19127e-08
210	0x33b97fa9	8.637955e-08
211	0x3341aeb3	4.5095202e-08
212	0x3382e1be	6.094659e-08
213	0x32628248	1.3184554e-08
214	0x3347e3f6	4.6540627e-08
215	0x31aafd9f	4.9764846e-09
216	0xb35a0cb9	-5.076865e-08
217	0xb2bfb74e	-2.2318684e-08
218	0xb3710aaa	-5.6121884e-08
219	0xb2e02542	-2.6093975e-08
220	0x34939371	2.7488161e-07
221	0xb4b5f15e	-3.3889495e-07
222	0x364fa047	3.0938697e-06
223	0xb5231f21	-6.076753e-07
224	0xbc5a2da3	-0.013316545
225	0x026df9c6	1.7483692e-37
226	0x38b8ea9b	8.8175024e-05
227	0xb7f5d13e	-2.9303712e-05
228	0x389f9ce0	7.610931e-05
229	0xb78b987d	-1.66411e-05
230	0x38c99d2a	9.613701e-05
231	0xb78cd656	-1.6789108e-05
232	0x38c943d4	9.597061e-05
233	0xb77c7a36	-1.5048825e-05
234	0x38ac0be6	8.2038154e-05
235	0xb7650d6a	-1.3652587e-05
236	0x3883a78d	6.2777755e-05
237	0xb7330b80	-1.0671909e-05
238	0x383c21aa	4.4854045e-05
239	0xb7087ad6	-8.134832e-06
240	0x37bfbf01	2.2857917e-05
241	0xb68e12a5	-4.2341003e-06
242	0x37475507	1.1881121e-05
243	0xb63f7418	-2.8528793e-06
244	0x370486dd	7.899213e-06
245	0xb57d87c3	-9.4447404e-07
246	0x380448c0	3.1539006e-05
247	0xb5e59428	-1.7104949e-06
248	0x385ec0a1	5.3108324e-05
249	0xb44f7348	-1.9320316e-07
250	0x386ea46d	5.6896755e-05
251	0x358c5227	1.0454722e-06
252	0x39f6e072	0.00047088
253	0xb76ab147	-1.39887625e-05
254	0x3a119679	0.0005553733
255	0x38bd10bf	9.0153415e-05

convs.weight.3.tensor f4 [32, 32, 16, 2]
0	0x3c68de0c	0.014213096
1	0x015fe030	4.1119478e-38
2	0xb9189044	-0.00014549593
3	0xb7bc3491	-2.2435825e-05
4	0x39b353ff	0.00034204122
5	0x3841ad47	4.6176163e-05
6	0x3a2b0527	0.00065239
7	0xb8960bb3	-7.1547365e-05
8	0x3a5434f9	0.0008095052
9	0xb9a81f7c	-0.00032066915
10	0x3a4ce7e9	0.000781654
11	0xb9e70440	-0.0004406292
12	0x3a44d3d6	0.00075083727
13	0xba12e2d0	-0.00056032557
14	0x3a1e879c	0.0006047429
15	0xba11ea8a	-0.000556626
16	0x39d3a4bf	0.00040367802
17	0xb9bad0b2	-0.00035632175
18	0x3971e0ec	0.00023067341
19	0xb98484b3	-0.0002527587
20	0x3a2d3a08	0.00066080736
21	0xb8685fbd	-5.5402274e-05
22	0x3ad19c10	0.0015991945
23	0xb9e563bd	-0.00043752595
24	0x3b09b5d9	0.002101293
25	0xba005ee1	-0.00048969506
26	0x3abd7db7	0.0014457022
27	0xb9ca736b	-0.00038614435
28	0x3b83c581	0.004021347
29	0x39dff021	0.00042712784
30	0x3c3e881d	0.011629132
31	0x3bb2507b	0.005441723
32	0x3c5dba98	0.013533257
33	0x023b317e	1.3752794e-37
34	0xb94f3de5	-0.00019764116
35	0xb88f6b8a	-6.838802e-05
36	0x39e178ad	0.00043005255
37	0x38c8837f	9.561236e-05
38	0x3a585697	0.0008252649
39	0xb88e173d	-6.775416e-05
40	0x3a85e800	0.0010216236
41	0xb9d98b44	-0.00041493226
42	0x3a801169	0.0009770814
43	0xba1a8ff4	-0.00058960845
44	0x3a7aa482	0.0009561257
45	0xba429d7b	-0.0007423979
46	0x3a50d590	0.00079663936
47	0xba3f8585	-0.0007305968
48	0x3a1b903a	0.0005934272
49	0xb9ef57c4	-0.00045651023
50	0x39e919fc	0.00044460583
51	0xb9b4e484	-0.00034502533
52	0x3a925945	0.001116552
53	0xb96922e3	-0.00022233608
54	0x3b1afeed	0.0023650483
55	0xba88bc49	-0.001043209
56	0x3b428bce	0.002968538
57	0xbaaa56a6	-0.0012995794
58	0x3b0305a3	0.0019992373
59	0xba5b2158	-0.00083591556
60	0x3baa438b	0.00519604
61	0x3a04e0d3	0.0005068902
62	0x3c65b73a	0.014020735
63	0x3c00eb54	0.007868607
64	0x3c3b1535	0.01141863
65	0x030ae7ce	4.0820654e-37
66	0xb815ce6c	-3.5716614e-05
67	0x38086c7b	3.2525957e-05
68	0x3902ed7c	0.00012486236
69	0xb7870285	-1.6094427e-05
70	0x396cebaa	0.00022594506
71	0xb81ef91d	-3.790214e-05
72	0x3993051b	0.0002804183
73	0xb8b1cd71	-8.478284e-05
74	0x3996f8d8	0.00028795633
75	0xb8c33e6a	-9.30995e-05
76	0x399b35e4	0.00029604055
77	0xb90d15a5	-0.00013454871
78	0x3988b9c2	0.00026078342
79	0xb913eccd	-0.00014107228
80	0x393dfa61	0.00018117718
81	0xb8f42d75	-0.00011643294
82	0x38adc0bf	8.2851846e-05
83	0xb8cbf799	-9.725913e-05
84	0x38e555e1	0.00010935567
85	0x38137479	3.5156005e-05
86	0x396284c3	0.00021602497
87	0x3a0eb5a9	0.00054439396
88	0x39338076	0.00017118626
89	0x3aa585cf	0.0012628379
90	0x3931b5cb	0.00016947759
91	0x3a0a44ae	0.00052745163
92	0x3a509b80	0.00079577416
93	0x39c40f34	0.0003739536
94	0x3b498b13	0.003075306
95	0x38b5458b	8.643706e-05
96	0xbc5c120a	-0.013432035
97	0x82d245b4	-3.0896734e-37
98	0x39bab5f6	0.00035612256
99	0x38a703e2	7.963904e-05
100	0xba432f18	-0.0007445677
101	0xb908524a	-0.00013000626
102	0xbab8467c	-0.0014059092
103	0x394387ef	0.00018647288
104	0xbae0e1d6	-0.0017157148
105	0x3a463e8a	0.00075624196
106	0xbad81986	-0.0016487099
107	0x3a87f9b5	0.0010374101
108	0xbae5928b	-0.0017514987
109	0x3aa14ffd	0.0012307164
110	0xbad2ba0f	-0.0016077178
111	0x3a98741d	0.0011631284
112	0xbab78c6e	-0.0014003643
113	0x3a317122	0.0006768872
114	0xba988c25	-0.0011638446
115	0x3a00cc4f	0.0004913257
116	0xbb03d38e	-0.002011511
117	0x38e8d289	0.00011101837
118	0xbb4807c4	-0.0030522207
119	0x3a8be494	0.001067298
120	0xbb62fadb	-0.0034634385
121	0x3aa06351	0.001223663
122	0xbb2eeee9	-0.0026692695
123	0x3a8512b6	0.0010152671
124	0xbbef8e01	-0.0073106294
125	0xba850f5d	-0.0010151673
126	0xbc8d19ab	-0.017224154
127	0xbc401433	-0.011723566
128	0x3c53e7dc	0.012933698
129	0x02bf0548	2.806796e-37
130	0xb924a34c	-0.00015701092
131	0xb825840a	-3.9462037e-05
132	0x39bd5df7	0.00036118898
133	0x38813c45	6.1624254e-05
134	0x3a36fb43	0.000698019
135	0xb89b418f	-7.403187e-05
136	0x3a632371	0.0008664644
137	0xb9bc2274	-0.00035883824
138	0x3a5ab490	0.0008342946
139	0xba03b58d	-0.00050243066
140	0x3a51bd52	0.0008000928
141	0xba26b23a	-0.0006358955
142	0x3a2972c8	0.0006463942
143	0xba25451a	-0.00063045474
144	0x39e9087b	0.00044447542
145	0xb9d4186f	-0.00040453995
146	0x3993afb9	0.00028168948
147	0xb9a0b111	-0.00030649503
148	0x3a4d42e9	0.00078301
149	0xb932c120	-0.00017047348
150	0x3aed7541	0.001811661
151	0xba563a6f	-0.00081721594
152	0x3b192bdb	0.0023372087
153	0xba851764	-0.0010154066
154	0x3ad47c52	0.0016211367
155	0xba2d8a9e	-0.0006620082
156	0x3b941f40	0.004520327
157	0x39c267fd	0.0003708004
158	0x3c4f3f16	0.012649318
159	0x3bd93c38	0.006629493
160	0x3c3a7431	0.011380241
161	0x83034a09	-3.858243e-37
162	0xb9012a5f	-0.00012318183
163	0xb6f92cd9	-7.4259992e-06
164	0x399994c1	0.00029293264
165	0x3862d9f3	5.408558e-05
166	0x3a0f6946	0.0005470704
167	0xb63911c8	-2.7577498e-06
168	0x3a32b03c	0.0006816422
169	0xb94492e6	-0.0001874674
170	0x3a2d2fc8	0.0006606546
171	0xb987c85f	-0.00025898495
172	0x3a2db7e1	0.00066268264
173	0xb9bc0d2b	-0.00035867965
174	0x3a1403d5	0.0005646323
175	0xb9c3b4fc	-0.00037328142
176	0x39d3ecec	0.00040421577
177	0xb987ffcd	-0.00025939793
178	0x3986cbd7	0.00025710344
179	0xb9279034	-0.00015980081
180	0x3a23d799	0.0006250083
181	0x389a7bd6	7.3663585e-05
182	0x3addf981	0.001693532
183	0x397ceae7	0.000241201
184	0x3b1b7320	0.0023719743
185	0x3a12d283	0.00056008267
186	0x3aaf30b7	0.0013365959
187	0x394802d2	0.00019074537
188	0x3b3a4cf0	0.0028427206
189	0x3a4348a8	0.00074494863
190	0x3c19ed0b	0.009394894
191	0x3b43571e	0.0029806565
192	0x3c454827	0.012041128
193	0x8309803a	-4.040788e-37
194	0xb853f02f	-5.053001e-05
195	0xb7577e23	-1.2844367e-05
196	0x392bf2be	0.0001639826
197	0x3860ea91	5.362422e-05
198	0x39b14075	0.00033808095
199	0x371a3ad1	9.19281e-06
200	0x39de1b2d	0.00042363387
201	0xb90af93b	-0.00013253551
202	0x39d58de8	0.00040732254
203	0xb9541b17	-0.00020227987
204	0x39c754c2	0.00038019387
205	0xb98d1b41	-0.00026913921
206	0x399be4ce	0.00029734377
207	0xb98adff5	-0.00026488272
208	0x394541af	0.00018811853
209	0xb9361840	-0.00017365906
210	0x38c25ec2	9.268291e-05
211	0xb90ab07b	-0.0001322645
212	0x396dc0ff	0.00022673978
213	0xb842f57f	-4.648184e-05
214	0x3a0fc610	0.00054845307
215	0xb9aaa6bb	-0.0003254915
216	0x3a266148	0.00063468935
217	0xb9e7da0d	-0.00044222214
218	0x3a0e49e3	0.000542788
219	0xb990cd2e	-0.0002761869
220	0x3b12e928	0.0022416804
221	0x38d96631	0.00010366401
222	0x3bc637e6	0.006049144
223	0x3b79ef1f	0.0038136912
224	0xbc4fecf3	-0.01269077
225	0x02a742bc	2.4576748e-37
226	0x3913e5dc	0.00014104642
227	0x36065b03	2.0020532e-06
228	0xb9bc1188	-0.00035871216
229	0xb820fdd8	-3.8383383e-05
230	0xba30c306	-0.0006742928
231	0x3898e93c	7.291368e-05
232	0xba596105	-0.000829235
233	0x39a273a8	0.00030985218
234	0xba52ed52	-0.0008046228
235	0x39da18dd	0.00041598725
236	0xba4e1647	-0.0007861596
237	0x3a0a708a	0.0005281052
238	0xba2a0ef7	-0.0006487215
239	0x3a07f3a1	0.0005186145
240	0xb9ec2304	-0.00045039516
241	0x39aac671	0.00032572777
242	0xb98d4e41	-0.0002695192
243	0x39635731	0.00021680888
244	0xba2c64cc	-0.0006576299
245	0xb862c58f	-5.406659e-05
246	0xbab7d411	-0.0014024993
247	0x38d3f828	0.00010107487
248	0xbae20ea5	-0.0017246796
249	0x36985e81	4.5409547e-06
250	0xbaa441b5	-0.0012531789
251	0x391f17a7	0.00015172233
252	0xbb759414	-0.0037472295
253	0xba00d658	-0.0004914752
254	0xbc316a4d	-0.010828567
255	0xbb9cdabb	-0.004786817

fno_skips.0.weight f4 [1, 32, 1]
0	0x3f15e305	0.5854953
1	0x3f74e033	0.956546
2	0x3f7ec8cd	0.9952515
3	0x3f8185ee	1.0118997
4	0x3f7a2a26	0.97720563
5	0x3f7ff163	0.999777
6	0x3f7cc13e	0.98732364
7	0x3f713e9b	0.94236153
8	0x3f15e368	0.5855012
9	0x3f15e8ee	0.5855855
10	0x3f15ef59	0.5856834
11	0x3f8154ff	1.0104064
12	0x3f818a7c	1.0120387
13	0x3f7aadb4	0.979213
14	0x3f817a6e	1.0115488
15	0x3f81b2e0	1.0132713
16	0x3f819b2b	1.0125479
17	0x3f7bff55	0.9843648
18	0x3f7f8475	0.9981149
19	0x3f81a705	1.0129095
20	0x3f6b06bc	0.9180715
21	0x3f770fcb	0.96508473
22	0x3f15e305	0.5854953
23	0x3f725a31	0.9466887
24	0x3f7c1cc0	0.9848137
25	0x3f7cf023	0.9880392
26	0x3f15e3b5	0.5855058
27	0x3f819fec	1.0126929
28	0x3f8198ec	1.0124793
29	0x3f819719	1.0124236
30	0x3f7b1d31	0.9809142
31	0x3f81810e	1.0117509

fno_skips.1.weight f4 [1, 32, 1]
0	0x3f15e302	0.5854951
1	0x3f15d24f	0.5852403
2	0x3f7e7942	0.99403775
3	0x3f8187fe	1.0119627
4	0x3f1595fe	0.58431995
5	0x3f8030ce	1.0014894
6	0x3f3323e2	0.6997663
7	0x3f67ea62	0.90592015
8	0x3f15e323	0.5854971
9	0x3f15e300	0.585495
10	0x3f15e354	0.5855
11	0x3f816cf3	1.0111374
12	0x3f818038	1.0117254
13	0x3f585fe3	0.8452131
14	0x3f81725e	1.0113027
15	0x3f81ae57	1.0131329
16	0x3f819ad1	1.0125371
17	0x3f80d29f	1.0064276
18	0x3f80397d	1.0017544
19	0x3f81a192	1.0127432
20	0x3f551fd9	0.8325172
21	0x3f61be24	0.88180757
22	0x3f15e302	0.5854951
23	0x3f708506	0.9395298
24	0x3f709e4a	0.9399153
25	0x3f7cea6c	0.987952
26	0x3f15e2f6	0.5854944
27	0x3f819e96	1.0126522
28	0x3f8198a8	1.0124712
29	0x3f818732	1.0119383
30	0x3f5d61ce	0.86477363
31	0x3f813506	1.0094306

fno_skips.2.weight f4 [1, 32, 1]
0	0x3f7e019e	0.9922122
1	0x3f7e876e	0.994254
2	0x3f7ecfdc	0.9953592
3	0x3f818886	1.0119789
4	0x3f7daf9a	0.9909607
5	0x3f7fd9d3	0.9994175
6	0x3f768722	0.96299946
7	0x3f814813	1.010012
8	0x3f80bb7e	1.0057218
9	0x3f740eca	0.95335066
10	0x3f819309	1.0122997
11	0x3f815a04	1.0105596
12	0x3f8170a8	1.0112505
13	0x3f7cda84	0.9877093
14	0x3f81722a	1.0112965
15	0x3f81ae69	1.0131351
16	0x3f819a4b	1.0125211
17	0x3f80fd24	1.0077252
18	0x3f801741	1.0007097
19	0x3f81a3a5	1.0128065
20	0x3f81840e	1.0118425
21	0x3f6124f3	0.87947005
22	0x3f77c637	0.96786827
23	0x3f817c5b	1.0116075
24	0x3f7787ea	0.96691763
25	0x3f7d3557	0.98909515
26	0x3f8155a0	1.0104256
27	0x3f819e47	1.0126427
28	0x3f8198ab	1.0124716
29	0x3f818111	1.0117513
30	0x3f6ebf8f	0.93261045
31	0x3f8059ec	1.0027442

fno_skips.3.weight f4 [1, 32, 1]
0	0x3f817cb0	1.0116177
1	0x3f81747a	1.0113671
2	0x3f7e9720	0.9944935
3	0x3f8188af	1.0119838
4	0x3f817fc5	1.0117117
5	0x3f800e6b	1.00044
6	0x3f8119d9	1.0086013
7	0x3f815dc6	1.0106742
8	0x3f8139f9	1.0095817
9	0x3f81a02b	1.0127004
10	0x3f81937d	1.0123135
11	0x3f813195	1.0093256
12	0x3f8137e9	1.0095187
13	0x3f8156b7	1.0104588
14	0x3f816f95	1.0112177
15	0x3f81af25	1.0131575
16	0x3f819931	1.0124875
17	0x3f811086	1.0083168
18	0x3f80b94c	1.0056548
19	0x3f81a788	1.0129251
20	0x3f817286	1.0113075
21	0x3f811da9	1.0087177
22	0x3f804838	1.002204
23	0x3f818f0b	1.0121778
24	0x3f81ae63	1.0131344
25	0x3f7d3844	0.9891398
26	0x3f816e5f	1.0111808
27	0x3f819dc6	1.0126274
28	0x3f819968	1.0124941
29	0x3f813f88	1.0097513
30	0x3f7d2734	0.98887944
31	0x3f7e5a94	0.9935696

lifting.fc.weight f4 [32, 1, 1]
0	0xbf811e50	-1.0087376
1	0xbee21d19	-0.44162825
2	0x3e84f441	0.259676
3	0x3f523d5a	0.82124865
4	0xbf05fa11	-0.52334696
5	0x3e68610c	0.2269327
6	0xbed6a912	-0.41925865
7	0xbf1605fb	-0.58602875
8	0xbf7a1c72	-0.97699654
9	0xbf37b7a4	-0.7176459
10	0xbf61958f	-0.88118833
11	0x3d895464	0.06705549
12	0x3f2db63c	0.6785619
13	0xbec8adb9	-0.3919504
14	0x3f0915ae	0.53548706
15	0x3ea95258	0.33070636
16	0x3f714a44	0.94253945
17	0xbdd74a41	-0.1051221
18	0x3df261c0	0.118350506
19	0x3dc47f83	0.095946334
20	0xbef2f469	-0.47452095
21	0xbcfab6d2	-0.030604754
22	0xbf695d14	-0.9115765
23	0xbf1e4c0d	-0.61834794
24	0xbe832a7f	-0.2561836
25	0x3f3926d8	0.72324896
26	0xbf68a5f3	-0.9087822
27	0x3f1b7fc5	0.60741836
28	0x3f2d775c	0.6776025
29	0x3e16afed	0.14715548
30	0xbe963304	-0.29335797
31	0x3f3fedf4	0.7497246

lifting.fc.bias f4 [32]
0	0x3f719bb1	0.9437819
1	0xbf72ecc5	-0.9489253
2	0xbd6eb9b1	-0.058282558
3	0x3ea05bbd	0.3131999
4	0x3e0170e6	0.12640724
5	0xbf7f2faf	-0.99682134
6	0xbd46614c	-0.048432633
7	0x3ea093bc	0.31362712
8	0x3f2ef7c7	0.6834683
9	0xbe3b654e	-0.18300363
10	0xbee6ee01	-0.45103458
11	0xbeef0634	-0.4668442
12	0x3ce4f52d	0.02794894
13	0x3f49cfad	0.78832513
14	0x3f1ab7e3	0.6043684
15	0x3e1e386c	0.1545121
16	0xbf373530	-0.7156553
17	0x3f5caf86	0.8620533
18	0x3f1e78e2	0.619032
19	0xbc17c99f	-0.009264379
20	0x3e3cc0a7	0.18432866
21	0xbf3d4eab	-0.7394816
22	0x3d8dc452	0.06922211
23	0x3f08c5e1	0.5342694
24	0x3f3ceb47	0.73796505
25	0xbd6a9cf6	-0.057278596
26	0xbef2af87	-0.47399542
27	0x3f33a23a	0.70169413
28	0x3eea9801	0.45819095
29	0xbf456ac0	-0.7711601
30	0x3f673696	0.90317667
31	0xbf5e43eb	-0.86822385

projection.fc1.weight f4 [64, 32, 1]
0	0xbdc00695	-0.093762554
1	0x3d2edde4	0.04269208
2	0xbdb4690d	-0.08809099
3	0x3e275427	0.16340695
4	0x3a87ad4a	0.0010351327
5	0x3e1d2d3a	0.15349284
6	0x3c9625d8	0.018328592
7	0x3c53cd63	0.012927386
8	0x3e32b4de	0.17451808
9	0xbe3ca69a	-0.18422928
10	0x3db1901d	0.086700656
11	0x3d4b51e4	0.049638644
12	0x3e0468ab	0.12930553
13	0xbe3010d2	-0.17193916
14	0x3e1e2fca	0.15447918
15	0x3dfb19dd	0.122607924
16	0xbd91106f	-0.070832126
17	0xbdf8d925	-0.12150792
18	0xbe0c8822	-0.13723806
19	0x3e15717c	0.14594072
20	0x3de8e113	0.113710545
21	0x3dcb982c	0.09941134
22	0xbe07f48a	-0.13276878
23	0xbe2591b1	-0.16168858
24	0xbe0486bc	-0.12942022
25	0xbe140218	-0.14453924
26	0x3d973052	0.07382263
27	0x3d614bc8	0.05500391
28	0xbd3707cd	-0.044685174
29	0x3dab5f6a	0.08367808
30	0xbdacb5eb	-0.084331356
31	0x3d8383d2	0.06421627
32	0x387a3e24	5.9662518e-05
33	0xba14b506	-0.00056727265
34	0xbc24c5fe	-0.010056971
35	0xbdb54e43	-0.08852818
36	0x38d188d7	9.991385e-05
37	0xb96565b8	-0.00021877035
38	0x38b0e3df	8.434778e-05
39	0x39f5b705	0.00046866402
40	0x3a7af9ac	0.0009573947
41	0x39b92008	0.00035309815
42	0x3a02c3a7	0.0004988261
43	0x3aa9132e	0.0012899393
44	0xbdd4bffe	-0.10388182
45	0xb8ebb06e	-0.00011238536
46	0xbcb9c540	-0.022677064
47	0x3cb1e904	0.021717556
48	0xbc1833f6	-0.009289732
49	0xb77c2f7c	-1.5031426e-05
50	0x3c12922e	0.008945985
51	0x3a743e55	0.00093171495
52	0xb628625d	-2.5091206e-06
53	0xba234df7	-0.0006229574
54	0xba2fffdf	-0.0006713848
55	0x3910dfa7	0.00013816227
56	0xb7b1295e	-2.1119307e-05
57	0x3d2c63c6	0.04208734
58	0xb9e243f9	-0.00043156723
59	0xbdbfa89f	-0.09358334
60	0xbc3598f2	-0.011083828
61	0xba5fc834	-0.00085366075
62	0x3ac117a8	0.0014731782
63	0xbd41949c	-0.047260866
64	0xbb3708e0	-0.0027928874
65	0xbe18c12d	-0.1491744
66	0xbd7f1e9a	-0.062285043
67	0xbe0b4ada	-0.13602772
68	0xbd86ca77	-0.06581586
69	0xbd440882	-0.047859676
70	0x3ca0f069	0.019645886
71	0x3e1f5e1a	0.1556324
72	0x3dc88b79	0.09792227
73	0x3db0497e	0.086077675
74	0x3b857dc8	0.004073832
75	0xbc265ef1	-0.010154472
76	0x3dbcb2d8	0.09213799
77	0xbe1a2a96	-0.15055308
78	0x3da460bc	0.08026263
79	0x3db6b96d	0.08922086
80	0x3e1e66f6	0.15468964
81	0xbd497735	-0.04918595
82	0x3cc7c3c0	0.024385333
83	0xbe0758e9	-0.1321751
84	0xbdc58e52	-0.09646286
85	0xbd32e22b	-0.04367272
86	0xbe2b870c	-0.16750735
87	0x3e098519	0.13429679
88	0xbdbc1008	-0.09182745
89	0xbd9a2cca	-0.07528074
90	0x3dbf869a	0.09351845
91	0x3e1d2be6	0.15348777
92	0xbda98db5	-0.082789816
93	0x3dcbcfb3	0.09951725
94	0x3d66916d	0.056291033
95	0xbd8b9539	-0.06815571
96	0xbd864dbc	-0.065577954
97	0x3dc716cf	0.09721147
98	0xbdb0db38	-0.08635563
99	0xbdd582b8	-0.10425323
100	0xbc5a46b3	-0.01332252
101	0xbd326653	-0.043554615
102	0x3dcd9f7b	0.10040184
103	0x3e281755	0.1641515
104	0x3e03d03e	0.12872407
105	0xbdecef83	-0.11569121
106	0x3d531a45	0.051538724
107	0x3d22f2f8	0.039782494
108	0xbdf58a71	-0.11989296
109	0x3c9dc8ab	0.019260725
110	0xbdc20e03	-0.09475329
111	0xbcc0d566	-0.023539256
112	0xbdc4049c	-0.09571192
113	0xbc2dec5f	-0.010615437
114	0x3da08d64	0.07839468
115	0x3e13b9ee	0.14426395
116	0xbd9e27db	-0.077224456
117	0xbe31b070	-0.17352462
118	0xbd7135e4	-0.058889285
119	0xbd83ad95	-0.064295925
120	0x3d26c141	0.040711645
121	0x3c87d414	0.016580619
122	0xbd678ada	-0.056528904
123	0x3d61c042	0.055114992
124	0x3e2bacdf	0.16765164
125	0x3dc30a67	0.095234685
126	0xbc293800	-0.010328293
127	0xbbcf1423	-0.006319539
128	0x3e048571	0.12941529
129	0x3d47022d	0.04858606
130	0x3df8062a	0.12110551
131	0xbe3de2ad	-0.18543501
132	0xbd94ad5f	-0.072596304
133	0xbe29619c	-0.16541141
134	0x3d82bc45	0.06383566
135	0x3e01b374	0.12666112
136	0xbddb02e8	-0.10693914
137	0xbdf6be10	-0.1204797
138	0xbe092598	-0.13393247
139	0xbda35b45	-0.07976393
140	0xbe09062a	-0.13381258
141	0xbe11baf1	-0.14231469
142	0x3e01d77a	0.12679854
143	0x3ddfceac	0.109280914
144	0x3dcaa91a	0.09895535
145	0xbdef4a5a	-0.11684103
146	0x3ca1db1f	0.019757805
147	0xbd6191f0	-0.055070817
148	0xbd553fa8	-0.05206266
149	0x3cce102a	0.025154192
150	0x3d28e428	0.04123321
151	0x3dad2b29	0.08455498
152	0xbcc7ed89	-0.024405258
153	0x3e22cdc8	0.15898812
154	0x3d2c88e9	0.042122755
155	0x3ca44296	0.020051282
156	0x3cf81b81	0.030286552
157	0xbbf98082	-0.0076141963
158	0x3ca9845c	0.020692997
159	0xbd176852	-0.036964722
160	0x3d7bc7bf	0.06146979
161	0x3e04da1e	0.1297383
162	0xbde34e7d	-0.11098955
163	0xbce71d33	-0.028212165
164	0x3cf3a7af	0.029743044
165	0x3dea3d1d	0.11437438
166	0xbd8f9b12	-0.07011999
167	0x3d37b97d	0.04485463
168	0xbd9a851e	-0.07544921
169	0x3deedfe2	0.11663796
170	0xbdae10ae	-0.08499275
171	0xbd9306a2	-0.071789995
172	0x3e03066f	0.12795423
173	0x3d864aa8	0.06557208
174	0xbcaa651a	-0.020800162
175	0xbdfd14f8	-0.12357515
176	0xbcb98e80	-0.022650957
177	0xbd2a01f1	-0.041505758
178	0x3df94ed0	0.121732354
179	0xbd6f7b73	-0.05846734
180	0x3dd7f858	0.10545415
181	0x3d611172	0.054948278
182	0xbe150f88	-0.14556706
183	0x3da63829	0.081161804
184	0xbba2bbe6	-0.004966247
185	0xbd038869	-0.032112513
186	0xbcc0971c	-0.023509555
187	0x3d930f14	0.0718061
188	0x3d81650a	0.063181
189	0xbda853ec	-0.08219132
190	0x3d85f601	0.06541062
191	0x39c6d9dc	0.0003792782
192	0x3e2e15b6	0.1700047
193	0x3d8ca2ef	0.068670146
194	0xbcd0073e	-0.025394078
195	0xbe14508c	-0.14483851
196	0x3e3c226a	0.18372503
197	0xbe11f75d	-0.14254518
198	0xbd494bff	-0.04914474
199	0x3c7908b8	0.015199833
200	0xbe141d01	-0.14464189
201	0xbda189aa	-0.078875855
202	0x3d966d20	0.07345033
203	0x3dea9b4f	0.11455404
204	0xbdd2629d	-0.10272715
205	0x3df9eb98	0.12203139
206	0x3d39465f	0.045233127
207	0x3c53c092	0.01292433
208	0x3e07f6fc	0.13277811
209	0xbdbb19a2	-0.091357484
210	0xbceaf956	-0.028683346
211	0xbd95fbf6	-0.07323448
212	0xbe173c94	-0.14769202
213	0x3e2ee9b4	0.17081338
214	0x3ca063b2	0.019578788
215	0x3e0c89a3	0.13724379
216	0xbd5526fb	-0.052039128
217	0xbd0c4670	-0.034246862
218	0x3deb6373	0.11493578
219	0xbd176ea4	-0.03697075
220	0x3e1a854a	0.15089908
221	0xbd1ed6f3	-0.03877921
222	0x3d7c8d72	0.06165833
223	0xbda3a41b	-0.07990285
224	0x3e247077	0.16058527
225	0x3e31e16a	0.17371145
226	0x3d62ebb8	0.05540058
227	0x3e1e6dcc	0.15471572
228	0xbe180a7d	-0.14847751
229	0x3d9943ea	0.07483657
230	0xbc8f0d0e	-0.01746228
231	0xbbd6388d	-0.006537503
232	0xbe3d9eb9	-0.18517579
233	0x3c66a3af	0.014077111
234	0xbdcefa26	-0.10106306
235	0x3d9efdee	0.07763277
236	0x3c566a07	0.013086802
237	0x3e33b6bc	0.17550176
238	0x3dbfc186	0.093630835
239	0xbccd0e05	-0.0250311
240	0xbe38fb96	-0.18064722
241	0x3c9dcedd	0.01926368
242	0xbdae6fdc	-0.08517429
243	0x3e10ee25	0.14153345
244	0xbdcad3ee	-0.09903704
245	0x3cf67833	0.030086612
246	0xbbb04acf	-0.0053800116
247	0x3e17f457	0.14839302
248	0x3d0da15c	0.034577712
249	0xbe1fdb9d	-0.1561112
250	0x3cb5e866	0.022205543
251	0x3da11dc3	0.07867005
252	0xbd560d70	-0.05225891
253	0xbcbc56bc	-0.022990577
254	0xbd0fee50	-0.035139382
255	0xbe1c9609	-0.15291609

projection.fc1.bias f4 [64]
0	0x3e34d8ba	0.176608
1	0xbc3a3f1c	-0.0113675855
2	0x3ce92cb1	0.028463693
3	0xbc0a4726	-0.008439815
4	0x3d11de07	0.035612132
5	0x3e1e6d00	0.15471268
6	0x3c0b7476	0.008511653
7	0x3e0ea90f	0.13931678
8	0x3dfd7345	0.123755015
9	0xbe0a7ac9	-0.13523401
10	0xbdec835d	-0.11548493
11	0xbe10b7f2	-0.1413267
12	0x3d4808f0	0.04883665
13	0x3d774808	0.06037143
14	0x3d6a6ee7	0.05723467
15	0xbca85eec	-0.020553075
16	0xbda6dc57	-0.08147495
17	0x3e2e1133	0.16998748
18	0x3e00a91d	0.12564512
19	0x3e308dac	0.17241544
20	0x3df5085e	0.119644865
21	0x3d836c32	0.06417121
22	0x3cc2bb15	0.023770848
23	0xbe2260c3	-0.15857224
24	0xbdb1e998	-0.086871326
25	0x3db0cf3a	0.08633275
26	0xbdce19c5	-0.10063509
27	0xbd48b7b0	-0.049003303
28	0xbdfa157c	-0.12211129
29	0x3e3d7a77	0.18503748
30	0xbd9fca91	-0.07802308
31	0x3d9819db	0.074268065
32	0x3d38e71e	0.045142286
33	0xbe2666e3	-0.16250186
34	0x3d82c68f	0.06385528
35	0x3e2d457a	0.16921034
36	0x3d91c5fd	0.071178414
37	0xbd255248	-0.040361673
38	0x3c54c473	0.01298629
39	0x3d6a19c5	0.057153482
40	0xbd475c51	-0.048672024
41	0xbdf66ebc	-0.1203284
42	0x3d5fe742	0.054663904
43	0xbcaf9ac0	-0.021436095
44	0xbd64df50	-0.05587703
45	0xbc7285c2	-0.014802398
46	0xbe07d355	-0.1326421
47	0xbd904547	-0.070444636
48	0xbe0968a2	-0.1341882
49	0x3d8516d6	0.06498496
50	0xbd67901e	-0.056533925
51	0x3d8e1955	0.069384255
52	0xbd52f5e4	-0.05150403
53	0xbd717fbb	-0.058959704
54	0xbd3ac526	-0.04559817
55	0xbe1256e3	-0.14290957
56	0x3e088ae8	0.13334239
57	0x3de5cfb7	0.11221259
58	0x3d7637ce	0.060111813
59	0x3d172530	0.0369007
60	0xbbe133b3	-0.006872618
61	0xbe20572b	-0.15658252
62	0x3bfbde2c	0.007686397
63	0x3caa0007	0.020751966
