neuraloperator/examples/para/fno_bc_para_202305121535_004_modes32_epochs250.pth (torch, 540915 bytes, 15 tensors)

convs.bias f4 [4, 32, 1]
0	0x3b8f3215	0.004369984
1	0x3c4b6b05	0.012415652
2	0x3c289cc4	0.010291282
3	0xb96efc82	-0.00022791515
4	0x3c206a09	0.009790906
5	0x3b9df7a6	0.0048207818
6	0x3bcee91a	0.006314409
7	0x361513ee	2.221433e-06
8	0xb9d5ce0a	-0.00040780037
9	0xbb1133e2	-0.0022156169
10	0x3c31021d	0.0108037265
11	0x3c42f144	0.0118983425
12	0xb992e609	-0.0002801868
13	0x3c283007	0.010265357
14	0xba0e5932	-0.0005430161
15	0xbaf94241	-0.0019016938
16	0x3c3fcd96	0.01170673
17	0xbc05c77e	-0.008165238
18	0x3c2859eb	0.010275344
19	0x3ba0d00c	0.0049076136
20	0x3babb306	0.005239847
21	0xb85109d3	-4.9838633e-05
22	0xba4a2c62	-0.0007712302
23	0x3c444594	0.011979479
24	0xba040356	-0.00050358975
25	0x3bed8810	0.007248886
26	0x3c3392db	0.010960306
27	0x3bdcf997	0.0067436206
28	0x3b9e8273	0.004837328
29	0x39f5df0c	0.00046896224
30	0x3c259410	0.010106102
31	0x3a69e43a	0.0008922253
32	0xbb819e52	-0.003955641
33	0xbc0feb90	-0.00878419
34	0x3c0df461	0.0086642215
35	0x3b3b56c0	0.0028585643
36	0x3c23769f	0.009977012
37	0xbb986d7f	-0.004651725
38	0x3b75bede	0.00374978
39	0xbbc9ca75	-0.006158168
40	0xbb438295	-0.0029832472
41	0x3c455958	0.012045227
42	0x3c4fdc81	0.01268685
43	0x3c466d4e	0.012111021
44	0xbb2199df	-0.0024658365
45	0x3c2e01c6	0.01062054
46	0x3c7fe580	0.015618682
47	0xbb1dd6d8	-0.0024084356
48	0x3c3fff42	0.011718573
49	0x3c4a392f	0.012342735
50	0x3c34460b	0.011003028
51	0xbbae424e	-0.0053179627
52	0xbc14b5f3	-0.009076583
53	0x3c3342f1	0.010941253
54	0xb8e26373	-0.000107950436
55	0x3c37dd8b	0.011222254
56	0x3c30f4b4	0.010800529
57	0x3b85beab	0.0040815673
58	0xbaed2bb4	-0.001809469
59	0x3bc92d09	0.006139402
60	0xbb6a7e03	-0.0035780675
61	0x3c448569	0.011994698
62	0x3c479e98	0.012183808
63	0xbba840ed	-0.005134693
64	0xbbb1ee43	-0.0054300143
65	0xbbbec817	-0.0058221924
66	0x3bc86292	0.006115266
67	0xbb8ed26f	-0.0043585817
68	0x3c2da50f	0.010598435
69	0xbbbc4289	-0.0057452363
70	0x3b8f0e22	0.0043656984
71	0xbbb9e673	-0.0056732236
72	0xbb914527	-0.0044332924
73	0x3c4e5ad2	0.012594895
74	0x3c39b9a1	0.011335761
75	0x3c5ac40b	0.013352404
76	0xbb3ee9a5	-0.0029130962
77	0x3c4d6081	0.012535215
78	0x3c646dac	0.013942163
79	0xbb4a82fb	-0.0030900824
80	0x3c37ffb1	0.011230395
81	0x3c49601d	0.012290982
82	0x3c3f6c5b	0.011683549
83	0xbba3a490	-0.0049939826
84	0xbbdb2fc7	-0.006689045
85	0x3c0955ba	0.008382255
86	0x3a7e9bbd	0.0009712538
87	0x3c397f9f	0.011321931
88	0x3c1a048d	0.009400499
89	0xbb176d8b	-0.0023106064
90	0xbbf0bc7f	-0.0073466892
91	0x3b9ced35	0.0047890195
92	0xbbcd32b3	-0.0062621473
93	0x3c4ee348	0.01262743
94	0x3c365f76	0.011131158
95	0xbbb2805e	-0.0054474315
96	0xbc2f6b9f	-0.010706811
97	0xbc65ab20	-0.01401785
98	0x3aa6c938	0.0012724763
99	0xbc069c35	-0.008215954
100	0x3c3ba9b4	0.011454035
101	0xbc4a7afd	-0.012358424
102	0x3ac21090	0.0014805961
103	0xbc144588	-0.009049781
104	0xbb975dbd	-0.004619329
105	0x3c53ab6b	0.012919287
106	0x3c415eee	0.011802418
107	0x3c47fc67	0.0122061735
108	0xbaf01903	-0.0018318001
109	0x3c340391	0.010987178
110	0x3c607f8f	0.013702287
111	0xbb8ec92c	-0.0043574777
112	0x3c4f0b80	0.012637019
113	0x3c39aa0d	0.011332047
114	0x3c5fa41e	0.013649968
115	0xbc4bf637	-0.012448839
116	0xbc451964	-0.012029979
117	0x3b969155	0.0045949616
118	0xbb29dfe8	-0.0025920812
119	0x3c5022b9	0.012703591
120	0x3c08826f	0.008331879
121	0xbb8d88e9	-0.0043192995
122	0xbc4ec4f6	-0.012620201
123	0xbbdf6976	-0.006817992
124	0xbc35d4d5	-0.011098106
125	0x3c307c77	0.010771862
126	0x3c2d5352	0.010578947
127	0xbc3d7921	-0.011564524

convs.bias_bc f4 [4, 32, 1]
0	0x3a1db5fc	0.00060161925
1	0xb9921de5	-0.00027869563
2	0x3ab420d8	0.0013742698
3	0xb998f159	-0.00029171517
4	0x3a82c29f	0.0009976214
5	0x3adaa739	0.0016681916
6	0xb96920bf	-0.0002223281
7	0xb99d44f4	-0.00029996748
8	0xba4ac8c8	-0.0007735607
9	0x3986d8b1	0.0002571992
10	0xb9609a24	-0.00021419727
11	0xba82b4a5	-0.0009972049
12	0x3943a6f9	0.00018658851
13	0xba405f48	-0.0007338417
14	0x3a526647	0.0008026105
15	0xb9eca9e5	-0.0004514001
16	0x3b0209e6	0.0019842326
17	0x3a0ed024	0.00054478855
18	0x39dd8671	0.0004225257
19	0x38e888f9	0.00011088135
20	0xbabdda7f	-0.0014484673
21	0xba9c321d	-0.001191679
22	0xb9e58d83	-0.00043783718
23	0x3a780982	0.0009461866
24	0xba2f3d32	-0.0006684839
25	0x39eab26a	0.00044764887
26	0xb9f9d891	-0.00047654336
27	0x3a4aebf1	0.00077408465
28	0xb90a46b4	-0.00013187045
29	0xb9fa0150	-0.00047684694
30	0xba89467a	-0.0010473274
31	0x3aa36eda	0.001246895
32	0xba114b9b	-0.0005542577
33	0xbb135d9c	-0.0022486215
34	0x393e235f	0.00018132989
35	0x38a0ad65	7.661692e-05
36	0x39c3a2cd	0.00037314594
37	0xba2796a5	-0.0006392992
38	0x391e3d2d	0.00015090844
39	0xb80f5430	-3.4172263e-05
40	0x39ff30df	0.00048673802
41	0x393ba74d	0.00017896034
42	0xb98d8dd8	-0.00026999298
43	0xbb0063e1	-0.0019590782
44	0x38f7a701	0.00011808985
45	0xba362b35	-0.00069491874
46	0x39fac4db	0.00047830385
47	0x3a92d0bb	0.0011201123
48	0x399a7d3f	0.00029466485
49	0x3ac55fad	0.0015058421
50	0xb771b9bc	-1.4407964e-05
51	0x39d59cc9	0.0004074334
52	0x3a4ffc16	0.0007933987
53	0xb9f47520	-0.00046626572
54	0xbaca206d	-0.0015421041
55	0x3a059acd	0.00050966145
56	0x39f1a9b2	0.00046093535
57	0xbb0683b1	-0.0020525272
58	0xba12cf8e	-0.0005600386
59	0xb9614c62	-0.00021486127
60	0xbb1b25eb	-0.0023673724
61	0xba9919d0	-0.0011680666
62	0xba929bba	-0.0011185326
63	0xb69a7d63	-4.6041546e-06
64	0x3ac0bf9f	0.0014705545
65	0xbac03dcf	-0.0014666858
66	0xba8a1a4e	-0.0010536404
67	0x3a1da8dd	0.00060142373
68	0xba0e4fde	-0.0005428771
69	0x3a59d843	0.00083101186
70	0x39ed6e19	0.00045286192
71	0xb8ad51e8	-8.264539e-05
72	0x39578e98	0.00020557118
73	0x3924cf68	0.00015717524
74	0xbadc486d	-0.0016806253
75	0x398713d6	0.00025763985
76	0x3a83624e	0.0010023804
77	0xba4a4bfd	-0.00077170116
78	0x3a47f58e	0.0007627838
79	0x3a473c84	0.0007600265
80	0x3a786145	0.00094749435
81	0xbab12610	-0.0013515372
82	0xba8533ac	-0.0010162494
83	0x39400626	0.00018312837
84	0xba5ea9da	-0.0008493938
85	0xb990c8bd	-0.00027615382
86	0xba0b84c9	-0.0005322216
87	0x389e2388	7.540645e-05
88	0xba24f4e3	-0.00062925945
89	0x38d3217b	0.000100675
90	0x3a6c0d3f	0.00090046594
91	0x3aa999fc	0.0012939568
92	0xbb22e16d	-0.0024853603
93	0xba3e1b04	-0.00072519504
94	0xba4c4fa2	-0.00077938486
95	0x3b06888c	0.0020528166
96	0x3a9ba1f2	0.0011873825
97	0xb8386b92	-4.39692e-05
98	0x3a9cc09c	0.0011959258
99	0x39ba50f6	0.00035537005
100	0xba83f598	-0.00100677
101	0xb84c7b4e	-4.8752227e-05
102	0x3a2cc11c	0.0006590055
103	0x3978144a	0.00023658681
104	0x39b0b4b1	0.00033703962
105	0x39487a9a	0.00019119159
106	0x39ad3986	0.0003303999
107	0x3b22f9cf	0.0024868136
108	0xb9819fa5	-0.00024723742
109	0x39f0cef5	0.00045930562
110	0xb9962948	-0.00028640986
111	0xb90f36f3	-0.00013658013
112	0xbac0c642	-0.0014707523
113	0xba8fae5d	-0.0010961998
114	0x395707bb	0.00020506878
115	0x39baa539	0.00035599785
116	0xbaec83e5	-0.0018044679
117	0x3a3a96c0	0.00071178004
118	0xb99cd8db	-0.0002991621
119	0xba4b6219	-0.0007758453
120	0x3a611a2e	0.000858697
121	0xba64084d	-0.00086987467
122	0xba9a0677	-0.0011751194
123	0xba0bf45d	-0.0005338842
124	0xb8002cdd	-3.055936e-05
125	0x39f8fce9	0.0004749068
126	0xba938abb	-0.0011256555
127	0x3a230a5f	0.0006219502

convs.weight.0.tensor f4 [32, 32, 16, 2]
0	0xbb8027dd	-0.003911002
1	0x82601b70	-1.6464795e-37
2	0x3a0ceb9a	0.00053756835
3	0x38c4621a	9.364281e-05
4	0x395e1f80	0.00021183304
5	0xb85984c9	-5.1860497e-05
6	0x390d6ecf	0.00013488087
7	0xb80c1ec8	-3.340727e-05
8	0x38bd9667	9.040237e-05
9	0x368b0d3c	4.1440635e-06
10	0x39006434	0.0001224436
11	0x380184c2	3.0879637e-05
12	0x38f4fa29	0.000116814226
13	0x37a293e1	1.9380766e-05
14	0x38f6f131	0.000117751195
15	0x3795ee59	1.7873173e-05
16	0x38d34436	0.00010073969
17	0x36b9c889	5.536775e-06
18	0x38ef842a	0.000114210256
19	0x37e27c31	2.699913e-05
20	0x38c40b72	9.34814e-05
21	0x38101c06	3.4358374e-05
22	0x38e1f3e0	0.00010774261
23	0x3890b427	6.900011e-05
24	0x38e9668d	0.00011129407
25	0x38a9c9c7	8.096132e-05
26	0x38cd8034	9.7990414e-05
27	0x38ac962f	8.229573e-05
28	0x38d448fb	0.000101225414
29	0x385c4153	5.2512925e-05
30	0x398b65fc	0.0002658813
31	0xb4fe96c3	-4.742088e-07
32	0xbc41ea68	-0.011835672
33	0x82bc5a83	-2.7676068e-37
34	0x3c4e1ac7	0.012579626
35	0xbbbc3175	-0.0057432004
36	0x3bd4451a	0.006477964
37	0xbb4b5325	-0.00310249
38	0x3b9bdb41	0.0047563617
39	0xbaff6680	-0.0019485503
40	0x3b3c0607	0.0028690116
41	0xbad9c1cc	-0.0016613542
42	0x3b00a74b	0.0019630964
43	0xbaa3947c	-0.0012480165
44	0x3b145596	0.002263402
45	0xbab36a3a	-0.0013688274
46	0x3b097397	0.0020973438
47	0xba42dd41	-0.0007433482
48	0x3b0e3d0b	0.0021703865
49	0xba03947b	-0.0005019379
50	0x3ac8bdf9	0.0015315405
51	0xba4c5473	-0.00077945663
52	0x3abc8048	0.0014381493
53	0xba37105e	-0.0006983335
54	0x3a8686b6	0.0010263536
55	0xbabdc511	-0.0014478286
56	0x3a43c990	0.0007468695
57	0xbaadf0cd	-0.0013270617
58	0x3a2f26e0	0.0006681513
59	0xba911166	-0.0011067807
60	0x3a9c3df0	0.0011920314
61	0xb98ce159	-0.00026870778
62	0x3b0c20eb	0.0021381925
63	0x3aec52be	0.001803003
64	0xbc31b845	-0.010847156
65	0x81ae2b08	-6.397925e-38
66	0xba811fe0	-0.0009851418
67	0x3ca50dcc	0.02014818
68	0x3b912626	0.0044295965
69	0x3ce388c1	0.02777517
70	0x3c066705	0.008203273
71	0x3ced2205	0.028946886
72	0x3be63264	0.00702505
73	0x3d13b7cb	0.03606395
74	0x3c3ccffa	0.011524195
75	0x3d1082a1	0.035280827
76	0x3c0c96eb	0.0085809035
77	0x3d1fedcd	0.039045144
78	0xbbb0c2f8	-0.005394336
79	0x3ca6c79b	0.020358851
80	0xbb83a042	-0.004016907
81	0x3ca7b2fb	0.020471087
82	0xbbac6942	-0.005261571
83	0x3cf346ec	0.029696904
84	0x3c5cde03	0.013480666
85	0x3d7cd671	0.061727945
86	0x3cc4939d	0.023996169
87	0x3da0638b	0.07831486
88	0x3c36ad8d	0.011149776
89	0x3db8d0a0	0.09024167
90	0x3b0d0a6e	0.002152111
91	0x3cf46090	0.0298312
92	0xbbb1c683	-0.005425276
93	0x3dcb9a8e	0.09941588
94	0x3d04fb4d	0.03246622
95	0x3dc74813	0.09730544
96	0x3aa5ba01	0.0012643934
97	0x82249ace	-1.2093244e-37
98	0x36b7f7c5	5.482669e-06
99	0x3658c723	3.230242e-06
100	0x367642c6	3.6695724e-06
101	0xb6a7503f	-4.9863297e-06
102	0x35afb186	1.3090182e-06
103	0xb67b73b6	-3.7469267e-06
104	0xb50b5557	-5.190572e-07
105	0xb530fe9b	-6.593561e-07
106	0x34ed63d8	4.4217336e-07
107	0xb5f86ede	-1.8509706e-06
108	0x3194d06a	4.331061e-09
109	0xb5be7636	-1.4190507e-06
110	0x332ebeb7	4.0685986e-08
111	0xb58b7059	-1.0389005e-06
112	0xb3c424f7	-9.133685e-08
113	0xb52a8bc0	-6.35333e-07
114	0xb45fbd8c	-2.083745e-07
115	0xb407b2c3	-1.2637888e-07
116	0x320e4994	8.282218e-09
117	0x328d5da2	1.645714e-08
118	0xb3b9ffb0	-8.661243e-08
119	0x34dbd8de	4.094972e-07
120	0xb4f06cf5	-4.478276e-07
121	0x35b1cb6b	1.324673e-06
122	0x33fe7fa9	1.1851018e-07
123	0x35e48293	1.7025326e-06
124	0x3564c885	8.5228413e-07
125	0x35ed706c	1.7690595e-06
126	0x35e1b8c9	1.6817586e-06
127	0x349d4e91	2.9300693e-07
128	0xbc35512c	-0.011066716
129	0x8301fda0	-3.820084e-37
130	0xbc1875e7	-0.009305454
131	0xbc02007d	-0.007934687
132	0xbc060d97	-0.008181951
133	0x3a735422	0.0009282251
134	0xbc2b480a	-0.010454187
135	0xbc1dd85f	-0.009634106
136	0xbc533b2b	-0.012892525
137	0xbb73dce9	-0.003721053
138	0xbc4c4cad	-0.012469453
139	0x3b34a954	0.0027566748
140	0xbc660a8d	-0.014040601
141	0x3a82d92c	0.0009982935
142	0xbc87ff1d	-0.01660114
143	0x3bcfada2	0.0063378373
144	0xbc806332	-0.0156723
145	0x3ae4fd0d	0.0017470435
146	0xbc9ea0b0	-0.019363731
147	0xbc3a81cf	-0.011383488
148	0xbc8e1247	-0.0173427
149	0x3b1929b3	0.0023370802
150	0xbca7ff41	-0.020507457
151	0x39a47648	0.00031368644
152	0xbcc00635	-0.02344046
153	0x3727a4dc	9.99236e-06
154	0xbcc86c5c	-0.024465732
155	0xbc879441	-0.016550185
156	0xbd0035db	-0.03130136
157	0xbcc3ea3b	-0.0239154
158	0xbd4be6b6	-0.04978057
159	0xbcd49d56	-0.02595393
160	0xbb96488c	-0.004586285
161	0x00cb2100	1.8654444e-38
162	0x3a60aeff	0.00085709983
163	0x398e80e9	0.00027180396
164	0x39aec04e	0.00033331144
165	0xb681d93f	-3.8697904e-06
166	0x39660b83	0.00021938798
167	0x365192fa	3.1228979e-06
168	0x39282e91	0.00016039076
169	0x3844a5b7	4.6884375e-05
170	0x3962af3b	0.00021618318
171	0x38a01098	7.632485e-05
172	0x3952ccbb	0.00020103429
173	0x385a969c	5.2115516e-05
174	0x395d3404	0.0002109558
175	0x3855e2a9	5.099425e-05
176	0x3941adfe	0.00018470731
177	0x37ef7401	2.8545039e-05
178	0x395f44ed	0.00021292614
179	0x38381e7f	4.389742e-05
180	0x393a2980	0.00017753802
181	0x384d83ce	4.899856e-05
182	0x395b5d2d	0.00020920178
183	0x38bdae54	9.0446934e-05
184	0x396183a9	0.0002150672
185	0x38c48d59	9.372336e-05
186	0x393977d0	0.00017687608
187	0x38a81511	8.014788e-05
188	0x390489c3	0.00012639821
189	0x38496121	4.8012593e-05
190	0x3999e497	0.00029352747
191	0x38563cf4	5.1078343e-05
192	0xbb448d82	-0.0029991572
193	0x028767b0	1.989598e-37
194	0x3b1f412c	0.002430032
195	0xba1e9f00	-0.00060509145
196	0x3b0797b4	0.0020689787
197	0xbb86ba31	-0.004111551
198	0x3ae54806	0.0017492778
199	0x3ba69459	0.0050836024
200	0xbb243104	-0.002505363
201	0x3bc85adc	0.006114347
202	0xbb177d74	-0.0023115547
203	0x3c19890d	0.009371054
204	0x3a71bc5e	0.00092214893
205	0x3cb205c6	0.021731269
206	0xbc4df866	-0.01257143
207	0x3c425999	0.011862182
208	0xbc1e362a	-0.009656468
209	0x3c48eba3	0.012263211
210	0x3b431405	0.0029766571
211	0x3d437ef8	0.04772851
212	0x3a133a8c	0.0005616329
213	0x3d3916bb	0.045187693
214	0xbcaeefb2	-0.02135453
215	0x3c54d989	0.012991318
216	0xbccd9341	-0.02509463
217	0x3c3caa53	0.011515218
218	0xbc699776	-0.0142573025
219	0x3d711399	0.05885658
220	0xbd280a9e	-0.04102575
221	0x3cc2834d	0.02374425
222	0xbd6486af	-0.055792507
223	0xbbaa5b24	-0.005198853
224	0xb7635c13	-1.3551692e-05
225	0x82d4a84d	-3.12472e-37
226	0x333374fd	4.1783085e-08
227	0x32898fd8	1.6014312e-08
228	0x308dad91	1.0308431e-09
229	0xb140ce3b	-2.8056906e-09
230	0xb01f67fd	-5.799164e-10
231	0x306d5a6b	8.634859e-10
232	0x2e893b3c	6.240561e-11
233	0x2fe0dcf1	4.090235e-10
234	0x2f9816cb	2.7664834e-10
235	0x2feee5f1	4.345533e-10
236	0x2efeee70	1.1592938e-10
237	0x302ae2b6	6.2167815e-10
238	0x2f132605	1.338308e-10
239	0x2f8ed0bc	2.5977964e-10
240	0x2ede36ba	1.01051126e-10
241	0x2fd4e80b	3.8727452e-10
242	0x2f19993a	1.3969706e-10
243	0x2f5596b9	1.9425785e-10
244	0x2d35e282	1.0338954e-11
245	0x2fa0ac67	2.922633e-10
246	0x2e5e7294	5.0578722e-11
247	0x2e943c16	6.740934e-11
248	0x2ed48f21	9.6660686e-11
249	0xaf7d3d9d	-2.3032105e-10
250	0xb0cd1e29	-1.4924285e-09
251	0x2fd15258	3.8075387e-10
252	0xaf195986	-1.3947074e-10
253	0x31fef2c1	7.419971e-09
254	0x32766931	1.4343002e-08
255	0x31e93c3d	6.788041e-09

convs.weight.1.tensor f4 [32, 32, 16, 2]
0	0x399991b9	0.00029291006
1	0x02b7181a	2.6903267e-37
2	0xb946d850	-0.00018963334
3	0xb91434c3	-0.00014134035
4	0xb809d879	-3.286495e-05
5	0xb876cd2c	-5.884205e-05
6	0xb7b4e37f	-2.1563608e-05
7	0xb81c07fc	-3.7200734e-05
8	0xb7f6e4b2	-2.943198e-05
9	0xb7911013	-1.7292832e-05
10	0xb806b398	-3.211535e-05
11	0xb7558571	-1.2726859e-05
12	0xb7e6ad42	-2.7498816e-05
13	0xb710b315	-8.624765e-06
14	0xb800fb6f	-3.0751744e-05
15	0xb7164816	-8.9574805e-06
16	0xb7c07364	-2.2941917e-05
17	0xb6f0644f	-7.164235e-06
18	0xb7afaa73	-2.0940997e-05
19	0x37366d6f	1.0873525e-05
20	0xb7aaad97	-2.0346413e-05
21	0x37e1f821	2.6937634e-05
22	0xb8304558	-4.202625e-05
23	0x387093f3	5.7358247e-05
24	0xb83d840f	-4.51841e-05
25	0x38914317	6.926635e-05
26	0xb7d6ec25	-2.5620751e-05
27	0x3893219f	7.015769e-05
28	0x380e0245	3.3857552e-05
29	0x384a448f	4.8224403e-05
30	0x391b0769	0.00014784712
31	0x37240326	9.775895e-06
32	0xbac9ba09	-0.0015390526
33	0x02cf0353	3.0417824e-37
34	0x382d6f22	4.1349915e-05
35	0x38334e9d	4.275014e-05
36	0x36a46d18	4.900281e-06
37	0x38699c49	5.569708e-05
38	0x3636d0bc	2.7241613e-06
39	0x383ac1b3	4.4526252e-05
40	0x35594a07	8.0946523e-07
41	0x37bec010	2.2739201e-05
42	0x365c11fc	3.2793023e-06
43	0x373f6f14	1.14103495e-05
44	0x37204861	9.553595e-06
45	0x374b35ee	1.2112299e-05
46	0x37540476	1.2637223e-05
47	0x3707855f	8.07768e-06
48	0x3707605c	8.0690625e-06
49	0x3727baa0	9.997428e-06
50	0xb48dcb45	-2.6411195e-07
51	0x36988587	4.5454976e-06
52	0xb60613a1	-1.9978982e-06
53	0x364d19af	3.056233e-06
54	0x36957e22	4.45523e-06
55	0xb6e713fb	-6.8866625e-06
56	0x375aeccd	1.3048947e-05
57	0xb77b3a1c	-1.49742955e-05
58	0x37a2d407	1.9410638e-05
59	0xb778d947	-1.4832541e-05
60	0x3784e4dc	1.5842197e-05
61	0x358ebc8f	1.0634702e-06
62	0xb867bb90	-5.5249373e-05
63	0xb58fceaf	-1.0714483e-06
64	0xbc119164	-0.0088847615
65	0x02e8b6cc	3.4194256e-37
66	0x3ad73eb3	0.0016421884
67	0x3b2da42e	0.0026495564
68	0x3a970480	0.0011521727
69	0x3abd639b	0.001444924
70	0x3a9489d7	0.0011332583
71	0x3ab3217a	0.0013666593
72	0x3abb1846	0.0014274202
73	0x3ac99d4b	0.001538196
74	0x3ae0b8e8	0.001714495
75	0x3acc02be	0.0015564782
76	0x3ad0233e	0.0015879644
77	0x3accc716	0.0015623297
78	0x3a259a38	0.0006317231
79	0x3acafb5f	0.0015486291
80	0x3a26f436	0.0006368788
81	0x3ad0709e	0.0015902703
82	0x39de87ae	0.0004244423
83	0x3b0cb1d9	0.002146831
84	0x3acbdb7f	0.0015553086
85	0x3af6a747	0.0018818163
86	0x3a9ffa15	0.0012205268
87	0x3b09214c	0.0020924387
88	0x3a1f12e8	0.0006068186
89	0x3afd7087	0.0019335904
90	0xb7059316	-7.961664e-06
91	0x3a73a775	0.00092946674
92	0x3ab21bbf	0.0013588591
93	0x3a7bfcb1	0.0009612544
94	0x3add698f	0.0016892421
95	0x3a98b77a	0.001165136
96	0xbb77fd1d	-0.0037840076
97	0x81b1de5c	-6.53386e-38
98	0x39856c21	0.000254483
99	0x3b8bd339	0.004267123
100	0x3b2a6d24	0.0026004994
101	0x3b2329e5	0.0024896797
102	0x3b3dc40a	0.002895596
103	0x3b10adb3	0.002207619
104	0x3b12be19	0.002239114
105	0x3acbc231	0.0015545544
106	0x3b2bce7d	0.0026215606
107	0x3add9d57	0.0016907853
108	0x3b249fcf	0.0025119667
109	0x3ab69fda	0.0013933138
110	0x3b277975	0.0025554572
111	0x3ab081f3	0.0013466462
112	0x3b220254	0.0024720626
113	0x3aa0e991	0.001227664
114	0x3b1e50db	0.002415708
115	0x3ab5e1ce	0.0013876499
116	0x3b11ccd0	0.0022247322
117	0x3aab2fd2	0.0013060516
118	0x3aef073c	0.0018236409
119	0x3ab25d44	0.0013608118
120	0x3a70ee2c	0.0009190764
121	0x3a9f26fe	0.0012142358
122	0x3a5f5e17	0.00085207954
123	0x39a71caf	0.00031874093
124	0x3ac65371	0.0015131069
125	0xba05473d	-0.00050841627
126	0x3b0ba841	0.0021310004
127	0xba59baca	-0.0008305727
128	0xbb916acf	-0.0044377814
129	0x0302a402	3.839184e-37
130	0xbb0ba7e3	-0.0021309785
131	0x38dab637	0.0001042899
132	0xba8b5d0a	-0.0010632586
133	0xbad37dd2	-0.001613552
134	0xba4d0261	-0.0007820484
135	0xbab09c32	-0.0013474284
136	0xba40fd6c	-0.00073619816
137	0xb90568f1	-0.00012722962
138	0xba1c35e7	-0.000595896
139	0x3a360d7b	0.0006944758
140	0xba721a78	-0.00092355115
141	0x3994a985	0.00028355062
142	0xba791089	-0.000950106
143	0x3a32a8aa	0.0006815294
144	0xba2eba9b	-0.00066653796
145	0x3995cb97	0.0002857118
146	0xb74374ab	-1.165007e-05
147	0x3a825336	0.0009943012
148	0x395cf81a	0.0002107326
149	0x3a4eca30	0.00078884047
150	0x39a7e7d0	0.00032025436
151	0x3b0015f1	0.0019544328
152	0x39a3c780	0.00031238422
153	0x3b17da6f	0.0023170968
154	0x38440bbc	4.674097e-05
155	0x3b022a88	0.0019861776
156	0x387e5cb7	6.0644667e-05
157	0x39dce369	0.00042131104
158	0xb8b11bcd	-8.445196e-05
159	0xbac6cafb	-0.0015166694
160	0xb83b798c	-4.4697474e-05
161	0x82af4060	-2.5750888e-37
162	0xb8cd54b4	-9.790939e-05
163	0xb8cbe1ba	-9.721839e-05
164	0xb7023485	-7.760832e-06
165	0xb8000aed	-3.0527754e-05
166	0xb6a928fa	-5.041363e-06
167	0xb754b8f8	-1.2679251e-05
168	0xb76fd87f	-1.4295917e-05
169	0x3582f69b	9.757526e-07
170	0xb79661d1	-1.7926943e-05
171	0x3637f42b	2.741125e-06
172	0xb78a12f0	-1.64597e-05
173	0x36293311	2.5212687e-06
174	0xb786e41e	-1.608027e-05
175	0x366539b2	3.4157242e-06
176	0xb722febd	-9.715263e-06
177	0x35f20995	1.8033194e-06
178	0xb6cf755b	-6.1827427e-06
179	0x373e478d	1.1341542e-05
180	0xb70618db	-7.9928095e-06
181	0x37cde372	2.4543817e-05
182	0xb7dfe499	-2.669012e-05
183	0x38660ecb	5.485005e-05
184	0xb7f1fd3c	-2.884736e-05
185	0x38793545	5.9415837e-05
186	0xb78f3dbd	-1.7075678e-05
187	0x384daa05	4.903415e-05
188	0x37468aa6	1.1834001e-05
189	0x38095a67	3.274754e-05
190	0x389a9a95	7.3720854e-05
191	0x386c2efd	5.6310546e-05
192	0xbbe446f5	-0.0069664665
193	0x8268384d	-1.7060826e-37
194	0xba5dbb6f	-0.0008458411
195	0x3ab3d57d	0.0013720241
196	0x393b9271	0.00017888263
197	0x3a25ef40	0.00063299015
198	0x389d1917	7.491017e-05
199	0x39044e2d	0.00012617624
200	0xb8a7ceec	-8.001723e-05
201	0x3a381ced	0.0007023353
202	0xb8c7c636	-9.525979e-05
203	0x3a9cc017	0.0011959103
204	0x3a2148a8	0.0006152489
205	0x3acf9b67	0.001583916
206	0xb9e508ff	-0.00043684986
207	0x3a824473	0.0009938612
208	0xb9530c16	-0.0002012703
209	0x3a7dbf3a	0.0009679679
210	0x3a962bc5	0.0011457136
211	0x3b060df5	0.0020455096
212	0x3a77f2cb	0.0009458481
213	0x3aefd414	0.0018297457
214	0xb9b63799	-0.0003475517
215	0x3ac8863a	0.0015298792
216	0xba0886e9	-0.00052080915
217	0x3ac9a08a	0.0015382927
218	0x39edb25d	0.00045337054
219	0x3ad8dd6d	0.0016545482
220	0x39657c7c	0.00021885516
221	0x3a8363d6	0.001002426
222	0xb9705754	-0.00022920716
223	0x39b1615b	0.00033832606
224	0x39d5295f	0.0004065735
225	0x02e34efa	3.3399983e-37
226	0x38fa4629	0.00011933997
227	0x383fb286	4.570421e-05
228	0xb6905586	-4.3014907e-06
229	0xb6403e39	-2.8646448e-06
230	0xb6bd8ea0	-5.6492427e-06
231	0x35813f01	9.629586e-07
232	0xb6666e3d	-3.4336838e-06
233	0xb5746cc6	-9.105537e-07
234	0xb59cec35	-1.1691651e-06
235	0xb46f765c	-2.2301668e-07
236	0xb5b65d25	-1.3587165e-06
237	0x353c7b1f	7.021462e-07
238	0xb54b1c76	-7.566481e-07
239	0xb5000534	-4.769129e-07
240	0xb54cae93	-7.624996e-07
241	0xb37d9925	-5.9045437e-08
242	0xb512699a	-5.454291e-07
243	0xb52db587	-6.471168e-07
244	0xb56e470b	-8.876529e-07
245	0xb537d1ca	-6.8478096e-07
246	0x34e1314b	4.194538e-07
247	0xb6312ccb	-2.6401128e-06
248	0x3633514d	2.6720402e-06
249	0xb625f818	-2.4731326e-06
250	0x34887300	2.5415648e-07
251	0xb4fc946a	-4.7046643e-07
252	0x3742a702	1.1602186e-05
253	0x37abf5bc	2.0499217e-05
254	0x389d76b3	7.508453e-05
255	0x37281769	1.0019031e-05

convs.weight.2.tensor f4 [32, 32, 16, 2]
0	0x3bbb04b9	0.00570735
1	0x02c61078	2.9102938e-37
2	0x3b770c1d	0.003769643
3	0xbb8f051e	-0.0043646237
4	0x3b52eb5d	0.0032183744
5	0xbad50819	-0.0016253024
6	0x3b195401	0.0023396017
7	0xba93e396	-0.0011283036
8	0x3ac19737	0.0014769797
9	0xba754488	-0.000935622
10	0x3a902fc3	0.0011000562
11	0xba569526	-0.0008185677
12	0x3aaec5ab	0.0013334056
13	0xba62601e	-0.00086355384
14	0x3a973e79	0.0011539004
15	0xba43991f	-0.00074614765
16	0x3a94d2bc	0.0011354308
17	0xba07d285	-0.0005181211
18	0x3a6e7af7	0.00090973027
19	0xb995b1d8	-0.00028552
20	0x3a8fbdef	0.0010966639
21	0xb985368c	-0.00025408377
22	0x3a87b1e4	0.0010352698
23	0xba97ede4	-0.0011591283
24	0x3a84185b	0.0010078059
25	0xbb06874a	-0.0020527416
26	0x3a83e35d	0.0010062266
27	0xbb2cf2ae	-0.0026389766
28	0x3aeb4893	0.0017950706
29	0xbb240353	-0.0025026395
30	0x3b28d97b	0.0025764394
31	0x3ad2e208	0.0016089091
32	0x3bb5330f	0.0055297683
33	0x82d8c9e1	-3.185422e-37
34	0x3b44ff08	0.0030059237
35	0xbb9e4313	-0.004829773
36	0x3b814159	0.0039445576
37	0xba76d621	-0.0009416063
38	0x3b4c6906	0.0031190529
39	0xb9efddb2	-0.00045750808
40	0x3ad9ec62	0.0016626234
41	0xb9b88c64	-0.00035199814
42	0x3a8e53dd	0.0010858733
43	0xb9d20abd	-0.00040062322
44	0x3ab01e00	0.0013436675
45	0xba0b1e96	-0.0005306987
46	0x3a8bf6be	0.0010678393
47	0xba1115a7	-0.00055345375
48	0x3a83a4da	0.0010043636
49	0xb9a29f64	-0.00031017803
50	0x3a1ac71c	0.00059043034
51	0xb8bad5fb	-8.909028e-05
52	0x3a21aebf	0.0006167702
53	0xb9732731	-0.00023188886
54	0x3a0026f5	0.00048886176
55	0xbad80bec	-0.0016483045
56	0x3a1d888b	0.0006009421
57	0xbb4d8b47	-0.0031363533
58	0x3a439e76	0.0007462272
59	0xbb8155ad	-0.003946981
60	0x3ad832bc	0.0016494612
61	0xbb801e06	-0.003909829
62	0x3b0d7d1b	0.0021589461
63	0x3a6da6d8	0.0009065694
64	0xbbdaa2ed	-0.0066722543
65	0x82e890c7	-3.4172434e-37
66	0xbd3a038f	-0.04541355
67	0xb93c0b10	-0.00017933198
68	0xbcb8f579	-0.022577988
69	0xbb19a867	-0.0023446323
70	0xbc68187b	-0.014165993
71	0xb98c197e	-0.00026721874
72	0xbc286788	-0.01027859
73	0x3b13d453	0.0022556975
74	0xbc0781fc	-0.008270737
75	0x3b686d6e	0.0035465616
76	0xbbfada77	-0.0076554376
77	0x3b917532	0.0044390196
78	0xbbd04343	-0.0063556745
79	0x3b8ea9f4	0.004353756
80	0xbbcd86f4	-0.006272191
81	0x3b6f01cb	0.0036469575
82	0xbbfdbb80	-0.007743299
83	0x3ab19a6c	0.001355005
84	0xbc38b704	-0.011274103
85	0x3a848522	0.0010110477
86	0xbc507db1	-0.01272528
87	0xbb3943d3	-0.0028269186
88	0xbc24b2c1	-0.010052384
89	0xbb63194f	-0.0034652536
90	0x3b83fb88	0.0040277876
91	0x3a9197a0	0.001110781
92	0xb7a7053c	-1.9910389e-05
93	0x3be299a0	0.006915286
94	0x3bc6e71f	0.0060700323
95	0x3cde65c6	0.027148139
96	0x3c041cee	0.008063538
97	0x81fadcae	-9.2152156e-38
98	0xbd334b59	-0.04377303
99	0x3af37d50	0.0018576775
100	0xbcfcf6a0	-0.030879319
101	0x3c115c42	0.008872094
102	0xbcab1fa0	-0.020889103
103	0x3c3fe5cb	0.011712502
104	0xbc2364f7	-0.009972802
105	0x3c3fd56c	0.011708599
106	0xbc2e6de0	-0.010646313
107	0x3c1a83dc	0.009430852
108	0xbc171f5e	-0.009223787
109	0x3c1e9c07	0.0096807545
110	0xbc07cab2	-0.008288072
111	0x3beea2b4	0.0072825793
112	0xbc006325	-0.007836138
113	0x3bd6d6f3	0.0065563857
114	0xbc15d1b3	-0.0091442345
115	0x3ba85282	0.005136789
116	0xbc31c38c	-0.010849845
117	0x3ba2bae7	0.004966128
118	0xbc34fdb8	-0.011046819
119	0x3b8bb738	0.0042637847
120	0xbbcc6f66	-0.0062388657
121	0x3b978b8d	0.00462479
122	0x3aecb703	0.0018059913
123	0x3bdf05aa	0.006806095
124	0x3c0b3747	0.008497066
125	0x3c5c0d6e	0.013430936
126	0x3c9cb42c	0.019128881
127	0x3d0067c2	0.03134895
128	0xbc2a47ce	-0.010393096
129	0x0238c024	1.3573327e-37
130	0x3ce228de	0.027607378
131	0xbb3cb007	-0.0028791444
132	0x3cf9e57e	0.030504938
133	0xbc22404e	-0.009903027
134	0x3cd20f1e	0.025641974
135	0xbbfdb6d8	-0.007742744
136	0x3c9a8f6c	0.018867217
137	0xbc0e352c	-0.008679669
138	0x3c680b0f	0.014162793
139	0xbc034d77	-0.0080140745
140	0x3c829ea4	0.015944786
141	0xbc23d45c	-0.009999361
142	0x3c220efd	0.009891269
143	0xbc317bbb	-0.010832722
144	0x3c16e975	0.009210934
145	0xbc345c29	-0.011008301
146	0x3c3d9973	0.01157223
147	0xbc58e2b0	-0.01323764
148	0x3c5fef9e	0.013667969
149	0xbcac319d	-0.021019751
150	0x3c605b7a	0.013693685
151	0xbce689cb	-0.028141877
152	0x3c63eb47	0.013911075
153	0xbcf4497e	-0.0298202
154	0x3c9b0d0a	0.018927116
155	0xbceb393e	-0.028713819
156	0x3cf1f7c6	0.029537093
157	0xbd05aad3	-0.032633614
158	0x3d8630c9	0.06552274
159	0xbd68e4eb	-0.05685894
160	0x3b81d6b5	0.0039623627
161	0x00016138	1.26711e-40
162	0x3c1c0cd1	0.00952454
163	0xbbe0a048	-0.0068550445
164	0x3bcd1e10	0.0062596872
165	0xbb26052b	-0.002533267
166	0x3b8eb440	0.0043549836
167	0xbada6c42	-0.0016664343
168	0x3b33af85	0.002741785
169	0xbab63eba	-0.0013904192
170	0x3b04eac4	0.0020281533
171	0xba9ff1a1	-0.0012202748
172	0x3b13fcbe	0.0022581066
173	0xbaa76e92	-0.0012774041
174	0x3af81f72	0.001893027
175	0xba9085de	-0.0011026224
176	0x3ae63098	0.001756209
177	0xba45354f	-0.0007522897
178	0x3ab3262c	0.0013667992
179	0xb9c8053e	-0.00038150878
180	0x3ad5c475	0.0016309159
181	0xb9ce0ab7	-0.00039299365
182	0x3ad8fcd8	0.0016554845
183	0xbaef1285	-0.0018239772
184	0x3ad6d03f	0.0016388966
185	0xbb52e871	-0.0032182003
186	0x3ad49eab	0.0016221603
187	0xbb8472dd	-0.004042013
188	0x3b26305d	0.0025358417
189	0xbb810293	-0.0039370744
190	0x3b7da21d	0.0038701363
191	0x3a49fa6f	0.0007704859
192	0xbbdca1c0	-0.0067331493
193	0x82b6c78a	-2.6857026e-37
194	0xbc68b126	-0.014202392
195	0xbc28746d	-0.010281664
196	0xbb25580c	-0.0025229482
197	0xbbbcf884	-0.00576693
198	0x3b5ab790	0.0033373572
199	0xbb34f842	-0.0027613793
200	0x3b154e54	0.0022782283
201	0xbb057de2	-0.0020369221
202	0x3a0c55f2	0.0005353383
203	0xba530d77	-0.00080510176
204	0xbae7fc5f	-0.0017699114
205	0xba0ef08a	-0.0005452713
206	0x3a5535b1	0.0008133306
207	0xbae4e6ba	-0.0017463781
208	0xb7860fe5	-1.5981446e-05
209	0xba50d2ce	-0.00079659827
210	0xbb79e646	-0.0038131638
211	0xbb0f1c44	-0.0021836916
212	0xbb2c78d3	-0.0026317134
213	0xbb86d9d2	-0.0041153217
214	0x3ac0e33f	0.0014716162
215	0xbbe18fa4	-0.0068835784
216	0x3b93ec2e	0.004514239
217	0xbc0f68a1	-0.008752973
218	0x3afaf072	0.0019145145
219	0xbc389ed1	-0.0112683335
220	0x3c359c83	0.011084679
221	0xbba1aca7	-0.004933912
222	0x3ce0a530	0.027422518
223	0x3ad1ccd2	0.0016006476
224	0x3bb988c1	0.0056620543
225	0x0295f36c	2.20333e-37
226	0xbb2b5e7c	-0.0026148846
227	0x3a1b3ffa	0.0005922314
228	0xba3728d7	-0.00069869816
229	0x3a122f9f	0.0005576554
230	0xb985ff1b	-0.00025557805
231	0x39a8e424	0.00032213435
232	0xb986a980	-0.0002568476
233	0x394e83c2	0.00019694775
234	0xb9426204	-0.00018537795
235	0x38e0e08c	0.000107229775
236	0xb8e25e40	-0.00010794075
237	0x38f327c5	0.000115945506
238	0xb9138eb9	-0.00014072181
239	0x384ffc3a	4.958755e-05
240	0xb90a1fd1	-0.00013172558
241	0x38b306c9	8.536649e-05
242	0xb98db6ba	-0.00027029758
243	0x38a1e984	7.720574e-05
244	0xb9d02247	-0.0003969839
245	0x38c20b58	9.252754e-05
246	0xb9fdfd0c	-0.00048444455
247	0xb90aa21c	-0.00013221096
248	0xb9b82a2a	-0.0003512663
249	0xb9b8b6d2	-0.00035231427
250	0xb90e8d46	-0.00013594804
251	0xb9aba278	-0.0003273671
252	0x3aa4580f	0.001253845
253	0x39ae59de	0.00033254822
254	0x3b1dc501	0.0024073722
255	0x3b7090b6	0.0036707348

convs.weight.3.tensor f4 [32, 32, 16, 2]
0	0x3c35cea0	0.0110966265
1	0x02cf8cf1	3.0496813e-37
2	0x3b0aa17b	0.0021153379
3	0xba7da73d	-0.00096761045
4	0x3b2fe67e	0.0026840265
5	0xbadeb8a2	-0.0016992281
6	0x3b01d744	0.0019812146
7	0xbaad6fa0	-0.0013232119
8	0x3aa3383b	0.0012452671
9	0xba7fd113	-0.00097586325
10	0x3a711f68	0.00091981003
11	0xba72f811	-0.0009268532
12	0x3a4298ac	0.00074232626
13	0xbaa83673	-0.001283361
14	0x398fecdc	0.0002745156
15	0xba8a8457	-0.0010568005
16	0x382d54c8	4.1325373e-05
17	0xbaa0afe3	-0.001225945
18	0xb90fa6e5	-0.00013699716
19	0xbaae109d	-0.0013280098
20	0xba491c6b	-0.0007671776
21	0xbb0c507f	-0.0021410284
22	0xba3181b6	-0.00067713426
23	0xbac57c8a	-0.0015067023
24	0xb9ab9fd5	-0.00032734746
25	0xba8cd85e	-0.0010745635
26	0x3988129e	0.00025953812
27	0xbabf88a4	-0.0014612866
28	0x390ed8da	0.00013622959
29	0xbbcadad7	-0.0061906385
30	0xbb818706	-0.0039528636
31	0xbc8d062e	-0.01721486
32	0x3c3efe86	0.011657363
33	0x02b4cae2	2.6565072e-37
34	0x3ae3be61	0.0017375463
35	0xbb059c6c	-0.0020387424
36	0x3b9c75a0	0.004774764
37	0xbb09e5bc	-0.0021041473
38	0x3b9491bc	0.0045339745
39	0xbb4bff35	-0.0031127457
40	0x3b1527df	0.002275936
41	0xbb6df20b	-0.00363076
42	0x3a805586	0.0009791113
43	0xbb9eb15f	-0.0048429216
44	0x38923d0f	6.9731956e-05
45	0xbbce14d8	-0.006289106
46	0xbadbc9ab	-0.0016768476
47	0xbbdabc80	-0.006675303
48	0xbae308e4	-0.0017321375
49	0xbbe8aa8d	-0.0071004094
50	0xbb04dad5	-0.0020272036
51	0xbc04054e	-0.008057905
52	0xbb14f012	-0.00227261
53	0xbc18082f	-0.009279295
54	0xbb1119fa	-0.0022140727
55	0xbc00626f	-0.007835968
56	0xbb0c32b5	-0.0021392528
57	0xbbc0abc6	-0.005879852
58	0xbb2ad4a2	-0.002606668
59	0xbbc60699	-0.006043267
60	0xbbe0371a	-0.006842506
61	0xbc01a820	-0.007913619
62	0xbc8d82c5	-0.01727427
63	0xbb840c80	-0.0040298104
64	0x3b90f833	0.004424119
65	0x82e6bd78	-3.3904212e-37
66	0xbbdc86cd	-0.0067299367
67	0xbb401976	-0.002931205
68	0x3a9838bd	0.0011613589
69	0xbae5035a	-0.0017472312
70	0x3aa6b447	0.0012718522
71	0xba9edd94	-0.0012120479
72	0x3a63c2ff	0.00086884195
73	0xba85fde6	-0.0010222762
74	0x39f23d94	0.00046203716
75	0xba626248	-0.0008635861
76	0x3a5a74ee	0.0008333464
77	0xba06804f	-0.0005130814
78	0x3a69c9ef	0.0008918335
79	0xb88b408d	-6.64006e-05
80	0x3a8ac9ff	0.0010588764
81	0x3a1d824f	0.0006008492
82	0x3a785e0a	0.0009474462
83	0x3a6f7d65	0.00091358117
84	0x39ebb643	0.00044958488
85	0x3a86c199	0.0010281085
86	0xba0f29dd	-0.0005461255
87	0x3a991b3f	0.0011681094
88	0xbb002a86	-0.0019556596
89	0x3ac39c9f	0.0014923996
90	0xbb8164af	-0.00394877
91	0xb99da408	-0.00030067586
92	0xbc6934f6	-0.014233818
93	0xbbb3de03	-0.0054891123
94	0xbd222706	-0.039587997
95	0x3cab8f05	0.02094222
96	0x3c43a956	0.011942228
97	0x829a95f9	-2.2714346e-37
98	0xbbcf1483	-0.006319584
99	0xbafe03fb	-0.0019379848
100	0x3ad13b9f	0.0015963203
101	0xba9b91f6	-0.0011869061
102	0x3adff629	0.0017086911
103	0xba93d36f	-0.0011278222
104	0x3a898539	0.0010491974
105	0xba85aa41	-0.0010197834
106	0x39fffe06	0.00048826652
107	0xba6d2bbf	-0.0009047351
108	0x39e07844	0.00042814214
109	0xba2e6f45	-0.00066541537
110	0xb9912ee8	-0.00027691503
111	0xb9a36432	-0.00031164434
112	0xba2fdb73	-0.00067084207
113	0x398842ee	0.00025989808
114	0xba47a05c	-0.0007615143
115	0x39fc6fc6	0.00048148463
116	0xbaab9981	-0.0013092012
117	0x39662358	0.00021947676
118	0xbb0bba7a	-0.0021320865
119	0x3a48ccbb	0.0007659902
120	0xbb5ac956	-0.0033384166
121	0x3a8bb661	0.0010659212
122	0xbba075f8	-0.0048968755
123	0xba5ede11	-0.00085017184
124	0xbc811e30	-0.015761465
125	0xbba90b63	-0.005158828
126	0xbd1ab50b	-0.037770312
127	0x3cff39d0	0.031155497
128	0xbc2c6e3f	-0.010524332
129	0x82aad229	-2.509988e-37
130	0xbae7136d	-0.0017629691
131	0x3ba97477	0.0051713544
132	0xbb85ddfd	-0.004085301
133	0x3b3e2e48	0.0029019285
134	0xbb80432e	-0.0039142584
135	0x3b64e1ef	0.0034924706
136	0xbb01b106	-0.0019789352
137	0x3b6bc4cd	0.0035975457
138	0xba10f35d	-0.0005529428
139	0x3ba02608	0.004887346
140	0x39762c47	0.00023476883
141	0x3bbf9e3e	0.0058477214
142	0x3af630ac	0.0018782816
143	0x3bc469ff	0.005994081
144	0x3b0de7a2	0.0021652956
145	0x3bdb852e	0.006699226
146	0x3b0c8d3b	0.0021446485
147	0x3bee9910	0.00728143
148	0x3b1b2f37	0.0023679265
149	0x3c0b347b	0.008496399
150	0x3b179112	0.002312724
151	0x3be86349	0.007091914
152	0x3b4bcb33	0.0031096458
153	0x3bc5fb95	0.006041954
154	0x3b935acc	0.004496908
155	0x3bde799d	0.0067894
156	0x3c2dc572	0.010606157
157	0x3c1d5567	0.009602881
158	0x3cbc6186	0.022995722
159	0x3b92afd4	0.0044765268
160	0x3c3a0289	0.0113531435
161	0x02829ccc	1.919178e-37
162	0x3a915269	0.0011087182
163	0xbab33800	-0.0013673306
164	0x3b7b6009	0.0038356802
165	0xbaebb87d	-0.0017984059
166	0x3b7515fd	0.003739714
167	0xbb165599	-0.0022939204
168	0x3b0cafa1	0.0021466988
169	0xbb29a37a	-0.0025884793
170	0x3a866f2d	0.0010256522
171	0xbb6b8c95	-0.0035941948
172	0x397bd515	0.00024016605
173	0xbb9a6c5b	-0.004712624
174	0xbaa556eb	-0.0012614405
175	0xbba1ff3f	-0.004943758
176	0xbacf9f34	-0.0015840293
177	0xbbb21a14	-0.0054352377
178	0xbaeb68cd	-0.001796031
179	0xbbc7b1c0	-0.0060941875
180	0xbb13f21f	-0.0022574735
181	0xbbeefa71	-0.0072930385
182	0xbb14a5c9	-0.0022681823
183	0xbbc10294	-0.0058902
184	0xbb25280d	-0.0025200874
185	0xbb93c3db	-0.004509432
186	0xbb4dfb29	-0.003143022
187	0xbba62b7d	-0.005071102
188	0xbbf0210d	-0.0073281587
189	0xbc0daf47	-0.008647746
190	0xbc85a90b	-0.016315958
191	0xbbe8e759	-0.007107657
192	0xbb8a5d6a	-0.0042225616
193	0x828b3129	-2.045243e-37
194	0xba10ec73	-0.0005528398
195	0xba8974bb	-0.0010487059
196	0xb9ff1000	-0.0004864931
197	0xb8c04394	-9.167861e-05
198	0xba3cc50f	-0.0007200995
199	0x39128873	0.00013974476
200	0xb9f280e1	-0.0004625386
201	0xb834c684	-4.3100226e-05
202	0xba1dadad	-0.00060149544
203	0xb9aa25bb	-0.00032453038
204	0xba059240	-0.00050953403
205	0xb909d555	-0.0001314481
206	0xba035865	-0.0005010425
207	0xb98b3172	-0.00026548986
208	0xba3092ec	-0.000673576
209	0xb9491845	-0.00019177895
210	0xba46e4a1	-0.0007587169
211	0xb94b18fd	-0.00019368897
212	0xba0e9c64	-0.0005440174
213	0x39642708	0.00021758315
214	0xba77cbc0	-0.00094526634
215	0x39a984b8	0.00032333075
216	0xbb0c554e	-0.002141315
217	0x3a02a4c5	0.0004983659
218	0xbb8ac1fa	-0.0042345496
219	0x391689d8	0.00014356466
220	0xbc4a5bb8	-0.012350969
221	0x3af59048	0.0018735016
222	0xbcb080e5	-0.021545837
223	0x3cfc1203	0.030770307
224	0x3c0f544c	0.008748125
225	0x82e7e40c	-3.4073292e-37
226	0x3acd6779	0.0015671096
227	0x393acd81	0.00017814898
228	0x3a29151e	0.0006449985
229	0xb9a891ef	-0.00032152186
230	0x3a1c4ad7	0.000596208
231	0xb9d8501e	-0.00041258422
232	0x39401dd0	0.00018321653
233	0xb98fdc0e	-0.0002743904
234	0x38c19160	9.230035e-05
235	0x35e6596e	1.7162363e-06
236	0xb89c0cca	-7.441042e-05
237	0xb87004c1	-5.7224886e-05
238	0xb96cc989	-0.00022581792
239	0x37f16f81	2.8781362e-05
240	0xb91b91ca	-0.00014836263
241	0xb8936b59	-7.029501e-05
242	0x3936c11a	0.00017428808
243	0xb8258309	-3.94611e-05
244	0x3947e3fb	0.00019063048
245	0xb992cc45	-0.00027999483
246	0x3a2f6441	0.0006690659
247	0xb9e3de4e	-0.00043462444
248	0x3ac02ea1	0.0014662334
249	0xba19d628	-0.00058683986
250	0x3b40c346	0.0029413267
251	0xb99664de	-0.0002868538
252	0x3c254a59	0.010088527
253	0xb97f8190	-0.00024366961
254	0x3ca5c24e	0.020234253
255	0xbce2e66c	-0.027697764

fno_skips.0.weight f4 [1, 32, 1]
0	0x3f17749a	0.59162295
1	0x3f7c0dfc	0.9845884
2	0x3f813488	1.0094156
3	0x3f15e7dd	0.5855692
4	0x3f816c6b	1.0111212
5	0x3f17a7bc	0.5924032
6	0x3f808a33	1.0042175
7	0x3f15e2ff	0.58549494
8	0x3f7f1574	0.9964211
9	0x3f34c65c	0.7061517
10	0x3f81732a	1.011327
11	0x3f816d93	1.0111564
12	0x3f7f82d0	0.9980898
13	0x3f8143fe	1.0098875
14	0x3f27d980	0.65566254
15	0x3f7f1f2f	0.9965696
16	0x3f816e2d	1.0111748
17	0x3f5173f3	0.8181755
18	0x3f817b48	1.0115747
19	0x3f17da1c	0.59317183
20	0x3f16a433	0.588443
21	0x3f15e3c0	0.58550644
22	0x3f7ff4e8	0.9998307
23	0x3f816dc7	1.0111626
24	0x3f15fa87	0.585854
25	0x3f80bf5b	1.0058397
26	0x3f7a1d09	0.97700554
27	0x3f80d79e	1.0065801
28	0x3f1615ed	0.58627206
29	0x3f2a06c7	0.6641659
30	0x3f816813	1.0109886
31	0x3f7ddb8c	0.99163127

fno_skips.1.weight f4 [1, 32, 1]
0	0x3f15e456	0.5855154
1	0x3f1912b3	0.5979416
2	0x3f813391	1.0093862
3	0x3f15e2d7	0.58549255
4	0x3f816c6e	1.0111215
5	0x3f15e352	0.5854999
6	0x3f806acd	1.0032593
7	0x3f15e302	0.5854951
8	0x3f7eb9d6	0.99502313
9	0x3f169267	0.5881714
10	0x3f81742a	1.0113575
11	0x3f8169e2	1.0110438
12	0x3f7f2b32	0.99675286
13	0x3f8146c2	1.0099719
14	0x3f162f9d	0.586664
15	0x3f7edaf4	0.99552846
16	0x3f8170e0	1.0112572
17	0x3f1fb705	0.6238864
18	0x3f817a80	1.0115509
19	0x3f15e3ae	0.58550537
20	0x3f15e276	0.58548677
21	0x3f15e307	0.5854954
22	0x3f7fb85f	0.998907
23	0x3f81736f	1.0113353
24	0x3f15e375	0.58550197
25	0x3f8071cf	1.0034732
26	0x3f191f63	0.5981352
27	0x3f80ab59	1.0052291
28	0x3f15e3ff	0.5855102
29	0x3f169302	0.58818066
30	0x3f816532	1.0109007
31	0x3f6d6268	0.9272828

fno_skips.2.weight f4 [1, 32, 1]
0	0x3f7ef3a0	0.9959049
1	0x3f7f6b6a	0.99773276
2	0x3f8126e7	1.0089997
3	0x3f801c50	1.000864
4	0x3f816c76	1.0111225
5	0x3f7f74bf	0.99787515
6	0x3f804d96	1.0023677
7	0x3f7cd45e	0.98761547
8	0x3f7e7838	0.9940219
9	0x3f8146b0	1.0099697
10	0x3f8174d5	1.0113779
11	0x3f816796	1.0109737
12	0x3f7ed9ac	0.9955089
13	0x3f8146c8	1.0099726
14	0x3f815af2	1.0105879
15	0x3f7ea72d	0.9947384
16	0x3f817476	1.0113666
17	0x3f81529f	1.0103339
18	0x3f817ab6	1.0115573
19	0x3f7f9fb9	0.9985309
20	0x3f7de40c	0.99176097
21	0x3f812551	1.0089513
22	0x3f7f8260	0.9980831
23	0x3f817745	1.0114523
24	0x3f813b6a	1.0096257
25	0x3f7ff56d	0.99983865
26	0x3f7ea68e	0.9947289
27	0x3f8071d6	1.003474
28	0x3f7e32ef	0.9929647
29	0x3f8158a6	1.0105178
30	0x3f816314	1.0108361
31	0x3f8011c4	1.0005422

fno_skips.3.weight f4 [1, 32, 1]
0	0x3f812ee3	1.0092434
1	0x3f816080	1.0107574
2	0x3f807167	1.0034608
3	0x3f7ff16c	0.99977756
4	0x3f816c74	1.0111222
5	0x3f817d2b	1.0116323
6	0x3f801546	1.0006492
7	0x3f80ccff	1.006256
8	0x3f7e5de1	0.99362
9	0x3f815ba6	1.0106094
10	0x3f81760d	1.0114151
11	0x3f8163a3	1.0108532
12	0x3f7e852f	0.9942197
13	0x3f8145d4	1.0099435
14	0x3f815ecc	1.0107055
15	0x3f7e878a	0.99425566
16	0x3f817d85	1.011643
17	0x3f8152cd	1.0103394
18	0x3f817b5b	1.011577
19	0x3f813efe	1.0097349
20	0x3f8137fc	1.009521
21	0x3f8112d4	1.0083871
22	0x3f7f339b	0.9968812
23	0x3f817d99	1.0116454
24	0x3f810c42	1.0081866
25	0x3f7f3365	0.99687797
26	0x3f811367	1.0084046
27	0x3f7dcd97	0.9914183
28	0x3f814e18	1.0101957
29	0x3f813f35	1.0097414
30	0x3f81601d	1.0107456
31	0x3f818cd6	1.0121105

lifting.fc.weight f4 [32, 1, 1]
0	0xbf15be60	-0.58493614
1	0xbee21d1a	-0.44162828
2	0x3d8e1de7	0.06939297
3	0xbf7327ab	-0.94982404
4	0x3f6e1439	0.9299961
5	0xbf207dbd	-0.6269186
6	0x3ea3ce94	0.31993544
7	0xbf68dc94	-0.90961576
8	0x3f1c361e	0.61020076
9	0xbedd3f21	-0.43212226
10	0x3f543d77	0.8290629
11	0x3f1e7b4d	0.6190689
12	0x3f4048d0	0.75111103
13	0x3eae2929	0.34015778
14	0xbf423c32	-0.758731
15	0x3f0c0e38	0.54709196
16	0x3f076b08	0.5289769
17	0xbe8cab3e	-0.27474397
18	0x3f76e3c0	0.9644127
19	0xbf1e36ab	-0.61802167
20	0xbf3d488d	-0.7393883
21	0xbf8044ae	-1.0020959
22	0x3f41f550	0.7576494
23	0x3ebb0d1e	0.36533445
24	0xbf63cd63	-0.8898527
25	0x3e267b08	0.1625787
26	0xbeddd1c2	-0.43324095
27	0x3eb62b09	0.35579708
28	0xbf4fb18f	-0.8113031
29	0xbf45c475	-0.77252895
30	0x3f0641c7	0.5244412
31	0xbdd793f7	-0.10526269

lifting.fc.bias f4 [32]
0	0xbf4d30f1	-0.80152804
1	0xbe476ed3	-0.1947587
2	0x3e787aae	0.24265549
3	0x3eec8b17	0.46199867
4	0xbf4b8d6c	-0.7951267
5	0xbee7b253	-0.45253238
6	0x3f0df835	0.5545686
7	0xbedafc9c	-0.4277085
8	0x3f2c70a0	0.6735935
9	0xbe9e2318	-0.3088615
10	0xbf621339	-0.8831058
11	0x3e850614	0.259812
12	0xbf76dbd0	-0.9642916
13	0x3d7e7728	0.062125355
14	0x3ef72326	0.48269004
15	0x3f573abc	0.84073997
16	0xbf1dda2e	-0.6166104
17	0xbe2effce	-0.17089769
18	0xbf78488d	-0.96985704
19	0xbe95f431	-0.29287866
20	0xbefda558	-0.4954021
21	0xbe21d062	-0.15802148
22	0xbf108d3b	-0.564655
23	0xbf27f636	-0.65610063
24	0x3db44862	0.088028684
25	0x3f6867cb	0.90783376
26	0xbf1d0dd3	-0.6134922
27	0x3f3a0c35	0.72674876
28	0xbebad36d	-0.3648943
29	0x3e2cdccb	0.16881101
30	0x3f2c031a	0.6719223
31	0xbca28fee	-0.019844022

projection.fc1.weight f4 [64, 32, 1]
0	0xbb7cff31	-0.0038604254
1	0x3da2aa60	0.07942653
2	0x3ddee750	0.10883963
3	0x3dcdbf6a	0.10046275
4	0xbdcebcef	-0.1009463
5	0x3cb38238	0.02191268
6	0xbe13f609	-0.14449324
7	0xbdb75d82	-0.08953382
8	0xbd8fa418	-0.0701372
9	0xbe1343af	-0.14381288
10	0x3cff247d	0.031145329
11	0x3cb5d478	0.02219604
12	0x3e1dc08e	0.15405485
13	0x3ddeb8ec	0.10875115
14	0xbd6fbe51	-0.05853111
15	0xbe0f0176	-0.13965401
16	0xbe338f97	-0.17535244
17	0xbd56c97e	-0.05243825
18	0x3de2a026	0.11065702
19	0x3e306ac4	0.17228228
20	0x3dec81be	0.11548184
21	0x3d1cb828	0.038261563
22	0xbcb868b1	-0.022510858
23	0xbe2f4dcb	-0.1711952
24	0x3d067217	0.03282365
25	0x3db05ef8	0.08611864
26	0xbd652853	-0.05594666
27	0x3dd6ef61	0.10494877
28	0x3c942444	0.018083699
29	0x3e2d1f0e	0.16906378
30	0x3c6d57a6	0.014486229
31	0xbd0b4dc0	-0.034009695
32	0xbe2cc6ff	-0.16872786
33	0xbe19d4cd	-0.15022583
34	0xbcf980d4	-0.030456938
35	0x3d7b5cb6	0.061367713
36	0xbdbad8b0	-0.09123361
37	0xbc02ec8d	-0.007990968
38	0x3c10c1f8	0.008835308
39	0x3c92018c	0.017823003
40	0x3e23bd32	0.15990141
41	0xbc520a73	-0.012819874
42	0x3d89b79e	0.06724475
43	0xbd1c7741	-0.038199667
44	0xbd3bdbe0	-0.045863986
45	0xbe07eee5	-0.13274725
46	0x3dbbc9d3	0.09169354
47	0xbdb66693	-0.08906283
48	0x3dae4e57	0.08511036
49	0xbd357dd0	-0.044309437
50	0xbdc635e8	-0.096782506
51	0x3dfb09b9	0.12257714
52	0x3de79819	0.11308307
53	0x3dbfa4c9	0.09357602
54	0x3cd2dde1	0.025740566
55	0xbe10d343	-0.1414309
56	0x3e0b1f87	0.13586245
57	0xbd75efb6	-0.06004306
58	0x3df59ca7	0.1199277
59	0x3dc7bef9	0.09753222
60	0x3d736c48	0.059429437
61	0x3d3ad003	0.04560853
62	0x3e180ff4	0.14849836
63	0xbde02956	-0.10945384
64	0xba80117a	-0.0009770833
65	0xbaba8bfd	-0.0014232394
66	0xbc7ffca5	-0.0156242
67	0xbbb3b2c0	-0.005483955
68	0xbd8406a9	-0.06446583
69	0xba84db4a	-0.0010136154
70	0x3ca27082	0.019829039
71	0xbb259a37	-0.002526892
72	0xbd15f72e	-0.036612682
73	0xbb870e5c	-0.004121585
74	0xbd2f6823	-0.042823922
75	0x3c928a32	0.017888162
76	0xbcbcda03	-0.023053175
77	0xba6f200a	-0.00091219007
78	0xbc8f34ee	-0.017481294
79	0x3c163295	0.009167333
80	0xbc9fefc9	-0.019523518
81	0xbc826be8	-0.015920594
82	0xbdaa70bb	-0.08322283
83	0x3b113178	0.002215473
84	0x3b7c17fa	0.003846644
85	0xbbfb3314	-0.007666001
86	0xbd1d0aac	-0.038340256
87	0x3cbe0366	0.02319498
88	0xbbc1a9af	-0.0059101204
89	0xbcea9dc4	-0.028639682
90	0xba67ca04	-0.00088420534
91	0xbd13fa7b	-0.03612755
92	0xbab7f460	-0.0014034621
93	0xbc4ed76a	-0.012624601
94	0x3d09c9e7	0.033639815
95	0xb9f58cc9	-0.00046834935
96	0x3e003add	0.12522455
97	0xbd972c99	-0.07381553
98	0x3d899c30	0.067192435
99	0x3d55d00b	0.05220036
100	0x3b52da12	0.0032173437
101	0xbcef543f	-0.029214976
102	0xbd9022fb	-0.07037922
103	0xbe2616e5	-0.16219671
104	0xbd9d483d	-0.07679794
105	0xbdb00415	-0.085945286
106	0x3e30a253	0.17249422
107	0xbc61e952	-0.013788538
108	0x3e206fd4	0.15667659
109	0xbe07c319	-0.13258018
110	0xbd8476ca	-0.0646797
111	0x3d83e5b9	0.064403005
112	0xbddc0be8	-0.107444584
113	0xbdfadacc	-0.122487634
114	0x3da185fd	0.07886884
115	0x3e16b4fc	0.14717478
116	0xbe3e5854	-0.18588382
117	0x3e14df11	0.14538218
118	0x3e171af7	0.1475638
119	0xbe1b86aa	-0.15188089
120	0x3c25e42b	0.0101252
121	0xbd576835	-0.052589614
122	0x3e1f91ac	0.15582913
123	0xbdb3c797	-0.08778303
124	0x3e1dd025	0.15411432
125	0x3e0c6560	0.13710546
126	0x3cce932e	0.025216665
127	0xbd879d1c	-0.06621763
128	0xbdd1ed05	-0.10250286
129	0x3de478d6	0.1115586
130	0xbaf5b541	-0.0018746034
131	0xbc92c857	-0.017917795
132	0xbe087e6b	-0.13329475
133	0xbdb36910	-0.087602735
134	0x3c4697b8	0.0121211335
135	0x3e1701c3	0.14746766
136	0xbd91983b	-0.07109114
137	0x3e1618a6	0.1465784
138	0x3e1be238	0.15223014
139	0x3d8d8030	0.069092155
140	0xbe0842bf	-0.13306712
141	0x3df95d02	0.12175943
142	0xbcab4b47	-0.020909918
143	0xbe121274	-0.14264852
144	0xbdac1099	-0.08401603
145	0x3d6ecf81	0.05830336
146	0xbda0623d	-0.078312375
147	0x3d8cc343	0.06873181
148	0xbdf9b894	-0.121934086
149	0x3ddce701	0.10786248
150	0x3ceca8ed	0.028889144
151	0xbe05f30e	-0.13081
152	0x3e1267f5	0.14297469
153	0xbe0f0586	-0.13966951
154	0x3db76c61	0.089562185
155	0xbd63e8a5	-0.05564179
156	0x3ded3b1d	0.115835406
157	0x3e0969c5	0.13419254
158	0xbd77176b	-0.060325067
159	0xbe01505b	-0.1262831
160	0xbd4569ac	-0.04819648
161	0xbe1d8250	-0.15381742
162	0xbdbd41d8	-0.09241074
163	0xbc0b5258	-0.008503519
164	0xbd67e26f	-0.05661243
165	0xbe1c4763	-0.15261607
166	0x3d45ced7	0.04829296
167	0x3d90f409	0.07077796
168	0x3dfe4cd8	0.124170005
169	0xbe113a82	-0.14182475
170	0x3e041ef1	0.12902428
171	0x3d8c5a4c	0.0685316
172	0x3da4d265	0.08047942
173	0x3df81993	0.12114253
174	0x3e0c0446	0.13673505
175	0xbda4b199	-0.080416866
176	0x3d2087ef	0.039192136
177	0xbdb6cd02	-0.08925821
178	0xbdd2e7c3	-0.10298111
179	0xbe06c10f	-0.13159584
180	0xbe263411	-0.162308
181	0x3e3d0e26	0.18462428
182	0x3e3ec37f	0.18629263
183	0x3d044792	0.032294817
184	0xbdf0c342	-0.117559925
185	0x3e0560bf	0.13025187
186	0xbd9d4bee	-0.07680498
187	0x3e0455e7	0.12923394
188	0xbbf59878	-0.0074949823
189	0x3d6c8b13	0.05774982
190	0xbd6abb1a	-0.05730734
191	0xbdb2573c	-0.08708045
192	0xbdd80e82	-0.10549642
193	0xbe269235	-0.16266711
194	0x3da8a5fb	0.08234783
195	0xbe29e66e	-0.16591808
196	0xbe00299e	-0.12515876
197	0xbd7f9d68	-0.062405974
198	0xbd8da15b	-0.06915542
199	0x3bb40052	0.0054932022
200	0x3e079c67	0.13243257
201	0x3e147f05	0.14501579
202	0x3dd6d019	0.1048891
203	0x3e0c5255	0.13703282
204	0x3b4c0986	0.0031133606
205	0x3e3037ea	0.1720883
206	0xbd6bffb4	-0.057616904
207	0x3df0efd9	0.11764497
208	0x3de12da4	0.109950334
209	0x3de3f905	0.11131481
210	0xbdfe289c	-0.124100894
211	0x3cb5a249	0.02217211
212	0xbdd6153c	-0.10453269
213	0x3d796d47	0.06089523
214	0xbe186bad	-0.14884825
215	0x3d27a360	0.04092729
216	0xbd67308b	-0.05644278
217	0xbd789094	-0.060684755
218	0xbaec3056	-0.0018019776
219	0xbd5b812c	-0.053589985
220	0xbcc29278	-0.023751482
221	0xbb9bd7f1	-0.004755967
222	0x3da028bb	0.07820269
223	0x3b8fa5d5	0.0043837824
224	0x3df0e831	0.11763037
225	0xbe09763f	-0.13424014
226	0x3da44d7d	0.08022592
227	0xbdb7dacf	-0.08977281
228	0x3d80618f	0.06268608
229	0xbdd8e105	-0.10589794
230	0x3e0f7e60	0.14013052
231	0x3ddbc7d4	0.107314736
232	0xbe26f5da	-0.16304722
233	0x3c808c90	0.015692025
234	0xbd24e6f5	-0.04025932
235	0xbe0e6980	-0.13907433
236	0xbd40b189	-0.04704431
237	0x3cd9bcb8	0.026579246
238	0xbda64638	-0.08118862
239	0xbd9d376c	-0.076765865
240	0xbe37c96a	-0.17947927
241	0x3ddce201	0.10785294
242	0xbdfc550a	-0.123209074
243	0x3d501e24	0.050809994
244	0x3e151c2d	0.1456153
245	0x3df36122	0.11883761
246	0x3c960869	0.018314557
247	0x3cecc6df	0.028903423
248	0x3c6061b8	0.013695173
249	0xbd5082d4	-0.050906017
250	0xbd864825	-0.06556729
251	0x3dcb3422	0.09922053
252	0x3e22f373	0.15913181
253	0x3e1b7708	0.15182126
254	0x3c1724cf	0.009225084
255	0x3dee01f5	0.11621467

projection.fc1.bias f4 [64]
0	0x3d4f6c50	0.050640404
1	0xbd317204	-0.043321624
2	0x3b1eac8e	0.0024211737
3	0x3d487fd8	0.048950046
4	0xbd31180c	-0.043235824
5	0x3dab3233	0.08359184
6	0xbd821726	-0.063520715
7	0xbde7b93b	-0.11314627
8	0x3d1b80ff	0.037964817
9	0xbd1859a8	-0.037194878
10	0xbcd03013	-0.025413549
11	0xbdd766ee	-0.10517679
12	0xbd4bb29d	-0.049730886
13	0xbdda3fef	-0.106567256
14	0xbe28aa4a	-0.1647121
15	0xbcbc2393	-0.022966182
16	0x3dc05069	0.09390337
17	0xbcebbd14	-0.028776683
18	0xbdb64fdd	-0.089019515
19	0x3ce48d97	0.027899547
20	0xbca5ab2d	-0.020223225
21	0x3e2365ba	0.15956774
22	0x3d8a576a	0.06754954
23	0x3e2d5e89	0.16930594
24	0xbdd72b99	-0.105063625
25	0x3def04c9	0.116708346
26	0xbd0e4b81	-0.034739975
27	0xbe0b760b	-0.13619249
28	0x3d780169	0.06054822
29	0x3e2435eb	0.16036193
30	0x3e049f17	0.12951313
31	0x3dc61437	0.096718244
32	0xbdb81594	-0.08988491
33	0x3df70caa	0.12062962
34	0xbc3b4b20	-0.011431485
35	0xbe08d254	-0.13361484
36	0x3e160812	0.14651516
37	0x3dc8efee	0.09811388
38	0x3dc51ec4	0.09625009
39	0xbdb79e91	-0.08965791
40	0x38169277	3.5899193e-05
41	0xbd990160	-0.074709654
42	0x3b5630df	0.0032682938
43	0x3dffe212	0.12494291
44	0xbd3305d0	-0.043706715
45	0xbdf3d522	-0.11905886
46	0xbd927cec	-0.07152733
47	0xbce4f590	-0.027949125
48	0x3db31aa1	0.087453134
49	0xbe08c3d9	-0.1335596
50	0xbd5889b0	-0.052865684
51	0xbdea832d	-0.11450801
52	0x3d56b342	0.052417047
53	0xbda175e9	-0.07883818
54	0xbc12f791	-0.008970157
55	0x3d0a1640	0.033712626
56	0xbc22068c	-0.009889256
57	0x3d88d7fe	0.06681822
58	0x3d8877c3	0.06663468
59	0x3d14f5cb	0.03636722
60	0xbd26d494	-0.040730074
61	0x3e120d50	0.14262891
62	0x3c221c2d	0.009894413
63	0x3d98edde	0.074672446
