neuraloperator/examples/para/fno_bc_para_202305122046_001002003004_modes36_epochs250.pth (torch, 606613 bytes, 15 tensors)

convs.bias f4 [4, 32, 1]
0	0x3b994613	0.004677543
1	0x3baf33ad	0.0053467364
2	0x3c40b3a7	0.011761582
3	0x3c3f86ad	0.011689824
4	0x3b964d3f	0.004586845
5	0x3c29893d	0.010347662
6	0x3c6a792f	0.014311119
7	0x3cc6dc0f	0.024274854
8	0x3c0ffb6c	0.008787971
9	0x3c053dae	0.008132381
10	0x3b2f5f63	0.0026759736
11	0x3cc8f3c4	0.024530299
12	0x3a182bac	0.00058048475
13	0x3c48c135	0.012253095
14	0x3c2d6de6	0.010585284
15	0xbbbe7586	-0.0058123497
16	0x3c542e67	0.012950516
17	0xb953527e	-0.00020153259
18	0x3cc4c823	0.024021214
19	0x3c688e63	0.014194104
20	0x3cd055d3	0.02543155
21	0xbb669bb1	-0.0035188014
22	0x3aa88339	0.001285649
23	0x3a1885bc	0.0005818268
24	0x3910a2f4	0.00013793615
25	0x3c39e195	0.011345287
26	0xba23c389	-0.00062470936
27	0xb9c802dd	-0.00038149106
28	0xbc4ee558	-0.012627922
29	0x3ba90de7	0.005159128
30	0xbb5e6c16	-0.0033938936
31	0xbc11d888	-0.008901723
32	0xbb22adc1	-0.0024822804
33	0xbb961a96	-0.004580806
34	0x3c5295c8	0.012853093
35	0x3c33cf68	0.0109747425
36	0x3b64b2f4	0.0034896703
37	0x3c2bb625	0.010480438
38	0x3c6e3374	0.014538635
39	0x3c4e467b	0.012590046
40	0x3bdb44da	0.0066915574
41	0x3c0e09a9	0.008669295
42	0x3a8660db	0.0010252254
43	0x3c05debb	0.008170779
44	0xbb55f7be	-0.0032648887
45	0x3c63ed6f	0.013911589
46	0x3c32072b	0.010865967
47	0x3c422d1f	0.011851578
48	0x3c73d594	0.014882464
49	0x3c3d6767	0.011560298
50	0x3c372e97	0.0111805415
51	0x3c62d84a	0.013845513
52	0x3c69f3c1	0.014279307
53	0xba59255d	-0.00082834606
54	0x3a47e0d1	0.0007624748
55	0x3c48e666	0.0122619625
56	0xbb97e5f1	-0.0046355654
57	0x3c2dceb5	0.010608365
58	0x39926974	0.0002792586
59	0x39d8db7b	0.00041362256
60	0xbc53da89	-0.012930521
61	0xbbd60583	-0.0065314188
62	0x3c292f5b	0.010326232
63	0xbc253832	-0.010084199
64	0xbc266b2a	-0.010157386
65	0xbb486ff4	-0.0030584307
66	0x3c53e743	0.012933555
67	0x3c083985	0.008314495
68	0x3ba940e1	0.005165205
69	0x3c32f739	0.0109232
70	0x3c65e853	0.014032441
71	0x3c745760	0.01491341
72	0x3b42a313	0.002969925
73	0x3bf5f362	0.00750582
74	0xb9987a1c	-0.00029082678
75	0x3ba25db7	0.0049550193
76	0xbb9261d9	-0.0044672308
77	0x3c6a6452	0.014306145
78	0x3c3bcb7e	0.011462091
79	0x3c32a6f6	0.010904064
80	0x3c61d97e	0.013784764
81	0x3c36443a	0.011124665
82	0x3c3d980b	0.011571894
83	0x3c413e54	0.011794645
84	0x3c603b3f	0.013686
85	0xbaa5d572	-0.0012652113
86	0x3af55b57	0.0018719238
87	0x3c38e7c7	0.011285729
88	0xbb8a31b8	-0.0042173527
89	0x3c345eb1	0.011008904
90	0xbad25fcc	-0.0016050278
91	0xb865a7a4	-5.4753982e-05
92	0xbc0a9d39	-0.008460336
93	0xbbb02344	-0.0053752977
94	0x3bfdd266	0.0077460287
95	0xbc0d0dbf	-0.008609234
96	0xbc3147fb	-0.010820384
97	0xbc627497	-0.0138217425
98	0x3c3e7e99	0.011626863
99	0x3c4b45f3	0.012406814
100	0x3b2befdf	0.0026235504
101	0x3c346686	0.011010772
102	0x3c6d7366	0.014492845
103	0x3c532b11	0.012888686
104	0x3985fcc4	0.00025556062
105	0x3b259cf0	0.0025270544
106	0xbad16d05	-0.0015977925
107	0xbbb299ac	-0.005450448
108	0x3a1a7d44	0.00058933
109	0x3c73d648	0.014882632
110	0x3c46da09	0.012136945
111	0x3c292e6f	0.010326012
112	0x3c6303b6	0.013855865
113	0x3c451a46	0.01203019
114	0x3c2d17b4	0.010564733
115	0x3c2ac7ac	0.010423582
116	0x3c63cb2a	0.013903419
117	0xbb65b93d	-0.0035053038
118	0xbab38914	-0.0013697469
119	0x3c3112e7	0.010807729
120	0xbc71f980	-0.014768958
121	0x3c334eaf	0.010944053
122	0xbc0eef5a	-0.008724058
123	0xbaef994c	-0.0018279939
124	0xbc18427b	-0.009293194
125	0xbc585421	-0.013203652
126	0x3bf5eb35	0.0075048455
127	0xbc3dad0c	-0.011576902

convs.bias_bc f4 [4, 32, 1]
0	0xb94d6f3d	-0.00019591763
1	0xba4883df	-0.0007649045
2	0xba3b6c16	-0.000714959
3	0x3a97772d	0.0011555903
4	0x3ab33eab	0.0013675293
5	0x398dfe35	0.00027083015
6	0xba49ba8d	-0.000769534
7	0xba005851	-0.00048959727
8	0xb9596490	-0.00020732195
9	0x3a525c75	0.00080246414
10	0xbae56bb0	-0.0017503407
11	0xb98c3815	-0.00026744665
12	0xba48fd45	-0.00076671346
13	0xb92eaad7	-0.00016657576
14	0xb9cae854	-0.0003870154
15	0x3984cec8	0.00025331066
16	0xbb08e68e	-0.0020889374
17	0xbae18036	-0.0017204348
18	0x3a1587cc	0.0005704134
19	0x3a354cd8	0.00069160527
20	0x39aab53b	0.00032559954
21	0x3909ba5b	0.00013134761
22	0x39ce2b83	0.000393238
23	0x39f8c145	0.00047446243
24	0x3b01b79d	0.001979328
25	0xba20ac50	-0.0006129192
26	0xbac06c81	-0.0014680774
27	0xb9b7d11d	-0.00035060282
28	0x3a1a99c2	0.00058975455
29	0xbac39171	-0.0014920664
30	0xba05811f	-0.0005092788
31	0xb9948216	-0.0002832568
32	0x3a62d4a1	0.00086529
33	0xb9a8c60a	-0.00032191008
34	0x38b563f8	8.649373e-05
35	0xb9db17fa	-0.000417888
36	0x397ecf1b	0.0002430048
37	0x3a9c2759	0.0011913582
38	0x3a1064ad	0.0005508166
39	0xbaaafc54	-0.001304517
40	0xb875d938	-5.8614853e-05
41	0x39abd315	0.0003277293
42	0xb9be7d65	-0.0003633305
43	0x3ae1051e	0.0017167663
44	0xbb11d683	-0.0022253103
45	0xb94720a2	-0.00018990276
46	0xb90589b2	-0.00012735164
47	0xbaa2d7fb	-0.0012423986
48	0x3a630fb6	0.0008661704
49	0x3aa4005d	0.0012512315
50	0xb98e7c5b	-0.00027177003
51	0x39c38e99	0.00037299542
52	0xba8865fe	-0.0010406373
53	0x3874d2cf	5.8370464e-05
54	0xba4f25e7	-0.0007902071
55	0xb845677e	-4.7064845e-05
56	0xba84da7f	-0.0010135918
57	0xba3a2565	-0.0007100909
58	0xba3db05f	-0.0007236059
59	0xba0a4526	-0.0005274586
60	0x3ae43464	0.0017410633
61	0x3abebcd6	0.0014552127
62	0xbab789dd	-0.0014002878
63	0x3a6f114e	0.0009119705
64	0xba8f66df	-0.0010940692
65	0xbaa75992	-0.0012767783
66	0xbab601b8	-0.001388601
67	0x3a6077ed	0.0008562792
68	0x39895e45	0.00026200913
69	0x3a9d517f	0.0012002437
70	0x3aaeb53e	0.0013329161
71	0x39acb24f	0.00032939247
72	0xba247ee7	-0.00062750134
73	0xb843c1a4	-4.6671965e-05
74	0xbb050dc9	-0.0020302406
75	0x3981ec88	0.00024781027
76	0x3a25e806	0.00063288247
77	0xba808d60	-0.0009807758
78	0xb83cd95c	-4.5025125e-05
79	0x39a157c4	0.00030773703
80	0x399840f7	0.00029040102
81	0x3aa1f6d1	0.0012356882
82	0x3aff3a7c	0.0019472386
83	0x38a866f3	8.03004e-05
84	0xbaa891dd	-0.0012860853
85	0xba416354	-0.0007377167
86	0x399843b0	0.0002904213
87	0xba07c85f	-0.0005179699
88	0x3a688f07	0.00088714104
89	0xb9a5a80f	-0.00031596466
90	0xba298d54	-0.0006467898
91	0xba4a2f4f	-0.0007712738
92	0xba7adb8f	-0.000956946
93	0xb90c2312	-0.00013364505
94	0x38bea8a4	9.091318e-05
95	0xbaca3af8	-0.0015428951
96	0xbaa8626a	-0.0012846712
97	0x3a6959d1	0.00089016283
98	0xb9f98410	-0.00047591375
99	0xb9ec20bb	-0.00045037814
100	0x39d879c6	0.0004128946
101	0xb996aa0d	-0.00028736927
102	0xba10c8e8	-0.00055231014
103	0x3abafd62	0.0014266188
104	0x3914e5c7	0.00014199979
105	0x3ac5c7ea	0.0015089486
106	0xbaaf01f1	-0.0013352019
107	0xba56c6bc	-0.0008193066
108	0x3a37bb7f	0.0007008835
109	0x39ac9431	0.00032916808
110	0xba2b3a22	-0.0006531795
111	0x39cf8f9b	0.0003958911
112	0x3ad61290	0.0016332436
113	0xba3f6f52	-0.000730266
114	0x3ab8f387	0.0014110663
115	0xb8f26d56	-0.000115598246
116	0xb96e0826	-0.00022700484
117	0x3ab3a73d	0.0013706457
118	0xba40a5c4	-0.000734892
119	0x3959ec8c	0.00020782853
120	0x3837f6e3	4.386053e-05
121	0xb89de4f8	-7.528992e-05
122	0xb98b2a17	-0.00026543505
123	0x3a1e8f51	0.00060485775
124	0x3a247ef8	0.00062750233
125	0x3a977169	0.0011554185
126	0x3ab5a676	0.0013858813
127	0x3ac311b1	0.0014882592

convs.weight.0.tensor f4 [32, 32, 18, 2]
0	0xbbe0dc9d	-0.0068622367
1	0x01f887ec	9.129585e-38
2	0x399ca136	0.0002987475
3	0xb8e75f9f	-0.00011032749
4	0xb8a307db	-7.773909e-05
5	0x3921fe71	0.00015448943
6	0x384fe7b0	4.956842e-05
7	0x38835737	6.262812e-05
8	0xb89a327c	-7.352696e-05
9	0x39243915	0.00015661524
10	0xb64cff3e	-3.054694e-06
11	0x38cfac84	9.902663e-05
12	0xb840ddc2	-4.5982895e-05
13	0x38ae38ca	8.307544e-05
14	0x36570da5	3.2045439e-06
15	0x388f3e63	6.830392e-05
16	0x38b2ffd5	8.535354e-05
17	0x37401588	1.1449105e-05
18	0xb68f79bc	-4.275904e-06
19	0x36478ad8	2.9734128e-06
20	0xb5523996	-7.8314895e-07
21	0x3590084a	1.0731248e-06
22	0xb79170df	-1.7337907e-05
23	0x35e04dd1	1.6711948e-06
24	0xb670d89d	-3.5888872e-06
25	0x36ad9541	5.173177e-06
26	0xb6ff74b5	-7.6131787e-06
27	0x373f1590	1.1389508e-05
28	0x3721554a	9.616206e-06
29	0x378b565d	1.6610307e-05
30	0x377efd14	1.5198504e-05
31	0x379d8bba	1.8780924e-05
32	0x381faa9b	3.8067443e-05
33	0xb8998be0	-7.321662e-05
34	0xb8a0e6b6	-7.672368e-05
35	0x39007a2d	0.00012252545
36	0xbbdd3aae	-0.00675138
37	0x00924980	1.3434349e-38
38	0x3c4b1442	0.012394967
39	0xbb363f5d	-0.0027808764
40	0x3b011c78	0.0019700807
41	0xba171848	-0.0005763811
42	0x3a939c9b	0.0011261882
43	0xb9ad1c3d	-0.0003301817
44	0x3a8d07ef	0.0010759811
45	0xb81c9cfa	-3.7339494e-05
46	0x3a5cbe0f	0.0008420655
47	0xb8dbee8c	-0.000104871666
48	0x3a53671e	0.0008064377
49	0xb92e0513	-0.00016595823
50	0x3a16e073	0.00057554914
51	0xb92d1585	-0.00016506582
52	0x39ffed9c	0.00048814423
53	0xb9473851	-0.00018999098
54	0x3997e14b	0.0002896882
55	0xb95616fc	-0.00020417193
56	0x391b8296	0.00014830599
57	0xb967f9a6	-0.00022122878
58	0x39552daf	0.00020330281
59	0xb960ff5e	-0.00021457436
60	0x3963b584	0.00021716027
61	0xb983cb7a	-0.0002513787
62	0x39db6f38	0.000418538
63	0xb9ad3392	-0.00033035554
64	0x3a04ef75	0.0005071082
65	0xb9b13f54	-0.00033807254
66	0x3a397a1d	0.0007075386
67	0xb9aedff8	-0.00033354736
68	0x3a6c5806	0.0009015802
69	0xb85363a9	-5.0399136e-05
70	0x39ceb26a	0.0003942431
71	0x398674eb	0.00025645582
72	0xbc6eca4c	-0.0145745985
73	0x82a0d204	-2.363043e-37
74	0xbcaad21b	-0.02085214
75	0xbb115d39	-0.002218081
76	0xbc873974	-0.016506888
77	0x3ce26f8b	0.027641078
78	0xbc9e2e00	-0.019309044
79	0x3cf6b3ab	0.03011497
80	0xbcb42665	-0.021990964
81	0x3cffcc78	0.031225428
82	0xbcc17bbd	-0.023618573
83	0x3cf02018	0.029312178
84	0xbce2524b	-0.027627131
85	0x3cd52cc9	0.026022332
86	0xbd0a87ed	-0.033821035
87	0x3b2aa55b	0.00260385
88	0xbcfeea56	-0.0311176
89	0x3d170145	0.036866445
90	0xbcd8b307	-0.026452554
91	0xbba1a2c9	-0.0049327356
92	0xbc95e6c6	-0.018298518
93	0x3c765015	0.0150337415
94	0xbca9ec76	-0.020742636
95	0x3c8a6850	0.016895443
96	0xbc9e716d	-0.019341195
97	0x3c6cc90d	0.014452231
98	0xbc9500ec	-0.018188916
99	0xbc024526	-0.007951057
100	0xbccbaa03	-0.024861341
101	0xbc556708	-0.013025053
102	0xbd012cdc	-0.03153692
103	0xbc51c1e1	-0.012802572
104	0xbd26b2c3	-0.040697824
105	0xbc393a87	-0.011305458
106	0xbd4c6beb	-0.049907606
107	0x3d74b190	0.05973965
108	0xbc58e4ba	-0.013238126
109	0x8292a1db	-2.1545672e-37
110	0xbc697df9	-0.014251226
111	0xbc80930b	-0.015695116
112	0xbc8a6817	-0.016895337
113	0x3cd58d41	0.026068332
114	0xbcc798e4	-0.024364896
115	0x3b58758c	0.0033029048
116	0xbc8f4fe2	-0.017494146
117	0x3d00201d	0.031280626
118	0xbc957476	-0.01824401
119	0x3d03768f	0.03209549
120	0xbcbe42af	-0.023225157
121	0x3bbfae60	0.0058496445
122	0xbcc69c8a	-0.024244566
123	0x3b717165	0.003684127
124	0xbcbf3544	-0.023340829
125	0x3d1e6801	0.038673405
126	0xbc96aade	-0.018392023
127	0x3caaa4fd	0.020830626
128	0xbc9608d0	-0.018314749
129	0xbacfa8e1	-0.0015843177
130	0xbc974e61	-0.018469991
131	0xba340099	-0.0006866544
132	0xbc8ae8eb	-0.016956767
133	0x3b6dce54	0.0036286311
134	0xbc5d4e3e	-0.013507424
135	0x3cba83ca	0.02276792
136	0xbc9cd5f5	-0.019144991
137	0x3d02dbb7	0.031947818
138	0xbceff27c	-0.02929043
139	0x3b130619	0.0022434054
140	0xbd175e72	-0.036955304
141	0x3c072f7e	0.008251069
142	0xbd459a10	-0.04824263
143	0x3b97bf33	0.004630947
144	0xbbd1786c	-0.0063925292
145	0x815769c8	-3.9565158e-38
146	0xbc5950a1	-0.013263852
147	0x3c628ad9	0.013827049
148	0xbc73d002	-0.014881136
149	0x3a26e384	0.00063663
150	0xbc8d7b0c	-0.017270587
151	0x3af3a1f2	0.0018587692
152	0xbc8e744d	-0.01738944
153	0xb8e6bf5c	-0.00011002898
154	0xbc8deb9a	-0.017324258
155	0x3b108932	0.002205443
156	0xbc63e0da	-0.013908589
157	0x3cfb5cfa	0.030683983
158	0xbc964b4f	-0.018346457
159	0x3b36bd3d	0.002788379
160	0xbcc3f710	-0.02392152
161	0x3b50397b	0.0031772542
162	0xbc4aca86	-0.012377387
163	0x384ac52d	4.8344187e-05
164	0xbc436207	-0.011925227
165	0x39ff4226	0.00048686675
166	0xbc263bb5	-0.010146071
167	0x3cc30cb3	0.023809766
168	0xbc09e65f	-0.008416741
169	0x3cc317e9	0.023815112
170	0xbc3b4ab2	-0.011431383
171	0x3a1407cc	0.0005646914
172	0xbc9b47aa	-0.01895507
173	0x3cfa15c9	0.030527966
174	0xbcf7cffb	-0.03025054
175	0x3d0c9021	0.03431714
176	0xbd2f8be6	-0.042858027
177	0x3d392c76	0.045208417
178	0xbd58a90d	-0.052895594
179	0x3c1e0a77	0.00964605
180	0xbc3d3ecb	-0.011550616
181	0x81bc1c32	-6.910075e-38
182	0xbc8f5719	-0.017497586
183	0xbb3522b7	-0.00276391
184	0xbc8085e3	-0.015688842
185	0x3c75018d	0.014953983
186	0xbcac428a	-0.021027822
187	0xbbe0b8d1	-0.0068579693
188	0xbca6574f	-0.020305304
189	0x3c51f7d8	0.012815438
190	0xbcb3e6fb	-0.021960726
191	0x3c61c99d	0.0137809785
192	0xbcc841cf	-0.024445442
193	0xbc03025b	-0.007996167
194	0xbcc5c12a	-0.02413996
195	0x3c8f5e84	0.017501123
196	0xbd04e53d	-0.03244518
197	0xbc02d012	-0.007984178
198	0xbcbdda20	-0.0231753
199	0xbbf90c19	-0.007600319
200	0xbc97974b	-0.01850476
201	0x3c2deb06	0.010615116
202	0xbcbf71f4	-0.023369767
203	0xbbdac7b3	-0.006676638
204	0xbc961d92	-0.018324647
205	0x3c464ee0	0.012103766
206	0xbc900e05	-0.01758481
207	0xbc01e7e6	-0.007928824
208	0xbccd58c7	-0.025066746
209	0xbc2edc6e	-0.010672672
210	0xbd024af1	-0.03180975
211	0x3c52e53b	0.012872036
212	0xbd34666a	-0.044042982
213	0xbc777208	-0.015102871
214	0xbd71d9f1	-0.059045736
215	0xbd1cdf53	-0.038298916
216	0xbc757719	-0.014982008
217	0x81c3d34c	-7.1934883e-38
218	0xbbf40110	-0.0074464157
219	0x3acde725	0.0015709145
220	0xba509977	-0.00079574384
221	0x3a08f093	0.00052238366
222	0x3ba4e86f	0.005032591
223	0xbacd328a	-0.0015655321
224	0x3c5352b4	0.012898136
225	0x3b19fc78	0.002349643
226	0x3c48dd4b	0.012259792
227	0x3a9960ae	0.0011701786
228	0x3c56b978	0.013105743
229	0x3bad5e89	0.0052908105
230	0x3c02aeb7	0.007976226
231	0x3b6d0375	0.003616539
232	0x3be12bcf	0.0068716775
233	0x3b3c7322	0.0028755148
234	0x3b38bee3	0.002818995
235	0x3baa5cb5	0.00519904
236	0x3b1993f4	0.0023434134
237	0x3b4bd274	0.0031100782
238	0x3b755838	0.0037436616
239	0x3af1d496	0.0018450196
240	0x3b7ba360	0.003839694
241	0x3a3a3dbe	0.0007104537
242	0x3c0317cd	0.00800128
243	0xbb409664	-0.0029386515
244	0x3c13b432	0.00901513
245	0xbaaec692	-0.0013334325
246	0x3c569d1c	0.013098981
247	0x38c22eae	9.259336e-05
248	0x3c98a92c	0.018635355
249	0x3a041a41	0.00050393125
250	0x3c7b107f	0.015323757
251	0x3ab84fbe	0.0014061851
252	0xbccae077	-0.024765236
253	0x824943b6	-1.478658e-37
254	0xbcd6e222	-0.026230875
255	0x3bae7b75	0.005324776

convs.weight.1.tensor f4 [32, 32, 18, 2]
0	0xba6c3349	-0.00090103276
1	0x8165d30c	-4.2212076e-38
2	0x3950aa90	0.00019899965
3	0xb9567636	-0.00020452667
4	0xb93edc16	-0.000182018
5	0x398d19e2	0.000269129
6	0x38724844	5.77646e-05
7	0x38e49b28	0.00010900787
8	0xb91233ea	-0.00013942985
9	0x398a7cac	0.000264143
10	0xb7ad84a8	-2.068498e-05
11	0x392e857c	0.0001664366
12	0xb8c29df4	-9.280062e-05
13	0x3910b955	0.00013801952
14	0xb721af97	-9.6372305e-06
15	0x38ef9512	0.000114241746
16	0x3908597e	0.00013003309
17	0x37b04cc0	2.1016574e-05
18	0xb77b2bc0	-1.4970952e-05
19	0x36b6c458	5.44688e-06
20	0xb70cfc86	-8.4034455e-06
21	0x3624c948	2.4555065e-06
22	0xb81539b6	-3.5578116e-05
23	0x3646685d	2.9565047e-06
24	0xb75977bc	-1.2962086e-05
25	0x3718376f	9.072813e-06
26	0xb7a216d8	-1.9322542e-05
27	0x37a14ae3	1.9227567e-05
28	0x37049c75	7.904241e-06
29	0x37f84866	2.9597617e-05
30	0x3796cbf2	1.7976363e-05
31	0x380e21c3	3.388688e-05
32	0x3826463d	3.96429e-05
33	0xb8eb9563	-0.00011233499
34	0xb8fa430a	-0.00011933416
35	0x3961397b	0.00021479085
36	0x38106adf	3.4431807e-05
37	0x0184300a	4.8558075e-38
38	0xb5e6875d	-1.7175731e-06
39	0xb8474e71	-4.751835e-05
40	0xb77ebde1	-1.5183789e-05
41	0xb805f3bb	-3.1936663e-05
42	0xb7775468	-1.4742e-05
43	0xb78c316c	-1.6712314e-05
44	0xb7677370	-1.379555e-05
45	0xb71e6d59	-9.442993e-06
46	0xb70c1e9d	-8.351778e-06
47	0xb75932f6	-1.2946073e-05
48	0xb69b0b3f	-4.620669e-06
49	0xb721065a	-9.597827e-06
50	0x35fdbad0	1.8904339e-06
51	0xb6f97a2c	-7.435001e-06
52	0x371afd57	9.238101e-06
53	0xb6cfcf5d	-6.193221e-06
54	0x35a6062d	1.2369761e-06
55	0xb61e5b49	-2.359697e-06
56	0x3590338b	1.0743837e-06
57	0xb656e3a7	-3.2020996e-06
58	0x3658dd02	3.2315152e-06
59	0xb6a69b33	-4.965253e-06
60	0x3655b46b	3.184449e-06
61	0xb6bc3298	-5.6087265e-06
62	0x36a65594	4.957148e-06
63	0xb71d77d9	-9.385833e-06
64	0x36eb7d45	7.018129e-06
65	0xb701feee	-7.748355e-06
66	0x375d8676	1.3203933e-05
67	0xb77bed8c	-1.5016074e-05
68	0xb61044e0	-2.1497763e-06
69	0x370e069e	8.4654e-06
70	0xb7a9c417	-2.0237681e-05
71	0x37fff9dd	3.051472e-05
72	0xbb88b45e	-0.004171892
73	0x828f4c40	-2.1055727e-37
74	0x3a8caef5	0.0010733294
75	0x3993f83e	0.0002822298
76	0x3a0a30af	0.00052715366
77	0x38ca9fb9	9.661861e-05
78	0x39cf9161	0.00039590432
79	0x388a7ef0	6.603997e-05
80	0x39e79ae1	0.00044175147
81	0x386f1b87	5.7007677e-05
82	0x39f72e70	0.0004714611
83	0xb694641c	-4.422398e-06
84	0x3a07c64f	0.00051793916
85	0xb75ed285	-1.32812465e-05
86	0x39f45de4	0.0004660926
87	0x3913e2e7	0.0001410354
88	0x39d7a80f	0.0004113321
89	0xb80482de	-3.1593132e-05
90	0x39ab3383	0.0003265404
91	0x39426542	0.00018539003
92	0x39ae0539	0.00033191757
93	0x384c8c78	4.8768212e-05
94	0x39aa3863	0.00032466938
95	0x3814fa65	3.5519148e-05
96	0x399b0a2c	0.00029571482
97	0x37baecec	2.2283253e-05
98	0x39ae1942	0.00033206685
99	0x38bf050f	9.108532e-05
100	0x39a14cef	0.00030765633
101	0x38a3a86c	7.803817e-05
102	0x39b23ffd	0.0003399848
103	0x38e169f5	0.00010748572
104	0x39c7e985	0.00038130223
105	0x380d2960	3.3655553e-05
106	0x39979bd3	0.00028917062
107	0xb931fa49	-0.00016973274
108	0xbb6a1926	-0.0035720556
109	0x022f688e	1.2886975e-37
110	0x3a875edb	0.0010327952
111	0x38e72d8d	0.00011023423
112	0x39cd12fc	0.0003911479
113	0x37878f05	1.6159853e-05
114	0x397e99c8	0.00024280616
115	0x38adb8c8	8.283701e-05
116	0x39a65bce	0.00031730387
117	0xb87a550c	-5.968385e-05
118	0x39b8f6ed	0.0003527919
119	0xb8e581ed	-0.000109437715
120	0x39c6af1b	0.00037895967
121	0x386c93f1	5.6404566e-05
122	0x39bdad7a	0.0003617814
123	0x387652ee	5.8728205e-05
124	0x39b60948	0.0003472066
125	0xb8c8dc20	-9.577745e-05
126	0x399b9a17	0.0002967871
127	0xb81942df	-3.654032e-05
128	0x396b7da8	0.00022458157
129	0x3905610b	0.0001272002
130	0x39770e0d	0.0002356099
131	0x3900ab19	0.0001227077
132	0x397b0c10	0.00023941719
133	0x38a7ef83	8.007793e-05
134	0x398c6cb4	0.0002678387
135	0xb8ea8ce2	-0.00011184231
136	0x396c9b35	0.00022564533
137	0xb8f12077	-0.000114978226
138	0x3997fc5b	0.00028988984
139	0x389f01b1	7.582026e-05
140	0x39a06fc8	0.00030600862
141	0x379a0829	1.836203e-05
142	0x399e386d	0.0003017815
143	0xb8796d90	-5.9468264e-05
144	0xba815298	-0.0009866534
145	0x0223365a	1.1990947e-37
146	0x3a6931a7	0.00088956434
147	0xb78f0a5c	-1.7051752e-05
148	0x39adcd45	0.0003315007
149	0x392af157	0.0001630237
150	0x3976b566	0.00023527964
151	0x390480b6	0.0001263645
152	0x39926a9c	0.0002792672
153	0x39060b71	0.00012783498
154	0x399cca27	0.00029905254
155	0x38f9e69c	0.000119161996
156	0x39c1dfd5	0.00036978596
157	0xb8e70b5c	-0.00011017054
158	0x39a94396	0.00032284547
159	0x38ca39ef	9.6429016e-05
160	0x3994f5e4	0.00028411963
161	0x38c68e1d	9.4678464e-05
162	0x39715343	0.00023014568
163	0x38ee7290	0.00011370063
164	0x395f906b	0.00021320737
165	0x38fd30ad	0.00012073047
166	0x397f9909	0.00024375705
167	0xb7b95726	-2.20943e-05
168	0x39695009	0.00022250427
169	0xb83ec7a6	-4.5485467e-05
170	0x398a5d6b	0.00026391013
171	0x3833c6d7	4.286211e-05
172	0x395b404d	0.00020909421
173	0xb8e7ddfa	-0.00011056285
174	0x3982d7af	0.0002495623
175	0xb8d696c0	-0.000102323946
176	0x398884c9	0.00026038874
177	0xb91c4fbf	-0.00014907027
178	0x3983bfcf	0.00025129176
179	0xb849c1b1	-4.8102524e-05
180	0xbb19d269	-0.0023471361
181	0x81422c80	-3.56641e-38
182	0x3aa4c58a	0.0012571078
183	0x3985044e	0.00025370944
184	0x3a267ecc	0.00063512917
185	0x39425076	0.00018531256
186	0x39f2f157	0.0004633765
187	0x3996b3e4	0.00028744258
188	0x3a21faf6	0.00061790587
189	0x3933c2c9	0.00017143333
190	0x3a264ad5	0.00063435483
191	0x38fe12a7	0.00012115138
192	0x3a24cb08	0.00062863575
193	0x397d0f6f	0.0002413371
194	0x3a1dbcf8	0.0006017233
195	0xb63de5a5	-2.8296865e-06
196	0x39fb61da	0.00047947356
197	0x394d8b9a	0.00019602329
198	0x39d21b7f	0.00040074807
199	0x397a9d53	0.00023900466
200	0x39da76f0	0.00041668816
201	0x38fc968c	0.00012044338
202	0x39c3ee1c	0.00037370704
203	0x39714edb	0.00023012927
204	0x39cd0484	0.0003910401
205	0x38a2bae9	7.759577e-05
206	0x39e18ee2	0.000430218
207	0x390ee74b	0.00013628339
208	0x39d58c36	0.0004073099
209	0x38f16df3	0.00011512255
210	0x39f1b7f7	0.00046104167
211	0xb5f56a2f	-1.8284826e-06
212	0x3a0f990e	0.0005477824
213	0x37bb6823	2.234063e-05
214	0x39f64b88	0.00046977052
215	0xb8c60921	-9.443076e-05
216	0xbb8f9e1e	-0.0043828627
217	0x8212b299	-1.0777641e-37
218	0x3a7b96b6	0.0009597348
219	0x3a35d791	0.0006936724
220	0x39e975c9	0.0004452898
221	0x39ce1989	0.00039310407
222	0x39ce5e58	0.00039361673
223	0x3959da42	0.0002077604
224	0x3a036fe9	0.00050139293
225	0x398cf2d8	0.00026883814
226	0x3a02329c	0.0004966648
227	0x39497ab0	0.00019214558
228	0x3a079fbe	0.0005173645
229	0x395ed764	0.00021251809
230	0x39fec3ee	0.00048592634
231	0x38c6dda4	9.4826595e-05
232	0x39ea1de7	0.00044654237
233	0x38aad839	8.146506e-05
234	0x39b7997e	0.0003501884
235	0x39129a6a	0.00013981169
236	0x39a38e58	0.00031195837
237	0x391e88c2	0.00015119
238	0x39a7a789	0.00031977546
239	0x3913e7b1	0.00014105324
240	0x39abdb89	0.00032779228
241	0x38c0acf6	9.18749e-05
242	0x39c4cbda	0.00037535914
243	0x37310518	1.0551208e-05
244	0x39b96bb5	0.00035366198
245	0x36393930	2.7600436e-06
246	0x39e69825	0.00043982375
247	0xb7047861	-7.895841e-06
248	0x3a041a8a	0.0005039355
249	0xb8e83531	-0.0001107253
250	0x39d2ba5b	0.00040193167
251	0xb942a276	-0.00018561803
252	0xbb829ceb	-0.0039859912
253	0x0238bdf7	1.3572702e-37
254	0x3a84a86f	0.0010120998
255	0xba03e727	-0.0005031698

convs.weight.2.tensor f4 [32, 32, 18, 2]
0	0x3c29dffe	0.010368345
1	0x822afa0a	-1.2561385e-37
2	0xbb853caa	-0.0040660696
3	0x3bff4838	0.0077905916
4	0x3c1e33e8	0.00965593
5	0x3d143964	0.036187544
6	0xbc82ba26	-0.015957903
7	0x3c79c4ad	0.015244645
8	0x3b42ed4e	0.0029743495
9	0x3cedae5e	0.029013809
10	0xbc343a15	-0.011000176
11	0x3c4cbbbc	0.012495931
12	0xbbb5410d	-0.0055314363
13	0x3c5d229f	0.013497024
14	0xbbedd623	-0.007258193
15	0x3c3719af	0.011175557
16	0xbbed6242	-0.0072443793
17	0x3c042eec	0.008067828
18	0xb962f739	-0.00021645137
19	0x3b9a9285	0.0047171735
20	0xbb56f4ec	-0.0032799793
21	0x3bbac44d	0.0056996704
22	0xbb17ed52	-0.0023182225
23	0x3bac078f	0.0052499245
24	0xbb201b69	-0.00244304
25	0x3b2c63fc	0.0026304713
26	0xba6435c9	-0.00087055244
27	0x3baf46be	0.0053490093
28	0xbba6be2c	-0.005088588
29	0x399ae357	0.0002954255
30	0x3b28e751	0.002577264
31	0x3ba28b4b	0.0049604527
32	0xbb6775e3	-0.0035318069
33	0x3bc99bdf	0.0061526145
34	0xbbb37142	-0.005476148
35	0xbbe81b11	-0.0070833047
36	0xb98ec978	-0.00027234457
37	0x0246488a	1.456756e-37
38	0xbcedf382	-0.029046778
39	0x3beb84d8	0.007187467
40	0xbdb1925b	-0.08670493
41	0x3e541076	0.20709404
42	0xbd561a84	-0.05227138
43	0x3d846898	0.06465262
44	0xbdb676f1	-0.08909405
45	0x3e3a755a	0.18208829
46	0xbdb4ebee	-0.088340625
47	0x3dbb51a2	0.091464296
48	0xbd80a41a	-0.062813
49	0x3e003929	0.12521805
50	0xbd9a18db	-0.07524272
51	0x3da5ad68	0.08089715
52	0xbd07298d	-0.03299861
53	0x3d56a454	0.05240281
54	0xbd81214a	-0.063051775
55	0x3cfe0d35	0.031012157
56	0xbd8a6836	-0.06758158
57	0x3cee855b	0.029116323
58	0xbd5f371b	-0.054495912
59	0x3cba9b49	0.022779124
60	0xbd3ce21e	-0.04611408
61	0x3c6e3188	0.014538176
62	0xbd0b8584	-0.034062877
63	0x3c6153bc	0.013752874
64	0xbd2f28dd	-0.04276358
65	0x3b9051ec	0.004404297
66	0xbd0fd579	-0.035115693
67	0x3d1bdb6b	0.03805105
68	0xbd64e372	-0.05588097
69	0x3b2f54d6	0.0026753447
70	0xbc61e028	-0.013786353
71	0xbca57bb3	-0.020200586
72	0xbc46770a	-0.012113342
73	0x01861d20	4.926562e-38
74	0xbcc32655	-0.02382199
75	0xbca3a592	-0.019976411
76	0xbd5531fb	-0.05204962
77	0xbe0baa9e	-0.13639304
78	0x3c082ad6	0.008310994
79	0xbd2b986a	-0.0418934
80	0xbd0f7078	-0.035019368
81	0xbdeefaf9	-0.11668963
82	0xbcdc46bc	-0.026889198
83	0xbd940605	-0.07227711
84	0xbd669ad0	-0.056299984
85	0xbd8add10	-0.067804456
86	0xbc97b194	-0.018517293
87	0xbd51c064	-0.05120887
88	0x3d4e9aa6	0.050440453
89	0x3bf1561e	0.0073650023
90	0xbc18c62a	-0.00932459
91	0xbc9f7d94	-0.01946906
92	0xbbeaa256	-0.0071604652
93	0xbba89e76	-0.005145843
94	0xbcb83eb8	-0.022490844
95	0xbba08f38	-0.0048998855
96	0xbc118ebb	-0.008884127
97	0xbbd64119	-0.006538522
98	0xba4720aa	-0.0007596115
99	0xbbc90ec6	-0.0061357943
100	0xbaf1ac49	-0.0018438186
101	0xbc2db0c2	-0.010601224
102	0x3c929ad0	0.017896086
103	0xbc3e6a13	-0.01162197
104	0x3b4c7c6d	0.0031202093
105	0x3d796d61	0.060895327
106	0xbdb1fa9b	-0.08690377
107	0xbdca5142	-0.0987878
108	0xbc2b7f1a	-0.010467315
109	0x8241cb18	-1.4237686e-37
110	0x3c5287ce	0.012849761
111	0x3c8203a3	0.015870875
112	0xbdcc723b	-0.09982725
113	0x3cb01cee	0.02149817
114	0xbd3dc7fd	-0.0463333
115	0x3c776cd1	0.015101627
116	0xbd88c549	-0.06678254
117	0xbcacf1ad	-0.021111334
118	0xbd866de7	-0.06563931
119	0xbc31740c	-0.01083089
120	0xbd4c41fa	-0.049867608
121	0xbc8aedbf	-0.01695907
122	0xbd196ce1	-0.03745735
123	0x3b456d8c	0.003012511
124	0x3d546f4a	0.051863946
125	0x3ccce330	0.025010675
126	0xbcce81ff	-0.025208471
127	0x3c747652	0.014920788
128	0xbd0e0dc6	-0.034681104
129	0x3c839772	0.016063426
130	0xbd494c67	-0.04914513
131	0x3c9bc7c7	0.01901616
132	0xbcff1abf	-0.031140683
133	0xba0f6e2b	-0.00054714334
134	0xbc5fb7a1	-0.01365462
135	0x3cb7d7ec	0.022441827
136	0xbd079830	-0.03310412
137	0xbb422aca	-0.0029627555
138	0x3c66b877	0.014082066
139	0x3bc069d0	0.005871989
140	0xbca45338	-0.020059213
141	0x3d82e6fa	0.063917115
142	0xbda23334	-0.079199225
143	0xbdebf50f	-0.115213506
144	0xbb9a3789	-0.0047063273
145	0x829b2b86	-2.2800184e-37
146	0x3c031b8b	0.008002172
147	0x3cd19489	0.025583522
148	0xbd14b221	-0.03630269
149	0xbce2cb4b	-0.027684828
150	0xbc98eaf2	-0.018666718
151	0x3b2d7af9	0.0026471002
152	0xbcb7c624	-0.022433348
153	0xbd5af368	-0.053454787
154	0xbcb9e147	-0.022690428
155	0xbcc0e048	-0.023544446
156	0xbd7effe2	-0.062255748
157	0xbc2caa20	-0.010538608
158	0xbc971f1a	-0.018447448
159	0xbb9e07b1	-0.004822694
160	0x3d3e7fb0	0.04650849
161	0x3d09ad96	0.03361281
162	0xbc96152f	-0.018320648
163	0x3b8fc287	0.004387203
164	0xbcec6100	-0.028854847
165	0x3bf2c8c4	0.007409187
166	0xbd63abea	-0.055583872
167	0x3c9ecec9	0.019385712
168	0xbcfd0bbc	-0.030889384
169	0x3b828e74	0.003984267
170	0xbc969d7c	-0.018385641
171	0x3c0b5cc9	0.008506008
172	0xbced709e	-0.028984364
173	0xbbf21fdf	-0.0073890532
174	0xbc338565	-0.010957097
175	0x3b918678	0.0044410788
176	0xbc8dff85	-0.017333755
177	0x3d4d5f6f	0.05013984
178	0xbd7dc92b	-0.061959427
179	0xbddf0c9d	-0.10891078
180	0xbc2739c8	-0.010206647
181	0x02088925	1.003106e-37
182	0xbd19a5d9	-0.03751168
183	0xbc96206c	-0.018326007
184	0xbc505f82	-0.012718083
185	0xbe35d2bd	-0.17756172
186	0x3d19de47	0.037565496
187	0xbd1999ad	-0.037500072
188	0xbbcedbb1	-0.0063128104
189	0xbe11a8ce	-0.1422455
190	0x3c36551e	0.011128692
191	0xbd910877	-0.07081693
192	0xbc9d2b39	-0.01918565
193	0xbda6b291	-0.081395276
194	0x3a586d7c	0.00082560605
195	0xbd780e9c	-0.060560808
196	0x3d9f2935	0.077715315
197	0x3c8ac2fc	0.016938679
198	0xbb60c71d	-0.0034298368
199	0xbcbb1a03	-0.022839552
200	0xbb0b7290	-0.0021278001
201	0xbc1d476c	-0.009599548
202	0xbc696f31	-0.0142477015
203	0xbc68816b	-0.014191012
204	0xbbf92061	-0.007602737
205	0xbc2940b9	-0.0103303725
206	0x3b664700	0.0035137534
207	0xbc0712b9	-0.00824421
208	0xbb54adb3	-0.0032452166
209	0xbca63b10	-0.020291835
210	0x3ce0a346	0.027421605
211	0xbc7188d6	-0.014742097
212	0x3c5bb147	0.013408965
213	0x3d95ef47	0.07321029
214	0xbdd03d4a	-0.1016794
215	0xbdd74439	-0.10511059
216	0xbc55caab	-0.013048808
217	0x81da1c78	-8.0121403e-38
218	0x3d19c6a5	0.037542958
219	0x3c4ded79	0.012568825
220	0x3daf0e5b	0.0854766
221	0xbdbcce7b	-0.092190705
222	0x3d79c290	0.060976565
223	0xbc24604b	-0.010032724
224	0x3d1f5394	0.038898066
225	0xbdce5e65	-0.10076598
226	0x3d14747a	0.036243893
227	0xbd125d6a	-0.035733618
228	0x3bcc4dff	0.006234884
229	0xbd42bbe6	-0.047542475
230	0x3d1a0e3e	0.03761124
231	0xbd0a5d8e	-0.033780627
232	0x3db880f7	0.09008973
233	0x3ba19b7d	0.0049318657
234	0xbb9462ce	-0.00452838
235	0xba170f1d	-0.0005762445
236	0xbc3bee9f	-0.011470466
237	0x3af9a065	0.0019044994
238	0xbcf9e46f	-0.030504433
239	0x3add839d	0.0016900186
240	0xbcacd276	-0.02109645
241	0xbc0448be	-0.008073984
242	0xbc4f1926	-0.012640273
243	0xbb93e2c9	-0.004513119
244	0xbc8be7f7	-0.017078383
245	0xbc8467dd	-0.016162807
246	0x3c4e2da1	0.012584121
247	0xbc2dee04	-0.010615829
248	0x3bb2d72c	0.0054577794
249	0x3d8bf522	0.06833865
250	0xbdc6f59f	-0.09714817
251	0xbde73a60	-0.11290431
252	0xbc5701fb	-0.013123031
253	0x022bbd76	1.2617468e-37
254	0x3c6f4fd4	0.014606435
255	0x3cda188d	0.026623035

convs.weight.3.tensor f4 [32, 32, 18, 2]
0	0x3c149230	0.009068057
1	0x8286ed72	-1.9825817e-37
2	0x3b9e39d5	0.0048286715
3	0x3c10c2b9	0.008835488
4	0x3aecf722	0.0018079022
5	0x3cbfb6e6	0.023402642
6	0xbbb978e3	-0.005660163
7	0x3c8fd4b9	0.017557489
8	0xbb9196ca	-0.0044430243
9	0x3cef0dff	0.029181479
10	0xbc1d4ddf	-0.009601085
11	0x3c84ce9f	0.016211806
12	0xbb99c1c7	-0.0046922895
13	0x3c62a3d6	0.013833007
14	0xbb9d3c28	-0.004798431
15	0x3c2ed5bd	0.010671076
16	0x3bd218c2	0.006411643
17	0x3c26196e	0.010137899
18	0x3c3f90d9	0.011692249
19	0x3b012854	0.0019707875
20	0x3b66f16d	0.0035239116
21	0x3b70b502	0.0036728983
22	0x3ac51ff6	0.0015039432
23	0x3b5c0101	0.0033569934
24	0x3afe85a2	0.0019418488
25	0x3af26d32	0.0018495678
26	0x3bc9fe3d	0.006164341
27	0x3b5e4714	0.0033916878
28	0x3b5fae13	0.0034130856
29	0x3b27cea0	0.0025605336
30	0x3bb2b23a	0.005453375
31	0x3bd4b6d8	0.0064915232
32	0x3c8a3392	0.016870294
33	0x3b334262	0.00273528
34	0x3d81842e	0.063240394
35	0xbca7124b	-0.020394465
36	0x3c3d884b	0.011568139
37	0x826a64fc	-1.7220586e-37
38	0xbcb62585	-0.022234688
39	0xbb1cf519	-0.00239498
40	0xbc8b5a93	-0.017010963
41	0xbcb0fcac	-0.021604858
42	0xbc733fcb	-0.014846752
43	0xbc263bd9	-0.010146105
44	0xbc975d0c	-0.018476985
45	0xbc8662d4	-0.016404547
46	0xbc6fe55d	-0.014642087
47	0xbbcff39c	-0.006346179
48	0xbc95471d	-0.018222386
49	0xba621dce	-0.0008625657
50	0xbc680f94	-0.01416387
51	0x3b88c1b2	0.004173481
52	0xbcaf060e	-0.021365192
53	0x3c7912a6	0.0152022
54	0xbbebaca5	-0.0071922117
55	0x3b17d2ce	0.002316642
56	0xbb354873	-0.0027661591
57	0x3acaadf4	0.0015463219
58	0xbb977da6	-0.0046231328
59	0xba4d8d01	-0.00078411406
60	0xbb80262e	-0.0039108014
61	0xbab84050	-0.0014057253
62	0xbb668bc4	-0.0035178522
63	0xbc055fb9	-0.008140498
64	0xbbaffec7	-0.005370948
65	0xbc102512	-0.008797901
66	0xbc6cbc62	-0.014449211
67	0xbc9b7ef9	-0.018981444
68	0xbc9ee148	-0.019394532
69	0xbcd8e907	-0.026478304
70	0xbd1c3160	-0.038133025
71	0xbd3bf3a8	-0.045886666
72	0xbc334401	-0.010941506
73	0x81e06ab2	-8.2437705e-38
74	0x3cc4f13d	0.024040813
75	0xbbcadf72	-0.0061911875
76	0x3c910db3	0.017706728
77	0x3b4f4230	0.0031625144
78	0x3c0b743d	0.0085116
79	0x3ad6c731	0.0016386268
80	0x3c51a4f4	0.012795676
81	0x3bca3bc6	0.0061716763
82	0x3c0cd6ea	0.008596161
83	0x3b15d05e	0.0022859792
84	0x3c18c6a6	0.009324705
85	0xbade0972	-0.0016940071
86	0x3bcd8ca7	0.0062728706
87	0xbb91aa84	-0.004445376
88	0x3c211f73	0.009834158
89	0xbc303d70	-0.010756835
90	0x3b60ec18	0.003432041
91	0xbb32c82d	-0.0027279959
92	0x3b2b40f4	0.0026131244
93	0xbb29ce0e	-0.0025910172
94	0x3b771c3d	0.003770604
95	0xb9f78f30	-0.00047218194
96	0x3b42eff2	0.002974507
97	0x398851d0	0.00026000896
98	0x3b2035c5	0.0024446112
99	0x3bc0a9e5	0.005879628
100	0x3b4f290b	0.0031610157
101	0x3bef908f	0.007310934
102	0x3bea55f0	0.007151358
103	0x3c8b43ef	0.017000167
104	0xbc88a68a	-0.016680975
105	0x3cf88890	0.030338556
106	0xbd0b52ef	-0.03401464
107	0x3d569a3b	0.05239318
108	0xbc2cbe31	-0.010543392
109	0x81983790	-5.591571e-38
110	0x3bf4462e	0.007454655
111	0xbc673907	-0.0141127175
112	0x3c31c2f4	0.010849703
113	0xbc6a4d2b	-0.014300625
114	0x3c13b572	0.009015428
115	0xbc069368	-0.008213855
116	0x3c067833	0.008207369
117	0xbbb142a4	-0.0054095555
118	0x3b8dc426	0.004326361
119	0xba9935de	-0.0011689027
120	0x3a0ccf29	0.00053714454
121	0xb9dff85a	-0.0004271891
122	0xba438f82	-0.0007460044
123	0xba3c9389	-0.00071936153
124	0xbb998b04	-0.0046857614
125	0xb9d9e92e	-0.00041563198
126	0xbb5db956	-0.0033832393
127	0xbb65ca9d	-0.0035063394
128	0xb9beb98b	-0.00036377864
129	0xbb87261f	-0.0041244174
130	0x3a64917e	0.000871919
131	0xbae4fd5f	-0.001747053
132	0xba4188d3	-0.0007382754
133	0x39daea9c	0.00041754998
134	0xbb77dc8a	-0.003782066
135	0x3b879acc	0.0041383263
136	0xbba4896f	-0.005021266
137	0x3bd69402	0.0065484056
138	0xbb93ee69	-0.0045145047
139	0x3c588620	0.013215572
140	0xbcfd3edd	-0.030913765
141	0x3ca1a66b	0.019732675
142	0xbd4654c9	-0.0484207
143	0x3d281b3f	0.04104161
144	0xbb86349b	-0.0040956265
145	0x01470de0	3.6560482e-38
146	0x3baac82f	0.005211852
147	0xbc340183	-0.010986689
148	0xbaf5749a	-0.0018726767
149	0xbc4ca0bd	-0.012489495
150	0x3b3dd4fb	0.0028966058
151	0xbba656f8	-0.0050762855
152	0x3b3bb687	0.002864273
153	0xbb238202	-0.0024949317
154	0x3b2785dd	0.0025561966
155	0x3aaa1c1b	0.0012978347
156	0xb90affed	-0.00013256045
157	0x3af6d1be	0.0018830819
158	0xbacac4b7	-0.0015470003
159	0x39ee4ca0	0.00045451988
160	0xbb4694a5	-0.0030301001
161	0xba234da0	-0.00062295236
162	0xbb1053bb	-0.0022022563
163	0xbb83cc6a	-0.004022171
164	0x39eaea8e	0.00044806715
165	0xbb94a773	-0.004536563
166	0x3b06e7ca	0.0020584934
167	0xbb228c2e	-0.0024802792
168	0x3aa5ac03	0.0012639764
169	0xba775747	-0.00094353076
170	0x3a122c51	0.00055760617
171	0x3b5366b4	0.003225726
172	0xb91bcf53	-0.00014859186
173	0x3ba8ea82	0.0051549086
174	0x3b79ef1f	0.0038136912
175	0x3c59a674	0.013284314
176	0xbc98048a	-0.018556852
177	0x3c3c8518	0.011506341
178	0xbd1c0844	-0.03809382
179	0x3ccca748	0.02498211
180	0xbc234819	-0.00996592
181	0x819c101e	-5.7328477e-38
182	0x3cd128bb	0.025532117
183	0xba6cd598	-0.00090345135
184	0x3c8b6714	0.017016925
185	0x3c74a311	0.014931456
186	0x3c579458	0.0131579265
187	0x3bbf240b	0.005833154
188	0x3c895aaf	0.016766874
189	0x3c403f97	0.011733911
190	0x3c4461ef	0.01198624
191	0x3bac466a	0.0052574174
192	0x3c636e6b	0.013881306
193	0x3ab78280	0.0014000684
194	0x3c24d56c	0.010060649
195	0xbb154d5b	-0.0022781703
196	0x3c6415d1	0.013921217
197	0xbc1e6d2b	-0.009669582
198	0x3bacc370	0.0052723214
199	0xbb039bb5	-0.0020081822
200	0x3b1c9e2d	0.002389799
201	0xbae999ac	-0.0017822287
202	0x3b8ebed2	0.0043562436
203	0x3a285c7a	0.00064224715
204	0x3b559519	0.003259009
205	0x3ac90c8d	0.0015338823
206	0x3af3bf8c	0.0018596514
207	0x3c00a029	0.007850685
208	0x3b500da7	0.0031746419
209	0x3c19f21d	0.009396103
210	0x3c1ca252	0.009560185
211	0x3ca2c1c8	0.019867793
212	0x3ab5e529	0.0013877499
213	0x3ce3646b	0.027757844
214	0x3c1ebf30	0.009689137
215	0x3d42538f	0.04744297
216	0xbc410826	-0.011781728
217	0x021d0a0f	1.1537425e-37
218	0x3bc62820	0.0060472637
219	0xbbb1b28a	-0.005422895
220	0xbb13769d	-0.002250112
221	0x3bae3e0b	0.0053174547
222	0x3babccaa	0.0052429037
223	0x3b81442c	0.0039448943
224	0x3bf70b27	0.0075391713
225	0x3c23a1f9	0.009987348
226	0x3bee630a	0.00727499
227	0x3c12c545	0.0089581655
228	0x3c11dfa6	0.00890342
229	0x3c0102da	0.007874215
230	0x3be52a00	0.006993532
231	0x3b84cb61	0.004052565
232	0x3c37cc6c	0.011218172
233	0x3a83369a	0.0010010779
234	0x3bb0c837	0.005394961
235	0xbb7d18a2	-0.0038619419
236	0x3b664de8	0.003514165
237	0xbb5dea10	-0.0033861436
238	0x3bb6bdab	0.0055768094
239	0xb94e0933	-0.00019649118
240	0x3b8a95e2	0.004229293
241	0x3aa8d841	0.0012881831
242	0x3b54a490	0.003244672
243	0x3c00fe62	0.00787315
244	0x3b3a2acc	0.0028406857
245	0x3c2233ab	0.009900014
246	0x3c462d7a	0.012095803
247	0x3c99c0d8	0.018768713
248	0x3bf33a07	0.007422689
249	0x3c5527fb	0.01301002
250	0x3c31ede9	0.010859945
251	0x3ccfa859	0.02534883
252	0xbc4e9100	-0.012607813
253	0x80985f90	-1.3993277e-38
254	0x3bfecc55	0.007775823
255	0xbc6bf35a	-0.014401281

fno_skips.0.weight f4 [1, 32, 1]
0	0x3f71b00e	0.94409263
1	0x3f7dbe1f	0.99118227
2	0x3f81bc5d	1.0135609
3	0x3f81b93c	1.0134654
4	0x3f80d5db	1.0065264
5	0x3f818a8e	1.0120409
6	0x3f2d8fdd	0.6779764
7	0x3f706668	0.9390626
8	0x3f7cec2b	0.98797864
9	0x3f81783c	1.0114818
10	0x3f807bbc	1.0037761
11	0x3f719416	0.94366586
12	0x3f0ca732	0.5494262
13	0x3f81dd90	1.014574
14	0x3f81b0da	1.0132096
15	0x3f7e949e	0.9944552
16	0x3f81e85b	1.0149034
17	0x3f222841	0.6334267
18	0x3f6fcf5c	0.9367578
19	0x3f31573a	0.6927372
20	0x3f7055ac	0.93880725
21	0x3f7f81f1	0.9980765
22	0x3f806e69	1.0033695
23	0x3f0c8f7b	0.54906434
24	0x3f0c89fd	0.54898053
25	0x3f7bb536	0.9832338
26	0x3f7f6413	0.99762076
27	0x3f804154	1.0019937
28	0x3f7d2954	0.98891187
29	0x3f7dcf2f	0.9914426
30	0x3f7ebfc2	0.9951135
31	0x3f7e3c2a	0.99310553

fno_skips.1.weight f4 [1, 32, 1]
0	0x3f0c4ba1	0.548029
1	0x3f49d7fe	0.788452
2	0x3f81bded	1.0136086
3	0x3f81b0ce	1.0132082
4	0x3f80c55a	1.0060227
5	0x3f81859f	1.0118903
6	0x3f251266	0.644812
7	0x3f7749e8	0.96597147
8	0x3f7b36a4	0.9813025
9	0x3f812b68	1.0091372
10	0x3f805594	1.0026116
11	0x3f79057b	0.9727399
12	0x3f0c8922	0.5489675
13	0x3f81e32b	1.0147451
14	0x3f81b21d	1.0132481
15	0x3f6f748d	0.9353722
16	0x3f81e789	1.0148784
17	0x3f0d1452	0.5510913
18	0x3f7668a7	0.96253437
19	0x3f2bac9c	0.67060256
20	0x3f782910	0.96937656
21	0x3f7d4a95	0.9894193
22	0x3f804e4e	1.0023897
23	0x3f0c8adb	0.54899377
24	0x3f0c8a5c	0.5489862
25	0x3f7fe81d	0.9996355
26	0x3f7f032a	0.996142
27	0x3f802384	1.0010839
28	0x3f7d1745	0.9886363
29	0x3f7e72f2	0.9939414
30	0x3f7b9375	0.98271877
31	0x3f7def4a	0.9919325

fno_skips.2.weight f4 [1, 32, 1]
0	0x3f804f7e	1.0024259
1	0x3f7f6137	0.99757713
2	0x3f81c29b	1.0137514
3	0x3f81ac30	1.0130672
4	0x3f80b967	1.005658
5	0x3f818468	1.0118532
6	0x3f817cc2	1.0116198
7	0x3f81a8fd	1.0129696
8	0x3f8000c0	1.0000229
9	0x3f80d459	1.0064803
10	0x3f802d49	1.001382
11	0x3f803110	1.0014973
12	0x3f7cfafe	0.98820484
13	0x3f81ea7d	1.0149685
14	0x3f81b3d0	1.0133
15	0x3f810324	1.0079083
16	0x3f81e9ad	1.0149437
17	0x3f81600f	1.010744
18	0x3f817f75	1.0117022
19	0x3f816c95	1.0111262
20	0x3f8187da	1.0119584
21	0x3f7d56b6	0.98960435
22	0x3f802f1f	1.001438
23	0x3f812f45	1.009255
24	0x3f7efaa4	0.996012
25	0x3f80ad85	1.0052954
26	0x3f7e5ffd	0.99365216
27	0x3f800b71	1.0003492
28	0x3f7d8e64	0.99045396
29	0x3f805d39	1.0028449
30	0x3f80540d	1.002565
31	0x3f7dc164	0.99123216

fno_skips.3.weight f4 [1, 32, 1]
0	0x3f80a523	1.0050396
1	0x3f81af23	1.0131572
2	0x3f81c787	1.0139016
3	0x3f81a26f	1.0127696
4	0x3f809e11	1.0048238
5	0x3f818164	1.0117612
6	0x3f817d22	1.0116313
7	0x3f818d99	1.0121337
8	0x3f7e267f	0.9927749
9	0x3f806c0d	1.0032974
10	0x3f7fc477	0.99909157
11	0x3f7df193	0.9919674
12	0x3f7cae48	0.9870343
13	0x3f81f132	1.0151732
14	0x3f81b3c4	1.0132985
15	0x3f811c5c	1.008678
16	0x3f81eabb	1.0149759
17	0x3f815b2f	1.0105952
18	0x3f815883	1.0105137
19	0x3f815583	1.0104221
20	0x3f8186fe	1.0119321
21	0x3f7a8ea1	0.97873884
22	0x3f7ffcc8	0.9999509
23	0x3f811e35	1.0087343
24	0x3f81788d	1.0114914
25	0x3f8117ea	1.0085423
26	0x3f7ef5bb	0.99593705
27	0x3f7fcdad	0.9992321
28	0x3f7dc474	0.9912789
29	0x3f8184bb	1.0118631
30	0x3f80c4b0	1.0060024
31	0x3f7d9ce1	0.99067503

lifting.fc.weight f4 [32, 1, 1]
0	0xbf0be483	-0.54645556
1	0xbeb3d7bf	-0.3512554
2	0x3eba48b8	0.36383605
3	0x3f067210	0.52517796
4	0x3f3d2a8d	0.7389305
5	0x3f55b17e	0.83473957
6	0xbf5a2a6b	-0.85220975
7	0xbf23d41b	-0.6399552
8	0xbea9bd57	-0.33152267
9	0x3e82dce7	0.2555916
10	0x3f08c3cc	0.5342376
11	0xbefdefb7	-0.4959695
12	0xbf3f3a42	-0.7469827
13	0x3f658616	0.89657724
14	0x3f41758a	0.75569975
15	0xbe206850	-0.15664792
16	0x3f37b945	0.71767074
17	0xbf610fe5	-0.8791488
18	0xbf277f91	-0.65429026
19	0xbf435ac3	-0.76310366
20	0xbf24637d	-0.6421431
21	0x3e63586a	0.22201696
22	0x3f2db775	0.6785806
23	0xbf776fbb	-0.9665486
24	0xbf79456e	-0.97371566
25	0xbde7637b	-0.11298271
26	0x3d6a6997	0.057229605
27	0x3f342b83	0.70378894
28	0x3f00a2ed	0.50248605
29	0xbd90166c	-0.07035527
30	0xbe42f5d5	-0.1903909
31	0x3f584470	0.8447943

lifting.fc.bias f4 [32]
0	0xbebb3a76	-0.3656804
1	0xbf52025d	-0.82034856
2	0x3e90cd9f	0.28281876
3	0xbea5d30e	-0.32387584
4	0x3efec94b	0.4976295
5	0xbf44d024	-0.768801
6	0x3f0cb8c3	0.54969424
7	0xbe305dcb	-0.17223279
8	0x3d42d0b4	0.047562316
9	0x3f71f7c1	0.9451867
10	0xbecbd10e	-0.39807934
11	0x3e7bbf1f	0.24584626
12	0xbeed4ff0	-0.4635005
13	0x3f79c0f8	0.9756007
14	0xbf22574b	-0.6341445
15	0xbf2a558c	-0.66536784
16	0xbe292f35	-0.16521914
17	0x3f78d821	0.97204787
18	0x3f09c522	0.53816426
19	0x3ef41a44	0.4767629
20	0x3e5d3b16	0.21604571
21	0xbf350e16	-0.7072462
22	0xbd908516	-0.07056634
23	0xbe01538c	-0.12629527
24	0x3e8dfd1c	0.2773217
25	0x3f208c9b	0.62714547
26	0x3ea7e999	0.32795408
27	0x3e485fef	0.19567846
28	0x3f17a5ff	0.59237665
29	0xbf0f9057	-0.5607962
30	0x3f617481	0.88068396
31	0x3f4274a4	0.7595923

projection.fc1.weight f4 [64, 32, 1]
0	0xbc5a326b	-0.013317685
1	0xbdd94a86	-0.10609917
2	0x3e3cfaf8	0.18455112
3	0xbe0bf7f4	-0.13668805
4	0x3e3b35c9	0.18282236
5	0x3d6e569d	0.05818807
6	0xbe0f2cd4	-0.13981944
7	0x3ce542a7	0.027985884
8	0x3debab04	0.11507228
9	0xbe2048d8	-0.15652788
10	0xbe1d4efc	-0.15362161
11	0x3da09479	0.07840819
12	0xbd462d27	-0.048382904
13	0x3d02c21c	0.0319234
14	0xbbd57f8b	-0.0065154484
15	0x3df72450	0.12067473
16	0xbe02404c	-0.1271984
17	0xbdefdf8f	-0.11712562
18	0xbe28e155	-0.16492207
19	0x3de025ca	0.10944708
20	0xbc620235	-0.0137944715
21	0xbe1ac312	-0.15113476
22	0xbdbbf211	-0.0917703
23	0xbe08273e	-0.1329622
24	0xbe10d67f	-0.14144324
25	0x3e207925	0.15671213
26	0x3dc8d028	0.09805328
27	0x3de810c4	0.11331323
28	0x3e0d72d9	0.13813342
29	0xbe0cc952	-0.13748673
30	0xbdcd67fd	-0.100296
31	0xbdb291e6	-0.08719234
32	0xbe28610b	-0.16443269
33	0xbd92a243	-0.07159855
34	0xbe350ffc	-0.17681879
35	0x3e199c5d	0.15001054
36	0x3d5eb7cb	0.054374497
37	0x3df8a51b	0.12140866
38	0xbdab31e8	-0.08359128
39	0xbdc1cbac	-0.094626755
40	0xbdc11bb6	-0.094291136
41	0xbdbfd2b2	-0.09366359
42	0xbde8635c	-0.11347076
43	0x3de53509	0.11191756
44	0x3deaacc8	0.11458737
45	0xbe11456e	-0.14186642
46	0x3cbc113f	0.022957442
47	0x3dd83bc8	0.10558277
48	0xbc14810a	-0.009063968
49	0x3d3ea978	0.046548337
50	0xbc289ab7	-0.010290793
51	0xbc209e77	-0.009803406
52	0x3e0a1772	0.13485506
53	0x3cc1b9e4	0.02364821
54	0xbd09591b	-0.033532243
55	0xbd9cbb7c	-0.07652947
56	0x3e14d9da	0.14536229
57	0x3c8db622	0.017298762
58	0x3e2ff123	0.1718183
59	0x3d78114a	0.060563363
60	0xbdf5cd13	-0.120020054
61	0xbe0334f6	-0.12813172
62	0x3e2f6f8c	0.17132396
63	0x3c80dbf0	0.015729874
64	0xbd7053c3	-0.05867363
65	0x3daf4697	0.08558386
66	0x3e01e15a	0.12683621
67	0xbd14bc37	-0.03631231
68	0xbd4212f7	-0.047381368
69	0x3cdd0f2d	0.026984775
70	0xbdbcbb1e	-0.09215377
71	0x3c27591f	0.010214119
72	0x3e000cfe	0.12504956
73	0xbd5a6549	-0.05331925
74	0x3d86bbc5	0.06578783
75	0xbdb48450	-0.08814299
76	0x3db46588	0.08808428
77	0xbe19b64b	-0.15010945
78	0xbe32ef63	-0.17474131
79	0xbe2b7102	-0.16742328
80	0xbd94f172	-0.072726145
81	0xbe0d395d	-0.13791414
82	0x3d6da320	0.058016896
83	0xbe27fb47	-0.16404448
84	0x3dca9b6e	0.09892927
85	0x3db46eac	0.088101715
86	0xbd83aa36	-0.064289495
87	0x3e16fea4	0.14745575
88	0x3d82c359	0.06384916
89	0x3c9b9101	0.018990042
90	0xbdc9d88d	-0.09855757
91	0xbb9b9ccc	-0.0047489163
92	0x3de15c84	0.11003974
93	0xbe0e536a	-0.13899007
94	0xbe09ab6d	-0.134443
95	0x3dcc8941	0.099871166
96	0x3cd1ad90	0.025595456
97	0x3da7a02e	0.08184849
98	0x3dace1b6	0.084414884
99	0x3d1ab069	0.037765894
100	0x3dcf7a1e	0.10130714
101	0xbc540b4b	-0.012942146
102	0xbd55cd02	-0.052197464
103	0x3debb1b7	0.11508506
104	0xbe149793	-0.14510946
105	0x3b829e11	0.003986128
106	0xbd96de56	-0.07366626
107	0x3e0f0903	0.13968281
108	0xbd31f53d	-0.043446768
109	0xbbaf7ecb	-0.005355691
110	0xbdd61730	-0.104536414
111	0xbe1a57bb	-0.15072529
112	0x3d5ca394	0.053866938
113	0xbcf29e67	-0.029616548
114	0xbdd70f00	-0.10500908
115	0x3be798fc	0.0070677977
116	0xbd5830e7	-0.052781012
117	0x3c8b97b4	0.017040111
118	0xbcd730a8	-0.026268318
119	0xbe14c6d7	-0.14528976
120	0x3e05c00d	0.13061543
121	0x3c6a9828	0.014318503
122	0xbc84f14b	-0.016228339
123	0xbe0888f7	-0.13333498
124	0x3e228973	0.15872745
125	0x3e37959d	0.17928167
126	0xbdcad2dd	-0.099035
127	0x3d484072	0.048889585
128	0xbb760786	-0.0037541105
129	0x3a0b48f8	0.00053133024
130	0xbcba80ec	-0.022766553
131	0xbd1d1af5	-0.038355786
132	0xbdd2955c	-0.10282394
133	0x3caa1682	0.020762686
134	0x38017fc2	3.087498e-05
135	0x3ae43f71	0.0017413927
136	0x3b8e60a0	0.0043450147
137	0x3c9e06bc	0.01929032
138	0xbd5a5521	-0.05330384
139	0xbb6842fc	-0.0035440316
140	0x3b4476d9	0.0029978065
141	0xb9f5f264	-0.00046910637
142	0xbdcc1608	-0.099651396
143	0x3bad3d7c	0.0052868705
144	0xbda32a2c	-0.07967028
145	0x3bd0487e	0.006356298
146	0x3a1866eb	0.0005813676
147	0x3b5e47dd	0.0033917346
148	0x3b804fd9	0.0039157686
149	0xbbbe6c5b	-0.005811257
150	0x3b5b6ad1	0.0033480416
151	0x39c11a24	0.00036831305
152	0xb9b68850	-0.00034815306
153	0x3ac5d67b	0.0015093827
154	0xb8895e30	-6.550213e-05
155	0xbcd27bc6	-0.025693785
156	0xbd0b9149	-0.0340741
157	0xb84111b1	-4.6031262e-05
158	0x3b420c77	0.002960948
159	0xbcb56a14	-0.022145309
160	0x3e11d687	0.14241992
161	0x3ca6913e	0.020332929
162	0x3d29877f	0.041388985
163	0x3e04b93a	0.12961283
164	0xbd956bfb	-0.07295986
165	0xbde20a72	-0.110371485
166	0x3d8c552c	0.06852183
167	0x3d23bb61	0.03997362
168	0xbcbd0135	-0.023071865
169	0xbe26ec84	-0.16301161
170	0xbde13300	-0.109960556
171	0x3db8f8fc	0.09031865
172	0xbddcaff8	-0.10775751
173	0x3caf0f47	0.02136959
174	0xbe245c58	-0.16050851
175	0x3cde0b9d	0.027105147
176	0xbddd925d	-0.10818932
177	0x3d8988cf	0.06715547
178	0x3c34cb57	0.011034808
179	0xbe289105	-0.1646157
180	0xbdae1894	-0.08500782
181	0xbd4ad4a8	-0.04951921
182	0x3e14a4a6	0.14515933
183	0xbe23aa03	-0.15982823
184	0x3d40cf8f	0.047072943
185	0xbe19ea7e	-0.15030858
186	0xbbb6fb30	-0.005584143
187	0x3cbe28ca	0.02321281
188	0xbe2ebc70	-0.1706407
189	0x3de0cd38	0.10976642
190	0xbd8f9630	-0.07011068
191	0x3db0241b	0.086006366
192	0xbe0f917e	-0.14020345
193	0x3d96f2f7	0.073705606
194	0xbe14a119	-0.14514579
195	0x3e1a6f5d	0.15081544
196	0x3e25ed2a	0.16203752
197	0xbdeba12f	-0.11505353
198	0x3df70cbf	0.12062978
199	0x3e0c15e4	0.13680226
200	0x3d73cf69	0.059523974
201	0x3e10072a	0.14065233
202	0x3e276395	0.16346581
203	0xbd93a062	-0.07208325
204	0xbd6e7185	-0.05821373
205	0xbd44bc1e	-0.048030965
206	0xbde119c6	-0.10991244
207	0x3b8afa27	0.0042412463
208	0xbc058035	-0.008148243
209	0x3e221ce3	0.15831332
210	0x3e1cd963	0.15317301
211	0xbe2dec14	-0.16984588
212	0xbe281cd7	-0.16417252
213	0xbe0ce626	-0.1375967
214	0xbdd6f748	-0.10496384
215	0xbd45576c	-0.048179075
216	0xbe090021	-0.13378955
217	0xbde6a92c	-0.11262736
218	0xbc90e53f	-0.017687438
219	0x3b53b0e6	0.0032301485
220	0xbe3578cc	-0.17721862
221	0xbaa6de68	-0.0012731077
222	0x3c12502c	0.008930247
223	0xbd46aa7a	-0.048502423
224	0x3c8007ee	0.015628781
225	0x3dbdbfaf	0.09265076
226	0x3e1f86bb	0.1557874
227	0xbe09d3ff	-0.13459776
228	0x3d0439f7	0.032281842
229	0xbdb7170a	-0.08939941
230	0xbd42e14f	-0.047578152
231	0x3d0fc8c2	0.035103567
232	0xbc44bea8	-0.012008347
233	0xbddf94ee	-0.10917078
234	0x3d79393d	0.060845602
235	0xbd1ab28c	-0.03776793
236	0xbdba5cb9	-0.09099717
237	0xbd8700ac	-0.06591925
238	0x3e28e5c1	0.16493894
239	0x3d852854	0.065018326
240	0xbc48c6a3	-0.01225439
241	0xbe22ac19	-0.15885963
242	0xbd3006cb	-0.04297523
243	0xbca7c055	-0.020477453
244	0x3d329fc4	0.043609396
245	0xbd95765c	-0.07297966
246	0xbdf6175a	-0.12016173
247	0x3df4d078	0.11953825
248	0x3b44396f	0.002994146
249	0x3da11df5	0.07867042
250	0xbd4dd32b	-0.050250214
251	0x3d81d368	0.06339151
252	0xbde6b6e4	-0.11265352
253	0x3d257f93	0.040404867
254	0x3dbc72f3	0.09201612
255	0xbdb17d14	-0.08666435

projection.fc1.bias f4 [64]
0	0xbd1c310b	-0.03813271
1	0xbdc3e64f	-0.09565412
2	0x3e13b7f5	0.14425643
3	0x3e0b86fc	0.13625711
4	0xba46a192	-0.00075771764
5	0xbe34600c	-0.17614764
6	0x3e0fc55a	0.14040127
7	0xbd03ed7e	-0.032208912
8	0x3bd77707	0.0065754685
9	0xbda76aaf	-0.08174645
10	0xb9eb123e	-0.00044836284
11	0xbe0f393c	-0.13986677
12	0xbdb1674e	-0.08662282
13	0x3df539c5	0.11973909
14	0xbdcc08ba	-0.09962602
15	0xbe11736f	-0.1420419
16	0xbe1037d9	-0.14083804
17	0xbd0ef020	-0.03489697
18	0xbb399edc	-0.0028323447
19	0x3da0ad18	0.07845515
20	0x3d12e93e	0.03586697
21	0x3c849df4	0.0161886
22	0x3e155976	0.14584908
23	0xbd1c286c	-0.038124487
24	0x3dbd21c9	0.0923496
25	0x3e224a28	0.15848601
26	0xbe3c937a	-0.18415633
27	0x3e32baf8	0.17454135
28	0x3daa03d8	0.083015144
29	0x3c4272d4	0.0118681975
30	0x3d791c95	0.060818274
31	0x3d24d147	0.040238645
32	0xbe10c5c1	-0.14137937
33	0x3d71def7	0.059050526
34	0x3e1a26bb	0.15053837
35	0x3c315a90	0.010824814
36	0x3cfbc9ec	0.030735932
37	0xbdee9a35	-0.116505064
38	0xba95a4ff	-0.001141697
39	0x3bcbb710	0.006216891
40	0xbcfc9193	-0.030831134
41	0x3cb2d574	0.021830298
42	0xbdae8a63	-0.08522489
43	0x3da093f5	0.078407206
44	0xbd97e69b	-0.074170314
45	0xbdbbebc5	-0.09175829
46	0xbd02d245	-0.03193881
47	0x3e02e403	0.12782292
48	0x3e1b25eb	0.15151183
49	0xbdb6512c	-0.08902201
50	0x3e161094	0.14654762
51	0x3e265e46	0.162469
52	0xbe2889af	-0.16458772
53	0xbe090131	-0.1337936
54	0x3d84f987	0.06492906
55	0x3cd96e39	0.026541816
56	0xbbad9c05	-0.00529814
57	0xbe1b55c9	-0.15169443
58	0xbe0ee548	-0.13954651
59	0x3e1a9f5e	0.15099856
60	0x3d97041a	0.07373829
61	0xbc694fad	-0.014240188
62	0xbe02687e	-0.12735173
63	0x3dffea2d	0.12495837
