neuraloperator/examples/para/fno_para_202305121817_001002003004_modes36_epochs250.pth (torch, 812179 bytes, 31 tensors)

convs.bias f4 [4, 32, 1]
0	0x3a4871d3	0.00076463557
1	0x393b35ad	0.00017853706
2	0xba3794fb	-0.0007003096
3	0xbbc14bc4	-0.0058989245
4	0x3a83a2d1	0.001004303
5	0xbaebf9e7	-0.0018003554
6	0xbbf9ecdb	-0.0076271123
7	0x3a36bc55	0.00069708127
8	0xbb008939	-0.001961304
9	0xbc093d06	-0.0083763655
10	0x3a397bb4	0.0007075623
11	0x3b8b4b47	0.004250917
12	0xbc23ae5a	-0.009990299
13	0xbc866a4a	-0.016408104
14	0xbc3e7898	-0.0116254315
15	0x3c2b5f6e	0.010459764
16	0xbad24c93	-0.0016044549
17	0x3ac5ca23	0.0015090149
18	0xbb7e3019	-0.0038785993
19	0x3a06c0dd	0.0005140433
20	0xb8ba3cd6	-8.880503e-05
21	0x3a604a32	0.0008555978
22	0xbb896ea8	-0.0041940995
23	0xbbc99712	-0.006152042
24	0xbb6d493c	-0.0036206981
25	0xbc05346e	-0.008130176
26	0xbb57066e	-0.003281023
27	0x3bb4d801	0.0055189137
28	0xbb04f9d8	-0.002029052
29	0xbc007b3a	-0.0078418795
30	0xbbe4444f	-0.006966151
31	0xbc198369	-0.0093697095
32	0xbacbc46d	-0.001554621
33	0x3baa947e	0.00520569
34	0xbb876320	-0.0041316897
35	0xbc548071	-0.012970076
36	0xbbf5f1fa	-0.0075056525
37	0xbb6f1c34	-0.0036485316
38	0x3c48c2d4	0.012253482
39	0xb9816922	-0.00024683127
40	0xbbcd8926	-0.006272453
41	0xbc56e895	-0.013116975
42	0xbc74ed79	-0.014949196
43	0xb92b3ca5	-0.00016330423
44	0x3c853dc2	0.0162648
45	0x3c0dfbac	0.00866596
46	0x3c69f5c4	0.0142797865
47	0xb99de755	-0.0003011773
48	0x3b5d32e8	0.0033752266
49	0xbbbef02b	-0.00582697
50	0xbbc3e5e0	-0.005978331
51	0xbc0edfaf	-0.0087203225
52	0xbc77a32f	-0.01511459
53	0x3bdea2c5	0.006794306
54	0xbbbbe91a	-0.005734575
55	0xbc0f8cbf	-0.008761584
56	0xbb859001	-0.0040760045
57	0xbc121e7a	-0.008918399
58	0xbba180c9	-0.0049286825
59	0xbc1d695d	-0.00960764
60	0x3a589d67	0.0008263201
61	0xbc03bffe	-0.00804138
62	0xbb56668f	-0.0032714938
63	0xbc49bc45	-0.012312953
64	0xbb93109e	-0.004488065
65	0x3c3a33d9	0.0113649005
66	0xbc1913b3	-0.009343076
67	0xbc98c075	-0.018646458
68	0xbd068472	-0.032841153
69	0xbc426630	-0.011865184
70	0x3d24f366	0.040271185
71	0x3bd45f89	0.0064811152
72	0x3b29fe54	0.0025938945
73	0xbd05e66a	-0.032690443
74	0xbd14fedc	-0.036375865
75	0xbc2c3592	-0.010510819
76	0x3d235e59	0.0398849
77	0x3d9d0d13	0.07668509
78	0x3d4aa2c5	0.049471635
79	0xbc2c454f	-0.010514571
80	0x3c02dfcd	0.007987929
81	0xbc4d22ab	-0.0125204725
82	0xbc767cfc	-0.015044447
83	0xbd14fd70	-0.03637451
84	0xbd1e228a	-0.038607158
85	0x3c803aa1	0.015652956
86	0xbb92fc39	-0.0044856337
87	0xbc919fbe	-0.017776366
88	0xbb667b01	-0.003516853
89	0xbbe5072e	-0.0069893813
90	0xbc921a5a	-0.017834831
91	0xbcbd4a35	-0.023106674
92	0x3c1c6309	0.009545096
93	0xbb8eeb1c	-0.0043615233
94	0xbbc1e06e	-0.0059166467
95	0xbc07fde7	-0.008300281
96	0xbbcaea77	-0.006192501
97	0x3cf16149	0.029465334
98	0xbc96da0a	-0.018414516
99	0xbbeee31f	-0.0072902585
100	0xbdc0abb0	-0.09407747
101	0xbcab2c55	-0.020895163
102	0x3df89cf5	0.12139312
103	0x3cc571d8	0.024102136
104	0x3d57df5f	0.052703258
105	0xbd7a5f43	-0.061126005
106	0xbde81645	-0.113323726
107	0x3c9ec2f8	0.019380078
108	0x3e0f4a98	0.13993299
109	0x3e812fc5	0.25231758
110	0x3e5ea41e	0.21742293
111	0xbcbb444d	-0.022859717
112	0x3d0bcd45	0.034131307
113	0xbcdc96e1	-0.026927413
114	0xbd19c1ce	-0.037538342
115	0xbe0a469b	-0.13503496
116	0xbe1c7e1d	-0.15282483
117	0x3d3623f5	0.044467885
118	0x3c2c0f8b	0.010501753
119	0xbcc87a59	-0.024472402
120	0x3c852aa5	0.016255686
121	0x3cd42247	0.025895251
122	0xbcaf016d	-0.021362985
123	0xbd37c078	-0.044861287
124	0x3d4fbfa5	0.050719876
125	0x3d0112b9	0.031511996
126	0xbc07115e	-0.008243887
127	0x3c94e42e	0.01817521

convs.bias_bc f4 [4, 32, 1]
0	0x3ae3987f	0.0017364173
1	0x3a841360	0.0010076575
2	0x3a8cee21	0.001075212
3	0x3a92f450	0.0011211727
4	0x391d7c11	0.00015018905
5	0x383630dc	4.3437685e-05
6	0x3a5006a0	0.00079355575
7	0x3abefa9a	0.0014570535
8	0x3a67bf45	0.0008840452
9	0x388e099f	6.77288e-05
10	0x38adea7a	8.2929575e-05
11	0x3ab2bffa	0.0013637536
12	0xba8d3e3e	-0.0010775996
13	0x39366aa4	0.000173966
14	0xb957e32f	-0.0002058863
15	0x39a704dc	0.00031856343
16	0x3aa22602	0.0012370946
17	0xba8aa87a	-0.0010578774
18	0xb98768f7	-0.0002582741
19	0x3a9602fa	0.0011444979
20	0xbad200e8	-0.0016021999
21	0xbac812f1	-0.0015264434
22	0xb9a070f2	-0.0003060173
23	0xba23ccdf	-0.0006248485
24	0x3a9e6fa0	0.001208771
25	0x3a32c6a4	0.0006819761
26	0xb8b760c9	-8.7441476e-05
27	0x3a613421	0.00085908367
28	0x3a2ae976	0.0006519774
29	0xbaa11cfa	-0.0012291961
30	0xb9c266e6	-0.0003707923
31	0xba706263	-0.0009169934
32	0xb9483371	-0.0001909265
33	0xba21c7f4	-0.0006171458
34	0x3a439355	0.0007460614
35	0x3911a0c4	0.00013888167
36	0xb735da87	-1.0839321e-05
37	0x3a3e7b0d	0.0007266261
38	0x3a44c562	0.0007506219
39	0x3a4d65ab	0.0007835279
40	0xb6c09659	-5.7395487e-06
41	0xba60893d	-0.0008565372
42	0x3a8ea496	0.0010882791
43	0x3a58b78e	0.0008267098
44	0x3a1d71fb	0.0006006059
45	0xba58c1c1	-0.00082686177
46	0x3a84b41b	0.0010124476
47	0x39808b4a	0.0002451784
48	0x39787d8a	0.0002369789
49	0xba288be2	-0.00064295356
50	0xba22e17e	-0.00062134105
51	0xba0632ce	-0.0005119265
52	0x3abba2e6	0.0014315515
53	0x39ccba9a	0.0003904894
54	0xb9248c67	-0.00015692563
55	0xba9fc13f	-0.0012188329
56	0xb9f8f643	-0.00047485725
57	0xb968ee31	-0.00022213977
58	0xba8c50bd	-0.0010705214
59	0x3a90981d	0.0011031661
60	0xba9a104e	-0.0011754127
61	0x38770d9a	5.8902056e-05
62	0xbaa3c7bb	-0.0012495437
63	0xb891a768	-6.945321e-05
64	0xba8837eb	-0.0010392641
65	0xb79db511	-1.8800174e-05
66	0xb9665641	-0.00021966641
67	0x3a26fb4e	0.0006369845
68	0x3b5f66a5	0.003408828
69	0xb9d86057	-0.0004127051
70	0xb8c50fc0	-9.396626e-05
71	0x3abb543e	0.0014292074
72	0xb8f05cf7	-0.00011461408
73	0xba08dda8	-0.00052210176
74	0x399e78e1	0.0003022617
75	0xba923aa5	-0.0011156393
76	0xb98bda44	-0.00026674767
77	0xbadeee5b	-0.0017008291
78	0x3a138b57	0.0005628368
79	0x39880601	0.00025944415
80	0xb9a3eee0	-0.00031267758
81	0x3a90b48a	0.0011040133
82	0x3a45eb0d	0.0007549979
83	0xbafc0971	-0.0019228888
84	0xba34b1f7	-0.0006892974
85	0x3ab9eeb2	0.0014185517
86	0x394a6fce	0.00019305872
87	0xbb045f27	-0.0020198317
88	0x3a494255	0.0007677426
89	0x3a72fd7b	0.0009269339
90	0x3a17c586	0.0005789626
91	0xba3d69d3	-0.0007225547
92	0xb948e164	-0.00019157451
93	0xbaf6d153	-0.0018830694
94	0x3a376e2d	0.00069973135
95	0x398842d8	0.00025989744
96	0xb9a5b2ad	-0.00031604376
97	0x3a30991f	0.0006736684
98	0x385a3d39	5.203227e-05
99	0x3a8e708c	0.0010867282
100	0xba260710	-0.000633345
101	0x3aa4322c	0.0012527159
102	0xbac5fc45	-0.0015105089
103	0x3a61f1df	0.00086191104
104	0x39febfd6	0.00048589584
105	0xba92d6f7	-0.001120298
106	0xba4fab34	-0.00079219346
107	0xb9909aeb	-0.00027581243
108	0xb9a82f7f	-0.00032078844
109	0x3a5297be	0.00080334756
110	0x3982d4f1	0.00024954186
111	0xba789f5b	-0.0009484195
112	0x3a0214ea	0.0004962223
113	0xbaca5012	-0.001543524
114	0xba4d12b4	-0.00078229164
115	0x3a95dc57	0.0011433464
116	0x394bf0e2	0.00019449324
117	0xb9c0e957	-0.00036794945
118	0x3a26c4e4	0.00063617365
119	0x3a6db19c	0.00090672984
120	0x3a5f53bc	0.00085192523
121	0xb9f51954	-0.00046748912
122	0x3a6f17ef	0.0009120693
123	0xba5ca6d1	-0.00084171916
124	0xbad19ea4	-0.0015992713
125	0xba28f85f	-0.00064457016
126	0x39009633	0.00012262985
127	0xba6de12d	-0.00090743863

convs.weight.0.tensor f4 [32, 32, 18, 2]
0	0x3a1173ec	0.0005548585
1	0xbadb98e3	-0.0016753938
2	0x3a50e861	0.00079691975
3	0xba1b4bb3	-0.0005924061
4	0xb9b48869	-0.0003443391
5	0xbac915a3	-0.0015341531
6	0xb9bdebea	-0.0003622466
7	0xba523b0e	-0.0008019664
8	0x3aa6b08c	0.001271741
9	0x362893e0	2.5120025e-06
10	0x39879157	0.00025857493
11	0xb9d6a82d	-0.00040942561
12	0x38e666a6	0.000109863744
13	0x382cac1c	4.1168285e-05
14	0xba86d7ef	-0.0010287742
15	0xba023b37	-0.000496793
16	0x3a673889	0.0008820375
17	0xb81db752	-3.7602447e-05
18	0x3a138288	0.00056270557
19	0xba3e37e0	-0.0007256251
20	0xba026550	-0.0004974203
21	0xb979cf6d	-0.00023823763
22	0x3a1ee4aa	0.0006061295
23	0x3a01ea0a	0.0004955834
24	0xba70f21c	-0.00091913505
25	0xb9ab7a5f	-0.00032706835
26	0x39543a52	0.00020239622
27	0x39e03deb	0.00042770742
28	0x385f8d0c	5.3298703e-05
29	0xb9fb904f	-0.0004798197
30	0x39aff679	0.00033562238
31	0xb9848370	-0.0002527493
32	0x39de8c36	0.00042447605
33	0x3845da93	4.7172023e-05
34	0xbaf6ed66	-0.0018839061
35	0xba7c7530	-0.00096304994
36	0x3a549c2b	0.0008110429
37	0xb914a3ae	-0.00014175355
38	0x3a487aff	0.00076477224
39	0xb987966d	-0.00025861282
40	0x3861aa8e	5.380302e-05
41	0x39ec4f54	0.00045072532
42	0xba6252e8	-0.000863357
43	0x3a600100	0.0008545071
44	0xb8351b20	-4.3179025e-05
45	0x395022ed	0.00019849437
46	0x3930e310	0.00016869255
47	0x38dd1518	0.0001054203
48	0xb90f5ad2	-0.00013671376
49	0x39a9af16	0.0003236464
50	0xb966b74e	-0.00022002796
51	0xba241415	-0.0006259096
52	0x39d4862b	0.00040535754
53	0xb9b4a80e	-0.00034457486
54	0x3a6a6657	0.00089416414
55	0x3a812049	0.0009851541
56	0x3a1df314	0.0006025296
57	0x39c2e745	0.00037174873
58	0xba513875	-0.000798113
59	0xb9804edb	-0.00024472814
60	0xb9998576	-0.0002928187
61	0xba7cfe03	-0.0009650888
62	0xbacacbeb	-0.0015472149
63	0x399bc4d4	0.00029710552
64	0x396b03d5	0.00022412774
65	0xb975754d	-0.00023408719
66	0x39262da0	0.0001584799
67	0xb9a73af8	-0.00031896657
68	0xb9d748b5	-0.00041062167
69	0xba3ddf93	-0.0007243093
70	0x3a37a1f5	0.00070050295
71	0xba3b5c29	-0.0007147217
72	0x3a8cc457	0.0010739666
73	0x39951592	0.00028435566
74	0xba8db44a	-0.0010811177
75	0x394ebb37	0.00019715434
76	0xba0f6c5c	-0.0005471164
77	0x3a0f1e3d	0.0005459523
78	0x3a48d079	0.00076604594
79	0xb9d29d89	-0.00040171694
80	0xba727d61	-0.00092502503
81	0x3aeb9861	0.001797449
82	0xbafd142a	-0.0019308378
83	0x38adc253	8.2854785e-05
84	0xb99b4b71	-0.00029620112
85	0x39dadba8	0.00041743857
86	0x39d25384	0.00040116545
87	0xb9777c68	-0.000236021
88	0xb8a77ba0	-7.9862075e-05
89	0x3a68f715	0.0008886916
90	0x39fb8409	0.00047972825
91	0xba23ea3b	-0.00062528596
92	0x39586c9f	0.0002063983
93	0x39ebd105	0.00044978425
94	0x395b92c7	0.00020940146
95	0x39fa32b8	0.00047721504
96	0xb85c8f7d	-5.258572e-05
97	0x3896c73c	7.189668e-05
98	0x3a8065f2	0.0009796007
99	0x3a0e3f0b	0.0005426264
100	0xba67e7b8	-0.00088464795
101	0xba19ea1a	-0.00058713707
102	0xbaa01b89	-0.0012215237
103	0xb98db26e	-0.00027026556
104	0x3a08db8e	0.00052207045
105	0x39ac4716	0.0003285936
106	0xb9f47757	-0.00046628222
107	0x388032e1	6.1129926e-05
108	0x3cf7610c	0.030197643
109	0x3a5769d3	0.0008217368
110	0x3a377b7f	0.00069992983
111	0x3abbcb59	0.001432757
112	0x38ccb8fd	9.761935e-05
113	0x38319f8d	4.234868e-05
114	0x39cfa2bb	0.0003960336
115	0xb9f00b17	-0.0004578463
116	0xba2f6204	-0.00066903257
117	0x38bd8838	9.037595e-05
118	0xba0a1735	-0.00052677403
119	0xb99bad8a	-0.000296932
120	0x3a69639f	0.00089030893
121	0xba2b06d9	-0.00065241527
122	0xba02d95f	-0.0004991497
123	0x38eaf3c8	0.00011203397
124	0xba816039	-0.0009870596
125	0xba98e6ae	-0.0011665428
126	0xb92963c8	-0.00016154267
127	0xba7b9a48	-0.000959788
128	0x39f348eb	0.000464029
129	0x38e3d29b	0.00010863432
130	0x3a6d73a3	0.0009058064
131	0x3a0a1127	0.0005266838
132	0x39886520	0.00026015285
133	0x3a2d71dd	0.0006616393
134	0x38e2eab1	0.000108202345
135	0x3a382370	0.00070243236
136	0xb9f190c5	-0.00046074964
137	0x39b6fb51	0.0003490099
138	0xba0fac19	-0.00054806616
139	0xba2ad63f	-0.00065169105
140	0x39220b78	0.00015453796
141	0x39747d8a	0.0002331642
142	0x3a3060cc	0.0006728291
143	0x3a0061cf	0.0004897387
144	0xb83e5e6a	-4.538746e-05
145	0xb9e338ff	-0.0004333928
146	0x3a6bf0e0	0.0009000432
147	0xb89e5e9d	-7.55165e-05
148	0x3b048b7a	0.0020224736
149	0x386b65a6	5.6123034e-05
150	0x3a2cc709	0.0006590938
151	0xb906c1bc	-0.00012851408
152	0x39a9de40	0.0003239978
153	0x3719f31d	9.176115e-06
154	0x3a4a7f30	0.0007724641
155	0x3a2ebf58	0.00066660857
156	0x3a4ee7e8	0.0007892833
157	0xba821d4e	-0.0009926946
158	0xba9b6707	-0.0011856266
159	0xb96af0c1	-0.00022405667
160	0xb915bcec	-0.00014280126
161	0x3a1c90ec	0.0005972523
162	0xba21b06a	-0.00061679503
163	0xb839380b	-4.415963e-05
164	0x3ab22a01	0.001359284
165	0x3a3ed6d2	0.00072799355
166	0xba2944e3	-0.00064571033
167	0x3aaf7971	0.0013387633
168	0x3a3ad136	0.0007126512
169	0x3a28430f	0.0006418684
170	0xba188a9e	-0.00058189954
171	0x3a0ebd73	0.00054451
172	0x38356f3f	4.325737e-05
173	0x3a5209e0	0.0008012336
174	0xb7096cb3	-8.191145e-06
175	0xb8b2b2e9	-8.521026e-05
176	0xba1af853	-0.0005911637
177	0xb8fed356	-0.00012151028
178	0xb8ae2bc5	-8.305119e-05
179	0x387f310c	6.0842416e-05
180	0x3c291c5a	0.010321701
181	0x39da3a22	0.00041623513
182	0xba0a2af1	-0.0005270681
183	0xba4cf87a	-0.00078190083
184	0xb984a370	-0.00025298772
185	0xba5e38de	-0.0008477102
186	0x3a2dac02	0.00066250574
187	0x3a93805b	0.0011253463
188	0xb99096e0	-0.0002757823
189	0x3a4c2f4e	0.00077890314
190	0x3a75819c	0.00093653216
191	0x39cc71ae	0.0003899461
192	0xb93f6768	-0.00018253701
193	0xb7d47c2b	-2.533019e-05
194	0xba7a2726	-0.0009542577
195	0xba4a517a	-0.00077178294
196	0xbb02e551	-0.001997311
197	0x3a6e5208	0.0009091203
198	0x397aaf52	0.0002390717
199	0x3a9b2b10	0.0011838395
200	0xba20c2be	-0.00061325345
201	0x398fff1f	0.00027465165
202	0xb9fdb7f0	-0.00048392965
203	0x38f616bf	0.00011734431
204	0xba534599	-0.0008059382
205	0xba9164fd	-0.0011092719
206	0x3995b03b	0.00028550797
207	0x3a3c0c29	0.0007173443
208	0xba33576c	-0.0006841335
209	0x3a903ebe	0.0011005027
210	0xba7a79c2	-0.00095548865
211	0xbab59da2	-0.0013856182
212	0xba3abfd7	-0.0007123923
213	0x37fa7db5	2.986086e-05
214	0xb9a62c23	-0.00031694872
215	0x3a2f0422	0.0006676336
216	0x3d0ef185	0.0348983
217	0xba21c47c	-0.0006170941
218	0x3a82c3af	0.0009976531
219	0x39dbf5c1	0.00041954036
220	0x3a1af9eb	0.00059118745
221	0x3a94d3f2	0.0011354669
222	0x3a83b2e4	0.001004782
223	0x3a04d923	0.0005067756
224	0xb9a2f3e9	-0.00031080775
225	0xba06c645	-0.0005141239
226	0x38978c8c	7.22642e-05
227	0x3919e473	0.00014676321
228	0xba87df5e	-0.0010366251
229	0xba59ebd5	-0.0008313035
230	0x39545771	0.0002025047
231	0xb86496d7	-5.4499917e-05
232	0x39f033dc	0.00045815005
233	0xb99a567a	-0.000294376
234	0x39a71243	0.00031866328
235	0xba07437a	-0.0005159896
236	0xba9da441	-0.0012027101
237	0x3a5f4be4	0.00085180835
238	0xb9d79cd8	-0.00041124853
239	0xba9c25ed	-0.0011913158
240	0xba21eb96	-0.00061767676
241	0x399933b6	0.00029220962
242	0xb9e8a103	-0.0004437045
243	0x3a0548a9	0.00050843746
244	0x39084919	0.00012997202
245	0x39198dd8	0.00014644058
246	0xbaabdbf4	-0.0013111816
247	0xba79df84	-0.00095319026
248	0xba6d6b16	-0.00090567896
249	0xba8b9ef9	-0.0010652236
250	0xbae23623	-0.0017258566
251	0x39ae76ba	0.00033276324
252	0x3b8be13f	0.004268795
253	0x3a4cc128	0.0007810765
254	0x3a62ad9a	0.00086470845
255	0xbab5bb71	-0.0013865066

convs.weight.1.tensor f4 [32, 32, 18, 2]
0	0xb92d6932	-0.00016537754
1	0x3a9a9740	0.0011794344
2	0x3914e090	0.00014198036
3	0xb9a55f38	-0.00031542196
4	0x38aadd01	8.147397e-05
5	0x38657960	5.4710894e-05
6	0x3a74626d	0.0009322528
7	0xbae6c085	-0.0017604983
8	0x3a7d8aff	0.0009671896
9	0x39cf19b1	0.00039501258
10	0xba246d79	-0.0006272416
11	0xb96f5309	-0.00022823749
12	0xb9e829e0	-0.00044281688
13	0x3a6de3f8	0.00090748025
14	0x3a629fd7	0.0008645034
15	0x39f31e93	0.0004637135
16	0xb9a52698	-0.00031500007
17	0xb9736c01	-0.0002321452
18	0x38b4e33a	8.625393e-05
19	0x391539c1	0.00014231262
20	0xba68dc1d	-0.0008882897
21	0xb9f0882d	-0.00045877826
22	0x3a15f8e9	0.00057209894
23	0x39900764	0.00027471327
24	0xb9ccf009	-0.00039088752
25	0xb9ca2182	-0.00038553408
26	0x3a099600	0.0005248487
27	0x37f2725f	2.8901906e-05
28	0xba4a6c02	-0.0007721783
29	0xb9e1ab99	-0.00043043194
30	0xb9d42a3d	-0.0004046726
31	0xb92862b6	-0.00016058501
32	0x3a12727f	0.0005586519
33	0xba5301a6	-0.0008049257
34	0xba0f4b8c	-0.00054662745
35	0xba1351ee	-0.00056198135
36	0x3a2ea24b	0.0006661757
37	0xba14087d	-0.0005647017
38	0xb8ed6861	-0.00011320483
39	0x38f31e72	0.00011592814
40	0xb9be2dca	-0.0003627374
41	0xb93f51db	-0.00018245673
42	0xba99f04e	-0.001174459
43	0x3956b218	0.00020474975
44	0xb8fed2d2	-0.00012150932
45	0x39367c6b	0.00017403222
46	0xb92dc70f	-0.00016572721
47	0xb9bed1fc	-0.00036396075
48	0x3aad82c2	0.0013237821
49	0xbb00ca8b	-0.0019651975
50	0x3a668232	0.00087932043
51	0x39ec2b1c	0.00045045547
52	0x38ad3002	8.258225e-05
53	0x39b128b0	0.00033790385
54	0xba3d8e40	-0.0007230975
55	0xb9b04816	-0.00033623044
56	0xb78b4802	-1.6603622e-05
57	0xbaa0401f	-0.0012226141
58	0xba1a95f6	-0.000589698
59	0xb980fe64	-0.00024603598
60	0x3aa8ba54	0.0012872913
61	0x3944585d	0.00018724934
62	0xb899b677	-7.329595e-05
63	0x39e3974e	0.00043409545
64	0x3a718075	0.0009212562
65	0x3998836d	0.0002908962
66	0xba3dc6d6	-0.00072394067
67	0xb95db11f	-0.00021142185
68	0xb9f2f4db	-0.00046340268
69	0xb6b88f81	-5.5003334e-06
70	0x399554c7	0.0002848266
71	0xb9b7f408	-0.00035086297
72	0x37e5967e	2.7369006e-05
73	0xba1ca16f	-0.0005974983
74	0x3a49118a	0.0007670155
75	0xb9aa2395	-0.00032451437
76	0xb9e4421b	-0.000435368
77	0x3a17a42e	0.00057846576
78	0x3a40a736	0.0007349135
79	0x39ce796a	0.00039381842
80	0x398d7bd6	0.0002698588
81	0xb963cbe3	-0.0002172436
82	0xb74813f8	-1.1925578e-05
83	0x3a1e26f1	0.00060330244
84	0xba7ef0b7	-0.00097252004
85	0x38857f69	6.365666e-05
86	0x394d7adb	0.0001959609
87	0x383e37c9	4.5351484e-05
88	0x3b041d1b	0.002015895
89	0xb94e4ebf	-0.00019675026
90	0x3abc2e2a	0.001435702
91	0xba237a36	-0.00062361674
92	0x3a630389	0.00086598896
93	0xbaa5b2bc	-0.0012641768
94	0xba313d80	-0.00067611784
95	0x39df7816	0.00042623346
96	0x39a44756	0.00031333667
97	0xb9eae554	-0.0004480282
98	0x3a689033	0.0008871585
99	0x39dff252	0.00042714417
100	0xba05ea64	-0.0005108474
101	0x3906af66	0.00012844577
102	0x3a86a4fa	0.0010272556
103	0xb95d3229	-0.00021094889
104	0x3975f15b	0.00023454933
105	0x3a9a6e00	0.001178205
106	0x3805a603	3.186428e-05
107	0x3a05d208	0.00051048445
108	0xbadbf840	-0.0016782358
109	0x39ee3ddb	0.00045440983
110	0xb8949704	-7.085319e-05
111	0x39f70738	0.0004711689
112	0x392c0fd2	0.00016409092
113	0xb7e673fa	-2.7472142e-05
114	0x3a93546d	0.0011240371
115	0x3920aa74	0.00015322288
116	0xb8cedda4	-9.864129e-05
117	0xba228e9d	-0.00062010606
118	0x3a489543	0.0007651636
119	0x391e92fe	0.00015122813
120	0x397a6bdb	0.00023882037
121	0xbaad8959	-0.0013239785
122	0x39ea4f7a	0.00044691173
123	0xb9cb5397	-0.00038781457
124	0x3a1da9f6	0.0006014401
125	0xba654418	-0.00087458035
126	0xb9092f99	-0.0001308307
127	0xb916d573	-0.00014384631
128	0x3987180f	0.00025767132
129	0xba51faf8	-0.00080101145
130	0xb9f4db35	-0.0004670263
131	0x3a412303	0.0007367583
132	0x3991233d	0.0002768281
133	0xb7a6884a	-1.9852207e-05
134	0x38a78796	7.9884354e-05
135	0xbac4a1f4	-0.0015001879
136	0xba30cf55	-0.0006744762
137	0x38e6341a	0.00010976959
138	0x387db6ab	6.0490023e-05
139	0x3aa5f809	0.0012662421
140	0x392a4830	0.00016239355
141	0x38b21100	8.490868e-05
142	0xba0d699f	-0.0005394462
143	0xb9c3eb47	-0.00037368594
144	0xba7f3eaf	-0.00097368186
145	0xb94f114a	-0.00019747499
146	0x39ea0744	0.0004463737
147	0x3a54df22	0.00081204076
148	0x38108381	3.4454748e-05
149	0xba05be0b	-0.0005101866
150	0xb8c44ebf	-9.360676e-05
151	0x3abc4e73	0.0014366641
152	0x39e2d714	0.00043266325
153	0xb9bd7f7c	-0.00036143872
154	0x39685e54	0.00022160384
155	0xb9dc4aae	-0.0004201731
156	0x38135c33	3.51334e-05
157	0x39491a0f	0.00019178561
158	0x3a837309	0.001002879
159	0xba15f7f7	-0.00057208486
160	0xba07e5e0	-0.00051840954
161	0x3a3b5ca0	0.0007147286
162	0x3a945183	0.0011315796
163	0xba6c242d	-0.0009008076
164	0xb93a2606	-0.00017752507
165	0x3ad89abe	0.0016525609
166	0x39fc3f44	0.00048112322
167	0x39ad961e	0.00033108977
168	0x3a005cdc	0.00048966496
169	0xb97632aa	-0.00023479262
170	0x3b025a95	0.0019890417
171	0x3a84b7f3	0.0010125622
172	0xb96a85b3	-0.00022365786
173	0xba406ec0	-0.0007340722
174	0x3adcf920	0.0016858913
175	0x3a30e40e	0.000674785
176	0x3998dcb2	0.0002915613
177	0xba9e9675	-0.0012099283
178	0xb9317209	-0.00016922517
179	0x39843c67	0.00025222005
180	0xba98d12b	-0.0011659017
181	0x39b4bec6	0.00034474413
182	0xb86e980a	-5.688522e-05
183	0x3a163e96	0.0005731372
184	0xb8d400fe	-0.000101091326
185	0x38729778	5.7838362e-05
186	0xba2bb9d0	-0.00065508205
187	0x3ad9006a	0.001655591
188	0x3abb7868	0.0014302852
189	0xba2d2048	-0.00066042366
190	0xb9e7a4d8	-0.00044182572
191	0xba14e6d3	-0.00056801474
192	0xb9e8cee2	-0.00044404628
193	0xb9cc7ce1	-0.00039002954
194	0xba05ed7a	-0.0005108934
195	0xb95724a1	-0.00020517643
196	0xbacba72e	-0.0015537494
197	0x3a348348	0.00068860175
198	0xba82bf4a	-0.0009975221
199	0xbabda591	-0.0014468898
200	0x38a992c9	8.085889e-05
201	0xba9ce940	-0.0011971369
202	0x388db6c3	6.757446e-05
203	0xba2e7cbf	-0.0006656162
204	0xbab114a5	-0.0013510181
205	0xb945b4e6	-0.00018854774
206	0xb94fe114	-0.00019824906
207	0x39a0d371	0.00030675114
208	0xba114057	-0.00055408984
209	0x39e1110e	0.0004292805
210	0xba8d7bf2	-0.0010794385
211	0xb9774391	-0.00023580926
212	0x3a0ccb9d	0.0005370917
213	0xb8c3a1a8	-9.3284354e-05
214	0xb9c33893	-0.0003723545
215	0xba4aec6a	-0.0007740917
216	0xb9e3b259	-0.00043429693
217	0xb9dc10f4	-0.000419743
218	0xba631227	-0.00086620677
219	0xb987b18b	-0.00025881486
220	0x3a745623	0.00093206967
221	0x3a7326b8	0.0009275484
222	0xb90bd6a2	-0.0001333603
223	0xba8ac09e	-0.0010585969
224	0x3a005312	0.0004895191
225	0x3a921ed9	0.0011148109
226	0x3a0f6b6a	0.0005471023
227	0xba961544	-0.001145043
228	0x3a626b7f	0.0008637234
229	0x3a52f97b	0.000804804
230	0x3a5c2ee5	0.0008399322
231	0xba3072d1	-0.0006730976
232	0xb9171f7b	-0.0001441221
233	0x3a91e556	0.001113097
234	0xba41712d	-0.000737923
235	0x3acd6d7e	0.001567289
236	0xba8f356b	-0.0010925954
237	0x3a527815	0.0008028758
238	0xba76e8a2	-0.000941882
239	0xba15b3ab	-0.00057106715
240	0xb9473e8f	-0.00019001424
241	0x3aa40a30	0.0012515243
242	0xba24772f	-0.0006273863
243	0x3a42def3	0.0007433735
244	0x39a9808b	0.00032329964
245	0x3a00e477	0.00049168564
246	0xba1558ad	-0.00056971126
247	0xba2e6f14	-0.0006654125
248	0x3a40b59c	0.00073512807
249	0xba2c43a7	-0.000657136
250	0x3a9fb6e5	0.0012185244
251	0x384c65cf	4.8732207e-05
252	0xba3bff6f	-0.00071715465
253	0x3805fc05	3.1944382e-05
254	0x3a8aabd3	0.0010579772
255	0x3abaf949	0.0014264967

convs.weight.2.tensor f4 [32, 32, 18, 2]
0	0x3a35a81c	0.00069296523
1	0x393d2b10	0.00018040487
2	0xb916fded	-0.0001439971
3	0xb82fbd5b	-4.1899602e-05
4	0xb9d73687	-0.00041048622
5	0x3ac1d114	0.0014787042
6	0x3a70bef8	0.000918373
7	0x39d1e39f	0.00040033177
8	0xb989c08b	-0.00026274132
9	0xb5c896ae	-1.4945015e-06
10	0x38b47a89	8.605893e-05
11	0x3a0046d8	0.0004893369
12	0xb656e184	-3.2019752e-06
13	0xba45cebf	-0.0007545761
14	0xba35ab5e	-0.0006930138
15	0xb9c6b19d	-0.00037897835
16	0x39e81cfe	0.0004427209
17	0x39d73490	0.00041047158
18	0xb9ec16dc	-0.0004503046
19	0xbaacdde1	-0.0013188684
20	0x3a108042	0.0005512276
21	0xba320224	-0.000679048
22	0x3a482cf7	0.0007636095
23	0xb98f8a12	-0.00027377956
24	0xb92c07de	-0.00016406129
25	0x3ab88f6c	0.0014080829
26	0xba8e1cad	-0.0010842286
27	0xb8dac51d	-0.00010431765
28	0xba3bdfe9	-0.0007166849
29	0x3aae7520	0.0013310052
30	0x38f83d12	0.00011836937
31	0x397e94e3	0.00024278792
32	0xb9c629bb	-0.00037796595
33	0x3ad16927	0.0015976772
34	0xb950eb59	-0.000199241
35	0x3a495cfc	0.0007681397
36	0xbab3ede5	-0.0013727514
37	0x39dc698e	0.00042040314
38	0xb96c627a	-0.00022543399
39	0x372af3a7	1.0189519e-05
40	0xbaee15f8	-0.0018164506
41	0x3a0a3226	0.0005271755
42	0x3a6d89d2	0.00090613693
43	0x39cafe5e	0.0003871796
44	0xb9c84e82	-0.00038205466
45	0x3a12fb09	0.0005606865
46	0xba94b36a	-0.0011344973
47	0x3a4268f4	0.0007416152
48	0x3a066fc4	0.0005128349
49	0x39c30bc1	0.00037202056
50	0xb9e7a0dc	-0.00044179603
51	0x3ad35cb1	0.0016125647
52	0x3a50e1d1	0.00079682196
53	0x3a5aee63	0.00083515624
54	0x3a61ea72	0.0008618004
55	0xb8e1180f	-0.00010733317
56	0x3a5e7f6d	0.0008487616
57	0xba49677f	-0.00076829636
58	0xbaa588af	-0.0012629236
59	0xba10bf40	-0.00055216625
60	0xb8cbe44c	-9.722318e-05
61	0xba4bfd4e	-0.0007781581
62	0xba466cb4	-0.00075692986
63	0xba9032fe	-0.0011001525
64	0xb9a38cc8	-0.00031194673
65	0x3b14b8fc	0.0022693267
66	0xb9452811	-0.0001880231
67	0xbab5e8e6	-0.0013878613
68	0x39636171	0.00021684707
69	0xb8edc97e	-0.000113385715
70	0x3ac00ce2	0.0014652277
71	0xb909d32a	-0.00013144003
72	0x3a40095a	0.0007325612
73	0x39e94075	0.00044489247
74	0xb993f278	-0.00028218678
75	0xba44394d	-0.0007485345
76	0xba946458	-0.0011321409
77	0x3a51235c	0.0007977986
78	0xbadfc2a9	-0.0017071563
79	0xbac31614	-0.0014883899
80	0xb92fbad3	-0.00016758898
81	0x3a18ef6f	0.0005834018
82	0xb9bff89e	-0.00036615593
83	0xb97b7dff	-0.00023984163
84	0xba2d373e	-0.0006607658
85	0x3a4525d9	0.00075205934
86	0x3a00e172	0.00049164065
87	0x39c6598c	0.0003783222
88	0x39281cab	0.00016032408
89	0x3a9c8a0a	0.0011942994
90	0x3946da35	0.0001896404
91	0xb9c858ef	-0.00038213233
92	0x3a1695c6	0.0005744364
93	0x38647ead	5.4477412e-05
94	0x39a2ccc0	0.00031051598
95	0xbac9d917	-0.0015399781
96	0xbaa5c882	-0.0012648257
97	0x3a541733	0.0008090615
98	0x39845a54	0.00025244302
99	0xba9e9e50	-0.0012101624
100	0x3a14aee5	0.0005671813
101	0x3a8f5911	0.0010936578
102	0xb9a91f80	-0.0003225766
103	0xb9f08dfe	-0.0004588216
104	0xba61f9a3	-0.00086202676
105	0xba052406	-0.0005078915
106	0x39c087e8	0.00036722352
107	0xb964a3ee	-0.00021804843
108	0x3a52a403	0.0008035304
109	0x38f26bc4	0.00011559532
110	0xb92f6de1	-0.00016730234
111	0x3a253ac1	0.00063030055
112	0xba443c3e	-0.00074857834
113	0x3948531d	0.00019104448
114	0x38de7487	0.0001060749
115	0x3906f65f	0.00012871016
116	0x3a970016	0.0011520411
117	0x39e438f8	0.00043529994
118	0x398d0ecf	0.0002690465
119	0x34ff0d40	4.7507092e-07
120	0x396ea421	0.00022758592
121	0xb82d34f3	-4.1295727e-05
122	0xb793bf92	-1.7612972e-05
123	0xba9e7b49	-0.0012091185
124	0x3a8d4e18	0.001078072
125	0x39821470	0.0002481076
126	0x39adb3c3	0.00033131064
127	0x3a0cef1a	0.0005376205
128	0x39cd7f2b	0.00039195394
129	0x39aa1917	0.0003244362
130	0x3a5cb23f	0.0008418895
131	0x398215e5	0.00024811845
132	0xba24ca2d	-0.000628623
133	0xbaa64ecb	-0.0012688277
134	0xb8bab6e4	-8.903237e-05
135	0xb97c1afe	-0.00024042648
136	0x39e6e1d8	0.00044037285
137	0xba10b432	-0.0005520015
138	0xba8d3609	-0.001077355
139	0xba9da960	-0.0012028627
140	0xba01dbfc	-0.00049537397
141	0x39ac90f9	0.0003291441
142	0x3a4b5afd	0.0007757394
143	0xb95c44dd	-0.00021006489
144	0x3a3d8866	0.0007230103
145	0x39551846	0.00020322305
146	0xb8bdb20c	-9.045386e-05
147	0x3a450321	0.000751542
148	0xb998047e	-0.00028995046
149	0x3ad8aeec	0.0016531623
150	0xb90882b2	-0.00013018659
151	0xb9c2174b	-0.00037019918
152	0x3abb3b66	0.001428467
153	0xb9292e48	-0.00016134337
154	0x3817ad7d	3.616278e-05
155	0x39078639	0.00012924605
156	0x39ad3b7b	0.00033041448
157	0xba3083f8	-0.0006733532
158	0x39ff3c65	0.00048682388
159	0x3a30cc7c	0.0006744338
160	0x388e19b2	6.775874e-05
161	0xb9305b0c	-0.00016818586
162	0xba87b6bd	-0.0010354143
163	0xb989bb96	-0.0002627044
164	0xb94bc334	-0.00019432307
165	0xba5351ac	-0.0008061181
166	0xb8859e8a	-6.3714644e-05
167	0xb9b57b93	-0.0003461508
168	0xb83300d4	-4.2677697e-05
169	0x3a800edf	0.0009770057
170	0x394900e8	0.00019169191
171	0xb9930b6d	-0.00028046538
172	0xba25cecf	-0.00063250674
173	0x38b67204	8.699673e-05
174	0xb9dee3e7	-0.0004251294
175	0xb96fed4a	-0.00022881213
176	0xba426ce5	-0.0007416739
177	0xba0b300d	-0.00053095893
178	0xba223b56	-0.00061886513
179	0x384ec79b	4.9300124e-05
180	0x3993a06e	0.00028157554
181	0xba730c3a	-0.0009271536
182	0xb99e8144	-0.0003023242
183	0xb9c72cfa	-0.00037989748
184	0x3a2b9d31	0.00065465557
185	0xb8149be3	-3.543113e-05
186	0x3982e681	0.0002496727
187	0x3a7b74d9	0.0009592302
188	0xb9c0570b	-0.00036685946
189	0x3aa62505	0.0012675828
190	0xb9eb0619	-0.00044827236
191	0xba722d61	-0.00092383294
192	0x39e408f5	0.00043494222
193	0xba8afbb4	-0.0010603578
194	0xb9becb7b	-0.0003639123
195	0xba1adab8	-0.00059072254
196	0x39eb2a48	0.00044854195
197	0xba854874	-0.0010168687
198	0x3a82331c	0.0009933445
199	0x3a3d5a13	0.00072232
200	0x3a05508b	0.0005085549
201	0xba4ca5d0	-0.00078066904
202	0xba929cec	-0.0011185682
203	0xba6a925e	-0.0008948202
204	0x39fd1de5	0.00048278194
205	0x39c9fc72	0.00038525794
206	0x3ac40444	0.0014954885
207	0x3adebab3	0.0016992897
208	0x38d6a4ec	0.00010235034
209	0x38c268fe	9.270197e-05
210	0xb97743c6	-0.00023581003
211	0x39a9b4da	0.00032368937
212	0xb9b89a4f	-0.00035210184
213	0xb9a39cd7	-0.00031206638
214	0x3982f1d0	0.00024975697
215	0x3a681abc	0.00088540814
216	0xba82cb6c	-0.0009978837
217	0xb92d19ae	-0.00016508132
218	0xba106738	-0.0005508545
219	0x39d394e9	0.00040356003
220	0xb9c78be5	-0.00038060467
221	0xb914f426	-0.00014205332
222	0x3a5ece7d	0.0008499397
223	0xb9256ae4	-0.00015775446
224	0x3a9cd050	0.0011963937
225	0xb9e5b963	-0.00043816408
226	0x3ae6951a	0.0017592043
227	0x3967f265	0.00022120176
228	0xb8b81a7c	-8.778737e-05
229	0x39f2205c	0.00046181947
230	0x3a452330	0.0007520197
231	0xba8151b1	-0.0009866265
232	0x397fc9bd	0.00024393848
233	0xb9f49ec5	-0.000466576
234	0x39773437	0.00023575207
235	0x3abad8a9	0.0014255244
236	0x39ab08b7	0.00032622155
237	0xb9e9c5b0	-0.00044588512
238	0xbab73346	-0.0013977073
239	0xb95df258	-0.00021166482
240	0x3a390144	0.00070573785
241	0xba448b54	-0.0007497568
242	0x3a2033db	0.00061112427
243	0x390c8609	0.00013401372
244	0x37914fc5	1.7322493e-05
245	0xb9c12a04	-0.00036843133
246	0x397ce5d6	0.00024118213
247	0xb9e022cf	-0.00042750544
248	0x390dc340	0.00013519544
249	0x3af8a2e3	0.0018969442
250	0x39e56b4d	0.0004375823
251	0xba65df20	-0.0008768905
252	0xb9d514de	-0.00040642073
253	0x38d22ad4	0.00010021558
254	0x38efdbca	0.00011437347
255	0xb95d9b18	-0.0002113398

convs.weight.3.tensor f4 [32, 32, 18, 2]
0	0xba187c74	-0.0005816885
1	0xb8d6e6ef	-0.0001024733
2	0xba1867a8	-0.0005813786
3	0x38f68c04	0.00011756274
4	0xb79c8e1f	-1.866283e-05
5	0xb993f0e7	-0.0002821751
6	0xb687a534	-4.0425457e-06
7	0x392f422c	0.00016713951
8	0x395d3030	0.00021094154
9	0x39eeb331	0.00045528405
10	0xb9cd3573	-0.0003914047
11	0x3a04da56	0.0005067935
12	0x372d57f9	1.0332086e-05
13	0x3a509a08	0.0007957523
14	0x39006cb4	0.00012247526
15	0xba0e7f47	-0.0005435836
16	0x39fc8786	0.00048166158
17	0xba75ab5c	-0.0009371543
18	0x3aa6cee0	0.0012726448
19	0xba0bf15a	-0.00053383934
20	0x385456bf	5.0625527e-05
21	0x39cd4d11	0.00039158066
22	0x3a40b4d6	0.00073511654
23	0xb9c477a0	-0.0003747316
24	0xba903f59	-0.0011005207
25	0x380b9130	3.32754e-05
26	0x3aa0a7d2	0.0012257046
27	0xba41d34e	-0.00073938526
28	0x3ac686d4	0.0015146383
29	0x3ad22c8d	0.0016035006
30	0x365d7afe	3.3003157e-06
31	0xb9d103a5	-0.00039866302
32	0x3ae4ad9e	0.0017446761
33	0x3ab54629	0.0013830113
34	0xb93b995a	-0.00017890838
35	0xb996eaca	-0.0002878516
36	0xba977904	-0.0011556451
37	0x39b1eafc	0.00033935148
38	0xba5dea7b	-0.0008465421
39	0xb98a3103	-0.00026357928
40	0x39db423f	0.00041820292
41	0x3a529643	0.0008033255
42	0x392a5791	0.00016245084
43	0xb972ed9a	-0.00023167432
44	0x3a8e97e2	0.0010879005
45	0xba589606	-0.00082621013
46	0xb983a4d2	-0.00025109068
47	0xba94bf99	-0.0011348604
48	0x3a575a2a	0.00082150346
49	0xb9932a4d	-0.0002806954
50	0x382c7168	4.1113613e-05
51	0x397e8176	0.00024271556
52	0x36c27b16	5.7959796e-06
53	0xb99b5d38	-0.00029633357
54	0xb958cde2	-0.00020676063
55	0x3a835ee5	0.0010022788
56	0x3a78d776	0.00094925554
57	0x394c26fe	0.00019469482
58	0xbb14485d	-0.002262614
59	0xba5b7bba	-0.00083726237
60	0xb927555e	-0.00015958163
61	0xba530db4	-0.0008051053
62	0xb88a2b5a	-6.588428e-05
63	0xba6aa702	-0.00089512777
64	0x3a6ec271	0.00091079535
65	0xba67fef7	-0.00088499434
66	0x3a007004	0.0004899504
67	0x39f8e6c9	0.00047474194
68	0x3a2f9f11	0.0006699423
69	0x3aa68e18	0.0012707142
70	0xb8fab10d	-0.00011953907
71	0xba20fdc6	-0.0006141331
72	0x3a6408b0	0.00086988043
73	0x3a3c3fca	0.0007181136
74	0x3aa10b78	0.0012286743
75	0xba120428	-0.00055700773
76	0x3a784a31	0.00094715046
77	0x3a8947e7	0.0010473699
78	0x3a150701	0.00056849426
79	0x3ab63e49	0.001390406
80	0xb9b99e8a	-0.0003540407
81	0x39ce6e80	0.0003937371
82	0xbaad05e7	-0.0013200612
83	0xb9c2a5be	-0.0003712605
84	0x396ab2bf	0.00022382567
85	0xbab643be	-0.0013905687
86	0xb9ce09af	-0.00039298597
87	0x3a7f4f0a	0.0009739256
88	0xba18bbbb	-0.0005826314
89	0x38c39236	9.3255585e-05
90	0xb98962c6	-0.00026204268
91	0x3a51fdf1	0.00080105575
92	0xb9d82919	-0.0004122935
93	0x39a557f6	0.00031536788
94	0x3a604616	0.00085553655
95	0xb94cdcfa	-0.00019537276
96	0x3a1b6d1f	0.0005929041
97	0xb8b2631e	-8.5061634e-05
98	0x3a0e2c79	0.0005423497
99	0x388c1c88	6.6810346e-05
100	0x38bdd3e7	9.051692e-05
101	0x3989a792	0.00026255526
102	0xba6c5d16	-0.00090165564
103	0xb852a688	-5.0222996e-05
104	0xb828e864	-4.0270752e-05
105	0x392aea41	0.0001629973
106	0x39e3aade	0.0004342412
107	0x3a77c460	0.00094515644
108	0x3aed2c7b	0.0018094921
109	0xb9dde94d	-0.00042326227
110	0x3a3902f9	0.0007057633
111	0x3a277991	0.0006388659
112	0xb971106e	-0.00022989672
113	0x3ab176b9	0.001353941
114	0x3a1562c6	0.00056986173
115	0x39952047	0.00028443543
116	0xba6b4641	-0.0008975007
117	0x3a6ca808	0.0009027724
118	0x3ac8b60f	0.0015313047
119	0x3a54b262	0.00081137393
120	0x3b0f6825	0.0021882143
121	0xba55a3a6	-0.00081496907
122	0xb9e44666	-0.0004354
123	0x3a0c823b	0.0005359982
124	0x3a37cf62	0.00070117984
125	0xba26d778	-0.0006364505
126	0x3a548355	0.0008106728
127	0xb9a99342	-0.00032343908
128	0x39a25278	0.00030960492
129	0x3a86036f	0.0010224412
130	0x39a637e6	0.00031703635
131	0xb99de8ab	-0.00030118725
132	0x39f97a2a	0.00047584
133	0x3a0528f0	0.00050796475
134	0xba91c1ee	-0.0011120418
135	0x39e2cbd1	0.00043257934
136	0x398c7204	0.0002678783
137	0xba9d4954	-0.0012000003
138	0xba0e31b2	-0.00054242753
139	0x3a423c6a	0.0007409515
140	0x39ed60c0	0.00045276247
141	0xb920c6af	-0.00015332804
142	0xb9bc3e14	-0.00035904406
143	0xb9518792	-0.00019982297
144	0x3ae7c2d3	0.0017681964
145	0x3ae6ddb1	0.0017613677
146	0x3a2c1d4b	0.0006565644
147	0xb87e39d6	-6.0612183e-05
148	0xbaa41616	-0.0012518789
149	0xb9fb099d	-0.00047881613
150	0xba72797c	-0.000924967
151	0xbad791e6	-0.0016446679
152	0x39c3af97	0.00037324123
153	0x391f4872	0.0001519041
154	0x3a5a40b4	0.00083256816
155	0xb74657ce	-1.1822163e-05
156	0xb8a3bfbf	-7.808161e-05
157	0xba7a046d	-0.00095374027
158	0x39d8faf7	0.00041385714
159	0xb8d20853	-0.00010015131
160	0x3a773603	0.00094303506
161	0x3886d689	6.429578e-05
162	0x3ac0ab20	0.0014699437
163	0x39bafc6e	0.0003566476
164	0x3a599b86	0.0008301068
165	0x3770b0cf	1.4346281e-05
166	0xba6c686c	-0.00090182456
167	0xb9cfbd2d	-0.00039623064
168	0x398f8097	0.00027370892
169	0x39a52ae8	0.0003150322
170	0xb99332c7	-0.00028075857
171	0x3a8c5f6e	0.0010709593
172	0x3affd852	0.0019519425
173	0x3995ddb4	0.00028584676
174	0xba896500	-0.0010482371
175	0x3a898d3d	0.0010494363
176	0xba809d95	-0.0009812588
177	0x39a8adf9	0.00032173077
178	0xba235e62	-0.00062320207
179	0x38b0cfc9	8.431037e-05
180	0x39535c7b	0.0002015698
181	0xba12d4f7	-0.0005601192
182	0xb638d427	-2.7541626e-06
183	0x38ebd749	0.00011245773
184	0x39f36311	0.00046422382
185	0x389e6839	7.55344e-05
186	0xb36e9a49	-5.5554015e-08
187	0xb9c1d428	-0.00036969897
188	0x3a3d9f7c	0.0007233543
189	0xb9b7519e	-0.0003496529
190	0x3aee2773	0.0018169716
191	0x3a45d27b	0.00075463176
192	0x3a09b30b	0.0005252815
193	0x39aac666	0.00032572745
194	0xb930162f	-0.00016792932
195	0x39d27876	0.00040144072
196	0xb9912a99	-0.00027688293
197	0xb9988299	-0.00029089002
198	0x36d27ef7	6.2732684e-06
199	0x3a61f79c	0.00086199655
200	0xb89e1be9	-7.539226e-05
201	0xb84d7116	-4.898113e-05
202	0xb91f7370	-0.00015206425
203	0x3a035f66	0.0005011469
204	0xb9cb49f2	-0.0003877427
205	0xb9a32fff	-0.00031125543
206	0xb88cfdc8	-6.722991e-05
207	0x38b5d484	8.670337e-05
208	0xb9bd0d49	-0.00036058787
209	0x38d7cf8e	0.00010290659
210	0xba246963	-0.00062718074
211	0xb938fe35	-0.00017642307
212	0xba5cfae4	-0.00084297196
213	0x37bc5747	2.2451988e-05
214	0xbaab6987	-0.0013077714
215	0x39a69fad	0.00031780955
216	0xbb697488	-0.0035622437
217	0x3aa29aea	0.0012405787
218	0x3a0bb8a7	0.00053299445
219	0xbac8f8a8	-0.0015332894
220	0x39d7b8fb	0.00041145817
221	0x3999769b	0.00029270802
222	0xba9f1267	-0.0012136222
223	0xb9927ff8	-0.00027942634
224	0xb8a3bb75	-7.807362e-05
225	0xb8732d89	-5.7978123e-05
226	0x3a6449e9	0.0008708523
227	0x39edd732	0.00045364496
228	0x3a1b9f93	0.0005936559
229	0x3a455c30	0.00075286906
230	0xba28dbab	-0.00064414245
231	0xba16d019	-0.0005753055
232	0x39009727	0.0001226334
233	0xb98cc62b	-0.00026850528
234	0x39ac003f	0.0003280658
235	0x3a364164	0.0006952493
236	0x3a785e8e	0.0009474539
237	0x3a01d564	0.0004952757
238	0xb811fe73	-3.480767e-05
239	0x39bf1eec	0.00036453397
240	0x3a9e9e1b	0.0012101562
241	0x39a4cf28	0.0003143486
242	0xba35f7b4	-0.00069415127
243	0xb8b802f6	-8.774355e-05
244	0x39ca9345	0.00038638167
245	0x390ada25	0.00013241971
246	0x38893225	6.542009e-05
247	0x3999b911	0.0002932032
248	0xb98bf247	-0.00026692657
249	0xb9fcd7d1	-0.0004822598
250	0xba1a18ba	-0.00058783183
251	0xb9ecfbdc	-0.00045201078
252	0xba1fbc8c	-0.00060934643
253	0x39cefee6	0.00039481296
254	0x3a46f800	0.00075900555
255	0x3a63b72d	0.0008686658

convs_bc.bias f4 [4, 32, 1]
0	0xbb0425a4	-0.0020164037
1	0x3aedeb35	0.0018151762
2	0xba14c29d	-0.00056747516
3	0xbc8161b7	-0.015793664
4	0xbb83846e	-0.0040135896
5	0xbb8d443f	-0.004311114
6	0x3ccf472a	0.025302488
7	0xbbc87bd3	-0.0061182766
8	0xba574f58	-0.0008213422
9	0xbc56ceca	-0.013110826
10	0xbcd69c8b	-0.026197692
11	0x3ad952d2	0.0016580469
12	0x3d960148	0.07324463
13	0x3dafc61e	0.0858271
14	0x3d876acb	0.06612166
15	0x3adf4713	0.0017034732
16	0x3ab2e6e7	0.0013649137
17	0xbcc7a940	-0.024372697
18	0xbb3d98d6	-0.0028930209
19	0x3b70d41f	0.0036747528
20	0xbb1d085a	-0.0023961277
21	0x3b325f56	0.002721747
22	0xbbc2af45	-0.005941304
23	0xbc9374a0	-0.017999947
24	0xbb1fcb8e	-0.0024382803
25	0xbbbc6322	-0.0057491222
26	0xbbcc58c7	-0.006236169
27	0xbbf0d698	-0.0073498003
28	0xbb5083bc	-0.00318168
29	0xbbaa251d	-0.0051924125
30	0xbbbc56be	-0.005747645
31	0xbc0615d0	-0.008183911
32	0xbb699c6d	-0.0035646216
33	0x3baa5303	0.005197884
34	0xbbbcd2ff	-0.0057624574
35	0xbc54ff4e	-0.0130003225
36	0xbc8be9f2	-0.017079327
37	0xbbdd6d7e	-0.0067574373
38	0x3d4d2279	0.050081704
39	0x3bd72f04	0.006566884
40	0xbacf72a8	-0.0015827017
41	0xbcb4a293	-0.022050178
42	0xbd083c70	-0.033260763
43	0xbaaef2b0	-0.0013347473
44	0x3dbcc0c1	0.092164524
45	0x3e001aa1	0.12510158
46	0x3dd7f95c	0.105456084
47	0xbbe897c0	-0.007098168
48	0x3bc493b8	0.0059990548
49	0xbc72d353	-0.014820891
50	0xbc29a632	-0.010354565
51	0xbcb1b897	-0.021694465
52	0xbcb44a57	-0.022008104
53	0x3c2c2871	0.010507689
54	0xbad191d5	-0.0015988896
55	0xbc6e7604	-0.014554504
56	0xbb0f2a11	-0.0021845142
57	0xbb8fd0f7	-0.004388924
58	0xbc1c5ae6	-0.009543156
59	0xbc7f1570	-0.015569076
60	0x3bf0611d	0.0073357956
61	0xbb4c605b	-0.0031185362
62	0xbbb7e4fb	-0.0056120134
63	0xbbe14dc0	-0.0068757236
64	0xbb8f663e	-0.004376202
65	0x3c4f11c7	0.012638516
66	0xbc1e62ed	-0.00966714
67	0xbc4ef977	-0.012632719
68	0xbd2241e2	-0.039613612
69	0xbc1a0c8a	-0.009402404
70	0x3d7deb11	0.061991755
71	0x3c26f48d	0.010190141
72	0x3c13b1ca	0.009014556
73	0xbd0d64c0	-0.03451991
74	0xbd54e955	-0.051980335
75	0xbb116aba	-0.0022188858
76	0x3dac97e0	0.08427405
77	0x3e1035ee	0.14083073
78	0x3de8df28	0.11370689
79	0xbc500b60	-0.0126980245
80	0x3c3452a2	0.011006029
81	0xbc6daf21	-0.014507086
82	0xbc8006cc	-0.015628241
83	0xbd47e2b6	-0.048800193
84	0xbd4f0030	-0.05053729
85	0x3c997fb9	0.01873766
86	0x3aad78ce	0.0013234855
87	0xbc7557d3	-0.014974552
88	0x3b5ed6a3	0.0034002445
89	0x3b530f2b	0.0032205086
90	0xbc890e33	-0.016730404
91	0xbcb3a5d2	-0.021929655
92	0x3c966044	0.01835645
93	0x3b8c8626	0.0042884527
94	0xbbcccf13	-0.006250271
95	0xba0ac49c	-0.00052935793
96	0xbb1da0f5	-0.0024052237
97	0x3c811c7f	0.015760658
98	0xbc036e6d	-0.008021933
99	0xbb79fff6	-0.003814695
100	0xbd406f4e	-0.04698115
101	0xbc151926	-0.009100234
102	0x3d81212b	0.063051544
103	0x3c386fd2	0.011257129
104	0x3cdaa935	0.026692012
105	0xbcf947e1	-0.030429782
106	0xbd65bccf	-0.056088265
107	0x3c016baf	0.007899209
108	0x3d89cac3	0.06728127
109	0x3df102a1	0.117680795
110	0x3dda63a3	0.106635354
111	0xbc58f8a8	-0.013242878
112	0x3c71e9d3	0.014765221
113	0xbc67ec4e	-0.0141554605
114	0xbc9934fe	-0.018702026
115	0xbd857818	-0.06517047
116	0xbd9efd66	-0.07763176
117	0x3cb8db4c	0.022565506
118	0x3b8b417b	0.0042497492
119	0xbc20db99	-0.009817981
120	0x3bc0ba5b	0.0058815903
121	0x3c57595c	0.0131438635
122	0xbc2feca6	-0.010737574
123	0xbcb65dfa	-0.022261608
124	0x3cdbc717	0.026828332
125	0x3c8813e0	0.01661104
126	0xbb89ff44	-0.0042113382
127	0x3c0fd960	0.008779854

convs_bc.bias_bc f4 [4, 32, 1]
0	0xb961f411	-0.00021548594
1	0x3a4f49b6	0.0007907407
2	0x38b29957	8.516263e-05
3	0xb7c4b1c6	-2.3447803e-05
4	0xba1ec62c	-0.00060567516
5	0xb99ccaed	-0.0002990583
6	0x3a89d54a	0.0010515836
7	0x3a985507	0.001162202
8	0x3aa8e4f6	0.0012885618
9	0xbb0e1b25	-0.002168366
10	0xb9e46907	-0.000435658
11	0xb89aa2c5	-7.3736104e-05
12	0x3a98766a	0.001163197
13	0xbb0a70df	-0.0021124405
14	0xba663c5c	-0.0008782798
15	0xbad87ae9	-0.0016516122
16	0xba12e794	-0.0005603966
17	0x3a48c05e	0.00076580595
18	0x384ae79b	4.8376252e-05
19	0xba953cae	-0.0011385882
20	0x3aec57c2	0.0018031525
21	0xbb0796c2	-0.0020689224
22	0xba47d01e	-0.00076222594
23	0x3ab0b66f	0.0013482104
24	0x3aa68802	0.0012705328
25	0xb95e231f	-0.00021184653
26	0x3994b56e	0.00028363935
27	0x3946ef0e	0.00018971806
28	0x38354542	4.3218264e-05
29	0x3aa3344e	0.0012451501
30	0xba2abac7	-0.00065128173
31	0x3a221850	0.00061834324
32	0x392347e5	0.00015571674
33	0xb84b7428	-4.850715e-05
34	0x3b00aaed	0.001963313
35	0xbab89a5f	-0.0014084092
36	0x3a6d9cc5	0.0009064193
37	0xb82ebe90	-4.1662308e-05
38	0xba626e6d	-0.00086376705
39	0x3a40cb95	0.0007354555
40	0xba8a2762	-0.0010540301
41	0xb88d39da	-6.7341796e-05
42	0xb94bc8a4	-0.00019434333
43	0xb97119b3	-0.00022993125
44	0x3918fe2f	0.0001459054
45	0xba3f8f51	-0.00073074276
46	0xb959bc65	-0.00020764915
47	0xb94a7539	-0.0001930789
48	0xb98a118e	-0.0002633449
49	0xba9377ee	-0.0011250952
50	0xbacc62e4	-0.0015593437
51	0x3a912e92	0.0011076501
52	0xb9b1984a	-0.00033873535
53	0x38cbc7c0	9.717001e-05
54	0x39d88739	0.0004129948
55	0x399463fc	0.00028303254
56	0x3a548697	0.00081072137
57	0x3a3f26ec	0.00072918716
58	0x38ba91ac	8.896305e-05
59	0xbb046799	-0.002020335
60	0xba010e8c	-0.0004923127
61	0x3aad8a80	0.0013240129
62	0x3a2bfd85	0.00065609097
63	0xbac2ae4c	-0.001485297
64	0xb8cf3044	-9.879519e-05
65	0xbafb9d7c	-0.0019196714
66	0xb909c2f3	-0.00013137962
67	0x395e689b	0.00021210538
68	0x3a5740d0	0.0008211257
69	0xb90caad5	-0.0001341508
70	0x39ac8935	0.00032908624
71	0x39e1673b	0.00042992257
72	0x3a374c88	0.00069923
73	0xbaa6a2f3	-0.0012713358
74	0x3a4d9974	0.00078429957
75	0x3a95c723	0.0011427145
76	0xba3094ca	-0.00067360385
77	0xbad2690c	-0.0016053035
78	0x39449fbc	0.00018751522
79	0xba80937d	-0.000980958
80	0xbaa06f03	-0.0012240115
81	0x3858c62a	5.1682968e-05
82	0xba3a6034	-0.00071096723
83	0x373a1c5f	1.109307e-05
84	0x3aadf144	0.0013270755
85	0xbad9065c	-0.0016557681
86	0x38c0b9e2	9.189897e-05
87	0xba3901df	-0.0007057469
88	0xba079a3f	-0.0005172826
89	0xba61f987	-0.00086202513
90	0x3a9f1eb4	0.0012139888
91	0x3a040374	0.0005035915
92	0xba50629b	-0.00079492637
93	0x3a275e90	0.00063846353
94	0xb8f1cdfb	-0.000115301424
95	0x3aa3c21b	0.0012493761
96	0xbaea1d6b	-0.001786155
97	0x3a11e1aa	0.00055649376
98	0x39a2168f	0.00030915855
99	0x3a3f59c5	0.00072994485
100	0x3a912470	0.0011073481
101	0x37b43a27	2.1484751e-05
102	0x3b017be2	0.0019757678
103	0xb9ee4111	-0.00045443376
104	0x3a0fba6a	0.0005482795
105	0xba79e7bc	-0.00095331273
106	0xbab83c92	-0.0014056137
107	0xbaab2109	-0.001305611
108	0x3ae0b9f0	0.0017145257
109	0xb918f04e	-0.0001458537
110	0x39b25f1d	0.0003402167
111	0x3a32c2b7	0.0006819176
112	0x3ab0e048	0.0013494575
113	0xba19e636	-0.0005870791
114	0x3aba36e2	0.001420703
115	0x3a401e48	0.0007328731
116	0xba94778e	-0.0011327134
117	0xb908aae1	-0.00013033628
118	0x399d0527	0.00029949212
119	0xba43c768	-0.00074683735
120	0xba2145ee	-0.0006152083
121	0xba99e3b3	-0.0011740833
122	0x3a8027ef	0.0009777526
123	0xba8a0b7e	-0.0010531989
124	0xb8b4c565	-8.6198364e-05
125	0x3a1a250c	0.0005880154
126	0x3a01951b	0.0004943178
127	0x3a9a800e	0.0011787431
