neuraloperator/examples/para/fno_para_202305121517_003_modes32_epochs250.pth (torch, 746319 bytes, 31 tensors)

convs.bias f4 [4, 32, 1]
-0.0054726205 0.00042125076 0.007338181 0.0044461465 0.0058995024 -0.014454256 -0.009753501 0.008000879
0.012728062 0.019416295 0.0007046898 0.032646175 -0.007646463 -0.014037366 0.007094219 -0.005748425
0.0021405204 0.03488767 0.0050141863 0.009960792 0.009095348 0.0015225123 -0.0009710267 0.009018476
0.0001562493 0.0034511033 0.0038212682 0.016224924 0.0075825825 -0.0031817008 -0.014021402 -0.008031892
-0.007885709 0.002964058 0.008097778 0.0049671927 0.0056197606 -0.011874139 -0.010173135 0.008953796
0.008699156 -0.0005203676 0.0011013786 0.005554806 -0.0040982147 -0.010860365 0.007542645 -0.007420593
0.0026629847 0.009658232 0.0052561173 0.0040578656 0.008017644 0.004512312 0.0076401792 0.0078343665
0.0060337703 0.0029679954 0.0022658212 0.002639628 0.0076120454 0.006486283 -0.014878422 0.0077976533
-0.008798173 0.0010765737 0.005589593 0.0037475822 0.007223557 -0.008828217 -0.010404959 0.011337359
0.005513203 -0.0011175916 0.0029642554 0.00031223014 -0.006553106 -0.009255412 0.006348525 -0.0073383804
0.001101713 0.0096358415 0.0076313023 0.0028250003 0.008487971 -0.006695552 0.007729639 0.010625192
0.005519514 0.0042763026 0.00012714267 -0.00024075637 0.008936556 0.007190741 -0.013089905 0.006250436
-0.011473385 -0.009475579 0.0038250564 -0.008397816 0.005939056 -0.0064848512 -0.011292347 0.011707673
0.005555178 -0.0063221385 -0.007045831 -0.004494607 -0.0016708213 -0.009893589 0.005624367 -0.0073116636
-0.005900561 0.009904242 0.010440319 -0.0057629324 0.0064638155 -0.0016434644 0.006790331 0.006227006
-0.0052170595 0.0040141777 -0.011828705 0.0024041503 0.0075105727 0.006554651 -0.016453266 -0.00879694
00000000: ab53 b3bb 52db dc39 2075 f03b fbb0 913b
00000010: 9d50 c13b 8bd1 6cbc 26cd 1fbc 1e16 033c
00000020: 5d89 503c ec0e 9f3c efba 383a ffb7 053d
00000030: 2e8f fabb fbfc 65bc 9f76 e83b 495d bcbb
00000040: f947 0c3b 60e6 0e3d 0b4e a43b 9732 233c
00000050: a804 153c 098f c73a 808c 7eba 3bc2 133c
00000060: dad6 2339 e82b 623b 3e6e 7a3b 22ea 843c
00000070: 5077 f83b 1584 50bb 06ba 65bc 3298 03bc
00000080: 1033 01bc a440 423b 8bac 043c d5c3 a23b
00000090: f825 b83b c08b 42bc 39ad 26bc f1b2 123c
000000a0: e886 0e3c 4769 08ba 225c 903a 1705 b63b
000000b0: 514a 86bb acef 31bc 4b28 f73b 7228 f3bb
000000c0: 7885 2e3b 903d 1e3c 823b ac3b d8f7 843b
000000d0: 705c 033c 04dc 933b 785a fa3b b75b 003c
000000e0: efb6 c53b b382 423b 2c7e 143b 9cfd 2c3b
000000f0: 776e f93b e38a d43b a0c4 73bc 7583 ff3b
00000100: 3626 10bc d21b 8d3a e828 b73b ff99 753b
00000110: 97b3 ec3b 3aa4 10bc 9079 2abc 55c0 393c
00000120: 19a8 b43b 277c 92ba f443 423b d2b2 a339
00000130: 70bb d6bb 03a4 17bc 4a07 d03b cc76 f0bb
00000140: 5b67 903a a6df 1d3c 0110 fa3b a423 393b
00000150: 2111 0b3c 5c66 dbbb e948 fd3b 4915 2e3c
00000160: 0add b43b 3a20 8c3b 9a51 0539 8c73 7cb9
00000170: a26a 123c 4fa0 eb3b 0a77 56bc 75d0 cc3b
00000180: ddfa 3bbc 753f 1bbc ccad 7a3b fe96 09bc
00000190: 6a9c c23b e07e d4bb 8903 39bc 8ad1 3f3c
000001a0: 3608 b63b f129 cfbb b7e0 e6bb 7f47 93bb
000001b0: 76ff daba b818 22bc 9c4c b83b ae96 efbb
000001c0: 7e59 c1bb 6745 223c df0d 2b3c fbd6 bcbb
000001d0: 6ace d33b 8469 d7ba 6d81 de3b ea0b cc3b
000001e0: def3 aabb 5d89 833b 2fcd 41bc f38e 1d3b
000001f0: 401b f63b 66c8 d63b 00c9 86bc 0a21 10bc

convs.bias_bc f4 [4, 32, 1]
-0.0002503433 -0.00055847084 -3.5601173e-05 -0.00010519609 -0.0016255525 -0.00050610275 -0.00021428525 -0.0014705427
0.00045418195 3.3230543e-05 0.00021992935 -0.0003320402 0.0005798379 0.0005728243 -0.00041550022 -0.0018574033
-0.0010575416 -0.00025619857 0.0024018248 0.0013513026 0.00045607027 -0.00030470148 -0.001086164 -0.0009927952
-0.00024467276 0.0008778673 0.0010471323 -0.0009958945 -0.0005449241 0.00073907146 -0.0015095677 0.0017220168
-0.0006252461 0.00051532075 -0.001290625 -0.00042884884 -0.002370153 -0.00027204695 0.0002637113 0.00082358456
0.0007121938 0.00060425146 -0.001001222 -0.00071841193 0.0024582674 -0.00072875404 -0.00029222431 5.9516187e-05
0.0011692303 -0.0010357529 0.0010850568 0.00081151567 5.256107e-05 -0.0016710862 -0.0008801363 -0.0016606952
-0.0027717955 -0.0020269882 -0.0016298859 -0.0018606873 -0.0006104945 4.859185e-05 -0.0012342869 0.00022303783
-0.0002573491 -0.00089200865 0.00057638256 0.0007460981 0.00036075813 0.00032216942 0.0017195023 -0.0008184525
0.0022625874 0.0005992176 0.0012267829 0.0008648474 -0.0006020557 0.00032470687 -0.00034690314 -0.001139771
0.00019780156 -0.0004291098 -0.00028209828 -0.00015234794 0.0007455485 -0.00069089694 -2.417172e-05 -0.00033330452
0.00070828456 -0.0004960377 0.00012963847 -0.00060311717 0.0011855063 0.0011601594 0.0013941734 -0.0010041475
0.00057473197 8.727027e-05 0.00022036074 -0.00026095888 -2.5658028e-05 -0.00081845693 0.00074597244 0.0004798839
0.00046188204 -0.0005569794 0.0010776422 -0.0016295696 0.0007400878 0.0012776771 -0.0013038209 0.00082065933
0.0016430179 -0.00023449413 0.00018847063 -0.00015698466 0.00076648407 0.0001045544 -0.0008435265 0.00061574526
0.00017010163 -0.0010093353 0.0015267155 -0.0005201358 0.00028472097 0.0001031236 0.00028761273 0.00021271345
00000000: 8240 83b9 5866 12ba 7852 15b8 b99c dcb8
00000010: 7e10 d5ba fbab 04ba c2b1 60b9 3abf c0ba
00000020: 451f ee39 0661 0b38 d69c 6639 ae15 aeb9
00000030: 4300 183a 9729 163a 7fd7 d9b9 1d74 f3ba
00000040: 359d 8aba 6452 86b9 ef67 1d3b 311e b13a
00000050: b71c ef39 57c0 9fb9 9e5d 8eba ae20 82ba
00000060: 6c47 80b9 ad20 663a ee3f 893a ad88 82ba
00000070: 3dd9 0eba 3fbe 413a b0dc c5ba 4cb5 e13a
00000080: 8ee7 23ba 9716 073a 302a a9ba 1ed7 e0b9
00000090: 9254 1bbb 86a1 8eb9 bb42 8a39 d3e5 573a
000000a0: 84b2 3a3a a166 1e3a 6f3b 83ba cf53 3cba
000000b0: e21a 213b db09 3fba af35 99b9 05a1 7938
000000c0: dc40 993a 1ac2 87ba 7738 8e3a e5bb 543a
000000d0: 0575 5c38 5908 dbba f2b8 66ba afab d9ba
000000e0: 03a7 35bb 38d7 04bb e5a1 d5ba 4ee2 f3ba
000000f0: 9809 20ba 1acf 4b38 ccc7 a1ba 43df 6939
00000100: d0ec 86b9 b0d5 69ba 6118 173a cc95 433a
00000110: 2324 bd39 d9e8 a839 ec60 e13a 6b8d 56ba
00000120: eb47 143b d014 1d3a 01cc a03a edb6 623a
00000130: 46d3 1dba 6b3d aa39 8de0 b5b9 5e64 95ba
00000140: f468 4f39 24fa e0b9 97e6 93b9 97bf 1fb9
00000150: ea70 433a 4f1d 35ba 60c4 cab7 60bf aeb9
00000160: 2cac 393a 8708 02ba 90ef 0739 821a 1eba
00000170: fe62 9b3a 7d10 983a b2bc b63a 999d 83ba
00000180: 9ca9 163a df04 b738 a310 6739 4fd1 88b9
00000190: 323c d7b7 b78d 56ba 5d8d 433a ed98 fb39
000001a0: c228 f239 4102 12ba ac3f 8d3a 4897 d5ba
000001b0: 7402 423a bb77 a73a f8e4 aaba 8421 573a
000001c0: 885a d73a 8ae2 75b9 33a0 4539 409c 24b9
000001d0: e0ed 483a 3744 db38 1b20 5dba f769 213a
000001e0: 4f5d 3239 ac4b 84ba 121c c83a b959 08ba
000001f0: 9a46 9539 1044 d838 baca 9639 d50b 5f39

convs.weight.0.tensor f4 [32, 32, 16, 2]
-0.00072438404 -3.825906e-37 -0.004081157 -0.008274373 -0.0027516505 -0.016986243 -0.00079341745 -0.013090806
0.0010983412 -0.012203257 0.0037993207 -0.008112713 0.021865215 -0.00789245 0.022171883 -0.0073441966
0.020449828 -0.0071998355 0.016774446 -0.0066841966 0.015185084 -0.007200713 0.013031943 -0.0074266703
0.014513993 -0.0075649526 0.0199296 -0.0073120715 0.030223595 -0.008911878 0.04477418 -0.014695665
-0.0010722756 -1.5718523e-37 0.00436308 -0.03568068 -0.011167851 -0.038273048 -0.019090228 -0.039833605
-0.023812383 -0.042018063 -0.027777093 -0.043358587 -0.01670088 -0.050880723 -0.015923088 -0.052731562
-0.014528244 -0.05331263 -0.011933861 -0.05282713 -0.008971541 -0.051825713 -0.00691505 -0.048418198
-0.0061810086 -0.047046266 -0.0053168987 -0.051746596 0.0028271792 -0.06540021 0.023978755 -0.07772837
0.012978282 2.131348e-38 0.007309184 -0.0121946875 0.009088656 -0.015616735 0.008833581 -0.016808333
0.008513069 -0.015350805 0.009373677 -0.016349472 0.015992628 -0.02271463 0.017191019 -0.023502484
0.017298687 -0.025412945 0.01845316 -0.02720006 0.019570503 -0.025538893 0.019362623 -0.018313115
0.016333165 -0.015277795 0.02137721 -0.019342007 0.040292673 -0.031248007 0.06327666 -0.0499673
0.0043959175 -3.2012267e-37 -0.00021085246 -0.00028472376 -0.00016748153 -7.8020734e-05 -0.00012531778 -3.5189547e-05
-9.764575e-05 -2.5735577e-05 -7.446197e-05 -2.9538342e-05 -6.754419e-05 -8.063771e-06 -6.2741376e-05 -1.8996103e-05
-5.85595e-05 -2.6066862e-05 -5.1629937e-05 -2.586596e-05 -4.058169e-05 -8.899031e-06 -2.9345605e-05 2.798148e-05
-4.2999218e-05 5.6816243e-05 -8.003173e-05 3.509716e-05 -0.00015091042 -4.46582e-05 -0.00025124272 -0.00014638656
0.012487477 1.3361514e-37 0.007781457 0.010275548 0.0139695825 0.010135483 0.0141729675 0.010245226
0.015320335 0.00933928 0.015266642 0.008868303 0.01790407 0.012147342 0.01626189 0.010132681
0.0129375085 0.0076980297 0.012849857 0.0063161417 0.01055736 0.0031297745 0.011941946 0.0024896355
0.012655921 0.0033725852 0.014838592 0.008826549 0.014715414 0.025835562 0.015767204 0.04900116
-0.009045618 3.2927274e-37 -0.005895863 0.00218528 0.0013207245 -0.011138696 0.0019041129 -0.038145427
0.0051212986 -0.033584002 0.004137962 -0.035868414 0.014732713 -0.05381833 0.023193035 -0.0524735
0.027985774 -0.048251554 0.029328542 -0.04188388 0.026188679 -0.0356804 0.022080973 -0.029563703
0.018907987 -0.027290054 0.017780757 -0.040043503 0.026516337 -0.06715977 0.04491486 -0.09538734
-0.0047215954 1.5625395e-37 -0.007682612 -0.00863536 -0.0029007527 -0.017320147 -0.001109373 -0.020048264
0.00017709841 -0.023229346 -0.00033788968 -0.023315325 0.011758947 -0.04622084 0.015601152 -0.046831675
0.02135802 -0.044186186 0.025518464 -0.04056607 0.024377251 -0.034218993 0.019418031 -0.026772032
0.015289061 -0.02397522 0.014487415 -0.030216638 0.026820837 -0.047149915 0.050533053 -0.067915484
0.013406933 4.58047e-37 -0.004568574 0.01803424 -0.006191543 0.025146231 -0.006474327 0.023906821
-0.005987867 0.02263863 -0.0059934137 0.020479951 -0.010651724 0.031942826 -0.010914821 0.030591384
-0.012199776 0.027334426 -0.014053334 0.021996617 -0.014810855 0.014857306 -0.013226426 0.008678479
-0.01263705 0.011073009 -0.017038327 0.025841778 -0.030844407 0.057829063 -0.05323543 0.07862016
00000000: 97e4 3dba 5730 0283 3abb 85bb 3c91 07bc
00000010: 0955 34bb bc26 8bbc 58fd 4fba d27a 56bc
00000020: 37f6 8f3a 2bf0 47bc 06fe 783b 2feb 04bc
00000030: ae1e b33c 564f 01bc cfa1 b53c 96a7 f0bb
00000040: 6686 a73c 99ec ebbb 906a 893c 1b07 dbbb
00000050: dcca 783c f5f3 ebbb ee83 553c 6d5b f3bb
00000060: 19cc 6d3c 6ce3 f7bb 6743 a33c 1a9a efbb
00000070: 7997 f73c 2003 12bc 2165 373d 16c6 70bc
00000080: 998b 8cba 0ff3 5582 2bf8 8e3b e825 12bd
00000090: 5df9 36bc 33c4 1cbd 1c63 9cbc 9028 23bd
000000a0: 3012 c3bc 221b 2cbd c98c e3bc c698 31bd
000000b0: 49d0 88bc 4e68 50bd 2371 82bc 0dfd 57bd
000000c0: df07 6ebc 585e 5abd 3e86 43bc 4361 58bd
000000d0: 5ffd 12bc 3347 54bd a597 e2bb 2952 46bd
000000e0: 0f8a cabb 96b3 40bd 6139 aebb 3df4 53bd
000000f0: 3248 393b 8cf0 85bd 186f c43c 0d30 9fbd
00000100: dca2 543c 5015 e800 e181 ef3b 3acc 47bc
00000110: 96e8 143c 56dd 7fbc b9ba 103c a1b1 89bc
00000120: 667a 0b3c f181 7bbc 0d94 193c 54ef 85bc
00000130: f902 833c 0814 babc 2ed4 8c3c 4888 c0bc
00000140: fab5 8d3c cf2e d0bc 152b 973c a9d2 debc
00000150: 5252 a03c f136 d1bc 5d9e 9e3c 6305 96bc
00000160: 21cd 853c b74f 7abc 421f af3c 2173 9ebc
00000170: ee09 253d d2fb ffbc 3297 813d 83aa 4cbd
00000180: a10b 903b 3cdd d982 4718 5db9 fa46 95b9
00000190: fb9d 2fb9 109f a3b8 bc67 03b9 7d98 13b8
000001a0: 2ac7 ccb8 bbe2 d7b7 7728 9cb8 1bc9 f7b7
000001b0: 83a6 8db8 a249 07b7 0594 83b8 d259 9fb7
000001c0: c99d 75b8 29aa dab7 398d 58b8 bafa d8b7
000001d0: 4236 2ab8 0c4d 15b7 352b f6b7 c5b9 ea37
000001e0: 0f5a 34b8 fa4d 6e38 b5d6 a7b8 4a35 1338
000001f0: b53d 1eb9 614f 3bb8 3ab9 83b9 587f 19b9
00000200: 4698 4c3c 15de 3502 98fb fe3b c65a 283c
00000210: ade0 643c 4c0f 263c bc35 683c 98db 273c
00000220: 2402 7b3c c803 193c f020 7a3c 5c4c 113c
00000230: 8eab 923c a505 473c a837 853c 8b03 263c
00000240: d8f7 533c c13f fc3b 3588 523c a3f7 ce3b
00000250: c7f8 2c3c e71c 4d3b 27a8 433c 2729 233b
00000260: c85a 4f3c 9706 5d3b 911d 733c 3b9d 103c
00000270: eb18 713c 1aa5 d33c 392a 813c 71b5 483d
00000280: 1234 14bc 6717 e002 1532 c1bb ea36 0f3b
00000290: 291c ad3a 147f 36bc 6d93 f93a 613e 1cbd
000002a0: 91d0 a73b 618f 09bd be97 873b c2ea 12bd
000002b0: 7a61 713c 9c70 5cbd 52ff bd3c 74ee 56bd
000002c0: 6c42 e53c 6ca3 45bd 6942 f03c 6e8e 2bbd
000002d0: a489 d63c 9c25 12bd 28e3 b43c 942f f2bc
000002e0: ece4 9a3c 648f dfbc f3a8 913c a804 24bd
000002f0: ca38 d93c 108b 89bd a5f8 373d 705a c3bd
00000300: 9db7 9abb 8eae 5402 6cbe fbbb 537b 0dbc
00000310: 8e1a 3ebb fbe2 8dbc 6268 91ba 423c a4bc
00000320: 7eb3 3939 784b bebc c926 b1b9 c8ff bebc
00000330: 99a8 403c 1052 3dbd f99b 7f3c 92d2 3fbd
00000340: 04f7 ae3c 93fc 34bd 190c d13c 9b28 26bd
00000350: cdb2 c73c 3729 0cbd 9012 9f3c 0551 dbbc
00000360: f87e 7a3c ae67 c4bc 9f5c 6d3c e288 f7bc
00000370: 5fb7 db3c 4520 41bd bffb 4e3d 4617 8bbd
00000380: c1a8 5b3c 85dd 1b03 fab3 95bb 8bbc 933c
00000390: 6de2 cabb 78ff cd3c 9726 d4bb 3dd8 c33c
000003a0: de35 c4bb a674 b93c 6664 c4bb 92c5 a73c
000003b0: 9284 2ebc 7bd6 023d 14d4 32bc c89a fa3c
000003c0: 92e1 47bc 72ec df3c f43f 66bc 4032 b43c
000003d0: 3aa9 72bc 0f6c 733c a7b3 58bc 2e30 0e3c
000003e0: a10b 4fbc 916b 353c f693 8bbc 23b2 d33c
000003f0: 69ad fcbc 2bde 6c3d 650d 5abd 9b03 a13d

convs.weight.1.tensor f4 [32, 32, 16, 2]
-0.002128749 -3.1531229e-37 -0.006517513 -0.01785934 -0.0036061944 -0.019868089 -0.0013036593 -0.014199595
0.0023249292 -0.012238528 0.002126068 -0.009914581 0.018350763 -0.01117108 0.016921138 -0.009881892
0.015184497 -0.010254097 0.014664227 -0.009875182 0.013489406 -0.010071883 0.014415004 -0.0108207315
0.0174035 -0.011907097 0.019705974 -0.01164457 0.026226686 -0.01195451 0.03197036 -0.016242731
-0.0027654201 -2.0805986e-37 0.015045528 -0.037210397 0.01305531 -0.042495795 -0.008040434 -0.046838276
-0.01771374 -0.04977758 -0.026403824 -0.050450034 -0.0331463 -0.06066163 -0.030698065 -0.064231284
-0.025448842 -0.06504708 -0.0202641 -0.06520895 -0.014574625 -0.064593986 -0.012728682 -0.062355723
-0.012957939 -0.062167767 -0.014721451 -0.06788831 -0.007895088 -0.08044555 0.013482546 -0.09107429
0.0121128345 3.5480543e-37 0.0058752517 -0.012192957 0.007451337 -0.012776229 0.0073238015 -0.014005372
0.0070178187 -0.01411258 0.006284229 -0.013766895 0.009784713 -0.0246802 0.009388539 -0.024227327
0.009649442 -0.02408045 0.010901091 -0.022715967 0.011049099 -0.020136643 0.011260801 -0.018037157
0.009799106 -0.017795065 0.014556162 -0.023529544 0.031305913 -0.032878384 0.056042325 -0.043537453
-0.00073940976 2.1190935e-37 -0.008052472 -0.009807663 -0.0038213613 -0.021400655 -0.010349396 -0.025492478
-0.010847197 -0.028884385 -0.012758831 -0.029668543 -0.0075209904 -0.039641235 -0.0067987517 -0.04045042
-0.005225296 -0.039603338 -0.003400981 -0.038132846 -0.0011989287 -0.0367244 -0.00094294 -0.034854297
-0.002244651 -0.034882057 -0.0075588883 -0.038532007 -0.013072342 -0.049129117 -0.010308847 -0.064304665
0.01061788 2.816842e-37 0.012189905 0.0116505725 0.014887958 0.011139433 0.01483734 0.0108016925
0.013287199 0.008120124 0.012987477 0.007266515 0.015899112 0.007129606 0.013864582 0.0048164264
0.013261026 0.0030890256 0.0123991845 0.0014955915 0.012823824 -0.0014254148 0.013578981 -0.0023192125
0.016425012 -0.002765968 0.018195903 0.0010422908 0.018166978 0.012098475 0.012835448 0.031901773
-0.009967694 -2.6135017e-37 -0.0068396456 0.0018482215 0.0045404756 -0.013358609 -0.0015582301 -0.038744725
-0.0012206414 -0.033281036 0.0015551095 -0.035417344 0.011113304 -0.056260116 0.01646499 -0.05675117
0.017879818 -0.05309615 0.019462653 -0.045907978 0.019361218 -0.037137188 0.017975008 -0.027653158
0.013371829 -0.026158297 0.008440081 -0.039433848 0.009008025 -0.068312064 0.025621876 -0.09169032
-0.0055687614 4.0289627e-37 -0.008187561 -0.0086107105 -0.0012580144 -0.018729907 -0.002817922 -0.02049565
-0.004006825 -0.022260018 -0.0037188272 -0.02133904 0.0053469716 -0.053108186 0.010231108 -0.050876833
0.015328458 -0.047565147 0.01819555 -0.043073773 0.017262923 -0.037604313 0.015071389 -0.030613566
0.010105113 -0.028714078 0.00492364 -0.035499733 0.008488709 -0.05380459 0.032101564 -0.07059904
0.014595969 -9.8244e-38 0.00031322747 0.017444404 -0.008125617 0.023619458 -0.00087934 0.02034955
0.0030843061 0.017780367 0.0070315124 0.0147922775 0.004860933 0.02841002 0.0033618347 0.024837388
-6.2511936e-05 0.02014756 -0.0032765542 0.014125079 -0.004692663 0.008507866 -0.004152219 0.0044565
-0.0043865223 0.007696008 -0.009141393 0.021228863 -0.022708427 0.04936317 -0.04137394 0.07280711
00000000: 7b82 0bbb 2697 d682 dd90 d5bb c04d 92bc
00000010: e755 6cbb 67c2 a2bc 8cdf aaba 6ba5 68bc
00000020: d75d 183b 1b84 48bc 8155 0b3b c470 22bc
00000030: 5754 963c e806 37bc 339e 8a3c a9e7 21bc
00000040: 66c8 783c cd00 28bc 3a42 703c 84cb 21bc
00000050: ab02 5d3c 8a04 25bc e92c 6c3c 7049 31bc
00000060: c991 8e3c fc15 43bc 6c6e a13c dec8 3ebc
00000070: 59d9 d63c d9dc 43bc 5af3 023d 7a0f 85bc
00000080: 0d3c 35bb 2499 8d82 8581 763c ee69 18bd
00000090: f0e5 553c 1210 2ebd 06bc 03bc 7ed9 3fbd
000000a0: 681c 91bc 93e3 4bbd d54c d8bc b2a4 4ebd
000000b0: 6ac4 07bd 5478 78bd 827a fbbc b18b 83bd
000000c0: 177a d0bc 6737 85bd e600 a6bc 458c 85bd
000000d0: 68ca 6ebc da49 84bd f68b 50bc b768 7fbd
000000e0: 894d 54bc a1a3 7ebd 3e32 71bc 0709 8bbd
000000f0: 665a 01bc a3c0 a4bd e6e5 5c3c 2885 babd
00000100: e974 463c d377 f102 2f85 c03b f8c4 47bc
00000110: 582a f43b 6353 51bc 80fc ef3b ca76 65bc
00000120: bbf5 e53b 7338 67bc efeb cd3b 8b8e 61bc
00000130: 1050 203c 212e cabc 63d2 193c 6378 c6bc
00000140: b118 1e3c 5d44 c5bc 7d9a 323c d616 babc
00000150: 4807 353c 9af5 a4bc 397f 383c a9c2 93bc
00000160: 6e8c 203c f5c6 91bc f87c 6e3c 08c1 c0bc
00000170: a13a 003d 7cab 06bd a38c 653d 5454 32bd
00000180: f3d4 41ba d137 9002 84ee 03bc 52b0 20bc
00000190: ce6f 7abb 6d50 afbc 8390 29bc 9ad5 d0bc
000001a0: 71b8 31bc f29e ecbc 6a0a 51bc 720b f3bc
000001b0: a472 f6bb d95e 22bd 10c8 debb 57af 25bd
000001c0: f638 abbb 1c37 22bd fee2 5ebb 3031 1cbd
000001d0: 5f25 9dba 536c 16bd a22f 77ba 61c3 0ebd
000001e0: ff1a 13bb 7de0 0ebd 8db0 f7bb bdd3 1dbd
000001f0: 602d 56bc 9d3b 49bd 70e6 28bc 2ab2 83bd
00000200: 9ef6 2d3c 4fb4 bf02 2bb8 473c 0be2 3e3c
00000210: 9fec 733c 2b82 363c 5118 733c 95f9 303c
00000220: 8db2 593c 450a 053c 6dc9 543c f21b ee3b
00000230: db3e 823c 789f e93b 4628 633c 1dd3 9d3b
00000240: c644 593c 4071 4a3b f325 4b3c b907 c43a
00000250: 041b 523c fcd4 baba 607a 5e3c eefd 17bb
00000260: bf8d 863c 3e45 35bb 930f 953c 7a9d 883a
00000270: ead2 943c af38 463c c54b 523c 6fab 023d
00000280: 8a4f 23bc 9fdd b182 1b1f e0bb 0640 f23a
00000290: 45c8 943b 11de 5abc 873d ccba cab2 1ebd
000002a0: eefd 9fba b251 08bd d1d4 cb3a c711 11bd
000002b0: 9314 363c 0271 66bd 96e1 863c ea73 68bd
000002c0: b278 923c 597b 59bd 2470 9f3c 010a 3cbd
000002d0: 6b9b 9e3c 2a1d 18bd 5340 933c e088 e2bc
000002e0: 8415 5b3c ed49 d6bc 4448 0a3c 6385 21bd
000002f0: 6596 133c 32e7 8bbd f8e4 d13c 22c8 bbbd
00000300: 287a b6bb 3719 0903 1f25 06bc f013 0dbc
00000310: f5e3 a4ba 766f 99bc e3ac 38bb 7ee6 a7bc
00000320: af4b 83bb a45a b6bc 91b7 73bb 36cf aebc
00000330: a635 af3b f887 59bd 61a0 273c 3a64 50bd
00000340: 3624 7b3c acd3 42bd d60e 953c 206e 30bd
00000350: f96a 8d3c fb06 1abd fded 763c 4dc9 fabc
00000360: ea8f 253c c939 ebbc 7c56 a13b 2b68 11bd
00000370: 3a14 0b3c 3462 5cbd ee7c 033d 3b96 90bd
00000380: ee23 6f3c 0ab9 0582 ae38 a439 91e7 8e3c
00000390: 4f21 05bc 987d c13c 8283 66ba 19b4 a63c
000003a0: 1222 4a3b 22a8 913c 9a68 e63b 4f5b 723c
000003b0: 7648 9f3b 21bc e83c 3a52 5c3b c777 cb3c
000003c0: d718 83b8 7f0c a53c 75bb 56bb e06c 673c
000003d0: e9c4 99bb 9464 0b3c 560f 88bb d507 923b
000003e0: d1bc 8fbb cb2e fc3b c8c5 15bc 27e8 ad3c
000003f0: 0607 babc 0931 4a3d b877 29bd e51b 953d

convs.weight.2.tensor f4 [32, 32, 16, 2]
-0.005136546 2.3663256e-37 -0.0051480634 -0.01816476 -0.0053057484 -0.016590467 -0.00074700784 -0.012024801
0.0004673654 -0.010702877 0.00035358558 -0.009976949 0.010005389 -0.013267918 0.009624411 -0.013017262
0.0093689645 -0.013150242 0.010500366 -0.01356939 0.011442509 -0.014313351 0.014371347 -0.0155618
0.01630669 -0.015900454 0.016464654 -0.015111503 0.013875919 -0.013936967 0.006780862 -0.017012004
-0.0047841594 -4.0392623e-37 0.016785955 -0.0269083 0.018569881 -0.034263395 -0.0014068187 -0.036620703
-0.008507401 -0.04027102 -0.01717028 -0.04092037 -0.03366697 -0.0449107 -0.0336591 -0.047274727
-0.031832367 -0.047919583 -0.028963696 -0.04687499 -0.024601223 -0.045600783 -0.023832202 -0.043440662
-0.025878994 -0.043626428 -0.031090561 -0.048772503 -0.02836336 -0.0621733 -0.00899913 -0.07540052
0.010767013 1.0805624e-37 0.002297973 -0.00675987 0.0013099235 -0.007452438 0.0022541818 -0.009357117
0.002860201 -0.008962308 0.002348274 -0.010362909 0.0015272666 -0.01991484 0.0012519334 -0.018743455
0.0012621697 -0.019454993 0.002559214 -0.018332073 0.0026540698 -0.017789194 0.0028178236 -0.01804771
0.003114888 -0.019625971 0.0050143213 -0.022140626 0.014483052 -0.025040073 0.033797972 -0.023773232
-0.0024684991 -2.422666e-39 -0.003811307 -0.02155251 0.0035115222 -0.031055633 -0.0036618125 -0.036000025
-0.0038556135 -0.036989372 -0.0065475465 -0.03481253 -0.008440586 -0.039326612 -0.008882718 -0.038798053
-0.00855811 -0.037036564 -0.0074655875 -0.034026884 -0.0056481007 -0.031690117 -0.0075780684 -0.028888557
-0.014147324 -0.02831751 -0.023495559 -0.031473573 -0.029061103 -0.043013915 -0.022100516 -0.0574885
0.01024268 -1.4614517e-37 0.012593083 0.012332297 0.010184644 0.009028346 0.010022913 0.007237987
0.0081266435 0.0045350036 0.0073905503 0.0022440488 0.009328981 -0.00105211 0.010032169 -0.0023485194
0.0105902 -0.004461354 0.010441018 -0.0058707446 0.013296652 -0.00736244 0.015995579 -0.009194625
0.018884053 -0.009708193 0.018695343 -0.008334689 0.017517464 -0.000846938 0.007515347 0.012750672
-0.010159861 -4.453593e-37 -0.006679105 -0.006674802 0.0041918117 -0.019041248 -0.009095612 -0.036104653
-0.010560458 -0.030293694 -0.0028694917 -0.030312158 0.00506307 -0.042416964 0.006837093 -0.040212203
0.007731512 -0.034822255 0.009991782 -0.02778382 0.010763416 -0.01985201 0.009180719 -0.011338139
0.0045885085 -0.0083051585 -0.0054578474 -0.014542181 -0.011212952 -0.03754527 0.0029986575 -0.062309228
-0.006001882 3.4631632e-37 -0.013220709 -0.008155398 -0.0036612093 -0.015761167 -0.0072629116 -0.017185561
-0.0075339843 -0.018825728 -0.0034361586 -0.01766819 -0.0014242734 -0.04623879 0.0015596094 -0.04345991
0.005649178 -0.04122137 0.009226327 -0.038672272 0.010110329 -0.03444395 0.008053665 -0.029443633
0.0033048114 -0.027497752 -0.0059337523 -0.032688856 -0.011817134 -0.048664864 0.0049877353 -0.0630618
0.014882744 -3.809086e-37 0.00023866513 0.015973808 -0.0038897176 0.015340862 0.006790562 0.008942729
0.00932333 0.0055769775 0.009981618 0.0019332424 0.015848577 0.0039390693 0.014569457 -0.00064551685
0.012319931 -0.002710388 0.010302933 -0.004180599 0.008863341 -0.005329379 0.008517808 -0.00645283
0.0066129207 -0.0046748514 0.0017349893 0.002525787 -0.009188868 0.017190192 -0.024575772 0.03509187
00000000: 7950 a8bb 350b a102 16b1 a8bb 43ce 94bc
00000010: d8db adbb bbe8 87bc d9d2 43ba ac03 45bc
00000020: b908 f539 1f5b 2fbc 7461 b939 5b76 23bc
00000030: a5ed 233c ae61 59bc b5af 1d3c 5b46 55bc
00000040: 4980 193c 1d74 57bc ba09 2c3c 2652 5ebc
00000050: 5c79 3b3c 8c82 6abc cc75 6b3c ecf6 7ebc
00000060: 9c95 853c ab41 82bc e2e0 863c 3d96 77bc
00000070: d357 633c e057 64bc fe31 de3b c25c 8bbc
00000080: 70c4 9cbb f072 0983 b382 893c cc6e dcbc
00000090: dd1f 983c c657 0cbd 0165 b8ba 97ff 15bd
000000a0: a062 0bbc 3af3 24bd b0a8 8cbc 1e9c 27bd
000000b0: 60e6 09bd 48f4 37bd 20de 09bd 25a3 41bd
000000c0: a862 02bd 5347 44bd 4645 edbc fdff 3fbd
000000d0: 8188 c9bc e3c7 3abd c03b c3bc d6ee 31bd
000000e0: 2f00 d4bc a0b1 32bd a2b1 febc adc5 47bd
000000f0: 475a e8bc 6ea9 7ebd 1671 13bc 966b 9abd
00000100: 2068 303c 1b14 1302 9799 163b e681 ddbb
00000110: bdb1 ab3a 9533 f4bb e5ba 133b 984e 19bc
00000120: 3672 3b3b a5d6 12bc 80e5 193b 31c9 29bc
00000130: 902e c83a 7224 a3bc ea17 a43a e08b 99bc
00000140: 636f a53a 1460 9fbc 7cb8 273b 252d 96bc
00000150: e7ef 2d3b a5ba 91bc 3cab 383b cbd8 93bc
00000160: 2623 4c3b a5c6 a0bc 2d4f a43b 4260 b5bc
00000170: 534a 6d3c d720 cdbc be6f 0a3d 15c0 c2bc
00000180: 8bc6 21bb 6861 1a80 1fc7 79bb e48e b0bc
00000190: 9121 663b 6268 febc 05fb 6fbb c374 13bd
000001a0: 76ae 7cbb 2b82 17bd cd8c d6bb 9597 0ebd
000001b0: 624a 0abc f114 21bd d288 11bc b5ea 1ebd
000001c0: 5137 0cbc a7b3 17bd e3a1 f4bb c65f 0bbd
000001d0: b413 b9bb 7fcd 01bd 7251 f8bb b2a7 ecbc
000001e0: 2dca 67bc 1ffa e7bc c279 c0bc 6fea 00bd
000001f0: 8d11 eebc 5c2f 30bd 240c b5bc 1079 6bbd
00000200: ead0 273c 29ec 4682 3853 4e3c 670d 4a3c
00000210: 7edd 263c a1eb 133c 2537 243c a32c ed3b
00000220: 9d25 053c 5e9a 943b 6e2c f23b e410 133b
00000230: 95d8 183c f4e6 89ba f75d 243c 9ee9 19bb
00000240: 8582 2d3c 8d30 92bb ce10 2b3c 605f c0bb
00000250: 33da 593c a040 f1bb 2909 833c 0da5 16bc
00000260: bbb2 9a3c 1d0f 1fbc fa26 993c 388e 08bc
00000270: c980 8f3c 0c05 5eba 4d43 f63b 32e8 503c
00000280: 8c75 26bc 448c 1783 65dc dabb 4cb8 dabb
00000290: 775b 893b 64fc 9bbc c305 15bc 79e2 13bd
000002a0: c505 2dbc 7b2a f8bc 150e 3cbb 3451 f8bc
000002b0: 1ce8 a53b 69bd 2dbd b109 e03b 8db5 24bd
000002c0: a058 fd3b c8a1 0ebd 92b4 233c e59a e3bc
000002d0: 0a59 303c afa0 a2bc ba6a 163c 9ac3 39bc
000002e0: 335b 963b 5c12 08bc bed7 b2bb 5442 6ebc
000002f0: 88b6 37bc 12c9 19bd 2085 443b f637 7fbd
00000300: 6fab c4bb d0b0 eb02 ac9b 58bc 389e 05bc
00000310: e6f0 6fbb 901d 81bc b8fd edbb bcc8 8cbc
00000320: a4df f6bb 6a38 9abc 2d31 61bb e1bc 90bc
00000330: afae baba e364 3dbd cf6b cc3a 0503 32bd
00000340: bd1c b93b bdd7 28bd 052a 173c d166 1ebd
00000350: cba5 253c 1915 0dbd 85f3 033c c633 f1bc
00000360: 8995 583b f742 e1bc ec6f c2bb c0e4 05bd
00000370: a79c 41bc cf54 47bd 2870 a33b 8c26 81bd
00000380: c1d6 733c d29d 0183 2f42 7a39 81db 823c
00000390: a2ea 7ebb 3d58 7b3c 5d83 de3b 8684 123c
000003a0: e1c0 183c 14bf b63b f189 233c da64 fd3a
000003b0: e0d4 813c 4f13 813b bbb4 6e3c e737 29ba
000003c0: 89d9 493c c4a0 31bb a2cd 283c 68fd 88bb
000003d0: 8c37 113c 12a2 aebb 478e 0b3c 4372 d3bb
000003e0: 33b1 d83b 7f2f 99bb 9568 e33a ad87 253b
000003f0: e88c 16bc 72d2 8c3c 2153 c9bc 7ebc 0f3d

convs.weight.3.tensor f4 [32, 32, 16, 2]
-0.008319979 -3.4205366e-37 -0.0027580385 -0.011566129 -0.00107262 -0.010027978 2.2648479e-05 -0.009204531
0.00037183537 -0.00853431 0.0014134239 -0.007657007 0.002209058 -0.017157609 0.0025440962 -0.017695684
0.0036171838 -0.017572602 0.0045268866 -0.017136209 0.0052882517 -0.017046286 0.0063314815 -0.018542241
0.0068941517 -0.019513583 0.0047721704 -0.0185565 6.137614e-05 -0.0149929505 -0.0036461249 -0.013847113
-0.011343717 3.4209917e-37 -0.011893281 0.0010087319 -0.008559278 0.0022777973 -0.008187327 0.0057557477
-0.007164085 0.007234305 -0.0073988717 0.009441894 -0.0072850715 0.014493803 -0.008058168 0.015199052
-0.009408445 0.015728591 -0.010601948 0.017989077 -0.012811179 0.019377185 -0.015277379 0.019904437
-0.016369618 0.021716367 -0.015672656 0.021381127 -0.008233786 0.017156402 -0.0036005417 0.01125884
0.00764518 -3.5290067e-37 0.0013808347 0.003965929 0.0004604264 -0.0038104656 0.0015894648 -0.006000639
0.0017909522 -0.0073020607 0.0013205489 -0.008170154 -0.0024971985 -0.015942533 -0.0016430707 -0.016671943
0.0002641353 -0.018033149 0.0020646222 -0.019276569 0.0046327943 -0.020315412 0.0068021426 -0.02136997
0.007572456 -0.022270204 0.006787176 -0.02319713 0.0031560438 -0.021821752 0.0056206593 -0.01591826
-0.010826353 1.364394e-37 -0.009081385 -0.0029162369 -0.0044610277 -0.0005230439 -0.0042972695 0.0052795657
-0.005185628 0.008668041 -0.0037938457 0.009671813 -0.0015430119 0.014960602 -0.0040493226 0.014929081
-0.006061067 0.017716426 -0.008196764 0.01972301 -0.012596045 0.021424832 -0.016535567 0.02355295
-0.0199514 0.025224596 -0.020248586 0.02424613 -0.013792231 0.02093194 -0.008319312 0.011489412
0.008776886 -2.4834892e-37 0.006846985 0.010393762 0.0015949106 0.006063419 0.0022052256 -0.00026978937
0.0021184343 -0.0025010265 0.0017437692 -0.004987204 -0.0012889116 -0.009470576 0.0007006776 -0.010627449
0.0019970918 -0.012560361 0.0033033427 -0.014266265 0.0062729325 -0.01622273 0.008548268 -0.0171972
0.010529103 -0.018475283 0.0122548435 -0.01979518 0.006771185 -0.017685838 0.0026700825 -0.010039691
-0.009241973 4.266855e-37 -0.0041327174 -0.021423927 0.0033205152 -0.024051689 -0.0008870368 -0.018678153
0.00060914876 -0.01467109 0.00025207165 -0.0096047 -0.001326 -0.011133709 -0.0020206515 -0.008159909
-0.0013181993 -0.004590466 -0.000104460785 -0.0002657792 0.0002405443 0.0030106218 -0.0019003914 0.0067345276
-0.0072938167 0.009438733 -0.014318076 0.0102147665 -0.014972862 0.0028463933 0.00542389 -0.020150078
-0.0070373714 3.3612424e-37 -0.013892556 -0.009745021 -0.0056275167 -0.018567545 -0.009112823 -0.019767387
-0.006370282 -0.020173984 -0.0032213912 -0.016316766 -0.012190987 -0.040167157 -0.010425301 -0.038815938
-0.007385876 -0.036858667 -0.003821085 -0.03394992 -0.0007437518 -0.030136652 -0.00046628405 -0.025274308
-0.004599742 -0.021727862 -0.010875364 -0.0238194 -0.013442461 -0.037569318 0.022882553 -0.05408938
0.013724499 -2.1014242e-37 -0.004259925 0.007551088 -0.0021147823 0.004628923 0.00029821432 0.0015241524
0.0017046351 -0.0009468379 0.001354226 -0.0023191748 0.008937869 -0.01068584 0.0075214864 -0.011746996
0.006909566 -0.011319168 0.007092396 -0.010142337 0.00809908 -0.00889916 0.009283564 -0.007366352
0.006800968 -0.0052620075 0.0004658975 -0.00400327 -0.0040397714 -0.007144566 0.00804431 -0.011637434
00000000: 8550 08bc 27ca e882 35c0 34bb dc7f 3dbc
00000010: 2897 8cba 634c 24bc 3dfd bd37 9ace 16bc
00000020: e6f2 c239 7ed3 0bbc a342 b93a a1e7 fabb
00000030: d8c5 103b 1d8e 8cbc daba 263b 8af6 90bc
00000040: 460e 6d3b 6bf4 8fbc 4756 943b 3c61 8cbc
00000050: 1249 ad3b a7a4 8bbc 5178 cf3b e6e5 97bc
00000060: 56e8 e13b f3da 9fbc de5f 9c3b cd03 98bc
00000070: 10b7 8038 fea4 75bc d3f3 6ebb 00df 62bc
00000080: ffda 39bc 15d2 e802 09dc 42bc 6d37 843a
00000090: 373c 0cbc 1947 153b 2324 06bc b69a bc3b
000000a0: b3c0 eabb c00d ed3b 3c72 f2bb 2cb2 1a3c
000000b0: 9cb7 eebb 6a77 6d3c 6806 04bc 7205 793c
000000c0: e125 1abc 3fd9 803c cbb3 2dbc d45d 933c
000000d0: fbe5 51bc e7bc 9e3c f94d 7abc a10e a33c
000000e0: 9419 86bc 86e6 b13c f163 80bc 7927 af3c
000000f0: 00e7 06bc 958b 8c3c 11f7 6bbb ff76 383c
00000100: 6b84 fa3b f82b f082 20fd b43a a0f4 813b
00000110: 6365 f139 01b9 79bb 9755 d03a 02a1 c4bb
00000120: 62be ea3a 2046 efbb 4516 ad3a 1cdc 05bc
00000130: 0aa8 23bb ea99 82bc 4e5c d7ba 9993 88bc
00000140: a47b 8a39 41ba 93bc 9d4e 073b e5e9 9dbc
00000150: b2ce 973b 826c a6bc 82e4 de3b 1310 afbc
00000160: 5d22 f83b 0170 b6bc f566 de3b e807 bebc
00000170: a1d5 4e3b 88c3 b2bc 822d b83b 0367 82bc
00000180: 0461 31bc 31b6 3902 17ca 14bc 561e 3fbb
00000190: d02d 92bb e21c 09ba 1cd0 8cbb 3500 ad3b
000001a0: 33ec a9bb 6604 0e3c 2ba2 78bb 8676 1e3c
000001b0: e33e caba 501d 753c 2eb0 84bb 1b99 743c
000001c0: ea9b c6bb 0a22 913c b84b 06bc 2692 a13c
000001d0: a45f 4ebc 2183 af3c 9975 87bc 1ef2 c03c
000001e0: 1e71 a3bc d0a3 ce3c 5de0 a5bc d29f c63c
000001f0: cff8 61bc 7679 ab3c b94d 08bc 163e 3c3c
00000200: eecc 0f3c 7c04 a982 ac5c e03b 994a 2a3c
00000210: 520c d13a a5af c63b 8c85 103b 8472 8db9
00000220: 6ed5 0a3b 43e8 23bb 2f8f e43a b36b a3bb
00000230: b2f0 a8ba 7a2a 1bbc aead 373a c01e 2ebc
00000240: a4e1 023b f9c9 4dbc e57c 583b 0dbd 69bc
00000250: 2c8d cd3b 88e5 84bc 090e 0c3c 24e1 8cbc
00000260: 4282 2c3c 7a59 97bc 8ac8 483c 8029 a2bc
00000270: d1e0 dd3b e4e1 90bc 8dfc 2e3b 847d 24bc
00000280: a56b 17bc 8d31 1103 bf6b 87bb 3b81 afbc
00000290: 009d 593b 0c08 c5bc 0888 68ba ed02 99bc
000002a0: 48af 1f3a 035f 70bc 7c28 8439 085d 1dbc
000002b0: 2dcd adba 296a 36bc e86c 04bb 24b1 05bc
000002c0: 6ec7 acba 9f6b 96bb f511 dbb8 4858 8bb9
000002d0: 9e3a 7c39 da4d 453b 8e16 f9ba 50ad dc3b
000002e0: f800 efbb eaa4 1a3c 5d96 6abc d65b 273c
000002f0: bc50 75bc 8e8a 3a3b e3ba b13b c711 a5bc
00000300: c099 e6bb 1ac1 e402 9a9d 63bc 95a9 1fbc
00000310: 0867 b8bb f71a 98bc f34d 15bc 37ef a1bc
00000320: ccbd d0bb e943 a5bc fa1d 53bb bdaa 85bc
00000330: b5bc 47bc 5186 24bd e2ce 2abc 76fd 1ebd
00000340: 3805 f2bb 1df9 16bd 2b6b 7abb 120f 0bbd
00000350: 57f8 42ba 24e1 f6bc 9677 f4b9 110c cfbc
00000360: 6fb9 96bb a1fe b1bc 952e 32bc e720 c3bc
00000370: c53d 5cbc 49e2 19bd 3174 bb3c d38c 5dbd
00000380: b9dc 603c f903 8f82 d796 8bbb 1e6f f73b
00000390: 2998 0abb 38ae 973b a659 9c39 11c6 c73a
000003a0: 106e df3a 3735 78ba 4980 b13a 4cfd 17bb
000003b0: 2470 123c a913 2fbc cd76 f63b 7976 40bc
000003c0: a469 e23b 0874 39bc 5467 e83b 0b2c 26bc
000003d0: 01b2 043c c8cd 11bc 171a 183c 7061 f1bb
000003e0: a8da de3b eb6c acbb b443 f439 dd2d 83bb
000003f0: 0f60 84bb f71c eabb 48cc 033c f0aa 3ebc

convs_bc.bias f4 [4, 32, 1]
-0.0055602896 -0.0031975613 0.0061960584 -0.0016805048 0.0050135297 -0.011777598 -0.0101793725 0.01115997
0.0019242193 -0.010054697 -0.0065414477 0.0065443534 -0.0057491916 -0.016615937 0.0067677265 -0.007327511
-0.002031245 0.010529503 0.004610674 -0.0028501765 0.00908997 -0.010310579 0.0069859847 0.0070357868
0.0075873453 0.0022670766 -0.011566323 0.0012386419 0.0084707625 0.010568363 -0.013183256 0.0023744933
-0.009196346 -0.0013224597 0.006265531 -0.00084309856 0.005697703 -0.011724338 -0.010747505 0.008951757
0.007038584 -0.0045232857 -0.0045823734 0.0023653298 -0.008348568 -0.010842905 0.007991863 -0.0067459727
-0.0048131305 0.0109683825 0.008497177 -0.0029539599 0.006995795 -0.0052041593 0.0078841485 0.010542052
-0.005863146 0.003424348 -0.00667491 0.0018654938 0.008231189 0.007902463 -0.014542147 -0.006301982
-0.010274191 -0.0038152398 0.00469874 -0.0042402055 0.0042740963 -0.008579277 -0.011916436 0.010658156
0.0057016206 -0.0049708015 -0.0038634555 -0.0025128613 -0.0055051707 -0.008107838 0.006399886 -0.0072625475
-0.004865697 0.008195865 0.010338009 -0.0030947072 0.009637032 -0.008085424 0.0074584982 0.008308757
-0.0037194272 0.0027123569 -0.008590866 -0.00013460359 0.008278574 0.008377753 -0.012348257 -0.0065189903
-0.010069796 -0.009970793 0.0065600025 -0.008740683 0.0060921866 -0.004893856 -0.011456047 0.011682357
0.0047140876 -0.005262367 -0.0074362694 -0.0044313283 -0.0020194622 -0.012663908 0.0064890385 -0.008877096
-0.0091334395 0.008882989 0.011068413 -0.004612468 0.008565625 -0.0040997653 0.0070397365 0.0070600095
-0.006320644 0.00328806 -0.010382416 0.0033123014 0.008896051 0.006175645 -0.016737718 -0.0074874256
00000000: 1733 b6bb 2d8e 51bb 4e08 cb3b 6244 dcba
00000010: 8948 a43b d4f6 40bc 62c7 26bc 4fd8 363c
00000020: 1636 fc3a 75bc 24bc a459 d6bb 0472 d63b
00000030: b763 bcbb 251e 88bc cec3 dd3b 9e1b f0bb
00000040: a31e 05bb f083 2c3c 2315 973b 07ca 3abb
00000050: 19ee 143c b4ed 28bc b0ea e43b 758c e63b
00000060: 449f f83b 3c93 143b ad80 3dbc ed59 a23a
00000070: f4c8 0a3c ed26 2d3c 95fe 57bc 639d 1b3b
00000080: 45ac 16bc 6256 adba 154f cd3b 6303 5dba
00000090: ccb3 ba3b 7017 40bc 4e16 30bc 64aa 123c
000000a0: eca3 e63b 1238 94bb bc27 96bb a603 1b3b
000000b0: 6fc8 08bc 71a6 31bc 4ef0 023c 520d ddbb
000000c0: 77b7 9dbb bbb4 333c be37 0b3c 3997 41bb
000000d0: fb3c e53b a787 aabb 842c 013c 92b8 2c3c
000000e0: a21f c0bb 076b 603b 34b9 dabb 9683 f43a
000000f0: 1cdc 063c 5579 013c 2f42 6ebc db80 cebb
00000100: 1555 28bc 1a09 7abb e3f7 993b 6cf1 8abb
00000110: b80d 8c3b 1990 0cbc 283d 43bc 8c9f 2e3c
00000120: a9d4 ba3b 1be2 a2bb 0732 7dbb d1ae 24bb
00000130: b864 b4bb bdd6 04bc 23b6 d13b aafa edbb
00000140: 6d70 9fbb f347 063c c160 293c 92d0 4abb
00000150: a4e4 1d3c ba78 04bc 6b66 f43b 7421 083c
00000160: a2c1 73bb ccc1 313b b4c0 0cbc 6024 0db9
00000170: dba2 073c d842 093c 5850 4abc 419d d5bb
00000180: c9fb 24bc 895c 23bc 4af5 d63b 1535 0fbc
00000190: f7a0 c73b a45c a0bb 25b2 3bbc 5b67 3f3c
000001a0: a278 9a3b ef6f acbb f3ab f3bb ad34 91bb
000001b0: f458 04bb 487c 4fbc 00a2 d43b 3d71 11bc
000001c0: 6ca4 15bc f589 113c 4a58 353c 3024 97bb
000001d0: d656 0c3c 5357 86bb 97ad e63b a757 e73b
000001e0: 681d cfbb 7e7c 573b 021b 2abc 3213 593b
000001f0: bec0 113c 115d ca3b 8a1d 89bc 1459 f5bb

convs_bc.bias_bc f4 [4, 32, 1]
-0.0015316373 0.00015439413 -0.0003545413 -0.00036509862 0.00016317188 -0.0017800083 8.933911e-05 0.0005538991
0.0013010222 0.001502057 -0.0011748523 -0.00018847043 1.2422385e-05 -0.00042884465 -0.0012420928 3.2943582e-05
-0.0020535816 0.0008069629 0.001376975 -0.00011499028 -0.0008476123 -0.00057580444 -0.00023277929 0.0008932107
0.0009186481 -0.00039246157 -0.00064183376 -0.00049666816 -0.00017813071 -0.0002050307 8.395627e-05 -3.454095e-05
0.00070115144 0.0019457646 0.00019129534 -0.00018800322 0.0012261058 -0.0005702519 0.0016685262 0.0007219166
-0.00038565986 -0.00018589184 -0.00056634215 0.0013705147 -0.00056674116 -0.0003398973 -0.0017248362 -0.0016464794
0.0005535073 0.0014604178 0.00014935319 -0.0013533523 0.0016136575 -9.883382e-05 0.00017399775 -2.836409e-05
-0.00046342204 0.00011557787 -0.0002892238 -0.0006927855 0.0003542244 0.0015127448 0.0007538733 0.0010655498
0.00010282117 -0.0004028865 0.0006410264 -0.00011305106 -0.002290371 0.00080700783 -0.00012431908 0.002721963
0.001278004 -0.0001238076 -0.0013952325 0.0007379274 -0.000597708 0.00052620075 -0.00036468578 0.0009669677
2.3455015e-05 -0.001266484 -0.00097045867 0.0007343272 -0.00011642479 -0.0014875762 -0.00077528285 -1.7599303e-05
0.0014957186 -0.00013161982 4.342146e-05 0.0001534288 -0.0016852274 0.00022369673 -0.00039429675 -0.00040573426
0.00072025694 5.594287e-05 -0.00032820905 -0.001107629 0.0011532932 1.1910857e-06 0.0011617782 0.00019035941
-0.0006339752 0.00077177794 0.00084315124 0.00046745533 -0.00017894423 0.0009477277 5.2363746e-05 -0.0008943804
0.001342791 0.0010911237 -0.0010804745 -0.0008161945 8.704199e-05 0.00076022063 -0.0009266993 -0.00024112892
0.0006912647 -0.00017103704 -0.0006393282 0.0010187275 -0.0019067158 -0.0009318145 -0.0009008976 -0.00039246283
00000000: 38c1 c8ba dce4 2139 bae1 b9b9 b56a bfb9
00000010: 1e19 2b39 2b4f e9ba 925b bb38 8a33 113a
00000020: 1087 aa3a abe0 c43a 80fd 99ba 25a0 45b9
00000030: bd69 5037 8ed6 e0b9 b8cd a2ba e72c 0a38
00000040: 6295 06bb 5d8a 533a 9d7b b43a f026 f1b8
00000050: 4c32 5eba 95f1 16ba 3716 74b9 5b26 6a3a
00000060: 6ed1 703a 4dc3 cdb9 bc40 28ba d632 02ba
00000070: 99c8 3ab9 82fd 56b9 ae11 b038 10e0 10b8
00000080: 7acd 373a 0709 ff3a 7496 4839 bb22 45b9
00000090: 49b5 a03a f57c 15ba 73b2 da3a 013f 3d3a
000000a0: 6432 cab9 f6eb 42b9 9476 14ba d8a2 b33a
000000b0: 5b91 14ba 3e34 b2b9 e613 e2ba aece d7ba
000000c0: 3f19 113a 7d6b bf3a b19b 1c39 f862 b1ba
000000d0: 5c81 d33a 0145 cfb8 2a73 3639 6bef edb7
000000e0: 74f7 f2b9 6562 f238 f6a2 97b9 0c9c 35ba
000000f0: 32b7 b939 4b47 c63a 959f 453a eba9 8b3a
00000100: b2a1 d738 833a d3b9 8e0a 283a d315 edb8
00000110: 0d1a 16bb 618d 533a a65b 02b9 f662 323b
00000120: b382 a73a 59d2 01b9 3ce0 b6ba 7871 413a
00000130: 81af 1cba bcf0 093a 4c33 bfb9 1b7c 7d3a
00000140: 43c1 c437 2700 a6ba 6166 7eba dd7f 403a
00000150: 1529 f4b8 c6fa c2ba 5a3c 4bba 37a2 93b7
00000160: fd0b c43a 6d03 0ab9 701f 3638 bbe1 2039
00000170: d9e2 dcba 2290 6a39 9db9 ceb9 bbb8 d4b9
00000180: a0cf 3c3a 33a4 6a38 7913 acb9 dd2d 91ba
00000190: 192a 973a 65dd 9f35 cf46 983a 379b 4739
000001a0: 5b31 26ba 2451 4a3a ec06 5d3a cb14 f539
000001b0: faa2 3bb9 ee70 783a 25a1 5b38 da74 6aba
000001c0: 9700 b03a 0904 8f3a b59e 8dba e3f5 55ba
000001d0: 508a b638 8b49 473a bded 72ba 8dd7 7cb9
000001e0: fd35 353a 6858 33b9 9798 27ba d386 853a
000001f0: c4ea f9ba 0345 74ba 372a 6cba 78c3 cdb9

convs_bc.weight.0.tensor f4 [32, 32, 6, 2]
-0.007502559 -2.983395e-37 0.0020997042 -0.006785212 0.002161775 -0.0054164166 0.002749554 -0.0048479675
0.0016919044 -0.0043465556 0.001287053 -0.002906409 -0.0017523825 -2.214498e-37 -0.026849035 0.0065442077
-0.027926516 0.005442706 -0.029076792 0.0063738716 -0.03026953 0.008200996 -0.03094093 0.010627519
0.0067740227 -4.279219e-37 -0.0038311516 -0.0077077975 -0.0017954112 -0.0075191073 -0.0018110272 -0.007593617
-0.0028450114 -0.007824868 -0.0038899123 -0.007630951 -0.0027372723 -3.9980525e-37 -0.009971039 0.0023686667
-0.010089914 0.0017777976 -0.011117586 0.0019316983 -0.012751748 0.0024932702 -0.013887228 0.0034423152
0.007493521 3.0213753e-37 -7.5157215e-05 -0.0027252818 0.0009386924 -0.002283885 0.0013134369 -0.0024487786
0.0018470584 -0.0029887662 0.002119746 -0.0036199873 -0.014304087 3.6145963e-37 -0.0011884259 -0.0011582908
-0.0037006722 -0.0017911447 -0.009191142 -0.0022111589 -0.011078018 -0.002341214 -0.01319481 -0.00097202155
-0.008471618 1.516548e-38 -0.0023720441 -0.0011645557 -0.0023369405 -0.0016899387 -0.0027533951 -0.0018463875
-0.003596646 -0.001879227 -0.0042671515 -0.0014177951 0.008251901 -2.256447e-37 0.012085356 0.0019667533
0.011331235 0.0031368255 0.011865193 0.0030588484 0.012828219 0.002831163 0.013631258 0.0022042086
0.002945205 5.968287e-38 0.0010574231 -0.00027208315 0.0011897691 -0.00014256011 0.0011956692 -8.104566e-05
0.0011666195 -3.5387326e-05 0.0011436723 -1.4384468e-06 -0.011240686 -2.1455149e-37 0.0030571185 0.0009054582
0.0020875728 0.0004340518 0.0019489094 0.0002726715 0.0020499206 0.00017470776 0.0021304116 3.695226e-05
-0.005791505 3.422227e-37 0.0017765876 0.00020898113 0.001381374 6.7915484e-05 0.00134454 -2.4528212e-05
0.0014010717 -0.00011016244 0.0014177646 -0.00021681594 0.006054826 -1.7369812e-37 -0.005348386 -0.00040495186
-0.0044648033 1.0589861e-05 -0.0044977977 0.00038695446 -0.0051039825 0.0008765311 -0.0054610185 0.0015137577
-0.00677095 -5.378296e-39 0.0015538082 -0.0019921851 0.0025764876 -0.0021171565 0.0026707482 -0.002680552
0.0027672711 -0.0033515259 0.0022886887 -0.003946862 -0.01332187 7.885123e-38 -0.0052830167 -0.0015265673
-0.0053993766 -0.0017790073 -0.0062194634 -0.0013444627 -0.007706044 -0.000681421 -0.0084519675 0.0006884288
0.008168904 -2.913716e-37 -0.0020218296 -0.0034281395 -0.0012679824 -0.0029090792 -0.0015873271 -0.0027985414
-0.002003268 -0.003049078 -0.0023762381 -0.0033914938 -0.0059966766 -2.0534247e-37 -0.009756946 -0.002638124
-0.010016343 -0.002832528 -0.011052195 -0.002501628 -0.012995229 -0.0017141913 -0.014253822 -2.5255009e-05
-0.00072849396 2.7380484e-37 0.001057891 0.00026215182 0.0006336077 6.898685e-05 0.00058897235 -1.2594788e-05
0.000640641 -6.2637446e-05 0.00068298925 -0.00011287537 0.010007671 -1.3840293e-37 -0.0069276774 -0.012989757
-0.00088021194 -0.010480294 0.0006174236 -0.00926842 0.0014272381 -0.009634472 0.0021932016 -0.008639541
0.002779593 7.1795045e-38 0.003339041 0.0018728257 0.0014924002 0.0009295014 0.0007902545 0.0009312
0.00019184015 0.0012311098 -0.00015450799 0.0015622458 -0.0038517124 3.5710867e-37 -0.00016395494 2.2523971e-05
-0.00015759844 5.3161116e-06 -0.00015232606 -6.9490443e-06 -0.00015243152 -1.4180393e-05 -0.00015735374 -2.0682057e-05
0.007078956 -3.0364192e-37 -0.009314472 -0.016980117 -0.0032670074 -0.014067906 -0.0015728686 -0.013009611
-0.000986536 -0.012128774 -0.00048011952 -0.011612168 -0.009997196 2.4058618e-37 -0.00014621897 -1.9882147e-05
00000000: 07d8 f5bb 120a cb82 319b 093b 7c56 debb
00000010: 91ac 0d3b 327c b1bb dd31 343b b3db 9ebb
00000020: e4c2 dd3a 8d6d 8ebb 55b2 a83a 7479 3ebb
00000030: 33b0 e5ba ffb5 9682 82f2 dbbc cb70 d63b
00000040: 26c6 e4bc ba58 b23b 7432 eebc e9db d03b
00000050: cef7 f7bc 785d 063c d577 fdbc 0c1f 2e3c
00000060: 9ff8 dd3b 419d 1183 0f14 7bbb b191 fcbb
00000070: 0154 ebba d862 f6bb fd5f edba e0d3 f8bb
00000080: 5f73 3abb e033 00bc e6ed 7ebb 0e0d fabb
00000090: cf63 33bb f30b 0883 925d 23bc a23b 1b3b
000000a0: 2b50 25bc fd04 e93a 8926 36bc 0a31 fd3a
000000b0: b5ec 50bc 2266 233b 4287 63bc 7798 613b
000000c0: 368c f53b c89f cd02 b99d 9db8 a49a 32bb
000000d0: 9512 763a 3bad 15bb a127 ac3a b07b 20bb
000000e0: ff18 f23a 2ddf 43bb 70eb 0a3b 4f3d 6dbb
000000f0: b05b 6abc 26ff f502 f5c4 9bba cad1 97ba
00000100: fa86 72bb d8c4 eaba 7296 16bc 17e9 10bb
00000110: 9380 35bc 0e6f 19bb 0b2f 58bc 43cf 7eba
00000120: 8bcc 0abc 3023 a500 4c74 1bbb 01a4 98ba
00000130: 5b27 19bb ef80 ddba 4e72 34bb 7c02 f2ba
00000140: b5b5 6bbb 6550 f6ba 76d3 8bbb 4fd5 b9ba
00000150: fb32 073c da90 9982 a801 463c a5e4 003b
00000160: a5a6 393c 3393 4d3b 3a66 423c f676 483b
00000170: 732d 523c 088b 393b a455 5f3c 7c74 103b
00000180: 5704 413b e478 a201 3b99 8a3a 62a6 8eb9
00000190: 07f2 9b3a 307c 15b9 00b8 9c3a 0ff7 a9b8
000001a0: 41e9 983a da6c 14b8 46e7 953a a810 c1b5
000001b0: db2a 38bc 2404 9282 f059 483b 455c 6d3a
000001c0: a9cf 083b 7291 e339 8c72 ff3a 59f5 8e39
000001d0: f657 063b c231 3739 609e 0b3b 30fd 1a38
000001e0: aac6 bdbb 9ae7 e802 63dc e83a f221 5b39
000001f0: 380f b53a d96d 8e38 473b b03a efc1 cdb7
00000200: 2aa4 b73a 0207 e7b8 49d4 b93a 1659 63b9
00000210: 9067 c63b f66c 6c82 8341 afbb b84f d4b9
00000220: 7c4d 92bb 1bab 3137 4362 93bb 26e0 ca39
00000230: 4f3f a7bb 02c7 653a 58f2 b2bb 4869 c63a
00000240: d8de ddbb 8090 3a80 27a9 cb3a 528f 02bb
00000250: 4ada 283b febf 0abb b807 2f3b 33ac 2fbb
00000260: 1b5b 353b 46a5 5bbb d3fd 153b ae54 81bb
00000270: f943 5abc 4aa7 d601 281d adbb 1917 c8ba
00000280: 41ed b0bb 942d e9ba a4cc cbbb af38 b0ba
00000290: fb82 fcbb 64a1 32ba 1f7a 0abc ad77 343a
000002a0: ded6 053c 184c c682 ac80 04bb a3aa 60bb
000002b0: 6e32 a6ba 40a6 3ebb dc0d d0ba bc67 37bb
000002c0: 4349 03bb 0ad3 47bb a9ba 1bbb d343 5ebb
000002d0: c57f c4bb b4bf 8b82 99db 1fbc 60e4 2cbb
000002e0: 961b 24bc efa1 39bb 4414 35bc 5af2 23bb
000002f0: f1e9 54bc b7ae e0ba dd88 69bc b8da d3b7
00000300: 67f8 3eba 8857 ba02 eea8 8a3a 6c71 8939
00000310: b118 263a 08ad 9038 4465 1a3a 344e 53b7
00000320: b1f0 273a 395c 83b8 a20a 333a 81b7 ecb8
00000330: 37f7 233c 6262 3c82 9201 e3bb fdd2 54bc
00000340: 06be 66ba 8ab5 2bbc 99da 213a 92da 17bc
00000350: 2a12 bb3a e8d9 1dbc d1bb 0f3b dd8c 0dbc
00000360: d529 363b d871 c301 d0d3 5a3b 9a79 f53a
00000370: a49c c33a c8a9 733a 1529 4f3a c61b 743a
00000380: b328 4939 315d a13a 6c03 22b9 45c4 cc3a
00000390: 036d 7cbb 1b09 f302 52eb 2bb9 dcf1 bc37
000003a0: 0241 25b9 0d61 b236 b7b9 1fb9 d62b e9b6
000003b0: 06d6 1fb9 53e8 6db7 53ff 24b9 617e adb7
000003c0: 96f6 e73b e2a5 ce82 ba9b 18bc e319 8bbc
000003d0: 4a1b 56bb 137d 66bc b628 ceba 4326 55bc
000003e0: a84e 81ba c4b7 46bc 8db8 fbb9 f640 3ebc
000003f0: 47cb 23bc 06bc a302 5b52 19b9 96c8 a6b7
