neuraloperator/examples/para/fno_para_202305121609_001002003004_modes36_epochs250.pth (torch, 812179 bytes, 31 tensors)

convs.bias f4 [4, 32, 1]
-0.004899468 0.0002528672 0.0047551133 0.032961495 -0.0062091737 -0.0029292174 -0.014426183 -0.0073957904
-0.011887484 0.009949023 0.0077162283 -0.005636607 -0.014416062 0.0054101683 0.032412555 0.0087236725
-0.0011789295 0.0323908 -0.01217265 0.01158839 0.0111904545 0.00500122 0.016230498 0.0037478693
0.020091938 0.0130327465 0.004652533 -0.008712646 0.0054271524 0.008991544 0.021327145 0.006321151
-0.0055929027 -0.0005356544 0.005996746 0.0038769818 0.002949489 0.004268685 -0.014623234 0.006672551
-0.01270835 0.007989735 0.010054942 -0.006304781 -0.013174699 -0.0016062468 0.01460343 -0.0069406014
0.0015042813 0.009962647 -0.014030648 0.01487425 0.0110440655 0.001961584 0.01301034 0.0077434415
0.0041822367 0.012955361 0.0011267058 0.007039744 -0.003089269 0.0098652495 0.01159467 0.007970751
-0.004895463 -0.0069661634 0.007744694 0.0017158315 -0.0010237014 0.0035337352 -0.0041315765 0.006542196
-0.017983843 0.0064863763 0.014787626 -0.008297575 -0.012311816 -0.0017205478 0.0141945435 -0.00205976
-0.0016178847 0.013167409 -0.010302807 0.014770433 0.011205472 -4.4467943e-05 0.013585153 0.006587053
-0.00015223645 0.0123984385 -0.0015074349 0.013763561 -0.0028496361 0.007325182 0.012621666 0.0073589515
-0.007012414 -0.00589996 0.0062510683 -0.0011891819 -0.0077425437 -0.012769268 -0.008220065 0.0082455
-0.021321435 0.002659689 0.012503179 -0.01614988 -0.013624252 -0.012647746 0.015265351 -0.013524084
0.0033302328 0.010477868 -0.007385857 0.014065807 0.008028029 -0.014221369 0.014148636 -0.002613518
-0.014680613 0.012921905 -0.014768547 -0.014198175 -0.011278297 0.007299002 0.009583666 0.0055857976
00000000: b78b a0bb 4393 8439 c8d0 9b3b a202 073d
00000010: 5376 cbbb 1df8 3fbb cc5b 6cbc 6358 f2bb
00000020: b9c3 42bc 3a01 233c 6ad8 fc3b 49b3 b8bb
00000030: 5931 6cbc c847 b13b 07c3 043d bced 0e3c
00000040: 4f86 9aba 37ac 043d cb6f 47bc 3bdd 3d3c
00000050: 2b58 373c 46e1 a33b d2f5 843c d09e 753b
00000060: d997 a43c 4d87 553c 4774 983b 7cbf 0ebc
00000070: 41d6 b13b 4551 133c 44b6 ae3c a821 cf3b
00000080: ab44 b7bb 296b 0cba 5a80 c43b f614 7e3b
00000090: 374c 413b 53e0 8b3b 4a96 6fbc 6aa5 da3b
000000a0: af36 50bc 61e7 023c 7cbd 243c 5698 cebb
000000b0: b1da 57bc b388 d2ba 3a43 6f3c fc6d e3bb
000000c0: 4e2b c53a 5f3a 233c cee0 65bc 20b3 733c
000000d0: 2bf2 343c eb8d 003b 5229 553c b2bc fd3b
000000e0: 250b 893b b942 543c f9ad 933a a7ad e63b
000000f0: 5575 4abb dba1 213c 92f7 3d3c c197 023c
00000100: 1f6a a0bb 6a44 e4bb 34c7 fd3b c0e5 e03a
00000110: b82d 86ba 3d96 673b 2d62 87bb eb5f d63b
00000120: da52 93bc ab8b d43b cd47 723c 8df2 07bc
00000130: 80b7 49bc 0184 e1ba 3b90 683c 0afd 06bb
00000140: 340f d4ba 1ebc 573c 1bcd 28bc b0ff 713c
00000150: 2897 373c 1783 3ab8 4394 5e3c 35d8 d73b
00000160: a9a1 1fb9 d222 4b3c 1f95 c5ba 8f80 613c
00000170: f6c0 3abb 1508 f03b 1bcb 4e3c 5c23 f13b
00000180: 64c8 e5bb 7454 c1bb c3d5 cc3b 53de 9bba
00000190: 2ab5 fdbb 3136 51bc 74ad 06bc 2218 073c
000001a0: 4aaa aebc 2d4e 2e3b 22da 4c3c c14c 84bc
000001b0: 4138 5fbc 7e38 4fbc 861b 7a3c 1f94 5dbc
000001c0: 0940 5a3b 5dab 2b3c 0f05 f2bb 4574 663c
000001d0: ff87 033c bf00 69bc aecf 673c 8e47 2bbb
000001e0: f486 70bc 66b6 533c c7f7 71bc 769f 68bc
000001f0: 9bc8 38bc 772c ef3b cf04 1d3c 1109 b73b

convs.bias_bc f4 [4, 32, 1]
0.00016270518 -0.0006609541 -0.0010950883 0.00037070402 -0.0008611901 -0.00070866477 -0.0021456531 -0.0009399735
-0.00083364564 -5.4774348e-05 -0.00054615305 0.00093806477 0.00078604586 -0.00069458084 -0.0016396709 0.0018256613
0.00011207261 0.00032395512 0.000536993 0.00043394623 0.0009041522 -0.0008965785 0.0002395304 0.00071941235
-0.00044169778 -0.0011947247 -0.0009898135 -0.0018523723 -0.0011893727 -0.00078009645 -0.0005798737 -0.0005306991
0.00019818562 0.00043906845 9.656457e-06 -0.0014660432 6.680481e-05 -0.0001887667 0.00026234318 -0.0008879238
-0.00041552584 0.0020835926 -8.0245525e-05 0.0012826903 0.0005264146 0.0007588707 -0.000819762 -2.0386322e-05
0.0012001139 -0.0016536072 -0.0004731018 -0.0008735698 -0.0001087049 -0.000107737585 9.9552264e-05 0.0001834577
2.9703993e-05 0.001085613 -0.0003866561 -0.0008524545 -2.5404843e-05 0.00069222564 -0.00043898917 0.00015417815
-0.00038724937 -0.00055965385 0.00049236976 0.00012664977 -0.0011010093 0.00081415084 -0.0005041241 0.0008008942
0.0007477745 0.0007671882 0.00071986514 -0.00024766475 0.00020104717 -1.5375093e-05 0.0021158531 -0.0005773425
-0.00090162543 -0.0010683977 -0.0012960645 -0.0020370828 -0.00069300126 0.0010070386 0.0020855374 -0.00185251
-0.0008205094 0.0017930995 -0.0008322327 -0.0011161304 -0.0007841574 -0.0004216741 0.002528063 0.00024818335
0.00047605636 -0.00055963825 0.00024433798 0.0017759072 -0.0002764125 0.0008130059 -0.0010611458 0.00037566863
-0.0008945 0.0014262189 0.00062313175 0.0012037545 0.0024536157 0.00027684367 0.0011142249 -0.0006099416
0.00063914567 -0.0012745224 -0.0002812717 0.00023529486 -0.0010341989 0.00037294376 0.0006553321 -0.00060813036
-0.00021056276 0.0009783764 0.0010076605 -0.0010613024 0.0009339363 -0.00041671377 0.0003152284 0.0032609268
00000000: d79b 2a39 e143 2dba 1189 8fba 0d5b c239
00000010: 7dc1 61ba b0c5 39ba 169e 0cbb 8e68 76ba
00000020: 0389 5aba 82bd 65b8 b62b 0fba 76e8 753a
00000030: a50e 4e3a 8814 36ba 3aea d6ba 074b ef3a
00000040: 8608 eb38 85d8 a939 fdc4 0c3a 4783 e339
00000050: a104 6d3a 5d08 6bba 742a 7b39 f296 3c3a
00000060: ac93 e7b9 4f98 9cba a1bc 81ba 4dcb f2ba
00000070: bae4 9bba 637f 4cba aa02 18ba 9d1e 0bba
00000080: 0cd0 4f39 c532 e639 2b02 2237 3f28 c0ba
00000090: 8f19 8c38 adef 45b9 1b8b 8939 8fc3 68ba
000000a0: efda d9b9 e28c 083b 7d49 a8b8 f21f a83a
000000b0: 16ff 093a f3ee 463a 4ce5 56ba 4b03 abb7
000000c0: 244d 9d3a dabd d8ba a60a f8b9 4700 65ba
000000d0: 80f8 e3b8 2df1 e1b8 b7c6 d038 8d5e 4039
000000e0: d72c f937 214b 8e3a 1ab8 cab9 4177 5fba
000000f0: 7c1c d5b7 7a76 353a 2128 e6b9 e2aa 2139
00000100: bb07 cbb9 bcb5 12ba 6012 013a 4acd 0439
00000110: be4f 90ba bd6c 553a 3227 04ba 1af3 513a
00000120: 4c06 443a 211d 493a 55b5 3c3a 00d9 81b9
00000130: 30d0 5239 c3f9 80b7 20aa 0a3b cd58 17ba
00000140: 0f5b 6cba 7a09 8cba b5e0 a9ba 9480 05bb
00000150: 87aa 35ba 9cfe 833a 83ad 083b eccf f2ba
00000160: 7417 57ba 6f06 eb3a 312a 5aba 1f4b 92ba
00000170: ea8f 4dba 2414 ddb9 dcad 253b 9b1e 8239
00000180: 3497 f939 b0b4 12ba 7d1a 8039 8fc5 e83a
00000190: 75eb 90b9 e71f 553a 2516 8bba 64f5 c439
000001a0: e17c 6aba f7ef ba3a aa59 233a 4cc7 9d3a
000001b0: d7cc 203b 5425 9139 2f0b 923a 7de4 1fba
000001c0: 578c 273a e00d a7ba a677 93b9 7cb9 7639
000001d0: f58d 87ba aa87 c339 98ca 2b3a f06a 1fba
000001e0: 83ca 5cb9 dd3c 803a 7a13 843a 661b 8bba
000001f0: 67d3 743a 607a dab9 3d45 a539 46b5 553b

convs.weight.0.tensor f4 [32, 32, 18, 2]
0.0021619585 -3.3732326e-38 0.070941575 0.0076397383 0.031313132 0.0007002653 0.043005824 -0.0063094473
0.042713672 -0.0074739554 0.04925284 -0.008075921 0.04600011 -0.010933151 0.03940634 -0.01778817
0.05153809 -0.023254728 0.044327013 -0.0071432726 0.021949772 -0.0071052397 0.0030962816 -0.0033227399
-0.006580316 0.0013559912 -0.0051851063 0.004448439 0.0027428356 0.0198117 0.036166787 0.05328354
0.050823446 0.09144644 0.015370368 0.091224656 0.005474777 -4.068076e-38 -1.8898218e-05 -1.3987354e-05
-1.20546165e-05 -7.232018e-07 -2.0532045e-05 -1.6823079e-06 -1.3554838e-05 -5.1348286e-07 -2.629002e-06 -5.655884e-07
-1.4430312e-05 5.9056237e-07 -4.6759637e-06 4.8919105e-07 -2.7848237e-06 6.596739e-08 -1.0358787e-06 -1.8233959e-07
-2.7450087e-06 -4.787623e-07 -2.2926315e-06 1.2373081e-07 -1.2456726e-06 -9.745956e-08 -5.2377675e-07 -9.560607e-08
-1.2065523e-06 6.1070814e-08 -3.718658e-06 1.9432477e-07 -1.0789204e-06 2.7633078e-07 -5.398179e-06 -2.6553794e-06
0.012786034 1.0416969e-37 0.0595833 -0.029993983 0.039058186 -0.017141076 0.046366166 -0.017392984
0.04412185 -0.016204825 0.04773562 -0.008794718 0.05100471 -0.004195829 0.047586814 -0.00586341
0.059560698 -0.00040086455 0.059943013 0.008485893 0.04903753 0.0036139362 0.037238788 0.0031455122
0.023179457 0.0067031267 0.02469161 0.013120166 0.039987568 0.038923156 0.06824733 0.076759815
0.07854277 0.11116483 0.037731446 0.10734343 0.022812804 1.0293751e-37 -0.02924148 0.0011608854
-0.018061604 -0.019218098 -0.013205933 -0.01741132 0.0016926494 -0.0038165327 0.0005051339 -0.0015869506
-0.014169311 -0.00397948 -0.013998029 -0.0036520006 -0.021201193 -0.014965065 -0.014415165 -0.020689052
-0.010171362 -0.011471412 -0.0104930755 -0.0037546058 -0.011488379 -0.0072812983 -0.013235902 -0.012741286
-0.017648371 -0.01725951 -0.022715224 -0.015035794 -0.035000674 -0.020778796 -0.03717658 -0.036504667
-0.0030249604 1.881066e-38 -0.0019722958 -0.0018108806 -0.001931375 0.0004891025 -0.0027985058 0.0006950188
-0.0010907879 0.00087745563 7.343717e-06 0.00040400538 -0.00032515128 1.7886829e-05 -0.00018343287 8.8107365e-05
-0.00042576404 0.0003629182 -9.376957e-06 0.00032513787 -0.000161492 0.00018632677 -0.00013302219 3.8600723e-05
-8.649781e-05 9.336831e-05 -5.0413528e-05 2.2321878e-05 -0.00019747479 6.099826e-05 -0.00021153444 0.0004015156
0.00062300416 0.00014161818 -0.00075203774 0.0007163725 0.0005236922 -6.668515e-38 -0.062235396 0.122313395
-0.02706431 0.0651046 -0.040799666 0.10257111 -0.045454938 0.120368086 -0.05573027 0.09913029
-0.030441394 0.017157454 -0.028380675 0.0026661383 -0.028594863 -0.03311017 -0.009792026 -0.03521045
-0.0061307787 -0.036761425 -0.0031434402 -0.029301014 0.0069993534 -0.02977964 0.016391112 -0.029593928
0.030420825 -0.047869757 0.0505095 -0.06506803 0.12483345 -0.086593494 0.10497738 -0.03907049
-0.009617515 -1.3585398e-38 0.07845741 0.1782266 0.07889896 0.07543817 0.08811779 0.016884444
0.11321082 -0.0061550434 0.13297138 -0.05222979 0.09310093 -0.07573544 0.081458256 -0.08914378
0.07067293 -0.078478344 0.06311788 -0.068022594 0.049352113 -0.07127525 0.024741558 -0.043697014
0.024036542 -0.0194854 0.006720877 0.03461674 0.032567974 0.08002561 0.06253163 0.09119752
0.07635041 0.07465138 0.0922535 0.096768335 -0.009009247 1.4882384e-38 -0.006245942 0.0030377884
00000000: a5af 0d3b 00a8 3781 d149 913d c556 fa3b
00000010: 3342 003d 0292 373a e026 303d 7bbf cebb
00000020: 88f4 2e3d 15e8 f4bb 59bd 493d de50 04bc
00000030: 9d6a 3c3d f520 33bc 8b68 213d 7fb8 91bc
00000040: 9b19 533d b380 bebc 3e90 353d 1d12 eabb
00000050: 02d0 b33c 12d3 e8bb fcea 4a3b 53c2 59bb
00000060: b19f d7bb 84bb b13a d3e7 a9bb 36c4 913b
00000070: 25c1 333b 254c a23c a023 143d d73f 5a3d
00000080: 3f2c 503d 4548 bb3d ffd3 7b3c fed3 ba3d
00000090: c265 b33b b47c 5d81 9d87 9eb7 3aab 6ab7
000000a0: 2f3e 4ab7 0d22 42b5 3b3c acb7 a9cb e1b5
000000b0: 9669 63b7 46d6 09b5 e96d 30b6 f0d2 17b5
000000c0: b819 72b7 2387 1e35 39e6 9cb6 f450 0335
000000d0: e8e2 3ab6 f5a9 8d33 8508 8bb5 20c9 43b4
000000e0: e436 38b6 4b84 00b5 1cdb 19b6 deda 0434
000000f0: fc30 a7b5 f64a d1b3 aa99 0cb5 fe4f cdb3
00000100: d2f0 a1b5 0926 8333 0f8e 79b6 96a7 5034
00000110: 6ccf 90b5 9d5a 9434 0122 b5b6 1233 32b6
00000120: 837c 513c d7c9 0d02 9e0d 743d f1b5 f5bc
00000130: 7afb 1f3d 716b 8cbc 73ea 3d3d bb7b 8ebc
00000140: 1db9 343d fbbf 84bc 6d86 433d b917 10bc
00000150: 51ea 503d 2a7d 89bb 64ea 423d d921 c0bb
00000160: ebf5 733d 212b d2b9 ce86 753d 6a08 0b3c
00000170: 94db 483d cad7 6c3b b387 183d f024 4e3b
00000180: d8e2 bd3c e7a5 db3b 0f46 ca3c f7f5 563c
00000190: 01ca 233d e36d 1f3d 42c5 8b3d 4034 9d3d
000001a0: 08db a03d 63aa e33d 4a8c 1a3d dfd6 db3d
000001b0: ebe1 ba3c 7d1c 0c02 d48b efbc da28 983a
000001c0: eef5 93bc 466f 9dbc b35d 58bc 2fa2 8ebc
000001d0: e4db dd3a cb1e 7abb f66a 043a 3a01 d0ba
000001e0: 6626 68bc 4c66 82bb fd57 65bc 6756 6fbb
000001f0: 20ae adbc 0830 75bc 962d 6cbc 167c a9bc
00000200: c9a5 26bc 97f2 3bbc 26eb 2bbc d50f 76bb
00000210: c139 3cbc f597 eebb 66db 58bc d4c0 50bc
00000220: 5193 90bc d163 8dbc 4715 babc b158 76bc
00000230: de5c 0fbd 4b38 aabc 7846 18bd eb85 15bd
00000240: 6a3e 46bb 78d4 cc00 a241 01bb 125b edba
00000250: 3126 fdba 1d37 003a 2367 37bb ec31 363a
00000260: c5f8 8eba 0d05 663a 0c6a f636 afd0 d339
00000270: 1179 aab9 ac0b 9637 e357 40b9 48c6 b838
00000280: 1539 dfb9 0e46 be39 b951 1db7 4477 aa39
00000290: 2e56 29b9 b660 4339 df7b 0bb9 36e7 2138
000002a0: 2866 b5b8 bbce c338 1d73 53b8 de3f bb37
000002b0: 3c11 4fb9 62d8 7f38 58cf 5db9 8382 d239
000002c0: 1a51 233a 577f 1439 6624 45ba f2ca 3b3a
000002d0: 6348 093a c488 b581 8bea 7ebd 727f fa3d
000002e0: f9b5 ddbc 8f55 853d 8d1d 27bd cd10 d23d
000002f0: f52e 3abd 8b83 f63d 6c45 64bd d204 cb3d
00000300: 3b60 f9bc ca8d 8c3c 977e e8bc 61ba 2e3b
00000310: c63f eabc 889e 07bd bc6e 20bc d538 10bd
00000320: b3e4 c8bb 2693 16bd 2d02 4ebb ae08 f0bc
00000330: d55a e53b 6ef4 f3bc a746 863c f76e f2bc
00000340: 1835 f93c 1413 44bd 0de3 4e3d 6342 85bd
00000350: aea8 ff3d ee57 b1bd 61fe d63d 6108 20bd
00000360: c892 1dbc 90ee 9380 47ae a03d 0981 363e
00000370: c795 a13d 547f 9a3d 1a77 b43d 3f51 8a3c
00000380: 13db e73d 3fb0 c9bb a629 083e e7ee 55bd
00000390: b3ab be3d 2f1b 9bbd 96d3 a63d 0491 b6bd
000003a0: f8bc 903d 41b9 a0bd f243 813d 6e4f 8bbd
000003b0: 7125 4a3d c2f8 91bd cfae ca3c a4fb 32bd
000003c0: 48e8 c43c d89f 9fbc cd3a dc3b 48ca 0d3d
000003d0: ff65 053d 78e4 a33d 9510 803d c4c5 ba3d
000003e0: 9b5d 9c3d d3e2 983d 67ef bc3d 7a2e c63d
000003f0: 859b 13bc 080e a200 c2aa ccbb a215 473b

convs.weight.1.tensor f4 [32, 32, 18, 2]
0.0009088022 -8.11475e-40 0.03522458 -0.00319812 0.019079298 -0.011085869 0.02751868 -0.017014679
0.024196494 -0.015009889 0.02753848 -0.019279437 0.03331368 -0.035053026 0.027046453 -0.042487
0.032451056 -0.052055962 0.029664518 -0.039327066 0.012379948 -0.03194076 -0.0014696394 -0.022244204
-0.0037070466 -0.014295823 0.00018249644 -0.0109266145 0.0020524082 -0.00028040883 0.017275844 0.024911264
0.045080602 0.063173555 0.019739592 0.06543156 -0.0046900976 -7.725764e-38 0.0012624115 0.007624403
0.005304899 -0.008309535 0.0080915 -0.003094715 0.006814422 -0.003262823 0.0029234553 -0.002385522
-0.00078925345 -1.0302516e-05 -4.008685e-05 -0.00044681528 0.0026185024 -0.004017571 0.00091974816 -0.0004917174
0.000512117 0.0006440308 0.00016716249 0.00047588957 0.00031167897 0.00050588755 0.00020797657 0.00036090828
1.0070982e-05 0.000694499 -0.00033860587 0.0011495507 -0.0009556488 0.00040110544 0.013220363 -0.011997798
0.010702813 4.640272e-38 0.025986016 -0.03849596 0.02979819 -0.038020417 0.03494974 -0.042274173
0.032606293 -0.044387773 0.03388561 -0.04054128 0.040747575 -0.04738008 0.038372546 -0.047051232
0.04465363 -0.042130753 0.050762594 -0.034625757 0.04327797 -0.035694662 0.027998094 -0.033280004
0.019675242 -0.027434964 0.0244179 -0.020748667 0.036895167 -0.0053629493 0.06713935 0.02625181
0.08865474 0.055226084 0.059653226 0.06998338 0.0102214115 1.5551431e-38 0.021959493 0.03256707
0.03183378 0.04984604 0.0387682 0.05789475 0.029545462 0.05230485 0.033696964 0.056932453
0.067091115 0.07576983 0.07160434 0.07793342 0.07985794 0.11243694 0.06309248 0.098164275
0.06104096 0.053260986 0.050198745 0.025242573 0.042413007 0.015761169 0.054865893 0.012094853
0.09256292 0.019313484 0.14599319 0.025679585 0.12468984 0.0060928683 0.106260374 0.0150338495
-0.0038944334 2.7097032e-38 -0.013821728 0.02222932 0.00650853 3.5303707e-05 0.0024807951 -0.012118208
-0.00055328646 -0.017445337 -0.004479457 -0.023720589 -0.0050927512 -0.039421503 -0.008252137 -0.030118437
-0.01189371 -0.05467845 -0.013374512 -0.04165897 -0.007715277 -0.0067684804 0.00048793637 -0.0007313835
5.507809e-05 -0.002524094 -0.0010277525 -0.0011045279 -0.0051525924 -0.00088501687 -0.023723736 0.002953765
-0.048374698 0.048409227 -0.058169268 0.0508269 -0.0029624426 6.185715e-38 -0.052355587 0.12550472
-0.013066661 0.082650915 -0.03885334 0.14540817 -0.046786323 0.18568973 -0.057790313 0.14633384
-0.05749385 0.09609889 -0.04876639 0.060490236 -0.068321645 0.010707316 -0.024221381 -0.00014147242
-0.015658986 -0.021837149 -0.007985368 -0.018500095 0.001863483 -0.022593327 0.010836843 -0.027271405
0.014669127 -0.059132207 0.024247194 -0.07168083 0.051979396 -0.1326174 0.061379474 -0.072993465
-0.011601777 -2.004238e-39 0.107244045 0.21680406 0.119781025 0.0956091 0.117766835 0.03333391
0.14250053 0.013402107 0.17735475 -0.036473665 0.1174243 -0.05725718 0.10170517 -0.06226034
0.07250935 -0.051384684 0.06253103 -0.054070704 0.048405387 -0.04737243 0.022032307 -0.017490929
0.029194407 -0.014447189 0.02419086 0.023536999 0.051917978 0.05601516 0.08135448 0.06357916
0.076388724 0.015551172 0.100782454 -0.016136086 0.007921106 4.4993586e-38 -0.0018202019 -0.014143926
00000000: af3c 6e3a 10d6 0880 a647 103d 8d97 51bb
00000010: 304c 9c3c 81a1 35bc db6e e13c 5e62 8bbc
00000020: ba37 c63c 0aec 75bc 6198 e13c e9ef 9dbc
00000030: ed73 083d c393 0fbd 8690 dd3c d906 2ebd
00000040: 66eb 043d a238 55bd 0103 f33c 6b15 21bd
00000050: 44d5 4a3c 50d4 02bd eaa0 c0ba 7a39 b6bc
00000060: ecf1 72bb 0739 6abc 845c 3f39 8b05 33bc
00000070: b281 063b d603 93b9 1286 8d3c b512 cc3c
00000080: 70a6 383d 2361 813d edb4 a13c fb00 863d
00000090: 64af 99bb b850 d281 8077 a53a 21d6 f93b
000000a0: b8d4 ad3b b724 08bc 3692 043c b4d0 4abb
000000b0: 844b df3b 16d5 55bb 7197 3f3b 6b56 1cbb
000000c0: e7e5 4eba f8d8 2cb7 ed22 28b8 8842 eab9
000000d0: 2e9b 2b3b d4a5 83bb 411b 713a 99e6 00ba
000000e0: 973f 063a 2dd4 283a 5748 2f39 d180 f939
000000f0: d868 a339 8a9d 043a 4914 5a39 4a38 bd39
00000100: 8af6 2837 0a0f 363a e986 b1b9 85ac 963a
00000110: 8184 7aba 764b d239 399a 583c 6a92 44bc
00000120: da5a 2f3c f4a3 7c01 a0e0 d43c f1ad 1dbd
00000130: 551b f43c 4cbb 1bbd 7527 0f3d af27 2dbd
00000140: 2d8e 053d f4cf 35bd a3cb 0a3d 9d0e 26bd
00000150: eee6 263d 9d11 42bd 882c 1d3d cbb8 40bd
00000160: bae6 363d 4c91 2cbd 70ec 4f3d bdd3 0dbd
00000170: 3e44 313d 9134 12bd 425c e53c 9d50 08bd
00000180: f92d a13c 4abf e0bc 0c08 c83c 1cf9 a9bc
00000190: 631f 173d aebb afbb 5b80 893d 090e d73c
000001a0: 9e90 b53d bf34 623d f156 743d 7253 8f3d
000001b0: b577 273c 1057 a900 65e4 b33c 0c65 053d
000001c0: 2364 023d 5c2b 4c3d 67cb 1e3d 0c23 6d3d
000001d0: 5309 f23c 9c3d 563d d405 0a3d 0132 693d
000001e0: 1167 893d 362d 9b3d 4ca5 923d 8f9b 9f3d
000001f0: 8f8c a33d 5745 e63d a136 813d 5a0a c93d
00000200: 1606 7a3d 3128 5a3d 339d 4d3d 83c9 ce3c
00000210: 43b9 2d3d 911d 813c 0fbb 603d 7e29 463c
00000220: a191 bd3d 5037 9e3c 3d7f 153e fe5d d23c
00000230: 635d ff3d afa6 c73b 0a9f d93d 8950 763c
00000240: c039 7fbb c087 1301 8774 62bc 431a b63c
00000250: 8245 d53b 1113 1438 d694 223b 738b 46bc
00000260: 6d0a 11ba 86e9 8ebc 69c8 92bb ae51 c2bc
00000270: 18e1 a6bb 7178 21bd f933 07bc f1ba f6bc
00000280: d6dd 42bc 83f6 5fbd c520 5bbc 99a2 2abd
00000290: 6fd0 fcbb 21ca ddbb b6d1 ff39 51ba 3fba
000002a0: a603 6738 456b 25bb a7b5 86ba cec5 90ba
000002b0: 14d7 a8bb 7a00 68ba 4858 c2bc f493 413b
000002c0: 8c24 46bd c148 463d e642 6ebd de2f 503d
000002d0: 8a25 42bb 2464 a801 d072 56bd 4f84 003e
000002e0: 8c15 56bc e244 a93d ae24 1fbd e1e5 143e
000002f0: 04a3 3fbd 7325 3e3e 89b5 6cbd 8ad8 153e
00000300: ac7e 6bbd 7fcf c43d 44bf 47bd 9cc4 773d
00000310: 38ec 8bbd bd6d 2f3c eb6b c6bc 3758 14b9
00000320: 4647 80bc d2e3 b2bc 10d5 02bc 838d 97bc
00000330: 1d40 f43a a415 b9bc 048d 313c 4868 dfbc
00000340: c756 703c 9d34 72bd 0da2 c63c 66cd 92bd
00000350: 59e8 543d dbcc 07be 0b69 7b3d 997d 95bd
00000360: 6115 3ebc 00d3 1580 c4a2 db3d e201 5e3e
00000370: c14f f53d b4ce c33d bd2f f13d 2389 083d
00000380: a9eb 113e 8394 5b3c 7c9c 353e 6965 15bd
00000390: 277c f03d 8186 6abd cd4a d03d b304 7fbd
000003a0: c87f 943d bf78 52bd 4510 803d 3e79 5dbd
000003b0: ba44 463d 9809 42bd 197d b43c 2349 8fbc
000003c0: 1c29 ef3c e7b3 6cbc e92b c63c aad0 c03c
000003d0: f2a7 543d 2770 653d 2d9d a63d ca35 823d
000003e0: b171 9c3d 58ca 7e3c 0867 ce3d d32f 84bc
000003f0: 87c7 013c e8f7 7401 d793 eeba edbb 67bc

convs.weight.2.tensor f4 [32, 32, 18, 2]
1.7543933e-05 -3.023919e-38 -0.014177583 -0.0075867544 -0.010576438 -0.011021204 -0.011605269 -0.014874983
-0.011755772 -0.0111962 -0.0128473705 -0.012747724 -0.00027241578 -0.041903608 0.002648094 -0.04825282
0.007668423 -0.063289404 0.0009913371 -0.054161698 -0.009166145 -0.042640563 -0.010757439 -0.027233189
-0.006738473 -0.017996764 -0.004310238 -0.012758891 -0.008729056 0.0006875634 -0.014772374 0.027633553
-0.010993195 0.040254842 0.0021779907 0.05532778 -0.007149212 1.33392e-40 0.0056900154 -0.0032997045
0.019713596 -0.013866343 0.02877933 -0.002651416 0.023950208 -0.0067001674 0.013973466 -0.0051601776
0.008029255 -0.0045116264 0.0014231722 -0.0042537022 0.013114052 0.0038701508 0.009010079 0.006212114
-0.00024246401 0.0008975293 0.0017055009 0.0009055476 0.0025956563 0.00084609544 0.0014191722 0.0017279992
0.003458425 0.0042097797 0.00031444582 0.00044881247 0.0004031885 0.0041631027 0.016887037 -0.008846809
0.011993578 -3.6791797e-38 -0.000119167555 -0.030239325 0.016830668 -0.056350254 0.016052289 -0.050534822
0.013335488 -0.03970004 0.012532128 -0.0335518 0.017872974 -0.05150846 0.021449853 -0.05004074
0.02392827 -0.04536751 0.022550834 -0.04243161 0.017819513 -0.044474423 0.0074076313 -0.042432725
0.0054836925 -0.03816567 0.009186824 -0.033143707 0.013552595 -0.025036238 0.031318538 -0.011589693
0.051256716 -0.0055941124 0.050254636 0.02082816 0.006263029 -5.575464e-39 -0.0030572994 0.017014397
0.022075003 0.050141823 0.025769766 0.05101917 0.009882191 0.042393327 0.008685685 0.044205904
0.031917375 0.053001806 0.03879261 0.05697167 0.04344051 0.082875974 0.049152553 0.06681845
0.059186127 0.031856842 0.05612466 0.007246294 0.04857231 -0.001596325 0.04988535 -0.00972248
0.07233111 -0.021700582 0.11369144 -0.044725258 0.11730029 -0.06913377 0.11382313 -0.06153797
-0.0052073207 -9.070539e-38 -0.00039008784 -0.00033967127 -0.00058979867 0.0037654634 -0.0021807202 -0.007232037
-0.003328671 -0.012758994 -0.008656964 -0.021370122 -0.009902726 -0.035458997 -0.016727133 -0.027316015
-0.021599913 -0.060986634 -0.025748707 -0.05606678 -0.01899653 -0.014257835 -0.010347448 -0.0029585843
-0.009312803 -0.004540698 -0.0064406823 -0.0022595536 -0.011137357 0.0003548585 -0.0375662 0.015471872
-0.05445025 0.06871496 -0.052476466 0.07106561 -0.004519973 -1.729524e-38 -0.0049304296 0.10537896
0.0025712869 0.12790883 -0.037758496 0.20023118 -0.047744095 0.22514385 -0.054924563 0.1829012
-0.082461976 0.21163549 -0.06524667 0.13558969 -0.08916572 0.06782409 -0.049304597 0.058017824
-0.0104544 0.019355219 -0.006535801 0.0028634258 -0.0013295996 -0.003968662 0.0074889567 0.00015383559
0.012901695 -0.02219002 0.011612987 -0.06812809 -0.0413347 -0.07198538 -0.04666892 -0.054315787
-0.009615124 -1.5555074e-38 0.1417119 0.2339136 0.13073248 0.12010007 0.103390604 0.056518514
0.11894341 0.05587465 0.17274277 0.014827083 0.15215023 -0.005111894 0.11049256 -0.007959679
0.09241081 0.00032065142 0.07554085 -0.026286826 0.058365777 -0.009703988 0.029774807 0.001958726
0.03068878 -0.006804843 0.038062174 0.003231607 0.04521864 0.018458078 0.06816783 0.026916627
0.06308204 0.0005568778 0.077550955 -0.061060533 0.009590652 3.1483735e-38 -0.0041194 -0.0012622005
00000000: 4f2b 9337 48a3 2481 1849 68bc 4f9a f8bb
00000010: cc48 2dbc 4892 34bc 0724 3ebc 33b6 73bc
00000020: 489b 40bc 4470 37bc c77d 52bc d4db 50bc
00000030: 07d3 8eb9 1ea3 2bbd a58b 2d3b c0a4 45bd
00000040: 6547 fb3b e09d 81bd c1ef 813a a8d8 5dbd
00000050: 992d 16bc dfa7 2ebd f83f 30bc 2318 dfbc
00000060: 69ce dcbb f36d 93bc e63c 8dbb ab0a 51bc
00000070: 5104 0fbc 993d 343a d407 72bc c35f e23c
00000080: cd1c 34bc 43e2 243d 9fbc 0e3b 629f 623d
00000090: f043 eabb d873 0100 4f73 ba3b db3f 58bb
000000a0: 687e a13c a82f 63bc a1c2 eb3c 61c3 2dbb
000000b0: 3a33 c43c 148d dbbb f7f0 643c b516 a9bb
000000c0: 238d 033c 44d6 93bb bc89 ba3a a462 8bbb
000000d0: 52dc 563c 5ba2 7d3b 039f 133c fd8e cb3b
000000e0: f03d 7eb9 2c48 6b3a 1d8b df3a 4562 6d3a
000000f0: e31b 2a3b 81cc 5d3a 8403 ba3a 087e e23a
00000100: bea6 623b 31f2 893b 34dc a439 974e eb39
00000110: 0b63 d339 a36a 883b af56 8a3c 35f2 10bc
00000120: b680 443c 4850 4881 98e9 f9b8 76b8 f7bc
00000130: 78e0 893c 86cf 66bd 1780 833c 9afd 4ebd
00000140: 177d 5a3c 829c 22bd 8e53 4d3c 9d6d 09bd
00000150: 586a 923c 89fa 52bd 9ab7 af3c 85f7 4cbd
00000160: 3805 c43c 48d3 39bd 87bc b83c c5cc 2dbd
00000170: 3afa 913c d02a 36bd b7bb f23b f0cd 2dbd
00000180: 8cb0 b33b 9b53 1cbd 5584 163c b2c1 07bd
00000190: b40b 5e3c cc18 cdbc de47 003d b2e2 3dbc
000001a0: 90f2 513d d14e b7bb ced7 4d3d d19f aa3c
000001b0: 183a cd3b 20b6 3c80 f95c 48bb c761 8b3c
000001c0: a3d6 b43c 8361 4d3d 1e1b d33c 7af9 503d
000001d0: eae8 213c a0a4 2d3d 674e 0e3c 4011 353d
000001e0: cbbb 023d 6c18 593d 00e5 1e3d 205b 693d
000001f0: adee 313d e1ba a93d 3054 493d 1dd8 883d
00000200: 276d 723d 527c 023d f9e2 653d 5272 ed3b
00000210: c2f3 463d c73b d1ba 9554 4c3d 094b 1fbc
00000220: 5522 943d 6bc5 b1bc 0fd7 e83d d531 37bd
00000230: 223b f03d 0296 8dbd 1a1c e93d 3d0f 7cbd
00000240: 2ca2 aabb 6eec f681 b484 ccb9 e815 b2b9
00000250: b89c 1aba fec5 763b 6aea 0ebb b9fa ecbb
00000260: d525 5abb 190b 51bc f0d5 0dbc 6510 afbc
00000270: 0b3f 22bc 743d 11bd 5707 89bc d6c5 dfbc
00000280: 4df2 b0bc 1fcd 79bd f4ee d2bc 48a6 65bd
00000290: 9c9e 9bbc b299 69bc 5888 29bc cfe4 41bb
000002a0: ba94 18bc 23ca 94bb 5c0c d3bb 0515 14bb
000002b0: 7679 36bc 4d0c ba39 04df 19bd bc7d 7d3c
000002c0: 3a07 5fbd 6eba 8c3d 90f1 56bd d98a 913d
000002d0: 481c 94bb 1854 bc80 718f a1bb edd0 d73d
000002e0: 0983 283b 88fa 023e a7a8 1abd 6709 4d3e
000002f0: 508f 43bd 1c8c 663e 94f8 60bd 744a 3b3e
00000300: d3e1 a8bd f9b6 583e 0ca0 85bd 06d8 0a3e
00000310: 849c b6bd 5be7 8a3d 9ef3 49bd 19a4 6d3d
00000320: ef48 2bbc d68e 9e3c 462a d6bb 50a8 3b3b
00000330: f645 aeba 8d0b 82bb ec65 f53b ed4e 2139
00000340: a261 533c d8c7 b5bc 6644 3e3c bd86 8bbd
00000350: 934e 29bd 126d 93bd e927 3fbd 3b7a 5ebd
00000360: c188 1dbc 3861 a980 ed1c 113e 0c87 6f3e
00000370: bcde 053e 07f7 f53d 74be d33d f57f 673d
00000380: 9a98 f33d d1dc 643d 7be3 303e 4bed 723c
00000390: 45cd 1b3e ad81 a7bb ec49 e23d 5069 02bc
000003a0: e141 bd3d 1b1d a839 29b5 9a3d 7857 d7bc
000003b0: f410 6f3d 7afd 1ebc 4cea f33c f85d 003b
000003c0: 0967 fb3c 29fb debb 15e7 1b3d 5ec9 533b
000003d0: 2e37 393d 6535 973c 939b 8b3d 4280 dc3c
000003e0: 2831 813d 70fb 113a 09d3 9e3d 9c1a 7abd
000003f0: 1c22 1d3c ec69 2b01 08fc 86bb 6c70 a5ba

convs.weight.3.tensor f4 [32, 32, 18, 2]
-0.0018269867 -5.284192e-38 -0.013586352 -0.0076832892 -0.017126149 -0.009537754 -0.021972256 -0.00702133
-0.016505865 -0.0023140258 -0.016994193 -0.0076119057 -0.02408087 -0.034374237 -0.024887042 -0.039122846
-0.015947994 -0.04955431 -0.032293536 -0.049294263 -0.030355424 -0.033513006 -0.022744529 -0.014319774
-0.019342914 -0.006594253 -0.020734126 -0.005052717 -0.016520672 0.021825349 -0.023838727 0.045564387
-0.023204954 0.058149196 -0.0063984734 0.0755136 -0.00840874 -9.754955e-38 -0.0013693775 -0.021081623
-0.014651854 -0.015721971 -0.019178335 -0.015330657 -0.010870725 -0.014146118 -0.0073274253 -0.018233694
-0.0021462208 -0.021170769 0.0009392599 -0.02313997 0.012495669 -0.03768802 -0.001068156 -0.029518114
0.0014735435 -0.009038829 0.0054134578 0.004638267 0.004969201 0.009886796 0.0054312283 0.010755617
0.008210826 0.02782763 0.0027670779 0.054670494 -0.0025488324 0.07732465 0.00904373 0.09134302
0.010889663 -1.0631107e-37 0.0025618928 -0.037877966 0.010722337 -0.040397596 0.010141802 -0.034766704
0.012310719 -0.02694054 0.0096090445 -0.022319054 0.0046277978 -0.034012806 0.0013113234 -0.031421885
0.0027624862 -0.026400246 -0.005875471 -0.0305481 -0.015391645 -0.03443636 -0.019366749 -0.02972262
-0.02092675 -0.026814634 -0.023731353 -0.023830028 -0.024034578 -0.013489071 -0.018225819 -0.01214059
-0.0046802806 0.0012457254 0.013975685 0.02307439 0.001996818 -8.041403e-38 -0.00714954 0.024856277
0.0069944696 0.032139834 0.005624055 0.030459277 -0.0032370815 0.02646174 -0.008614159 0.026800545
-0.012694993 0.02715982 -0.017728563 0.02519281 -0.031000182 0.034208365 -0.019892473 0.027806833
-0.013874636 0.011742804 -0.011178578 -0.0037892286 -0.0095938835 -0.014756603 -0.010721528 -0.017223023
-0.014537577 -0.032659627 -0.015182693 -0.03571706 -0.0069073588 -0.04743463 -0.0174094 -0.07277771
-0.01101591 7.865174e-39 -0.018536612 0.023165895 -0.011572987 0.032567438 -0.013960192 0.026091207
-0.009687594 0.023568986 -0.008361293 0.015910879 -0.0029295096 0.020554215 -0.0012758353 0.015838712
0.0020471655 0.009133724 0.0057110423 0.008764116 0.0064811003 0.005529015 0.0040327236 0.0064344555
0.00451918 0.008086271 0.004652685 0.009020484 0.010242913 0.015631268 0.013226151 0.029502755
0.006120495 0.023674736 -0.007456053 0.0108984085 -0.01643884 -7.534236e-38 0.0044355993 -0.009843711
0.020454645 0.015993975 0.027771853 0.010342843 0.021710264 0.013951013 0.020843217 0.022521699
0.027228702 0.051099744 0.028421536 0.053648446 0.02312022 0.060423378 0.030981328 0.05517378
0.031339016 0.04110324 0.025763564 0.017043835 0.021510715 0.005283029 0.02511145 0.0014603825
0.020879209 -0.021264365 0.028228046 -0.03708222 0.022084747 -0.044662304 0.009759193 -0.05898731
-0.011241859 -9.997715e-39 -0.008621402 -0.038480226 0.04540277 0.018897554 0.053120688 0.020194855
0.040997077 0.012980452 0.041932702 0.013558136 0.060802132 0.021674102 0.06681365 0.022071267
0.08026375 0.03391311 0.05679301 0.020846628 0.030928956 0.018491026 0.008693482 0.0051018423
0.0050419387 0.0012093389 0.009122574 0.00032009368 0.0091420235 -0.016046109 0.03901212 -0.042868823
0.09272495 -0.06006987 0.104828596 -0.045578614 0.011028109 -2.5105136e-38 0.0015027467 0.012420675
00000000: 8077 efba 72d9 8f81 4a99 5ebc 1ac4 fbbb
00000010: 234c 8cbc 3d44 1cbc 29ff b3bc 2f13 e6bb
00000020: 4f37 87bc e9a6 17bb 6837 8bbc 4b6d f9bb
00000030: 3f45 c5bc 00cc 0cbd e9df cbbc 473f 20bd
00000040: 5ea5 82bc 76f9 4abd 3a46 04bd c8e8 49bd
00000050: f0ab f8bc ef44 09bd bc52 babc 7c9d 6abc
00000060: 0875 9ebc 9a14 d8bb 9dda a9bc 4391 a5bb
00000070: 5c56 87bc 13cb b23c 6f49 c3bc b9a1 3a3d
00000080: 5118 bebc da2d 6e3d 49aa d1bb e0a6 9a3d
00000090: d0c4 09bc 0fc7 0482 af7c b3ba 5eb3 acbc
000000a0: 540e 70bc 5dcb 80bc e21b 9dbc 702d 7bbc
000000b0: 201b 32bc 1fc5 67bc e61a f0bb d45e 95bc
000000c0: 9ca7 0cbb 526e adbc aa38 763a 0990 bdbc
000000d0: a2ba 4c3c c15e 1abd 5e01 8cba f9cf f1bc
000000e0: ea23 c13a 9917 14bc 6063 b13b 9bfc 973b
000000f0: aed4 a23b 3afc 213c 72f8 b13b 5438 303c
00000100: b386 063c c5f6 e33c dd57 353b 2bee 5f3d
00000110: 500a 27bb 635c 9e3d 272c 143c 0d12 bb3d
00000120: 8f6a 323c 00b4 1082 6ee5 273b ed25 1bbd
00000130: beac 2f3c f377 25bd cd29 263c 8867 0ebd
00000140: e6b2 493c 68b2 dcbc 416f 1d3c 73d6 b6bc
00000150: c8a4 973b 0351 0bbd b6e0 ab3a 3cb4 00bd
00000160: d40a 353b 5445 d8bc 0687 c0bb 0240 fabc
00000170: 3d2d 7cbc 240d 0dbd 04a7 9ebc da7c f3bc
00000180: 936e abbc 5daa dbbc 4168 c2bc 3137 c3bc
00000190: 2ae4 c4bc 4401 5dbc 504e 95bc 53e9 46bc
000001a0: 0a5d 99bb 9c47 a33a 46fa 643c 8106 bd3c
000001b0: 0cdd 023b 66e8 da81 b046 eabb 649f cb3c
000001c0: dd31 e53b 0fa5 033d fe49 b83b bc85 f93c
000001d0: 3725 54bb 4ac6 d83c 6722 0dbc d18c db3c
000001e0: a9fe 4fbc 457e de3c 7e3b 91bc 2761 ce3c
000001f0: 18f4 fdbc 121e 0c3d 8af5 a2bc 28cb e33c
00000200: 7152 63bc e464 403c 5b26 37bc b554 78bb
00000210: aa2f 1dbc aec5 71bc 59a9 2fbc 4c17 8dbc
00000220: 042f 6ebc 1ac6 05bd d4c0 78bc 0d4c 12bd
00000230: 2057 e2bb d14a 42bd 289e 8ebc 7b0c 95bd
00000240: 137c 34bc e8a4 5500 18da 97bc 67c6 bd3c
00000250: a09c 3dbc 6f65 053d 4ab9 64bc 3abd d53c
00000260: b7b8 1ebc bf13 c13c cefd 08bc 8857 823c
00000270: 04fd 3fbb 5061 a83c ee39 a7ba 30c0 813c
00000280: bd29 063b 9da5 153c b223 bb3b 5e97 0f3c
00000290: 695f d43b bd2c b53b f024 843b 20d8 d23b
000002a0: a115 943b 477c 043c 8d75 983b a7ca 133c
000002b0: e4d1 273c 250d 803c 7fb2 583c c3af f13c
000002c0: 6f8e c83b 85f1 c13c e851 f4bb 3d8f 323c
000002d0: bfaa 86bc f619 cd81 8158 913b 8447 21bc
000002e0: 8090 a73c cc05 833c cc81 e33c 0775 293c
000002f0: b9d9 b13c ca92 643c 65bf aa3c 6d7f b83c
00000300: ba0e df3c f74d 513d 48d4 e83c 79be 5b3d
00000310: 9e66 bd3c 817e 773d 8ecc fd3c e7fd 613d
00000320: 575d 003d df5b 283d 1c0e d33c 839f 8b3c
00000330: 3d37 b03c 421d ad3b 87b6 cd3c 4e6a bf3a
00000340: e00a ab3c 9b32 aebc 813e e73c 87e3 17bd
00000350: 12eb b43c d2ef 36bd 06e5 1f3c ad9c 71bd
00000360: c62f 38bc 90dd 6c80 c840 0dbc 719d 1dbd
00000370: 41f8 393d 0bcf 9a3c 1495 593d ae6f a53c
00000380: 8dec 273d f6ab 543c a0c1 2b3d f222 5e3c
00000390: a80b 793d e38d b13c 98d5 883d cdce b43c
000003a0: 5261 a43d 79e8 0a3d ca9f 683d 8cc6 aa3c
000003b0: b95e fd3c 7e7a 973c 1b6f 0e3c 5b2d a73b
000003c0: d936 a53b ae82 9e3a d976 153c 3fd2 a739
000003d0: 6dc8 153c 2173 83bc 2ccb 1f3d 3897 2fbd
000003e0: 94e6 bd3d d30b 76bd 60b0 d63d a4b0 3abd
000003f0: 3eaf 343c 74af 0881 d0f7 c43a 1680 4b3c

convs_bc.bias f4 [4, 32, 1]
-0.005953586 -0.0104213385 0.0064212806 0.0061669005 -0.0073201437 -0.010460108 -0.016285663 0.005046199
-0.010672555 0.0110836 0.0077206567 -0.008689158 -0.015052681 -0.011222424 0.024731824 0.022601366
0.00073107105 0.012828331 -0.014515336 0.01115332 0.013649571 -0.016127096 0.013003107 -0.0016316278
0.0021622372 0.0117943 0.009147397 -0.015111342 -0.0049208244 0.013172654 0.009118044 0.0009931156
-0.006688391 -0.0076940022 0.00457509 0.0030293097 -0.0070530097 -0.0071358923 -0.012513991 0.0052678254
-0.016596807 0.008117356 0.010607506 -0.008993481 -0.010731275 -0.0046299775 0.012715401 -0.006036204
-0.0009523716 0.0121632 -0.009503829 0.013644402 0.010682034 -0.0083877975 0.014072856 -0.0037449952
-0.0013877535 0.014103189 -0.0095605515 -0.00952454 -0.006483934 0.009382049 0.008913276 0.0059087803
-0.005768722 -0.006945741 0.007283652 0.0020612949 -0.0045999903 -0.0040651504 -0.0023792353 0.00545261
-0.018083597 0.0061145537 0.010489614 -0.011325739 -0.013621886 -0.008207113 0.014969683 -0.010434821
-0.0008476417 0.011104557 -0.008140578 0.013798775 0.010879754 -0.013069374 0.013013425 -0.0033177785
-0.0069294935 0.01279268 -0.01343526 -0.0022502718 -0.0070544374 0.007855844 0.0121225305 0.0057148575
-0.0066254437 -0.00620664 0.00631919 -0.0021359278 -0.005792575 -0.012844497 -0.0072429725 0.008736587
-0.021489676 0.004131334 0.011679794 -0.014816863 -0.01424075 -0.012467109 0.014378133 -0.01252173
0.0011495486 0.01136373 -0.0058446405 0.013120965 0.009304402 -0.0134201925 0.014896611 -0.0028102323
-0.015698502 0.014816822 -0.015161114 -0.015701182 -0.011038348 0.007258181 0.011025693 0.0037424902
00000000: 4d16 c3bb 43be 2abc 9b69 d23b b613 ca3b
00000010: d1dd efbb df60 2bbc 8369 85bc 965a a53b
00000020: f1db 2ebc fd97 353c 90fd fc3b f85c 0ebc
00000030: 859f 76bc 42de 37bc 659a ca3c 8026 b93c
00000040: 59a5 3f3a ec2d 523c bbd1 6dbc 6abc 363c
00000050: 73a2 5f3c f91c 84bc fc0a 553c 58dc d5ba
00000060: 52b4 0d3b e13c 413c f7de 153c 9095 77bc
00000070: de3e a1bb 1ed2 573c d963 153c 6e2b 823a
00000080: 4a2a dbbb f81d fcbb a3ea 953b 6287 463b
00000090: ef1c e7bb 34d4 e9bb 7c07 4dbc b99d ac3b
000000a0: 07f6 87bc a9fe 043c 1bcb 2d3c 6559 13bc
000000b0: 3bd2 2fbc 11b7 97bb 4254 503c 59cb c5bb
000000c0: 94a8 79ba 2948 473c f3b5 1bbc c58c 5f3c
000000d0: b303 2f3c f96c 09bc d691 663c 986e 75bb
000000e0: 48e5 b5ba 1011 673c dca3 1cbc d10c 1cbc
000000f0: 2e77 d4bb 2ab7 193c fd08 123c 719e c13b
00000100: 8c07 bdbb 1999 e3bb b4ab ee3b ca16 073b
00000110: 84bb 96bb f434 85bb f2ec 1bbb cfab b23b
00000120: 0d24 94bc 985c c83b a1dc 2b3c 988f 39bc
00000130: 552e 5fbc 2077 06bc 6743 753c d0f6 2abc
00000140: 4634 5eba e3ef 353c 0f60 05bc 4214 623c
00000150: ff40 323c ed20 56bc 4336 553c 166f 59bb
00000160: ce10 e3bb 6498 513c 911f 5cbc 4c79 13bb
00000170: e928 e7bb ccb5 003c 949d 463c b343 bb3b
00000180: 401a d9bb 1261 cbbb 3511 cf3b ecfa 0bbb
00000190: a4cf bdbb ba71 52bc 7556 edbb e723 0f3c
000001a0: 1e0b b0bc 2460 873b 9b5c 3f3c 6ec2 72bc
000001b0: 0952 69bc d842 4cbc 4392 6b3c f127 4dbc
000001c0: 73ac 963a f02e 3a3c 6684 bfbb 51f9 563c
000001d0: 7e71 183c 5ee0 5bbc ea10 743c e02b 38bb
000001e0: 259a 80bc 41c2 723c 5266 78bc c49f 80bc
000001f0: 30da 34bc 09d6 ed3b 1ca5 343c 9144 753b

convs_bc.bias_bc f4 [4, 32, 1]
-0.0008598539 -0.00014517491 0.0013680651 -0.00022164501 -0.00036681053 -0.00027405308 -0.0014928022 0.00089695776
0.00028652343 -0.0008606546 0.0024105734 0.00060131063 -0.0014471208 -0.0019196119 -0.00033948492 -0.0010629039
-0.00081458944 -0.0014632266 -0.001138925 0.00087121676 -0.00028860668 0.0023851343 0.00028620457 -0.00042745407
-0.0005878108 0.00048662227 -0.0009416417 -0.0010225793 -0.0006167204 0.0018751965 -0.00053526135 0.0005465488
0.00034961174 0.00024484718 -0.0006682021 0.00088065985 -0.0011486083 -0.0016129243 0.0005344356 -0.0005620775
0.0013574719 0.0014566713 -0.00042111296 0.0013909609 -0.0005079516 0.00044762122 0.00031291373 1.5794069e-05
-0.0017249882 -0.001217184 -0.0007522129 0.0008860897 0.0009757516 0.0004375701 0.00043288947 -4.674966e-05
-0.0006409432 -0.0011007064 -0.00074063253 -0.0009287934 -0.0014382438 0.00022324812 0.00034778094 -0.0004618338
0.0003698285 0.0006537633 -0.00065998756 -0.0005645684 0.00065919093 -0.000782855 0.00074492616 0.0007666781
-0.000807186 0.0009932225 -5.4409713e-05 -0.00038728857 0.0008028482 0.0016962114 -0.00035782254 0.0001336643
0.0005880409 -0.00069166435 0.00077856483 0.0003692393 -0.0012107292 0.00067066285 0.00095810613 0.0007287137
-0.0011052369 0.0010307941 0.0006418633 -0.0019538405 0.0004987969 0.0005305042 0.00054672174 -0.00057484367
0.00019097838 -0.0008014248 0.002161985 -0.00019248248 -0.000102730606 0.0034751687 -0.00049828266 0.0015851824
-0.00078530784 0.00094536913 0.002676309 0.0017857811 -0.00040574363 0.0006772926 -0.0007543796 0.00076816155
0.00022012887 -0.0016207315 -0.000696575 -0.00027781044 -0.0014669723 0.0005185272 -0.0001269872 -0.0004815023
0.00038404067 -0.0016882182 -0.0011547324 -5.96952e-05 -0.0008284394 0.0015943588 -0.00032449953 0.0019805075
00000000: d267 61ba 183a 18b9 a650 b33a 6169 68b9
00000010: 7a50 c0b9 c8ae 8fb9 21aa c3ba d121 6b3a
00000020: 8638 9639 8d9d 61ba b6fa 1d3b 46a1 1d3a
00000030: 51ad bdba 7d9b fbba e5fc b1b9 2351 8bba
00000040: 2c8a 55ba bdc9 bfba fb47 95ba 5e62 643a
00000050: 2250 97b9 ea4f 1c3b ba0d 9639 ea1b e0b9
00000060: 5117 1aba 5621 ff39 81d8 76ba 1108 86ba
00000070: 68ab 21ba 27c9 f53a c850 0cba 4546 0f3a
00000080: 184c b739 d55e 8039 492a 2fba 15dc 663a
00000090: e68c 96ba c268 d3ba 5e19 0c3a 6258 13ba
000000a0: 33ed b13a c7ed be3a d3c8 dcb9 e750 b63a
000000b0: 0e28 05ba b4ae ea39 920e a439 817d 8437
000000c0: 0019 e2ba eb89 9fba 2730 45ba 7948 683a
000000d0: 95c9 7f3a aa69 e539 71f5 e239 1115 44b8
000000e0: f804 28ba 9445 90ba 0227 42ba 457a 73ba
000000f0: 7483 bcba b617 6a39 5e56 b639 4922 f2b9
00000100: 8be5 c139 5061 2b3a 0403 2dba 8bff 13ba
00000110: 8ecd 2c3a 8238 4dba 2647 433a e5fa 483a
00000120: 5699 53ba 042f 823a fc35 64b8 fe0c cbb9
00000130: 3b76 523a 6953 de3a 219a bbb9 3d28 0c39
00000140: c226 1a3a cf50 35ba 9a18 4c3a 7696 c139
00000150: 55b1 9eba 6ccf 2f3a 6a29 7b3a 2607 3f3a
00000160: 99dd 90ba b61b 873a b842 283a 010c 00bb
00000170: b1c1 023a 8911 0b3a e051 0f3a 1bb1 16ba
00000180: 5e41 4839 b516 52ba 17b0 0d3b 1fd5 49b9
00000190: 1371 d7b8 a8bf 633b 2f9f 02ba e5c5 cf3a
000001a0: 1edd 4dba a6d2 773a 0465 2f3b df10 ea3a
000001b0: fdb9 d4b9 568c 313a 8fc1 45ba 735e 493a
000001c0: 65d2 6639 ba6e d4ba 5b9a 36ba 16a7 91b9
000001d0: 6c47 c0ba c5ed 073a de27 05b9 2572 fcb9
000001e0: 1159 c939 3447 ddba 645a 97ba 3c61 7ab8
000001f0: a12b 59ba cef9 d03a 9721 aab9 67cb 013b

convs_bc.weight.0.tensor f4 [32, 32, 6, 2]
-0.0046288394 7.877358e-38 0.027145596 -0.041840665 0.024855133 -0.0268766 0.017675452 -0.028252147
0.0142513495 -0.028262144 0.011161451 -0.03021753 -0.01227918 -9.534749e-38 -0.002018349 0.00017889404
-0.0006655809 2.041947e-05 -0.0006224163 1.2697971e-05 -0.00059784116 -8.6333974e-05 -0.0005359583 -3.756048e-05
0.004516485 1.3477958e-38 0.064487316 -0.0927158 0.056155313 -0.07601755 0.04047896 -0.0680501
0.028071182 -0.061954595 0.021493299 -0.05962054 0.005346185 6.5664734e-38 0.092448495 -0.06701424
0.077387124 -0.043977145 0.06569652 -0.04517651 0.05749579 -0.039912857 0.05401132 -0.039966118
-0.0060878466 4.745431e-38 0.0390239 0.0030159934 0.015239568 0.002109641 0.01214302 0.00089637126
0.01021028 0.0011988323 0.009387467 0.0012681358 -0.0098544555 -2.5615478e-38 -0.016363386 0.004222415
-0.0029915436 0.005617966 0.020004522 0.00017180425 0.042971406 -0.007635604 0.045377336 -0.0019979842
-0.016450828 -4.8665414e-38 0.0131987175 -0.034652635 -0.0047083744 -0.021230677 -0.01635037 -0.02016556
-0.017906664 -0.033853326 -0.032839034 -0.046111904 0.005639128 -3.3884148e-38 -0.093330935 -0.024613164
-0.06718009 -0.011699912 -0.052450128 -0.001755104 -0.042137805 -0.0017646303 -0.040715132 0.0009284246
-0.011056886 7.889466e-38 -0.028866448 -0.014678871 -0.0106276525 -0.010762098 -0.015986545 -0.009579504
-0.018009432 -0.011406279 -0.02259272 -0.009700674 0.010205178 -9.597471e-38 -0.07529954 -0.042739276
-0.054410953 -0.03143491 -0.054572586 -0.029188326 -0.051971372 -0.027922075 -0.051076867 -0.026955841
0.00789237 -6.035118e-38 -0.026551265 0.00048189037 -0.016058983 -0.004350264 -0.015957292 -0.0015696589
-0.017015943 -0.0021108813 -0.022327172 -0.0007282427 -0.006756913 4.179904e-38 -0.025627358 -0.018100793
-0.008497447 -0.017056316 -0.013114771 -0.019448804 -0.0016212192 -0.028941877 -0.0027378355 -0.032723997
-0.014429932 -7.239072e-38 -0.040090412 -0.011822422 -0.013452858 -0.0015022224 -0.022261506 0.0006522976
-0.024211084 0.0028166997 -0.02300585 0.009458688 -0.010672598 -6.1948446e-38 0.00800026 0.0013841612
0.001663321 0.0008019986 0.0022048375 8.4185405e-05 0.0017291725 0.00015010162 0.0018834134 0.00010786477
0.026120594 -6.415745e-38 -0.040190816 -0.007954813 -0.025206536 -0.0051522683 -0.022070095 -0.0026857858
-0.019525586 -0.004395449 -0.020299254 -0.0035710556 0.021931117 2.4649916e-38 0.00017059564 0.0011142069
9.516751e-05 -4.3639542e-05 5.8128004e-05 -9.827533e-06 9.5803836e-05 7.0964146e-05 8.800362e-05 0.0002087128
-0.002371516 5.183264e-38 0.05989312 -0.057607338 0.03443193 -0.030723128 0.017893203 -0.016684648
0.0088931415 -0.0102822585 -0.0035445672 -0.0031339212 0.011070654 1.656457e-38 -0.09477695 -0.0600663
-0.059896726 -0.05060565 -0.047900654 -0.0446997 -0.038922872 -0.039438423 -0.03408323 -0.036126528
-0.01438916 9.787186e-38 -0.023901114 0.005361985 0.0063488567 -0.0068613705 0.0072023505 -0.015047667
0.009698686 -0.022141462 -0.018805252 0.004191572 0.01131971 -5.173346e-38 -0.006566204 -0.024118809
0.0011630655 -0.022453854 -0.0009834403 -0.020509802 -0.00025516545 -0.020215757 -0.0025682526 -0.018645281
0.011457909 -1.1230723e-38 -0.10398798 -0.06836778 -0.07482469 -0.0537024 -0.06553474 -0.04937483
-0.056869894 -0.044833556 -0.05173207 -0.040290706 -0.014186717 1.72909e-40 -2.8713708e-05 -3.428784e-05
00000000: 85ad 97bb 2c71 d601 7160 de3c 1e61 2bbd
00000010: fe9c cb3c 512c dcbc 1ccc 903c 0c71 e7bc
00000020: 7e7e 693c 0386 e7bc 85de 363c c18a f7bc
00000030: 9d2e 49bc c0c7 0182 4746 04bb 8195 3b39
00000040: 617a 2eba 7a4a ab37 a729 23ba 5f09 5537
00000050: 71b8 1cba 330e b5b8 8d7f 0cba 428a 1db8
00000060: 06ff 933b 10c3 9200 ed11 843d c8e1 bdbd
00000070: 1d03 663d 17af 9bbd 44cd 253d da5d 8bbd
00000080: 89f5 e53c 1ac4 7dbd b712 b03c ab34 74bd
00000090: 0d2f af3b a4c1 b201 a355 bd3d c33e 89bd
000000a0: 247d 9e3d 6121 34bd e68b 863d 010b 39bd
000000b0: b580 6b3d aa7b 23bd f93a 5d3d 83b3 23bd
000000c0: 8f7c c7bb d42e 8101 86d7 1f3d f9a7 453b
000000d0: 62af 793c e741 0a3b 84f3 463c 75fa 6a3a
000000e0: 0549 273c 2322 9d3a e4cd 193c 9437 a63a
000000f0: 9574 21bc c476 0b81 820c 86bc 2f5c 8a3b
00000100: c60d 44bb ea16 b83b 86e0 a33c 5a26 3439
00000110: c902 303d 1734 fabb 96dd 393d 9df0 02bb
00000120: e3c3 86bc d87a 8481 6f3f 583c ecef 0dbd
00000130: b548 9abb f5eb adbc 36f1 85bc 3f32 a5bc
00000140: ffb0 92bc c9a9 0abd 3982 06bd d6df 3cbd
00000150: 6fc8 b83b 9c7b 3881 4a24 bfbd 8ca1 c9bc
00000160: b795 89bd fdb0 3fbc f2d5 56bd 850b e6ba
00000170: b198 2cbd 2b4b e7ba e9c4 26bd 8561 733a
00000180: f127 35bc 8ec5 d601 5479 ecbc a67f 70bc
00000190: 9b1f 2ebc 8353 30bc 37f6 82bc 5af3 1cbc
000001a0: 8488 93bc 67e1 3abc 5e14 b9bc 93ef 1ebc
000001b0: 9e33 273c 4ea2 0282 a536 9abd 610f 2fbd
000001c0: 05de 5ebd e4c1 00bd 8187 5fbd 5b1c efbc
000001d0: efdf 54bd d6bc e4bc fa35 51bd 7fd2 dcbc
000001e0: 004f 013c a24a a481 0a82 d9bc 3ba6 fc39
000001f0: 218e 83bc a98c 8ebb deb8 82bc 03bd cdba
00000200: 0565 8bbc b656 0abb 79e7 b6bc 8ae7 3eba
00000210: 1869 ddbb 5c93 6301 77f0 d1bc 1d48 94bc
00000220: e038 0bbc b0b9 8bbc 56df 56bc 1953 9fbc
00000230: 177f d4ba 8417 edbc 426d 33bb 9909 06bd
00000240: 866b 6cbc f810 c581 d835 24bd d5b2 41bc
00000250: 6069 5cbc 38e6 c4ba c35d b6bc f3fe 2a3a
00000260: 5356 c6bc 6198 383b c476 bcbc 9df8 1a3c
00000270: 1fdc 2ebc c4a3 a881 8613 033c be6c b53a
00000280: cb03 da3a 373d 523a 097f 103b b28c b038
00000290: 67a5 e23a 9964 1d39 dedc f63a 7535 e238
000002a0: dbfa d53c 38a7 ae81 209f 24bd e754 02bc
000002b0: f07d cebc 5cd4 a8bb 58cc b4bc 0204 30bb
000002c0: 1ff4 9fbc b307 90bb 9f4a a6bc 5f08 6abb
000002d0: e3a8 b33c f834 0601 ebe1 3239 940a 923a
000002e0: ab94 c738 9a09 37b8 78ce 7338 efe0 24b7
000002f0: 4bea c838 96d2 9438 958e b838 ead9 5a39
00000300: 706b 1bbb 141a 8d01 7d52 753d acf5 6bbd
00000310: 7f08 0d3d 12af fbbc c494 923c 3eae 88bc
00000320: 8ab4 113c eb76 28bc f84b 68bb 7962 4dbb
00000330: b061 353c 485f b400 6b1a c2bd 1508 76bd
00000340: 4556 75bd df47 4fbd 7a33 44bd 0817 37bd
00000350: 976d 1fbd 2f8a 21bd db9a 0bbd 69f9 13bd
00000360: 83c0 6bbc 5e37 0502 45cc c3bc 97b3 af3b
00000370: 120a d03b 59d5 e0bb b201 ec3b 7d8a 76bc
00000380: 3de7 1e3c 0362 b5bc 790d 9abc 7459 893b
00000390: 4e76 393c f6d4 8c81 5029 d7bb cf94 c5bc
000003a0: 0172 983a 25f1 b7bc c8e6 80ba 2c04 a8bc
000003b0: bac7 85b9 849b a5bc 2150 28bb fdbd 98bc
000003c0: f4b9 3b3c b04a 7a80 a6f7 d4bd 6804 8cbd
000003d0: b03d 99bd 0cf7 5bbd 1437 86bd 433d 4abd
000003e0: 68f0 68bd 64a3 37bd 02e5 53bd de07 25bd
000003f0: 676f 68bc 00e2 0100 38de f0b7 4ad0 0fb8
