neuraloperator/examples/para/fno_para_202305121618_001002003004_modes36_epochs250.pth (torch, 812179 bytes, 31 tensors)

convs.bias f4 [4, 32, 1]
00000000: b5cc 3ebc f1f6 063c 8025 e3bb a56b 013c
00000010: 5986 df3b 76c6 103d 0b81 063c 9b9c 053c
00000020: d7fc 123c d4c8 80bc d9c8 c23b 404f 113c
00000030: 9a9d 3b3b d6a3 deba 8484 cd3c 168a 373b
00000040: d303 c6bb ee47 713a ef4f 0d3c 7406 31ba
00000050: 51e5 053b fdda feba f0b0 8e3b 95d2 023c
00000060: 433b d53b 7bc9 1bbb bdd0 fa3c a363 b0ba
00000070: 2f05 9d3c 103b 2739 29b6 49bc 9b3c 183c
00000080: 09c3 6ebc fef4 0a3c aca0 b5bb f65e e33b
00000090: af59 123c ca18 cf3b 8221 1c3c a5da 183c
000000a0: 278f 1c3c 5238 62bc 92f0 213c 9f38 d5bb
000000b0: cba5 2ebc 7a5a 18bc 8a11 d23b 0b78 5abc
000000c0: 3509 03bc 1d2f 36bc e453 fc3b 494b 0fbc
000000d0: de04 e63b 9ff7 aebb 6a32 b5bb fddd 1b3c
000000e0: 002b f83b ae89 58bb d6db a93b e7eb 4fbc
000000f0: bd4f e1bb a187 75b8 a201 0ebb dd95 153c
00000100: 6cf1 73bc 5506 f93b 9597 2fbc 3496 183c
00000110: 55b9 c43b a888 843b 4dca 153c aec9 223c
00000120: ef90 273c 5d0e 70bc 357a 303c fc1d f2bb
00000130: 0b7f c8bb d65e c5bb 7a57 063c 3761 b7bb
00000140: 2fac ccbb 945d cabb c404 223c 68eb 25bc
00000150: da0f eb3b 6a38 aabb 6ae9 36bc 015c 113c
00000160: b793 103c cdf4 39bb ee83 953b 842e e4ba
00000170: 5062 a4bb c583 09ba 1c39 90bc 0feb 313c
00000180: 659d 72bc 9f06 213c 5a24 06bc b17f 123c
00000190: e199 153c be3c 6c3b 8565 203c c9e8 0f3c
000001a0: c5c5 0b3c 3256 debb 002b 0e3c 6d46 11bc
000001b0: e9cb 2dbb fc1e 27bc ea2b 093c 38b2 0cbc
000001c0: 8aec 12bc b769 0fbc 7f3a 213c 0361 14bc
000001d0: a60a f63b acdb 28bc 56d7 23bc 0d10 0e3c
000001e0: a7f3 0b3c be55 32bc ed07 843b 2596 d23a
000001f0: c30d 29bc 8381 0abb 99f6 16bc bc1c 303c
-0.011645486 0.008237586 -0.0069319606 0.0078992 0.0068214354 0.035345517 0.008209477 0.008155013
0.0089714145 -0.015720762 0.005944353 0.008868992 0.0028627873 -0.0016986083 0.025087602 0.002800589
-0.0060429364 0.0009204139 0.008625015 -0.0006752976 0.0020430873 -0.0019443926 0.0043545887 0.007984777
0.0065073087 -0.0023771215 0.030617112 -0.0013457428 0.01916751 0.00015948364 -0.012311497 0.009291793
-0.014572867 0.008481262 -0.005542835 0.0069388105 0.008932515 0.0063200938 0.009529473 0.009329473
0.009555615 -0.013807373 0.009884017 -0.006506994 -0.010659645 -0.009298915 0.006410782 -0.013334285
-0.007997801 -0.011119631 0.00770043 -0.008745977 0.007019623 -0.0053395773 -0.0055296915 0.009513375
0.0075734854 -0.0033041048 0.005183677 -0.012690521 -0.0068759606 -5.8538866e-05 -0.0021668454 0.0091299685
-0.014889102 0.007599632 -0.010717292 0.009313155 0.0060035386 0.004044611 0.009142471 0.0099357795
0.010227426 -0.014651862 0.010771324 -0.0073888283 -0.0061186603 -0.006023268 0.008199567 -0.0055963057
-0.006246112 -0.006175706 0.0098888315 -0.010126926 0.0071735205 -0.0051947134 -0.011164049 0.008872033
0.00882428 -0.0028374672 0.0045628464 -0.0017408882 -0.0050166026 -0.00052457704 -0.017605357 0.010859265
-0.014808034 0.009828239 -0.008187378 0.008941577 0.009130926 0.0036046947 0.009789829 0.008783528
0.008531039 -0.0067851776 0.008677244 -0.0088668885 -0.0026519245 -0.010200258 0.008372286 -0.008587413
-0.008967528 -0.008753232 0.009840607 -0.0090563325 0.0075085936 -0.01030628 -0.010000071 0.008670819
0.008541978 -0.0108847 0.004029265 0.0016066475 -0.010318222 -0.0021134324 -0.009214067 0.010749038

convs.bias_bc f4 [4, 32, 1]
00000000: 7396 30ba 78a8 323a 5876 a6ba 89bb f439
00000010: b51c c2ba 88c9 7b3a 3316 ca3a 018c c5ba
00000020: 9c30 093a c0e4 293a a50f fc39 7bf5 62ba
00000030: 8680 8339 6229 213a 4033 0abb 774f 263a
00000040: b317 4b3a 48f4 deb9 e254 9c3a ef26 e039
00000050: 0881 89ba 86ab 8eb8 1e87 883a 1be8 deb8
00000060: c146 66ba 8dc4 41ba 1c6e 59ba 8b14 613a
00000070: 5340 caba 4d38 c93a 194d 493a 5b76 31b9
00000080: b147 bf3a bcef 82ba 8d91 cdba f3ac 8d39
00000090: 1614 c6b9 299f 283a 49b3 46b9 62fa 8aba
000000a0: c924 54b9 cf89 6ab9 f64f 343a a2b2 9a39
000000b0: 54e7 653a 1b5c f339 6c70 ceba eb0e d23a
000000c0: a448 cd3a e1a1 e5ba 454e d2ba 3487 7bba
000000d0: 452c adb9 426c 1a3a 13cf 91ba 23d8 643a
000000e0: 625e 9739 58a0 b8ba a497 573a 2682 25bb
000000f0: 731f 16bb 948a 453a e767 7cba 6f38 dc39
00000100: 7443 5aba 7188 5939 dd05 8139 1c51 7eb9
00000110: d5b4 a2ba d195 70ba 8a68 853a 5afa b93a
00000120: 52d8 dd39 b494 7f3a db24 a93a 51cc 00ba
00000130: b00f 0aba 885f 1db9 e4aa f439 5aa1 b03a
00000140: 6974 a63a 4da9 a63a eda1 793a 2751 eeba
00000150: 3709 92b9 8686 98b8 cb22 1338 bc2a 80b8
00000160: 4913 b6ba abde 4e3a 8324 5d38 6d7f 5eba
00000170: 4f20 163a f93f b13a b57a 75b9 7248 d039
00000180: d993 9439 aed5 dfb9 a526 84ba 335f 7e39
00000190: dd4c a73a cd4b 09bb 29a7 04b8 8f80 43ba
000001a0: c4c3 fc37 8b80 0a3a fd59 a8b9 a0c7 013a
000001b0: 782f b4ba e5aa a739 6a47 c139 9746 a1b7
000001c0: c066 9dba 03c8 7039 fe57 9e3a 4bc8 58ba
000001d0: 31f4 13bb 7b18 8cba 01f1 623a 8ad9 853a
000001e0: da3e 88ba 8f4c 91ba e567 87ba 97af 183a
000001f0: 0d67 133a 8226 3639 0426 b73a 1403 7f3a
-0.0006736286 0.0006815265 -0.0012700064 0.0004667903 -0.0014809581 0.00096049206 0.0015417993 -0.0015071632
0.00052333786 0.0006480925 0.00048076842 -0.0008657795 0.00025082025 0.0006147829 -0.0021087676 0.00063442386
0.0007747367 -0.00042525143 0.0011927153 0.00042753617 -0.0010490725 -6.8030364e-05 0.0010416245 -0.00010629018
-0.0008784347 -0.0007391654 -0.00082943006 0.000858613 -0.0015430547 0.0015351862 0.000767903 -0.00016924126
0.0014593509 -0.0009989659 -0.0015683636 0.00027022473 -0.00037780468 0.0006432408 -0.0001894954 -0.0010603184
-0.00020231599 -0.00022367317 0.000687837 0.0002950626 0.00087701273 0.00046417196 -0.0015750057 0.0016026174
0.0015661907 -0.0017519557 -0.0016045055 -0.0009595037 -0.00033030115 0.00058907655 -0.0011124335 0.00087297166
0.00028871285 -0.0014085872 0.00082241953 -0.0025254576 -0.0022906929 0.00075356034 -0.000962852 0.00042003716
-0.00083260913 0.00020745561 0.00024609166 -0.00024253543 -0.0012413511 -0.0009177598 0.001017825 0.001418899
0.00042313576 0.00097496365 0.001290466 -0.0004913258 -0.000526662 -0.00015008275 0.0004666663 0.0013475821
0.0012699488 0.001271525 0.0009522725 -0.0018182144 -0.00027854156 -7.272982e-05 3.5079935e-05 -6.1114755e-05
-0.0013891245 0.00078914565 5.272451e-05 -0.0008487616 0.000572686 0.0013523094 -0.00023410733 0.00039726828
0.00028338915 -0.00042693078 -0.0010082318 0.00024258792 0.0012763996 -0.0020949722 -3.1626932e-05 -0.00074578164
3.0131901e-05 0.00052834366 -0.00032110504 0.0004950706 -0.0013747057 0.00031980049 0.00036865036 -1.9225567e-05
-0.0012008771 0.00022962694 0.0012080667 -0.0008269592 -0.002257597 -0.0010688448 0.0008657128 0.0010211926
-0.0010394708 -0.0011085438 -0.0010330646 0.0005824505 0.0005622961 0.00017371218 0.0013973122 0.00097279367

convs.weight.0.tensor f4 [32, 32, 18, 2]
00000000: 4f75 02bc a29e e281 95f2 e13a 9cfc e33c
00000010: b33e e93a 47d3 473c c955 663b c6ae f03b
00000020: 436c ae3b db78 483a 8b7f fe3b 16d8 fcba
00000030: 8ae2 4e3c af0c 15bb d200 903c b94f d5bb
00000040: 1f36 f03c 23e9 35bc f15b a03c f3e0 0cbc
00000050: 815a 8f3c 4f3f fbbb 5535 3f3c 60ad 14bc
00000060: 731d 233c 33b5 39bc 6264 7c3c 763e a2bc
00000070: 4e5b dd3c 8998 e2bc f36b 3b3d 9c64 18bd
00000080: cbc3 9b3d 13c4 3fbd 6dcd c23d 7d87 2abd
00000090: 778a 633c 3ac5 e701 5fd1 a73c 9c49 d6bc
000000a0: ace8 8c3c 4ea5 2dbc 7b8e a03c 7896 14bc
000000b0: 742f be3c cc11 eebb 1738 cb3c bf50 b7bb
000000c0: 2751 1b3d 0f36 cdb9 46db 173d 7184 c339
000000d0: 37cc 273d 43ee 31bb a503 a53c 05d2 15bb
000000e0: caba 863c 2132 52bb 5db6 5f3c c781 acbb
000000f0: 6c1a 4e3c 9ca9 e6bb edb1 883c 83ce 04bc
00000100: c37b bb3c 45b0 0cbc 82e8 083d afca 16bc
00000110: 2a57 513d d35f 5ebc 6d8a a23d f359 8fbc
00000120: 35e3 51ba a85c 7801 1fd2 063d 9d4f 37bd
00000130: eccf b63c 61fb 65bc ae85 9c3c 77ab c4ba
00000140: c266 a83c bd25 f7ba 978f af3c d69a 8fbb
00000150: 0260 033d f8bf 743a 08e0 053d f1ff 413c
00000160: eb00 d93c 74ef 033c 632f 933c ac09 723c
00000170: 3991 0f3c 3f9f 313c 6eb6 2b3a 704b c63b
00000180: 011a a0bb 1ba4 a83b bb61 23bc 7804 1a3c
00000190: 4166 98bc 93fa 853c cb8c 1cbd 3908 c33c
000001a0: 7cf3 babd 1e0c d63c aaf6 00be 84f8 0c3d
000001b0: 95e8 513c f015 5b01 1d02 ce3c 24ed f6bc
000001c0: 930a 983c bba7 a1bc 9d6f aa3c b76c a0bc
000001d0: 32c2 ca3c 7457 95bc 1946 cd3c 0ce5 92bc
000001e0: 5f28 333d 0fea abbc bbee 2a3d fa5c bdbc
000001f0: 5130 2c3d bb39 aebc abea c63c e63b f7bb
00000200: 0347 9d3c 6ac7 0fbc c571 673c d407 19bc
00000210: dd4a 413c 9d82 2fbc fbff 713c bb4a 47bc
00000220: 6024 a13c b855 72bc 1987 d73c e9a7 9bbc
00000230: cb94 193d 2a33 01bd 9f26 833d dc02 46bd
00000240: b4c1 5d3c 4d0d 1482 ad27 e93c a47c 1f3c
00000250: 3c20 8c3c bbc2 733c cdbe 933c 020e 463c
00000260: 8214 9a3c a038 243c c73f 8f3c 0c77 163c
00000270: f572 013d 7025 993c d595 d93c 13a4 9e3c
00000280: 0489 b93c 7a40 8c3c ba1e 563c 0408 0d3c
00000290: 1dc5 2a3c 7055 fb3b ad82 2c3c c1e7 b13b
000002a0: 35ba 2a3c de61 a13b d3ea 423c 8473 b23b
000002b0: 634b 4e3c b0fc d33b 1083 6c3c d7e4 053c
000002c0: 40ec b23c a83f 473c 232b 4c3d f2ea cc3c
000002d0: a09e 023d ccb0 6e81 622d 4cbe 06c9 0abe
000002e0: d197 afbd e3d3 2a3d 5cb2 b7bc a4e7 7f3c
000002f0: 828c 3dbc f8e5 dd3b 90f6 ddbb 6444 863b
00000300: a083 aebb 28f5 d03a 637d a8bb eebe 0d3a
00000310: 5f91 ccbb cd8b 4cba 9288 b4bb d56c 153b
00000320: 396a 55bb e9d6 3f3b 4d09 4abb 09e8 133b
00000330: 86c7 62bb a961 c73a f44e 77bb 8a2a 9a3a
00000340: b767 85bb 84f8 c43a e2ba 8abb 2a39 143b
00000350: 4ab9 00bc af81 373b aed5 7dbc 3353 a93c
00000360: 252e 553c 6896 1b81 aa1a bc3c a22c 753c
00000370: 32ce 8b3c db4c a33b aa33 a53c 682d e4b9
00000380: 708b aa3c 0923 01ba 6fab b33c 5fe1 873a
00000390: f7fc 153d 17ea 5d3c e612 053d d9a1 6e3c
000003a0: 8a6b e13c a89e 4a3c f424 5c3c a1f9 103c
000003b0: dc70 2e3c 96c2 043c c866 2d3c f325 b03b
000003c0: 80be 1d3c 4036 893b c242 2d3c 9e9d a23b
000003d0: 0790 3f3c c9b3 c23b 4419 643c 5697 f13b
000003e0: 5527 c03c d01c e13b f1ea 5a3d 124c 22ba
000003f0: dd3b 4e3c e8f4 5a00 1879 993c b362 f4bb
-0.007962539 -8.3246915e-38 0.0017238433 0.027830414 0.0017795175 0.012196369 0.0035146347 0.0073450534
0.0053229644 0.00076474034 0.007766669 -0.0019290473 0.012627253 -0.0022743156 0.017578516 -0.006509748
0.029322682 -0.011102947 0.019575091 -0.008598554 0.01749921 -0.007667459 0.01167043 -0.009074539
0.009955752 -0.011334705 0.0154047925 -0.019805174 0.027021077 -0.027660625 0.045757245 -0.037205324
0.07605704 -0.04681785 0.09511838 -0.041633118 0.013887993 8.5139005e-38 0.020485578 -0.026158147
0.01720079 -0.010598494 0.01959919 -0.009069078 0.023215987 -0.007265305 0.02480702 -0.0055943425
0.03791919 -0.00039140924 0.03707435 0.00037291975 0.04096624 -0.0027150072 0.02014334 -0.0022860777
0.01644649 -0.0032073336 0.013654319 -0.005264494 0.012579542 -0.007039262 0.016686404 -0.008105877
0.022886163 -0.008586948 0.03342486 -0.009203597 0.051108517 -0.013572651 0.07936559 -0.017498946
-0.0008006574 4.5616884e-38 0.03291523 -0.04475366 0.022315942 -0.014036984 0.019106712 -0.0015004714
0.020556811 -0.0018855851 0.021430774 -0.0043824716 0.032073982 0.0009336467 0.032684356 0.011840806
0.026489696 0.008052696 0.017966932 0.014772814 0.008762651 0.01084119 0.00065503165 0.0060514733
-0.0048859124 0.005146516 -0.009972031 0.0094004795 -0.018603446 0.016354835 -0.03822021 0.023807632
-0.09128472 0.026128825 -0.12594095 0.03441669 0.0128117995 4.0239687e-38 0.025147492 -0.030142374
0.01855973 -0.0197333 0.020805174 -0.01958309 0.024750803 -0.018230177 0.02505784 -0.017931484
0.043739673 -0.020985631 0.041731577 -0.023115624 0.042038266 -0.021267762 0.02428182 -0.0075449822
0.0191989 -0.008775571 0.014126246 -0.009340245 0.011797634 -0.010712293 0.014770503 -0.012163813
0.019670665 -0.014790945 0.026309537 -0.019000964 0.037495416 -0.031542934 0.06403851 -0.04834257
0.013534952 -1.087714e-37 0.028461302 0.0097343065 0.017105214 0.01487797 0.018035317 0.012088301
0.018808607 0.010023266 0.017486466 0.009183656 0.031603772 0.01869461 0.026560703 0.019365346
0.022648342 0.017120589 0.013068849 0.008607868 0.010422972 0.007670097 0.010529202 0.0054292385
0.010420372 0.0049249968 0.011896807 0.0054458994 0.012591216 0.0064693317 0.014435545 0.008172235
0.021841168 0.012161173 0.049845826 0.025014374 0.031889558 -4.3840542e-38 -0.19939187 -0.13553247
-0.085738786 0.041705977 -0.022423916 0.015619192 -0.011569144 0.006771799 -0.0067737773 0.0040975083
-0.0053257495 0.0015942203 -0.0051419004 0.0005407174 -0.0062429155 -0.00078028144 -0.0055094445 0.0022800465
-0.0032564534 0.0029272384 -0.0030828298 0.0022568724 -0.0034603789 0.00152116 -0.0037736269 0.0011761945
-0.0040712017 0.0015027677 -0.004233704 0.002261708 -0.007856676 0.0028000881 -0.01549284 0.020669555
0.01301149 -2.8576915e-38 0.022961933 0.014964255 0.017066095 0.004983527 0.020166237 -0.0004352138
0.020818442 -0.000492618 0.021932332 0.0010366848 0.0366182 0.013544581 0.032488726 0.014564955
0.027517099 0.012366928 0.013436545 0.008848579 0.010647025 0.0081030335 0.010583587 0.0053756176
0.009627938 0.0041873753 0.010574998 0.004962637 0.011692054 0.005941842 0.013922039 0.007372777
0.023456255 0.00686989 0.053446714 -0.0006191145 0.012587515 8.35305e-39 0.0187345 -0.007458055

convs.weight.1.tensor f4 [32, 32, 18, 2]
00000000: f1d8 20bc 1811 0301 9cdd 0d36 91ab e23c
00000010: dbcb 29bb 220e a53c 3527 2ebb 1e7c a63c
00000020: a0c0 863b 7ecc 5a3c 883d 1c3c bf19 483c
00000030: 7157 b73c 6b61 d63c e003 de3c ebf6 d73c
00000040: 0689 3d3d 0723 aa3c 386a da3c ecb2 813c
00000050: 22b9 b73c 86b4 5e3c ee26 943c 91f1 bf3b
00000060: 4e94 913c 7833 7aba 32c4 0f3d 394a b4bb
00000070: ce4a 693d 73ec 9cbb cca1 b13d 9f83 6f3b
00000080: 6ca1 db3d eceb b53c 9db3 d13d 1f11 f23c
00000090: 1b29 4e3c b857 0901 be7f 7a3b 6079 a6bc
000000a0: 9467 583c 3aa7 743b 70dc 9e3c b41d 223c
000000b0: 05f5 c43c 487f 833c 9d79 ca3c 4320 963c
000000c0: 694c 1a3d 4d6f 253d 94ec 0e3d 93dd 373d
000000d0: 3899 183d 5a45 2f3d ecb1 903c fd47 043d
000000e0: 1468 723c c74c d53c 2bce 563c bfd2 943c
000000f0: 9c1b 5c3c f5b3 553c 66b7 a03c 6781 863c
00000100: 1f9d d03c 4255 ae3c 55b1 173d a295 f83c
00000110: 270c 433d 5476 233d 72d8 843d 8e92 333d
00000120: 2834 5bbb 684f c101 d049 cdba a1ac 2cbd
00000130: d817 c43c 01e3 84bc b6bc e33c 49f8 bdba
00000140: 7ccb 063d 6176 5c3b 355e 1a3d 31ca fa3a
00000150: 6451 d23c ca9a 07b9 a605 ae3c b4de 753c
00000160: 3472 b93c 2afa 0a3c 002d 5e3b 17a1 af3c
00000170: 4260 4abb e59f 4d3c a08c 05bc 6369 e23a
00000180: eec5 7fbc d900 96bb 7faa f1bc ec2f b5bb
00000190: 64df 4cbd ce0d 03bc 6d77 a2bd d41f a1bc
000001a0: fc4d 15be 9dab 98bd 6d76 3abe 3576 ebbd
000001b0: fc1e 533c d04f 6e80 c57f a73b 4e69 ecbc
000001c0: 2761 843c 7a66 91bc d02f c43c c1e7 c5bb
000001d0: 1714 073d 15ca 193a 312b 0f3d 6736 513b
000001e0: a761 6c3d 2b0a 933c 2fe8 633d bda7 a93c
000001f0: ef1f 4d3d ea38 883c e0fc d53c 8a4c d73c
00000200: 65a4 bc3c da24 953c 592a 8f3c 2110 343c
00000210: a020 863c 1cd0 c43b 2ada b23c cd08 b93b
00000220: 968b ef3c a939 bb3b a493 1d3d c33f 873b
00000230: bf73 383d 415b d2bb 64ed 593d 280e a0bc
00000240: 1a81 3e3c 6c64 5601 fbdb b83c b830 543c
00000250: 1c5d 853c 410c 923c d916 8b3c 00af 813c
00000260: e688 5e3c 049d 903c f383 3a3c 694a 8f3c
00000270: b5d9 873c 950e 2a3d 733c 503c 5478 2e3d
00000280: 9438 193c 7bc5 303d fb91 743b 6559 d63c
00000290: 89a0 6c3b 3005 c23c ea69 a93b a291 9d3c
000002a0: 45f3 c03b 9aad 803c 48ca ca3b 4a8c 6f3c
000002b0: 99ef da3b 7ec4 833c 3ab1 e93b 5856 8f3c
000002c0: 32cb 213c d91d 923c 0f3e c13c 04f7 083d
000002d0: 83d2 1b3c 6040 7500 fa18 a33d 799d b93d
000002e0: c471 e53c 995e 763d af1d 7b3c fb73 683d
000002f0: 61d9 7c3b 0213 553d 2a30 f2ba a31f 4b3d
00000300: 9505 e33b d7d6 723d 0dde 93ba fb9a 523d
00000310: a2cf b4bb 0db4 473d 4366 85bb 830b 6c3c
00000320: 65b6 b8ba a0cd 353c a77b 893a 2b75 303c
00000330: 36d9 4b3b 953a 4f3c 5a6d 043b 831e 313c
00000340: cda3 113b 9b43 f53b 7089 063b e839 f33a
00000350: a7cc 633c 015f 403b 101d b73d 7caf a23d
00000360: 4b7f 4c3c 701c 5d01 d3d5 a03c ea5c 623c
00000370: 98b3 843c 4018 2c3c 57f3 9f3c 3132 503c
00000380: b8be 953c 00fc 833c 2db6 933c 712e a23c
00000390: 1551 c03c 18d5 2a3d c66a a43c 466e 313d
000003a0: 562e 7c3c bcf4 303d d9a8 7c3b 6739 e03c
000003b0: 0a62 903b 41ae c53c da71 bc3b 64f3 983c
000003c0: 2692 a13b c302 843c 188d 953b 3ce7 7f3c
000003d0: 87a2 643b 67ff 953c e4cd 933b 7499 9f3c
000003e0: 776c 353c 88d7 a63c 2700 fd3c 26ff a53c
000003f0: 6638 4b3c dae2 9d81 9ee2 db3b c366 7ebc
-0.009817348 2.4073164e-38 2.113963e-06 0.0276697 -0.002590886 0.02014834 -0.0026573662 0.020322856
0.004112318 0.013354419 0.009536155 0.01221317 0.022380562 0.0261695 0.027101457 0.026362857
0.046273254 0.020768655 0.026661977 0.015832387 0.022427145 0.013592845 0.01808497 0.0058576544
0.017770912 -0.00095444126 0.035099216 -0.005502012 0.056956105 -0.004788929 0.086734384 0.0036546958
0.10724148 0.022207223 0.10239337 0.02954918 0.0125830425 2.522586e-38 0.0038223113 -0.020321548
0.013208289 0.003733112 0.019392222 0.009894777 0.024042616 0.016051903 0.024716193 0.01832593
0.037670527 0.040389348 0.034893587 0.044889044 0.037255496 0.04279075 0.017662965 0.032295216
0.014795322 0.026037587 0.013110678 0.018166898 0.013434317 0.013043393 0.019618701 0.016419126
0.025465546 0.021280888 0.03703435 0.030344788 0.04761901 0.03990777 0.06486596 0.043840937
-0.0033447836 7.1010945e-38 -0.0015662257 -0.04215682 0.02393715 -0.016221525 0.027799945 -0.001449355
0.0329089 0.0033639895 0.0376875 0.0019133744 0.025673576 -0.00012932267 0.021242928 0.01500671
0.022637464 0.008482495 0.0033901334 0.021439118 -0.0030880128 0.012550329 -0.008151203 0.0017273839
-0.015611155 -0.004577738 -0.029500244 -0.0055293944 -0.05001773 -0.007998897 -0.07932935 -0.019668497
-0.1458053 -0.07454608 -0.18209238 -0.114971556 0.012885805 -1.0130536e-38 0.005111667 -0.028858807
0.016159607 -0.01774906 0.02394858 -0.00603959 0.032978144 0.00058665994 0.0349533 0.0031923295
0.057710316 0.017949184 0.05564135 0.020709867 0.050079282 0.016628701 0.026121557 0.026281614
0.023027608 0.018206049 0.017476248 0.010990174 0.016372979 0.006006254 0.021832544 0.005646801
0.029241364 0.0057136607 0.03847088 0.004127474 0.04503226 -0.0064195697 0.05320491 -0.019538
0.01162746 3.9377642e-38 0.022565832 0.012951069 0.01627975 0.017828109 0.016978668 0.015830517
0.013582444 0.017652996 0.011383998 0.017491536 0.016583303 0.041517813 0.012709725 0.042595223
0.009351868 0.043157082 0.0037318456 0.026165674 0.0036106429 0.023684114 0.0051700966 0.019234482
0.005888375 0.01570778 0.0061886646 0.01462085 0.0066813943 0.016084906 0.0071317228 0.017497227
0.009875106 0.017836498 0.023589162 0.033438697 0.009510639 1.0767846e-38 0.07963748 0.09063239
0.02800835 0.06014881 0.015326901 0.056751233 0.0038581716 0.05202008 -0.0018477489 0.049590718
0.0069281557 0.05928692 -0.0011281386 0.051417332 -0.005517916 0.048755694 -0.0040710284 0.0144070415
-0.0014092444 0.011096388 0.0010489122 0.0107701225 0.003110481 0.012648244 0.002020678 0.010810497
0.0022222877 0.007484866 0.0020528696 0.0018556686 0.013903773 0.0029353502 0.0894109 0.07943627
0.012481521 4.0611692e-38 0.01963321 0.013816098 0.016198918 0.0105038285 0.019525213 0.012707279
0.018279418 0.016111374 0.018031204 0.019797536 0.023476163 0.04170713 0.020070445 0.043318056
0.015391907 0.043202147 0.003855279 0.027371122 0.0044062184 0.024130942 0.005750877 0.018670745
0.0049307523 0.016114598 0.004563939 0.015619095 0.0034886913 0.018310262 0.004510628 0.019482352
0.011073223 0.020366445 0.030883862 0.020263266 0.012403583 -5.799821e-38 0.0067103645 -0.01552743

convs.weight.2.tensor f4 [32, 32, 18, 2]
00000000: c07a 16bc 68a9 f000 7216 613a 91ee f63c
00000010: 5484 03bc 00ff d13c 0b42 61bc f16e da3c
00000020: 9f84 91bc 320a 633c cbca a7bc 20fa c43b
00000030: 5c6f 28bc 0d4a ce3c bded 89bc 4ed6 a63c
00000040: ba6d afbc 4bd7 573c 6fe9 85bc 523d 613b
00000050: abf3 87bc 2287 b63a 7223 63bc cd77 d23a
00000060: e561 49bc bb30 9f3a 6af3 20bc 696b 90ba
00000070: 3093 cabb ee94 0fbb 9a63 9339 0ace 4dbb
00000080: dd55 e83b 858d 7abb 2d64 c23c 9c8d 383b
00000090: ac1f 543c 1a63 b101 f02f 4abb 5374 64bc
000000a0: 3525 7d3a 456a 7d3b 9aed 7a3b 8888 c43b
000000b0: a6b7 523b ea94 f43b 1366 9739 90eb db3b
000000c0: ac9b 82ba 8d0e e03c 0241 4fbb e910 c33c
000000d0: d731 8cbb f5be a43c 9db5 bbbb 02dd 2d3c
000000e0: 9107 b0bb 9aab 1a3c 5e8c 54bb e0de ff3b
000000f0: 8956 8abb 0d58 dd3b 6ba9 aabb 425d f33b
00000100: 1645 83bb 6249 113c f4ab 44bb 8bec 3b3c
00000110: fc8f 6e3b 3e0e 7f3c e1eb a83c d026 e23c
00000120: 6bd4 fabb 7807 0480 80d6 4bbc 9f1a 36bd
00000130: fef0 3e3c e39c b4bc 5a16 913c 84da 89bc
00000140: 3906 ea3c 4101 4abc 5c9d f73c 77c3 5dbc
00000150: 3816 983c 008e 05bd 9c1b c63c cdd3 f1bc
00000160: be2d 063d 2c16 ddbc 5e0e 9b3c edd3 493b
00000170: cb7b 873c 3204 c5ba 03d1 2b3c bc11 e7bb
00000180: b0d3 a83b ad8a 62bc 08df 353b 5161 a4bc
00000190: 1d31 8eba 30e4 d0bc 06bd 31bc f68e f6bc
000001a0: 03a4 29bd 5c5b 08bd b304 a4bd 40c4 803c
000001b0: 6595 463c 451f 1302 001e f1ba 30b2 b7bc
000001c0: 1517 df3a 713e 1dbc abf4 993b 1f46 23bc
000001d0: b9f4 1f3c 3acf 02bc e749 303c 68f6 0fbc
000001e0: 50aa 2c3c 5300 c43b fdf5 1a3c a385 0a3b
000001f0: 2189 de3b 9ed5 81bb 65e4 8d3b 7199 053c
00000200: 7c6a 9a3b ca24 623b c267 203b 9894 d03a
00000210: 01ec 373b 89d8 13ba 7442 553b 78ca 7abb
00000220: 91ca cf3b 8a86 eebb 8c4e ae3b 1865 50bc
00000230: 0059 653b 088c afbc d220 8e3b 1ec4 ebbc
00000240: 9fe7 563c 8097 bc00 f748 ad3c 6fe3 513c
00000250: 8f77 163c 0386 3c3c 3955 be3b 017a a53b
00000260: cdf5 9e3b 0914 4c3b 915c 963b 5101 dc3a
00000270: 0bbc d9ba 3ca4 893c 697b 94bb 9118 5f3c
00000280: 0980 8abb 2971 d63b 1af5 5dbb f1dc a83b
00000290: 302d 0ebb 865d 893b e4ca 20ba 9ed0 7f3b
000002a0: 598e 8cb9 2a25 3a3b e68c 7cba 4dff 2fba
000002b0: 72c7 f0ba dc0c 8fbb ca10 85bb 5834 1abc
000002c0: c1d5 dcbb ff7e 7bbc 621a 4bbb 5b2a 3fbc
000002d0: 8b61 1d3c 90da 7100 441c 0b3d ff4c 4b3d
000002e0: c562 713c d946 133d aeef 7f3b ee62 103d
000002f0: 85b6 f4bb e642 ed3c 6ce4 39bc 2ba7 cc3c
00000300: 23f8 38bc a558 183d 34c7 6cbc 05cd 023d
00000310: f675 90bc 9c5f da3c 4fb8 44bc c510 b93b
00000320: b545 21bc cf32 bf3b 4eab dabb c6be db3b
00000330: 09e0 80bb cc4b 1d3c 4bf2 82bb 1b3b 0d3c
00000340: 496b 56bb 8894 e63b 343d 6cbb 4a3d be3b
00000350: bdcb c43a d69b 433c e1c3 133d 4a73 723d
00000360: 3217 453c 00c4 ad80 ed9d a03c cb82 543c
00000370: 3a9e 443c baee c43b 80b6 1a3c a9ae ae3b
00000380: a4f9 cb3b a5b6 e23b b19f f43b 4485 c03b
00000390: aae5 a739 ff6f aa3c 023c 90ba 9509 993c
000003a0: e0ac dfba ec3d 603c 58cf b1bb f5c1 233c
000003b0: 7d3d 60bb 6650 033c af0a 20bb 18a9 d33b
000003c0: a794 18bb 8a2b 9d3b 4630 bebb b4b9 2c3b
000003d0: 41c7 ebbb b792 67b9 ede1 19bc 0830 48bb
000003e0: 09b1 19bc 0c43 e2bb a097 3bbb 35d1 0cbc
000003f0: 8812 343c 3870 0900 f0dd 603b 1ff6 62bc
-0.009184539 2.210129e-38 0.00085864135 0.030143054 -0.008027155 0.025634289 -0.013748656 0.02666423
-0.017763434 0.013857411 -0.020482441 0.0060112625 -0.010280456 0.025181795 -0.016836995 0.02036586
-0.021414626 0.013173888 -0.016346661 0.0034368825 -0.016595682 0.0013925771 -0.013863431 0.0016057432
-0.012291406 0.001214526 -0.009823659 -0.0011018339 -0.006182097 -0.0021908837 0.00028112234 -0.0031403326
0.007090314 -0.0038231325 0.023729408 0.0028160578 0.012947004 6.5161735e-38 -0.0030851327 -0.0139437495
0.00096567284 0.0038668078 0.0038288594 0.005997721 0.003215292 0.007464041 0.00028877016 0.006711431
-0.0009964607 0.027350688 -0.003162444 0.023811774 -0.0042784023 0.020110587 -0.005728437 0.010611774
-0.0053719957 0.009440327 -0.0032432298 0.007808551 -0.0042217416 0.0067548812 -0.0052081845 0.0074268887
-0.0040060384 0.0088675935 -0.0030009719 0.01146997 0.003640174 0.01556736 0.020620288 0.027606398
-0.0076547167 -3.70021e-40 -0.0124412775 -0.04445898 0.011654137 -0.022047466 0.017710853 -0.01682783
0.02856742 -0.0123294005 0.030226402 -0.013535372 0.018565282 -0.032606125 0.024183087 -0.02951994
0.032758467 -0.026988111 0.01892775 0.0030796484 0.016538521 -0.0015031158 0.010486844 -0.0070516746
0.0051521882 -0.013827008 0.0027751345 -0.020065935 -0.0010848377 -0.025499433 -0.010848289 -0.030097466
-0.04141618 -0.033290252 -0.08008709 0.01571858 0.012120579 1.0808828e-37 -0.0018395782 -0.022423834
0.0017020429 -0.009597407 0.004698356 -0.009965449 0.009762936 -0.007983977 0.010759807 -0.008786775
0.010538653 0.005981484 0.009458062 0.0021136783 0.0067912494 -0.0039622327 0.0043302053 0.008154259
0.004712401 0.0034506791 0.0024475907 0.0015913425 0.0028064253 -0.0005639871 0.003254083 -0.0038267653
0.0063412865 -0.007279222 0.005319422 -0.012719415 0.0034995675 -0.021429077 0.0043374086 -0.02878004
0.013116746 1.7319421e-38 0.021152956 0.012810572 0.009183778 0.01150656 0.005808499 0.0050499444
0.004851079 0.0031139872 0.0045886715 0.001678506 -0.0016611827 0.016801946 -0.004531313 0.013616697
-0.0042266888 0.0065442515 -0.0033868016 0.0051532914 -0.0021694414 0.004192057 -0.00061337487 0.0039034258
-0.00026808938 0.00284035 -0.00096340326 -0.0006713763 -0.0018369986 -0.0043655466 -0.0040608393 -0.009411894
-0.0067393486 -0.015350102 -0.0030991067 -0.011667813 0.009605776 1.0455817e-38 0.033962503 0.049633976
0.014733021 0.035956237 0.0039052772 0.035250597 -0.007468047 0.028962564 -0.011345964 0.024982056
-0.011289629 0.037193913 -0.014451791 0.031933803 -0.017634373 0.026656918 -0.012006833 0.005647751
-0.00984328 0.0058349143 -0.006673253 0.0067060916 -0.003932957 0.009600591 -0.0039961687 0.008620049
-0.0032717756 0.0070367493 -0.0036047222 0.005805646 0.0015014332 0.01193901 0.036075477 0.05919198
0.012029456 -1.5957852e-38 0.019606555 0.012970637 0.012000615 0.0060099037 0.009442925 0.0053308797
0.006224828 0.0069187456 0.0074653258 0.0058752615 0.00032023835 0.020805357 -0.0011004212 0.018681327
-0.001706507 0.013686638 -0.0054263286 0.009994973 -0.0034216337 0.008014774 -0.002442043 0.0064593665
-0.0023281963 0.00479645 -0.0058040945 0.0026355805 -0.007195384 -0.00022084532 -0.009392244 -0.0030546207
-0.009380587 -0.0069049653 -0.002862431 -0.008594801 0.010990746 8.66776e-40 0.0034311973 -0.013852625

convs.weight.3.tensor f4 [32, 32, 18, 2]
00000000: 0ed8 2bbc f07b 0200 41cd 74ba 669e c33c
00000010: 711f 9cbb f6bc bb3c f242 1cbc c185 8d3c
00000020: 6dc4 31bc d721 ad3b d538 85bc c6ec 193a
00000030: f034 b9bc 13ca a43c 4149 dbbc 52a4 623c
00000040: 6a50 f4bc eac8 e83b cbd8 b8bc 6b55 27bb
00000050: e64a a5bc e401 1fbb 8a96 83bc 7125 40ba
00000060: 5c68 6dbc a55e eeb9 a12f 4ebc beb7 e1ba
00000070: 4269 38bc 5315 0ebb 2ed1 21bc 1c14 4aba
00000080: c40b 42bc ab31 813b dc7f a7bb c22d ae3c
00000090: 2e47 393c 6052 9881 ab4f 63bc f8c7 0fbb
000000a0: fedb c0bb 335b 1d3c c2fd 9bbb af08 303c
000000b0: 9b03 c7bb 2b9f 6d3b f24b 43bc e5b8 d53a
000000c0: ac43 6dbc f859 ba3c f892 68bc 5931 893c
000000d0: d552 52bc 46fe 263c a658 0ebc 90a6 f23b
000000e0: a7a5 ffbb 62d1 ac3b 3fda d1bb e5c4 693b
000000f0: 02a6 a7bb 5200 403b b0f1 c9bb ed50 413b
00000100: aa83 a8bb cd40 b23b 16c1 7bbb c424 043c
00000110: b9a4 05bb 476d 5f3c e838 e73b 1dc8 fc3c
00000120: 71fa 23bc e020 1581 7155 bcbc e90c 21bd
00000130: 0778 91bc 0374 e5bc 4b59 04bc f275 b6bc
00000140: b73e 9c3a 6bdb 08bc 5629 e23b 941a eabb
00000150: 7fa6 723c 18c8 4cbc 962b e63c 6d2c 4dbc
00000160: a2ac 2c3d 75c7 46bc 718b c93c b964 ee3c
00000170: 815c 9b3c 111a a23c ae57 1a3c 58c1 6c3b
00000180: ea41 303b 9645 21bc e16c 5eba 556c b2bc
00000190: 17fd b7bb 3d31 04bd 6e7f 8dbc 1aab 2cbd
000001a0: 04fd 17bd b409 5cbd 87d7 a9bd 0f95 c0bd
000001b0: f96d 5c3c d088 b180 064c 56bc 9b83 12bc
000001c0: 181e 81bc 207a 213b 3d43 63bc 052b d4ba
000001d0: 4ef8 1abc a2a5 efbb a93c cebb b2e2 35bc
000001e0: f47d dabb e030 c33b b3dd 33bb 1c8a 47ba
000001f0: 1e87 3539 a72c 1abc 92cb 163b deb9 e33b
00000200: 0667 6f3b 005b 463a f6db 183b 4984 fbba
00000210: d922 413b f987 aabb fb94 9c3b 6036 02bc
00000220: 27d7 d83b e029 5dbc 9105 ae3b 60a9 98bc
00000230: 8382 2dbb 90f7 e3bc a159 8ebc 50d5 dfbc
00000240: 3764 413c 40d5 a780 d4c7 893c 0f19 2a3c
00000250: 28c8 4c3a f3e5 633c de2f 9bbb c12f 053c
00000260: fa9a d2bb 5ffc 653a 05f1 06bc a8ca 19bb
00000270: c6f6 25bc 8713 9d3c 96ab 13bc 8975 573c
00000280: 66be f6bb 85d8 b63b ea87 8dbb f2de 023c
00000290: e39d 30bb 690a a43b 90c2 06bb c1fa 523b
000002a0: 054c fdba 2268 903a 8e5d 9cba 463c 68bb
000002b0: 29ba 1cbb ae54 23bc 512a a0bb a653 8cbc
000002c0: a284 28bc f939 cebc 8c17 85bc 8f06 eabc
000002d0: 372d e73b 540c 6001 0317 b13c 96f6 203d
000002e0: 97f5 213c 8db6 053d 2cba 7c38 c9fe c63c
000002f0: 5cdd d9bb 3cd1 303c f153 4dbc 4208 e43b
00000300: 3dc1 8cbc 70ae d33c ae86 a6bc 2b2c a93c
00000310: 1e65 b3bc d6b5 783c 9246 89bc ea98 753b
00000320: a9e0 62bc 37f2 8a3b 56f5 3bbc 4e69 b13b
00000330: 9b0d 25bc 4b5a ef3b b411 0fbc 241f ea3b
00000340: 3875 01bc a25d e33b fa57 00bc b10c f73b
00000350: c5e1 eabb c306 4a3c 5ac9 8cb9 07c5 113d
00000360: 9721 463c 6cbc 7d81 8426 553c cb38 033c
00000370: b40f 953b bc42 6a3b 86b0 6d3a cb17 dc3a
00000380: d074 e7ba f031 183b 12f9 bfbb 4382 0d3b
00000390: 3906 ddbb d047 b13c a45b a7bb 2eb4 8c3c
000003a0: d660 9ebb dfea 503c c4cb c8bb 6e3b 5e3c
000003b0: ad0d 8cbb 31e8 263c 9e64 67bb a313 ee3b
000003c0: 96ce 51bb ce9f 913b d644 e6bb e4fe de3a
000003d0: 4166 eabb b780 17bb 90fe 20bc 43a7 ddbb
000003e0: 22ca 3cbc 9c85 4dbc e6d9 6dbc 6bb5 a4bc
000003f0: 31a4 5b3c 1225 b081 df76 00bc da3e d7bb
-0.010488523 2.28131e-40 -0.00093384465 0.023879241 -0.0047644903 0.022917252 -0.009537445 0.017275693
-0.010850054 0.005283575 -0.016262451 0.0005871769 -0.02260825 0.020115888 -0.026768329 0.013833122
-0.0298235 0.007104029 -0.022564312 -0.002553309 -0.020177316 -0.0024262602 -0.016062994 -0.0007329798
-0.014490213 -0.00045465413 -0.012584598 -0.0017220897 -0.011255564 -0.002168019 -0.0098765325 -0.0007708685
-0.011843625 0.0039426885 -0.0051116776 0.021262053 0.0113084745 -5.5954184e-38 -0.013873975 -0.002193926
-0.0058856 0.009604263 -0.004760475 0.010744258 -0.006073428 0.0036258202 -0.011919962 0.0016305713
-0.014481466 0.022747979 -0.014195196 0.016747164 -0.0128371315 0.010192459 -0.008688128 0.0074051097
-0.0078017297 0.005273984 -0.006404191 0.0035670337 -0.005116225 0.0029297066 -0.0061628446 0.0029497698
-0.0051426487 0.0054398538 -0.0038414649 0.008065406 -0.0020392372 0.013636894 0.0070563443 0.03085714
-0.01000844 -2.7390565e-38 -0.02298996 -0.039318953 -0.017757429 -0.02800942 -0.00807793 -0.022273038
0.0011920546 -0.008353095 0.0069019003 -0.0071442816 0.014810204 -0.012498878 0.028096955 -0.012522799
0.042156823 -0.012132515 0.024602624 0.029100763 0.018965008 0.01978782 0.0094203185 0.0036125984
0.0026894757 -0.009843251 -0.0008484852 -0.021780172 -0.0056148875 -0.03227352 -0.017272677 -0.042155363
-0.03710653 -0.05372019 -0.08293062 -0.09403431 0.013453954 -1.6303962e-38 -0.013079649 -0.00894251
-0.01576142 0.0024639443 -0.013871011 -0.0016187137 -0.0094586145 -0.007313446 -0.0062938523 -0.011101412
-0.006667847 0.005956754 -0.0027445375 -0.00076118275 0.0001731184 -0.00941006 0.002300952 0.0069496473
0.0036529913 0.00075666606 0.0023324466 -0.0019189204 0.0029470234 -0.0052041975 0.004778502 -0.007947534
0.006617445 -0.013498753 0.005310722 -0.018635452 -0.0026475496 -0.027828008 -0.017376723 -0.027323395
0.011803678 -1.5413028e-38 0.016818918 0.010381951 0.0007811808 0.013909805 -0.004735931 0.008129061
-0.006427166 0.0008773263 -0.0082361745 -0.002346674 -0.010129636 0.01917435 -0.009013077 0.013150581
-0.0075300215 0.0055800104 -0.0043191807 0.007987725 -0.0026949577 0.005006124 -0.0020562746 0.0032192918
-0.0019325024 0.0011017362 -0.0011929737 -0.0035436316 -0.002391467 -0.00996892 -0.004887857 -0.01712973
-0.010285528 -0.025174128 -0.01624658 -0.02856758 0.0070549506 4.1151147e-38 0.021617418 0.039297663
0.009885213 0.032644797 6.0254868e-05 0.024291413 -0.0066487025 0.010792073 -0.01253222 0.006958992
-0.017181987 0.025840014 -0.020327892 0.020650944 -0.021898802 0.015180072 -0.016757283 0.0037475177
-0.0138475085 0.0042403 -0.011472067 0.0054141646 -0.010074045 0.007304465 -0.008732248 0.0071448255
-0.007901482 0.006938652 -0.007833475 0.0075393547 -0.007168027 0.012330714 -0.000268529 0.03558829
0.012092969 -4.6603947e-38 0.013009671 0.008009146 0.004548991 0.0035745343 0.00090671366 0.0016791759
-0.0017658714 0.0023223124 -0.005858549 0.0021592535 -0.0067451266 0.021640688 -0.00510736 0.01717576
-0.004833321 0.01275131 -0.0061278064 0.013563974 -0.004274091 0.010187195 -0.0035307775 0.0072655245
-0.0032014004 0.004444099 -0.007027249 0.0017013219 -0.007153303 -0.0023117492 -0.009826317 -0.006764324
-0.011522802 -0.012544062 -0.014517283 -0.020106038 0.0134058455 -6.470538e-38 -0.007840841 -0.006568772

convs_bc.bias f4 [4, 32, 1]
00000000: 8436 18bc 3ec5 233c dc29 9fbb cc4c 0f3c
00000010: d77e d73b 1077 b53c fdae fe3b 7ada a13b
00000020: 139c 6a3c e310 88bc e7f2 6a3c d492 59bc
00000030: 6a89 11bc 12be f0b7 dd00 643c 67fb 25bc
00000040: 36f6 e3bb f25e 2ebc 0a16 623a 4b79 47bc
00000050: 7073 9fbc 1956 303b a2a9 32bc 7568 2e3c
00000060: e2c2 dc3b c042 843c 3bd1 183c 64b2 f0bb
00000070: 8057 693a 3a49 f0ba ed03 2bbc aedc 233b
00000080: 4c33 70bc 28de 263c e4ae c3bb dd15 dd3b
00000090: baca 123c f61d a73b d4f1 ce3b 95fe 173c
000000a0: 57e1 263c ab49 97bc 76d1 063c d252 7cbc
000000b0: 2893 c8bb 562a 0bbc 3bc6 153c 9ce5 e9bb
000000c0: 8bf8 6dbb 92ef c0bb 1a5f be3b 4ba4 8ebc
000000d0: 747a 003c 8b53 83bb f2e1 06bc 42d1 213c
000000e0: 9d5d c43b 4fc9 2d3b 73f6 d43b 797b 0abc
000000f0: 76a6 e6bb 212d 98ba a62a cfbc 0e19 063c
00000100: 0920 3bbc 4eea 203c 3eb4 30bc 00d6 223c
00000110: 656e dd3b 0eda 8f3b 25ac 193c a8da 0c3c
00000120: 53a8 153c c727 48bc facc 293c 92af 26bc
00000130: d811 8bbb b8ef 08bc 02c2 fc3b 2894 07bc
00000140: 413a a3bb 6ad7 d8bb 3d9b 113c 6747 8cbc
00000150: d795 033c 7ef2 e9bb a5ec f6bb 234c 0a3c
00000160: 42c1 ca3b 7b9b 99bb 0b37 d73b 18db 08bc
00000170: 56da 01bc 6828 d4ba d8be 5abc 43e9 013c
00000180: 529a 7dbc 5151 203c 5db6 21bc a9cb 223c
00000190: d681 103c ef7a 473b 2046 1b3c 651b 0b3c
000001a0: 18ad 233c 6ae5 08bc 61c1 323c 806f fdbb
000001b0: c64a 0ebb c533 30bc 5b99 053c 4373 11bc
000001c0: a022 13bc bdb2 00bc 36fc 0c3c 7914 0fbc
000001d0: 7a1f d73b 6376 22bc a160 31bc ddb5 2b3c
000001e0: a30b 0d3c a74f 3ebc 94fd 2d3b bba6 983a
000001f0: f7e0 1abc 28e0 6fba 787b 0bbc 224f 173c
-0.009290341 0.009995757 -0.004857285 0.008746337 0.0065764 0.0221515 0.007772325 0.0049393745
0.014319438 -0.016609615 0.014340139 -0.013279635 -0.00888286 -2.8698738e-05 0.013916221 -0.01013074
-0.006956841 -0.010642754 0.00086245 -0.012174915 -0.019464225 0.0026906787 -0.010904701 0.010645022
0.006737099 0.01614511 0.009327228 -0.0073454846 0.0008901283 -0.001833237 -0.010437948 0.0025003362
-0.014660668 0.010184802 -0.0059717763 0.006746991 0.008959467 0.005100007 0.0063154493 0.009277006
0.010185561 -0.018467745 0.00822865 -0.015400605 -0.006121058 -0.00849398 0.0091415 -0.0071379673
-0.0036311473 -0.005887934 0.005809677 -0.017412325 0.007841695 -0.004007762 -0.0082325805 0.009876551
0.005992605 0.0026517694 0.0064991056 -0.00845229 -0.0070388867 -0.0011610129 -0.025288891 0.008184684
-0.011421212 0.009821488 -0.010785161 0.009938717 0.006757545 0.004390008 0.009379421 0.008597054
0.00913437 -0.012216515 0.010363812 -0.010173695 -0.0042440705 -0.008357935 0.007713557 -0.008275069
-0.0049813096 -0.006617476 0.008887109 -0.017123891 0.00803133 -0.007139503 -0.0075355344 0.008441004
0.006187589 -0.004687724 0.006567841 -0.008353017 -0.0079255905 -0.0016186358 -0.013351165 0.007929149
-0.015478687 0.009785012 -0.009870139 0.009936252 0.008820018 0.0030438264 0.009477168 0.008490418
0.009989999 -0.008355478 0.010910363 -0.007734239 -0.002171205 -0.01075453 0.008154239 -0.008877578
-0.008980423 -0.0078551145 0.008605054 -0.008732908 0.0065650316 -0.009915921 -0.010826261 0.010480371
0.008608731 -0.01161567 0.002654885 0.0011646369 -0.00945305 -0.00091505283 -0.008513324 0.009235175

convs_bc.bias_bc f4 [4, 32, 1]
00000000: 2d61 5eba d826 543a 6533 8bba ce8f e038
00000010: 57f6 abba 38b7 853a be0a d93a 1f6f 543a
00000020: 41dc 32ba b298 27ba b7a8 c039 c618 00bb
00000030: 6a4d 80b9 e8e8 08ba 0134 d337 432a 3eba
00000040: d266 8cba 80f0 cbb9 2e36 0a3b 792c 103a
00000050: 7bd1 3bba 857e 2aba add9 b6b9 a2b6 d1ba
00000060: 4f86 003b 7ea6 813a c65d b8b8 2d31 54bb
00000070: 3a56 83ba 0445 8aba 2cc6 023a 3c5a c43a
00000080: dc5d 96b9 775b 95ba cb46 d33a f229 1139
00000090: 5a45 553a 73bf b33a 06bd 2fba 1958 adba
000000a0: b2d0 2f3a 8c69 5ab9 3b04 05ba 6029 af3a
000000b0: 3ac0 2bb8 0de7 8aba 39c1 ef3a cc46 8bba
000000c0: 0e81 df36 627f 21b9 5d4e a039 a704 803a
000000d0: 7ad8 0aba df01 9cba 8b5c 16bb 8e87 28ba
000000e0: 6646 0138 4c65 c03a 83a0 a6b8 d27a bfba
000000f0: ebee 3cba 7975 86ba a72e 1a3a 1bd9 e8b8
00000100: 781a c138 b142 7c39 7db4 d239 4d0c 8eba
00000110: 2300 92ba 65eb 5837 4b2f 6a3a 94f0 0fba
00000120: 958d 19ba f424 0c3b ba09 b1ba 9f69 743a
00000130: fba3 ba39 dfa2 8a38 f657 073b a92b c839
00000140: 2fd0 9d39 2adf 87ba eeaf 3eb9 e303 803a
00000150: 262d 24b9 b876 9e3a b37a caba 5f4b 02ba
00000160: ae39 993a deec a5ba 281b 873a bfac 7438
00000170: 3d24 3f3a 9b8f cd38 6874 313a 5b27 a1ba
00000180: 4cee b539 4ac5 3f3a 0872 efb9 86c4 b53a
00000190: 13cc 7839 7cad b33a 7273 043a 8bf5 073a
000001a0: cff8 67ba 2667 593a 0f2a 573a 6e29 a53a
000001b0: a54f b7b9 8088 a4b9 c720 fd3a 3b69 003a
000001c0: 72c8 87ba ef6f 0f3a f216 1c3a 6815 ec38
000001d0: bc54 423a 6ee9 ad39 09ee 8139 2256 013b
000001e0: 2087 613a 64aa 923a 27d1 63ba d2c6 01b9
000001f0: e165 02ba 9ece 7239 536e 2539 f365 ceba
-0.0008483108 0.00080929464 -0.0010620175 0.00010707938 -0.001311968 0.0010201698 0.0016558988 0.00081037165
-0.00068229815 -0.0006393298 0.00036746796 -0.0019546016 -0.0002447174 -0.0005222694 2.5177376e-05 -0.00072542223
-0.0010711795 -0.00038898364 0.0021089423 0.0005499791 -0.0007164699 -0.0006503838 -0.00034875926 -0.0015999863
0.0019611304 0.0009891537 -8.7912704e-05 -0.0032377944 -0.0010020204 -0.0010549133 0.00049886364 0.0014980505
-0.0002868016 -0.0011395056 0.001611912 0.00013843903 0.00081356394 0.0013713673 -0.0006703887 -0.0013225108
0.0006706818 -0.0002082942 -0.0005074178 0.0013363771 -4.0948602e-05 -0.0010597423 0.0018291838 -0.0010625958
6.660942e-06 -0.0001540161 0.00030575963 0.0009767012 -0.000529654 -0.0011902413 -0.0022943344 -0.00064288906
3.082156e-05 0.0014678626 -7.9453945e-05 -0.0014608747 -0.00072072324 -0.0010258398 0.00058815855 -0.00011103061
9.207887e-05 0.00024057437 0.00040188796 -0.0010837406 -0.0011138957 1.292941e-05 0.0008933439 -0.0005490866
-0.0005857584 0.002138433 -0.0013506927 0.00093236 0.0003559886 6.61069e-05 0.0020651794 0.00038179502
0.00030100482 -0.0010366191 -0.00018185351 0.0009766783 -0.00015657078 0.0012089824 -0.0015447944 -0.00049703376
0.0011690164 -0.0012659093 0.0010307776 5.8335016e-05 0.00072914717 9.80191e-05 0.000676936 -0.0012295054
0.00034700555 0.000731547 -0.00045670592 0.0013867773 0.00023727147 0.0013708319 0.0005052603 0.000518643
-0.0008849026 0.00082932634 0.00082078663 0.0012600848 -0.0003496382 -0.00031382218 0.0019312137 0.0004898493
-0.001035942 0.00054716965 0.0005954347 0.00011257344 0.0007413139 0.0003317105 0.00024782147 0.0019735177
0.0008603204 0.0011189696 -0.0008690529 -0.00012376465 -0.00049742876 0.0002315589 0.00015776725 -0.0015746936

convs_bc.weight.0.tensor f4 [32, 32, 6, 2]
00000000: 12d5 773c 6087 fc00 02c2 a73c 089d 233c
00000010: 8418 553b fa2d e23b ab73 283c 6fed 093c
00000020: e13c ef3b af37 213c 25cf 0d3b 07aa 453c
00000030: 61b4 e0bb 288c 7780 d473 603d 1b49 cc3c
00000040: e55a 2d3d b0b6 dd3c 049b 2b3d f72e f23c
00000050: 391e 223d bd68 fe3c 3d03 1c3d 5b6d fa3c
00000060: e2de d83b acbf 3181 7440 36bd 6c71 e53b
00000070: 7eb1 eabc 7958 c53c 410e b6bc 154c a83c
00000080: 715d 31bc 8bf9 a33c cea7 c63a b70d 963c
00000090: 0aa5 9dbb f86a 1081 2865 043d b43a 923c
000000a0: 84c5 9d3c af16 943c 3c82 ba3c f029 ac3c
000000b0: bf08 d23c 73d1 c73c 983e ee3c 890a c63c
000000c0: d3ed 2dbb 5042 4681 c7c1 533b b624 ef3c
000000d0: 37a9 a3bc d6e0 a13c cba3 fbbc e516 a13c
000000e0: ba47 0dbd 1e37 ac3c 3c5d 1fbd a023 9e3c
000000f0: afd9 61bc 487c 6e80 038b 69bc be23 a1bd
00000100: 1ea6 16bd 1ece abbc d57a 8abc ea96 a0ba
00000110: ecec 39bc b8b9 1a39 9771 18bc 6483 e03a
00000120: 082d 35bb 2464 4e81 1f16 01bd 078f af3d
00000130: 7918 4bbd db7e 673d 5dc0 03bd 481a 3c3d
00000140: 7de9 b7bc 82aa 1c3d cdae 95bc f47c 023d
00000150: e2ba 8dba 682a 6081 4baa bebc 1930 df3c
00000160: f056 f6bc 14b6 af3c ba0c 50bd 5dcc 953c
00000170: 422a 7fbd 5a41 813c e320 8bbd 961f 2d3c
00000180: 0b8b 20bc 1061 0a00 6943 343d 4dd4 db3c
00000190: afe9 3f3d 8543 c83c 7654 653d 4f32 d13c
000001a0: e086 7f3d 021e c33c 61bd 863d f397 b03c
000001b0: 19a8 9e3c f88a 3400 ac50 763d 6fcb d1bc
000001c0: b44b 143d 1ae0 cbbb abbe fa3c 636f b3ba
000001d0: 2e32 d03c 03b1 443b a1b2 a83c fb41 a73b
000001e0: 9d5e 35bc 723a 9201 bafb 903d 734a 923c
000001f0: cf8d 733d fbde 403c 6efe 743d 84cb 403c
00000200: 2184 703d 49bd 1f3c fde1 6e3d 2950 f73b
00000210: c457 8a3c 6ccb b281 8dd0 b5bc 9517 32bd
00000220: 16ac 39bc 5734 d2bc 7f1e 4cbc b930 d2bc
00000230: e9fe 00bc 89da acbc ac94 b6bb 2eae 88bc
00000240: b915 623b 285d c580 a89c a6bb d1ae 0eba
00000250: 5d6b 65b9 abc5 97b9 ab33 8c39 8ae9 78b9
00000260: aaf5 db39 9a20 55b9 22ae fd39 57a5 4eb9
00000270: 978d 5a3b 007c 9200 5a72 99b9 920d dfb6
00000280: 4c1b 90b9 7a9e 1db6 0f81 8fb9 2a95 d2b5
00000290: fd4e 8eb9 1a87 e0b4 c39e 8db9 ce7d ab34
000002a0: e7f6 17bc 988d 7a01 ae70 eb3d 8bde 883c
000002b0: 0501 bf3d b3d9 903c 6ded a73d a736 a83c
000002c0: d25c 9a3d fa32 a23c fc62 913d 9755 983c
000002d0: 88a1 f63b d830 2e00 d095 ab3b da20 8abb
000002e0: 6eff 903b c010 403a 7425 913b 78db 503a
000002f0: 04dd 8e3b 77b8 4a3a 0d43 8d3b 7ab3 2d3a
00000300: a9a5 313c 4260 b101 5780 c7bd e90e 32bc
00000310: 9c40 7bbd 1d73 58bc 0725 57bd 11b1 49bc
00000320: e016 31bd 9f91 0bbc a82e 04bd 6491 ccbb
00000330: b664 073c 4a02 c801 9287 4b38 5120 16b7
00000340: f49b 0438 d5d3 2eb6 e323 eb37 6793 28b5
00000350: 6024 d737 6a45 f9b4 c545 cd37 756e b734
00000360: 25a1 cb3a 52d0 d381 5c82 513b 3b5b 183c
00000370: 77ff 313c 758c c33b 042b 1b3c ed6d 653b
00000380: d6fb 1b3c cc0d cb3a 3def 293c c952 7238
00000390: 8d3c 8e3c 6a30 8501 5ff1 2e3d 70ac 18bd
000003a0: 1f56 ea3c 4cea 6bbc bff2 d63c 748b c4bb
000003b0: 0630 b63c c1fa c5ba 7d80 a43c ed4b ed3a
000003c0: c14b 683c 94e7 3101 a959 693c 7f9e 94bb
000003d0: d76d 353c 864f 9739 6694 333c 371f 643a
000003e0: 3b5a 353c ca0c 393a 43a7 353c 6d7c 133a
000003f0: 361c b5bb 6c77 c101 21a4 75bd 1d0f c63a
0.0151264835 2.3191108e-38 0.020478252 0.00998617 0.0032515833 0.0069024535 0.010281484 0.008418425
0.0073009585 0.009839936 0.002163836 0.012064463 -0.0068574403 -1.0978703e-38 0.054797962 0.024937203
0.042323012 0.027064651 0.04189588 0.02956341 0.039579604 0.031055802 0.038089026 0.030569723
0.0066183666 -3.2647283e-38 -0.04449506 0.0070020463 -0.028649088 0.024090039 -0.022223594 0.020544091
-0.010825501 0.020016452 0.0015156211 0.018317087 -0.004810934 -2.652537e-38 0.032323033 0.017850257
0.019259222 0.018077223 0.022767179 0.021016091 0.025638936 0.024391865 0.029082581 0.024174945
-0.002653946 -3.6414433e-38 0.0032311545 0.02919231 -0.019978149 0.01976053 -0.030717751 0.019664237
-0.034492232 0.021022376 -0.038907275 0.019304097 -0.01378481 -1.0146488e-38 -0.014254334 -0.078681454
-0.036779515 -0.020972308 -0.016904274 -0.0012252007 -0.0113479905 0.0001475577 -0.009304426 0.0017129001
-0.002764525 -3.7908072e-38 -0.031515237 0.08572202 -0.049583886 0.056517463 -0.032165874 0.0459235
-0.022450203 0.038248546 -0.018271828 0.031857446 -0.0010813142 -4.1172727e-38 -0.023274561 0.027244614
-0.030070752 0.021449126 -0.050793387 0.018285925 -0.06229616 0.015778232 -0.06793382 0.010566613
-0.009798775 9.53174e-40 0.0440096 0.026834631 0.046853717 0.024446258 0.05598875 0.025536684
0.062384486 0.02381802 0.0657909 0.02155683 0.019367265 4.825298e-39 0.06013553 -0.0256097
0.03620501 -0.0062217833 0.030608496 -0.0013689812 0.025414553 0.0030012734 0.02059299 0.005104301
-0.011069921 5.3715795e-38 0.07079263 0.017857766 0.05946141 0.011771913 0.059812956 0.011767272
0.058719758 0.009749719 0.058320988 0.0075473976 0.016887553 -6.567877e-38 -0.022194171 -0.04347952
-0.011332532 -0.025659723 -0.012458443 -0.025657998 -0.007873275 -0.0211003 -0.0055719223 -0.016684618
0.003449781 -1.8125011e-38 -0.005084593 -0.000544292 -0.00021879138 -0.00028948238 0.00026741376 -0.00023738123
0.0004195397 -0.00020325408 0.0004838566 -0.00019707285 0.0033348554 1.3452465e-38 -0.00029267633 -6.6474977e-06
-0.00027486158 -2.3487069e-06 -0.00027371242 -1.5689632e-06 -0.000271432 -4.182155e-07 -0.00027011902 3.1942767e-07
-0.009275175 4.6019337e-38 0.11496101 0.01670768 0.09326366 0.017681932 0.08199582 0.020533873
0.07537235 0.019799698 0.07098958 0.0185955 0.0075265802 4.241955e-39 0.005236365 -0.004215342
0.004424981 0.00073267147 0.0044295136 0.00079672737 0.004359843 0.0007733176 0.0043109716 0.00066261704
0.010842719 6.5157654e-38 -0.09741276 -0.010867813 -0.061340913 -0.013211039 -0.052525546 -0.012310282
-0.043234706 -0.0085186055 -0.032271057 -0.006242918 0.008263757 7.347168e-38 4.852523e-05 -8.948221e-06
3.1616495e-05 -2.6051323e-06 2.8030894e-05 -6.2799376e-07 2.5646936e-05 -4.643037e-07 2.4470393e-05 3.4166774e-07
0.0015535696 -7.7808084e-38 0.003196857 0.009299095 0.01086413 0.0059676715 0.009470705 0.0035008148
0.009520492 0.0015491783 0.01037198 5.7774396e-05 0.017362857 4.8925955e-38 0.04271066 -0.037273824
0.028605519 -0.014399122 0.026238797 -0.0059980694 0.022239696 -0.0015104638 0.0200808 0.0018104293
0.014178217 3.2675915e-38 0.014242568 -0.004535496 0.011073551 0.00028860214 0.010960674 0.0008702161
0.011068876 0.00070590957 0.011087242 0.0005626146 -0.0055270446 7.1068365e-38 -0.05997098 0.0015110705
