neuraloperator/examples/para/fno_bc_para_202305122002_001002003004_modes36_epochs250.pth (torch, 606613 bytes, 15 tensors)

convs.bias f4 [4, 32, 1]
0	0x3c0719e5	0.00824592
1	0x3b2221e0	0.002473943
2	0xbbf6f541	-0.0075365608
3	0xbab4d774	-0.001379712
4	0x3bad7416	0.0052933795
5	0x3c01d3a9	0.007923999
6	0x3c4f6ca8	0.012660183
7	0x3bf965ef	0.0076110284
8	0xbb9abcfd	-0.004722236
9	0x3b58fc41	0.003310934
10	0x3ba9660b	0.005169635
11	0x3c09f888	0.008421071
12	0xbc0ead70	-0.008708343
13	0x3c21f491	0.009884969
14	0xbb53aa04	-0.0032297382
15	0x3c0291c3	0.007969323
16	0x3be87b29	0.00709476
17	0xbc464923	-0.012102398
18	0xbb45866f	-0.0030139943
19	0x3bf4de37	0.007472779
20	0xbc0e0617	-0.008668444
21	0x3be273c1	0.0069107716
22	0x3c14bdd7	0.0090784645
23	0xbc3c0f60	-0.011478275
24	0xbc8da46a	-0.017290313
25	0x3bdb42f7	0.0066913324
26	0x3b08bc60	0.0020864233
27	0x3a71a0d9	0.00092173886
28	0x3c1f96a6	0.009740507
29	0x3a66007e	0.0008773877
30	0xbc39270c	-0.011300813
31	0xbad7499d	-0.0016425137
32	0x3c07c419	0.008286499
33	0xbc3948b4	-0.011308838
34	0xbc0440d8	-0.008072101
35	0xbbe28f4f	-0.0069140564
36	0x3b3f7a4c	0.0029217182
37	0x3c06be71	0.008224116
38	0xbb332045	-0.0027332467
39	0x3b993a62	0.004676149
40	0xbc56d792	-0.013112919
41	0xbc4c79a7	-0.012480176
42	0x3ba785a1	0.0051123654
43	0x3c28b66b	0.010297398
44	0xbc309b49	-0.01077921
45	0x3bb317e9	0.005465497
46	0xbb62f7f5	-0.0034632657
47	0x3c189095	0.009311815
48	0x3bc020e9	0.005863298
49	0xbc1ed94b	-0.009695361
50	0xbad96ccc	-0.001658821
51	0x3c2f6f52	0.010707693
52	0xbc235869	-0.009969809
53	0x3c0dfa04	0.008665565
54	0x3bd1918b	0.006395524
55	0xbbdf726d	-0.0068190605
56	0xbc962b55	-0.01833121
57	0x3c296219	0.01033833
58	0x39d252a9	0.00040115908
59	0xbb3b9f5b	-0.0028628919
60	0x3c06ced8	0.008228026
61	0x3bf66c6e	0.00752025
62	0x3c0d2f70	0.008617267
63	0x3b9c572b	0.0047711334
64	0x3be0e494	0.006863186
65	0xbbad1fed	-0.005283347
66	0xbbc33f93	-0.0059585064
67	0xbb9bda1e	-0.004756226
68	0xbb3a0f8b	-0.0028390612
69	0x3bd377b4	0.0064534787
70	0xbb924feb	-0.0044650934
71	0x3bec76ef	0.0072163264
72	0xbb4a27fc	-0.0030846586
73	0xbc4a2786	-0.012338525
74	0x3ba29756	0.0049618883
75	0x3c13e154	0.00902589
76	0xbc307a7b	-0.010771389
77	0x3be1b750	0.0068883076
78	0xbbbfab05	-0.0058492445
79	0x3c1c991f	0.009557991
80	0x3c2644bd	0.010148224
81	0xbc3d2830	-0.011545226
82	0xbb120c61	-0.002228521
83	0x3c401302	0.011723282
84	0xbc38da3b	-0.011282499
85	0x3c1b239a	0.009468937
86	0x3c039cf2	0.008033024
87	0xbc1a3f36	-0.009414485
88	0xbc8f2176	-0.01747201
89	0x3c1331d4	0.008984048
90	0xba82f9ca	-0.0009992656
91	0xbbb580d5	-0.0055390396
92	0x3bfc9dfc	0.007709263
93	0x3c1fe348	0.009758778
94	0x3c3c65a1	0.01149884
95	0x3c1ad4ac	0.009450119
96	0x3c13537e	0.008992074
97	0xbc198ee2	-0.009372445
98	0xbab459de	-0.0013759693
99	0xbc2976c8	-0.010343261
100	0xbbdc8dca	-0.0067307698
101	0x3c1e05c3	0.009644928
102	0xbc042f9c	-0.008067992
103	0x3bce6da5	0.0062996917
104	0xbc40af65	-0.011760567
105	0xb9e66cb0	-0.00043949997
106	0x3bc2b355	0.005941788
107	0x3c07d4b5	0.008290459
108	0xbc1b882d	-0.009492916
109	0x3c1724da	0.009225095
110	0xbb765700	-0.0037588477
111	0x3c1b7508	0.009488352
112	0x3c22781b	0.009916331
113	0xbbd5d8a1	-0.0065260683
114	0xbbaefa37	-0.0053398865
115	0x3c1a15e2	0.009404631
116	0xbc070eb9	-0.008243256
117	0x3c1ba6d0	0.00950022
118	0x3c211779	0.0098322565
119	0xbbfb3545	-0.0076662623
120	0xbc3a4246	-0.01136834
121	0x3c17b6e6	0.009259915
122	0x3ac6e55e	0.0015174558
123	0xbc0f8fd6	-0.0087623205
124	0x3bd7cd13	0.006585726
125	0x3c225283	0.009907368
126	0x3c2c7535	0.010525991
127	0x3c43ed76	0.011958471

convs.bias_bc f4 [4, 32, 1]
0	0x3b01fbaf	0.0019833853
1	0x3a27d44c	0.0006402179
2	0x3acf2a4b	0.0015805451
3	0x3a61afb9	0.00086092536
4	0xba00fcb1	-0.00049204665
5	0x3a1403b4	0.0005646304
6	0xb9a417d1	-0.00031298262
7	0x3a0b91a9	0.0005324134
8	0x3af77bd9	0.0018881514
9	0x3ad78295	0.0016442115
10	0x3a89a50f	0.0010501462
11	0xbad310ef	-0.0016103069
12	0x3a637e49	0.0008678181
13	0xba59b756	-0.0008305212
14	0x3a18d353	0.00058298296
15	0xbad12059	-0.0015955075
16	0xb7587643	-1.2902138e-05
17	0x3a1beb26	0.00059478206
18	0x39f3ba59	0.00046487412
19	0x3a08bc30	0.00052160304
20	0xbafb3fd2	-0.00191688
21	0xb9a55318	-0.00031533162
22	0x3ad32c7e	0.0016111282
23	0xb9edeca6	-0.0004538048
24	0xbae77a0e	-0.0017660276
25	0x39438e42	0.00018649644
26	0xba38d16e	-0.00070502504
27	0xb8a019e4	-7.634217e-05
28	0xbaa87444	-0.0012852033
29	0x3a50f226	0.0007970653
30	0x3a26996d	0.00063552597
31	0x3a063cea	0.0005120771
32	0xba2bedd5	-0.0006558572
33	0xba47ae6d	-0.0007617239
34	0xbaad1baa	-0.0013207097
35	0x3aaaddab	0.0013036033
36	0x3a7835d7	0.0009468472
37	0x3a27d732	0.0006402611
38	0x3b38e182	0.0028210585
39	0x3a73349d	0.00092775543
40	0x398ba324	0.00026633695
41	0x3a0d8530	0.00053985696
42	0x3a7c069d	0.00096140226
43	0xba09c8e5	-0.0005256071
44	0x3a022386	0.00049644
45	0xba868b8a	-0.0010264975
46	0x397b1d12	0.00023948055
47	0x3a8ef29b	0.0010906042
48	0xba3f6461	-0.00073010294
49	0xb8363299	-4.3439304e-05
50	0x3ae1a907	0.0017216512
51	0xb894794c	-7.079783e-05
52	0xb7a3e77e	-1.9538911e-05
53	0xba1ce5fc	-0.0005985198
54	0xba6d640a	-0.00090557395
55	0xba3864aa	-0.0007034043
56	0xb9cef7da	-0.00039476046
57	0xba6e987f	-0.0009101703
58	0xbb062922	-0.0020471294
59	0xb91ab31b	-0.00014753306
60	0xbac00427	-0.0014649675
61	0x3a210222	0.00061419804
62	0xba3b31c5	-0.00071409
63	0xb972b103	-0.0002314486
64	0x3ac13e0d	0.0014743224
65	0x3ab5fed7	0.0013885152
66	0xba5897d0	-0.0008262368
67	0xba6f9ee6	-0.0009140804
68	0xbaeb824d	-0.001796791
69	0x3abbc976	0.0014327008
70	0x3a4318bd	0.0007442346
71	0xba6c17cf	-0.00090062333
72	0x3a803bda	0.0009783462
73	0xb9b045b4	-0.0003362127
74	0x39976d29	0.00028882295
75	0xb611a12e	-2.1700503e-06
76	0x3943a270	0.00018657162
77	0xbab07cf0	-0.0013464969
78	0xba897307	-0.0010486551
79	0x3a9633cd	0.001145953
80	0xba7630cf	-0.00093914283
81	0x37b03022	2.1003249e-05
82	0x3868726f	5.5419685e-05
83	0x3aca0403	0.0015412573
84	0x3aa48fd3	0.001255507
85	0xb84129e4	-4.60538e-05
86	0x3b0647a0	0.002048947
87	0x382a52c4	4.060824e-05
88	0x3b59c2fd	0.0033227794
89	0x3996a8c7	0.00028735978
90	0xba2ec0fe	-0.00066663313
91	0xbad48b9d	-0.0016215924
92	0x3a14d0b9	0.0005676854
93	0xb6d51184	-6.3499338e-06
94	0xb8e6f1e8	-0.00011012313
95	0xba8894dd	-0.0010420341
96	0x3af94795	0.0019018525
97	0xb8fcaf2b	-0.00012048924
98	0x3934f9ff	0.00017259268
99	0xba11a512	-0.00055559084
100	0x39f2a411	0.00046280076
101	0x3a801d9e	0.0009774452
102	0x3a2ad651	0.0006516921
103	0xba7327ed	-0.0009275664
104	0x3968e240	0.00022209529
105	0xba593956	-0.0008286437
106	0xba436e60	-0.0007455107
107	0x39c630db	0.00037801903
108	0x3a0ad747	0.0005296361
109	0xbad8f925	-0.0016553743
110	0xb9e2b0ad	-0.00043237713
111	0x3a120dce	0.0005571515
112	0xb985b10f	-0.00025499656
113	0xba9ca9c5	-0.0011952451
114	0xb9d1733f	-0.00039949451
115	0x3ab318f4	0.0013664053
116	0xb95b144d	-0.0002089303
117	0x3afdfb12	0.0019377193
118	0xbad0a02b	-0.0015916874
119	0xbb033a7c	-0.0020023873
120	0x390a00eb	0.00013161048
121	0xbaf02ce5	-0.0018323926
122	0x3a21e0e1	0.0006175172
123	0xba1cab38	-0.00059764413
124	0xbb1732e4	-0.0023071105
125	0xb9516049	-0.00019967662
126	0xb86a61ce	-5.5881035e-05
127	0xbacb422a	-0.0015507389

convs.weight.0.tensor f4 [32, 32, 18, 2]
0	0x3c00f9de	0.007872073
1	0x811fb814	-2.9335757e-38
2	0x3ce301e1	0.027710857
3	0x3ce10c6d	0.027471745
4	0x3c8e916e	0.01740333
5	0x3c1a0e6d	0.009402853
6	0x3c8aa808	0.016925827
7	0xba1e869e	-0.0006047281
8	0x3c90f940	0.017696977
9	0x3bd732a7	0.0065673175
10	0x3c856234	0.016282178
11	0xbb5e8e2e	-0.0033959257
12	0x3c8e94c6	0.017404925
13	0x3b7f19fb	0.0038925398
14	0x3c8cac37	0.017171962
15	0xbb927c7c	-0.004470406
16	0x3cae30cd	0.021263504
17	0x3b8cbd8f	0.004295058
18	0x3ca6a1c2	0.020340804
19	0xbb24a59f	-0.0025123132
20	0x3c8de384	0.017320402
21	0x3b873a01	0.0041267877
22	0x3c861b4f	0.016370444
23	0x3bb33bf3	0.005469793
24	0x3c7e89f2	0.015535818
25	0x3b8f48f2	0.0043727094
26	0x3c82fbdb	0.015989235
27	0x3a5a3f59	0.00083254796
28	0x3c9d8425	0.01922805
29	0x3c04e41b	0.008111025
30	0x3cc131cc	0.023583315
31	0x3c145161	0.009052605
32	0x3cfeb873	0.031093812
33	0x3be1c26c	0.006889632
34	0x3d2263d5	0.03964599
35	0x3b4a46eb	0.0030865024
36	0xbb9c2fec	-0.004766455
37	0x01aa66e2	6.2595767e-38
38	0xb9f7e19e	-0.0004727961
39	0x36f6c1fd	7.3539545e-06
40	0xb8b6c94f	-8.715933e-05
41	0x372af760	1.0190386e-05
42	0xb80dce85	-3.3809356e-05
43	0x373bf57a	1.1203223e-05
44	0xb7aea530	-2.0819338e-05
45	0x3635415e	2.700915e-06
46	0xb6a34dc8	-4.8668335e-06
47	0x3621898b	2.407093e-06
48	0xb62762b1	-2.4942385e-06
49	0x34c44acd	3.656227e-07
50	0xb5ff39cf	-1.9015805e-06
51	0xb6028f16	-1.9454797e-06
52	0xb7d144e9	-2.494683e-05
53	0xb6002859	-1.9096972e-06
54	0xb723955a	-9.750331e-06
55	0xb60837d1	-2.0298069e-06
56	0xb7e52034	-2.7313923e-05
57	0x344e4f1a	1.9214022e-07
58	0xb70458c3	-7.88848e-06
59	0xb5f6cb24	-1.838755e-06
60	0xb70a4225	-8.240841e-06
61	0xb5c462a4	-1.4631846e-06
62	0xb7c02241	-2.2904134e-05
63	0x34e03886	4.1764378e-07
64	0xb6e0e274	-6.702083e-06
65	0x3666f678	3.4416134e-06
66	0xb7bd7495	-2.2584843e-05
67	0x36a6def8	4.9731425e-06
68	0xb8dacfcb	-0.000104337545
69	0xb6095b40	-2.0467705e-06
70	0xb69deb02	-4.706323e-06
71	0xb7495df8	-1.2002412e-05
72	0xbbbe6477	-0.005810316
73	0x816cfca8	-4.3527626e-38
74	0x3d35f14f	0.044419583
75	0x3da34fb0	0.079741836
76	0x3d498279	0.049196694
77	0x3dc99600	0.09843063
78	0x3d96fd71	0.07372559
79	0x3da80944	0.08204892
80	0x3da890c8	0.0823074
81	0x3d64e467	0.055881884
82	0x3dc9bf22	0.09850909
83	0x3d6628d7	0.05619129
84	0x3db4dd66	0.08831291
85	0x3d4ead3f	0.05045819
86	0x3d8f0e0d	0.06985102
87	0x3d1a0c29	0.037609253
88	0x3d4cbcd0	0.049984753
89	0x3cf3d576	0.029764872
90	0x3d112869	0.03543893
91	0x3d014fba	0.031570174
92	0x3c799dff	0.015235423
93	0x3c8be426	0.017076563
94	0x3c2e2dcc	0.010631036
95	0x3cb783eb	0.02240177
96	0x3c441d44	0.011969868
97	0x3c645d2c	0.0139382295
98	0x3c97ab79	0.018514382
99	0x3cbe4b6a	0.02322932
100	0x3d53f8d1	0.05175096
101	0x3d2b6f7a	0.04185436
102	0x3dcff188	0.1015349
103	0x3d3969d2	0.045266934
104	0x3def2a0b	0.11677941
105	0x3ddf11db	0.108920775
106	0x3dbaa037	0.0911259
107	0x3e0a1ee3	0.13488345
108	0xbc125144	-0.008930508
109	0x00ae9b88	1.603517e-38
110	0xba89f094	-0.0010523968
111	0x365ad653	3.2609285e-06
112	0xb95f41d3	-0.00021291459
113	0xb6b9a82b	-5.533007e-06
114	0xb8ade9ab	-8.292807e-05
115	0x36d7cea5	6.431556e-06
116	0xb847fe8b	-4.768236e-05
117	0x34b6f1e6	3.4076146e-07
118	0xb75db6a0	-1.3215147e-05
119	0x35afac8f	1.3088737e-06
120	0xb6f5154e	-7.304049e-06
121	0x35c66557	1.4781643e-06
122	0xb6af0215	-5.215649e-06
123	0xb5700e39	-8.9427664e-07
124	0xb85b375a	-5.226522e-05
125	0x35495585	7.500278e-07
126	0xb7b6df84	-2.1800173e-05
127	0x35ad24a4	1.2900168e-06
128	0xb85ec366	-5.3110904e-05
129	0x36110156	2.1607461e-06
130	0xb78632de	-1.5997732e-05
131	0xb4a43876	-3.058846e-07
132	0xb7811232	-1.5386471e-05
133	0xb49e8677	-2.952763e-07
134	0xb83735ab	-4.3680582e-05
135	0x3559cbd2	8.1135397e-07
136	0xb71b74de	-9.26593e-06
137	0x3689c371	4.1056705e-06
138	0xb80dcf61	-3.3810156e-05
139	0x370b995e	8.320754e-06
140	0xb94f5e92	-0.00019776289
141	0x3685ee29	3.9914344e-06
142	0xb7a9ad8d	-2.0227186e-05
143	0xb8090f2d	-3.267748e-05
144	0xba0b120a	-0.0005305117
145	0x80b3bd60	-1.6506489e-38
146	0x3ce442ed	0.027863944
147	0xbd37d9ab	-0.04488532
148	0x3c2db421	0.010602028
149	0xbc1fd47c	-0.00975525
150	0x3b8e5f75	0.0043448755
151	0xba7f66de	-0.00097428064
152	0x3ab97ae1	0.0014151001
153	0xb944047e	-0.0001869369
154	0x3a49b07e	0.0007693841
155	0xba43a6a8	-0.00074634934
156	0x3ad0a2fe	0.0015917716
157	0xbab2659d	-0.0013610605
158	0x3b0333f8	0.002001999
159	0xbb1a0e4a	-0.0023507052
160	0x3c2cb1a6	0.010540402
161	0xbb95d55a	-0.0045725526
162	0x3b035bac	0.0020043654
163	0xb9ae6058	-0.00033259648
164	0x3af453b3	0.0018640667
165	0xb9d9df68	-0.00041555916
166	0x3ab4b7ae	0.0013787651
167	0xb98cb5b0	-0.0002683825
168	0x3ad45c02	0.0016201737
169	0xb9aa7dec	-0.00032518746
170	0x3abd1548	0.0014425898
171	0x39931e57	0.0002806063
172	0x3a917388	0.0011097053
173	0x3b0e4dfa	0.0021713958
174	0xbb941fa0	-0.0045203716
175	0x3b96e966	0.00460546
176	0x3c9c2e48	0.019065037
177	0x3b235431	0.0024922008
178	0x3d96de75	0.07366649
179	0xbc5b548d	-0.013386858
180	0x3bd521ee	0.006504289
181	0x81e4ef46	-8.4097313e-38
182	0x3d0a738c	0.0338016
183	0x3bb9ed67	0.0056740525
184	0x3ca005e9	0.019534068
185	0x3c556f70	0.013027057
186	0x3cb73974	0.022366263
187	0x3c853e77	0.016265137
188	0x3cc54f28	0.024085596
189	0x3c8a8f30	0.01691398
190	0x3cd02201	0.02540684
191	0x3c656691	0.0140015045
192	0x3ce73b10	0.028226405
193	0x3c8057ba	0.015666831
194	0x3ce2bd86	0.027678262
195	0x3c7d5b21	0.015463621
196	0x3d058964	0.03260173
197	0x3c1f3a40	0.009718478
198	0x3d0b09ed	0.033945013
199	0x3c329feb	0.010902385
200	0x3ce24aa6	0.027623486
201	0x3c7dd10f	0.015491738
202	0x3cdc2433	0.02687273
203	0x3c82c720	0.01596409
204	0x3cc43ca5	0.023954699
205	0x3c3511d6	0.011051616
206	0x3cc2db6a	0.023786265
207	0x3c42e8f6	0.0118963625
208	0x3d06a990	0.03287655
209	0x3c8ce5c1	0.017199399
210	0x3d2d1f94	0.042266443
211	0x3cceb908	0.025234714
212	0x3d60c81f	0.05487835
213	0x3cdf2a56	0.027241867
214	0x3d816996	0.06318967
215	0x3cbdbd11	0.023161443
216	0x3c3ee3c4	0.011650983
217	0x01294bf0	3.109488e-38
218	0xbd32cfc2	-0.043655165
219	0x3d4e5980	0.050378323
220	0xbc3083b3	-0.010773587
221	0x3a43b21c	0.00074652
222	0xbc34495e	-0.01100382
223	0x3bdc6ea0	0.0067270547
224	0xbbfd314d	-0.0077268244
225	0x3b61e2ea	0.0034467527
226	0xbbe76ebb	-0.0070627606
227	0x3b4d4151	0.003131945
228	0xbbe55785	-0.0069989585
229	0x3b4b2856	0.0030999384
230	0xbbd9eb97	-0.006650399
231	0x3b9fb918	0.00487436
232	0xbc255991	-0.010092155
233	0x3b65c426	0.003505954
234	0xbc33aadb	-0.010966028
235	0x3bb65495	0.005564282
236	0xbb9d0eaf	-0.00479301
237	0x3b88adb3	0.004171097
238	0xbba9861b	-0.0051734573
239	0x3b67c433	0.0035364747
240	0xbbd26f8d	-0.0064219893
241	0x3b2e0dc6	0.0026558503
242	0xbbd39483	-0.006456913
243	0x3af1c052	0.0018444157
244	0xbc3575b2	-0.011075424
245	0x3a3b78bb	0.0007151474
246	0xbc54fee8	-0.0130002275
247	0x3b789efb	0.0037936557
248	0xbd0163c9	-0.031589303
249	0xbb8d04e7	-0.004303563
250	0xbd6468fa	-0.055764176
251	0xbc776454	-0.015099604
252	0x3bdc6137	0.006725456
253	0x00f08c68	2.2090887e-38
254	0x3ccb728b	0.024834892
255	0x3c3ea0cd	0.011635018

convs.weight.1.tensor f4 [32, 32, 18, 2]
0	0x3bfc7189	0.007703964
1	0x81cae890	-7.453679e-38
2	0x3c846e71	0.016165944
3	0x3cbdf402	0.023187641
4	0x3c123d34	0.008925725
5	0x3c387c0d	0.011260045
6	0x3c23143c	0.009953555
7	0x3c162391	0.009163753
8	0x3c127754	0.008939583
9	0x3c0218b9	0.007940465
10	0x3c1f686c	0.009729486
11	0x3a566ad7	0.00081793725
12	0x3c24d267	0.010059929
13	0x3bca297c	0.006169496
14	0x3c344d62	0.011004778
15	0xb99591ca	-0.00028528116
16	0x3c41ec4b	0.011836122
17	0x3bcea6f5	0.006306524
18	0x3c6cc628	0.014451541
19	0xb9b65b58	-0.00034781802
20	0x3c578054	0.013153154
21	0x3b1c8666	0.0023883819
22	0x3c6854bb	0.014180358
23	0x3bccce98	0.006250214
24	0x3c557f9a	0.013030911
25	0x3b1987c5	0.0023426872
26	0x3c5bb112	0.013408916
27	0x3b187ff5	0.0023269628
28	0x3c5d16bd	0.013494191
29	0x3bd6b5d6	0.0065524383
30	0x3c413d90	0.011794463
31	0x3c1459ac	0.009054583
32	0x3c50b076	0.012737384
33	0x3bab50d7	0.0052281427
34	0x3c81636d	0.01579448
35	0xbadb3fe9	-0.0016727421
36	0xbc3b03fe	-0.011414526
37	0x009e4820	1.4535882e-38
38	0x3a6c10a0	0.0009005163
39	0xbc8fbb79	-0.017545449
40	0x3b77a7d6	0.0037789247
41	0xbb517d78	-0.0031965654
42	0x3b79dede	0.0038127224
43	0xba1bcadc	-0.0005943009
44	0x3b751742	0.0037397896
45	0x3a979a86	0.0011566437
46	0x3af7f0eb	0.0018916404
47	0x3afc60fa	0.0019254975
48	0x39b6cabc	0.00034864794
49	0x3a3e3001	0.0007255078
50	0x39a5e506	0.00031641888
51	0x3b535198	0.0032244679
52	0xbb63e1ed	-0.0034772113
53	0xb9ef1306	-0.00045599806
54	0xbabc17a3	-0.0014350306
55	0xb8d0582f	-9.9346384e-05
56	0x3b529c45	0.00321366
57	0x3a899b0f	0.0010498482
58	0x39d3f2a7	0.00040425846
59	0x3b0c1863	0.002137684
60	0x395e6fd9	0.00021213236
61	0x3a76c473	0.00094134285
62	0x3ad8e0cb	0.0016546486
63	0x3b1f773c	0.0024332544
64	0x3a3725d3	0.0006986532
65	0x3b5572fc	0.0032569757
66	0xbb1bd164	-0.002377593
67	0xba68360a	-0.000885815
68	0xbac144e6	-0.0014745265
69	0xbbbb092d	-0.005707881
70	0x3baf0774	0.0053414647
71	0xbccba1b3	-0.024857378
72	0xbbdb6cb1	-0.0066963066
73	0x818d9604	-5.201048e-38
74	0x3d476a9d	0.04868566
75	0x3dc9d74e	0.09855519
76	0x3d4e89e9	0.05042449
77	0x3dd82d3e	0.10555504
78	0x3d868f10	0.06570256
79	0x3dbd6d55	0.09249369
80	0x3dc0d1f2	0.09415044
81	0x3d615cf4	0.055020288
82	0x3dbb5140	0.091463566
83	0x3d915c99	0.0709774
84	0x3daf87b5	0.08570806
85	0x3d6198c5	0.055077333
86	0x3d75e378	0.060031384
87	0x3d47f2b0	0.04881543
88	0x3d431296	0.047625147
89	0x3d05ebb8	0.032695502
90	0x3ce0d6ab	0.027446112
91	0x3d1c46be	0.038153403
92	0x3c3a95c3	0.011388245
93	0x3cb5534a	0.022134442
94	0x3bf367a2	0.0074281255
95	0x3cd2ea75	0.025746563
96	0x3bf63c9d	0.00751455
97	0x3c84cfdb	0.016212394
98	0x3c5dcc44	0.01353747
99	0x3cbe36bb	0.023219457
100	0x3d4fc4d6	0.050724827
101	0x3d28a075	0.04116865
102	0x3dbcc37c	0.09216973
103	0x3d22c492	0.039738245
104	0x3ddd3880	0.10801792
105	0x3d96740a	0.073463514
106	0x3da83157	0.08212536
107	0x3e06e431	0.13172986
108	0xbc1a723a	-0.009426648
109	0x01bc6658	6.920715e-38
110	0xbba17340	-0.004927069
111	0xbb9c0ed9	-0.004762512
112	0xbb7ab66e	-0.003825571
113	0x3b429776	0.0029692329
114	0xbb820b1d	-0.00396861
115	0x3b3a5b52	0.0028435779
116	0xba386898	-0.00070346287
117	0x3b534519	0.003223723
118	0xbab19b99	-0.00135504
119	0x3b4bf133	0.0031119108
120	0xbaf5b6ec	-0.0018746532
121	0x3af26bad	0.0018495225
122	0xbac096e4	-0.0014693406
123	0x3b619071	0.003441837
124	0xbb6b54e2	-0.0035908748
125	0xbab0c54b	-0.0013486532
126	0xbb318dca	-0.002709257
127	0x38c52080	9.3997456e-05
128	0x3a5c7a2d	0.00084105396
129	0x3ad3178a	0.0016105038
130	0xba7b7a96	-0.0009593157
131	0x3a941816	0.0011298682
132	0xbabc5946	-0.0014369867
133	0x3a4a00c3	0.0007705802
134	0x3866f694	5.5065917e-05
135	0x3b5fd849	0.0034156016
136	0xbaa7fd98	-0.0012816666
137	0x3bb2b485	0.0054536485
138	0xbb398a0c	-0.0028311042
139	0x3b60cb0b	0.003430071
140	0xbad00516	-0.0015870656
141	0xbb25db0e	-0.0025307569
142	0x3bf34ef2	0.0074251825
143	0xbd071ecb	-0.03298835
144	0xbb9e5452	-0.004831829
145	0x81d86402	-7.9489373e-38
146	0xbc2f7d2a	-0.010710994
147	0xbc904724	-0.017612047
148	0x3b08cec8	0.0020875204
149	0xbc58e293	-0.013237613
150	0x3ab9b7b7	0.0014169131
151	0xbb0c1111	-0.0021372477
152	0x39387392	0.0001759066
153	0xba922895	-0.001115101
154	0xb8bc6c39	-8.9846966e-05
155	0xba2e5d2e	-0.0006651458
156	0x39858d3f	0.00025472973
157	0xb8ef4f35	-0.000114111615
158	0x39f95a03	0.00047560045
159	0xb80a5fb0	-3.299088e-05
160	0x3a19f474	0.0005872913
161	0xb9c12fc9	-0.0003684743
162	0xba0c492b	-0.0005351479
163	0x3a856b5a	0.0010179088
164	0xb90c74cd	-0.00013394952
165	0xb7b9b54a	-2.2138138e-05
166	0xba0dda28	-0.0005411231
167	0xb9f3150f	-0.00046364262
168	0xba23dd06	-0.00062508916
169	0xba2b4347	-0.00065331574
170	0xba112142	-0.0005536267
171	0xb99df4da	-0.00030127802
172	0xbacc8cf2	-0.001560597
173	0x3b2cce1b	0.0026367966
174	0xbb7ab9d1	-0.0038257728
175	0x3bf68147	0.0075227353
176	0xbbc0ee87	-0.0058878097
177	0x3bdf5d83	0.0068165674
178	0x3d4dd06f	0.050247606
179	0xbc7b0782	-0.015321614
180	0x3c03b7f0	0.00803946
181	0x8062ec90	-9.084741e-39
182	0x3c8ed9c6	0.017437827
183	0x3a903de5	0.0011004774
184	0x3c12a229	0.008949795
185	0x3c385019	0.0112495655
186	0x3c4a3fb2	0.012344288
187	0x3c857d4b	0.016295096
188	0x3c8c3c54	0.01711861
189	0x3c96dd27	0.018416
190	0x3c91ab8e	0.017781999
191	0x3c909bd5	0.017652432
192	0x3ca33544	0.01992286
193	0x3c902a21	0.017598214
194	0x3cb607eb	0.022220572
195	0x3ca3ab44	0.019979127
196	0x3cbe2fd9	0.023216175
197	0x3c43ddc3	0.011954728
198	0x3ce0b9f4	0.02743242
199	0x3c80b55e	0.015711483
200	0x3cd03a23	0.025418347
201	0x3c87a31d	0.01655727
202	0x3cce1e2b	0.02516087
203	0x3c880533	0.016604042
204	0x3cb2f5c1	0.0218457
205	0x3c411dad	0.01178686
206	0x3cb2d271	0.021828862
207	0x3c6a841f	0.014313727
208	0x3cee65ca	0.029101271
209	0x3c8055b6	0.01566587
210	0x3d00e91a	0.031472303
211	0x3cc36d09	0.023855703
212	0x3d18b9a5	0.03728642
213	0x3cb35a8f	0.021893768
214	0x3d390e30	0.045179546
215	0x3c85038a	0.01623704
216	0xbbb81082	-0.0056172023
217	0x80b77f70	-1.6851612e-38
218	0x3cb3d4c3	0.021952039
219	0x3cb21c2b	0.021741947
220	0xbbcb61a7	-0.0062067094
221	0xbc77b064	-0.015117738
222	0xba125bd5	-0.0005583142
223	0x3ac2ac5c	0.0014852392
224	0xbb209c11	-0.0024507085
225	0xb9b1abad	-0.0003388798
226	0xbb6e8ff4	-0.003640172
227	0xbb469a7d	-0.0030304485
228	0xba7a1ec1	-0.0009541326
229	0xba9174d5	-0.0011097441
230	0xbaf08ce0	-0.0018352531
231	0xb814a508	-3.5439647e-05
232	0xbafe1aa4	-0.0019386602
233	0xb84f8dc0	-4.948466e-05
234	0xba4213f2	-0.0007403485
235	0x3a86c224	0.0010281247
236	0xba16e13e	-0.00057556096
237	0x3a697345	0.0008905421
238	0xb6994346	-4.567587e-06
239	0xba2f9443	-0.0006697813
240	0x39b2a292	0.0003407193
241	0x3a2f9cf3	0.00066991075
242	0xbb57b730	-0.0032915585
243	0xba9eea8e	-0.0012124346
244	0xbc05aac8	-0.008158393
245	0xbb850ce5	-0.004060375
246	0x3ba826ac	0.005131563
247	0xbab70ee3	-0.0013966229
248	0xbbe74660	-0.00705795
249	0x3b3d3ba9	0.0028874672
250	0xbcf387fd	-0.02972793
251	0x3bb2e069	0.0054588807
252	0x3bd3d2e2	0.006464348
253	0x018fa820	5.277115e-38
254	0x3c008edd	0.007846561
255	0x3c8ba991	0.017048629

convs.weight.2.tensor f4 [32, 32, 18, 2]
0	0x3c09ff52	0.0084226895
1	0x80f3db58	-2.2394711e-38
2	0x3c1e74fb	0.009671445
3	0x3c9fcfe9	0.019508319
4	0x3b68fa6f	0.003554966
5	0x3c46088c	0.012086999
6	0x3b996472	0.0046811635
7	0x3c3a4108	0.011368044
8	0x3bb4e99b	0.005521012
9	0x3c375a17	0.011190913
10	0x3b6698a4	0.0035186196
11	0x3c004911	0.00782992
12	0x3b87a610	0.0041396692
13	0x3b5f6ec9	0.0034093133
14	0x3bc53073	0.0060177385
15	0x3bc92a6a	0.0061390894
16	0x3baf96d4	0.0053585563
17	0x3baba8a5	0.00523861
18	0x3bfe18c3	0.0077544167
19	0x3b6f7a07	0.003654124
20	0x3c28980b	0.010290156
21	0x3b8fc804	0.0043878574
22	0x3c1b91d5	0.009495218
23	0x3b1ddd6d	0.002408828
24	0x3c2d8323	0.010590347
25	0x3aaa6550	0.0013000164
26	0x3c285c9d	0.010275987
27	0x3bcd11c2	0.0062582204
28	0x3c0d6b42	0.008631529
29	0x3b627821	0.0034556466
30	0x3b5a6ad2	0.003332783
31	0x3bdd372a	0.006750961
32	0x3a798fd2	0.0009520027
33	0x3b9a51a1	0.004709438
34	0x3abb2a1a	0.0014279515
35	0x3915d26b	0.00014288134
36	0xbbbf9d5b	-0.0058476157
37	0x81264920	-3.054185e-38
38	0x3bb690d1	0.0055714627
39	0x3c0bdc00	0.008536339
40	0x3b029540	0.0019925386
41	0x3b405ac4	0.0029350976
42	0x3c6e0b9e	0.014529137
43	0xba84a581	-0.0010120125
44	0x3b88e684	0.00417787
45	0xbb89e54a	-0.0042082416
46	0x3bc75e51	0.0060842414
47	0xbbecaa6b	-0.007222464
48	0x3c19057e	0.009339688
49	0xbb9560b2	-0.004558646
50	0x3b07c2ef	0.0020715555
51	0xbc225706	-0.009908443
52	0x3c8dbf99	0.017303275
53	0xbb9061d8	-0.004406195
54	0x3bf40928	0.0074473806
55	0xbbcf1698	-0.006319832
56	0xbbb79ad1	-0.0056031724
57	0xbc527fc6	-0.012847846
58	0x3b521adc	0.0032059466
59	0xbbf9e140	-0.007625729
60	0xbb2b32f2	-0.0026122895
61	0xbb58bec8	-0.00330727
62	0xbc7f90af	-0.01559846
63	0xbc9a9a49	-0.018872397
64	0xbc35dfef	-0.011100753
65	0xbd06e672	-0.032934614
66	0x3c9247d6	0.01785652
67	0xbbd1fdd6	-0.0064084334
68	0x3c0577f2	0.008146273
69	0x3c4b3055	0.01240166
70	0xbc79a3a8	-0.015236773
71	0x3c7f6555	0.015588124
72	0xbb8dbb94	-0.0043253396
73	0x014d2fb0	3.7686768e-38
74	0x3db380bd	0.08764789
75	0x3de4cdaf	0.111720435
76	0x3d8e5243	0.06949284
77	0x3de7d2eb	0.11319526
78	0x3d849f71	0.064757235
79	0x3dd18265	0.10229949
80	0x3dddf13a	0.10837026
81	0x3d8523c2	0.06500961
82	0x3daa45ae	0.083140716
83	0x3d9be453	0.07611909
84	0x3da5024c	0.08057079
85	0x3d70db21	0.058802728
86	0x3d5d24dd	0.053990234
87	0x3d62a9cc	0.055337712
88	0x3d5ee0e8	0.054413706
89	0x3d34cbe5	0.04413976
90	0x3cb4a0f8	0.022049412
91	0x3d40e653	0.047094654
92	0x3c30aa68	0.0107828155
93	0x3ce01ba5	0.027356932
94	0x3c36ece2	0.011164876
95	0x3cb4088f	0.021976737
96	0x3c34a5f4	0.011025894
97	0x3c735724	0.014852319
98	0x3c974db1	0.018469663
99	0x3c843bc1	0.016141774
100	0x3d5f1fb4	0.054473594
101	0x3ce3faa9	0.027829485
102	0x3dadd07d	0.084870316
103	0x3cac37c5	0.021022687
104	0x3df26240	0.11835146
105	0x3d4ec552	0.050481148
106	0x3dba070f	0.090833776
107	0x3df82867	0.12117081
108	0xbb970c9b	-0.004609657
109	0x01e89418	8.5435845e-38
110	0x3b8a9d05	0.004230144
111	0x3bf86dfb	0.00758147
112	0x3b6714ba	0.0035260157
113	0x384689f7	4.733537e-05
114	0x3c5b44ba	0.013383085
115	0x39b66f6f	0.0003479677
116	0x3b6a3c4f	0.0035741513
117	0xbb2665bb	-0.0025390226
118	0x3b8310da	0.0039998116
119	0xbb4c3150	-0.0031157322
120	0x3c0b64f4	0.008507956
121	0xb9904446	-0.00027516688
122	0xb96bdc77	-0.00022493476
123	0xbb8bda7f	-0.00426799
124	0x3c8247d6	0.015903395
125	0x3be4b5a0	0.006979659
126	0x3c1df8a6	0.009641802
127	0x3ac507a6	0.0015032187
128	0xbb1adbc6	-0.002362953
129	0xbbae53d2	-0.0053200508
130	0x3b9b9487	0.0047479304
131	0xba3cb45e	-0.00071985077
132	0x38d26904	0.00010033141
133	0xb8bcdfbc	-9.006212e-05
134	0xbc0c7e47	-0.008575029
135	0xbc443a4c	-0.01197679
136	0xbb929581	-0.0044733887
137	0xbcbc541e	-0.022989329
138	0x3c707884	0.014677171
139	0xbb4eb8de	-0.0031543295
140	0x3bf68d79	0.007524189
141	0x3c34cf56	0.011035761
142	0x3b40feaa	0.0029448667
143	0x3c46ec48	0.012141295
144	0xbb81ba01	-0.003958941
145	0x809418b8	-1.3600521e-38
146	0x3d14e8f6	0.03635498
147	0x3b3cd20c	0.002881172
148	0x3c9a1c8d	0.018812442
149	0xbc2dec62	-0.01061544
150	0x3cc18df3	0.023627257
151	0xbb834b3b	-0.004006771
152	0x3c72f72a	0.014829436
153	0xbbd6493d	-0.0065394924
154	0x3c6a62d1	0.014305786
155	0xbb47d89f	-0.0030494106
156	0x3c080199	0.008301162
157	0xbb97b25b	-0.004629416
158	0x3bf4ef89	0.007474844
159	0xba054ed2	-0.00050852925
160	0x3c076edd	0.008266178
161	0x3ba3cb51	0.0049986024
162	0x3c0ccd97	0.008593938
163	0xba28d999	-0.0006441116
164	0x3b273bbb	0.002551778
165	0xbbfa8470	-0.0076451823
166	0x3b8ef0d0	0.004362203
167	0xbb86a066	-0.0041084765
168	0x3b094426	0.002094516
169	0xbb63ff61	-0.003478967
170	0x3ab99b9f	0.0014160759
171	0xbc1cbb96	-0.009566208
172	0xbb305e8e	-0.0026911828
173	0xbc5fe5e2	-0.013665648
174	0x3c5d65f4	0.013513077
175	0x3ab85bc4	0.0014065434
176	0x3c978b94	0.018499173
177	0x3c4b0581	0.012391449
178	0x3d24649b	0.040135007
179	0xbbc9b3c6	-0.006155464
180	0x3beffc9f	0.007323816
181	0x00bb0b28	1.717724e-38
182	0x3bb0e775	0.0053986856
183	0x399eb118	0.00030268054
184	0x3b34fbf3	0.0027615994
185	0x3c27c534	0.010239888
186	0x3c0c0313	0.008545655
187	0x3c8c9a38	0.017163381
188	0x3c54d682	0.012990596
189	0x3cb37c6f	0.02190992
190	0x3c4ae738	0.012384228
191	0x3c9ed53c	0.019388787
192	0x3c782d2d	0.0151474895
193	0x3c9e0bae	0.019292679
194	0x3c77e158	0.01512941
195	0x3cb981c7	0.02264489
196	0x3c9698cf	0.018383412
197	0x3c82312d	0.01589259
198	0x3cb1fe71	0.021727772
199	0x3ca09c2f	0.019605724
200	0x3cb70390	0.022340566
201	0x3ca0e5d2	0.019640837
202	0x3cafe096	0.021469396
203	0x3c8cd165	0.01718969
204	0x3ca50c7a	0.02014755
205	0x3c5e828a	0.013580928
206	0x3cae0ba4	0.021245785
207	0x3c9a591e	0.018841323
208	0x3ccfd3a1	0.025369467
209	0x3c7df625	0.01550058
210	0x3cc6a82f	0.024250118
211	0x3cb169e1	0.021656932
212	0x3cdd7e2f	0.027037708
213	0x3ca212ac	0.019784294
214	0x3d049a66	0.03237381
215	0x3c7fc3dc	0.015610661
216	0xbbce1e24	-0.006290214
217	0x803b5a20	-5.450625e-39
218	0xbc94b540	-0.018152833
219	0x3a88a9c0	0.0010426566
220	0x3afcf48c	0.0019298955
221	0xbb9214de	-0.004458054
222	0xbb76de2b	-0.0037669044
223	0x3b07f068	0.0020742659
224	0x39e0d4f2	0.00042883266
225	0x3b5aeec1	0.0033406469
226	0xbb86b366	-0.0041107414
227	0x3bd9033b	0.0066226996
228	0x3a8ffb95	0.0010985011
229	0x3bc68ed4	0.006059507
230	0xbbb737a0	-0.005591348
231	0x3b2aefd0	0.002608288
232	0xbb89e46a	-0.0042081373
233	0x3bda6833	0.0066652535
234	0xb9c5c7b8	-0.0003772357
235	0xbb24c80a	-0.0025143647
236	0xbae0f479	-0.0017162702
237	0xba28c56d	-0.000643811
238	0xbad44fb7	-0.0016198073
239	0xbb2e2f96	-0.0026578656
240	0x3b00f68e	0.0019678208
241	0xbb4fa9eb	-0.0031686972
242	0x3b83aa60	0.004018113
243	0xba07caf9	-0.00051800866
244	0x3bb74c14	0.005593786
245	0xbaae6eb8	-0.0013308143
246	0x3a5984ce	0.00082976825
247	0x3b13ef8d	0.0022573203
248	0xbbe1c759	-0.006890219
249	0xbb2f7215	-0.002677088
250	0x3ce864af	0.028368322
251	0x3b9e471b	0.004830254
252	0x3bda9f8c	0.0066718515
253	0x0169a00c	4.291017e-38
254	0xba85a9a0	-0.0010197647
255	0x3cb26fa5	0.021781752

convs.weight.3.tensor f4 [32, 32, 18, 2]
0	0x3bf799bf	0.0075561698
1	0x01ba6e2c	6.84837e-38
2	0x3b93b99d	0.004508211
3	0x3cbc8a05	0.023015032
4	0x3b370084	0.0027923891
5	0x3c5a3853	0.013319093
6	0x3b14ae2e	0.0022686827
7	0x3c541227	0.012943781
8	0x3ab0eb7c	0.0013497914
9	0x3bcb58d2	0.0062056566
10	0xb936c166	-0.00017428919
11	0x3c15680c	0.009119045
12	0x38e15ad5	0.00010745755
13	0x3b1dfb88	0.0024106223
14	0xba1403a8	-0.0005646297
15	0x3c16990f	0.009191765
16	0x3950667c	0.00019874604
17	0x3b8a92da	0.004228932
18	0x3a476a5d	0.0007607097
19	0x3c274ad0	0.010210708
20	0x3bab4ae5	0.005227434
21	0x3c163165	0.00916705
22	0x3bd0f89d	0.0063772933
23	0x3b627f30	0.0034560673
24	0x3be2bcb4	0.006919468
25	0x3bab7e38	0.0052335523
26	0x3bf7bab6	0.0075600995
27	0x3c027cfe	0.007964371
28	0x3b468554	0.0030291872
29	0x3b971afb	0.0046113706
30	0x3a8527f0	0.0010158997
31	0x3af5548a	0.0018717211
32	0xbb983488	-0.004644934
33	0x3b2242a9	0.002475897
34	0xbb96a750	-0.004597582
35	0xb7d8464e	-2.5781945e-05
36	0xbc109a79	-0.008825892
37	0x803151f0	-4.529333e-39
38	0xbc9b1d54	-0.018934883
39	0x3c01b924	0.007917676
40	0xbbe897a6	-0.007098156
41	0x3c85ee1c	0.016348891
42	0xbbb6ff45	-0.0055846297
43	0x3c186d7d	0.009303448
44	0xbb361119	-0.0027781187
45	0x3c77fe17	0.015136263
46	0xbb42395a	-0.0029636235
47	0x3bdfb075	0.0068264552
48	0xba67dc00	-0.0008844733
49	0x3c574b08	0.013140447
50	0xbb1df6f5	-0.0024103497
51	0x3bbd4b4e	0.0057767993
52	0x3ab81ed6	0.0014047276
53	0x3c6d1f35	0.014472772
54	0x3aa528c5	0.0012600651
55	0x3bcef5e0	0.0063159317
56	0x39bf8746	0.00036531145
57	0x3c30638a	0.010765919
58	0xba4fa60f	-0.0007921168
59	0x3c4710cb	0.01215
60	0xbac936df	-0.0015351436
61	0x3be24647	0.0069053504
62	0xbaf8b62e	-0.0018975192
63	0x3b21848a	0.002464565
64	0x3b17fb4f	0.0023190563
65	0x3b619205	0.003441931
66	0x3ba0e336	0.004909898
67	0x3bc58779	0.0060281125
68	0x3ba764ae	0.0051084375
69	0x3c018fca	0.007907817
70	0x3c2198ed	0.0098631205
71	0x3b230707	0.0024876015
72	0xbb19d320	-0.0023471788
73	0x019c33f6	5.737991e-38
74	0xbd04887e	-0.03235673
75	0xbc2371c9	-0.009975859
76	0xbc0ccb3f	-0.0085933795
77	0x3c63554c	0.013875317
78	0xbc8dc131	-0.017304035
79	0x3c31353f	0.0108159175
80	0xbb963d95	-0.004584978
81	0x3ba8a012	0.005146035
82	0xbb7be11a	-0.0038433732
83	0x3c069d1d	0.00821617
84	0x3bfc2f7d	0.0076960907
85	0x3c491364	0.0122726895
86	0x3c32096a	0.010866502
87	0x3c721224	0.014774833
88	0x3cb91377	0.02259229
89	0x3ca2153f	0.019785522
90	0x3d10deec	0.035368845
91	0x3ce07613	0.027400052
92	0x3cd370dc	0.025810651
93	0x3c500907	0.012697465
94	0x3cfaa228	0.0305949
95	0x3c9b88f8	0.01898621
96	0x3ced5e7d	0.02897572
97	0x3cdd361d	0.027003342
98	0x3cd8fa3a	0.026486505
99	0x3d03ea35	0.03220578
100	0x3d134b89	0.035960708
101	0x3d2004a7	0.039066937
102	0x3d1bc947	0.03803375
103	0x3cba0f94	0.022712506
104	0x3d30e863	0.04319037
105	0x3d016bc4	0.031596914
106	0x3d2c9d71	0.042142335
107	0x3d4435e6	0.047902964
108	0xbc107cd1	-0.008818821
109	0x8103b6a8	-2.419195e-38
110	0x3c1dfdde	0.009643046
111	0xbd1b8fa4	-0.037978783
112	0x3c0c33f7	0.008557311
113	0xbce6da96	-0.028180402
114	0x3ba6c2df	0.0050891484
115	0xbc843c20	-0.016141951
116	0x3b911e72	0.004428678
117	0xbbfce2f8	-0.0077174865
118	0x3ba6f0c8	0.0050946213
119	0xbbf0c114	-0.0073472355
120	0x3b8cea7f	0.004300415
121	0xba94aeec	-0.0011343635
122	0x3b9ac232	0.004722857
123	0xbbce364c	-0.006293094
124	0x3b86d65e	0.00411491
125	0xbb60566f	-0.0034231206
126	0x3be45c97	0.0069690454
127	0xbb8d6569	-0.0043150675
128	0x3b70cc7e	0.003674298
129	0xbb3e2153	-0.0029011562
130	0x3b720f7a	0.0036935494
131	0xb62b637c	-2.5538893e-06
132	0x3b8b88e1	0.0042582606
133	0x3a56d5a4	0.0008195287
134	0x3b749d5d	0.003732524
135	0x3b257473	0.002524641
136	0x3c0ad106	0.008472687
137	0x3b90a625	0.004414337
138	0x3bed1483	0.007235111
139	0x3b72d495	0.0037052978
140	0x3bb9fd7a	0.0056759687
141	0x3bda2d4d	0.0066582323
142	0x3b95192c	0.00455012
143	0x3c151828	0.009099998
144	0xbbcdf15c	-0.006284876
145	0x019c6b74	5.745954e-38
146	0xbb5c680c	-0.0033631353
147	0x3c884a14	0.016636886
148	0x3c8266c6	0.015918147
149	0xbc0f81f1	-0.008759008
150	0x3be41c06	0.0069613485
151	0xbc3e3f74	-0.011611808
152	0xbb46c813	-0.0030331656
153	0xbc485aaf	-0.012228652
154	0xbbb1f7f5	-0.00543117
155	0xbc8af662	-0.016963188
156	0xbc35c40f	-0.011094107
157	0xbc9f63b7	-0.019456727
158	0xbc159dc9	-0.009131857
159	0xbcd68dd2	-0.026190672
160	0xbc99a156	-0.018753689
161	0xbd07d0e3	-0.033158194
162	0xbc85cded	-0.016333545
163	0xbcdc3667	-0.02688141
164	0xbc28b895	-0.010297914
165	0xbc4cfa2c	-0.0125108175
166	0xbc6cd26f	-0.014454468
167	0xbc9e2df7	-0.019309027
168	0xbc0b23f0	-0.008492455
169	0xbc9e5f12	-0.019332442
170	0xbba0f914	-0.004912505
171	0xbc1b0d17	-0.00946357
172	0xbc525036	-0.012836507
173	0xbc056c74	-0.008143533
174	0xbce98c4e	-0.028509285
175	0xbbf23de9	-0.007392634
176	0xbd2ffa21	-0.04296315
177	0xbbd9cab7	-0.00664648
178	0xbd347708	-0.04405883
179	0xbc96d6db	-0.018412998
180	0x3c04e396	0.008110901
181	0x81af4052	-6.437714e-38
182	0xbb85ac52	-0.00407938
183	0x3be36b45	0.0069402778
184	0x3ba4532c	0.0050147977
185	0x3c6201de	0.0137943905
186	0x3bbb5e05	0.005717995
187	0x3ca3f559	0.020014452
188	0x3c21c49c	0.0098735355
189	0x3c88e74f	0.016711859
190	0x3c01c638	0.007920794
191	0x3cc34d02	0.023840431
192	0x3c4838f7	0.012220613
193	0x3c8dfb7f	0.017331837
194	0x3c32ae53	0.01090582
195	0x3cdff0ce	0.027336504
196	0x3c67d4da	0.014149869
197	0x3cb26983	0.021778828
198	0x3c7deff0	0.0154991
199	0x3cdf4b56	0.027257603
200	0x3ca0cf4f	0.019630102
201	0x3cb7595f	0.022381483
202	0x3ca5eb21	0.02025372
203	0x3c885a31	0.01664457
204	0x3ca242a6	0.019807171
205	0x3c9aeba0	0.018911183
206	0x3ca23c34	0.019804098
207	0x3cbb3357	0.02285163
208	0x3cbec944	0.02328933
209	0x3c91fc59	0.017820524
210	0x3cb036cd	0.021510506
211	0x3c6b71b2	0.014370369
212	0x3cb4bab0	0.022061676
213	0x3c86e8d9	0.016468452
214	0x3cd769cc	0.026295565
215	0x3c831f73	0.016006207
216	0xbb1cdf0c	-0.0023936657
217	0x806ebef0	-1.01704e-38
218	0x3d77753c	0.060414538
219	0xbcdcc992	-0.026951585
220	0xbbfcd359	-0.0077156243
221	0xbc95ea63	-0.01830024
222	0x3b510f45	0.003189997
223	0xbd12bd05	-0.035824794
224	0xbc061c40	-0.008185446
225	0xbcfc26b1	-0.030780168
226	0x3b4f22e6	0.0031606494
227	0xbd0d6b49	-0.034526143
228	0xbbad259a	-0.0052840235
229	0xbcd35a15	-0.02579979
230	0x3baf6bcf	0.005353428
231	0xbce2f473	-0.027704453
232	0x3a89a9d7	0.0010502887
233	0xbc97e575	-0.01854203
234	0xbba8963f	-0.005144864
235	0xbc22b21c	-0.00993016
236	0xbc993adf	-0.01870483
237	0xbc777a1b	-0.015104796
238	0xbc345e16	-0.01100876
239	0x3b5f6ff3	0.0034093827
240	0xbc944f21	-0.018104138
241	0x3bcd5e80	0.006267369
242	0xbc9d75c6	-0.019221198
243	0xbc4fbe75	-0.012679686
244	0xbc286629	-0.010278263
245	0xbc33bdd8	-0.010970555
246	0x3bc31ed2	0.005954602
247	0xbcd31edf	-0.025771556
248	0x3cf6e750	0.030139595
249	0xbd4b9e38	-0.049711436
250	0xbca71581	-0.020395996
251	0x3d4ecf86	0.05049088
252	0x3bb875f0	0.0056292936
253	0x80c01938	-1.7641462e-38
254	0xbbcb8639	-0.006211069
255	0x3cfb22d6	0.03065626

fno_skips.0.weight f4 [1, 32, 1]
0	0x3f81133f	1.0083998
1	0x3edd218e	0.43189663
2	0x3f7e9646	0.9944805
3	0x3ed3ead8	0.4139011
4	0x3f63d5a6	0.88997877
5	0x3f811288	1.008378
6	0x3f7a83e0	0.97857475
7	0x3f80e8ca	1.0071042
8	0x3f55ab6a	0.8346468
9	0x3f71748d	0.9431847
10	0x3f80ad6d	1.0052925
11	0x3f810c61	1.0081903
12	0x3f7dc1f4	0.99124074
13	0x3f81210b	1.0088209
14	0x3f7eeb00	0.9957733
15	0x3f8138ff	1.0095519
16	0x3f80fb5e	1.0076711
17	0x3f7cfabf	0.9882011
18	0x3f7fb6dd	0.998884
19	0x3f812ed5	1.0092417
20	0x3f7df946	0.99208486
21	0x3f814794	1.0099969
22	0x3f80f8fd	1.0075985
23	0x3f7d2c8c	0.988961
24	0x3f7c5d75	0.98580104
25	0x3f812f79	1.0092613
26	0x3f801f73	1.0009598
27	0x3f797fda	0.9746071
28	0x3f8122c5	1.0088736
29	0x3f2f44fb	0.6846463
30	0x3f7cbbbc	0.9872396
31	0x3ec31e68	0.38109136

fno_skips.1.weight f4 [1, 32, 1]
0	0x3f810a27	1.0081223
1	0x3e59cba8	0.21269095
2	0x3f7e46bf	0.993267
3	0x3e5667ef	0.20938085
4	0x3f495da6	0.7865852
5	0x3f810e1f	1.0082434
6	0x3f16f9f1	0.5897513
7	0x3f80dfc1	1.0068284
8	0x3f620852	0.88293946
9	0x3e85f765	0.2616531
10	0x3f808023	1.0039104
11	0x3f810599	1.0079833
12	0x3f7d7439	0.99005467
13	0x3f810bb5	1.0081698
14	0x3f7e4c27	0.9933495
15	0x3f81336d	1.0093819
16	0x3f80f1d1	1.0073797
17	0x3f7e64aa	0.9937235
18	0x3f7f7618	0.9978957
19	0x3f812a01	1.0090944
20	0x3f7e9d50	0.9945879
21	0x3f8137f5	1.0095202
22	0x3f80fc31	1.0076963
23	0x3f7da957	0.9908652
24	0x3f7bed59	0.9840904
25	0x3f812760	1.0090141
26	0x3f800335	1.0000979
27	0x3e7ecc5c	0.24882644
28	0x3f8113b8	1.0084143
29	0x3ec501ff	0.38478085
30	0x3f5fe0b6	0.87452257
31	0x3e62d380	0.22150993

fno_skips.2.weight f4 [1, 32, 1]
0	0x3f81046d	1.0079476
1	0x3f7eb756	0.994985
2	0x3f810c74	1.0081925
3	0x3f7cabcb	0.98699635
4	0x3f70b902	0.940323
5	0x3f810c2d	1.0081841
6	0x3f6d4344	0.92680764
7	0x3f80d931	1.0066282
8	0x3f7b8f43	0.98265475
9	0x3f5f447b	0.8721387
10	0x3f80680e	1.0031755
11	0x3f8105d1	1.00799
12	0x3f7d43aa	0.9893137
13	0x3f810832	1.0080626
14	0x3f7eb5ae	0.9949597
15	0x3f8132bb	1.0093607
16	0x3f80ed93	1.0072502
17	0x3f7d733a	0.99003947
18	0x3f7f21fe	0.9966124
19	0x3f812aa3	1.0091137
20	0x3f7badfb	0.9831235
21	0x3f812f5c	1.0092578
22	0x3f81047d	1.0079495
23	0x3f7db621	0.9910603
24	0x3f7cf532	0.9881164
25	0x3f812347	1.0088891
26	0x3f7fda06	0.9994205
27	0x3f7ab3d6	0.9793066
28	0x3f810d5c	1.0082202
29	0x3f806b99	1.0032836
30	0x3f803101	1.0014955
31	0x3f808c40	1.0042801

fno_skips.3.weight f4 [1, 32, 1]
0	0x3f8101ed	1.0078713
1	0x3f80fca5	1.0077101
2	0x3f804780	1.002182
3	0x3f80f8e1	1.0075952
4	0x3f7f3dd8	0.9970374
5	0x3f810e5c	1.0082507
6	0x3f78118b	0.9690177
7	0x3f80d48a	1.0064862
8	0x3f810a1e	1.0081213
9	0x3f718c44	0.94354653
10	0x3f804871	1.0022107
11	0x3f811138	1.008338
12	0x3f7d40be	0.98926914
13	0x3f8116a3	1.0085033
14	0x3f7f0174	0.9961159
15	0x3f813902	1.0095522
16	0x3f80ef98	1.0073118
17	0x3f7daefe	0.9909514
18	0x3f7eb35f	0.9949245
19	0x3f81348f	1.0094165
20	0x3f7b799c	0.98232436
21	0x3f812ba2	1.0091441
22	0x3f811b78	1.0086508
23	0x3f7dba04	0.9911196
24	0x3f7d9afa	0.990646
25	0x3f812370	1.008894
26	0x3f7fb51f	0.99885744
27	0x3f801efb	1.0009454
28	0x3f810eb8	1.0082617
29	0x3f8064d7	1.0030774
30	0x3f8048ae	1.002218
31	0x3f81590f	1.0105304

lifting.fc.weight f4 [32, 1, 1]
0	0x3f5a638a	0.85308135
1	0xbf2f10ca	-0.68384993
2	0x3edaba28	0.4272015
3	0xbf13616e	-0.5757054
4	0x3d4b29e8	0.04960051
5	0x3f7cbcea	0.9872576
6	0xbe61b77d	-0.22042651
7	0x3f511ede	0.81687725
8	0x3c7268a8	0.01479546
9	0xbedb775b	-0.42864498
10	0x3e980e57	0.2969844
11	0x3f2380a0	0.6386814
12	0x3f762bbb	0.9616048
13	0x3ebc36cc	0.36760557
14	0x3ec563bf	0.38552663
15	0x3f41399e	0.7547854
16	0x3f1f808a	0.6230551
17	0x3ec53381	0.38515857
18	0x3f7bcd04	0.98359704
19	0x3f398e21	0.72482497
20	0x3ebce18f	0.36890838
21	0x3f225c12	0.6342174
22	0x3f70e60c	0.94101024
23	0x3e55d118	0.20880544
24	0x3f55052f	0.83211035
25	0x3f4cfce3	0.80073375
26	0x3f1a2c4d	0.6022385
27	0xbe9987e7	-0.29986498
28	0x3eede61a	0.46464616
29	0xbefc2d8d	-0.49253502
30	0xbdf30dcd	-0.11867867
31	0xbf31e440	-0.69488907

lifting.fc.bias f4 [32]
0	0xbe285052	-0.1643689
1	0xbeb6e352	-0.35720307
2	0xbf450e91	-0.7697535
3	0x3eb8f77e	0.36126322
4	0xbe3474ab	-0.1762263
5	0xbe2e1b59	-0.1700262
6	0x3e7604b1	0.24025227
7	0x3f395bf5	0.7240594
8	0xbe5f40f0	-0.21802115
9	0x3f32617e	0.6968001
10	0xbf55e5ff	-0.8355407
11	0xbae15539	-0.0017191536
12	0xbe94f7cd	-0.29095307
13	0xbef05944	-0.46943104
14	0x3de1d019	0.110260196
15	0xbf2753c1	-0.65362173
16	0x3de5bdf8	0.11217874
17	0xbf2172e6	-0.63065946
18	0x3f79281e	0.9732684
19	0xbdedc791	-0.1161033
20	0xbf79cb95	-0.97576267
21	0xbf4226d4	-0.75840497
22	0x3f201b80	0.6254196
23	0x3ec0d7e5	0.37664714
24	0x3e662341	0.22474386
25	0xbeb4958d	-0.35270348
26	0xbf0fce4b	-0.56174153
27	0xbe36f70f	-0.17867683
28	0x3e672651	0.2257321
29	0x3eb2d455	0.3492762
30	0xbf4bc8c2	-0.7960321
31	0x3e26d064	0.16290432

projection.fc1.weight f4 [64, 32, 1]
0	0xbdf97528	-0.12180549
1	0xbcb65522	-0.022257391
2	0xbd92e1e9	-0.07171995
3	0xb909705d	-0.00013107197
4	0xbc08ed58	-0.008357368
5	0xbd6bf869	-0.05760995
6	0x3d87dc67	0.06633835
7	0xbe262576	-0.16225228
8	0x3d9db851	0.07701171
9	0x3d16b1f1	0.036790792
10	0xbe0af42b	-0.13569705
11	0x3de7183d	0.1128392
12	0xbdf19ca3	-0.11797454
13	0xbe2b5a3d	-0.16733642
14	0x3e13577e	0.14388844
15	0xbd687f5a	-0.056762077
16	0x3d0e2e29	0.03471199
17	0x3d84d8df	0.064866774
18	0x3e21893f	0.15775011
19	0x3d4804a6	0.048832558
20	0x3d83066c	0.06397709
21	0xbe34cfbb	-0.17657368
22	0xbca2c7e4	-0.019870706
23	0xbd8a8c48	-0.06765038
24	0xbc3732fe	-0.011181591
25	0x3e0378f2	0.12839106
26	0xbd88c494	-0.06678119
27	0x3d3be33e	0.045871012
28	0xbdf973f7	-0.12180322
29	0xb9a3973f	-0.0003120247
30	0xbc7a7511	-0.0152867
31	0x3d85e264	0.06537321
32	0xbde2dc1d	-0.110771395
33	0xbdf5b441	-0.11997271
34	0xbe113867	-0.14181672
35	0xbbe9259f	-0.0071150805
36	0xbdf57509	-0.11985213
37	0xbdd39942	-0.10331966
38	0x3dfcda2b	0.123463
39	0x3e172267	0.14759217
40	0xbd9b4ee5	-0.07583407
41	0xbcd4d845	-0.025982032
42	0x3e3e4ecb	0.18584745
43	0xbe0e0c40	-0.1387186
44	0x3dea2d54	0.11434427
45	0xbd1fb5e1	-0.038991813
46	0x3e38c933	0.18045501
47	0x3d0f6462	0.035007842
48	0xbda56f80	-0.080779076
49	0x3e09c4f7	0.13454042
50	0x3c6754f2	0.014119374
51	0x3d703ca0	0.058651567
52	0x3c24a9f9	0.01005029
53	0xbdbdeaaf	-0.09273278
54	0x3c68ad2c	0.014201444
55	0x3d021790	0.031760752
56	0xbd055640	-0.032552958
57	0xbe06eca4	-0.13176209
58	0x3da9b8c2	0.08287193
59	0x3dc6ddbc	0.09710261
60	0x3e3f1719	0.18661155
61	0xbcfc6030	-0.030807585
62	0x3d91d6ed	0.07121072
63	0x3d064fe3	0.03279103
64	0xbc94efc2	-0.018180732
65	0xbe25bc2b	-0.16185062
66	0xbdf21e20	-0.11822152
67	0xbdea7cb7	-0.11449569
68	0xbc46d5ab	-0.012135903
69	0x3d7976e3	0.060904395
70	0xbdb9a9ed	-0.09065614
71	0x3e2fc298	0.17164075
72	0xbd4171ae	-0.047227554
73	0x3df967fe	0.12178038
74	0xbe119832	-0.14218214
75	0x3db5d2e1	0.088781126
76	0xbe0c8368	-0.13722003
77	0x3de0f787	0.10984712
78	0x3c9f86a1	0.019473376
79	0x3e1c21c4	0.15247256
80	0x3d728dbf	0.05921721
81	0x3d273989	0.040826354
82	0xbd9e84b8	-0.07740158
83	0xbd4b12e6	-0.04957857
84	0xbb75be04	-0.0037497291
85	0x3e3a1038	0.1817025
86	0x3dc961e3	0.098331235
87	0x3d482027	0.048858788
88	0xbdfcb438	-0.123390615
89	0x3dd6f340	0.10495615
90	0xbe12948b	-0.14314477
91	0x3e256253	0.16150789
92	0xbdb21f14	-0.08697334
93	0x3e316901	0.17325212
94	0x3e26874e	0.16262552
95	0xbd26dceb	-0.040738028
96	0x3e1a332c	0.15058583
97	0x3dba2e0e	0.090908155
98	0x3dee2d66	0.11629753
99	0x3de98d8d	0.11403952
100	0xbd555727	-0.052085068
101	0xbdf6ea64	-0.12056425
102	0x3dac7a91	0.08421815
103	0xbb1a3ed1	-0.0023535977
104	0x3dbce021	0.09222437
105	0xbd957506	-0.07297711
106	0x3e1f6bd6	0.1556848
107	0x3d056e96	0.032576166
108	0x3de2a4cd	0.110665895
109	0xbe37414d	-0.17896004
110	0xbdbebd0e	-0.09313403
111	0x3c92f4b2	0.017938945
112	0x3dca6964	0.09883383
113	0xbdeb634c	-0.11493549
114	0x3d7c7bab	0.061641376
115	0x3e29406d	0.16528483
116	0x3e05197f	0.12998007
117	0x3e15bafa	0.14622107
118	0x3d6ae3be	0.057346098
119	0xbd8980bc	-0.06714007
120	0x3dcdcd0b	0.100488745
121	0xbdae81eb	-0.08520874
122	0xbc1162a4	-0.008873615
123	0xbe2d9c67	-0.16954194
124	0xbdadc53b	-0.08484884
125	0xbe26b948	-0.16281617
126	0x3de47003	0.11154177
127	0xbe2ab93e	-0.16672227
128	0xbc946962	-0.018116657
129	0xbd6ba249	-0.057527814
130	0xbd90503a	-0.07046552
131	0xbd941fd0	-0.0723263
132	0x3d1f1919	0.038842294
133	0xbd0d51a7	-0.034501698
134	0x3e0f0725	0.13967569
135	0x3cf89048	0.030342236
136	0x3e141878	0.14462459
137	0xbe2b2ec6	-0.16717061
138	0x3c528dc5	0.012851183
139	0x3e266821	0.1625066
140	0xbdba2b4c	-0.090902895
141	0x3dbf56ca	0.093427256
142	0xbd6324ff	-0.055455204
143	0xbd9ce99a	-0.076617435
144	0x3e06c280	0.13160133
145	0xbdb5ccf7	-0.088769846
146	0x3da6d69b	0.081464015
147	0x3d1c4b5b	0.038157802
148	0xbdd9061b	-0.10596868
149	0xbd2b5e0a	-0.04183773
150	0xbd40e11b	-0.047089677
151	0xbe29fca6	-0.16600284
152	0xbdaed546	-0.085367724
153	0xbd3a090c	-0.045418784
154	0xbc599d44	-0.013282124
155	0x3d7a32c4	0.06108357
156	0x3ddbdc00	0.10735321
157	0x3daa6057	0.083191566
158	0x3d2a57ed	0.04158776
159	0xbded9724	-0.116010934
160	0x3c80bc6d	0.015714848
161	0x3a80b076	0.0009818214
162	0x3ae3c1f6	0.001737653
163	0x3a23ac8e	0.0006243669
164	0x3961752d	0.00021501323
165	0xbd94ccb0	-0.072656035
166	0xb8856a6a	-6.3617554e-05
167	0x3ccdbaa2	0.025113408
168	0x3b688536	0.003547979
169	0xba4140dd	-0.0007372031
170	0xbd8563cb	-0.065131746
171	0x3d958662	0.07301022
172	0xbcbea1be	-0.023270484
173	0x3cebcd83	0.028784519
174	0xbc9b748f	-0.018976478
175	0x3d04be99	0.03240833
176	0xbd63941d	-0.055561174
177	0x3a9828a5	0.0011608793
178	0xbdad4aa7	-0.084615044
179	0x3c6b4f22	0.014362128
180	0x3bd3fb1c	0.0064691436
181	0xbdcd4d24	-0.10024479
182	0xbdc48bf8	-0.095970094
183	0x3b61e320	0.0034467652
184	0xbb9f9a23	-0.0048706695
185	0x3c10f383	0.00884712
186	0xbd15f7fa	-0.036613442
187	0x3a71ccee	0.00092239573
188	0xbdd0d42a	-0.10196717
189	0x3b8eb285	0.0043547773
190	0xbbe22501	-0.006901384
191	0xbc37295b	-0.0111792935
192	0xbc92e655	-0.017932096
193	0x3e0b6df0	0.13616157
194	0xbe177488	-0.14790547
195	0x3cb44a24	0.02200801
196	0x3de13c49	0.109978266
197	0x3e342cd1	0.17595221
198	0x3dfbb594	0.12290493
199	0xbe240181	-0.16016199
200	0xbd2f24d0	-0.042759717
201	0x3c8d855b	0.017275503
202	0xbc91d3c8	-0.01780118
203	0xbd6d8435	-0.05798741
204	0xbd905d5d	-0.07049058
205	0xbc971d4e	-0.01844659
206	0x3e11f43b	0.14253323
207	0x3e0027fb	0.12515251
208	0xbd4dc070	-0.05023235
209	0xbbac1e23	-0.005252616
210	0xbe1b9908	-0.15195096
211	0x3d70e16f	0.05880874
212	0x3cb3c765	0.021945665
213	0x3e2cd481	0.16877939
214	0xbdf8d0a4	-0.1214917
215	0x3b61f658	0.0034479108
216	0x3e2c31ae	0.16815826
217	0xbe28bb29	-0.16477646
218	0x3d42e6a3	0.047583234
219	0xbcc70a40	-0.02429688
220	0xbcf11407	-0.029428495
221	0x3e0aec90	0.13566804
222	0x3dfd791a	0.12376614
223	0xbdfd3e0f	-0.12365352
224	0x3e26877c	0.1626262
225	0xbd809b2d	-0.062795974
226	0x3daf139a	0.085486606
227	0xbe2f8ce6	-0.17143592
228	0x3e15bb58	0.14622247
229	0xbc9b4e6d	-0.018958295
230	0x3d46691f	0.048440095
231	0xbcf7e398	-0.030259892
232	0x3d3ae63b	0.04562972
233	0x3da985de	0.08277486
234	0xbc9e634f	-0.019334463
235	0x3daa1da6	0.08306436
236	0xbc327a7c	-0.01089346
237	0x3e3bbc08	0.18333447
238	0xbe15dc86	-0.14634904
239	0xbdfc7528	-0.12327033
240	0x3dcb27a3	0.099196695
241	0xbe2a3fda	-0.1662592
242	0xbc31ade3	-0.0108446805
243	0xbd7e243e	-0.062046282
244	0xbe15c58e	-0.14626142
245	0x3e2f6b7b	0.17130844
246	0xbe233ee6	-0.15941963
247	0xbd8ead5f	-0.06966662
248	0x3d5c43de	0.05377566
249	0x3e026aa4	0.12735993
250	0xbd98314f	-0.0743128
251	0xbe312206	-0.17298135
252	0x3e03fe2e	0.1288993
253	0x3d23e905	0.040017147
254	0x3e2c62d7	0.1683458
255	0xbde1d6a0	-0.110272646

projection.fc1.bias f4 [64]
0	0xbddd2bea	-0.107993916
1	0x3c7174a7	0.014737285
2	0xbd4c3f87	-0.049865272
3	0xbc416211	-0.011803166
4	0x3d5269d5	0.05137046
5	0xbab836ea	-0.0014054452
6	0xbce4736b	-0.027887067
7	0x3e22e34b	0.15907018
8	0xbcbdb30a	-0.023156662
9	0x3bb951e4	0.005655514
10	0x3cdd84ad	0.027040804
11	0x3e2ac3d2	0.16676262
12	0x3bc438f7	0.005988236
13	0x3dd3e827	0.10347014
14	0xbde6bf2d	-0.11266933
15	0x3da98ad5	0.08278433
16	0xbd465950	-0.04842502
17	0x3d7dd498	0.061970323
18	0x3d75e46a	0.060032286
19	0x3c969e16	0.018385928
20	0xbd5feb50	-0.05466777
21	0xbe05719c	-0.1303162
22	0x3ca089cc	0.019596957
23	0xbd99c863	-0.07508924
24	0xba9f56bf	-0.001215659
25	0x3e040767	0.12893449
26	0xbc5f252e	-0.013619704
27	0x3df4bfb6	0.119506285
28	0x3e003831	0.12521435
29	0x3e1e9539	0.15486611
30	0xbdf39130	-0.11892927
31	0x3d5e8749	0.054328237
32	0x3ddbc614	0.1073114
33	0x3d431aef	0.047633108
34	0xbdbeec47	-0.0932241
35	0x3d98c2d6	0.07459037
36	0x3e23edd2	0.1600869
37	0xbdcb21ab	-0.09918531
38	0x3d4758a6	0.048668526
39	0x3ddf7d9b	0.10912629
40	0x3dd3f3c4	0.10349229
41	0xbe037f13	-0.12841444
42	0x3bff9677	0.007799919
43	0x3d32626b	0.04355089
44	0x3dc33ee7	0.09533482
45	0xbaacbe68	-0.0013179304
46	0x3e292068	0.16516268
47	0xbc95586f	-0.018230645
48	0xbb201a26	-0.0024429648
49	0x3de6e1c4	0.1127353
50	0x3e272107	0.16321193
51	0x3c3032e0	0.010754317
52	0xbcf6d921	-0.030132832
53	0xbe36759d	-0.17818303
54	0xbca17401	-0.019708635
55	0xbaaa05c2	-0.0012971687
56	0xbd19f060	-0.037582755
57	0x3e1a9a35	0.15097888
58	0x3ddac55e	0.10682176
59	0x3dea0211	0.114261754
60	0xbd2fdbbe	-0.04293417
61	0xbde8e39a	-0.113715366
62	0xbca95462	-0.02067012
63	0xbcaad1f4	-0.020852067

projection.fc2.weight f4 [1, 64, 1]
0	0x3dd5a8c9	0.10432584
1	0xbc7bc986	-0.015367871
2	0x3ddd1c4e	0.10796414
3	0xbdbd5dee	-0.09246431
4	0xbc66c16d	-0.014084202
5	0x3c1d6a7a	0.0096079055
6	0xbdef724c	-0.11691722
7	0x3d5f3bb4	0.054500297
8	0xbdf625d8	-0.12018937
9	0xbdb545cc	-0.08851203
10	0xbccf4d5c	-0.025305443
11	0x3cf1e5cb	0.02952852
12	0x3ce3f28e	0.02782562
13	0x3daa11f7	0.08304208
14	0xbd89d873	-0.067307375
15	0xbc38b8a9	-0.011274495
16	0xbd9f0aa8	-0.077657044
17	0x3d9db824	0.07701138
18	0x3cb48666	0.022036742
19	0xbd213e91	-0.03936631
20	0x3e05991a	0.13046685
21	0x3dc3eeb6	0.09567015
22	0x3d13eac3	0.036112558
23	0xbd2bb9be	-0.041925184
24	0xbc923d36	-0.017851453
25	0xbd0b6abf	-0.034037348
26	0xbd18920b	-0.037248652
27	0x3dc410ec	0.0957354
28	0xbd098136	-0.03357049
29	0xbe0944cf	-0.13405155
30	0x3d98822e	0.07446705
31	0xbde38978	-0.111102045
32	0xbdc6befd	-0.09704397
33	0xbb6a072b	-0.003570984
34	0x3d988d54	0.07448831
35	0xbbd5f1d1	-0.006529071
36	0x3dfa9d7f	0.12237071
37	0x3c9823b0	0.018571705
38	0xbdc422dc	-0.095769614
39	0x3d916e2b	0.07101091
40	0x3e026ee3	0.12737612
41	0xbc50e604	-0.0127501525
42	0xbcff985d	-0.031200582
43	0x3d4cebae	0.05002945
44	0x3c1654cb	0.00917549
45	0xba35f751	-0.0006941455
46	0x3d116776	0.03549906
47	0xbc9df250	-0.019280583
48	0x3cbc42c7	0.02298106
49	0xbdeeade5	-0.116542615
50	0x3dc1eb3d	0.09468696
51	0xbc920f58	-0.017829582
52	0xbd432dce	-0.047651105
53	0x3d1e4b2f	0.03864592
54	0xbdc33ff8	-0.095336854
55	0xba1ed073	-0.0006058283
56	0x3d49b9cc	0.049249455
57	0x3d9c79de	0.07640432
58	0x3d0b1e8d	0.033964682
59	0xbc976aa2	-0.018483464
60	0x3cdc592e	0.026897993
61	0x3de9ea59	0.114216514
62	0x3ddbf1c6	0.10739474
63	0x3dd7603a	0.10516401
