neuraloperator/examples/para/fno_para_202305121540_001002003004_modes36_epochs200.pth (torch, 812179 bytes, 31 tensors)

convs.bias f4 [4, 32, 1]
00000000: fabd 18bb 008f 953b d82f 9a3c 1e30 373c
00000010: 1278 7fbb 1929 81bb d4b7 d33b c418 ea3b
00000020: 8c90 443c 5534 0fbc 4bc5 e13b 90b0 b23a
00000030: d792 b43b 447c f2ba 0949 dc3c a3f2 4fbc
00000040: 1d5a db3b ee58 823b 0383 de3a 4c87 993b
00000050: b914 7dbc 1a81 a53c 1f0f 7cba af06 37ba
00000060: 48dd e93b b849 0c3c 3c55 493a 0e6d 9c3b
00000070: 102a 993b d022 45ba a063 173d 7d93 c83c
00000080: 046c 743b 0c8f a33a 2614 92bc a23b 97bc
00000090: 6a80 6ebb e3a4 2a3b f01e eb3b 4aa9 a23b
000000a0: 2cc8 9b3b 6bc3 18bc a96a 8a3b 177a 9a3b
000000b0: f4aa 1a3b 8fc9 c4bb 8e22 823b f992 6abc
000000c0: f39e 843b b59c bb3b c041 1b39 03f8 b63b
000000d0: 9bc6 32bc 8571 00bc 8951 38bb 0402 a1ba
000000e0: cf65 553a 9703 b4bb 72cc 8eba dbfc 723b
000000f0: 49c3 e43b c7af 6bbb d052 ad3b 833e da39
00000100: a695 15ba 19f7 83bc 1774 dabb 4d95 1dba
00000110: 6dd1 80bb e504 8e3b 239a e33b 0dad ad3b
00000120: 4249 993b d183 f8bb c601 ad3b 3697 fa3a
00000130: da25 9b3b f036 a9bb bdb4 d53b 3f27 63bc
00000140: f8f3 de3b fac6 6e3b 21ee 5e3b 94cb b43b
00000150: 58ab 1dbc e167 d9bb dd54 753a c9c4 c4bb
00000160: 9712 6ab9 d2ed 2cbb 946e 58b9 700f 7b3b
00000170: c162 c43b 9158 a5ba fad7 af3b 0717 fcbb
00000180: 1ea7 a93b 1517 71bb abfc e4bb 6e3c b8bb
00000190: e28f fdbb 8e5f 053c cb1f bf3b ec7e fd3b
000001a0: 78b9 963b 910c 8ebb c385 d13b 1865 3d3b
000001b0: 6a8c bb3b 0d91 d5bb ec40 b63b a92d 7fbc
000001c0: 5228 b93b 5e80 a53b 8960 4c3b 5c59 a83b
000001d0: 7214 e5bb 98d9 e9bb 17db adbb 9802 ffbb
000001e0: e359 c4bb 2b7c b6bb 10e6 34ba c80b b13a
000001f0: acf0 a33b 92a9 80bb ad43 f13b 5e04 02bc
-0.0023306594 0.004564166 0.018821642 0.011180906 -0.003898148 -0.003941667 0.006461123 0.0071440656
0.011997353 -0.008740504 0.006889974 0.0013632942 0.0055106687 -0.0018500169 0.026890295 -0.012692126
0.006694092 0.0039778864 0.00169763 0.004685318 -0.015446835 0.020203162 -0.00096152903 -0.0006981892
0.0071369745 0.008562498 0.00076802424 0.0047737425 0.0046742037 -0.0007520141 0.036960244 0.02448439
0.0037295828 0.0012478544 -0.017831873 -0.018461052 -0.0036392459 0.0026038222 0.007175319 0.0049640285
0.004754087 -0.009323935 0.0042241407 0.0047142613 0.002360043 -0.006005473 0.0039714044 -0.014317268
0.0040472685 0.005725468 0.00014806446 0.0055837645 -0.010911609 -0.007839565 -0.002812477 -0.0012283926
0.0008140476 -0.005493592 -0.001089467 0.0037076983 0.0069812876 -0.0035962926 0.005289413 0.00041626775
-0.0005706198 -0.016109036 -0.006666671 -0.0006011322 -0.0039312155 0.0043340796 0.0069458648 0.0053001703
0.0046779225 -0.007584073 0.0052797524 0.0019118551 0.004734737 -0.0051640198 0.00652179 -0.0138643375
0.0068039857 0.0036434517 0.0034016448 0.0055174325 -0.009623371 -0.006634698 0.0009358654 -0.006004904
-0.00022322904 -0.002638687 -0.00020640559 0.0038308762 0.0059932177 -0.0012614896 0.0053663226 -0.0076931748
0.0051773926 -0.003678744 -0.006988128 -0.005622438 -0.0077380994 0.008140458 0.0058326474 0.0077360775
0.0045997463 -0.004334994 0.0063941195 0.0028899368 0.005723526 -0.0065175355 0.0055619385 -0.015574851
0.0056505585 0.005050703 0.003118547 0.0051376056 -0.0069909627 -0.007136535 -0.0053056586 -0.0077822916
-0.0059921606 -0.005569001 -0.0006900737 0.0013507539 0.0050030556 -0.0039264644 0.007362804 -0.0079356115

convs.bias_bc f4 [4, 32, 1]
00000000: 4672 9fba 6e9e 983a 20e9 d0ba a032 303a
00000010: a437 9c3a af80 a3b7 326e 07ba 3cda c7b9
00000020: 7fe9 1abb 7361 ab3a bc98 4eba 07af 4c38
00000030: 8fe8 59ba 77d4 823a 8a27 a2ba 5b03 b9ba
00000040: 4405 c938 ca70 4d3a f440 4f3a c688 5fba
00000050: ab21 2939 9060 56b9 2920 6bba 90b7 f33a
00000060: 377a 26ba ed5c da38 f7df df39 30b9 513a
00000070: 38c4 9c3a c903 8aba 594c b639 3e13 6fba
00000080: cbad 563a 3028 1d38 2bfe a036 1295 3aba
00000090: a6cc 98b9 0030 743a 7f9e 03ba aff0 8939
000000a0: 8e2d c5ba f19c 26bb 4948 9839 47af d7b9
000000b0: 02ac e039 de01 5339 d0db f1ba 9e99 d03a
000000c0: 28f3 4239 b037 45ba 61a9 f63a 4c9c 2139
000000d0: 2434 f6ba a4b8 cf39 49a5 22bb c2e7 09bb
000000e0: b7a8 5838 b07c 4db9 d3dd 6aba 8e09 58ba
000000f0: 7533 1c39 bdf2 f3b7 6d0a fcb9 93e2 18ba
00000100: 94b4 253b 84e4 89ba ffdd 2c3a bb39 bbba
00000110: 7cb5 c13a a579 72b9 a4bc c03a 6b2a 023b
00000120: d00b 8c3a 5d19 473a 6614 3ab9 0d2c 8d3a
00000130: 1758 85ba e6f7 383a 2516 dfb8 7ad5 f2ba
00000140: 39ce 0539 b7ff ad3a 3f82 00ba 55e4 073b
00000150: 7df3 0b3a ab11 cb39 8aee cb3a c1fa 85ba
00000160: e494 5c39 2ad9 10ba 1018 2abb 57e8 423a
00000170: e4d6 2fb9 7682 44ba f3c5 c439 6d9d 3b39
00000180: 20cd 75ba 2902 4c3a ff79 93b9 d1a7 c5ba
00000190: 48d1 06bb 62d5 9c39 3f51 0bba a509 d4ba
000001a0: e75e 0dba 3006 28ba 95ed 5b38 1d2c f439
000001b0: 825e 823a c5ec 89ba 2382 3c3a 0c82 5fba
000001c0: 422a 9a3a 6b52 03bb de6a 18b8 4ef2 82b9
000001d0: dfeb 083a a1c5 6a3a 97ee 8739 141c 9a3a
000001e0: 2858 d139 37d0 073b 45b8 99ba 4296 4e3a
000001f0: 2549 11ba b7a6 ff39 a070 12ba 8cac 193a
-0.0012164793 0.0011643895 -0.0015938617 0.0006721411 0.0011918438 -1.9491037e-05 -0.00051662617 -0.00038118835
-0.002363771 0.0013075307 -0.00078810356 4.8800397e-05 -0.0008312547 0.0009981532 -0.0012371403 -0.001411538
9.585408e-05 0.0007836936 0.0007906102 -0.0008527156 0.00016129638 -0.00020444603 -0.0008969331 0.0018594135
-0.0006350609 0.00010412359 0.0004270074 0.00080003124 0.0011960333 -0.0010529693 0.0003477063 -0.0009119994
0.00081893493 3.7469144e-05 4.7979606e-06 -0.000711755 -0.00029144174 0.0009315014 -0.0005020871 0.0002631
-0.0015043484 -0.0025423134 0.00029045556 -0.00041138587 0.00042852765 0.00020123224 -0.001845235 0.0015914922
0.00018591865 -0.00075232517 0.0018818789 0.00015412382 -0.001878385 0.00039619685 -0.0024817756 -0.002104268
5.165554e-05 -0.00019596773 -0.0008959446 -0.000824117 0.00014896489 -2.9080891e-05 -0.00048072953 -0.0005832102
0.0025284635 -0.0010520373 0.00065943593 -0.0014284173 0.0014778818 -0.00023124235 0.0014704657 0.001986171
0.0010684673 0.0007595027 -0.00017745941 0.0010770574 -0.0010173348 0.0007055983 -0.000106375934 -0.0018526756
0.00012760692 0.0013275062 -0.00049022207 0.0020735462 0.0005338712 0.0003873234 0.0015558761 -0.0010221825
0.00021036301 -0.0005525524 -0.0025954284 0.0007435134 -0.00016769354 -0.0007496247 0.00037531517 0.00017892355
-0.00093765743 0.00077823043 -0.0002812892 -0.001507992 -0.0020571519 0.0002991362 -0.0005314536 -0.0016177191
-0.00053928647 -0.00064096134 5.2434934e-05 0.00046572174 0.0009946378 -0.0010522833 0.0007191023 -0.00085261534
0.0011761861 -0.0020038139 -3.6339152e-05 -0.00024976063 0.0005223136 0.00089558406 0.0002592697 0.0011757636
0.00039929268 0.002072347 -0.001172789 0.00078806665 -0.00055422104 0.00048761602 -0.00055862404 0.00058621983

convs.weight.0.tensor f4 [32, 32, 18, 2]
00000000: 5ce8 c23b 9060 2e00 bf7c 9238 f9e9 90b8
00000010: 6369 ecb7 443a f9b8 5981 ffb7 a4c3 eab8
00000020: 14f5 e3b7 7608 c5b8 a624 a9b7 2a63 99b8
00000030: fce2 74b7 4c94 88b8 7026 2eb7 5024 5bb8
00000040: efaa d4b6 bc58 2fb8 1545 7db7 5cc7 03b8
00000050: 5488 51b7 7492 01b8 99aa 29b7 36b2 f5b7
00000060: 515f f9b6 6934 00b8 3796 ddb6 bbdc 14b8
00000070: e855 20b7 36bc 4db8 39ae 7cb7 71e8 a5b8
00000080: 2498 30b7 5d9b d3b8 95f0 78b6 2656 ceb8
00000090: 85de c0bb 9318 1502 da56 a9ba 4a79 8d37
000000a0: 2425 a0b9 87b7 dd37 77b0 fab8 ee97 b537
000000b0: d962 80b8 20b4 9237 0342 0fb8 11b0 8437
000000c0: 0ab2 1039 bf5a 19b8 f2a1 f238 00b2 3eb8
000000d0: 0d27 1339 d855 64b8 ffd7 ee35 ae9e 93b7
000000e0: 661d ddb6 f9d9 44b6 2afd bdb6 faf2 1bb4
000000f0: 89ba 81b6 b868 4e35 d42c 13b6 4b19 c535
00000100: b984 0e35 a655 5335 e772 a637 16f1 37b7
00000110: b56b 6438 0dc5 31b7 2e0c 2ab8 c348 3bb8
00000120: 0542 8fbc 18a1 9d80 d496 583c 9948 adbb
00000130: e730 e43b e96b 53bb a5cd 743b 893c f4ba
00000140: 3d4f 0c3b dcfe d3ba 0fdd f23a e9c6 e9ba
00000150: cd3d d93a a342 22ba 810e 1e3b 6f6f 6839
00000160: eff0 663b 1927 a639 627d f23a 093c 903a
00000170: 4760 0e3b 4a4b ea3a 975b d03a 9e0d a03a
00000180: 35c7 b03a bd7b 483a 39d7 c23a d628 323a
00000190: 4151 ee3a bf89 543a 0cfe 053b 4412 d638
000001a0: 3109 773b 4c63 fb3a 596b 44bc 8704 a23c
000001b0: d4a0 45bc b04b f981 1d75 73bb 1e2c 83ba
000001c0: 32f9 4cba 5f9b 1dba 3e8c 2eb9 c32b b6b9
000001d0: db17 f6b7 dc7a 56b9 7198 f237 935b 0fb9
000001e0: d41e a639 07f9 40b7 7c7c 5539 8bad cb37
000001f0: d0bd 3039 d3c4 5038 bd91 1738 6226 0a37
00000200: abc7 0938 4e12 2ab7 1c12 4338 f29b 94b7
00000210: 5b9f 8638 5f32 bfb7 38f1 a938 fa75 d9b7
00000220: c6c2 d838 e926 a8b7 c62e 2039 8125 ec37
00000230: 70af 0c39 c48d fd38 cdc5 8b38 c047 1938
00000240: 4cc0 ebba f8f2 5381 0b04 12bc 3262 0cbc
00000250: c1f1 91ba 751e 07bc d2e8 14bb 6d15 4dbc
00000260: 3e4a dfbb 9290 7abc d72e 16bc 3f74 8cbc
00000270: 5c02 ccbc da4a bcbc 3dce dabc b5e7 cdbc
00000280: 708e 18bd d368 e2bc 42f9 9bbc 0fcc d4bc
00000290: 1d78 1bbc 0c2b c6bc 79f4 c5bb eb16 aebc
000002a0: bc8e 9fbb e4b5 a5bc d03e 1cbc 9ffc aabc
000002b0: b9d1 d0bc 3c42 00bd 3c70 75bd 77ba 67bd
000002c0: e623 72bd 2737 acbd f2e4 69bd ee29 c0bd
000002d0: 6e03 c83b 0d78 0802 ef64 abb9 b612 7eba
000002e0: a9b8 06b9 03b5 f3ba c937 21b9 0b97 fdba
000002f0: 493a 36b9 42b0 d6ba 84fa 3eb9 bb4c bcba
00000300: 5e08 ffb8 e474 97ba d7a1 81b8 7cb5 70ba
00000310: a0a9 a938 746f 3bba 03a1 22b9 699a 20ba
00000320: 9eac 5db9 15c2 2bba 7cba 5ab9 1e64 28ba
00000330: b954 52b9 a57a 2eba e470 4bb9 1895 40ba
00000340: a8b8 3cb9 bf99 64ba f99d 2db9 eb4e 87ba
00000350: 7312 0337 197f 93ba fd1d e0b8 92db 8fba
00000360: 6f5f 38bc e060 0001 2144 c2bb 1552 093c
00000370: 0d28 e1bb c1d6 403c 6c0b fdbb 688c 673c
00000380: 32f2 0dbc 52b2 323c 0a16 07bc 4af2 c13b
00000390: 78d5 52bc 6ae0 0b3c 09a1 6ebc 102b ed3b
000003a0: c7f8 52bc 1173 163c 5ef4 51bc 4076 dc3b
000003b0: 953f 71bc 5a69 9d3b 1d6a 5fbc b604 933b
000003c0: cc2c 3abc 385b ab3b d402 21bc 7610 903b
000003d0: 604f 50bc da5c 943b faf6 84bc 5764 903b
000003e0: 743b a1bc fc79 d93a 7166 cebc b87c 98bb
000003f0: ece3 16bc 5e91 8d01 1c94 94bb a77f 353b
0.0059481096 4.259073e-39 6.985058e-05 -6.910036e-05 -2.8182467e-05 -0.00011884098 -3.0458601e-05 -0.000111944304
-2.7174632e-05 -9.395268e-05 -2.0163436e-05 -7.314079e-05 -1.4596382e-05 -6.512608e-05 -1.0380158e-05 -5.2247487e-05
-6.3379916e-06 -4.180589e-05 -1.50960595e-05 -3.14185e-05 -1.2489112e-05 -3.089239e-05 -1.0112905e-05 -2.9289262e-05
-7.4318746e-06 -3.056639e-05 -6.6038006e-06 -3.549152e-05 -9.556745e-06 -4.9051094e-05 -1.5060935e-05 -7.911109e-05
-1.05258405e-05 -0.00010090203 -3.7094917e-06 -9.838892e-05 -0.0058859014 1.0953844e-37 -0.001291956 1.686499e-05
-0.0003054525 2.6430715e-05 -0.00011953798 2.164763e-05 -6.1219274e-05 1.7488434e-05 -3.4155335e-05 1.5817614e-05
0.00013799235 -3.6562556e-05 0.00011569624 -4.5465305e-05 0.0001403356 -5.4439384e-05 1.7795245e-06 -1.7597657e-05
-6.5897357e-06 -2.9333153e-06 -5.662111e-06 -1.4523894e-07 -3.866215e-06 7.6893366e-07 -2.19308e-06 1.4685005e-06
5.309226e-07 7.872826e-07 1.9842248e-05 -1.0963782e-05 5.4459746e-05 -1.0595902e-05 -4.05425e-05 -4.465204e-05
-0.017487535 -1.4475962e-38 0.013219554 -0.0052881953 0.0069638374 -0.0032260364 0.003735402 -0.0018633764
0.0021409534 -0.0016173976 0.0018529015 -0.0017835769 0.0016574204 -0.0006189739 0.0024117532 0.00022166756
0.0035238822 0.00031691117 0.0018500502 0.001100422 0.0021724866 0.0017875221 0.0015896437 0.001221109
0.0013487103 0.0007647833 0.0014865167 0.0006796246 0.0018182175 0.0008107684 0.0020445613 0.000102077174
0.0037694687 0.0019179373 -0.011988484 0.01977755 -0.01206227 -9.157676e-38 -0.0037148662 -0.0010007655
-0.00078191154 -0.0006012227 -0.00016646177 -0.0003474635 -2.9336594e-05 -0.00020454399 2.8919634e-05 -0.00013671657
0.00031684956 -1.1502073e-05 0.00020359637 2.4280298e-05 0.00016855379 4.977437e-05 3.6136935e-05 8.234378e-06
3.28493e-05 -1.01370515e-05 4.650849e-05 -1.7715593e-05 6.4193e-05 -2.279243e-05 8.1034785e-05 -2.5923353e-05
0.00010335962 -2.004528e-05 0.00015276214 2.8150856e-05 0.00013416796 0.00012090386 6.66488e-05 3.6544865e-05
-0.0017986386 -3.89289e-38 -0.008912097 -0.008568333 -0.001113467 -0.008247008 -0.002272178 -0.012517315
-0.0068142703 -0.015293257 -0.009166441 -0.017145274 -0.024903469 -0.02298491 -0.02670967 -0.0251349
-0.037245214 -0.027637875 -0.019039754 -0.025976209 -0.009489086 -0.024190448 -0.0060411063 -0.021251163
-0.00486931 -0.020228334 -0.00953646 -0.020872412 -0.025490629 -0.031313166 -0.05992149 -0.05657431
-0.059116267 -0.08408957 -0.057103105 -0.093829975 0.0061039245 1.0026155e-37 -0.00032690863 -0.0009692119
-0.00012848027 -0.0018593374 -0.00015374938 -0.0019347382 -0.00017378585 -0.0016379433 -0.00018213136 -0.0014366129
-0.00012160906 -0.0011555222 -6.181344e-05 -0.0009182317 8.090143e-05 -0.00071500917 -0.00015509505 -0.00061265245
-0.00021140507 -0.0006552053 -0.00020859571 -0.000642361 -0.00020058722 -0.00066558487 -0.00019401644 -0.00073464355
-0.00017997867 -0.000872042 -0.00016557415 -0.0010323202 7.812504e-06 -0.0011253088 -0.00010686738 -0.0010975471
-0.011253222 2.3579391e-38 -0.0059285318 0.008381386 -0.0068712295 0.011769951 -0.007722309 0.014132597
-0.008663701 0.010906773 -0.008245001 0.0059187757 -0.012868278 0.008537391 -0.014564761 0.0072377995
-0.012876696 0.009182707 -0.012814609 0.0067279637 -0.014724632 0.0048038187 -0.013636139 0.0044866456
-0.0113632195 0.00522938 -0.009827334 0.0043964935 -0.012714237 0.0045276703 -0.016231049 0.0044064927
-0.01968167 0.001659214 -0.025195332 -0.0046535395 -0.009209614 5.200381e-38 -0.0045342576 0.0027694495

convs.weight.1.tensor f4 [32, 32, 18, 2]
00000000: 42ec d0ba b01e cb80 85a6 9e38 abe3 a6b8
00000010: a0bd 28b8 ff6f 16b9 750d 32b8 3baf 0db9
00000020: 5b4a 1eb8 1f68 edb8 6c48 f3b7 e1b9 b7b8
00000030: a43e b3b7 0519 a6b8 e98e 84b7 993c 84b8
00000040: 5347 37b7 6b63 52b8 48e5 b3b7 f6ac 1bb8
00000050: db78 98b7 fbf9 19b8 7584 7eb7 7ce5 12b8
00000060: da2d 49b7 cdc8 19b8 26b4 3cb7 d207 34b8
00000070: fa54 81b7 9e8b 7bb8 5a54 bdb7 b8f3 cbb8
00000080: 829d 87b7 150b 00b9 50df e5b6 1193 f3b8
00000090: 9493 6cb8 94d4 1382 4ca0 27b6 7bfa 2836
000000a0: 3af0 83b5 8cee 8735 0b23 f0b4 16f0 7f35
000000b0: 2332 7ab4 5793 1735 912f 01b4 b656 8434
000000c0: e4b4 aa37 1ed3 47b7 9262 9a37 c71c 6bb7
000000d0: 6c97 bc37 ec62 7cb7 9c61 ad32 51a5 98b6
000000e0: 9df5 73b5 b9ef 9cb5 1737 84b5 596b 28b5
000000f0: 9329 81b5 27e1 f1b4 b1f8 72b5 bdfd e2b4
00000100: 0ab5 91b5 9839 65b5 5463 6a35 8217 adb6
00000110: 4959 5437 c7f8 c5b6 e03d 1cb7 bc6f 0db7
00000120: 1827 c634 d25f e301 4378 6335 2b85 f233
00000130: 8735 a1b4 6631 b833 77ac a2b4 1ac0 d233
00000140: a711 7cb4 6fa6 cf33 4c73 3db4 92c7 bb33
00000150: 8bfb 32b5 6ead ad34 220e 14b5 749f b134
00000160: c5c4 29b5 c78d a934 9ffc 62b3 0d5a 0434
00000170: 8055 6731 583e 3133 846b da32 46ed e831
00000180: 70d4 3233 9489 1db2 acd0 5933 4871 87b2
00000190: 8858 9633 f6d1 f1b1 abc4 d333 f46f c833
000001a0: 3cd4 25b5 d1e3 d834 6a28 edb4 4c4e 5c34
000001b0: a871 4db8 346b f381 7e57 fb35 afd2 5636
000001c0: 1db8 6535 d1c5 2d36 7df3 bd34 c814 f935
000001d0: a457 ed32 2162 8b35 b212 1eb4 02dc fe34
000001e0: e247 ddb4 e9ec 0d35 e800 02b5 59e0 7f34
000001f0: c2f9 1bb5 25a8 7633 620f c5b4 5397 99b3
00000200: 5848 dbb4 8456 c4b2 b512 edb4 87b4 c6b2
00000210: 43e6 e8b4 80e3 9cb2 ac28 dab4 b315 6532
00000220: 6b74 e5b4 02b5 7eb1 95ea 0bb5 57db b6b3
00000230: 51b0 70b5 f488 a834 046c fbb4 4dff 8d35
00000240: 0810 deba e429 2002 d9c1 d138 9222 0c39
00000250: cfcb 2038 6eb7 ef38 7ff8 fc37 b92c db38
00000260: de10 b737 20b7 9938 1bf2 7937 82ed 4038
00000270: aec2 24b8 bc4c 9038 1d39 51b8 d317 7d38
00000280: ce2e 41b8 d3cf 3438 c57d 4cb8 ae84 9f38
00000290: ec2f 23b8 a2dd 8c38 f280 11b8 7208 8238
000002a0: 5f19 e0b7 9f61 5c38 9f50 50b7 fc0d 2e38
000002b0: 246e 2637 db5b 2538 9e90 2738 bf20 6a38
000002c0: 1889 6b38 6ff9 b938 2d17 8138 dd54 c738
000002d0: 4925 ccba ccea 2202 a79c 4e38 1213 56b8
000002e0: f919 aab5 f974 30b9 f743 3bb7 aa45 3ab9
000002f0: 3994 69b7 f289 1eb9 d249 82b7 01e4 07b9
00000300: cadb 89b7 519e c5b8 9c36 52b7 5fb0 a4b8
00000310: 34f3 22b6 db96 88b8 a77f b6b7 9b8e 5cb8
00000320: ab7f cdb7 7ad2 51b8 13f9 c5b7 c47d 4ab8
00000330: 4036 b3b7 dc1e 53b8 3028 9cb7 a7c4 74b8
00000340: 27cd 90b7 5346 a6b8 3920 82b7 0d1d f4b8
00000350: 9ff1 02b6 8346 0bb9 b035 b0b7 115b feb8
00000360: 3c55 3cbb ac36 5581 74ca d939 20b4 9039
00000370: caa8 6e38 f9b9 9835 15de 38b7 c182 92b8
00000380: 8b45 3bb8 f0c4 02b9 e9d6 6bb8 c608 1db9
00000390: ce15 17b8 ab7c 00b9 0c99 88b8 104a 03b9
000003a0: 34ab 93b8 2561 00b9 e8a7 e6b8 e394 c3b8
000003b0: 81d7 c6b8 8e80 bdb8 6fb2 c7b8 f5fd b8b8
000003c0: 6947 beb8 efb2 c0b8 2268 a9b8 4199 cfb8
000003d0: d30b 9ab8 d1e8 efb8 9b26 acb8 f756 27b9
000003e0: a3e2 67b8 36fa 01b9 61f4 0cb8 e6fe 67b8
000003f0: 5a81 39bb 7043 3e80 cc91 2938 8019 8039
-0.0015939551 -1.8653614e-38 7.565044e-05 -7.957903e-05 -4.0230923e-05 -0.00014346837 -4.245104e-05 -0.00013512086
-3.7739384e-05 -0.00011320435 -2.9001581e-05 -8.760743e-05 -2.1367632e-05 -7.920157e-05 -1.5802174e-05 -6.305538e-05
-1.09242565e-05 -5.016049e-05 -2.144523e-05 -3.7115962e-05 -1.817609e-05 -3.6710855e-05 -1.517042e-05 -3.5022837e-05
-1.1991209e-05 -3.6665053e-05 -1.1247617e-05 -4.2922627e-05 -1.5417569e-05 -5.9973092e-05 -2.2569835e-05 -9.7251905e-05
-1.61666e-05 -0.0001221116 -6.850729e-06 -0.00011614536 -5.6404228e-05 -1.0860861e-37 -2.4978244e-06 2.517975e-06
-9.830176e-07 1.012771e-06 -4.472898e-07 9.5344274e-07 -2.3301304e-07 5.646629e-07 -1.2031366e-07 2.4650006e-07
2.0349813e-05 -1.1910479e-05 1.8404131e-05 -1.4013792e-05 2.2481858e-05 -1.50434025e-05 2.0184238e-08 -4.5491984e-06
-9.088197e-07 -1.1692674e-06 -9.8508e-07 -6.274109e-07 -9.623349e-07 -4.5053568e-07 -9.051392e-07 -4.22804e-07
-1.0856031e-06 -8.539296e-07 8.7316334e-07 -5.1585384e-06 1.2656973e-05 -5.900019e-06 -9.312731e-06 -8.43027e-06
3.6908818e-07 8.3524126e-38 8.4739094e-07 1.1293226e-07 -3.0027533e-07 8.577153e-08 -3.0300336e-07 9.81383e-08
-2.3475751e-07 9.669463e-08 -1.7643941e-07 8.744168e-08 -6.667621e-07 3.2349948e-07 -5.515486e-07 3.3084837e-07
-6.3243743e-07 3.158186e-07 -5.2849483e-08 1.2326218e-07 3.3663525e-09 4.1267725e-08 2.5427433e-08 6.7790635e-09
4.1637065e-08 -9.169884e-09 5.0714036e-08 -1.5767583e-08 7.001023e-08 -7.037893e-09 9.861227e-08 9.33359e-08
-6.177613e-07 4.0398893e-07 -4.4174095e-07 2.0517581e-07 -4.898166e-05 -8.941793e-38 1.8726421e-06 3.201112e-06
8.557707e-07 2.5894153e-06 3.5381154e-07 1.8557994e-06 2.7630286e-08 1.0384866e-06 -1.4721698e-07 4.7471264e-07
-4.121676e-07 5.2871343e-07 -4.843009e-07 2.3830343e-07 -5.8105445e-07 5.7429265e-08 -3.6705302e-07 -7.1521434e-08
-4.0844566e-07 -2.2856746e-08 -4.41583e-07 -2.3132328e-08 -4.3380905e-07 -1.8264245e-08 -4.0635257e-07 1.3334488e-08
-4.273928e-07 -3.7064756e-09 -5.2122897e-07 -8.514933e-08 -8.966354e-07 3.1392085e-07 -4.6830985e-07 1.0579621e-06
-0.0016942034 1.1766966e-37 0.000100020035 0.00013364319 3.8336784e-05 0.000114305745 3.0156456e-05 0.00010451064
2.1823154e-05 7.329718e-05 1.4897926e-05 4.5997564e-05 -3.9281957e-05 6.880748e-05 -4.9882674e-05 6.034209e-05
-4.6058376e-05 4.3108896e-05 -4.8754522e-05 7.606424e-05 -3.890686e-05 6.7170025e-05 -3.4690784e-05 6.200456e-05
-2.6714695e-05 5.2543004e-05 -1.2416537e-05 4.1497857e-05 9.920015e-06 3.9424613e-05 3.9950588e-05 5.5820445e-05
5.6156045e-05 8.867948e-05 6.155516e-05 9.5048665e-05 -0.0015575077 1.1969264e-37 4.926012e-05 -5.1039337e-05
-1.2673546e-06 -0.00016828244 -1.1161893e-05 -0.00017764294 -1.3922393e-05 -0.00015119443 -1.5531583e-05 -0.00012959541
-1.643402e-05 -9.423181e-05 -1.252969e-05 -7.852981e-05 -2.4281444e-06 -6.5130844e-05 -2.1755533e-05 -5.25849e-05
-2.4497354e-05 -5.0025505e-05 -2.3600214e-05 -4.827768e-05 -2.1363725e-05 -5.033506e-05 -1.8615363e-05 -5.835728e-05
-1.726167e-05 -7.928596e-05 -1.5512212e-05 -0.00011640238 -1.9512152e-06 -0.0001328234 -2.1005835e-05 -0.00012128626
-0.0028737327 -3.9161147e-38 0.00041540305 0.00027600024 5.690082e-05 1.1379008e-06 -1.1018962e-05 -6.986177e-05
-4.464904e-05 -0.00012471131 -5.6228517e-05 -0.00014975955 -3.6021513e-05 -0.00012253474 -6.5134926e-05 -0.00012520724
-7.041395e-05 -0.0001224322 -0.000109985296 -9.326057e-05 -9.4815165e-05 -9.0361675e-05 -9.522295e-05 -8.821107e-05
-9.073207e-05 -9.1886024e-05 -8.077944e-05 -9.899075e-05 -7.345495e-05 -0.000114397735 -8.20879e-05 -0.00015958758
-5.5285764e-05 -0.0001239561 -3.3606197e-05 -5.5312084e-05 -0.002830586 -5.717993e-39 4.0428524e-05 0.00024433061

convs.weight.2.tensor f4 [32, 32, 18, 2]
00000000: 7971 493a 54b0 1681 ca21 13b9 e6fc fabc
00000010: 09c1 2c3c 1ea8 8cbc 358c 603c e982 7ebc
00000020: 1c78 a93c 390c ccbb 5d23 d63c 3af2 8b3a
00000030: f594 403d 66ae 183c 9bde 563d 5eef b23b
00000040: b459 763d 9dea 903a d155 f93c 6f07 d23c
00000050: 1d17 1d3d 190c b63c 8bfa c73c f2eb 633c
00000060: 5ce9 7b3c dce1 e43b 5941 793c c592 8e3b
00000070: 1ae0 e43c aab4 fd3b affd 953d 32f2 af3c
00000080: 89b0 e13d bc33 9e3c 40e8 f63d 8026 623c
00000090: c4ae a3bc 9cd2 6681 005a 413a 967f 463a
000000a0: f435 bc39 340d c8b9 1c57 5bb9 c647 22ba
000000b0: b4f6 b2b9 3403 05ba 68ab 9eb9 8202 e1b9
000000c0: 6fcc ee39 4c22 2f3a 8d1f ef39 4947 3b3a
000000d0: 0d24 0c3a 1e6b 0d3b efe4 1ab8 24cc 3b39
000000e0: e36c 11b9 3e0c ad39 5378 0bb9 34ce 6b39
000000f0: cb45 44b9 c3d9 6839 1386 99b9 8721 c039
00000100: 6c0d 1eba 9401 483a 6b6c a7ba 702f f33a
00000110: 68b0 58bb d42a 1a3b b150 073c 3785 36bb
00000120: 2a48 9bbb bc02 0701 997f e2b9 21ca 26ba
00000130: ae39 a7ba e5fe 903a 9b57 01ba a173 d23a
00000140: f31f 4f38 dd4c d03a e746 5739 8b66 b93a
00000150: 34ff d339 8dcc bb3a b061 8138 4072 5b3a
00000160: d52b d4b9 7ea6 78b9 1664 a4b9 df65 17b9
00000170: 1af6 2fba d26c 1bba b56b 33ba 7339 3cba
00000180: 88f3 e0b9 7811 6aba d5dd 86b9 e8a1 a0ba
00000190: 4a28 9a38 7d02 16bb 7701 883a 71a0 a0bb
000001a0: 8cad a63a 0a95 ffbb 9e2e 2d39 e97e 1abc
000001b0: dbdd acbb fc59 0681 ad3f 49bb a1f6 4aba
000001c0: cc61 543a 83e0 24bb d8e6 403b 3850 02bb
000001d0: a371 d03b aab3 06bb 6b62 0c3c 8d87 a1ba
000001e0: 8cf5 4a3c 1f1b ab3a a08b 4a3c 36f8 20b9
000001f0: 38a0 5d3c 50bc 37bb be8b 613b b032 813b
00000200: e22e 5a3b f19e c83b 3ab5 9f3a 68e6 833b
00000210: 8d07 40b8 b3e7 f43a 9420 6db7 ac8a 253a
00000220: 5e0a 0a3b 700f a8b9 9c80 8b3c 424b c438
00000230: 82ab 3a3d e5a8 243c 1cf6 763d 6655 8c3c
00000240: 0266 0638 c62d d681 f53c 943a 86c3 613a
00000250: d0b6 89bb 3488 f9ba 4213 1ebc d96a 44bb
00000260: fe60 76bc 59bc acbb d2dc 99bc 3d03 12bc
00000270: c6f0 eebc 4fd0 42bc 2e63 e9bc 935e 83bc
00000280: eb2d 0abd 15ec aabc 766c 84bc 1cb3 a5bc
00000290: 6b00 6abc d3a4 63bc 00a5 2ebc 7e96 29bc
000002a0: c935 1bbc d680 b6bb c28c 3bbc 9c93 62bb
000002b0: f508 c2bc f0c4 77bb 8125 7abd 475d 28bb
000002c0: 29e8 a8bd c0cb aa3c a7f6 ccbd 780c 3a3d
000002d0: 3dc3 913b b8b1 a700 d791 a83b 9404 e1bc
000002e0: de01 863c 2796 0f3a 4a2c da3c 6856 96bb
000002f0: 08ca 1b3d 995b 4f3a db65 243d bb3d c03b
00000300: 6f2e 7c3d ab64 c43b 5f11 913d 13cd 363c
00000310: 8dbd a83d 7d2c 5a3c ca53 3c3d 82b3 f83c
00000320: ca9c 4e3d 4471 fc3c f895 0e3d 83f9 b53c
00000330: 8caa c23c 43c9 4f3c 159b ca3c aa13 0f3c
00000340: a55d 2f3d eff2 7b3c fe8d c13d 3e6c c23c
00000350: 7109 f63d eb44 523c d816 073e 2806 30bd
00000360: 7eeb fc3b f283 f181 8338 543c 999e 00bb
00000370: b63a 743c 38c6 35bb 2b88 643c 6762 6bbb
00000380: f569 7b3c 06c4 e7ba 295d 7b3c 6634 afba
00000390: 9b0e 9f3c af9a 8bb9 eda9 903c bfcc d1b8
000003a0: 0cee 923c 541b f23a 8933 843c 55da 873b
000003b0: 0b80 783c 27b0 6c3b 2410 6a3c 607d 163b
000003c0: 0ade 573c 8df0 9238 4a22 613c 298d 07bb
000003d0: 0ac5 903c e130 71bb 1bfd bb3c 497d a5bb
000003e0: 8c3b db3c b516 fcbb 66c6 cd3c e73a d0bb
000003f0: 33d1 e93b 202c d400 c07b 483c 8ecb d6bb
0.000768445 -2.7677158e-38 -0.000140316 -0.03063817 0.01054407 -0.017170008 0.013705303 -0.015534141
0.020687155 -0.006227043 0.02613991 0.0010677048 0.047017056 0.009318924 0.052458387 0.0054606637
0.06014414 0.0011056248 0.030436428 0.02563831 0.03835212 0.022222565 0.02441146 0.013911234
0.015375461 0.0069849323 0.015213334 0.0043509924 0.027938891 0.007742484 0.07323777 0.021477792
0.110199995 0.019311778 0.12056017 0.013803124 -0.019980796 -4.2395433e-38 0.0007375777 0.00075721124
0.00035898353 -0.0003815681 -0.00020917918 -0.00061905046 -0.00034134614 -0.00050740247 -0.00030263816 -0.00042917213
0.00045547212 0.0006680831 0.0004560914 0.0007144106 0.0005345948 0.002157874 -3.6929672e-05 0.00017909758
-0.00013868841 0.00033006252 -0.00013300897 0.00022488163 -0.00018718017 0.00022206367 -0.00029282327 0.00036646074
-0.00060292217 0.00076296297 -0.00127734 0.0018553566 -0.003306413 0.0023524063 0.008258984 -0.0027850398
-0.0047388272 2.4797546e-38 -0.00043201147 -0.0006362517 -0.0012758279 0.0011062293 -0.00049340137 0.0016056189
4.93824e-05 0.0015892048 0.00020530411 0.001414494 0.00040435197 0.0014327929 6.169395e-05 0.00083712116
-0.00040468448 -0.00023713146 -0.00031355087 -0.00014438432 -0.0006712392 -0.0005928996 -0.00068443577 -0.00071801915
-0.00042906054 -0.00089289946 -0.0002572375 -0.0012255283 7.350797e-05 -0.0022889667 0.0010376413 -0.0049019386
0.0012716516 -0.0077997493 0.00016515932 -0.009429672 -0.0052754707 -2.4676474e-38 -0.003070812 -0.0007742439
0.0008101731 -0.0025158233 0.0029434469 -0.001988424 0.006361203 -0.0020553865 0.008568387 -0.0012323722
0.0123876445 0.0013054347 0.012362391 -0.00015351255 0.013526969 -0.0028035827 0.0034415568 0.00394281
0.0033292104 0.006122463 0.0012184747 0.0040252693 -4.57834e-05 0.0018684774 -1.4133886e-05 0.0006314914
0.0021063308 -0.0003205496 0.0170291 9.360026e-05 0.04557372 0.010050033 0.060293302 0.017130565
3.204309e-05 -7.8676866e-38 0.001130967 0.0008612204 -0.004202701 -0.0019037784 -0.009648146 -0.0029970913
-0.015037773 -0.005271476 -0.018782053 -0.008911905 -0.029167544 -0.011890485 -0.028489675 -0.016036307
-0.033735197 -0.020864526 -0.016165 -0.020227008 -0.014282326 -0.013894278 -0.010659456 -0.010350822
-0.009473273 -0.0055695577 -0.0114471335 -0.0034572845 -0.023685912 -0.0037806593 -0.061070923 -0.0025690363
-0.08247406 0.020849109 -0.10007983 0.045422047 0.004448323 1.5400281e-38 0.0051443386 -0.027468003
0.016358312 0.00054773915 0.026632447 -0.004587937 0.03803447 0.00079100725 0.0401362 0.005866734
0.06156772 0.005993446 0.070833914 0.011157292 0.08239279 0.013316271 0.045978345 0.030359033
0.050442494 0.030815728 0.03481099 0.022213703 0.023762964 0.012682262 0.024732152 0.008732716
0.042813916 0.015377744 0.09450911 0.023733255 0.120135196 0.012833814 0.13192308 -0.04297462
0.0077185025 -8.871875e-38 0.012952927 -0.0019625782 0.014906576 -0.0027736556 0.013948481 -0.0035916807
0.015345086 -0.0017682321 0.015342035 -0.0013367056 0.019416144 -0.00026627394 0.017659152 -0.000100040335
0.017935775 0.0018471279 0.016137855 0.0041459003 0.015167247 0.0036115737 0.014286075 0.0022962913
0.013175497 7.0066286e-05 0.013741085 -0.0020683503 0.01767208 -0.0036802816 0.022947839 -0.0050503355
0.026761793 -0.0076931366 0.025119018 -0.006354678 0.007135534 1.9484954e-38 0.012236536 -0.0065550273

convs.weight.3.tensor f4 [32, 32, 18, 2]
00000000: 8eb8 c5bb 7d07 1282 cf35 b53b c173 adbc
00000010: d671 103d 1abe 23bb b812 3c3d 8aa6 18bc
00000020: 5365 553d a81e 11bc 0379 5e3d 3aa1 87bb
00000030: 6fb5 8c3d c44a 803b d396 853d 92ef 073c
00000040: 3f8d 863d 845c 2b3c bb16 3f3d 3586 933c
00000050: 4473 423d 38e3 e93c e0ab 163d 6810 bb3c
00000060: a3c5 e93c f12e 783c 7aa3 003d a2cb 383c
00000070: cf1b 553d c258 843c 53a4 ae3d 052e b93c
00000080: f926 d43d 5b60 b83c f89d e53d 16ff d53b
00000090: f7c6 87bb 804e 6880 cebc 42bc 9f1f 0d3a
000000a0: 54a3 d0bb 10e5 413c 91f5 19bb ac5d 393c
000000b0: 2984 9cba e404 1b3c e6e1 633a 640a 213c
000000c0: 5c42 bb3b 58ce 533c a4fa f63b 1d84 783c
000000d0: 8f7d f23b 86ec a93c 0ffc 183c 17ca 593c
000000e0: 805f 483c 7158 473b 6e66 2a3c 76cd 8b3b
000000f0: 4284 263c 8ce8 733b d29a 403c 6928 053b
00000100: c125 823c 2838 bd3a ce63 8e3c c60a d5ba
00000110: d25d 1c3b 7efd a539 7e2f d4bc 0d4c 973c
00000120: 854a 48bb a042 a301 61bb cebb 6164 c93c
00000130: 9101 8dbc c99b 3f3d b4cd 25bc 9c36 5d3d
00000140: 2eb8 4bbc 321a 613d ea30 70bc d907 623d
00000150: 0fce 8bbc 6e59 883d 4307 d6bc ff5b 8a3d
00000160: 5a12 0dbd a4af b73d b491 07bd 40b3 2f3d
00000170: e420 bebb 38d0 413c 9a5a db39 12a6 0c3c
00000180: 07e9 023c a155 c9ba 6c11 4d3c 5882 1abc
00000190: 7cb7 853c 7417 d6bc a02f 2c3c 8ba0 99bd
000001a0: 3bd9 35bb 91db 14be 016c 4fbc 742c 61be
000001b0: a359 f5bb a0d6 0f00 18d2 87bc eca8 493b
000001c0: e83d e7bb f695 b13b 54a9 cfbb b6b7 0f3c
000001d0: bc6e c3bb 2e88 1a3c 782d d9bb 9a2e 243c
000001e0: d7d5 0bbc 219f 643c ccbf 0fbc 9152 6d3c
000001f0: 43f4 1fbc cfc0 533c f986 24bc 0aad 133c
00000200: f4d1 edbb 8d40 eb3b be18 dbbb 70a0 c63b
00000210: 711b c3bb 02cc c33b f4cf c9bb 216b bc3b
00000220: 6ad9 f0bb 894a da3b a69e 19bc 3dbf bd3b
00000230: 6f15 17bc 13d1 293b e591 e0bb 5213 13bc
00000240: 73bd 3bbb e6b7 9801 a1f9 0abc bae4 b0b9
00000250: c74d f3bc 2e44 bcbc d722 1dbd 6d7f c2bc
00000260: a5f9 38bd ac4e dcbc 72c4 4bbd 064c 03bd
00000270: 3454 6ebd dd07 3ebd 1767 68bd 858b 5cbd
00000280: af26 73bd aa0a 82bd b220 eebc 05b2 36bd
00000290: b300 eebc 8023 1cbd 0fdc b7bc ae82 eebc
000002a0: fd76 9ebc 6120 87bc a155 babc 7ced 2ebc
000002b0: 88cd 2ebd 949b 36bc bee2 a6bd b370 cdba
000002c0: 5c6a d7bd 8cdf 163d 5384 e2bd 77b5 9f3d
000002d0: 8085 aa3b 3017 4581 a3f2 413c 1790 19bd
000002e0: b7f2 473d d05e bd3b 270f 773d ac36 22bc
000002f0: f8da 893d 2337 34bc 28fa 8b3d ead7 bebb
00000300: 5ac3 a83d 6675 963b 47ee a63d f95f 403c
00000310: 6ca0 b03d 2417 9b3c 8b27 843d 6c13 d43c
00000320: f097 8e3d 7982 363d 9e4c 5b3d 07d7 213d
00000330: 8d8b 2a3d 5558 e03c d173 423d 67b8 a33c
00000340: 8dd9 9a3d 651b d03c 70a2 f23d 3254 f73c
00000350: 6ea8 023e c29e 903b 47a4 053e e973 30bd
00000360: 4102 193c 4448 3d01 67cd 983c 948d 41ba
00000370: faea 9e3c f821 4dba 792a a63c 0a9c a6bb
00000380: bcd4 a63c 91b4 a2bb 5de0 a43c 0781 a7bb
00000390: e721 b63c 30ab b9bb 7786 ac3c fb1a b8bb
000003a0: 9f1a ae3c 27ef 67bb d3cb 9c3c e072 103a
000003b0: 75ca 923c 8766 8f3a e154 8c3c f618 363a
000003c0: 8931 893c b409 4cbb 7060 943c c5be aebb
000003d0: 80e6 bc3c 3cb7 fdbb fdb5 f93c 44cc 2bbc
000003e0: 5fb3 1b3d fe2e 88bc b479 1b3d 7b9d 97bc
000003f0: 54d9 053c c022 c200 6914 953c da46 caba
-0.0060339635 -1.0728535e-37 0.005530096 -0.02117336 0.035264812 -0.0024985136 0.04591629 -0.00931705
0.052098583 -0.008857407 0.054314625 -0.0041390928 0.06870543 0.0039151628 0.06522908 0.008296864
0.06569909 0.010459069 0.046652537 0.01800833 0.047473207 0.02855073 0.036785007 0.022834972
0.028536623 0.01514791 0.031405903 0.011279019 0.052028473 0.016155604 0.08527436 0.022604952
0.10358996 0.022506883 0.11211771 0.0065306528 -0.0041435915 -9.579052e-39 -0.011885835 0.0005383435
-0.0063671265 0.011834398 -0.0023492316 0.011313837 -0.0011941242 0.009461615 0.0008693024 0.0098291375
0.0057146978 0.012927614 0.007537203 0.015168217 0.0074002217 0.020742666 0.009337439 0.013292811
0.0122298 0.0030417705 0.010400398 0.004266436 0.010163369 0.0037217466 0.011755662 0.0020318276
0.015887143 0.0014436292 0.017381575 -0.0016253821 0.0023859632 0.0003166012 -0.025901552 0.018468881
-0.0030561995 5.9972346e-38 -0.0063089584 0.024583997 -0.017212661 0.046779428 -0.010119844 0.054007158
-0.012434049 0.054956622 -0.0146600995 0.055183265 -0.01706603 0.06657682 -0.02612651 0.06755828
-0.03444133 0.08969048 -0.033097938 0.042895555 -0.0058022607 0.011829428 0.00041838438 0.008584516
0.007990128 -0.0015360602 0.012516361 -0.00943049 0.016322844 -0.02613423 0.010509402 -0.07501324
-0.0027747888 -0.14536883 -0.0126600275 -0.21989614 -0.007487492 1.454525e-39 -0.016579673 0.0030770851
-0.0070569403 0.005419488 -0.006337324 0.008771827 -0.0059641283 0.009431882 -0.0066277348 0.010020876
-0.00853487 0.013953955 -0.008773755 0.014485017 -0.009762826 0.012924387 -0.010041946 0.009013424
-0.0072576944 0.007179326 -0.006686299 0.006061606 -0.005954199 0.0059752474 -0.006158823 0.0057500754
-0.0073501365 0.0066617173 -0.009376204 0.0057906196 -0.009221419 0.0025911971 -0.0068533295 -0.008976774
-0.0028646856 5.6099863e-38 -0.008482368 -0.0003373975 -0.029700173 -0.02298173 -0.038363304 -0.023742402
-0.045159955 -0.026892982 -0.04974789 -0.032054923 -0.05818577 -0.046394218 -0.05673894 -0.053843994
-0.059363063 -0.0634969 -0.029068325 -0.044603366 -0.029053068 -0.038119793 -0.0224438 -0.029115047
-0.019343847 -0.016494932 -0.02274591 -0.010676738 -0.04267648 -0.011145491 -0.081487164 -0.0015673846
-0.10518333 0.036834285 -0.11060395 0.077982835 0.0052039027 -3.6199822e-38 0.011837634 -0.03749093
0.048815455 0.005779125 0.060317185 -0.00990073 0.06731218 -0.010999474 0.06834823 -0.005824079
0.08240385 0.0045916317 0.081509165 0.011741632 0.08624348 0.018931933 0.06452855 0.025888167
0.069625735 0.044558022 0.053539865 0.039511707 0.041636992 0.02738587 0.047473732 0.01998539
0.07561026 0.025403688 0.11847389 0.030191515 0.12759563 0.0044134567 0.13050948 -0.04307929
0.009338916 3.4765666e-38 0.018652631 -0.00073834625 0.019399155 -0.0007825191 0.020283924 -0.0050845193
0.020365112 -0.004965373 0.020126516 -0.005111817 0.022232963 -0.005666159 0.021060212 -0.0056184507
0.021252928 -0.0035390349 0.01914016 0.0005510282 0.017918805 0.001094059 0.017130317 0.00069464685
0.016747253 -0.0031133713 0.018112391 -0.0053328 0.02305913 -0.0077427905 0.030482287 -0.010485712
0.03801286 -0.01662397 0.037957862 -0.01850771 0.008169491 1.7828552e-38 0.018198209 -0.0015432492

convs_bc.bias f4 [4, 32, 1]
00000000: 9525 303b 4519 febb 8237 d53c 6847 acbb
00000010: 1ef2 13bb a8b8 42bc 45bb c33b 7046 c33a
00000020: cdc8 9a3b a7bd 6cbc 900e 663b 7b9f 303b
00000030: 655e b93b 48e7 24bc e04a 253b ca3f 71bc
00000040: c882 a63b d0e6 783b 4be9 ab39 ad55 3b3b
00000050: fdf1 65bc e059 7ebc eae2 173b f82c 433b
00000060: 6bb5 6c3a c5f6 863c 6087 9bbb 04b5 7c3b
00000070: 0f21 c33b e72c c5bb c3da a33b 5f37 c3bb
00000080: 9d6e 213b 25b0 4dbc 2cd0 8abb b951 d3bb
00000090: 8d9e 85bb ce7a 983b fe2a c03b cdf9 863b
000000a0: a6db a63b 6196 82bc d251 a03b 82e8 583a
000000b0: f5d2 ad3b 60f9 bfbb 3ead 9a3b 9e60 6bbc
000000c0: f0d0 ad3b 35a1 ab3b 9ced ab3a a31b a63b
000000d0: bafa 2bbc 6252 1bbc 7c37 a4bb a7b8 33bb
000000e0: b6d5 99b9 9cbd 35bb e9d1 3eba 152c 8c3b
000000f0: 6b1b de3b 3806 cdba ff04 9a3b 92f6 c8bb
00000100: dc4c 5ab7 6d08 22bc 8bdf e4ba c850 8fbb
00000110: c126 87bb 1090 9e3b d7da c73b ec67 bc3b
00000120: e165 533b ab9a 01bc 34d5 a63b 5fc9 593b
00000130: 0bf6 af3b 2449 a9bb 5698 363b 5d46 6bbc
00000140: 9a6e e83b 1b3b ad3b 0f01 523b bb2d f73b
00000150: 87e4 e0bb 804a 6bbb 28eb 5cbb 129b 2cbb
00000160: 1911 15bb 8d1a 5dbb 368c 233b e5ad 293b
00000170: 69ad e83b 612e 6fba 5f79 9f3b 0b12 aabb
00000180: ed3d e13b 2700 15bb 9669 9dbb 63a2 d3bb
00000190: bda7 01bc 3401 1b3c 71f0 033c 3c9f b23b
000001a0: 1223 ce3b a77f b4bb b918 cd3b 02b9 2c3b
000001b0: 5ef0 b83b aa24 ddbb 3c50 b53b a051 87bc
000001c0: fdaa e43b c430 c13b d4b0 333b bef1 d63b
000001d0: ccba d2bb 3bac dbbb 64a6 f4bb 0113 c5bb
000001e0: 7115 e8bb f24b d9bb 02b8 7aba a4f8 5a3a
000001f0: 65fd ac3b e88d 8fbb 3698 d83b da79 cbbb
0.002687787 -0.007754477 0.026027445 -0.0052575357 -0.0022574733 -0.011884846 0.005973252 0.0014898311
0.0047236443 -0.0144495135 0.0035103895 0.0026950527 0.0056570047 -0.010064907 0.002522163 -0.014724681
0.0050815083 0.0037979372 0.00032789478 0.0028585002 -0.014034745 -0.015524358 0.0023176023 0.0029781442
0.0009029719 0.01647509 -0.0047463626 0.0038560042 0.0059548686 -0.0060173157 0.0050004437 -0.0059575285
0.002463258 -0.012554203 -0.004236242 -0.006448951 -0.0040777386 0.0046533113 0.0058645 0.004119134
0.005092102 -0.015940847 0.0048925662 0.00082743925 0.005304689 -0.0058585852 0.004720359 -0.014366297
0.0053044483 0.0052377232 0.0013117078 0.0050692125 -0.01049679 -0.009480091 -0.005011497 -0.0027423294
-0.0002934166 -0.0027731424 -0.0007279204 0.004277716 0.006778171 -0.0015642112 0.0047003026 -0.006132909
-1.3011708e-05 -0.009889704 -0.001746164 -0.0043736435 -0.004124493 0.004838951 0.006099086 0.005749693
0.003225677 -0.007910411 0.0050913338 0.0033231599 0.005369907 -0.0051661897 0.0027861795 -0.014360038
0.007093263 0.005286587 0.0032044088 0.0075432933 -0.00686318 -0.003590256 -0.00337095 -0.0026337546
-0.0022745787 -0.003373775 0.0024955398 0.0025891003 0.00710075 -0.00091240375 0.0048667635 -0.005190139
0.006873837 -0.0022735687 -0.0048038466 -0.006458567 -0.007913527 0.009460736 0.008052931 0.005451111
0.006290802 -0.0055083814 0.0062590507 0.002635539 0.0056438884 -0.0067487555 0.0055332463 -0.016518414
0.006978391 0.005895706 0.002741863 0.0065595796 -0.0064309593 -0.006703881 -0.0074661244 -0.0060142283
-0.007082634 -0.006631368 -0.00095641625 0.00083530904 0.0052792304 -0.00438093 0.006609942 -0.006209594

convs_bc.bias_bc f4 [4, 32, 1]
00000000: 5de4 8039 c96a b8ba 37b2 1c3a 8511 953a
00000010: 3fe8 8e3a 3f98 093a f488 7fb9 5d4c bfb8
00000020: 44c3 55ba a756 393a cd47 843a 2ff6 0ab9
00000030: 11a2 c4ba 7fdd b639 1247 1938 ffa3 ab3a
00000040: a7e4 843a 9b21 43ba 8509 823a 4bd9 bf3a
00000050: 476e b7b9 ae73 1cba 27ee 08bb 03bf 143b
00000060: 1103 bf38 7a5c 3f3a 2c7a a3b9 5904 9d3a
00000070: 1ede 14ba b46c 9ab9 ae5b a8b9 52ff b339
00000080: a708 2aba c376 b63a 8be1 7bba 74ed 90ba
00000090: 83bb 3039 752c 3939 ea73 5239 0345 6a3a
000000a0: 59cf 5739 6cbd c839 5c8c 22b9 3e21 9eb9
000000b0: a78a a0b9 34ed 8d3a aa17 daba 0b7c bdba
000000c0: 760f 083b c2e3 adb9 c494 593a af27 9038
000000d0: f1ee 4139 9f55 eaba 6bad b73a 3fb0 7eba
000000e0: b6ec e2b8 9351 1e3a a7bd 2db9 77c2 1dba
000000f0: 1b7f 4bba d86f ac3a a5e5 8639 2bc3 be39
00000100: 8bd8 7436 94bd ceba d944 7fb9 ea4f 40ba
00000110: 0634 8a39 bd84 9aba 737d c5ba 4d36 a039
00000120: 99de 893a c18c b4b9 c56e 8439 bbb3 eaba
00000130: b481 b5ba e0f1 55b9 b03c a43a 31c6 32ba
00000140: 0334 f43a 6891 173a bf1f d039 adf1 9fba
00000150: f451 52ba 1a6e aa3a 520f 093a b450 a2ba
00000160: ffb6 cd39 54d7 973a 4653 a03a 1edb 8a39
00000170: d11d 80ba 850d 9e3a 56ac 7fb9 1c51 4aba
00000180: 3281 80b9 5e80 813a ce42 e9ba 9a8b c2ba
00000190: 55cd d6ba 1bca deba e79e c5b9 d0b1 273a
000001a0: a1a0 a8ba da3a 3fb9 c37e 3e39 c4d1 dab9
000001b0: b72a 10ba 17d9 c43a 46da 68ba 4daa 6cb9
000001c0: 9bda e6b8 e4be 1139 21a3 b3ba 42a4 10ba
000001d0: e558 2c3a 4b26 0c3a 3f4e df38 d6a8 b1ba
000001e0: ee69 bd39 e18a dab8 42f8 e639 6b42 403b
000001f0: b7e7 d73a 1ebd caba 042e 81b8 ead9 88ba
0.00024584206 -0.001406991 0.0005977484 0.0011373019 0.0010902955 0.00052488217 -0.00024369714 -9.1218135e-05
-0.0008154402 0.0007070102 0.0010092199 -0.00013252416 -0.0015001913 0.00034878773 3.6544232e-05 0.0013095139
0.0010138944 -0.0007443667 0.000992105 0.0014636902 -0.00034986643 -0.00059681654 -0.0020893903 0.002269686
9.108161e-05 0.0007299852 -0.00031180808 0.0011979445 -0.000567885 -0.0002945416 -0.00032111764 0.0003433177
-0.00064862747 0.0013920892 -0.00096084987 -0.0011057095 0.00016854522 0.00017659536 0.00020070342 0.0008936675
0.00020581241 0.00038288103 -0.00015501812 -0.00030160876 -0.00030620882 0.0010828138 -0.0016639133 -0.0014456523
0.0020761169 -0.00033166824 0.0008300061 6.873847e-05 0.00018494927 -0.00178783 0.0014013475 -0.0009715594
-0.000108206106 0.0006039377 -0.00016569217 -0.0006018052 -0.00077627756 0.0013155891 0.0002572957 0.00036385035
3.6484878e-06 -0.0015773051 -0.00024344343 -0.0007336127 0.00026360172 -0.0011788827 -0.0015067294 0.00030558035
0.001051861 -0.00034437145 0.00025259532 -0.0017906347 -0.0013847859 -0.00020403368 0.0012530293 -0.0006819694
0.0018631223 0.000578186 0.00039696504 -0.0012202762 -0.0008023076 0.0013002784 0.0005228418 -0.001238367
0.0003923699 0.0011584559 0.0012231849 0.00026484666 -0.0009774511 0.0012058472 -0.00024382895 -0.0007717775
-0.0002451032 0.0009880175 -0.0017796399 -0.001484263 -0.0016388098 -0.0016997488 -0.0003769316 0.00063970406
-0.0012865254 -0.00018237103 0.00018167034 -0.00041736488 -0.0005499529 0.0015018311 -0.0008882623 -0.00022570156
-0.00011007973 0.0001389939 -0.0013705232 -0.00055176404 0.00065745256 0.0005346282 0.00010648043 -0.0013554345
0.00036127813 -0.00010420918 0.00044053985 0.0029336463 0.0016472255 -0.0015467738 -6.1597704e-05 -0.001044092

convs_bc.weight.0.tensor f4 [32, 32, 6, 2]
00000000: 15d9 4f3b 446e de01 f39f 5ab9 909d a7b7
00000010: a125 bab8 a3d2 f5b8 a102 cdb8 1506 1ab9
00000020: 015c 29b9 1f98 34b9 b4dc 81b9 b0dc 35b9
00000030: 3434 dbbb 74a8 7401 9404 423a 3f6c cfb7
00000040: 0688 b339 69be e137 82d8 8739 0aa6 5238
00000050: 5a4c 6039 0839 9438 022d 4739 7cb7 af38
00000060: 845e bb3c 2466 9d81 df11 9637 3932 2e38
00000070: e663 8b37 ebdf ac37 b23d 4137 9008 3a37
00000080: f823 5937 a1d6 1037 69d5 9f37 9f43 3137
00000090: 13a1 9dbb d0b3 2681 1e9e 4fb8 ffe5 6335
000000a0: b52b 23b8 e436 5a36 c492 21b8 9cad be36
000000b0: 1747 28b8 b990 9436 e525 31b8 dc84 1036
000000c0: 55cc 4abb b4bc f981 affc c9ba db71 a9ba
000000d0: ef58 4dba ba6d 44ba 0370 1cb9 5edf 1eba
000000e0: b1a8 a539 b079 17ba b2e3 303a 594c 09ba
000000f0: f1e0 31bc 3c8a 2e01 91f0 3338 c50d ae37
00000100: fa45 bc36 3679 2a38 a5dd a837 021e 1738
00000110: cc5d 3538 92a4 1238 b5e4 9938 f426 1f38
00000120: f559 a03b 3e69 e881 8114 b8ba 6062 b7ba
00000130: 9cb0 1fba 8e60 daba 4aef b0b9 5944 d2ba
00000140: 26c9 89b8 a958 c4ba bded 5238 d69d b6ba
00000150: d87a 3d3b 6068 fe00 d53d 8a3a 6805 adba
00000160: b2f2 883a 03f0 32ba e497 6f3a 5075 ddb9
00000170: 195b 463a c7d9 71b9 4896 383a 80a4 25b9
00000180: 0d78 a13b a57c 0782 53a4 1abb 9155 8fba
00000190: 8303 9cba 7d64 86ba 178d 5aba c951 61ba
000001a0: da88 34ba a8c7 4aba 2123 30ba 5083 3fba
000001b0: 7a3b 6abc d8ee f200 85f4 91ba bfc0 0138
000001c0: c93d 21ba a4c6 bdb7 3e51 04ba 3830 55b8
000001d0: 9267 e5b9 6a94 acb8 26c9 d8b9 dd46 ccb8
000001e0: 0dd1 7b3b 389f 1e02 c3cc 9d39 f3f3 12bb
000001f0: 36e5 b739 b8f0 bfba 6db9 8d38 38b3 98ba
00000200: 0fe1 3d39 ad3c 81ba 4b58 ba39 0755 65ba
00000210: 0f15 ff3a 6b8d 1582 652d dcba 31ff feba
00000220: 0421 78ba 1753 b6ba 68c7 eeb9 9a59 a0ba
00000230: 9531 61b9 cd83 87ba ef32 21b9 98a9 80ba
00000240: 04da 8d3b 1e08 ef01 780b 9eba a996 d3ba
00000250: 3f2e cbb9 702c d3ba 8c6b 9336 b02f c7ba
00000260: f985 6639 38f7 bcba b765 b439 74d3 b2ba
00000270: d7c0 12bc 1b38 1982 4620 173a fe84 0738
00000280: db27 9c39 a87b b538 3892 6f39 5f72 c438
00000290: d4cc 5239 ac9c b938 f887 5039 9ab6 9e38
000002a0: 6093 573b 4415 0701 004f 85ba 8170 82ba
000002b0: e56e 92b9 fce2 24ba 4922 15b8 3f2f 12ba
000002c0: 0469 7b38 2666 08ba fd60 ff38 6bde 08ba
000002d0: 462c 77bc a26c b001 3366 f238 3a55 b5b9
000002e0: bb7f 8cb8 5c3e 78b9 9f5f e438 64f8 94b9
000002f0: cb56 9539 a299 99b9 524d ed39 87db a4b9
00000300: e89d a73b 50fa 0f01 fe09 2abb ee5d 89bb
00000310: db72 82ba 4062 74bb 90e9 aab9 7ce2 50bb
00000320: 709d bbb6 d771 36bb 9548 1a39 e24c 26bb
00000330: fb97 473b dc45 8a81 105c 43b9 3423 b1b9
00000340: e8b2 e4b8 6d48 99b9 2ea6 9ab8 e81f 82b9
00000350: 6c0a 2db8 7be7 65b9 a501 b7b5 7df3 62b9
00000360: 3407 deb9 30e2 d080 02ab 503a b781 64ba
00000370: 0e8c 333a 9b95 02ba f0b6 5d3a d371 e6b9
00000380: a860 8f3a b846 c3b9 430f ae3a 91f7 a4b9
00000390: e6de 7b3b 14b9 aa01 9eb8 e4b9 be1a b6b9
000003a0: 2fc1 b4b9 49f6 e9b9 909f 81b9 1b57 e7b9
000003b0: f409 36b9 1376 d8b9 2f54 03b9 fc3b dcb9
000003c0: 9474 73bc 60a8 0902 2487 503a 4b2f 87ba
000003d0: 0bba 5b3a 47a4 a7ba f159 573a 5dfb 51ba
000003e0: 7da5 3e3a 4b5e 47ba 869a 3d3a 1c72 5dba
000003f0: 99f6 61bc 6cd3 a381 5810 beb9 56d6 0bb7
0.0031715084 8.1708144e-38 -0.00020849686 -1.9981322e-05 -8.87618e-05 -0.000117217445 -9.7756514e-05 -0.0001468885
-0.0001615137 -0.00017222807 -0.00024769234 -0.00017343718 -0.0066895727 4.493658e-38 0.0007401195 -2.4726729e-05
0.00034242886 2.6910757e-05 0.00025910517 5.0222538e-05 0.00021390748 7.067813e-05 0.00018994886 8.378827e-05
0.022872217 -5.7819256e-38 1.7889715e-05 4.1531606e-05 1.661661e-05 2.0608268e-05 1.1518061e-05 1.10884575e-05
1.29425825e-05 8.633041e-06 1.9053654e-05 1.0565766e-05 -0.0048104613 -3.0618394e-38 -4.9499904e-05 8.489878e-07
-3.8902934e-05 3.2516482e-06 -3.8522077e-05 5.682652e-06 -4.012053e-05 4.4275916e-06 -4.223538e-05 2.1535006e-06
-0.0030944545 -9.173893e-38 -0.0015410389 -0.0012927608 -0.00078333815 -0.0007493157 -0.00014919047 -0.0006060506
0.00031596937 -0.0005778326 0.00067477964 -0.0005237512 -0.010856853 3.205793e-38 4.290097e-05 2.0748828e-05
5.610983e-06 4.0644045e-05 2.0130372e-05 3.6029152e-05 4.3241118e-05 3.496238e-05 7.3382085e-05 3.7944832e-05
0.004893536 -8.5374356e-38 -0.0014044197 -0.001399111 -0.00060916855 -0.0016660856 -0.0003374762 -0.0016042098
-6.570136e-05 -0.0014980036 5.0289313e-05 -0.0013932537 0.0028912332 2.3363659e-38 0.0010546992 -0.0013200464
0.0010448305 -0.00068259257 0.000913976 -0.0004223981 0.0007566675 -0.0002306468 0.00070414366 -0.00015796907
0.0049276412 -9.954005e-38 -0.002359648 -0.0010935535 -0.0011902902 -0.0010253337 -0.0008337064 -0.0008595256
-0.00068868476 -0.00077354396 -0.0006719102 -0.0007305639 -0.014296407 2.2309871e-38 -0.0011135495 3.0935505e-05
-0.00061508693 -2.2623055e-05 -0.00050475064 -5.0828065e-05 -0.0004375545 -8.2292434e-05 -0.00041348598 -9.740677e-05
0.0038424165 1.16537e-37 0.00030097933 -0.0022423237 0.00035075255 -0.0014643883 6.757942e-05 -0.0011650091
0.00018108285 -0.0009860002 0.00035542468 -0.0008748327 0.0019461232 -1.0987376e-37 -0.0016798197 -0.0019454715
-0.0009465369 -0.0013910261 -0.00045543467 -0.0012233735 -0.00021476143 -0.0010338962 -0.00015373131 -0.0009816168
0.004328968 8.780638e-38 -0.0012057861 -0.0016142923 -0.00038753633 -0.0016111266 4.3934615e-06 -0.0015196707
0.00021984418 -0.0014416939 0.0003440806 -0.001364334 -0.008957109 -1.1256766e-37 0.0005765002 3.2310367e-05
0.00029784333 8.653785e-05 0.00022847287 9.3673116e-05 0.00020103465 8.85067e-05 0.00019887078 7.568039e-05
0.0032894239 2.481084e-38 -0.0010170639 -0.0009951742 -0.00027929913 -0.0006289927 -3.55563e-05 -0.0005576498
5.9940867e-05 -0.00052032096 0.00012177413 -0.0005221131 -0.015086239 6.480807e-38 0.00011558495 -0.0003458651
-6.699512e-05 -0.00023674354 0.00010889698 -0.00028413825 0.0002848416 -0.000292969 0.0004526177 -0.00031444078
0.0051152594 2.6444542e-38 -0.0025945897 -0.0041921055 -0.0009952442 -0.0037290007 -0.00032598944 -0.0031873276
-5.5913624e-06 -0.002783885 0.00014713623 -0.0025375416 0.0030455578 -5.0793437e-38 -0.00018630945 -0.000337863
-0.00010905211 -0.00029236395 -7.3742456e-05 -0.00024819304 -4.125612e-05 -0.00021925375 -1.3635041e-06 -0.00021643746
-0.00042348506 -1.9182924e-38 0.00079600525 -0.0008716839 0.0006849178 -0.00049813994 0.0008457741 -0.00043953824
0.001093884 -0.00037245988 0.0013279695 -0.0003146497 0.0038432418 6.271371e-38 -0.000436251 -0.0003473367
-0.00034476208 -0.0004462472 -0.0002472368 -0.00044124652 -0.0001736058 -0.00041286703 -0.00012524494 -0.00042006362
-0.014859337 1.0113492e-37 0.0007954708 -0.0010313777 0.00083819096 -0.0012790047 0.00082150014 -0.00080101733
0.00072725845 -0.00076052983 0.00072328036 -0.00084474846 -0.013791704 -6.018012e-38 -0.000362518 -8.33495e-06
