neuraloperator/examples/para/fno_para_202305121957_001002003004_modes36_epochs250.pth (torch, 812179 bytes, 31 tensors)

convs.bias f4 [4, 32, 1]
00000000: ed8d 3b3c a412 0d3c c2d3 90bc d1fd 023c
00000010: a8bd a53a 36f0 9bbb f1a3 d7bb a3e9 033c
00000020: 51e9 073c 939f 003d 94aa e4bb 14d9 fc3b
00000030: 6c56 703b f1f7 1e3d edcd 073c fcf8 173d
00000040: e776 19bc 9e25 f1bb 5054 3aba f692 093b
00000050: e5a6 1d3d f8ed dc3c 7c72 99bb e5b9 6e3c
00000060: 1447 013c e4e9 88bc 97b5 9c3c 07a0 cfbc
00000070: 7b01 f53b 028d 923c eceb 193c 8e0a 153c
00000080: fe0d 103c 9947 fb3b 66f0 88bc 5509 073c
00000090: 01e4 a33a 881b 22bc 83af 38bb 7865 233c
000000a0: 570f 203c 5f2e 063c 7b14 e4bb fe9c 0d3c
000000b0: 929e 9d3b 52ea ef3b 0bd1 91b7 7d8f de3b
000000c0: 9d8b 23bc ccb3 ecbb d204 81bb 6101 ee3a
000000d0: 089d 113c 2e7b 8a3b 927f c6bb e83d 163c
000000e0: 8fe6 ed3b cdbf 1fbc 3cd3 093c 29bd c5bc
000000f0: 6ddc 223c fce4 ee3b 02b5 143c f299 363c
00000100: 9a68 113c 22b3 fa3b b210 59bc 1dfe 233c
00000110: b00b ee39 f1fd 52bc 3871 f8bb 3137 2f3c
00000120: 78e8 0f3c cf44 d2ba ee04 1dbc f667 293c
00000130: 309d fa3a 13a6 9b3b b259 0dbb 5655 583a
00000140: 25dc 54bc 30e8 dbbb b9a2 12bb 04c3 85b9
00000150: 7c86 3f3c 56aa 9b3a 5921 33bc 2c36 373c
00000160: 2dcc 213c d9dd c8bb baf8 113c 9da3 9dbc
00000170: 548d 0c3c 7965 133c b652 153c 3e08 203c
00000180: 578c 403c e257 ef3b 80ac f5bb 14c2 273c
00000190: 8c45 35bc 5219 f0bb 259b 1bbc c5c9 1e3c
000001a0: 8c62 4f3c d8ff 14bc 3eae 43bc 66b8 1e3c
000001b0: e1a4 b5bb c9a9 553b 92e0 36bc b13f 2dbc
000001c0: 9868 4ebc 9c69 acbb a194 f93b 0b4f ed3a
000001d0: a312 2c3c 3f22 39bc 2d6f a2bb 7f68 2b3c
000001e0: 43d0 2a3c 4b7c 1dbc b559 353c 4961 30bc
000001f0: d432 0e3c 4838 213c 2285 323c 79f8 063c
0.011447412 0.008610401 -0.017679099 0.007995085 0.0012645023 -0.00475886 -0.0065808226 0.008051309
0.008295373 0.03140218 -0.0069783423 0.0077163074 0.0036672605 0.038810674 0.008288843 0.037102684
-0.009366727 -0.0073592206 -0.00071079005 0.0020992137 0.03848924 0.026968941 -0.004682837 0.014570688
0.0078904815 -0.01671309 0.019129558 -0.025344862 0.007476983 0.017889503 0.009394627 0.009096755
0.0087923985 0.007668447 -0.016716193 0.008241971 0.0012503864 -0.009894259 -0.0028180785 0.0099729225
0.009769282 0.008189767 -0.0069604493 0.008643387 0.004810163 0.0073216343 -1.738269e-05 0.0067920075
-0.009982017 -0.007223582 -0.003937342 0.001815837 0.008887537 0.00422611 -0.006057688 0.009170033
0.0072601507 -0.009750319 0.008412179 -0.02413805 0.009940249 0.0072904807 0.009076359 0.011145102
0.008875037 0.007650749 -0.013248609 0.010009316 0.00045403605 -0.012877927 -0.007581856 0.010694311
0.008783452 -0.0016042235 -0.009583695 0.010339728 0.0019120332 0.004750022 -0.0021568355 0.0008252462
-0.01299194 -0.0067110285 -0.0022374822 -0.00025513035 0.011689778 0.0011876326 -0.010933244 0.011182349
0.009875339 -0.006129962 0.008909399 -0.019243056 0.008578617 0.008996361 0.009113958 0.00976759
0.01175221 0.0073041776 -0.0074973702 0.010239143 -0.011063945 -0.007327237 -0.009497439 0.00969166
0.012657773 -0.009094201 -0.011943398 0.009687519 -0.0055433367 0.003260242 -0.01116194 -0.010574267
-0.012598179 -0.005261613 0.007616595 0.0018105222 0.01050249 -0.011299669 -0.004957101 0.0104619255
0.01042563 -0.009612153 0.011068751 -0.010765382 0.008679111 0.009840079 0.010895999 0.008237951

convs.bias_bc f4 [4, 32, 1]
00000000: 1de3 f839 d48f 6cb9 2627 d93a e819 733a
00000010: ec67 12bb 0bc5 90ba 5671 aa38 5b08 4ab9
00000020: b1c3 4bb9 6dc1 603a 584e 7eb9 4a45 163a
00000030: a1f1 113a 4466 7dba 465f b8b8 c6cd 85b9
00000040: 3e9b 183a 5999 83b9 a7d2 9739 38ab a93a
00000050: 50f3 093a ea7d 8e3a 7d75 b7b9 3b54 583a
00000060: d16b 1a38 ae48 043b 7da3 2a3a e0d8 c8ba
00000070: 704f 1c3a 23c5 c23a 9a6d f0b9 e123 2ab8
00000080: 4b80 3bb9 4a9a 48bb b359 b43a cfcb a6b9
00000090: b25b 323a ae00 1fba e95e 0fb8 e54e 8e3a
000000a0: 61fa a3b8 7b46 fe3a 7637 a3ba 59a4 c6b9
000000b0: 7df4 80b8 e667 dab9 1522 4cba e084 83ba
000000c0: d775 5aba 24d9 2439 3393 f139 8ee4 00ba
000000d0: b000 53b9 5e50 1cba 8bde cab9 53a1 f439
000000e0: 6e95 123a 67c7 1b3a 7127 6a39 21c8 913a
000000f0: 89e2 38bb cba4 e4ba d87b 74b9 3185 37b8
00000100: 8d0c 8fba 810e 4fb9 68a5 643a b5c0 35ba
00000110: 820d c23a a023 fcba bb91 adba 2038 c0b8
00000120: e6ae 0b3b 1a3e 113a 52c6 72ba 27a3 f6b8
00000130: d80c 82ba a4b6 353a c07d 1aba 4b53 d6ba
00000140: 714b 94ba 1c11 f2b9 e541 803a 969a a63a
00000150: b375 7f39 76a6 b839 d889 d8ba 8ba4 943a
00000160: a048 17ba 2286 f0b9 a4b4 ed3a 5bdf 1e3a
00000170: ac7b daba 442b a238 089e bf39 692d 9aba
00000180: a1dd b437 f844 c63a 7e99 8139 c979 1cbb
00000190: a4e4 03ba 8499 203a 51eb 853a 9d18 bab9
000001a0: 3080 d3ba c1c7 983a f203 faba a12e 2fba
000001b0: 39f5 a53a 6100 dc39 918b 4e3a e5fc 6039
000001c0: 7718 a73a 0e20 c53a db0f 2d3a e0a4 a6ba
000001d0: b1e7 423a ac24 ccba b5d8 873a f376 cc3a
000001e0: 7d91 9fba be3f c2ba 3717 c339 7560 efb8
000001f0: 2fd3 e33a 369a c939 26d0 f3b8 c926 95ba
0.0004747146 -0.00022560294 0.0016567453 0.00092735747 -0.0022339774 -0.0011045052 8.127342e-05 -0.00019267334
-0.0001943249 0.00085737446 -0.00024252513 0.0005732371 0.00055673165 -0.0009666423 -8.79155e-05 -0.0002552105
0.0005821473 -0.0002510052 0.00028957913 0.0012944704 0.00052623916 0.0010871266 -0.00034992016 0.00082522974
3.6816873e-05 0.0020184922 0.0006509347 -0.0015323423 0.0005962765 0.0014859777 -0.00045858027 -4.0564573e-05
-0.00017881503 -0.0030609542 0.0013759643 -0.00031813837 0.0006803825 -0.000606547 -3.418225e-05 0.0010857253
-7.8190824e-05 0.0019399667 -0.0012452442 -0.00037887951 -6.149055e-05 -0.0004165761 -0.0007787061 -0.0010034107
-0.00083335995 0.0001572115 0.00046076774 -0.000491687 -0.00020122784 -0.00059629034 -0.0003869425 0.00046659503
0.0005591725 0.0005942494 0.00022330672 0.0011122265 -0.0028211197 -0.0017444132 -0.00023315789 -4.3754644e-05
-0.0010913775 -0.00019746461 0.0008722157 -0.00069333176 0.0014805051 -0.0019236691 -0.0013242284 -9.1657275e-05
0.0021313964 0.0005540565 -0.00092611194 -0.000117605836 -0.0009922041 0.00069318176 -0.0005893372 -0.0016351728
-0.0011313987 -0.00046170584 0.0009785263 0.0012710865 0.00024362541 0.00035219238 -0.0016520573 0.0011340542
-0.0005771015 -0.00045876304 0.00181355 0.0006060504 -0.0016668937 7.732821e-05 0.000365481 -0.0011762801
2.1560876e-05 0.0015126755 0.00024719158 -0.00238763 -0.00050313235 0.0006126391 0.0010217224 -0.00035495023
-0.0016136225 0.0011656211 -0.0019074662 -0.00066826685 0.0012661583 0.00041961952 0.00078790734 0.00021456515
0.001274838 0.001503946 0.0006601789 -0.0012713932 0.00074350374 -0.0015574894 0.0010364266 0.0015599414
-0.0012174096 -0.0014820022 0.00037210595 -0.000114143746 0.0017381663 0.00038452604 -0.000116259136 -0.0011379357

convs.weight.0.tensor f4 [32, 32, 18, 2]
00000000: 4683 d9bb 8efd ed81 f15e de3b cfbd bfbb
00000010: 9212 cc39 ee5e 8a3a 1fc8 9039 4c52 b139
00000020: 44c7 08ba d2bc 18b9 64c1 0aba 369e 0039
00000030: 0b79 b7b9 c589 3c3a 546f f4b8 8634 a239
00000040: 2986 b9b9 2e8f 07ba 94d4 d0b9 3592 1bb9
00000050: 39e6 89b8 d503 93b8 3d1d cc37 52fa 0bb9
00000060: d352 1339 762e 39b9 ab22 bd39 e022 a5b9
00000070: a4ec f739 d112 6db9 cb7c 9439 dcd5 22ba
00000080: 33d0 83ba fbdf fcba 38e6 b2ba df75 60bb
00000090: 054b 26bc 207e 3580 48b6 b6b9 682c 06b9
000000a0: 9772 2eb9 8fbb 78b6 39b2 ecb8 7278 ef37
000000b0: 2355 dcb8 128e 1838 247c 8db8 3ea6 5fb7
000000c0: 22ba fc37 4103 74b6 e299 27b8 72e1 8eb8
000000d0: 07b7 ae38 ad7f 8238 013e e838 e5e4 9c36
000000e0: 55da 8838 83b2 03b7 0e07 da36 956e 84b8
000000f0: 0b87 3ab8 bb43 98b8 79c8 a6b7 7e88 3ab8
00000100: d158 e5b5 4ae2 1fb8 115a 2cb7 a234 5e37
00000110: 578f 4eb7 9612 d038 a003 98b6 09be 5939
00000120: 9590 253c c030 2600 5486 a13c 2a64 80bd
00000130: 268f a0bb 4e2b 863c fb4c 3fbb 50c3 503c
00000140: 6d32 acbb 5e94 7a3c 454d c8bb 10da 9d3c
00000150: 1532 01bc 12e6 983c db76 fdbb 1431 9b3c
00000160: b7c4 38bc 5494 d43c 8691 43bc 3c13 f33c
00000170: 617d 61bc 0502 e83c 07d3 57bc 8458 bb3c
00000180: 27b9 56bc 87f9 933c 37d1 80bc d5b5 9a3c
00000190: 5fe1 bdbc 22b5 c23c 53d5 f0bc 454e 033d
000001a0: d40c 12bd 1c64 053d 35a8 0bbd 4e85 d43c
000001b0: dc6c 82bc d470 1201 a699 07bd 3868 293c
000001c0: 84bd 60bc f8fd 4f3b c786 35bc cd4d ac3a
000001d0: ad76 4cbc ab27 ce3a 6449 53bc beb4 033b
000001e0: 876f 9fbc 66c5 1a3b c247 91bc ecdd 5b3b
000001f0: 4ace a2bc e512 c03b 624e a9bc e1ba e23b
00000200: 594c a2bc 7fb8 033c 03f3 85bc b08d 023c
00000210: 3fa0 6bbc b5e5 043c f910 87bc 1ba3 1c3c
00000220: f9fd b5bc 4990 1b3c 8ca0 e6bc 68a5 453c
00000230: 6a45 04bd 30c2 6b3c 6e7c 2bbd 4650 b03c
00000240: 765c cbba 4c44 4801 c342 9638 3b05 ecb7
00000250: 85d9 bcb7 29e0 b2b7 dfa8 cab7 3a4e 80b7
00000260: af17 91b7 1408 52b7 93a1 3fb7 04c2 2fb7
00000270: 1e31 f8b6 5fd6 26b7 5ec5 a5b6 b0e4 efb6
00000280: acb0 d8b5 39d3 f8b6 52bb d635 37d8 ddb6
00000290: 7539 afb3 0cc0 ddb6 93a6 01b6 cbcd bfb6
000002a0: d78d 23b6 9994 a6b6 8a5e 36b6 1e40 b4b6
000002b0: 8d49 16b6 c9f0 acb6 1da0 60b5 d98c cab6
000002c0: cb22 2a36 c831 bcb6 2b7c a836 9f4a 16b7
000002d0: 1685 ee3a d8a8 5380 a8d5 b93d 4b99 83be
000002e0: 4c8e b03c e105 e7bd ebb9 aa3c bca0 92bd
000002f0: 7340 253d 0c92 9bbd 23c3 163d 95c7 99bd
00000300: 39c5 0e3d cb04 4cbd dea6 b63c dbf5 20bd
00000310: 52a7 9b3c f38c e3bc 77bd a23c abf3 18bd
00000320: 167c b03c 6aa1 0ebd 39a7 8a3c 9e92 d4bc
00000330: 8594 743c 93a2 b0bc 0c40 a93c d2e3 edbc
00000340: edbe fa3c f779 18bd 3658 283d a195 0bbd
00000350: 5cde 073d f004 f1bc 8469 0c3d f5f5 f1bc
00000360: 980a 15bb c8e4 ad81 01fa dbbd f99f 10bd
00000370: 1737 4cbd e1cd 19bd 6943 94bc 76bb 92bc
00000380: c11d 0ebc d7e4 88bc 9d10 aabb 5b19 79bc
00000390: 37b4 24bc a342 7ebc 2399 a7bb 0308 66bc
000003a0: 0957 89bb 5b6d b0bc f7a3 f13a 5c70 09bd
000003b0: 604b 863b e805 01bd b024 cf3b 10dd b2bc
000003c0: 4d74 f03b 0018 84bc bb11 f13b 2c6f 73bc
000003d0: 0faa f33b f9f4 9fbc 61e8 993b d7f0 e4bc
000003e0: 7a83 1d3b 7af0 d7bc 7c49 ea3b ef3b a2bc
000003f0: ee66 6bbc 600f 9000 27ab 07bd 810e 60bd
-0.0066379635 -8.7423883e-38 0.0067862202 -0.0058514844 0.00038923748 0.0010556856 0.00027614922 0.00033821387
-0.0005217681 -0.0001456619 -0.00052930997 0.0001226597 -0.00034994664 0.000719216 -0.00011655563 0.0003093818
-0.00035385907 -0.0005171177 -0.00039831235 -0.00014836418 -6.5755514e-05 -7.01022e-05 2.433231e-05 -0.00013349325
0.00014049867 -0.00017660283 0.0003607472 -0.00031497236 0.00047287822 -0.00022609091 0.00028321738 -0.0006211677
-0.0010056555 -0.0019292826 -0.0013648933 -0.0034249944 -0.010149722 -4.912526e-39 -0.00034849555 -0.00012795778
-0.00016636621 -3.7064053e-06 -0.000112865535 2.8547107e-05 -0.000105062754 3.6371937e-05 -6.746527e-05 -1.3330542e-05
3.0127416e-05 -3.6360727e-06 -3.9959217e-05 -6.81308e-05 8.331058e-05 6.2226645e-05 0.00011074171 4.675809e-06
6.525653e-05 -7.8497715e-06 6.4977276e-06 -6.314848e-05 -4.4471624e-05 -7.2605406e-05 -1.9882094e-05 -4.4472974e-05
-1.7087679e-06 -3.8119302e-05 -1.0272969e-05 1.3244486e-05 -1.2311931e-05 9.921675e-05 -4.530375e-06 0.00020765526
0.010105272 3.507237e-39 0.019717373 -0.06269105 -0.004899877 0.016378071 -0.002919017 0.012741879
-0.0052550347 0.015294163 -0.006112727 0.01926902 -0.007885476 0.018664394 -0.007735116 0.0189443
-0.011277369 0.025949635 -0.011936551 0.029672258 -0.013762803 0.028321275 -0.013172871 0.022869356
-0.013105667 0.01806332 -0.015724761 0.018885532 -0.023178754 0.023768011 -0.029398596 0.032057066
-0.035656765 0.032566175 -0.03409596 0.02594247 -0.015921049 2.6896915e-38 -0.033105515 0.010339789
-0.013717059 0.003173707 -0.011079497 0.0013145745 -0.012479466 0.0015728375 -0.012895916 0.0020096744
-0.01946236 0.0023616194 -0.017734412 0.0033549024 -0.019873757 0.0058616274 -0.020667259 0.0069192504
-0.019811796 0.008039593 -0.016351229 0.007968351 -0.014381467 0.008111407 -0.016487585 0.009560372
-0.02221583 0.0094948495 -0.028152727 0.012063362 -0.03229276 0.01438956 -0.041866712 0.021522652
-0.0015515226 3.67832e-38 7.164993e-05 -2.8135828e-05 -2.2512637e-05 -2.1323636e-05 -2.4158913e-05 -1.5295216e-05
-1.7296376e-05 -1.2518856e-05 -1.1422107e-05 -1.0475986e-05 -7.396694e-06 -9.944283e-06 -4.9403598e-06 -7.149378e-06
-1.6144672e-06 -7.4155655e-06 1.599876e-06 -6.611484e-06 -8.159524e-08 -6.6086704e-06 -1.9319457e-06 -5.716201e-06
-2.4371454e-06 -4.9644846e-06 -2.7175142e-06 -5.3718823e-06 -2.2394554e-06 -5.1540305e-06 -8.36795e-07 -6.036466e-06
2.5352226e-06 -5.608632e-06 5.021245e-06 -8.958071e-06 0.0018197622 -7.682916e-39 0.09073955 -0.2570289
0.021552227 -0.11280418 0.020840606 -0.07159564 0.040344667 -0.075962156 0.03680719 -0.075087704
0.034856055 -0.04980926 0.022296365 -0.039296966 0.019000683 -0.02777717 0.019865735 -0.037341755
0.021543544 -0.034821905 0.016925441 -0.025948819 0.014927988 -0.021561896 0.020660423 -0.029039297
0.030608619 -0.03722569 0.04109975 -0.034078244 0.033171043 -0.0294213 0.034280315 -0.029536227
-0.002274191 -6.387845e-38 -0.10741044 -0.03530881 -0.049857225 -0.037549857 -0.01809855 -0.017911654
-0.008674086 -0.016710682 -0.0051899687 -0.015203799 -0.010052732 -0.015518817 -0.005114691 -0.014039996
-0.0041912836 -0.02153652 0.0018435706 -0.03355442 0.004098341 -0.031499773 0.006321512 -0.021833926
0.007338083 -0.016124725 0.00735685 -0.014858048 0.007436044 -0.019525992 0.004696891 -0.027946873
0.0024034665 -0.026359785 0.0071498733 -0.01980397 -0.014367802 1.3229827e-38 -0.033122208 -0.054701332

convs.weight.1.tensor f4 [32, 32, 18, 2]
00000000: b8b9 803c 6033 b300 2a83 44bb 1a01 74bb
00000010: 5226 a4ba b12a 84b9 0a41 4dba dc7a 38ba
00000020: f223 a8ba 7808 1dba 692a 74ba 7d85 5db9
00000030: 63a8 16bc 44ec adbb 45e5 b6bb 9edd 5cbb
00000040: f207 babb 76a6 66bb cc4b 10bb 35b9 16bb
00000050: 3d72 81ba 8da8 d5ba 00c1 0eba b14c b9ba
00000060: c13d 9bb9 67a0 d6ba c95a 3139 8086 0bbb
00000070: 558e c1b8 68d6 0bbb 8a51 ed3a 749c 05bb
00000080: acd4 a43a e4b8 a1bb bb35 5d39 3780 32bc
00000090: b183 7a3c b84c e200 962c 973b fb53 90bb
000000a0: 1ab8 a9ba cd5d 2b38 8548 afb9 758b e1b8
000000b0: d66f 09ba 511c ddb9 885f c5b9 729c aab9
000000c0: 1e61 a6bb d392 6dbb 3d38 3fbb 0d4a 08bb
000000d0: c930 3ebb dcf8 17bb d479 9aba 806c 9bba
000000e0: b205 93ba ae99 20ba c3ae 95ba e57a d9b9
000000f0: 5687 90ba aa91 cbb9 04f4 77ba f674 4fba
00000100: 8379 82ba 50b8 4eba 25e9 6d3a 2c13 2a39
00000110: 54a8 b63a 07aa 81ba e400 ed3b f35d d1bb
00000120: f4fb 973c 00fe 3d81 7408 01bc 107f b63b
00000130: 4baf 02b9 011a 1aba 1cba 3ab9 8ec5 4c3a
00000140: 4f4e deb8 e7d7 c339 85c9 77ba 868f 78b9
00000150: 11dc 8abb 64be 82ba 28bc 1fbb 1478 59ba
00000160: 6ecf 24bb 83a2 5aba b7c4 08bb 7151 8bba
00000170: 6538 0ebb 8109 97ba d1f7 f4ba 3aaa 6cba
00000180: d3f2 e7ba ed81 63ba 6473 fbba a425 88ba
00000190: 206b 14bb d269 97ba c8d3 09bb 408e 82ba
000001a0: 77a5 1fbb 7dc9 5eb9 0fa5 6abb fa15 173a
000001b0: 3de7 4b3c 763b 8301 9792 dcbb 5203 a0bb
000001c0: d448 92bb d252 beba 5854 36bb 240a d6ba
000001d0: 54f9 24bb 64fb c8ba 6d5b 0cbb 58d3 98ba
000001e0: f107 91bc b980 0ebc 16e4 3fbc a359 cabb
000001f0: e51e 43bc fda6 ecbb f874 e5bb 8b66 b3bb
00000200: f295 70bb 2133 90bb 7935 1abb e4d2 81bb
00000210: 9721 c6ba 14dd 82bb 317d 2bba 8168 9cbb
00000220: 4c96 b0ba 4604 aabb 6493 d03a c45a b4bb
00000230: a345 afbb 47f8 4cbc e40a 5fbc e35a babc
00000240: 07a0 06bc b421 0901 7ba7 513a ce0f 5aba
00000250: 0217 e7b9 8d9c 4bba bf82 71ba 1160 b2b9
00000260: 6f26 40ba 0741 42b9 c1d2 31ba 875c f637
00000270: 380d 2aba 74f8 0139 9fe9 00ba 629c c138
00000280: 00b0 ffb9 ab7b a738 c82d 16ba de54 ba38
00000290: 8850 1eba ae50 7739 94f6 00ba 1caf b839
000002a0: eacf fab9 1af7 a639 e9f9 04ba 9716 a639
000002b0: cb6d 09ba d0b7 c039 f70d 01ba d4c8 ff39
000002c0: 89e8 aeb8 d9a5 1f3a c722 ca39 cb14 753a
000002d0: 82a0 b53a a8bd ad00 3f2a 66bd 81ac 933d
000002e0: 723f 4a3c 99cf ae3c b918 07bb 0c11 f939
000002f0: d73b 463a ccd8 0a3c 8c70 c43b 57ea 293c
00000300: c132 013c 2b0c 353c b955 8c3b 3aa1 a23b
00000310: c549 e338 66f0 e93a 0363 3eba 3d8b 8c3a
00000320: dd97 45ba 4e7a 323a cbf4 6cba 79a5 1cba
00000330: d572 03bb 548a 5fba 9179 bd39 8cb3 243a
00000340: 9cf2 6e3b 3fa4 163b 5d99 b63b 438c 9a3b
00000350: f37c 563b 031f d23b c1c4 023c c013 163c
00000360: b461 ebbb ad12 0402 5063 1c3c d8a8 b73b
00000370: 5fee 853b 95b6 cb3a 26d0 a83a 3e0a ba3a
00000380: d43b b139 0b41 5a3a 4374 e939 7d39 1f3a
00000390: 5e2a 853a 65cc fc39 e54d 2b3a fd67 3539
000003a0: 30da 783a 20f2 3239 fe7a 8f3a e419 453a
000003b0: e7f1 8d3a cd37 7f3a c91f 373a b24b 893a
000003c0: a318 1f3a ec6b 4a3a f1c0 0f3a 1bb7 143a
000003d0: af45 c039 06e1 8139 a0af cd39 9038 11b8
000003e0: 7675 0c3a 7bac 2aba 4760 08ba 7bd1 9aba
000003f0: 6124 543c f87f 0100 23ea 45bb 408c 49bb
0.015713558 1.6456984e-38 -0.0029985406 -0.0037232102 -0.0012523627 -0.0002520881 -0.0007829821 -0.00070373504
-0.0012828095 -0.00059903366 -0.0009314181 -0.0002112593 -0.00919542 -0.005307706 -0.0055815303 -0.003370143
-0.0056772167 -0.0035194433 -0.0022017835 -0.0022998576 -0.0009875965 -0.0016300842 -0.00054456294 -0.0014137236
-0.00029609914 -0.0016374708 0.00016913856 -0.0021289885 -9.2294686e-05 -0.0021337513 0.0018105966 -0.0020387443
0.0012575588 -0.0049353708 0.00021096219 -0.010894827 0.015290187 2.0782344e-38 0.0046134694 -0.0044045425
-0.0012948543 4.0856936e-05 -0.00033432632 -0.00010754812 -0.00052428 -0.00042173502 -0.00037645944 -0.00032541488
-0.0050774952 -0.0036250844 -0.0029177808 -0.002079609 -0.0029020777 -0.0023189103 -0.0011785575 -0.0011857897
-0.0011216907 -0.00061264157 -0.0011419881 -0.0004148103 -0.0011026661 -0.00038827705 -0.00094586634 -0.0007913852
-0.0009954426 -0.0007885741 0.0009075574 0.00016219605 0.0013935664 -0.0009892591 0.007232772 -0.0063893734
0.018552758 -3.4896054e-38 -0.007875551 0.0055693462 -0.00012463068 -0.00058785087 -0.00017807673 0.00078114204
-0.00010600371 0.00037354158 -0.0009452331 -0.0002370459 -0.0042376597 -0.0009974954 -0.0024373624 -0.0008295786
-0.0025148052 -0.0008340256 -0.0020869204 -0.001062913 -0.0021701094 -0.0011523218 -0.0018689578 -0.0009028051
-0.0017696269 -0.0008678723 -0.0019184169 -0.0010387194 -0.002264686 -0.0011551923 -0.0021030772 -0.0009960607
-0.00243601 -0.0002124663 -0.003580395 0.00057634676 0.012445268 4.820712e-38 -0.006731342 -0.0048832083
-0.004464248 -0.0014520532 -0.002782127 -0.0016329926 -0.0025173025 -0.0015333709 -0.0021416799 -0.0011659665
-0.017703982 -0.008697682 -0.011712095 -0.0061752363 -0.011909221 -0.007222055 -0.007002469 -0.0054748706
-0.0036710468 -0.0044006263 -0.0023530407 -0.0039619077 -0.0015116212 -0.0039936397 -0.00065417873 -0.0047732
-0.0013472526 -0.0051884977 0.0015913066 -0.005503984 -0.0053488775 -0.012510366 -0.013613436 -0.022748416
-0.008216864 2.5187107e-38 0.0007997674 -0.0008318395 -0.00044076896 -0.00077671633 -0.0009212903 -0.0003402238
-0.0007329946 -0.00018525506 -0.0006783419 2.9368572e-05 -0.0006486955 0.00012394955 -0.0004917625 9.232086e-05
-0.0004876852 7.9862155e-05 -0.0005728868 8.884979e-05 -0.0006039222 0.00023585811 -0.00049195555 0.00035225681
-0.00047838624 0.00031846092 -0.000507264 0.00031678818 -0.00052424957 0.00036758045 -0.00049230404 0.0004878702
-8.3402796e-05 0.0006090082 0.00038554354 0.00093491067 0.0013857039 1.5955577e-38 -0.056192633 0.07210637
0.012344228 0.021339225 -0.00206141 0.00047505682 0.00075620174 0.00847454 0.005994862 0.010370812
0.007885636 0.011050264 0.00428268 0.0049630674 0.00010837944 0.0017848134 -0.00072626787 0.0010722649
-0.0007537583 0.0006808386 -0.00090391625 -0.0005975585 -0.002005746 -0.00085273874 0.00036139463 0.0006282858
0.0036460524 0.0022986082 0.0055724815 0.0047164275 0.0032728284 0.0064123883 0.00798148 0.009159982
-0.007183278 9.703188e-38 0.009545162 0.0056048445 0.004087254 0.0015542085 0.0012879416 0.0014193726
0.00033804646 0.0008325732 0.00044527845 0.0006073935 0.0010159721 0.0004821747 0.00065347395 0.00017300244
0.00094929617 0.00017065601 0.0010946689 0.00075188116 0.0010829539 0.0009735793 0.00069856324 0.001047483
0.000606904 0.000772177 0.00054837676 0.0005673037 0.00036673012 0.00024772453 0.00039231498 -3.4623372e-05
0.0005358079 -0.0006510687 -0.0005202335 -0.0011811698 0.0129481265 1.37742e-40 -0.003019937 -0.0030753762

convs.weight.2.tensor f4 [32, 32, 18, 2]
00000000: 3e89 2f3c 00a3 1400 1066 90bb 7eb9 173c
00000010: 04bb 5e3b 755b 9f3c 1585 16b7 dda3 923c
00000020: 8afb 53bb 6282 263c 8b19 86bb 6111 223c
00000030: 51ef 833c 262e d43c 0119 353c e651 a33c
00000040: 0664 e33b 58e2 8b3c 0ea5 503b c49c 523c
00000050: 4614 473a 4f5a 083c 4785 0bba e580 c23b
00000060: f315 bfba ca3d c03b dad1 0ebb df52 b23b
00000070: de13 b6ba 73b0 ac3b 71fd 4d3a fcf9 a63b
00000080: 6f7b 093c 75d1 233b a002 f23c b373 d7bb
00000090: 7e21 133c ecec f001 2098 d639 67cc 8139
000000a0: fa42 f23a 5296 653c b7e1 dab9 b074 6a3c
000000b0: 6f77 edba e598 f43b 2423 64bb 4724 e53b
000000c0: 9771 133c cc0b b23c 5a7d b43b c5ea 7c3c
000000d0: 83e7 523b 6dad 423c 51a6 843a d085 f33b
000000e0: f673 0939 9046 913b bbe9 1fb9 26ff 203b
000000f0: 974c 6eba fad1 943a 528b 70b9 a366 aeb8
00000100: fc0c 8a3a e187 5b39 cf04 1a3b b2ac 26bb
00000110: 4647 113c 47b8 49bc dc57 d43c 225f 03bd
00000120: 9b19 7fbc 36e9 af81 4d6b d13a 08ad 413b
00000130: e155 b03a 5788 baba 1652 b43a aaf0 073b
00000140: ddbc 3938 7576 2d3b 4c66 06b9 8ae1 fd3a
00000150: 9771 8b3a 7b01 553b f516 78b9 c2d8 1e3b
00000160: 9bd1 3cba fe48 8d3a 1570 83ba 0dbf 55b9
00000170: c7dc 7bba 475c a6b9 8e03 9bba 92a2 8ab9
00000180: 5e17 baba cf06 46ba ba88 bdba 0fa1 52ba
00000190: caae 2dbb 5b89 a839 87f0 86bb 9cab 2abb
000001a0: 3023 823b ccac 22bc ecc2 203d 2777 d8bc
000001b0: b279 393c c05a e080 f28e 8d3b 1486 313c
000001c0: 74cd 033c 3dbb e93c d05c 0c3b cde5 193d
000001d0: 20e2 43bb bc59 ab3c 3c4a a2bb 7e66 993c
000001e0: e08f 923c a869 113d a7d6 683c 6e92 ef3c
000001f0: cf79 0f3c bf40 cc3c ee40 f53b 87b0 a63c
00000200: d748 c13b 4147 6e3c 551d 843b d473 2a3c
00000210: 58fd 4d3b df46 003c 93d4 7c3b 1daa b33b
00000220: 78ab b93b b240 b53b fb83 ff3b 3323 c63b
00000230: e17d 5b3c 7b96 893b 1f96 f13c c207 bebb
00000240: 4a2a 9f3b 4074 8400 b00f e83b 0aaa fbbb
00000250: 41be 90bc 0bfb 9fbb d9d0 15bc 82f2 0dbc
00000260: b451 483a 15a1 15bc b137 06b9 2f21 16bc
00000270: c91e c2bb 5b67 89bc acb3 053b ad1e 4abc
00000280: 2ea9 163b d32f 3bbc e26f bf3b 9d38 23bc
00000290: 1cff c43b 8441 16bc 224e a83b cad8 09bc
000002a0: d002 213c c115 02bc e5d4 4b3c f999 edbb
000002b0: 4de0 373c a063 6cbc 75c8 143c 73e2 98bc
000002c0: a6ca 0bbc e00f 4cbd 9e34 efbc 5673 8abd
000002d0: 7b6d bcbb 2ca3 b001 7949 273a 426e 28bd
000002e0: 5586 9c3c 6658 813b cf16 4cbb 0172 4abc
000002f0: b23c 67bb 8aa8 84bc 73a1 9fbb b7b4 56bb
00000300: 250b e6bb 7cb2 5bbc a5ad 81ba fab1 35bb
00000310: 011b 66bb 1cfd 17bc 253f ec3a a7c6 acbb
00000320: ffb4 b23a 5751 82bb a3c6 d239 a6b9 64bb
00000330: 54f9 253b 2ccc 93bb dcf9 c93a 841a abba
00000340: 225e 363b 05b4 e53a a130 f33b 6207 afbc
00000350: 1361 963c 6b79 61bd ccd7 2abd 5178 c7bd
00000360: 53d1 28bc 6c7f f301 1dd4 86ba d285 07bb
00000370: 1f53 02b7 512e 13bb 6979 60ba cdbc 92ba
00000380: 4182 2dba 56b4 f4ba 4ca4 a0b9 3778 6aba
00000390: 6209 a7b9 edaf 00bb e7e6 cbb8 6ca1 a1ba
000003a0: 584d a339 0b2e 43ba 10d3 d839 61db e438
000003b0: a9fb cb39 c65c f139 95e5 003a df4b d439
000003c0: c2d9 613a 9ee7 113a 5896 bb3a 9c5a 7f3a
000003d0: fb25 ff3a 978b e439 9d07 203b b9e8 87b7
000003e0: 5e01 973b 21ca b939 d241 ca3c 67c7 8a3c
000003f0: 4af0 453c b804 3b01 bdb1 443b f011 9a3c
0.010713873 1.895183e-39 -0.004406698 0.009260533 0.0033985982 0.01945279 -8.971682e-06 0.017900402
-0.0032345974 0.010162922 -0.0040924004 0.009891839 0.016105326 0.025900912 0.011053325 0.019936513
0.006939414 0.017075703 0.0031836662 0.012854759 0.00075942685 0.0083223125 -0.0005322289 0.0059357756
-0.0014578685 0.005866741 -0.0021792562 0.005442008 -0.0013891419 0.005270058 0.0007857895 0.0050957184
0.008391245 0.0024996672 0.029542267 -0.0065750717 0.008980153 8.850204e-38 0.00040930603 0.0002475709
0.0018483095 0.01401289 -0.0004174837 0.014310047 -0.0018117259 0.0074645155 -0.0034810985 0.00699285
0.00899925 0.02173414 0.005508107 0.015436833 0.0032181449 0.011882168 0.0010120367 0.007431723
0.00013108537 0.0044334605 -0.00015250493 0.0024566143 -0.0009090392 0.0011354082 -0.00022940084 -8.316084e-05
0.0010532434 0.00020936086 0.0023501401 -0.0025432524 0.008867091 -0.012312002 0.0259208 -0.032073148
-0.01557007 -6.461949e-38 0.0015977413 0.0029552598 0.0013453328 -0.0014231306 0.0013757374 0.0020742812
4.428333e-05 0.002646831 -0.00012817344 0.0019369584 0.0010638711 0.0032502103 -0.00023659675 0.0024238084
-0.00072028645 0.00107792 -0.001002791 -0.00020384435 -0.00096077885 -0.0003173074 -0.0011826621 -0.00026442535
-0.0014197638 -0.0007554115 -0.0014460303 -0.0008034864 -0.0026501887 0.00032145795 -0.0041180286 -0.0026042229
0.00397148 -0.009928893 0.039248392 -0.026424004 0.011320518 -2.0603706e-38 0.004320019 0.010835189
0.008044589 0.028531665 0.0021417625 0.03757267 -0.002988942 0.020916812 -0.004952697 0.01872563
0.01789087 0.035501152 0.014211333 0.029244628 0.008757069 0.024933217 0.007484547 0.020347847
0.0058985758 0.014543355 0.004031817 0.010403592 0.0031431522 0.007829397 0.0038578853 0.0054829256
0.0056661926 0.005531394 0.0077977157 0.0060466765 0.013396711 0.004198847 0.029490529 -0.0057992646
0.004857336 1.2163988e-38 0.007081948 -0.0076801823 -0.017668845 -0.0048822216 -0.009144031 -0.008663775
0.0007641569 -0.009132643 -0.00012799983 -0.009163185 -0.00592408 -0.016772917 0.0020401282 -0.012336415
0.0022989023 -0.011424976 0.005842195 -0.009962228 0.0060118567 -0.009170894 0.0051362673 -0.008413503
0.009827331 -0.007939757 0.012440895 -0.007251021 0.011222911 -0.014428049 0.009080996 -0.018662667
-0.008532202 -0.049819827 -0.029199895 -0.0676028 -0.005750356 6.488633e-38 0.0006381493 -0.041120775
0.019107023 0.0039473055 -0.0031141525 -0.012356282 -0.003528398 -0.016193647 -0.004871541 -0.0032761523
-0.0070203715 -0.013409253 -0.0009893669 -0.002772449 -0.003511131 -0.009276655 0.001802419 -0.0052727046
0.0013634263 -0.0039769816 0.00040202317 -0.0034900694 0.0025325613 -0.004510423 0.0015409547 -0.0013054167
0.0027827104 0.0017524963 0.0074215685 -0.021365825 0.018356835 -0.055047434 -0.041709706 -0.097397454
-0.010303813 8.9446944e-38 -0.0010286603 -0.0020679128 -7.767957e-06 -0.0022458027 -0.00085630134 -0.0011195183
-0.00066188356 -0.0018669467 -0.0003063999 -0.0008944305 -0.00031859713 -0.001963611 -9.722803e-05 -0.0012331433
0.00031147408 -0.00074455206 0.00041355984 0.0001091275 0.0003890668 0.00046036224 0.0004917023 0.0004049232
0.0008615517 0.00055658247 0.0014311774 0.000974098 0.0019466275 0.0004359155 0.00244186 -1.6201624e-05
0.0046083173 0.00035436547 0.024689589 0.016940786 0.012081215 3.434986e-38 0.0030013167 0.018807381

convs.weight.3.tensor f4 [32, 32, 18, 2]
00000000: 7215 2d3c a0bf f080 3f1a 56bc 8aa3 fd3b
00000010: f51d 7e39 c2d7 e33c dc08 3dba 894e 063d
00000020: fc9b 41bb de99 9c3c daf6 87bb 20b9 983c
00000030: 360e 273c 3043 133d 2e1b cc3b 1f41 e73c
00000040: be79 f73a a719 c73c 7841 42b8 73d0 923c
00000050: 12de 85bb a07b 2e3c 6281 aabb dc6c f93b
00000060: 3558 6abb dbdd 0a3c 9b7a 3ebb 45c0 013c
00000070: 72ee bfba fbd2 f33b da8e 2b3b 2dbf 083c
00000080: 4076 743c 39a5 7e3c df88 173d 0f38 f43c
00000090: 5fc1 1a3c 383a 3380 205d 22bc d678 313c
000000a0: 4524 083b 887e 043d f60d 90ba d979 0c3d
000000b0: 08a3 8ebb 3700 b53c a88d d4bb 901d ad3c
000000c0: 464b fc3a 25a4 0f3d 4406 7eba ce51 d43c
000000d0: ebe9 a0bb 92a3 ae3c a40e cdbb be05 5a3c
000000e0: ea60 bfbb 4bab c63b 6536 88bb a877 383b
000000f0: ea2b 13bb 8a14 9a3a bfbf 7739 e8b6 bab9
00000100: bf46 da3a e357 69ba 60b5 873b 9161 b2bb
00000110: b407 863c 9588 29bc 6676 123d 1248 a4bb
00000120: a03e 1ebc cc43 1e81 36e1 a93b 840c efbb
00000130: f5e8 6d3b a57e 94bb 6516 8b3b cf6a 733a
00000140: b9c1 303b 0380 acba e604 683b 02ff 5038
00000150: 5b15 05bc 9a84 d4bb ed72 a1bb 5e6d bfbb
00000160: ce89 92ba b8ec 8fbb 8b38 e939 e402 31bb
00000170: 276c 713b a166 ebba 31b5 743b dd66 abba
00000180: 3d09 fd3a 05d9 2dbb 5f81 b63a 4d9e 86bb
00000190: ac6c da39 653f 5abb 9410 1fbb 72ec 78bb
000001a0: c059 2ebb 76f0 debb c1e1 82b9 20ba 41bc
000001b0: 6b06 453c 1078 d880 e66b b5bb aa40 823c
000001c0: eb8b ce3b 66b4 2b3d 24a9 493b efa0 3c3d
000001d0: 77e1 74ba ae49 f53c 9e27 5abb 80bd e63c
000001e0: a782 473c 26cd 423d a354 133c 33e1 213d
000001f0: fe4a 493b 2625 0e3d d92e fd3a bd92 e53c
00000200: cfe7 ddba b7ee a93c 765e 54bb 6e59 7c3c
00000210: 4fd4 6939 a3eb 413c 4161 843b 9d39 113c
00000220: 44a1 bf3b abb8 0e3c 8d47 f13b 5aff 073c
00000230: a834 883c be90 2c3c c203 063d 8cb2 953c
00000240: 274b 4ebc 4824 5380 b95a 12bc 303f 97bc
00000250: 5f03 1abc 3cdf f9bc c809 5bbb ce62 eebc
00000260: ec05 61b7 fb82 a9bc 3b76 4f3b 55cd 92bc
00000270: 72c7 60bc 9c9a 03bd 497b 3cbc ab73 e9bc
00000280: 9da6 abbb 6625 c6bc 52eb 5dbb 1669 a1bc
00000290: b7a7 20ba c3e1 85bc 780f 86b9 594a 47bc
000002a0: 1efb 94bb f9f8 06bc 2f56 eabb e03a bebb
000002b0: eca3 cabb 987b 7dbb a951 87bb 2b45 edb9
000002c0: 346e e2ba 56f0 563b fce3 193b 19b3 893b
000002d0: d901 21bc a2cd a001 01e5 a43b 9ca1 853b
000002e0: a23a acb8 a7af d4bb 8707 aaba 3d6d 0ebc
000002f0: e063 9339 5c8a 19bc 3a9d 093b edcd 20bc
00000300: 0b19 6dbc 16ae bfbc f599 38bc 31f5 b2bc
00000310: 1e6a aebb a7ca a1bc cf28 67bb d1c4 89bc
00000320: c96a 7a3a af04 4dbc 9615 263b 18ed 18bc
00000330: 4226 3eb9 4381 05bc 5b24 4bbb 9973 00bc
00000340: 045f 96bb b353 01bc d1f3 edbb 6b05 e5bb
00000350: 94a7 33bc 7396 79bb a2b0 4abc 8fdf 1f39
00000360: 92c9 1838 7ce5 0381 916d 8d3b 06b3 703b
00000370: b2e6 ddbb b4fe 03ba fa23 11bc a453 04bc
00000380: f728 02bc 90d9 f2bb a2c8 25bc f6a4 2abc
00000390: 32c1 6e3b 1d74 e2bb f132 433b 9c56 16bb
000003a0: 58f5 c3ba 8da3 41bb 3c7c 93bb b3f0 4fba
000003b0: 77f2 c3bb dafd 0a3b 43f9 bcbb 7b38 673a
000003c0: 8998 99bb c3f1 0eba ad31 c2bb 1bbc eeba
000003d0: 9199 1ebc 2260 77bb 8e24 90bc c582 cdbb
000003e0: 1ebf 00bd 43bb 11bc 041f 4ebd 41ee ddbb
000003f0: 966e 453c 98a7 a800 be97 843b 97fd a73c
0.010564195 -2.2109261e-38 -0.013067781 0.0077404426 0.00024234488 0.027812842 -0.0007211098 0.03278974
-0.0029542437 0.019116338 -0.0041493 0.018642962 0.010196259 0.035952747 0.006228826 0.028229294
0.0018880886 0.024304224 -4.6314177e-05 0.017921662 -0.0040853107 0.010649592 -0.005203412 0.007611854
-0.0035758142 0.008475746 -0.0029064778 0.007919376 -0.0014643206 0.0074409223 0.0026177675 0.008346361
0.014920771 0.015542322 0.036995765 0.029811887 0.009445517 -4.704495e-39 -0.009909898 0.010832032
0.0020773571 0.032347232 -0.0010990489 0.03429589 -0.004352931 0.022094829 -0.0064866133 0.02113226
0.0019248507 0.03506865 -0.00096902647 0.025917914 -0.0049106977 0.02131823 -0.006257849 0.013307033
-0.0058404105 0.0060629 -0.004156875 0.0028147493 -0.0022456595 0.0011755389 0.00023627187 -0.0003561296
0.0016653164 -0.0008901341 0.0041414946 -0.0054437597 0.016361095 -0.010347505 0.035757445 -0.0050134743
-0.009658486 -2.906866e-38 0.005184318 -0.007295193 0.0036302183 -0.0045316988 0.004244613 0.000928563
0.0026970936 -0.0013160709 0.003540331 4.982856e-05 -0.008122767 -0.006485534 -0.0049270303 -0.005841895
-0.0011179985 -0.0043922327 0.0004448335 -0.002700978 0.0036838145 -0.0017959663 0.0037339444 -0.001307692
0.0019305121 -0.0026527059 0.0013924054 -0.0041082264 0.00041661167 -0.0033301946 -0.0024271356 -0.003798273
-0.0026603788 -0.0068035675 -0.00024963732 -0.011824161 0.012025456 -1.9879537e-38 -0.005536544 0.015899975
0.0063033006 0.04192009 0.0030770982 0.046051916 -0.0009341458 0.02994236 -0.0033287774 0.028166533
0.012177146 0.047558926 0.008992347 0.039521407 0.0030714865 0.034703396 0.001931633 0.028024072
-0.0016930046 0.02074371 -0.0032404936 0.015402181 0.00022299703 0.011835965 0.004039914 0.008863834
0.005848082 0.00871102 0.007363266 0.008300627 0.016626671 0.010532556 0.032718427 0.018273614
-0.01259116 -7.635361e-39 -0.008932763 -0.018462747 -0.009400218 -0.030501954 -0.0033422578 -0.029099848
-1.3412424e-05 -0.02069234 0.0031656164 -0.017920176 -0.0137194265 -0.03212987 -0.011504003 -0.028497538
-0.0052383677 -0.024187755 -0.0033862186 -0.01970343 -0.0006128507 -0.016343003 -0.00025569997 -0.012163722
-0.004546537 -0.008238071 -0.007151387 -0.0058053583 -0.006184092 -0.0038678404 -0.0041296077 -0.00045255697
-0.0017275275 0.003279706 0.0023481837 0.0042022583 -0.009827101 5.9069786e-38 0.005032182 0.004078103
-8.21252e-05 -0.006490666 -0.0012972214 -0.008693037 0.00028112438 -0.009371366 0.0020998255 -0.0098147215
-0.014471303 -0.02339844 -0.011267175 -0.021845432 -0.0053227087 -0.019749952 -0.0035272127 -0.016817482
0.00095526554 -0.012513324 0.0025342456 -0.009333871 -0.00018134064 -0.008148494 -0.0030997011 -0.007840061
-0.0045889635 -0.007893491 -0.007261731 -0.0069891713 -0.010965247 -0.003808406 -0.012371214 0.00015246704
3.642735e-05 -2.4225547e-38 0.00431604 0.00367278 -0.006771886 -0.0005035207 -0.008858675 -0.008076582
-0.007944337 -0.0074111894 -0.010118635 -0.010415306 0.0036431071 -0.0069108144 0.0029785002 -0.0022939807
-0.0014950437 -0.0029546947 -0.004500894 -0.00079322903 -0.005979832 0.0021208436 -0.005767019 0.0008820367
-0.004687373 -0.00054528954 -0.005926332 -0.0018214019 -0.009680168 -0.0037746509 -0.017595556 -0.0062716925
-0.031432264 -0.008894744 -0.050322548 -0.006772787 0.0120502915 1.5488485e-38 0.0040464094 0.020506663

convs_bc.bias f4 [4, 32, 1]
00000000: 38c4 1e3d 9ccd e83c 2e3b 88bc e593 4a3c
00000010: d875 9a3c 39f1 96ba 7265 96bb ff4d 003c
00000020: 2f41 043c d3be e03c 4a8c b4bb 73b9 b83b
00000030: a3f4 7bbc 3dfc 973b dea5 8dbc 21c1 79bb
00000040: 1ce1 36bc e5de 06bc 9800 47bb 8c7d 7c3b
00000050: c381 173c e3a2 c43c 4821 eaba 0d34 5b3c
00000060: 2d16 d73b 3953 6bbc 9c1d d9ba 8803 bcbc
00000070: 76cd ff3b 85f6 6d3c 513a 183c 56ea d83b
00000080: ee97 f63b c71b bc3b fe0b 78bc a74c 323c
00000090: 370b 0dbc e322 8dbb d994 70bb 3e53 273c
000000a0: d1ff 0a3c 097a afb9 6de0 13bc b2c2 e23b
000000b0: 677c c6bb 3c36 bf3b b792 1ebc 7987 5fbb
000000c0: 5cb8 63bc 91aa d9bb 7443 09ba fc5b 7a3b
000000d0: 019c 0b3c a138 0cbc 654c 35bc 66bb 3b3c
000000e0: 78cf f93b 1d1a 21bc 592b 043c 8248 b5bc
000000f0: e4d8 123c c668 f53b 6e43 233c 4a94 2d3c
00000100: d5fd 223c ffce ab3b ce5a 1ebc 7fb8 213c
00000110: f63f 28bc 3343 32bb 589b 0cbc bdd4 1f3c
00000120: fb1e 0a3c 4354 8ebb 8337 36bc 1c6c 243c
00000130: 81a2 49bb 4a64 a73b ac02 dbbb 8060 08bc
00000140: e02f 3ebc 1653 fbbb 1045 22ba 3764 243b
00000150: 4a4e 383c 466b 3dbc 5e23 cdbb e8a3 3f3c
00000160: 859e fd3b 4f3c 11bc 85a2 093c 9756 7dbc
00000170: 9684 0e3c 3362 083c 4720 243c 198d 023c
00000180: db82 3b3c 6bc3 183c e042 bebb 4167 373c
00000190: fec4 24bc 6492 19bc 8cbf d9bb ba70 153c
000001a0: a9c3 3e3c ca61 0cbc cfb0 5abc b38c 383c
000001b0: e5b2 d7bb aa81 283b 7a42 1ebc 875b 10bc
000001c0: af9d 4abc 9a9e c4bb 5b4c 0a3c 1934 d8b9
000001d0: 26bf 553c 6386 42bc e0ee 83bb c32b 313c
000001e0: d94d 103c 0561 0dbc 6088 083c 5acd 2fbc
000001f0: d761 043c eed5 163c 6f38 373c 4c48 373c
0.038761348 0.028418355 -0.016629782 0.012364362 0.01885502 -0.0011515982 -0.00458973 0.007831096
0.008072182 0.027434742 -0.005509888 0.0056373416 -0.01537815 0.0046382234 -0.017291006 -0.0038109499
-0.011162069 -0.008231853 -0.0030365344 0.003852698 0.009247246 0.024003452 -0.0017862702 0.013379109
0.006563923 -0.014363104 -0.001656461 -0.022950903 0.0078064753 0.014524107 0.009291247 0.006619732
0.0075254356 0.005740616 -0.015139578 0.010882533 -0.008608631 -0.0043071373 -0.0036709814 0.010212718
0.008483843 -0.00033469524 -0.009025675 0.006920182 -0.0060573104 0.0058353227 -0.009678534 -0.0034107848
-0.013898935 -0.0066426476 -0.00052361866 0.00382018 0.008521081 -0.008558423 -0.011065577 0.0114582535
0.007623609 -0.009832886 0.0080669755 -0.022129301 0.008962844 0.0074892966 0.009964807 0.010594437
0.009948214 0.0052431817 -0.009665204 0.009870647 -0.010269156 -0.0027200698 -0.008581959 0.009755311
0.008430238 -0.004343541 -0.011121633 0.010035541 -0.0030767026 0.005108391 -0.006683668 -0.008323789
-0.011608094 -0.0076698167 -0.00061901007 0.0025084147 0.011249134 -0.0115612205 -0.0062603196 0.011696793
0.0077398443 -0.008864476 0.008400564 -0.015462539 0.008698603 0.008324194 0.010017461 0.007968211
0.011444773 0.009323935 -0.005806312 0.011194051 -0.010056732 -0.009373281 -0.0066451486 0.009121114
0.011643329 -0.008568237 -0.0133478185 0.011264014 -0.006582605 0.0025712051 -0.009659404 -0.008810884
-0.012366696 -0.006000352 0.008441056 -0.00041237546 0.013046062 -0.011872861 -0.004026279 0.010813656
0.008807623 -0.008629088 0.008333296 -0.010730112 0.008079967 0.009206278 0.011182888 0.0111866705

convs_bc.bias_bc f4 [4, 32, 1]
00000000: 4159 61ba 5247 9dba 060a 85b8 1b34 14ba
00000010: b6fa a3ba 4e58 593a a85d 1d3a 2618 c338
00000020: 0b1b deb9 e1e5 18b9 3693 043a d28a 7539
00000030: a910 fab9 729a dab9 ef95 91ba 9fc5 0f3a
00000040: f235 b238 9908 c53a 9b4a 21ba 2de6 42ba
00000050: 32bc b639 7023 5dba dab0 7fb8 cf45 35ba
00000060: 4d7b a0ba 52f2 073a 6f2a 0239 3210 593a
00000070: 252a 9839 66d3 45ba df48 84b8 a12a ba3a
00000080: 1200 3dba 253f 0239 d4e8 4a38 6003 f738
00000090: 8a10 a6ba d792 bd39 0bba 513a e057 acba
000000a0: 16c0 cab9 55a8 2939 cd9d 643a 799c f2b9
000000b0: 1e8f e03a ac08 13ba e45c 21ba 313c 42b8
000000c0: d8fa 1e3a 88ad 34b9 98af f93a 2d63 243a
000000d0: 0953 cf3a 312d 9c3a 7faf 843a 14e0 1c3a
000000e0: 920f 22bb 740a 163a 4383 6537 33f3 d0b9
000000f0: ba0a bfb9 0e23 3f39 9235 933a 61a2 38ba
00000100: babb 843a 53d5 1aba 2c89 f539 1a6a 313a
00000110: efee ba39 5162 41ba d3dd 13ba 4cae 753a
00000120: 708d e1b8 e653 0e3a 2d8d f539 856a f038
00000130: b222 9d37 41fc 5439 5dba a539 6576 22b9
00000140: 405e 1439 55a1 cc39 301a 3dba 0442 18ba
00000150: 3027 8db9 1c29 893a 9c9a 7fba 8774 7bba
00000160: c8c8 99ba 6817 893a fe39 c139 8505 8536
00000170: c12c cfb9 b511 1f38 5108 82b9 47fb 6e3a
00000180: a7cc 153a efea e8b9 26ec a1b9 ac67 d339
00000190: ff3d a639 26a2 04b9 4f36 acb9 8d56 80ba
000001a0: 8478 333a 7b99 2038 1cef 5639 0c26 993a
000001b0: f735 22b9 234f 1e3a af72 26ba 0598 0aba
000001c0: 6241 053a 8933 e3ba d7b0 edba ac08 0f3a
000001d0: 22ad a239 7417 df38 8ee0 e3ba c2c0 cb39
000001e0: 1d47 7639 8eb7 073a b7f9 913a c8ae f23a
000001f0: 80c2 9fba e0d6 1b39 a174 e0ba 77ac a839
-0.0008596369 -0.0011999405 -6.343801e-05 -0.0005653516 -0.0012510631 0.00082910515 0.00060030306 9.3028226e-05
-0.00042363288 -0.00014581486 0.00050573365 0.00023416735 -0.0004769613 -0.0004169527 -0.0011107306 0.0005484465
8.4977495e-05 0.001503247 -0.00061527797 -0.00074348116 0.00034853962 -0.00084357616 -6.0961444e-05 -0.00069150043
-0.0012243778 0.000518595 0.00012413574 0.00082803064 0.000290231 -0.00075464544 -6.307824e-05 0.0014203378
-0.00072097883 0.0001242129 4.837739e-05 0.000117785065 -0.0012669724 0.00036158293 0.000800044 -0.0013148747
-0.00038671558 0.00016179805 0.0008721024 -0.00046274418 0.0017132496 -0.0005608897 -0.00061555044 -4.6309262e-05
0.00060646003 -0.00017230783 0.0019049523 0.0006270882 0.0015817593 0.0011915324 0.0010123103 0.0005984318
-0.002472852 0.00057236035 1.3680025e-05 -0.0003985405 -0.0003643835 0.00018228238 0.0011231175 -0.00070432393
0.0010126748 -0.00059064216 0.00046832243 0.00067678245 0.00035654704 -0.0007377016 -0.00056406594 0.00093719806
-0.00010755181 0.0005429372 0.00046835226 0.000114639326 1.8732015e-05 0.00020311867 0.00031610104 -0.0001549363
0.00014149491 0.00039030114 -0.000721368 -0.0005808177 -0.00026922813 0.0010464522 -0.00097505166 -0.0009592254
-0.0011732811 0.0010459246 0.00036855036 3.9643514e-06 -0.0003951546 3.7925045e-05 -0.00024801728 0.0009116423
0.00057143945 -0.00044425527 -0.00030884257 0.00040322298 0.00031708178 -0.00012648906 -0.0003284686 -0.0009791419
0.00068462663 3.8289912e-05 0.00020497706 0.0011684312 -0.00015469627 0.0006039014 -0.00063494866 -0.0005286935
0.000508329 -0.0017334084 -0.0018134367 0.00054563093 0.00031028042 0.00010637837 -0.0017385648 0.00038862793
0.0002348688 0.0005177193 0.0011137043 0.0018515224 -0.0012188703 0.00014861999 -0.0017124602 0.00032171953

convs_bc.weight.0.tensor f4 [32, 32, 6, 2]
00000000: 9eb6 1ebd 7818 c280 1268 6a3d b3bb 3a3c
00000010: eeb9 2a3d 9f19 093c febe 1f3d af5a e93b
00000020: a521 183d 1f66 cd3b fb55 153d 1b52 c73b
00000030: 3877 f9bc 3c13 a481 a6b7 883c e5ff c63a
00000040: 1c45 293c 24b9 d0b7 bab5 153c a4aa 203a
00000050: 07ad 143c fdab 8a3a e8eb 133c 0f80 7a3a
00000060: ace9 843c 9791 0d02 5c2b 833c cc03 9b3a
00000070: 2982 ee3c f521 373a 376e d13c bc0d bfb9
00000080: 3f06 ed3c 1a68 19bb d191 113d 55bb b2bb
00000090: 1295 41bc 68f5 8201 cce0 123e d107 453d
000000a0: 5e5d db3d 905d 213d d850 ad3d f236 0c3d
000000b0: fb43 8e3d f750 fc3c c050 763d 0cc9 e03c
000000c0: 8ec7 a4bc 10f0 a080 d605 633a f5d5 f5b9
000000d0: 8914 123b cb54 03ba 4a19 153b 396a a3ba
000000e0: 8a1b 273b 20b1 71ba cdcf 103b a716 66ba
000000f0: 5dcb e93a 72fc 0a02 f1ea f3bd 5923 553d
00000100: 30cb c1bd 514f 823a 8a4c 8bbd cd56 1ebc
00000110: d1a7 c0bd 09c4 bdbc 5e01 d6bd 8e4b a3bc
00000120: 6714 dd3b 7272 8481 2eda 263c 6f96 583d
00000130: 6bb9 aabc 1be5 ec3c 3f98 6dbc 3498 8a3c
00000140: aa69 86bc 2047 683c 2e7b 95bc 9575 6a3c
00000150: f49f c8bb 54db 7201 3e0a d4bc c359 433d
00000160: 303e 60bc 0b6a bc3c fe25 87bc 2cc4 a93c
00000170: 5b8e 71bc 16e6 c73c 9a7f 78bc 708a df3c
00000180: dacb 09bc dae6 e481 5f94 483d 4875 8c3d
00000190: c7bd d93c bc51 563d 12d4 b93c e366 313d
000001a0: 3bf5 bd3c e0ac 1a3d 8031 a93c 6af4 0e3d
000001b0: e2f7 efbc 4075 1880 87f4 ef3c 2244 9bbc
000001c0: e0c2 1d3d 89c7 fbbc 7291 4e3d df2c 2bbd
000001d0: 2e3e 7f3d 4fd0 56bd 92db 973d bc84 8fbd
000001e0: 7cde f13b 74a5 5181 0397 443d 3522 243d
000001f0: 4aef c03c a818 8d3c eac2 a83c 4e21 7f3c
00000200: 681b ad3c 9abe 9c3c 91bb b33c 6394 9f3c
00000210: 0ac4 fabb cab9 cd01 6a00 b13c d145 833d
00000220: 93ab 483b 3c5b 493d e0f6 313a 875a 2e3d
00000230: 46c6 d73b 065b 283d e359 2c3c 5749 253d
00000240: 0573 8c3c 9ae7 8001 d591 223c 638b 5ebb
00000250: ff81 3e3b 2af1 02bb 422f 363a 31ea f3ba
00000260: 43ea 82b9 f7b6 b0ba 89a3 ffba 8272 fab8
00000270: fb68 9abb 1cde 4701 a7a2 96bd 68b9 cd3c
00000280: 416e 33bd 3146 913c d7a3 0ebd a615 663c
00000290: 184b e8bc 06c5 343c 40e7 c9bc 89af 1e3c
000002a0: b217 693c 6ce2 8381 9d26 dbba 3001 b6bb
000002b0: a104 d53a 75b2 52bb c203 703a 9926 74bb
000002c0: 79e0 933a c740 23bb 6c9e 9f39 c97a 12bb
000002d0: a72e 173b d862 f800 1810 5fbd 7d98 83bd
000002e0: 49cf 03bd 73b0 4cbd fe8d d9bc 63d2 28bd
000002f0: e373 aebc 33dd 1abd c92c 8cbc 0c43 3cbd
00000300: a5e8 453c c006 9900 2674 03be 015b 423d
00000310: 857a d6bd 64ac 003d 6d64 b9bd 2384 bd3c
00000320: 79bc a1bd 414f b43c 46cb a8bd 8797 a63c
00000330: ab5c e73b 980f a481 3d7b c9bd 82bc 323d
00000340: 034d 90bd 3236 ad3c b094 65bd ef8a 653c
00000350: 213b 4ebd 9157 723c 48f3 56bd 911f 633c
00000360: d140 5e3b aec3 ab81 9fed d0bb 3c78 213b
00000370: 68c7 13bb 5e7f ad3a 410b bdba 3867 6a3a
00000380: 27a7 90ba 7102 fb39 c727 8dba bb9b 6c3a
00000390: 33b8 6dbb 6829 1481 83d4 a93d bac8 823d
000003a0: 9072 623d 5308 363d 8301 383d 3774 123d
000003b0: 3467 1d3d fbc2 063d 87ec 123d 9dce de3c
000003c0: dff6 04bc e467 0b02 427e db3a 1725 ce3c
000003d0: a4cb f1b9 80e3 853c 9f36 f3ba bc52 6f3c
000003e0: 0718 223a 0b38 483c 3b9b 063b 870e 313c
000003f0: ed2f cdbc b86d 1b01 af5c d9bc c19b fdbc
-0.038748376 -1.7824864e-38 0.057228155 0.01139729 0.041681223 0.008367925 0.039000504 0.007121406
0.03714146 0.0062682773 0.03645895 0.006082786 -0.030452356 -6.0271685e-38 0.016689133 0.0015182464
0.010331418 -2.4881745e-05 0.009137565 0.0006128943 0.009074456 0.0010579821 0.009028412 0.00095558254
0.016224705 1.0400826e-37 0.016011886 0.0011826693 0.0291148 0.0006985956 0.02556525 -0.00036440592
0.028933642 -0.0023407997 0.035539452 -0.0054544606 -0.011815326 4.81066e-38 0.14343566 0.048103157
0.10711168 0.03939587 0.08462685 0.034232087 0.0694656 0.030800326 0.060135603 0.027439617
-0.020114686 -1.4779798e-38 0.00086602324 -0.00046889452 0.0022290072 -0.00050098886 0.002275067 -0.001246757
0.0025498592 -0.0009219814 0.0022096515 -0.0008777179 0.0017837096 1.0211087e-37 -0.11910046 0.052035663
-0.09462583 0.0009941851 -0.06801708 -0.00966425 -0.094070084 -0.023164766 -0.104494795 -0.019933488
0.006746817 -4.8653363e-38 0.010183854 0.05287784 -0.020840367 0.02891784 -0.01450163 0.01691828
-0.016407806 0.014177114 -0.018247213 0.01431026 -0.0061225835 4.460574e-38 -0.02588379 0.047693025
-0.013686702 0.022999784 -0.016497608 0.020723425 -0.014743413 0.024401706 -0.015167141 0.027287692
-0.008410418 -8.408523e-38 0.048969623 0.06858307 0.02657975 0.05232404 0.02268413 0.04331101
0.023188224 0.037762523 0.020653486 0.03490106 -0.029293004 -2.246113e-39 0.029291404 -0.018953387
0.038515925 -0.030734794 0.050431676 -0.04179084 0.06231516 -0.052444752 0.074149266 -0.07007739
0.0073812585 -3.8505944e-38 0.04799558 0.040071685 0.023551602 0.017223671 0.020600755 0.015571905
0.021131232 0.019133855 0.021940025 0.019479936 -0.007652764 7.55717e-38 0.021606643 0.06409801
0.0030619844 0.049159274 0.00067888014 0.042566802 0.0065849153 0.04110243 0.010519478 0.040353145
0.01714469 4.7352106e-38 0.009922464 -0.0033957593 0.0029069183 -0.001998017 0.0006949791 -0.0018609223
-0.0002497007 -0.0013482262 -0.0019503693 -0.00011942258 -0.0047122217 3.6709883e-38 -0.07355242 0.025112823
-0.04380632 0.017733665 -0.03482422 0.014043247 -0.02835612 0.011033302 -0.024646401 0.0096854055
0.014226841 -4.84467e-38 -0.0016719882 -0.005554341 0.001625199 -0.0032149826 0.00091558334 -0.0037254451
0.0011282108 -0.0024910436 0.00030444877 -0.0022351018 0.0023068578 2.2810662e-38 -0.054458708 -0.06425569
-0.032180104 -0.049972963 -0.026556965 -0.041216265 -0.021295493 -0.03780861 -0.017111199 -0.04596238
0.012079393 1.4053252e-38 -0.12837276 0.04745007 -0.104725875 0.031414405 -0.09052358 0.023134297
-0.078972764 0.022010447 -0.08241896 0.020335926 0.0070606074 -6.026646e-38 -0.09837959 0.043636806
-0.07045939 0.021144006 -0.056050003 0.014010175 -0.05034936 0.014791385 -0.052478105 0.0138625065
0.0033913145 -6.3096266e-38 -0.006375983 0.0024638316 -0.0022549275 0.0013236811 -0.001442291 0.00089417724
-0.0011036143 0.0004787627 -0.0010769301 0.0009025891 -0.0036273121 -2.7213014e-38 0.082924865 0.06385942
0.055285037 0.044441532 0.044923317 0.035755362 0.0384285 0.03290079 0.0358701 0.02719813
-0.008115499 1.0241922e-37 0.0016746002 0.02516417 -0.00046118826 0.016343832 -0.0018555707 0.014607128
0.000618339 0.012220393 0.0020539302 0.010806686 -0.025047267 2.8547723e-38 -0.026533453 -0.030958058
