neuraloperator/examples/para/fno_para_202305121857_001002003004_modes36_epochs250.pth (torch, 812179 bytes, 31 tensors)

convs.bias f4 [4, 32, 1]
00000000: 926c a03a 78ca 183d c592 a43c 5c5e 28bc
00000010: ea29 c5b9 3d65 7ebc 1d69 a93a 9699 f43a
00000020: 88dd 113b 4085 1dbb 4020 e73a a15b 143b
00000030: 38a9 243d ba34 b3bb e6e2 8b3c 48f1 3ebb
00000040: 501c 413c 2349 b7b9 0c95 0fba 5537 3b3d
00000050: cb6c b83a d1aa 31bb 7e4a 60bc d448 243b
00000060: d74b 76ba 9d38 69bb def9 97ba 6528 683c
00000070: 5647 a3ba 168a a1bb e680 b4bb 7ca9 21bb
00000080: 3fd9 d6bb 4a74 08bc 5fb5 0fbc 3bdf 08bc
00000090: 54a1 073a 40c4 92bc 777c 4a3b fe77 833b
000000a0: 149d 8c3b 6d6a fa39 6a30 403b 9dfa 8b3b
000000b0: 5e8e 8cbb 21b5 0cbb edf0 133b eab8 b9ba
000000c0: 39c0 803a eba0 4a3b e359 fa3a c567 c839
000000d0: 660b d13a 2f32 c438 d828 56bc 8983 4b3b
000000e0: 5c51 b83a cd2a 7fbb 39c6 ea39 45bc 663a
000000f0: bdc3 b43a a556 abb9 6883 8ebb b05d 65ba
00000100: e89f a3bc 73a0 94bc 7f01 0fbc b9a2 08bc
00000110: c21d 253b 090c 9cbc 338a 583b a63d 5e3b
00000120: 0bcf ac3a ac2e 693a 2cff b13b 86e5 993b
00000130: 652b eaba 1d96 4bbb 3215 94bc 68a1 11ba
00000140: 5642 bf3a ffbb a73b a2cf 243b 4d95 8cba
00000150: 5683 813a ed0a 09bb ba94 0cbc dbb0 6f3b
00000160: bab6 e839 a8ed f4ba cd9d 513b a1af 9e3b
00000170: a1de e8bb 8d52 ef39 968d 10bc dcc2 983a
00000180: c029 b0b9 3cbf c4bb 2240 aabb 0f94 7bba
00000190: 71d9 5e3b 1002 8cbc e705 9e3b 4736 483b
000001a0: cea2 4c3b 816c 023b ee31 8b3b 468f b43b
000001b0: 28da 91ba 3e2c c5bb e7fd deba eda6 acba
000001c0: ec46 623b a4b7 de3b 9492 9a3b 7afd 9eba
000001d0: aa96 3e3b 7949 03bc cfa4 c0ba 2a8d 943b
000001e0: 9efe a73b a84e d138 4f64 293b 0894 cd3b
000001f0: 90b0 3bbc f550 553a 77b0 9dbb 235e d037
0.0012239388 0.037302464 0.020089516 -0.010276403 -0.00037605996 -0.015527067 0.0012925003 0.0018661495
0.0022257287 -0.0024035722 0.0017633513 0.0022637623 0.040200442 -0.005468932 0.017075967 -0.0029135514
0.011786535 -0.0003495897 -0.0005477227 0.045707066 0.0014070509 -0.002710987 -0.013689635 0.0025067823
-0.0009395456 -0.0035586723 -0.0011594852 0.014169787 -0.0012457173 -0.004929791 -0.00550853 -0.002466767
-0.0065566595 -0.008328507 -0.00877127 -0.008354004 0.0005173881 -0.017915845 0.003089694 0.004012107
0.004291186 0.0004776301 0.0029325732 0.004271819 -0.0042894324 -0.0021470266 0.0022574023 -0.0014169489
0.0009822912 0.0030918668 0.0019100275 0.00038224287 0.0015948832 9.355356e-05 -0.013071261 0.0031053743
0.0014062333 -0.0038935423 0.00044779645 0.0008801858 0.0013791245 -0.00032680217 -0.004349161 -0.0008749617
-0.01997371 -0.018142914 -0.008728384 -0.008339577 0.002519474 -0.019048708 0.0033041358 0.0033911257
0.0013184262 0.0008895199 0.00543203 0.004696551 -0.0017865716 -0.0031064816 -0.018076513 -0.00055553624
0.0014591913 0.0051188464 0.0025148173 -0.0010725647 0.000988106 -0.0020911053 -0.008580381 0.003657392
0.0004438663 -0.001868655 0.0031984926 0.004842714 -0.0071066176 0.00045647137 -0.008822819 0.0011654752
-0.00033600442 -0.006004242 -0.0051956335 -0.00095969526 0.0034004117 -0.017090827 0.004822481 0.003054993
0.003122497 0.00199011 0.0042478954 0.0055102436 -0.0011127638 -0.006017237 -0.0017012925 -0.0013172306
0.0034527136 0.006796794 0.0047171805 -0.0012129985 0.0029081502 -0.008013123 -0.0014697554 0.0045334296
0.0051267883 9.9805475e-05 0.0025847142 0.00627375 -0.01145567 0.0008137369 -0.004812296 2.4839368e-05

convs.bias_bc f4 [4, 32, 1]
00000000: fdc2 3cbb 8192 a1b9 be3c 5b3a 730b 823a
00000010: 55c1 7bba ede6 423a 3701 1bb9 cda8 473a
00000020: afdb d93a 3d23 7aba 8d6d 1339 ba94 b2b8
00000030: d737 9c39 3196 9b3a 126c 18ba df4a 7bb9
00000040: 2b5a 5fba 8d81 eb3a 76e2 9d39 ad16 3fb9
00000050: 3959 1f3a 9c79 d1ba 4bec ef3a 86bc de39
00000060: 6eb4 d2ba 86f3 e4ba 6494 9b39 d155 3337
00000070: 986c 84b9 5245 5ab9 0ce2 05ba c93f 143a
00000080: c067 b6b9 9f6a 8d3a fb3b 76b8 42ff c539
00000090: 5567 183a 0de9 c539 3c81 953a b6b5 93ba
000000a0: e3ff 89b9 b092 1c3a 8083 bb3a 3661 cb39
000000b0: b0c6 88ba 8783 903a 4dcb 7bba d15c 83b9
000000c0: 3730 ab39 d952 353a e8bd cbb9 c5c6 caba
000000d0: 8449 a439 0326 693a 9206 de3a 5064 e335
000000e0: f9e0 ba39 ca06 51ba d5fe 51ba 22e4 ba39
000000f0: 82e0 9839 18cb e6b9 25a7 a5ba 29bf c1b8
00000100: b738 9e3a ff56 9b3a 6f33 8a3a b152 f1b9
00000110: 8fc6 ca39 8cbc dab9 1d5c d53a 68db ab3a
00000120: af28 8e39 b59d 14ba 71f9 a2b9 9e16 823a
00000130: 7042 16ba 680e 8dba 547f 6b39 ec56 d3ba
00000140: d002 d739 1b04 5c3a b5de f239 ace1 1fba
00000150: 2faf 6c3a 69cb 3e39 a4a9 013b fff2 0cba
00000160: c351 d2b9 e7b9 83b9 cb86 413a 41b8 ba3a
00000170: 9abe 673a 6be3 74ba c75c 11b9 75f4 c23a
00000180: 5877 3fb8 732d 6cba d11c 2d3b 0e67 8bba
00000190: 303d 2eb9 af43 ad38 797e b238 1d99 13b9
000001a0: 7052 c9b9 658d 123a 19ab 8d3a ae63 55ba
000001b0: 1e2f 16b9 bfae a0b9 88a3 313a ba88 1a39
000001c0: 76c0 84b9 ab3c 0cba acc5 6a38 1e92 feb9
000001d0: d9c3 9cba b12a e63a 4e08 ee3a e616 8bb9
000001e0: f901 08ba a4a6 8937 f374 d138 8d3d 563a
000001f0: e72c 133b 8ca0 53ba d18a 78ba 859d 8e39
-0.0028802746 -0.00030817467 0.00083632383 0.0009921625 -0.0009603699 0.00074349233 -0.00014782404 0.0007616401
0.0016621257 -0.0009541994 0.00014059823 -8.515404e-05 0.00029796243 0.0011870322 -0.00058144436 -0.00023965117
-0.0008520211 0.0017967686 0.000301141 -0.00018223627 0.0006078664 -0.0015981677 0.0018304674 0.000424836
-0.0016075501 -0.0017467595 0.00029674463 1.0689212e-05 -0.0002525791 -0.00020815924 -0.0005107231 0.00056552567
-0.00034791045 0.0010789222 -5.870683e-05 0.0003776495 0.00058137375 0.00037748404 0.0011406313 -0.0011269364
-0.00026321327 0.0005972786 0.0014306158 0.00038791605 -0.001043519 0.0011025526 -0.00096051843 -0.0002505542
0.00032651584 0.00069169473 -0.00038860668 -0.0015470615 0.0003133529 0.0008893909 0.0016939214 1.6942013e-06
0.00035644302 -0.0007973729 -0.000801069 0.00035646657 0.0002915897 -0.00044020335 -0.0012638314 -9.2385635e-05
0.0012071346 0.0011851488 0.0010543893 -0.00046028712 0.0003867638 -0.0004172068 0.0016278062 0.0013111653
0.00027114662 -0.0005669252 -0.00031084896 0.0009924953 -0.0005731946 -0.001076174 0.0002245878 -0.0016123927
0.0004101009 0.0008392946 0.00046323767 -0.00060989964 0.000902879 0.00018195588 0.0019784952 -0.00053767854
-0.00040115239 -0.00025124775 0.00073824514 0.0014245586 0.00088403525 -0.0009341749 -0.0001386284 0.0014873879
-4.5649096e-05 -0.0009009458 0.002641488 -0.0010635571 -0.00016616727 8.26189e-05 8.511259e-05 -0.00014076052
-0.00038399128 0.00055905274 0.0010808437 -0.00081401586 -0.00014322667 -0.00030647774 0.0006776382 0.00014737519
-0.00025320397 -0.00053496164 5.5974044e-05 -0.0004855552 -0.0011960223 0.001756033 0.0018160434 -0.00026529207
-0.0005188282 1.640927e-05 9.98768e-05 0.0008172624 0.0022457184 -0.00080729346 -0.00094811345 0.00027201712

convs.weight.0.tensor f4 [32, 32, 18, 2]
00000000: 93e4 35ba 787c 7480 111d 08ba 17af a73a
00000010: b7c7 adb8 cde7 f639 9e49 5cb8 9d02 8a39
00000020: 1921 53b8 2744 5c39 ebc1 80b8 2215 4139
00000030: aa86 b3b7 2451 8439 ac56 70b8 df97 7739
00000040: c452 f1b8 6156 6739 4f50 0cb9 daea 5139
00000050: b580 1fb9 dde6 3b39 ad03 1ab9 ff72 2839
00000060: 8a5e 1eb9 52ef 2339 dedc 2eb9 6e29 1f39
00000070: f025 43b9 68da 1e39 a9ab 28b9 4740 2439
00000080: 6b3f d0b6 fe2e f138 97b7 233a e01f 3eb9
00000090: d7d1 1abd 28d9 bf01 9da0 a839 c0d7 8db8
000000a0: 397e c338 f4c2 25b7 7f87 2e38 ece0 9ab5
000000b0: bd3f c037 9924 1435 ab80 7037 d521 d635
000000c0: 69bf 0137 67ae 9d35 2845 af36 d265 6e35
000000d0: 2a37 fa35 f280 07b4 e7c7 ae35 6499 aa34
000000e0: 7f83 ac35 5f4f 9334 6f86 2135 2a22 2533
000000f0: 078a 02b5 ec57 33b5 0ffa 00b6 eaa6 bfb5
00000100: 4b6d 8eb6 38d1 35b6 1f22 07b7 ccba 9db6
00000110: 0c7d 12b7 dfaf b6b6 bd53 a5b5 1708 0634
00000120: adc2 a0bc 54e6 0a01 cc2b 213a 8079 0b38
00000130: 56cc 3938 8f98 fe37 82eb a7b7 5297 3d37
00000140: d7f5 70b7 fa3d 16b5 4ae3 0636 1dc1 22b4
00000150: f268 9fb7 d6ea 20b4 c9a0 a4b6 b084 7535
00000160: bc5c 89b6 ac74 5ab5 b92b 19b7 ac26 d9b4
00000170: 1d22 8cb7 d489 a4b6 865a a2b7 ab75 f3b6
00000180: aa19 b5b7 840b 26b7 51ca bbb7 0550 40b7
00000190: d107 bfb7 6905 55b7 ac22 c6b7 8147 70b7
000001a0: ef25 f1b7 ed61 afb7 c47c dbb8 6a3e a1b8
000001b0: 8dfb 483c 1653 9801 02a8 86b9 b5e7 0c3a
000001c0: ca04 e9b8 018a 8839 5023 8eb8 5853 3639
000001d0: 7cf2 4eb8 4c2d 0239 801d 28b8 1008 c438
000001e0: f89b 42b8 7a56 b838 72a6 18b8 31f8 9f38
000001f0: 77f5 d7b7 a985 a738 7087 b9b7 ca85 8a38
00000200: f332 c9b7 2c48 5438 e068 e6b7 2f78 3638
00000210: 43bf 16b8 5c36 4038 6312 42b8 a7a3 7838
00000220: 6d04 85b8 6226 c438 eb1f beb8 71ee 3339
00000230: a7f0 c2b8 7fd0 8739 cc2b 78b8 24cd 7839
00000240: 32e6 793a 2842 fa80 cfb6 c6b9 b5d9 60ba
00000250: 04dc 9238 30e8 9cb9 4f8f 9237 1e63 97b9
00000260: 0c46 3fb8 f027 a4b9 4311 93b8 4f84 beb9
00000270: fff9 0d39 9bee 36ba 32b3 4439 caae 45ba
00000280: 8711 9539 9405 6fba 58c6 f238 0236 49ba
00000290: a151 8838 e86a 0fba 1b13 a437 7cdb d5b9
000002a0: ef64 8bb8 bf76 d4b9 6978 72b8 9add 15ba
000002b0: d66e 9c38 56bb 72ba 6a03 8839 642c c7ba
000002c0: f4f8 d1b8 5ec1 e8ba fffb 10ba e471 7eba
000002d0: 706e 833c 7afb c881 1c94 953a 4169 8cba
000002e0: 0063 29b9 a695 b6b9 c44b ff37 b45d 7cb9
000002f0: d1d7 2939 2d41 a1b8 81fe 8639 4c5e a738
00000300: 1aa4 eeb7 107b 653a 51a7 56b8 f780 663a
00000310: 1287 cd36 946b 793a 4f28 e1b8 0c0c 3a3a
00000320: 54a8 38b9 fee2 f639 1362 f2b8 6d8d a139
00000330: 04e5 1939 b192 c039 09cd c939 1ebf 0f3a
00000340: 107f 1b3a 8930 593a 947b 713a 4431 a73a
00000350: a241 c53a 8755 a43a 3e77 d03a 1886 293a
00000360: 561a b53a e0ea 3280 4842 fd39 7aab 0eb9
00000370: 2fdf b939 00dd 00ba a546 e339 0ee2 b9b9
00000380: 179b f639 fcd4 29b9 a45d eb39 bd33 af37
00000390: d635 7cb8 d2dd fa39 112b fbb8 bf7e 063a
000003a0: fc1d 47b9 cd9c 1b3a 171b 84b9 1465 073a
000003b0: 6cb5 a6b8 3bbb aa39 a5fe fa37 b57b 5839
000003c0: 7c57 a139 04b2 8739 1106 103a a2fb b839
000003d0: df57 443a a78b e839 2980 7b3a 02af f739
000003e0: 0500 8f3a 5245 2239 1fa1 4e3a 9548 16ba
000003f0: cf5a 26bb c65c d781 5f02 a63a ed36 023a
-0.0006938662 -1.0697569e-38 -0.00051923195 0.001279327 -8.2864826e-05 0.0004709348 -5.252065e-05 0.00026323358
-5.0337145e-05 0.00021006224 -6.139636e-05 0.00018413787 -2.140117e-05 0.00025237456 -5.730118e-05 0.00023612332
-0.00011507192 0.00022062055 -0.00013381358 0.00020019282 -0.00015211369 0.00017919713 -0.00014687954 0.00016064568
-0.00015103273 0.00015634045 -0.00016676213 0.00015178855 -0.00018610782 0.00015149417 -0.00016085677 0.00015664204
-6.206266e-06 0.000115005285 0.00062453136 -0.00018131686 -0.037797775 7.0473923e-38 0.00032163123 -6.7635905e-05
9.3218354e-05 -9.880157e-06 4.1611023e-05 -1.1539355e-06 2.2917864e-05 5.5187553e-07 1.4335073e-05 1.5954089e-06
7.733565e-06 1.1748169e-06 5.2234573e-06 8.881008e-07 1.8642506e-06 -1.2619765e-07 1.302219e-06 3.1776574e-07
1.2853269e-06 2.7438634e-07 6.01728e-07 3.844813e-08 -4.862963e-07 -6.681064e-07 -1.921904e-06 -1.4279187e-06
-4.244653e-06 -2.7092883e-06 -8.0545715e-06 -4.7007106e-06 -8.731393e-06 -5.4444968e-06 -1.2317829e-06 1.2482666e-07
-0.019624079 2.551185e-38 0.0006148189 3.325334e-05 4.429774e-05 3.03502e-05 -2.0017618e-05 1.130051e-05
-1.4362354e-05 -5.596954e-07 2.0099856e-06 -1.515768e-07 -1.9003146e-05 -1.4986594e-07 -4.9062987e-06 9.14627e-07
-4.093714e-06 -8.138111e-07 -9.129691e-06 -4.0447537e-07 -1.6705186e-05 -4.903626e-06 -1.9354058e-05 -7.2556627e-06
-2.1588832e-05 -9.897052e-06 -2.2386348e-05 -1.1462723e-05 -2.2772614e-05 -1.2697049e-05 -2.3619585e-05 -1.4321763e-05
-2.8747103e-05 -2.0907226e-05 -0.00010465973 -7.688704e-05 0.012267006 5.5955204e-38 -0.00025683647 0.0005375103
-0.00011111198 0.00026042762 -6.777665e-05 0.0001738792 -4.934006e-05 0.0001241464 -4.0081795e-05 9.34751e-05
-4.639846e-05 8.789911e-05 -3.639464e-05 7.62794e-05 -2.57443e-05 7.988077e-05 -2.2116787e-05 6.605273e-05
-2.3984792e-05 5.0611954e-05 -2.7466973e-05 4.350411e-05 -3.5940913e-05 4.5826993e-05 -4.627033e-05 5.928022e-05
-6.3427586e-05 9.353158e-05 -9.065851e-05 0.00017159597 -9.295466e-05 0.00025904548 -5.9168597e-05 0.00023727544
0.0009532898 -2.2982606e-38 -0.00037901706 -0.0008577363 7.0028036e-05 -0.00029927632 1.747129e-05 -0.00028874812
-4.5603185e-05 -0.00031310273 -7.0127215e-05 -0.00036338202 0.00013539939 -0.0006978304 0.00018758772 -0.0007540999
0.00028432554 -0.00091179577 0.000115764036 -0.00076755893 6.50019e-05 -0.00054709474 1.955922e-05 -0.00040790054
-6.646837e-05 -0.00040524264 -5.7809437e-05 -0.000571692 7.4593045e-05 -0.00092594826 0.00025942485 -0.0015195725
-0.00010012268 -0.0017757823 -0.00055307144 -0.0009706302 0.016043872 -7.382925e-38 0.0011411938 -0.001071252
-0.00016153976 -0.00034825242 3.043365e-05 -0.000240675 0.00016197494 -7.689218e-05 0.00025748092 7.980745e-05
-2.8448227e-05 0.00087539945 -5.11774e-05 0.0008793021 6.1252003e-06 0.00095146266 -0.00010736344 0.0007097132
-0.00017610315 0.000470899 -0.00011557727 0.00030813683 0.00014676532 0.00036730387 0.0003849047 0.0005483496
0.00059317145 0.00082851254 0.0009211835 0.0012755771 0.0015049467 0.0012537696 0.0015904678 0.000646682
0.0013817053 -4.676032e-39 0.00048305304 -0.00013606055 0.00035452234 -0.0004915744 0.00043349448 -0.00035454374
0.00047036327 -0.00016196439 0.0004489246 2.0885718e-05 -6.013162e-05 0.00047848985 -0.000119766344 0.0005130581
-0.00018989289 0.0005936146 -0.00025197185 0.0005164903 -7.949289e-05 0.00032564424 2.99209e-05 0.0002064545
0.00030773494 0.00025881839 0.0005494068 0.00035282696 0.00074899005 0.00044354537 0.00095939875 0.00047241902
0.001091004 0.00015475348 0.0007882285 -0.00057328615 -0.0025383716 -7.911165e-38 0.0012665502 0.0004967291

convs.weight.1.tensor f4 [32, 32, 18, 2]
00000000: d23a c63b c0a5 a681 d3f7 443a 3f1c 0bb9
00000010: 282c c736 761c 12b9 40ec 2536 e4bb ceb8
00000020: aaab a037 4a34 b3b8 f070 f637 1dce 90b8
00000030: 0b7e bc38 5f28 bbb8 745c d038 5d37 88b8
00000040: f732 1339 25c6 04b8 1536 2939 77b1 a3b7
00000050: 9231 3039 658e 05b7 f180 2a39 1323 f1b6
00000060: 9814 1f39 7df5 4bb7 7880 3a39 fa4e 38b7
00000070: ccad 6739 edb3 6eb7 dab9 8e39 d4cd c1b7
00000080: c0bd 8639 9b85 20b7 fccd 103a 2ca8 ff37
00000090: 2949 063c 880a e401 a5e7 7bb9 c7ce 7437
000000a0: 3b89 86b8 d4c0 05b8 42ba ffb7 24f7 f6b7
000000b0: 988c 6bb7 bcca ecb7 cb68 adb6 7615 b8b7
000000c0: a330 d6b7 1b5d d1b7 04e0 31b7 3f36 65b7
000000d0: 5281 d037 3802 26b7 bff6 0a38 d38e 9eb7
000000e0: 1f3f 0938 9430 1ab8 b950 ef37 6bb9 53b8
000000f0: 22e2 af37 abda 8db8 0b25 8437 c2af b6b8
00000100: 9619 3037 eda6 d5b8 0ce3 2b36 33bc d7b8
00000110: 2d51 8537 8937 2bb8 3a21 ffb7 1477 4539
00000120: e4bb e83b f44e 4001 7e61 5cb9 a563 7f39
00000130: ffda b237 77bb b937 f4b3 7b38 1873 3f36
00000140: 08cf 7438 0069 61b6 69e2 6138 6c1e deb5
00000150: 492d 5738 5532 37b7 8859 4d38 1402 8135
00000160: 925a 2f38 8a7e a436 c414 2838 45bc 0635
00000170: cd02 dc37 2a07 f8b6 8225 0f36 db1b aab7
00000180: be66 c9b7 8b3e a0b8 1e47 29b8 b476 0ab9
00000190: c52e 48b8 aa83 31b9 9904 0eb8 bcd9 32b9
000001a0: 66a2 9235 4fd9 f7b8 776b 2f38 8be8 9939
000001b0: 7fb7 013c 3879 6781 965d fbb8 4888 033a
000001c0: db35 07b9 4e37 2f39 ca17 a9b8 05fc f238
000001d0: 0d0b 86b8 7bd2 cd38 d395 5eb8 ca5a b338
000001e0: 4e09 6eb8 fe86 8038 0a78 4ab8 da5b 8738
000001f0: ea14 eeb7 e111 a638 ce03 99b7 5771 a538
00000200: 9ec2 3db8 5664 8338 d6a2 60b8 0c3d 7138
00000210: 27b4 82b8 0c7b 7638 8fc9 88b8 44ae 8738
00000220: 2690 93b8 ccbf 9338 13b1 96b8 8ee0 7d38
00000230: 4758 75b8 09cc 1238 f33e 2a39 cf55 80b8
00000240: bc4b c33a b850 8981 3e6a 08bc beb0 d13a
00000250: d89d d6bb 7ce6 61bb ae22 babb 35ff 8dbb
00000260: f51b b2bb 30c8 81bb 5b49 a9bb 4f67 48bb
00000270: 1594 35bc b42d 0abc 75f0 38bc 9462 d8bb
00000280: ad87 4abc f5fe 8ebb 6af0 20bc 4409 9cba
00000290: d999 0bbc 3a8a 4cba fa67 d3bb a968 b1b9
000002a0: e9c5 c0bb 355b 603a b501 00bc 6b99 033b
000002b0: a7aa 42bc a560 5e3b d0a1 96bc f25c b23b
000002c0: c431 a7bc 6b78 db3b 0188 c4bc 015f 733a
000002d0: 53bd 933c 24c1 1b01 3856 d53a ca90 3ebb
000002e0: b93f 0e3c 149e d3ba 2c30 3d3c 36e6 3cba
000002f0: b7c9 4e3c 0fa6 63ba cb6b 4c3c 2120 87ba
00000300: 8b82 ad3c 8178 b4ba 194a a53c 2d2b 15bb
00000310: 2d6b a13c d9f0 8bbb 8c90 833c 7f78 47bb
00000320: cdc9 673c 0bbc 28bb ff40 363c 5e4a 49bb
00000330: d5b3 2b3c 4a0a c3bb e96a 333c 396a 26bc
00000340: 281a 4b3c 1693 80bc 9e1b 663c 5151 b1bc
00000350: 6eeb 4e3c f3e1 cfbc cd9b 5c3c 8ac4 efbc
00000360: 160e a63a d070 3080 2166 973a c10d b2bb
00000370: 8aad a53b d48b e2bb 339d f53b c468 cebb
00000380: 1e87 0f3c 03a7 c3bb cf7a 0f3c 2d26 a0bb
00000390: ea86 4f3c 21ed 0dbc 049d 413c fb3a 0cbc
000003a0: b2ea 393c a643 17bc 784b fe3b 60dd febb
000003b0: 4db0 af3b aa9b 24bc a908 453b dbf2 3cbc
000003c0: be3b 983a d059 7dbc b3c8 27ba bb4b a0bc
000003d0: 89b4 01bb f707 c1bc 6de3 5abb 9b42 c6bc
000003e0: b4a8 afbb 49ba b3bc a538 11bc 1988 e2bc
000003f0: 5981 f0b9 b822 e881 5c61 34bb 6160 e9bb
0.0060494924 -6.121661e-38 0.00075137353 -0.00013266595 5.9358026e-06 -0.00013934248 2.4724432e-06 -9.857843e-05
1.9153424e-05 -8.545125e-05 2.9378076e-05 -6.904847e-05 8.988016e-05 -8.9243746e-05 9.9354336e-05 -6.4952976e-05
0.00014037998 -3.165579e-05 0.00016137243 -1.9513753e-05 0.00016803134 -7.960572e-06 0.00016260498 -7.186443e-06
0.00015171093 -1.21569e-05 0.000177862 -1.0985643e-05 0.00022094621 -1.4227798e-05 0.0002722282 -2.3103239e-05
0.00025699846 -9.567851e-06 0.0005523858 3.047668e-05 0.008196154 8.3769084e-38 -0.0002402352 1.4591677e-05
-6.415179e-05 -3.1889256e-05 -3.0485102e-05 -2.9440569e-05 -1.4039826e-05 -2.8227798e-05 -5.1680013e-06 -2.1944503e-05
-2.5533436e-05 -2.4958097e-05 -1.060218e-05 -1.3662094e-05 2.4855752e-05 -9.894888e-06 3.3131564e-05 -1.8901575e-05
3.272213e-05 -3.6761703e-05 2.852861e-05 -5.0479004e-05 2.0966927e-05 -6.764134e-05 1.5752876e-05 -8.711174e-05
1.0496375e-05 -0.00010187724 2.5613144e-06 -0.00010287054 1.5892636e-05 -4.0821298e-05 -3.0413841e-05 0.00018831744
0.0071024764 3.5321477e-38 -0.00021017154 0.00024355816 2.1321232e-05 2.2141014e-05 6.0010658e-05 2.8528211e-06
5.8366946e-05 -3.358873e-06 5.385504e-05 -1.6549143e-06 5.130217e-05 -1.0919369e-05 4.895919e-05 9.611854e-07
4.18076e-05 4.902312e-06 4.007366e-05 5.019286e-07 2.6227348e-05 -7.39181e-06 2.1330493e-06 -2.027855e-05
-2.400891e-05 -7.641044e-05 -4.0358973e-05 -0.00013204926 -4.7727273e-05 -0.00016929084 -3.385972e-05 -0.00017056515
1.0925112e-06 -0.00011818355 4.1823336e-05 0.00029355692 0.007917284 -4.251497e-38 -0.000119860444 0.0005017561
-0.00012894666 0.00016709903 -8.062979e-05 0.000115864015 -6.391676e-05 9.814367e-05 -5.306846e-05 8.552296e-05
-5.6752287e-05 6.12866e-05 -4.8272348e-05 6.45441e-05 -2.838155e-05 7.918827e-05 -1.8240793e-05 7.888924e-05
-4.5242363e-05 6.265256e-05 -5.3557415e-05 5.7515732e-05 -6.232439e-05 5.8765567e-05 -6.5225286e-05 6.469761e-05
-7.036356e-05 7.045231e-05 -7.18554e-05 6.0529033e-05 -5.8494767e-05 3.4999135e-05 0.00016235914 -6.119499e-05
0.001489989 -5.044168e-38 -0.008326111 0.0015998108 -0.006549578 -0.0034469655 -0.0056804037 -0.0043334016
-0.0054354616 -0.003960632 -0.0051662154 -0.0030579155 -0.011082669 -0.008433748 -0.011287798 -0.0066035483
-0.012361449 -0.0043638893 -0.009822944 -0.0011904617 -0.008520567 -0.000780258 -0.006451604 -0.0003383805
-0.0058829677 0.0008558513 -0.007812907 0.0020080458 -0.011881507 0.0033932116 -0.018387705 0.005443209
-0.020409472 0.0066977045 -0.023990633 0.0009283871 0.018034613 2.8607575e-38 0.0016276306 -0.0029078
0.008682185 -0.0016145133 0.01154713 -0.0007205935 0.012621335 -0.00086841075 0.012476872 -0.0010309258
0.021180412 -0.0013768823 0.020176934 -0.002276133 0.019704426 -0.0042706546 0.016060136 -0.0030436812
0.014147234 -0.0025746848 0.011123895 -0.0030714492 0.010479887 -0.0059521543 0.010950782 -0.010157161
0.012396373 -0.015695136 0.01404467 -0.02164522 0.012629373 -0.025376296 0.01346488 -0.029268522
0.0012668993 -4.448573e-39 0.0011550823 -0.0054337685 0.005056088 -0.0069136415 0.0074955462 -0.00629911
0.008760242 -0.005970837 0.008757307 -0.0048873634 0.012666443 -0.008662493 0.011817221 -0.008558984
0.01134746 -0.009232437 0.0077604614 -0.007777855 0.005361593 -0.010046879 0.0030064976 -0.011532511
0.0011614484 -0.0154633075 -0.0006400451 -0.019567361 -0.0019791445 -0.023563368 -0.0033399716 -0.024201682
-0.005360687 -0.021939414 -0.008863603 -0.027652787 -0.0004587274 -8.527316e-38 -0.002752385 -0.007122085

convs.weight.2.tensor f4 [32, 32, 18, 2]
00000000: bac4 0a3c 00af 7a80 556c 81b9 4ac8 abb9
00000010: 6768 3cb9 79ca 9eb9 c281 11b9 74f0 89b9
00000020: c438 c6b8 aa79 7fb9 fee0 74b8 b36b 5bb9
00000030: aff8 95b8 7043 44b9 98c8 f6b7 3f68 1fb9
00000040: 2e37 8738 ed2d 01b9 85e9 a538 2840 ffb8
00000050: 7de6 be38 7ea6 0cb9 8cc8 b838 8a2c 1db9
00000060: 6c21 b638 4d5d 33b9 baba b438 bbbc 4cb9
00000070: 295d cb38 028e 5db9 9a8a e038 fa1b 51b9
00000080: fe27 0e39 1ce4 61b8 9b52 42b9 e41d 613a
00000090: 62b5 c53b 28cc d800 fc78 efb9 e841 2637
000000a0: 5881 16b9 7b04 b1b8 cb7c a8b8 c04e b2b8
000000b0: f71b 2eb8 8a0e b9b8 7fb8 90b7 12b1 99b8
000000c0: d5cb 86b8 a2a0 9cb8 f9a8 fab7 03c0 4db8
000000d0: abf5 7638 845c 1cb8 6c69 a338 f373 6ab8
000000e0: 9577 9338 9415 e6b8 b112 6938 6ff9 21b9
000000f0: 3326 2938 97e7 59b9 e34d 0138 b07d 89b9
00000100: c0fd e037 08fb 9eb9 c005 8637 9d2f a0b9
00000110: 13b0 3d38 65f4 fcb8 d806 8bb8 7a60 373a
00000120: b7ba 6bbb 78f7 4280 308b 543a b77f cd39
00000130: a149 6b3a 0efb dc38 bb83 5a3a b6f7 5538
00000140: d757 3c3a aa69 2238 512f 1b3a 1a74 3c38
00000150: 6803 013a ffcc 9f38 abbf d139 45ee 8d38
00000160: c14a a139 2a63 9737 85fe 9639 98a2 8cb8
00000170: d580 9139 ddc3 37b9 f899 7a39 0c5c 94b9
00000180: 312f 5b39 25fa 00ba b82b 6539 fdaf 3aba
00000190: b57a 8339 f4a4 65ba bbb0 9d39 3ab0 72ba
000001a0: 062d b239 f5ad 41ba 460a e139 eafc fdb9
000001b0: 69f7 69bb 58b5 8400 125a d0b9 3dd4 4a3a
000001c0: 0c9d 83b9 680c ce39 eb58 55b9 5d40 ad39
000001d0: e0ad 35b9 abff 9639 d01b 1db9 9bfe 8139
000001e0: 2962 2bb9 a80f 4b39 2e05 15b9 b574 4039
000001f0: 7250 e1b8 d1d0 4339 e9f4 c8b8 3771 2c39
00000200: 50ad 24b9 e932 d938 cf61 38b9 1ead aa38
00000210: 5aba 54b9 25f4 ae38 8ea2 7cb9 19bd c638
00000220: cdcc a0b9 2696 e238 6adf ceb9 f794 d038
00000230: 03cb d7b9 45af 9e38 9cb3 b6b9 9d44 0b39
00000240: e5a5 3e3c b875 ef00 14f0 6a3b 112e 28bb
00000250: 0dab 213b 96a5 22b9 5d62 163b 65bc 2bb9
00000260: 9e0c 163b 9d4a a0b9 02dc 123b ea76 c0b9
00000270: 45e0 1c3b 072c 673a 609a 2d3b 26c3 193a
00000280: 0366 523b 9e12 a538 b7d7 483b 0eae f3b9
00000290: 5b65 373b 2796 19ba 56c4 223b e507 42ba
000002a0: 7750 1d3b fb9a b1ba a858 3f3b 54ba faba
000002b0: e898 823b c14f 1ebb e684 ad3b b444 31bb
000002c0: 15f8 b13b 709c 15bb f3c7 ac3b b008 df3a
000002d0: 06fb 1b3c d00c ad81 46e9 c3ba aea5 213a
000002e0: 3fdb 9dbb 27dc 2f39 6e70 b6bb da8e 38b9
000002f0: 3d13 aebb e75b 7cb9 88ea 9dbb 8e6a 99b9
00000300: bbec b9bb bece e4b9 b07f a4bb f085 64b9
00000310: 894c 8bbb ca85 fd39 173d 6cbb 4716 5e3a
00000320: aff9 52bb 073b 953a ccd7 30bb 147b cf3a
00000330: d55b 13bb a854 4a3b 5372 0ebb 5043 9f3b
00000340: d823 18bb 21ed d53b d8a5 38bb 4c78 083c
00000350: 83f9 25bb 9e83 0e3c 2bf9 1cbb 653d 103c
00000360: 154e 283c 486f 5780 e3cd 15bb eb3d e3b9
00000370: 6be1 7ebb 73f8 00ba 7b8d 90bb 6df4 3aba
00000380: c7fc 89bb 7992 32ba 86a3 75bb 0619 30ba
00000390: 2a10 9fbb 273f 5539 e348 86bb 8757 e639
000003a0: 4ed2 52bb 44a3 503a cd1c f2ba d4b5 a83a
000003b0: 0ab8 55ba 31b7 0d3b 0aba 18b8 aac5 343b
000003c0: e41b 063a f681 803b c857 8a3a ab05 aa3b
000003d0: 2dac b63a 079a c73b 9725 dc3a 3203 d63b
000003e0: 84f0 dd3a ef85 ec3b 590b 753b fd23 803c
000003f0: d00d 0e3c 64f4 3281 4e72 15ba 6397 1b3b
0.008469755 -1.1266709e-38 -0.0002468551 -0.0003276489 -0.0001796797 -0.00030286962 -0.00013876616 -0.00026309828
-9.451949e-05 -0.00024364018 -5.8383674e-05 -0.00020925589 -7.1511946e-05 -0.00018717139 -2.9418894e-05 -0.00015202256
6.44758e-05 -0.00012319507 7.9113095e-05 -0.000121712976 9.102838e-05 -0.00013413464 8.8111585e-05 -0.00014989279
8.6846616e-05 -0.00017105528 8.6178494e-05 -0.00019525264 9.697147e-05 -0.00021129104 0.00010706969 -0.00019942215
0.00013557074 -5.3856624e-05 -0.00018532055 0.0008587523 0.0060335854 1.9909705e-38 -0.00045675773 9.909716e-06
-0.00014353299 -8.440852e-05 -8.034109e-05 -8.50237e-05 -4.1510877e-05 -8.8241955e-05 -1.725205e-05 -7.3285904e-05
-6.4275846e-05 -7.46858e-05 -2.9881006e-05 -4.9054634e-05 5.8879767e-05 -3.727946e-05 7.792082e-05 -5.5897934e-05
7.03178e-05 -0.00010971274 5.5568937e-05 -0.00015447078 4.0328316e-05 -0.00020781007 3.0828534e-05 -0.0002622432
2.6821042e-05 -0.0003032314 1.5976722e-05 -0.00030553053 4.5225093e-05 -0.000120618184 -6.629311e-05 0.0006995272
-0.0035969445 -6.149918e-39 0.0008107899 0.00039195802 0.000897551 0.0001053718 0.00083356694 5.1013856e-05
0.000718472 3.8722217e-05 0.00059198315 4.493082e-05 0.0004921467 7.619894e-05 0.0004000639 6.767785e-05
0.0003076401 1.804678e-05 0.0002879986 -6.706006e-05 0.00027752543 -0.00017525205 0.00023899216 -0.0002829734
0.00020903048 -0.0004920087 0.00021855428 -0.0007121561 0.0002507769 -0.00087602367 0.00030077048 -0.0009257827
0.0003398435 -0.00073882873 0.00042923 -0.00048444356 -0.0035700446 1.218734e-38 -0.0003973996 0.00077373144
-0.00025103276 0.00039300625 -0.00020346387 0.00033045086 -0.00017326279 0.00028800717 -0.00014983048 0.00024794493
-0.00016344398 0.00019365421 -0.00014211677 0.00018354024 -0.0001074382 0.0001867444 -9.582361e-05 0.00016445374
-0.00015704823 0.00010356849 -0.00017584044 8.138477e-05 -0.00020287317 8.342442e-05 -0.00024093149 9.476598e-05
-0.00030670167 0.00010804487 -0.00039457838 9.94596e-05 -0.0004115925 7.5666736e-05 -0.00034847565 0.00013281633
0.011636232 2.1990913e-38 0.0035848664 -0.0025662223 0.0024668605 -0.0001551121 0.0022946813 -0.00016378013
0.0022895704 -0.0003057317 0.0022408967 -0.00036709692 0.0023937386 0.0008818511 0.002648972 0.0005865566
0.003210426 7.871281e-05 0.0030646154 -0.00046478253 0.0027983997 -0.0005858861 0.0024836264 -0.0007401689
0.002400426 -0.0013550216 0.002919713 -0.0019129016 0.003985513 -0.0024156424 0.0052953837 -0.0027049007
0.005431185 -0.002282884 0.0052728592 0.0017016139 0.009520298 -6.356855e-38 -0.001494684 0.0006166351
-0.004817396 0.00016771314 -0.005567602 -0.00017600824 -0.005312352 -0.00024066829 -0.004819218 -0.00029261824
-0.0056739724 -0.00043641584 -0.0050201043 -0.0002179367 -0.004251067 0.000483556 -0.0036047155 0.00084719475
-0.003219228 0.0011385389 -0.0026984094 0.0015829527 -0.0022485156 0.0030873213 -0.0021735623 0.004860319
-0.0023214724 0.006528512 -0.0028175022 0.008329462 -0.0025325723 0.008698372 -0.0023952227 0.0088037
0.010272522 -8.029608e-39 -0.0022858314 -0.00043342946 -0.0038891684 -0.00049198343 -0.004411397 -0.0007131759
-0.0042110416 -0.0006811987 -0.00374815 -0.0006717596 -0.004854222 0.00020336789 -0.0040980442 0.00043934232
-0.0032168808 0.0007958899 -0.0018471718 0.0012871572 -0.0008152729 0.0021624083 -3.6412886e-05 0.0027583637
0.00051158504 0.0039217426 0.0010554725 0.005188664 0.001393681 0.0060913595 0.0016795871 0.0065311426
0.0016932641 0.0072181146 0.0037390797 0.01564216 0.008670285 -3.2868778e-38 -0.00057009317 0.0023741357

convs.weight.3.tensor f4 [32, 32, 18, 2]
00000000: 6b01 9ebc 6445 e001 0fb9 c53a 1ee7 c539
00000010: c3cc ca3a efd8 fa39 c09c 9a3a 0126 f239
00000020: 0a03 623a a41c f439 2e88 153a c99e d639
00000030: 9804 143a 5187 9e39 00f1 9f39 aab0 7e39
00000040: 9f38 eeb6 df1e 5539 5492 06b9 beee 5239
00000050: 8ea6 29b9 f825 7839 c43b 2fb9 dbe6 9439
00000060: 7a25 26b9 277f b639 c73b 21b9 c7d2 d039
00000070: d30e 18b9 fc8c e439 27b7 cab8 ccf4 d639
00000080: b28d fdb8 d663 2139 0ab6 4aba 771c 66bb
00000090: 198f 49bc 2049 0d00 d8a6 083a a0e5 f2b9
000000a0: 36f4 b239 6b78 5db8 502f 8e39 73cd 3038
000000b0: e101 5639 c950 d438 411b 0a39 934f d438
000000c0: 1bd2 6a39 581d 7f38 d49e f738 78ba 5238
000000d0: 521e 16b8 c63a 8038 c29e a3b8 5a66 bc38
000000e0: 053a 65b8 1d16 2439 b169 cab7 e931 6439
000000f0: afb9 8e37 242c 9539 d3f8 7738 dd4e af39
00000100: 7d85 e538 b5e9 b739 d910 4b39 efc4 9739
00000110: a85f 6439 878e a837 5276 1234 544d 0dbb
00000120: be3e 94bb b042 d300 ead7 6bbb c68c 983a
00000130: 0073 35bb ee15 e23a 36de 02bb 6a5e ac3a
00000140: fd52 bdba 2869 693a 494a 88ba d1b9 053a
00000150: 243e 3cba daeb 6239 5c3c f7b9 b4f5 c938
00000160: 0cf1 82b9 6820 9e38 549c 2bb9 e9f0 0939
00000170: 5dcb e7b8 70e1 8f39 866c 86b8 a0e9 d839
00000180: bac0 d5b7 6ebd 193a 65c2 2c37 43a3 4b3a
00000190: bfc2 9138 a6b5 753a b26a 4e39 9104 8e3a
000001a0: 219c e439 34f5 b13a 0270 94ba 9dc7 a53a
000001b0: 1a90 29bc fe4d e581 ec73 96b9 fb16 14bb
000001c0: 70a9 91b9 8a33 bcba 831b 44b9 0b7c 80ba
000001d0: aed6 f0b8 c20d 32ba 2e4a 3fb8 8617 f3b9
000001e0: b10f 0938 334c a3b9 b5de 1838 5700 65b9
000001f0: 654e 5d37 9f39 16b9 ca81 1938 27c2 ebb8
00000200: 3f9c ba38 93a1 b9b8 4098 0039 7617 acb8
00000210: bc2b 2b39 58aa c2b8 6a70 5e39 06ff 03b9
00000220: 1f63 8b39 c84d 41b9 6a04 a839 87e2 99b9
00000230: c59a c239 fce5 0cba ca89 2b3a 317f 9ab9
00000240: 7428 853c 9852 d580 a248 79ba d1ca e6ba
00000250: 643b 75ba da12 a8ba 3ead 3cba 66e9 85ba
00000260: c76e 09ba cd3c 61ba 17e2 a4b9 ec00 2eba
00000270: 21ed cdb9 0c98 e9b9 0851 3cb9 1fb3 afb9
00000280: 1609 c338 13bb 90b9 635f 5739 23ad 96b9
00000290: e52a 6639 7d02 c3b9 3ac6 5739 b87f f2b9
000002a0: 6f20 3b39 214c 17ba 49f1 1e39 dd86 33ba
000002b0: 0719 ee38 2f81 47ba 7618 3a37 7ab6 44ba
000002c0: 2649 3db8 4a0b ffb9 5f3f 3f3a e58a 6c3b
000002d0: fe8c 97ba d8db 3081 023c 52bb 0cb6 af3a
000002e0: d7ba 3abb e533 eb3a db3e 09bb 30d6 ae3a
000002f0: 1872 c6ba 772a 683a 7b56 8dba d5b3 013a
00000300: 3b99 41ba e84f 4c39 a764 f7b9 16c5 a438
00000310: b7c7 77b9 3bab 8438 86f8 14b9 aa75 0a39
00000320: ce96 9eb8 5bb9 9a39 31c8 a1b7 694d ec39
00000330: 78c9 e437 762b 283a 4bd5 a938 fde5 5d3a
00000340: b805 2539 69c3 843a 209c a339 abaa 963a
00000350: e507 213a 647c b53a 3cfd 5fba a560 ca3a
00000360: 08b2 a43c 9086 1781 6581 03bc 2dd2 bbb9
00000370: e236 e0bb 3ccc cb38 dd49 a8bb 4825 06b9
00000380: dd93 78bb e420 ffb9 717f 2abb 900c 2eba
00000390: ff17 18bb e714 24ba bd8a afba 4b70 15ba
000003a0: 803f 7bb9 a243 feb9 f58f 6d39 14f7 e0b9
000003b0: 0c2c b139 a13f deb9 5331 be39 569c ebb9
000003c0: a6a6 ab39 0e4b fab9 5434 a039 27fb e7b9
000003d0: f6fe 9239 52c2 d2b9 a98f 1739 21f3 39b9
000003e0: cda9 13ba 1a77 5c3a 8376 7839 cb54 fc3b
000003f0: ddfa 983c 44a8 8f81 d858 8ebb ab34 eb3a
-0.019287786 8.2384175e-38 0.0015085059 0.00037746964 0.0015472401 0.00047845344 0.0011795983 0.00046186152
0.00086216687 0.00046560646 0.0005704191 0.00040935565 0.00056464365 0.00030236927 0.00030506402 0.0002428914
-7.0995443e-06 0.00020324763 -0.00012833747 0.00020116099 -0.00016179142 0.00023665268 -0.00016711565 0.0002840076
-0.00015844955 0.0003480848 -0.00015376425 0.00039829893 -0.00014501372 0.0004359259 -9.6662254e-05 0.0004099965
-0.00012090373 0.00015391348 -0.00077328144 -0.0035112181 -0.012302184 1.220094e-39 0.000521285 -0.0004632892
0.00034132757 -5.2802654e-05 0.000271196 4.215301e-05 0.0002040933 0.00010123995 0.00013170858 0.000101237696
0.0002239425 6.0824066e-05 0.00011807462 5.0241564e-05 -3.5791025e-05 6.114463e-05 -7.8020166e-05 8.983603e-05
-5.465189e-05 0.00015648497 -2.4129493e-05 0.00021762367 1.7014185e-05 0.00028452382 5.9121125e-05 0.0003343736
0.00010944435 0.00035078605 0.00019365865 0.0002894769 0.00021779409 2.009353e-05 1.3640354e-07 -0.0021560984
-0.004524081 1.9401213e-38 -0.003598685 0.0011638633 -0.0027686954 0.0017248967 -0.0019968874 0.0013150696
-0.0014444288 0.0008903914 -0.0010398115 0.0005101236 -0.00071808905 0.00021640901 -0.00047156482 9.630193e-05
-0.00024975126 7.540063e-05 -0.00016366068 0.00013155084 -0.00011052818 0.0002744305 -6.409832e-05 0.00041372795
-2.5481324e-05 0.0005864714 1.029726e-05 0.00077681633 6.950413e-05 0.0009373076 0.00019685438 0.0010835101
0.00043603874 0.0013577105 -0.0011324885 0.001264799 -0.010349298 -8.423323e-38 -0.00028696598 -0.0022596705
-0.00027782796 -0.0014358622 -0.00018702266 -0.0009802593 -0.00011484079 -0.0006792211 -4.5607034e-05 -0.00046366098
3.267796e-05 -0.00031146556 3.6447036e-05 -0.00021839268 1.3190879e-05 -0.0001432658 3.6598918e-05 -0.00011241837
8.898274e-05 -8.851583e-05 0.00012263749 -8.205969e-05 0.00016324123 -9.28237e-05 0.00021213447 -0.00012588137
0.00026585997 -0.0001843489 0.00032046746 -0.0002935121 0.00037117876 -0.00053748465 0.00065436645 -0.00029467934
0.016254641 -1.959059e-38 -0.00095094193 -0.0017608051 -0.0009354858 -0.0012823001 -0.0007197446 -0.0010216653
-0.00052426424 -0.0008592129 -0.00031448968 -0.00066377106 -0.00039277322 -0.00044554507 -0.00017959264 -0.00033512057
9.300017e-05 -0.00027605201 0.00020539532 -0.00028739226 0.00021950489 -0.00037195152 0.00020577843 -0.00046252995
0.00017845792 -0.0005771537 0.0001515794 -0.00068484043 0.00011353386 -0.00076104974 1.1092159e-05 -0.0007503998
-4.5129236e-05 -0.000486458 0.0007295515 0.003609353 -0.0011562405 -3.2483825e-38 -0.0032079224 0.0013405695
-0.0028492713 0.0017944543 -0.0020942006 0.0013338979 -0.0015140204 0.00088564254 -0.001078322 0.00049477565
-0.0007385199 0.00019484723 -0.00047186503 7.8568395e-05 -0.00023630155 6.326145e-05 -0.00014206962 0.00013204539
-7.562117e-05 0.0002951127 -1.9285917e-05 0.00045071103 2.7273534e-05 0.00064151676 8.098277e-05 0.0008464752
0.00015737757 0.0010129038 0.00031206105 0.0011494955 0.0006142839 0.0013846275 -0.000854451 0.0015440179
0.020104423 -2.7830864e-38 -0.0080264555 -0.00035824013 -0.00684248 9.717836e-05 -0.0051357583 -0.00012793124
-0.003792993 -0.00048661896 -0.0026015902 -0.0006639445 -0.0023207662 -0.0006259218 -0.0013392788 -0.0005700632
-0.00023960881 -0.00048497046 0.0002265571 -0.00042908697 0.00033792888 -0.00042390547 0.00036276373 -0.00044939172
0.00032739824 -0.00047739636 0.00030556566 -0.00044246876 0.0002803725 -0.000401991 0.00014454 -0.00017733547
-0.0005632907 0.00084100815 0.00023695272 0.007700538 0.018674308 -5.2771353e-38 -0.004344087 0.0017944773

convs_bc.bias f4 [4, 32, 1]
00000000: e843 adbc 248e 46bc b296 96bc 4ca4 41bc
00000010: cb0e eab9 1c2b 75bc 8b4a 1539 9d18 823a
00000020: 912b 263b fdb8 28b9 3dd1 a13a 542f 433b
00000030: 1356 0e3c bdd2 84bb b22b 89bc 235b 6abb
00000040: 96a2 9c3a 05ab 123c fc8f 0b3b 0ef8 edb9
00000050: 6533 de39 0621 64ba 511b 73bc c21d 9f3a
00000060: f0c5 d33a b5c4 5dbb 0370 0d3b 51c9 073b
00000070: e117 75b9 bf6f 4bba bf7b dabb f962 6cbb
00000080: 41cd b0bc d4e2 69bc 5cc4 77bc 096b 54b8
00000090: 7858 023b 0892 90bc 185b df3a b042 193b
000000a0: 43ea 533b 380c f03a 8e60 363b 0ac6 743b
000000b0: 381c 423b ab1b 78bb a99a 8bbc bb34 c239
000000c0: 61e9 113a 36ab 9f3b 9def f53a 01ee 043a
000000d0: 10f2 423a cb6c 76ba 3cee 2dbc 5fa4 813b
000000e0: a09c 9b3a 024a 87bb 8eaf 623b 6552 623b
000000f0: f48a 3fb7 8b6e 3ebb 2cc8 13bc 6d9c 4f3a
00000100: 3736 f5bb 3fff 21bc 8667 01bc 8a1c c5ba
00000110: 7ae8 7a3b 68ab 8dbc 1b92 9b3b a271 813b
00000120: 70ce 203b 5721 1e3a ad3f 733b db74 db3b
00000130: c241 193b 9480 a1bb 5cb3 e1bb e543 16bb
00000140: 9d49 3f3b 01ad c13b 7e16 933a e333 63ba
00000150: eab6 8a3a b256 96bb df72 baba 8c40 6b3b
00000160: eddb 363a 3d87 93bb d630 293b 9bd7 a03b
00000170: 859d a7ba aff6 05bb 5198 f2bb 9f7b 5fba
00000180: 59b0 f3ba 234f 89bb e49a dcbb 7a13 d2ba
00000190: e130 2a3b 253d 94bc 9a63 b23b 214d ba3b
000001a0: 545b 033b add3 153b fa34 633b 9492 bb3b
000001b0: 45b1 bfba 4b5f 97bb 68ca 39bb edb3 7eba
000001c0: 8173 493b ca01 c43b 1f5c 823b 4b5d 81b9
000001d0: ec1f 1e3b c77b febb 84f2 85ba f80d b03b
000001e0: 24e1 833b 4bc5 6138 dee9 603b 9ac3 833b
000001f0: 73fb 64bc 034b e13a d6b9 95bb 2ea8 9b38
-0.021150544 -0.01211885 -0.018382404 -0.011818957 -0.0004464298 -0.014963891 0.00014237517 0.0009925548
0.0025355557 -0.00016090642 0.0012345683 0.0029782848 0.008687514 -0.0040534423 -0.016744468 -0.0035759888
0.001195031 0.008951907 0.0021295538 -0.00045388978 0.00042381432 -0.00087024306 -0.014838056 0.0012139606
0.0016157012 -0.003383917 0.0021581657 0.002071936 -0.00023373916 -0.0007760487 -0.0066675837 -0.0036069734
-0.021582248 -0.014275271 -0.015122499 -5.0644423e-05 0.0019889157 -0.017647758 0.0017040698 0.0023385696
0.0032335676 0.0018314188 0.0027828547 0.0037349486 0.002961887 -0.0037858288 -0.017041521 0.0003704185
0.0005566087 0.004872705 0.0018763427 0.0005070866 0.0007436583 -0.00094003667 -0.0106158815 0.003956362
0.0011872239 -0.0041286955 0.0034589502 0.0034533974 -1.141684e-05 -0.0029057588 -0.009019893 0.00079197326
-0.0074832696 -0.009887516 -0.007898217 -0.0015038413 0.003828554 -0.017293647 0.0047476417 0.0039503137
0.002453711 0.00060321897 0.003711681 0.00669728 0.0023385142 -0.004928658 -0.0068878364 -0.0022928652
0.0029188164 0.0059105163 0.0011221913 -0.00086670945 0.0010583077 -0.0045879716 -0.0014224908 0.0035896627
0.00069755205 -0.0045022056 0.0025816462 0.0049085147 -0.0012788033 -0.0020441224 -0.0074034114 -0.0008525196
-0.0018591984 -0.004190342 -0.0067323316 -0.0016027533 0.0025969076 -0.018095562 0.0054440023 0.005685464
0.002004345 0.0022861764 0.0034669028 0.0057242606 -0.0014624974 -0.004619514 -0.0028349403 -0.0009716142
0.0030739012 0.0059816586 0.003978267 -0.00024674306 0.0024127914 -0.0077662203 -0.001021937 0.005372759
0.0040246416 5.3827924e-05 0.0034319083 0.0040211203 -0.013975966 0.0017188493 -0.0045692725 7.422302e-05

convs_bc.bias_bc f4 [4, 32, 1]
00000000: 380d b4ba 8b0f 60b9 60b1 95ba 3306 e4ba
00000010: b903 a33a 4b22 c0ba 6d58 4b3a f6d4 df3a
00000020: bf34 20ba 3f21 c53a 7e0e c238 8ceb 0d3a
00000030: 900f 1e3b e71f 35b9 9116 48ba e21f e13a
00000040: 9a7b a239 596d 0139 b3a0 e33a 304f 09bb
00000050: 4a38 7f3a ba34 31ba f20e 01bb 3227 073a
00000060: 2c16 04ba 59e6 d1b9 8590 0eba 0e6f d9ba
00000070: 31e4 f7b7 9890 883a c782 3839 bde3 e5ba
00000080: f6dd 8fb9 2a2c 09bb 140a b23a 2bd0 763a
00000090: 682b 9b39 582f 2dba ca1f 04b9 8e6f 90ba
000000a0: 6e3d 85ba 08bb aa39 0018 7239 167e a6b9
000000b0: ed17 b2b9 84a1 95ba 0955 bab9 661b 5aba
000000c0: 3974 8938 381f b1ba fe62 773a 1280 213a
000000d0: dd72 5939 953f 26ba 02bb b139 96cf 85b9
000000e0: 0d02 1938 16db 87b9 afd7 0bba 02dd 50b8
000000f0: 67c6 e4ba d12c 74ba a07f 8039 7acc a63a
00000100: 5e5f 68ba f8f9 c23a bb03 3ab9 c28d b339
00000110: e3bc a738 315b 60ba 145c c3b4 452a eb39
00000120: 757a 883a 35a1 1dba 9089 993a c700 cfba
00000130: 6254 6d3a cc4d 703a 7bdf 183a 7fd5 893a
00000140: 0a96 cf3a 1265 2a3a b434 fe39 7a9b af3a
00000150: 9ea9 9e39 ece6 d738 8841 50bb 3e6d 803a
00000160: 96a0 ccba f232 763a 0d78 e939 802b 7cba
00000170: 5ce3 edba d882 27ba db4e 72b9 973f c638
00000180: 4436 9d3a bfa6 fb39 25e2 76b8 e200 3cba
00000190: 7c74 7d3a 0231 8f39 4ab4 f939 37cb 4bba
000001a0: 4a0e 96b8 bbc4 61b9 ece5 c538 cfaf 90b9
000001b0: cb37 1c38 f65c 5839 6c8d 003a 143c 51b9
000001c0: 922e ef39 30e0 39ba 4cbb e2ba de6e 94b9
000001d0: 87e4 90ba 5fdc cb38 a4f1 2dba 84c0 83b9
000001e0: ecf5 04ba 5927 8ab9 64d0 01ba 77fa 74ba
000001f0: 46f8 2f3a 9dd5 e43a a797 0c3a 1210 24ba
-0.001373685 -0.00021368095 -0.001142066 -0.0017396867 0.0012437023 -0.0014658658 0.0007757012 0.0017077017
-0.00061113754 0.0015039815 9.25334e-05 0.00054138224 0.0024118163 -0.0001727339 -0.0007632757 0.001717564
0.00030991138 0.00012343134 0.0017366618 -0.002095174 0.0009735866 -0.0006759871 -0.0019692746 0.0005155682
-0.0005038704 -0.0004003521 -0.0005438405 -0.0016588883 -2.9550954e-05 0.0010419069 0.00017596326 -0.0017539185
-0.0002744046 -0.0020930865 0.0013583326 0.0009415175 0.00029596244 -0.0006606481 -0.00012600343 -0.0011019574
-0.0010165402 0.00032564276 0.00023087859 -0.0003175593 -0.00033968632 -0.0011415933 -0.0003554004 -0.0008320123
6.554317e-05 -0.0013513332 0.0009437053 0.00061607466 0.00020737523 -0.0006341872 0.00033899402 -0.000255224
3.6479953e-05 -0.00025912438 -0.00053345686 -4.9796894e-05 -0.0017454148 -0.00093145395 0.0002450915 0.0012725734
-0.00088643085 0.0014875522 -0.00017739732 0.00034247158 7.9983634e-05 -0.00085585105 -3.6388576e-07 0.00044854186
0.0010412472 -0.00060130964 0.001171397 -0.0015793078 0.00090534065 0.0009166866 0.0005831641 0.0010515897
0.0015837562 0.0006500046 0.00048485922 0.0013397776 0.00030262483 0.000102950115 -0.003177734 0.0009798182
-0.0015611823 0.0009391747 0.00044530668 -0.0009619519 -0.0018149423 -0.00063900417 -0.00023108294 9.45322e-05
0.0011994322 0.00047998686 -5.8861584e-05 -0.00071717624 0.00096685416 0.000273116 0.00047627307 -0.0007774117
-7.155219e-05 -0.0002153096 9.436518e-05 -0.00027596808 3.724526e-05 0.00020633996 0.0004903886 -0.00019954174
0.0004562033 -0.00070905965 -0.001729825 -0.00028311362 -0.0011054435 9.7208416e-05 -0.00066354335 -0.00025129702
-0.00050720456 -0.00026350727 -0.0004952012 -0.00093451835 0.0006712716 0.0017458681 0.0005363174 -0.0006258498

convs_bc.weight.0.tensor f4 [32, 32, 6, 2]
00000000: f7aa adbc 3470 0601 c8c8 df3c 7b6e 5e3b
00000010: 376d 813c f34a 2b3b 561f 4e3c 95f6 533b
00000020: 7b59 273c fb45 573b 125a 0f3c 60cc 543b
00000030: cba8 45bc ec7b 0601 374d 8cbb b595 ffb9
00000040: f270 2abb ccb0 6eb9 dbe8 1abb ae3d b9b7
00000050: 66fe 16bb 2b3d d738 17a6 10bb f207 3039
00000060: 222c 91bc 8850 d601 e2e2 b6bb 97d9 15b9
00000070: 7ee4 8cba 445a c6b6 e247 b7b9 3ab6 d838
00000080: fef1 7239 5087 8338 8025 043a 1b5a aeb8
00000090: 6e21 5dbc 8083 7800 4686 003b 9afd 4939
000000a0: 8a14 1d3b d768 4239 cc39 313b 2d19 1939
000000b0: f4a6 2d3b 48f2 1839 a072 1c3b 8596 2c39
000000c0: 4771 98ba b0ef 6b81 9f56 1fbd fd0d 3fbc
000000d0: 1755 e0bc 5017 4ebc ccd1 c4bc 20c2 3cbc
000000e0: 8a62 acbc b841 21bc 4bd3 a4bc 3ba4 0fbc
000000f0: dc7f 82bc 2e59 b181 1a0a 893c fc52 53bb
00000100: ae31 ed3c e1ba e0ba eca0 0b3d 3e9f 97ba
00000110: 459b 0e3d da0e 32bb ec91 0b3d 95a7 24bb
00000120: 6f13 7f3a 10b8 0a00 7cd3 9db9 98e5 e8bb
00000130: fbfa 103c 2d31 f4bb 8fd9 603c 85f6 04bc
00000140: cd9c 903c 562c ffbb 28b0 913c d5aa f9bb
00000150: 46f3 f13a 38e9 1680 5088 f5bc 59be 5ebd
00000160: 7cf9 34bc 69b6 2abd 2f38 aabb dace febc
00000170: b1e4 99bb ac52 ccbc fb2b 3abb c370 a8bc
00000180: b547 cd3a c0b5 4881 fd6e a2bc f4ad 3cbd
00000190: 7669 ec39 b2c7 e1bc 54e8 fc3b 27e3 85bc
000001a0: 06a4 213c 12c6 4abc 1980 1e3c 03b0 38bc
000001b0: 5d3f b9ba a0d3 ce80 ea7c 0cbc c03d 58bc
000001c0: 9234 883a b05a 87bc ddae 9f3b 8010 87bc
000001d0: 7770 cd3b fbd2 71bc 9708 e33b 2a86 5dbc
000001e0: 0f01 6239 3c8c 6701 b0bd eebb eb9f 563b
000001f0: f069 00bc 4706 1e3b b274 e2bb 95c6 883b
00000200: 4f34 bfbb d83d ac3b 5a3f 90bb d9f6 b63b
00000210: a56b 043b a0f5 6901 e5ef 753b c264 9abc
00000220: 2741 e43b 4f4c 96bc 803a 053c 0d8c 84bc
00000230: 756a fe3b 9383 62bc e5fe db3b e2af 53bc
00000240: 29a2 1f3c fe91 8481 0aa7 1ebb f72c d83c
00000250: bd51 0b3c 67f9 f13b f828 733b 04ba e33a
00000260: bb4d 1d3b d8e9 d13a 8f53 0b3b 95e5 c43a
00000270: 9fd5 9ebb 6a3c 9681 6618 41bd ae57 efbb
00000280: c674 e4bc 8f12 2fbc 7269 abbc 84e9 3ebc
00000290: 41bc 87bc 8e7c 38bc 9d64 79bc 3ac2 35bc
000002a0: cab4 8fbc e8af 1e80 b1ca 173d 08c4 923a
000002b0: 2310 f23c 8e57 6e3b b701 de3c 7b47 d63b
000002c0: 78f7 c13c 7e7a dc3b d795 b93c 9925 cc3b
000002d0: 69d8 efba 40d0 a381 c367 6cbc 0f01 29bc
000002e0: e0b5 90bc 2d41 2ebc f3b3 a1bc 026b 3abc
000002f0: 0f1d a9bc 1940 34bc 91f6 b7bc 0ce7 2abc
00000300: ba42 483a dab0 9801 f5b8 25bd 8f3f debc
00000310: 9e02 b6bc d425 9ebc 1a3b 77bc e4d1 74bc
00000320: 5a2d 3bbc d68b 28bc a491 15bc d40d fabb
00000330: 71c4 303c 288a 1000 6307 8939 198a a93a
00000340: be56 38b7 72ae 37b9 3341 f739 b656 0fba
00000350: 2822 333a be49 25ba 5d2b 2e3a 2e77 0dba
00000360: 885a d73a 407c 6280 0626 44bc 0405 d6bc
00000370: 0cf0 e8ba 730b a6bc 7072 3b3b 034e 80bc
00000380: 81d3 4e3b e4f0 4fbc 757d 1a3b 43ee 2abc
00000390: 2465 66ba 6c54 1d81 c4bf d23c 2ea1 c0bc
000003a0: 8db5 613c e88b a2bc bba0 113c 2cd3 81bc
000003b0: adb7 7d3b cce2 4cbc 20e1 d939 7d33 25bc
000003c0: 31a6 153b 1c2a d781 69dd a7bb 0b87 8ebc
000003d0: fbde 3c3b 7ba6 5bbc 868a cc3b 1b82 3bbc
000003e0: c220 da3b 7a03 21bc 36db c33b f247 11bc
000003f0: e452 68bb 4413 0d01 9033 f33b fb05 6d3b
-0.021199686 2.4692415e-38 0.02731742 0.0033940363 0.015799148 0.0026137203 0.012580713 0.003234302
0.010214205 0.0032848108 0.008749502 0.003247045 -0.012064169 2.4700823e-38 -0.0042816657 -0.0004874893
-0.0026007262 -0.0002276331 -0.0023637328 -2.208244e-05 -0.0023039817 0.00010263392 -0.0022071654 0.00016787628
-0.01772124 7.872674e-38 -0.0055812458 -0.00014290806 -0.0010749248 -5.911368e-06 -0.00034958037 0.00010333625
0.00023169068 6.271771e-05 0.00050409883 -8.31375e-05 -0.01349674 1.1067433e-38 0.0019611283 0.00019263328
0.002396854 0.00018540338 0.0027042506 0.00014600596 0.0026497217 0.00014586106 0.0023872033 0.00016459271
-0.0011630439 -4.333465e-38 -0.038900968 -0.01166105 -0.027384324 -0.0125788 -0.02402582 -0.011520892
-0.02104308 -0.009842329 -0.020120284 -0.008767183 -0.015930109 -6.51475e-38 0.01672845 -0.0032245507
0.028954353 -0.0017145538 0.034089014 -0.0011567844 0.034816045 -0.0027169497 0.03407471 -0.00251243
0.0009730374 9.84384e-40 -0.00030102942 -0.007107448 0.008848901 -0.0074521513 0.013723745 -0.008115415
0.017652893 -0.0077872677 0.017784193 -0.0076192417 0.0018459342 -2.104044e-39 -0.029972225 -0.05438075
-0.01104581 -0.041677866 -0.005194686 -0.031104494 -0.0046964516 -0.024941765 -0.0028407562 -0.020561581
0.0015661629 -3.6864598e-38 -0.019828314 -0.046064332 0.00045092002 -0.027561042 0.0077181254 -0.016343666
0.009865766 -0.012376325 0.009674096 -0.011272433 -0.0014133264 -1.8994029e-38 -0.008574704 -0.013198316
0.0010391644 -0.016522735 0.0048731402 -0.01648736 0.0062695104 -0.014759774 0.006928514 -0.013520757
0.00021553434 4.2528612e-38 -0.007285796 0.0032749127 -0.0078377575 0.0024112628 -0.006910884 0.0041740634
-0.005835093 0.005256396 -0.0044020833 0.0055836258 0.0020205763 4.2971569e-38 0.0037527021 -0.018846873
0.0069657746 -0.018346934 0.008131623 -0.016180063 0.0077641555 -0.013825315 0.0067137354 -0.012920352
0.009743252 -4.869863e-38 -0.002420845 0.026388628 0.008503375 0.0073844674 0.0037103277 0.0017374163
0.002400263 0.0016015125 0.0021259522 0.0015022034 -0.004847243 -5.518799e-38 -0.04714241 -0.0073041534
-0.027887713 -0.010685577 -0.020924304 -0.011652354 -0.016569259 -0.011260165 -0.015221742 -0.0110936705
-0.017542262 -2.818168e-39 0.037058536 0.0011197338 0.02954871 0.0036368105 0.027100427 0.006539283
0.023677573 0.0067284694 0.022654457 0.006230068 -0.0018298748 -6.017557e-38 -0.014429036 -0.010315194
-0.01766485 -0.010635656 -0.019739127 -0.011378052 -0.020643739 -0.01100161 -0.02245644 -0.010431062
0.00076393376 5.608975e-38 -0.040459592 -0.027129916 -0.022218045 -0.019305147 -0.0150897745 -0.01494262
-0.011424387 -0.010287246 -0.009128962 -0.007631043 0.010789023 1.518929e-39 0.0002613618 0.0012934833
-1.0987451e-05 -0.00017517226 0.00047160088 -0.0005467938 0.0006833398 -0.0006305239 0.0006644035 -0.00053964823
0.0016430179 -9.044451e-39 -0.011971956 -0.026125439 -0.0017771735 -0.020269131 0.0028602146 -0.015662199
0.0031559172 -0.01269171 0.0023573313 -0.010432783 -0.0008788875 -2.8896916e-38 0.025726207 -0.023514356
0.013776195 -0.019842103 0.008888419 -0.015847765 0.0038714216 -0.012505244 0.00041557197 -0.010083077
0.0022834654 -7.903895e-38 -0.0051228297 -0.017398378 0.002881943 -0.013406391 0.006242099 -0.011444594
0.006656737 -0.009827489 0.0059770597 -0.008867251 -0.0035449797 2.5911432e-38 0.007421918 0.0036166895
