neuraloperator/examples/para/fno_para_202305121944_001002003004_modes36_epochs250.pth (torch, 812179 bytes, 31 tensors)

convs.bias f4 [4, 32, 1]
0	0x3c44edd6	0.012019595
1	0x3c3b69a0	0.011438757
2	0x3a4a5fe2	0.0007719976
3	0xbbcc374a	-0.006232177
4	0x3c4e3bc9	0.012587496
5	0x3c06fbad	0.008238715
6	0x3c430fa8	0.011905588
7	0x3ceaa4ae	0.028642979
8	0xbc124beb	-0.008929233
9	0x3c40d2a3	0.01176897
10	0xbba0ffd6	-0.0049133105
11	0x3c14f4e8	0.009091593
12	0x3cbe69bb	0.023243776
13	0xb8e4631e	-0.00010890349
14	0x3c2ccee9	0.010547378
15	0xba4f7bfd	-0.0007914899
16	0x3ba54d7c	0.0050446372
17	0x3bdc2529	0.006718297
18	0x3a547326	0.00081043167
19	0x3c25f912	0.010130184
20	0x3a8705fc	0.0010301466
21	0xbc547c74	-0.012969125
22	0x3b278a42	0.0025564586
23	0xbb83d4d6	-0.0040231748
24	0xbc4b21f6	-0.012398234
25	0x3c25bc2d	0.010115665
26	0x3904c178	0.00012660574
27	0x3a04d801	0.00050675875
28	0xbae8f17d	-0.0017772164
29	0xbb484682	-0.0030559604
30	0xbc412ff4	-0.011791218
31	0xbbd9d3f5	-0.0066475817
32	0x3c3c66f4	0.011499155
33	0x3c45c5d6	0.012071094
34	0xbbf1c347	-0.007378015
35	0xbbaad5e6	-0.005213487
36	0x3c4f5915	0.012655516
37	0xbbaa0bc2	-0.00518939
38	0x3c362852	0.011118012
39	0x3c4af278	0.012386911
40	0xbb4b7699	-0.0031046032
41	0x3c4f97a7	0.012670434
42	0xbba5da83	-0.005061449
43	0x3bd63817	0.006537448
44	0xbbd2ca0c	-0.0064327773
45	0x3b015f9a	0.001974082
46	0x3c160915	0.009157439
47	0x3a267c4f	0.0006350921
48	0x3c06cc3f	0.008227407
49	0x3bc9e57c	0.00616139
50	0x3adf8057	0.0017051798
51	0x3c3ad427	0.01140312
52	0xbb13904c	-0.0022516428
53	0xbc65df38	-0.01403027
54	0x3ab37106	0.00136903
55	0x3c651dfb	0.013984199
56	0xbc5f99fb	-0.013647552
57	0x3c20256f	0.00977455
58	0x3c4af404	0.012387279
59	0x37806fe6	1.5310896e-05
60	0x3c3ec833	0.011644411
61	0x3c64cb0c	0.013964426
62	0xbc48f822	-0.012266191
63	0xbba05317	-0.0048927176
64	0x3c3aaddf	0.011393993
65	0x3c673cbb	0.0141136
66	0xbb702f9e	-0.0036649476
67	0xbbf28557	-0.0074011493
68	0x3c6224c2	0.013802709
69	0xbbc7dee7	-0.00609957
70	0x3c3c028b	0.011475216
71	0x3c630aaf	0.013857528
72	0xbbe9da3c	-0.0071366113
73	0x3c4d7881	0.012540937
74	0xbbcd0e13	-0.0062577813
75	0x3bfb0d92	0.00766153
76	0xbb737a4f	-0.003715176
77	0x3bf238c8	0.0073920228
78	0x3c32a596	0.010903737
79	0x3acb3cc8	0.0015505785
80	0x3bbe5a08	0.0058090724
81	0x3b6a3929	0.0035739637
82	0x38717666	5.7569145e-05
83	0x3c253f64	0.010085914
84	0xbc2a27f7	-0.010385505
85	0xbc869600	-0.016428947
86	0xbb37bbf9	-0.0028035624
87	0x3c50d4cc	0.012746047
88	0xbc55c290	-0.013046876
89	0x3c396dc8	0.011317678
90	0x3c66687b	0.014062996
91	0xbb2f7366	-0.0026771664
92	0x3c523315	0.012829562
93	0x3c45c600	0.012071133
94	0xbba81e64	-0.005130576
95	0xbbee115d	-0.0072652535
96	0x3c45c69b	0.012071277
97	0x3c67ff85	0.014160042
98	0xbc42590e	-0.011862053
99	0xbbdea3d2	-0.0067944312
100	0x3c6f640f	0.014611258
101	0xbc4613a3	-0.012089643
102	0x3c382cd0	0.011241153
103	0x3c615932	0.013754176
104	0xbc6f50e4	-0.014606688
105	0x3c5d0a8a	0.013491282
106	0xbbf5d768	-0.007502485
107	0x3baba718	0.005238425
108	0x3a0c4a48	0.0005351645
109	0x3c144c25	0.009051357
110	0x3c0603e6	0.00817964
111	0x393d3070	0.00018042489
112	0xbb7604d5	-0.0037539501
113	0x3b5e52ab	0.0033923786
114	0x3a7ece92	0.00097201124
115	0x3c22199d	0.009893802
116	0xbc6901d8	-0.014221631
117	0xbc781ab5	-0.015143086
118	0xbbce0379	-0.006287035
119	0x3c63cb73	0.013903487
120	0xbc778ee9	-0.015109756
121	0x3c44abf6	0.012003889
122	0x3c79bdd2	0.015243011
123	0xbb967bab	-0.004592379
124	0x3c64558f	0.013936414
125	0x3c53445f	0.012894719
126	0xbc1e189a	-0.00964942
127	0xbc09e6e1	-0.008416862

convs.bias_bc f4 [4, 32, 1]
0	0xba32f64b	-0.00068268616
1	0xba8a8225	-0.001056735
2	0x3aceb2f7	0.0015769888
3	0xbab65b2f	-0.0013912673
4	0x3a8584f5	0.0010186719
5	0xbaabc80f	-0.0013105887
6	0x3932ad69	0.00017040003
7	0xba004017	-0.00048923626
8	0xb8e21a76	-0.000107814485
9	0xba8bbefc	-0.0010661776
10	0xb91b7b08	-0.00014827785
11	0xbaa9ea47	-0.0012963497
12	0xb9dcc62c	-0.0004210932
13	0xba8bf608	-0.0010678181
14	0x3a1ad73b	0.00059067056
15	0xba6b2eea	-0.00089715293
16	0x39553156	0.00020331642
17	0xb9203cfb	-0.00015281506
18	0xba3a82c5	-0.0007114823
19	0xba1f5a43	-0.00060788187
20	0x38c1af07	9.2355585e-05
21	0x3ae4a46d	0.0017444022
22	0xb91cb161	-0.00014943398
23	0xb8dd67fe	-0.00010557471
24	0x39b2b760	0.0003408743
25	0xba29bfcb	-0.0006475418
26	0x3b04dbb6	0.002027256
27	0xb9cdaaa8	-0.00039227796
28	0xb9d2157f	-0.00040070337
29	0x39f6c9c0	0.00047071092
30	0x3a3a7006	0.00071120297
31	0x3a3f5391	0.0007298524
32	0x3a748630	0.0009327857
33	0xba5aede5	-0.0008351489
34	0xbae99a22	-0.0017822424
35	0x3aaf7105	0.0013385123
36	0xba036d96	-0.0005013583
37	0x391008d4	0.00013736199
38	0x3b025642	0.001988784
39	0x39cfd427	0.00039640183
40	0x3a8ff010	0.0010981578
41	0xba1cb436	-0.0005977781
42	0x39efcee6	0.00045739784
43	0x3ab024fd	0.0013438758
44	0x39433e74	0.00018619915
45	0xba7e2117	-0.0009694262
46	0x3a2d77c9	0.00066172756
47	0x3ab6f9d1	0.0013959949
48	0x3ae9262c	0.0017787865
49	0x3a3c1db3	0.00071760564
50	0xba79b7b0	-0.0009525968
51	0x3af4fd26	0.0018691167
52	0xba970923	-0.0011523109
53	0x3a99797c	0.0011709179
54	0x3af0d16a	0.0018372957
55	0xba4051f4	-0.0007336431
56	0xb9589df0	-0.00020658202
57	0x3a2a9e31	0.00065085577
58	0x3a12569f	0.00055823656
59	0x3a869bf3	0.0010269865
60	0xbae36ad8	-0.0017350568
61	0xba9ecd2c	-0.0012115589
62	0xba5ca3da	-0.000841675
63	0xba847675	-0.0010106104
64	0xba43518d	-0.00074508117
65	0x3aa41780	0.001251921
66	0x3820ccb4	3.8337617e-05
67	0x3a4805b6	0.00076302455
68	0xb9b1d72f	-0.00033920395
69	0x3a3f3381	0.00072937465
70	0x39b5a170	0.0003464329
71	0x3af4e1ae	0.001868298
72	0xb9d71275	-0.00041021747
73	0x3a4666ee	0.00075684383
74	0xba936226	-0.001124446
75	0x389472c8	7.0785696e-05
76	0xb86b8340	-5.6150602e-05
77	0x3a6c4994	0.00090136495
78	0xb96bd77d	-0.00022491622
79	0xb9929b42	-0.00027962966
80	0xb9fb614b	-0.0004794694
81	0x3762aba6	1.3510615e-05
82	0x3ac60c24	0.0015109819
83	0xba67c1ea	-0.0008840846
84	0xbacdba1a	-0.0015695721
85	0x3a6fcc97	0.0009147613
86	0x3a864eb4	0.0010246844
87	0x394666da	0.00018921067
88	0xba8779cc	-0.0010335981
89	0xb9f84dbf	-0.0004736017
90	0x391a2d9a	0.00014703572
91	0xba42cb92	-0.0007430847
92	0xbad08317	-0.0015908208
93	0xb9ec7bb4	-0.00045105594
94	0x3a88643a	0.0010405846
95	0x3af0b4fe	0.0018364487
96	0xbab7d5be	-0.0014025492
97	0x3a977423	0.0011554997
98	0x39b8beb4	0.000352373
99	0xbac78113	-0.0015220962
100	0xba771fce	-0.00094270415
101	0xba1ad7f4	-0.00059068133
102	0x3aa560f3	0.0012617394
103	0x39dd9243	0.00042261378
104	0xba04f656	-0.00050721073
105	0xb9f09d23	-0.00045893443
106	0xbae38ce4	-0.0017360714
107	0x39d5ce63	0.00040780296
108	0x38e52293	0.00010926011
109	0x3b0d5229	0.0021563864
110	0x3a9969d1	0.0011704509
111	0xbab78dae	-0.0014004016
112	0xb8cc2ca9	-9.7357966e-05
113	0xba48a6a1	-0.0007654224
114	0xbb01f3b8	-0.0019829106
115	0xba16b553	-0.00057490653
116	0x3a17cf23	0.00057910586
117	0xb81337d0	-3.509951e-05
118	0xba905165	-0.0011010586
119	0x3aa28472	0.0012399091
120	0x396edcc0	0.00022779685
121	0x3ac3cb20	0.0014937855
122	0xbaabcc33	-0.0013107121
123	0xba1d319d	-0.00059964677
124	0x39e1d3f1	0.00043073253
125	0xb9848f24	-0.0002528365
126	0x39bb68f4	0.00035745616
127	0xb93b03ea	-0.00017835168

convs.weight.0.tensor f4 [32, 32, 18, 2]
0	0x3ca47f69	0.020080285
1	0x81a08108	-5.895987e-38
2	0x3ba9d6ad	0.005183062
3	0xbb9e613a	-0.0048333677
4	0x3abfb934	0.0014627338
5	0xbbf27bc5	-0.0074000084
6	0x3b42efe6	0.0029745041
7	0xbbcfeb1a	-0.006345165
8	0x3b738bf2	0.0037162271
9	0xbbe08d87	-0.006852809
10	0x3b9417f0	0.004519455
11	0xbbb682b9	-0.0055697826
12	0x3b31b0f0	0.002711352
13	0xbbbeaa8d	-0.005818671
14	0x3b5ca425	0.0033667174
15	0xbba41c0f	-0.0050082277
16	0x3b5ea187	0.003397079
17	0xbbf2e2e9	-0.0074123037
18	0x3b19d4b8	0.0023472738
19	0xbb52a0ae	-0.003213923
20	0x3b18069c	0.00231973
21	0xbb639eab	-0.0034732025
22	0x3af7ebc0	0.0018914863
23	0xbb502305	-0.0031759155
24	0x3ad2764e	0.0016056986
25	0xbb8198a2	-0.003954963
26	0x3aecaafa	0.0018056326
27	0xbb8fc444	-0.0043874104
28	0x3b1e889f	0.002419032
29	0xbbc16a50	-0.005902566
30	0x3b562c58	0.003268024
31	0xbbee1bb8	-0.007266488
32	0x3ba0705b	0.0048962063
33	0xbc22722d	-0.009914917
34	0x3c522fc9	0.012828776
35	0xbc5ac2d1	-0.013352112
36	0x3ca7ab74	0.020467497
37	0x00dd29d0	2.0310644e-38
38	0x3c230afe	0.009951351
39	0xbc24cfd3	-0.010059315
40	0x3bbb1299	0.005709004
41	0xbc0ca5e0	-0.00858447
42	0x3baa6439	0.0051999358
43	0xbbe6d559	-0.007044476
44	0x3bb3e3e0	0.0054898113
45	0xbbe93ebb	-0.0071180738
46	0x3bbff509	0.005858068
47	0xbbcd2756	-0.0062607927
48	0x3ba0e320	0.004909888
49	0xbbdb37d3	-0.0066900044
50	0x3ba2a9ce	0.00496409
51	0xbbd33e9b	-0.006446672
52	0x3bae9a4c	0.005328452
53	0xbc0e38d8	-0.008680545
54	0x3b990c97	0.0046706903
55	0xbbce78e9	-0.0063010347
56	0x3b8042c0	0.003914207
57	0xbbc56da7	-0.0060250345
58	0x3b54ad91	0.0032452086
59	0xbbb995b9	-0.0056636003
60	0x3b219b28	0.002465913
61	0xbbd2f61a	-0.006438029
62	0x3b12c084	0.002239258
63	0xbbe859ac	-0.007090768
64	0x3b704b75	0.003666607
65	0xbc07358f	-0.008252515
66	0x3ba13ecd	0.0049208165
67	0xbc03e3ba	-0.0080499
68	0x3bbbd859	0.0057325778
69	0xbbdc613e	-0.0067254594
70	0x3c0dc244	0.008652274
71	0xbc024405	-0.007950787
72	0x390061ba	0.00012243437
73	0x020a1ac5	1.0146321e-37
74	0xb9aa5d58	-0.00032494473
75	0x3658794e	3.2257117e-06
76	0xb8908aed	-6.892332e-05
77	0x36c57b8a	5.8854394e-06
78	0xb805d059	-3.190371e-05
79	0x3620e1c0	2.3973262e-06
80	0xb7985ae8	-1.8162144e-05
81	0x359c8e28	1.1664279e-06
82	0xb767ff31	-1.3828089e-05
83	0x3546b8f0	7.402987e-07
84	0xb7d75c52	-2.5672987e-05
85	0xb2f66d00	-2.8687737e-08
86	0xb7a263c8	-1.935837e-05
87	0x34197173	1.4290508e-07
88	0xb78a1c05	-1.646393e-05
89	0x3483fa60	2.4582823e-07
90	0xb7959881	-1.78332e-05
91	0x353d78ca	7.058376e-07
92	0xb76ba89d	-1.404635e-05
93	0x35836a83	9.79126e-07
94	0xb7370b4e	-1.0910282e-05
95	0x358ed599	1.064199e-06
96	0xb6f7d636	-7.386111e-06
97	0x35824e90	9.70862e-07
98	0xb69c8150	-4.6642162e-06
99	0x35857144	9.942237e-07
100	0xb6a40c7a	-4.8890333e-06
101	0x35bb0498	1.3933923e-06
102	0xb70e516e	-8.482819e-06
103	0x36154415	2.224236e-06
104	0xb7a29503	-1.9381294e-05
105	0x36a5c4f3	4.940311e-06
106	0xb893a62f	-7.04046e-05
107	0x3774ec5f	1.4598568e-05
108	0x3b32a962	0.0027261605
109	0x01d066da	7.655472e-38
110	0x3be9685a	0.0071230354
111	0xbb154aa6	-0.002278009
112	0x3ba0cf59	0.0049075303
113	0xbae5afed	-0.0017523743
114	0x3b4a5bc8	0.003087746
115	0x3b04676b	0.0020203243
116	0x3b7a0e34	0.0038155438
117	0x3bb3c3c0	0.0054859817
118	0x3b844695	0.0040367343
119	0x3baf6b49	0.0053533656
120	0x3b933b8b	0.004493182
121	0x3be6cb66	0.00704329
122	0x3ba2f187	0.00497264
123	0x3beaf11d	0.007169856
124	0x3be9f84a	0.007140194
125	0x3bfbdfd9	0.007686597
126	0x3b64427e	0.0034829671
127	0x3bcf1cf4	0.00632059
128	0x3b28afd4	0.0025739567
129	0x3bb45865	0.0055037015
130	0x3b58eb3d	0.0033099197
131	0x3b930750	0.0044869557
132	0x3b8b3710	0.0042485073
133	0x3b8db273	0.0043242513
134	0x3b8f3e07	0.004371408
135	0x3b9943d2	0.0046772743
136	0x3bc66dcc	0.0060555693
137	0x3bce47b1	0.0062951674
138	0x3bf3c5a9	0.0074393344
139	0x3bc46194	0.0059930775
140	0x3b5c1328	0.0033580754
141	0x3bbb6ba7	0.0057196203
142	0xb8f3614a	-0.000116052644
143	0x3b05d919	0.002042359
144	0x3ca8ce4e	0.020606186
145	0x005b1038	8.362848e-39
146	0x3c07abf8	0.008280747
147	0xbc216683	-0.009851101
148	0x3b944238	0.0045244955
149	0xbb61aedb	-0.0034436497
150	0x3b8ffbdc	0.0043940376
151	0xbb1e3b7d	-0.0024144344
152	0x3ba7aa80	0.0051167607
153	0xbb34ffe5	-0.0027618345
154	0x3bcb1b42	0.0061983177
155	0xbacc7dd8	-0.0015601469
156	0x3bc2fcb5	0.005950535
157	0xba0a0e31	-0.0005266397
158	0x3bd45d76	0.006480868
159	0xb90e3d8c	-0.00013565103
160	0x3c00ca1d	0.007860688
161	0xba89cf92	-0.0010514131
162	0x3b57cb87	0.0032927708
163	0x3a99c8f0	0.0011732858
164	0x3b2326cf	0.0024894958
165	0xb9e78da5	-0.00044165287
166	0x3b4d3a8a	0.003131541
167	0xba2a58dc	-0.00064982264
168	0x3b8a2ef1	0.0042170216
169	0xba1fed01	-0.0006100685
170	0x3b7f1a9b	0.003892577
171	0xbaaba887	-0.001309649
172	0x3bbc2b17	0.0057424414
173	0xbada7d7f	-0.0016669481
174	0x3c071541	0.008244813
175	0xbb1c53d9	-0.0023853688
176	0x3c1bd040	0.0095101
177	0xbb2bf39b	-0.002623773
178	0x3c5fabba	0.013651783
179	0xbaa5dd8b	-0.0012654526
180	0x3c06004f	0.0081787845
181	0x01e1adaa	8.290114e-38
182	0xb9a94ec5	-0.0003229288
183	0x38b2ad41	8.5199725e-05
184	0xb912fefe	-0.00014018637
185	0x3828630d	4.014657e-05
186	0xb896654f	-7.1714276e-05
187	0x36eeebf9	7.1204236e-06
188	0xb82c5663	-4.108845e-05
189	0x34c9100e	3.745085e-07
190	0xb8030630	-3.1238596e-05
191	0xb64ed962	-3.0822926e-06
192	0xb82d53b4	-4.132437e-05
193	0xb785215d	-1.5870371e-05
194	0xb7d641c2	-2.5541409e-05
195	0xb7573366	-1.2826966e-05
196	0xb73756aa	-1.0927828e-05
197	0xb6e673f5	-6.8680333e-06
198	0xb803efb9	-3.1456093e-05
199	0xb71fadf1	-9.517637e-06
200	0xb8006dff	-3.062002e-05
201	0xb6e607d3	-6.855445e-06
202	0xb7b6130c	-2.170496e-05
203	0xb6a422fa	-4.8916527e-06
204	0xb78695e4	-1.6043843e-05
205	0xb678f1b1	-3.7095563e-06
206	0xb75e6a57	-1.325699e-05
207	0xb674abcd	-3.6458835e-06
208	0xb79d8c63	-1.8781231e-05
209	0xb6ce15ea	-6.1418295e-06
210	0xb8045e5d	-3.1559135e-05
211	0xb74403ca	-1.1683393e-05
212	0xb88010f5	-6.106674e-05
213	0xb806218f	-3.1979343e-05
214	0xb85b2234	-5.2245523e-05
215	0xb916a658	-0.00014367083
216	0x3ca139df	0.019680915
217	0x00925950	1.3440022e-38
218	0x3c2bb6e1	0.010480613
219	0xba92a0ed	-0.0011186876
220	0x3bca0f54	0.006166378
221	0xbba1e1ca	-0.004940246
222	0x3bb8f629	0.005644579
223	0xbab5cb22	-0.0013869742
224	0x3bc96917	0.006146561
225	0xbac6e98a	-0.0015175801
226	0x3bdd9c7f	0.0067630406
227	0xb80344a6	-3.1296768e-05
228	0x3bcdff6a	0.0062865512
229	0x3ae48524	0.0017434699
230	0x3bf40aaf	0.0074475626
231	0x3adcadb2	0.0016836433
232	0x3c119386	0.00888527
233	0x3a3e3a4b	0.0007256611
234	0x3b9b0933	0.0047313212
235	0x3b2fd0a5	0.0026827243
236	0x3b8bed40	0.0042702258
237	0x3af815a7	0.0018927351
238	0x3b953ee8	0.004554618
239	0x3ab8bb6b	0.0014093941
240	0x3bad0ef7	0.005281325
241	0x3a14950a	0.00056679605
242	0x3bc0261b	0.0058639175
243	0x38944aaf	7.071101e-05
244	0x3c08860d	0.008332741
245	0xba2483e7	-0.00062757585
246	0x3c293a06	0.010328775
247	0xbac0dc72	-0.0014714135
248	0x3c3a7e30	0.0113826245
249	0xba9aaa34	-0.0011799992
250	0x3c92812b	0.017883858
251	0x3b171f43	0.0023059405
252	0x3c978903	0.01849795
253	0x01f02490	8.821454e-38
254	0xbcc98b84	-0.024602659
255	0xbb327f17	-0.0027236396

convs.weight.1.tensor f4 [32, 32, 18, 2]
0	0x3c7efb29	0.015562811
1	0x019ca300	5.7539243e-38
2	0x3c256c10	0.010096565
3	0x3b69479a	0.0035595656
4	0x3c090533	0.008363056
5	0x3b28e3b2	0.0025770483
6	0x3c0b82b4	0.008515049
7	0x3aaaff54	0.0013046064
8	0x3c168793	0.009187597
9	0x3b4d94e6	0.0031369268
10	0x3be2f173	0.0069257556
11	0x3b150084	0.0022735903
12	0x3c6be05b	0.014396752
13	0x3c4ee37a	0.012627477
14	0x3c52d3c8	0.012867875
15	0x3c43d723	0.011953148
16	0x3c463919	0.012098574
17	0x3c26f749	0.010190793
18	0x3ba9ef0a	0.0051859664
19	0x3c356478	0.011071317
20	0x3bb42360	0.005497381
21	0x3c1c9fed	0.009559614
22	0x3b82cf48	0.003991995
23	0x3bfc39c8	0.0076973177
24	0x3b795384	0.0038044164
25	0x3bd909ab	0.006623467
26	0x3b8d689c	0.004315449
27	0x3b9f345f	0.004858538
28	0x3bec85d4	0.007218102
29	0x3b5aacd3	0.0033367171
30	0x3c226c03	0.009913447
31	0x3a9fb188	0.0012183646
32	0x3c6abf30	0.014327809
33	0xba84b8dd	-0.0010125894
34	0x3d02044b	0.031742375
35	0xba78de0c	-0.0009493537
36	0x3c74fcaa	0.014952818
37	0x00ae94a8	1.6032704e-38
38	0x3c5a0b86	0.013308411
39	0x3b72ac99	0.0037029146
40	0x3c3d2a4a	0.011545727
41	0x3b1be57d	0.0023787909
42	0x3c376097	0.011192462
43	0xba9381cf	-0.0011253896
44	0x3c316338	0.010826878
45	0xb9e0604c	-0.00042796356
46	0x3c438f68	0.011936046
47	0xbb20b726	-0.0024523227
48	0x3ca35952	0.019940052
49	0x3bea0735	0.0071419724
50	0x3c975506	0.01847316
51	0x3bbaf687	0.005705658
52	0x3ca2a5ce	0.019854452
53	0x3b7ea62f	0.0038856377
54	0x3c306e52	0.01076849
55	0x3bc34711	0.0059593995
56	0x3c331b0e	0.010931743
57	0x3b8ee4ab	0.0043607554
58	0x3c240df1	0.0100130895
59	0x3ae2dd89	0.0017308454
60	0x3c11d0de	0.0088998955
61	0xb9639990	-0.00021705613
62	0x3c0c01b6	0.00854533
63	0xbb299db4	-0.0025881352
64	0x3c42f08f	0.011898174
65	0xbb8c9547	-0.004290256
66	0x3c842246	0.016129624
67	0xbbbdb1b0	-0.0057890043
68	0x3c96af74	0.01839421
69	0xbc107275	-0.008816351
70	0x3d0346b1	0.03204984
71	0xbc88ec90	-0.016714364
72	0xbc464bbe	-0.012103019
73	0x81086140	-2.5049028e-38
74	0x3980b448	0.00024548382
75	0xba70c2d6	-0.0009184306
76	0x392ad93f	0.00016293394
77	0xba9e4d3b	-0.001207746
78	0x38c579ed	9.4164025e-05
79	0xba4a8498	-0.00077254465
80	0x390c13ed	0.00013358863
81	0xb9e4d4f9	-0.00043646226
82	0x39049da7	0.00012647231
83	0xb92d7f28	-0.00016545935
84	0x39901956	0.00027484697
85	0xb8d3d4e6	-0.000101009195
86	0x399dfe04	0.0003013463
87	0x381c2e4d	3.723642e-05
88	0x39ecf372	0.0004519481
89	0x394387c5	0.00018647227
90	0x380ec7e2	3.4041594e-05
91	0x39dcff2a	0.00042151782
92	0xb7f1197e	-2.874131e-05
93	0x3a0218ff	0.0004962831
94	0x3871921b	5.759495e-05
95	0x39f6b0be	0.0004705246
96	0x3904deb7	0.00012671469
97	0x39e1e3db	0.0004308511
98	0x39803f41	0.0002446119
99	0x39bfb987	0.00036568588
100	0x398dc78c	0.0002704229
101	0x39817d2e	0.00024698063
102	0x392ec8fd	0.00016668807
103	0x38130fd9	3.506229e-05
104	0x39a13409	0.00030747082
105	0xb9bb55b8	-0.00035731285
106	0xbbb37266	-0.005476284
107	0xbc83b1c5	-0.016075978
108	0xbb09cecb	-0.00210278
109	0x0203a8a1	9.672754e-38
110	0x3ab7d89c	0.0014026347
111	0x3b591012	0.003312115
112	0x3a8a6c56	0.0010560851
113	0x3bfdc5d8	0.007744532
114	0xbb1e02be	-0.0024110521
115	0x3c5fd3c9	0.013661333
116	0xbba8ab64	-0.0051473845
117	0x3c7f49c9	0.015581557
118	0xbba4e6fd	-0.0050324188
119	0x3c8f95a7	0.017527414
120	0xbc1f4a7f	-0.009722351
121	0x3cd4e363	0.025987333
122	0xbc1053fc	-0.008809086
123	0x3cd053f6	0.02543066
124	0xbbbad89d	-0.005702092
125	0x3cdbc28c	0.026826166
126	0xbc40900f	-0.011753096
127	0x3c61658f	0.013757124
128	0xbc3f11b5	-0.0116619365
129	0x3c48c2a2	0.012253435
130	0xbc154658	-0.00911101
131	0x3c5835ac	0.01319639
132	0xbc15dc81	-0.0091468105
133	0x3c614405	0.013749127
134	0xbc19220e	-0.009346498
135	0x3c590d1f	0.013247757
136	0xbc24e2e7	-0.010063863
137	0x3c9898b6	0.018627506
138	0xbc0cdb35	-0.008597185
139	0x3cd542e3	0.02603287
140	0xbc3b14bb	-0.011418517
141	0x3d0d8c17	0.03455743
142	0xbc5594c1	-0.013035954
143	0x3d51c005	0.051208515
144	0x3c842d13	0.016134774
145	0x018f036e	5.2534825e-38
146	0x3c2cb7f6	0.010541907
147	0x3ba63017	0.0050716507
148	0x3c1ccf17	0.009570858
149	0x3c2aa827	0.010416067
150	0x3c080fe5	0.008304571
151	0x3c2ce377	0.010552279
152	0x3beded02	0.0072609195
153	0x3c39f951	0.011350946
154	0x3bb1dd24	0.0054279733
155	0x3c4a9350	0.012364224
156	0x3c2bef90	0.010494128
157	0x3cb4a73c	0.0220524
158	0x3c04c0eb	0.008102636
159	0x3ca1cc07	0.019750608
160	0x3c009553	0.007848102
161	0x3ca0c4d2	0.019625101
162	0xbaed3875	-0.001809849
163	0x3c37fdfa	0.011229986
164	0xba0fe5b8	-0.0005489248
165	0x3c1942c3	0.009354296
166	0xba411e66	-0.00073668954
167	0x3c13c86e	0.009019954
168	0xba60cf9d	-0.00085758587
169	0x3c1999c1	0.009375037
170	0x3a38626f	0.0007033711
171	0x3bfe8790	0.007767625
172	0x3b55e3a3	0.0032636903
173	0x3c161735	0.009160806
174	0x3bfdfd79	0.0077511636
175	0x3c4b4c07	0.012408263
176	0x3c493ea5	0.012283002
177	0x3c897ae0	0.016782224
178	0x3d01d9bb	0.031701785
179	0x3cebec53	0.028799212
180	0xbac54566	-0.001505059
181	0x80458518	-6.384394e-39
182	0x3aa1db23	0.0012348633
183	0xbac7edcd	-0.0015253365
184	0x3acb131d	0.0015493367
185	0xb9e7d374	-0.00044217298
186	0x3aa71aae	0.001274904
187	0xb8dfee5f	-0.00010677869
188	0x3a839a96	0.0010040577
189	0x39b5143c	0.00034538086
190	0x3aa89389	0.0012861352
191	0x3a353aa1	0.00069133384
192	0x3ab804f4	0.0014039562
193	0x3ab6af80	0.0013937801
194	0x3a997607	0.0011708149
195	0x3aa7c021	0.0012798348
196	0x3a8c2408	0.001069189
197	0x3a9b514f	0.0011849793
198	0x3a16621f	0.0005736667
199	0x3ab8093e	0.001404084
200	0x38029a84	3.113832e-05
201	0x3aab3478	0.0013061902
202	0xb9849487	-0.00025287663
203	0x3a95091b	0.0011370511
204	0xba0a040b	-0.00052648847
205	0x3a33ad1b	0.0006854103
206	0xba16964b	-0.00057444413
207	0x39cd6f42	0.0003918354
208	0xba13572f	-0.00056205963
209	0xb90fc3fb	-0.00013710551
210	0xba587f1a	-0.00082586857
211	0xba2c2f33	-0.00065683125
212	0xbab97d5f	-0.0014151743
213	0xbb144040	-0.0022621304
214	0x3c977534	0.018488504
215	0xbbd855e7	-0.006602037
216	0x3c89d31e	0.016824301
217	0x00102b20	1.484838e-39
218	0x3c1e6aa6	0.009668982
219	0x3c0bf1b4	0.008541513
220	0x3c0caab6	0.0085856225
221	0x3bfd6158	0.0077325515
222	0x3be8f39a	0.0071091177
223	0x3c16237e	0.009163735
224	0x3bc4189e	0.00598438
225	0x3c0b2fe4	0.008495305
226	0x3ba4d69c	0.0050304662
227	0x3c3380fc	0.010956045
228	0x3c46d5a2	0.012135895
229	0x3c9bfaa0	0.019040406
230	0x3c2924e5	0.010323738
231	0x3c9241a1	0.01785356
232	0x3c293caa	0.010329405
233	0x3c9982b3	0.01873908
234	0x3ad4cdca	0.0016235646
235	0x3c6b5e5a	0.014365757
236	0x398024bb	0.0002444143
237	0x3c5061d7	0.012718639
238	0x3a8d7d53	0.0010794796
239	0x3c487714	0.012235422
240	0x3ad5d4fe	0.0016314087
241	0x3c4b360a	0.012403021
242	0x3b4b607c	0.003103285
243	0x3c46e831	0.01214032
244	0x3be72b80	0.007054746
245	0x3c6a4660	0.014299005
246	0x3c430d9b	0.011905099
247	0x3c7810ec	0.015140753
248	0x3c8fd5ea	0.017558057
249	0x3c7d5451	0.015461997
250	0x3d27933c	0.040911898
251	0x3cd80b2b	0.026372513
252	0x3c77276e	0.015085084
253	0x00a28a48	1.4926956e-38
254	0x3b87ec10	0.004148014
255	0x3c77fc5e	0.015135853

convs.weight.2.tensor f4 [32, 32, 18, 2]
0	0x3c6a0198	0.014282607
1	0x01c6c726	7.3019477e-38
2	0x3c40ee21	0.011775524
3	0x3c1b454b	0.00947697
4	0x3bfb2512	0.0076643312
5	0x3b84b75b	0.004050178
6	0x3c03e169	0.008049347
7	0x3b4a623f	0.0030881313
8	0x3bd2299c	0.0064136516
9	0x3af151d7	0.0018411231
10	0x3b840cf7	0.004029866
11	0x3acbae91	0.0015539696
12	0x3c2ef9fb	0.010679717
13	0x3c5f8f7f	0.013645052
14	0x3c0dc916	0.0086539
15	0x3c4b9d63	0.012427661
16	0x3bf8293c	0.007573275
17	0x3c2b870f	0.010469212
18	0x3b2fe182	0.0026837294
19	0x3c5b2878	0.013376348
20	0x3b483899	0.0030551313
21	0x3c3d5ef1	0.01155828
22	0x3adb5833	0.001673466
23	0x3c1c7ea9	0.0095516825
24	0x3a889f15	0.0010423387
25	0x3c06c231	0.00822501
26	0x3ac2ed65	0.0014871774
27	0x3be266a8	0.0069092102
28	0x3b2b1cca	0.002610969
29	0x3b7fc27c	0.0039025834
30	0x3b300f46	0.0026864572
31	0xb7dc1bab	-2.6238928e-05
32	0x3b9c206b	0.0047646067
33	0xbb9b041b	-0.004730714
34	0x3c5b9adc	0.013403621
35	0xbbdd39d3	-0.006751278
36	0x3c68f81f	0.014219313
37	0x813d9ea4	-3.4827637e-38
38	0x3c2bd046	0.010486668
39	0x3bd7dfb6	0.0065879477
40	0x3c034956	0.00801309
41	0x3b08e8f1	0.0020890797
42	0x3c0826d2	0.008310037
43	0xbb52c7f5	-0.003216264
44	0x3bf91abc	0.007602064
45	0xbb7565ab	-0.0037444632
46	0x3be4d6de	0.006983622
47	0xbbcd3586	-0.006262484
48	0x3c83b417	0.016077084
49	0x3b92214f	0.004459537
50	0x3c712616	0.014718553
51	0x3b4942cc	0.003070998
52	0x3c6bd8b1	0.014394925
53	0x3ac5f132	0.0015101789
54	0x3c0f3ddd	0.008742777
55	0x3bb5b655	0.0055454173
56	0x3c1248fd	0.008928535
57	0x3b620dae	0.0034493017
58	0x3be24796	0.0069055064
59	0x3a1fec0f	0.0006100544
60	0x3bb58b8d	0.0055403174
61	0xbadf58b7	-0.0017039989
62	0x3b964a87	0.004586521
63	0xbb8902c2	-0.004181237
64	0x3bba276f	0.0056809704
65	0xbbefcc1e	-0.007318034
66	0x3bcca18d	0.0062448443
67	0xbc371dce	-0.01117654
68	0x3bac3445	0.0052552545
69	0xbc881c0a	-0.016614933
70	0x3c3c6d3c	0.011500653
71	0xbce58a88	-0.028020158
72	0xbb997811	-0.0046835025
73	0x816df934	-4.370882e-38
74	0x3b602dfe	0.00342071
75	0xb91d8d0a	-0.00015025228
76	0xb90301d9	-0.00012493822
77	0x3a324ab4	0.0006801293
78	0xbb406654	-0.0029357867
79	0x3a0d4dfb	0.0005390343
80	0xbb23a91c	-0.0024972623
81	0x3a0751e1	0.0005162042
82	0xbb294da9	-0.0025833643
83	0x3aa33259	0.0012450918
84	0x3aa4d120	0.0012574531
85	0x3a7ab638	0.0009563896
86	0x3ac921c6	0.0015345148
87	0x3ac6ce83	0.0015167746
88	0x3ab16384	0.0013533686
89	0x398dd41e	0.00027051655
90	0x3a067f6d	0.0005130682
91	0x3b144d4c	0.002262908
92	0x3a8e451d	0.0010854338
93	0x3b973fbd	0.0046157525
94	0x3aab7d20	0.0013083555
95	0x3baabdaf	0.0052106003
96	0x3a3c65ac	0.0007186781
97	0x3baa27ff	0.005192756
98	0x3ac41d9b	0.0014962436
99	0x3ba94145	0.0051652514
100	0x3accc5f4	0.001562296
101	0x3b867049	0.004102741
102	0x3a08cdee	0.0005218674
103	0x3b8335e5	0.0040042275
104	0xb9b7ffad	-0.00035094973
105	0x3b529845	0.0032134217
106	0x3cd75462	0.026285354
107	0x3b806b1d	0.003919019
108	0xbb5dd45f	-0.0033848507
109	0x8117e180	-2.7896108e-38
110	0xbb025269	-0.0019885546
111	0x3a0f391a	0.0005463526
112	0xbb35a17f	-0.0027714667
113	0x3bcfed13	0.0063454
114	0xbbcaea16	-0.006192456
115	0x3c653ac9	0.013991066
116	0xbc0c90ca	-0.008579442
117	0x3c763c8c	0.015029084
118	0xbc200f95	-0.00976934
119	0x3c88228c	0.016618036
120	0xbc34103a	-0.010990197
121	0x3cdc3078	0.02687858
122	0xbc2d41e3	-0.010574791
123	0x3cda34f0	0.02663657
124	0xbc1e7230	-0.009670779
125	0x3cd3bf82	0.025848154
126	0xbc6cded2	-0.014457421
127	0x3c87a6f7	0.016559107
128	0xbc755497	-0.014973781
129	0x3c74cd51	0.014941529
130	0xbc546e38	-0.012965731
131	0x3c7ecf64	0.015552375
132	0xbc524e38	-0.012836032
133	0x3c823082	0.015892271
134	0xbc4b9686	-0.012426024
135	0x3c809bfb	0.015699377
136	0xbc57471d	-0.013139513
137	0x3ca4e1ba	0.020127166
138	0xbc5bdfa1	-0.0134200165
139	0x3cc8c60a	0.024508495
140	0xbc6ebdca	-0.014571616
141	0x3d00c3f4	0.031436875
142	0xbc8d8c90	-0.01727894
143	0x3d3ee104	0.04660131
144	0x3c77e322	0.015129836
145	0x00888388	1.2536812e-38
146	0x3c27fde5	0.010253404
147	0x3c0e6f9d	0.008693603
148	0x3c1adae4	0.009451602
149	0x3c123095	0.008922716
150	0x3befb504	0.00731528
151	0x3c2bb492	0.010480063
152	0x3bae6e95	0.005323241
153	0x3c31415b	0.010818805
154	0x3abe4bb6	0.0014518413
155	0x3c3e9030	0.011631057
156	0x3be8aee8	0.0071009286
157	0x3cb3f40a	0.021966953
158	0x3bea4613	0.007149467
159	0x3ca47a52	0.020077858
160	0x3b89b71e	0.0042027375
161	0x3c9a807a	0.01886009
162	0xbb24b040	-0.0025129467
163	0x3c3f5b8e	0.011679543
164	0xbb085cb9	-0.002080722
165	0x3c1e83d2	0.009674983
166	0xbb77d5f3	-0.0037816733
167	0x3c1dc72b	0.009630005
168	0xbb890e44	-0.004182609
169	0x3c134dc7	0.0089907115
170	0xbb3a8b78	-0.0028464478
171	0x3bfb210c	0.0076638516
172	0xbb0ebda8	-0.0021780524
173	0x3c019ca0	0.0079108775
174	0xbabdbed4	-0.0014476427
175	0x3c13fad2	0.009031968
176	0x3b4e4c9f	0.0031478775
177	0x3c264c6b	0.010150055
178	0x3c981cc3	0.018568402
179	0x3ca334c4	0.019922622
180	0xbc02cc04	-0.007983211
181	0x01db9652	8.0663594e-38
182	0xbae351a0	-0.0017343052
183	0xba27f8b4	-0.0006407604
184	0xbaaa2eb9	-0.0012983895
185	0xb9fbd5e0	-0.000480338
186	0x37da5721	2.6028198e-05
187	0x3b4e4b1d	0.0031477876
188	0x3aca606a	0.0015440111
189	0x3b9770eb	0.004621615
190	0x3b67ae1f	0.0035351587
191	0x3c1479a8	0.009062208
192	0x3bfa1304	0.0076316614
193	0x3c0e6f27	0.008693493
194	0x3bf328fe	0.007420658
195	0x3bfa0e93	0.007631132
196	0x3bef4616	0.007302056
197	0x3bab657e	0.0052306047
198	0x3b7aa504	0.003824533
199	0x3c39167c	0.011296865
200	0xba420dff	-0.0007402598
201	0x3c3fb8a4	0.011701737
202	0xbb1621f3	-0.002290842
203	0x3c28f0ff	0.010311364
204	0xbb841d10	-0.004031785
205	0x3bd59e5a	0.006519121
206	0xbb927df5	-0.0044705817
207	0x3b8a7b17	0.0042260992
208	0xbbddee95	-0.006772826
209	0xb9dae087	-0.00041747486
210	0xbc6542d6	-0.013992986
211	0xbbc50ff3	-0.006013864
212	0xbc7cf1e7	-0.015438533
213	0xbcb7a5b4	-0.02241788
214	0xbc4700c4	-0.012146179
215	0xbcbaad59	-0.022787737
216	0x3c702d24	0.0146592
217	0x018ec440	5.2444167e-38
218	0x3c14781e	0.009061841
219	0x3c17afc4	0.009258214
220	0x3bd72e24	0.0065667797
221	0x3bfc91ed	0.0077078254
222	0x3baf02fd	0.0053409324
223	0x3c1711c3	0.009220543
224	0x3b2d6b5b	0.0026461694
225	0x3c1bac1d	0.009501484
226	0x3a717523	0.0009210875
227	0x3c35e7ee	0.01110266
228	0x3beb15d5	0.0071742334
229	0x3ca8650b	0.020555994
230	0x3bb43aae	0.005500159
231	0x3c98f07d	0.018669361
232	0x3b58c307	0.003307523
233	0x3c9440f2	0.018097375
234	0xbad0bf71	-0.0015926195
235	0x3c780897	0.015138767
236	0xbb33e6d4	-0.0027450817
237	0x3c66c5f6	0.0140852835
238	0xbb87eadf	-0.004147872
239	0x3c57ccbe	0.013171373
240	0xbb69f61d	-0.0035699673
241	0x3c5564ce	0.013024522
242	0xbaa44dcd	-0.0012535393
243	0x3c529848	0.0128536895
244	0xb8682340	-5.534594e-05
245	0x3c622d90	0.013804808
246	0x39c33b4f	0.00037237487
247	0x3c4547db	0.012041057
248	0x3b89f0f1	0.0042096307
249	0x3c15d464	0.009144876
250	0x3cc16ea3	0.023612326
251	0x3c94dde0	0.018172204
252	0x3c79313c	0.015209492
253	0x8150b57c	-3.8333775e-38
254	0x3c14a125	0.009071623
255	0x3c753bd5	0.014967878

convs.weight.3.tensor f4 [32, 32, 18, 2]
0	0x3c6ba457	0.014382443
1	0x81ce8aca	-7.58716e-38
2	0x3c8098f8	0.015697941
3	0x3c565c6a	0.013083557
4	0x3c21db83	0.009878996
5	0x3bb2cb9c	0.005456401
6	0x3bdc43a1	0.006721929
7	0x3b40e8a8	0.002943555
8	0x3bae9029	0.005327244
9	0x3ab7eea5	0.0014032914
10	0xb90745d8	-0.00012900622
11	0x3a3b82c7	0.0007152971
12	0x3bf61d8c	0.0075108465
13	0x3c46a7b4	0.0121249445
14	0x3b9002bf	0.0043948586
15	0x3c2ca39c	0.010537054
16	0x3aa9ef41	0.001296498
17	0x3c26759e	0.010159878
18	0xb90c3faa	-0.00013375157
19	0x3c63b883	0.0138989715
20	0x3a063a20	0.00051203556
21	0x3c3d8ab4	0.011568714
22	0xbaf24347	-0.0018483185
23	0x3c1b9bc3	0.009497586
24	0xba980407	-0.001159788
25	0x3bf1a064	0.0073738564
26	0x38166d73	3.586472e-05
27	0x3bd4dc35	0.0064959773
28	0xbb244111	-0.0025063197
29	0x3b38419a	0.0028115273
30	0xbb45ab47	-0.0030161904
31	0xbb2c3f9b	-0.002628303
32	0x3ad987e6	0.0016596287
33	0xbc037503	-0.008023503
34	0x3a999fc2	0.0011720585
35	0xbc3c481a	-0.0114918
36	0x3c71dff8	0.014762871
37	0x81b93960	-6.8040596e-38
38	0x3c781509	0.015141734
39	0x3c001cd5	0.007819374
40	0x3c0e318c	0.008678805
41	0x3b45c2ef	0.0030176004
42	0x3bd67264	0.006544398
43	0xbb9c8ae8	-0.004777301
44	0x3bb89625	0.005633133
45	0xbbedd2cb	-0.0072577945
46	0x3b189400	0.0023281574
47	0xbc210999	-0.009828948
48	0x3c2074c6	0.009793466
49	0x3a8d2e8a	0.0010771316
50	0x3bf6e28f	0.007534332
51	0xb63efd56	-2.8459667e-06
52	0x3bb0ba53	0.0053933053
53	0xba42bf76	-0.00074290426
54	0x3b8e7136	0.004346992
55	0x3b56ad04	0.0032756934
56	0x3b89c3cc	0.004204249
57	0x3a5db015	0.0008456719
58	0x3ac391d8	0.0014920784
59	0xbb0ce8cb	-0.002150106
60	0x39f631fe	0.00046958023
61	0xbb8e9647	-0.0043514105
62	0xba396ebb	-0.000707369
63	0xbbde2d4a	-0.006780301
64	0xbb04c1c9	-0.0020257107
65	0xbc34fcb1	-0.011046574
66	0xbb0453b8	-0.0020191502
67	0xbc8230d5	-0.015892426
68	0x39b551a5	0.0003458384
69	0xbcbb954b	-0.022898337
70	0xbb9cf3a1	-0.004789785
71	0xbd0ea90f	-0.034829196
72	0xbc7c8dd9	-0.0154146785
73	0x018a500e	5.0808067e-38
74	0xbc9dc6f5	-0.01925991
75	0xbc354815	-0.011064549
76	0xbc9e6733	-0.019336319
77	0xbbccc00f	-0.006248481
78	0xbc910fc9	-0.017707722
79	0x3adb4513	0.001672896
80	0xbc815f31	-0.015792461
81	0x3b8ebd8a	0.004356091
82	0xbc8ff3b1	-0.017572256
83	0x3bf85b54	0.0075792465
84	0xbcb7edb2	-0.02245221
85	0xbbbc9aab	-0.0057557425
86	0xbcae4984	-0.02127529
87	0xbaf19956	-0.0018432538
88	0xbcaa666f	-0.020800797
89	0xba9a1b7b	-0.0011757457
90	0xbc97789a	-0.018490124
91	0x3b79cfbe	0.0038118209
92	0xbc1641db	-0.009170975
93	0x3c0d9959	0.008642518
94	0xbbe34b42	-0.0069364617
95	0x3c3a3c83	0.011366966
96	0xbad1f3fd	-0.0016018149
97	0x3c8115d0	0.015757471
98	0x3bab198c	0.0052215513
99	0x3ca8c581	0.02060199
100	0x3c0a8ee5	0.00845692
101	0x3ccceec4	0.025016196
102	0x3c044ea7	0.008075393
103	0x3cbd93df	0.0231418
104	0x3c47c67f	0.012193321
105	0x3cd34a55	0.02579228
106	0x3cf7c6ef	0.030246226
107	0x3d219693	0.03945024
108	0xbbac46cc	-0.005257463
109	0x00b5bd50	1.6690137e-38
110	0x3aa0d5c3	0.0012270737
111	0x3bc56547	0.006024036
112	0xbb9174a7	-0.004438955
113	0x3c288464	0.010285471
114	0xbc2c77ef	-0.010526641
115	0x3c8a5dce	0.016890433
116	0xbc507e5c	-0.012725439
117	0x3c826013	0.015914952
118	0xbc5d9c0d	-0.013525975
119	0x3c8e70ea	0.017387826
120	0xbc2848d8	-0.010271274
121	0x3ce80f24	0.028327532
122	0xbc438e5a	-0.011935795
123	0x3cdc47f1	0.026889773
124	0xbc66f77c	-0.014097091
125	0x3cc771d6	0.024346273
126	0xbc3cfe0a	-0.011535177
127	0x3ca281ef	0.019837348
128	0xbc58a801	-0.013223649
129	0x3c96a022	0.018386904
130	0xbc4e5d2d	-0.012595457
131	0x3c969db6	0.01838575
132	0xbc4ab351	-0.012371854
133	0x3c932407	0.017961515
134	0xbc3b1724	-0.011419091
135	0x3c9d18dc	0.019176893
136	0xbc595366	-0.013264513
137	0x3cb5159f	0.022105036
138	0xbc7646e8	-0.015031554
139	0x3cc6ae8e	0.024253156
140	0xbc4f85d3	-0.0126661835
141	0x3ce07f08	0.027404323
142	0xbc5c73c7	-0.013455338
143	0x3d1aaeaa	0.03776423
144	0x3c84d1b9	0.016213285
145	0x81a6e8cc	-6.1312817e-38
146	0x3c778c66	0.015109157
147	0x3c591201	0.013248921
148	0x3c1c8020	0.009552032
149	0x3c11e760	0.008905262
150	0x3b9257ee	0.0044660484
151	0x3c1c7bed	0.009551031
152	0x3991b762	0.00027793186
153	0x3c246bc8	0.010035463
154	0xbb3b1742	-0.0028547798
155	0x3c21a3bb	0.009865697
156	0x3b31cbd4	0.0027129548
157	0x3cae8178	0.02130197
158	0x3a8f9ade	0.0010956188
159	0x3c9ee721	0.01939732
160	0xbb27e152	-0.002561648
161	0x3c968fac	0.018379055
162	0xbb435ef1	-0.0029811228
163	0x3c3f76e4	0.011686061
164	0xbb808645	-0.003922256
165	0x3c2af0a2	0.010433348
166	0xbbc703b3	-0.006073439
167	0x3c1b57ca	0.00948138
168	0xbbbc8276	-0.005752857
169	0x3c066efc	0.008205172
170	0xbba7f329	-0.0051254225
171	0x3bec2b72	0.0072073275
172	0xbbda96ad	-0.006670794
173	0x3bcd1fc4	0.0062598903
174	0xbbe34097	-0.00693519
175	0x3bbad002	0.005701066
176	0xba189d94	-0.0005821821
177	0x3bb7018c	0.005584901
178	0x3b3fcc51	0.002926607
179	0x3c6fb943	0.014631572
180	0xbc6524bc	-0.013985809
181	0x01e026f4	8.23405e-38
182	0xbc767ddb	-0.015044655
183	0xbc87addc	-0.016562395
184	0xbc42a96b	-0.011881213
185	0xbbcf0e4f	-0.0063188444
186	0xbc3b4116	-0.011429092
187	0x3a819c5f	0.0009888521
188	0xbc22b6d1	-0.009931282
189	0x3b6011e1	0.0034190344
190	0xbc015a4d	-0.007895065
191	0x3b8f7cec	0.0043789055
192	0xbc5a1de8	-0.013312794
193	0xbbfdcf8a	-0.007745688
194	0xbc2ca88b	-0.010538231
195	0xbbe0e561	-0.0068632816
196	0xbc15b453	-0.009137231
197	0xbbd09cd0	-0.0063663498
198	0xbb98f195	-0.0046674707
199	0xbc60581d	-0.013692883
200	0xbb802d95	-0.003911684
201	0xbc2d63ed	-0.010582906
202	0xbad1a4a3	-0.00159945
203	0xbbf5dc23	-0.007503049
204	0x39e4015f	0.0004348857
205	0xbbae6f43	-0.005323322
206	0x3a9e6748	0.0012085224
207	0xbb44cc5e	-0.003002904
208	0x3b1c5504	0.0023854384
209	0x3aca6554	0.0015441575
210	0x3b3a394b	0.0028415497
211	0x3bc7e925	0.006100791
212	0x3b044335	0.002018166
213	0x3c7c9c70	0.015418157
214	0x3c386287	0.0112539595
215	0x3d063079	0.03276107
216	0x3c64798d	0.013944996
217	0x80711678	-1.0385471e-38
218	0x3c51430e	0.012772335
219	0x3c5776d4	0.013150889
220	0x3bc668d6	0.006054978
221	0x3c3f0ff8	0.011661522
222	0x3af76bd5	0.0018876741
223	0x3c47be31	0.012191341
224	0xba4908dd	-0.0007668862
225	0x3c4314d0	0.011906818
226	0xbb92e952	-0.0044833804
227	0x3c3dfbea	0.0115957055
228	0x39c309d5	0.00037200624
229	0x3cbbe02f	0.022934048
230	0xbb10b6a9	-0.002208153
231	0x3cacc27a	0.021088827
232	0xbbaf8236	-0.0053560985
233	0x3c9d352a	0.01919039
234	0xbbdc49c3	-0.0067226603
235	0x3c87e0db	0.016586712
236	0xbbddb8d9	-0.0067664203
237	0x3c82a51f	0.015947876
238	0xbc026ecd	-0.007960987
239	0x3c6f1843	0.014593187
240	0xbbeb0f52	-0.007173457
241	0x3c60b8ee	0.013715966
242	0xbbacf720	-0.005278483
243	0x3c64e2af	0.013970061
244	0xbbe253c6	-0.006906959
245	0x3c5a1987	0.01331175
246	0xbc02c26b	-0.007980923
247	0x3c281c0d	0.010260594
248	0xbaea2a77	-0.0017865439
249	0x3bd311b4	0.0064413194
250	0x3b5ffaba	0.0034176544
251	0x3c5fcee8	0.01366017
252	0x3c7cb5d1	0.015424208
253	0x0121c574	2.9712695e-38
254	0x3c7589c2	0.014986457
255	0x3ca32845	0.019916663

convs_bc.bias f4 [4, 32, 1]
0	0x3c5a6f09	0.013332137
1	0x3c4ba345	0.012429063
2	0x3b0a91e1	0.002114408
3	0xbc0a3604	-0.00843573
4	0x3c690579	0.014222496
5	0xbc6347f8	-0.013872139
6	0x3c5ee3e9	0.013604143
7	0x3c6e22ea	0.014534691
8	0xbbc1311f	-0.0058957483
9	0x3c54b530	0.012982652
10	0xbbe8c577	-0.007103618
11	0x3c042c3f	0.00806719
12	0x3bd357eb	0.0064496896
13	0xbbe5f8f5	-0.0070182034
14	0x3c24ff88	0.010070689
15	0x3b6179d0	0.0034404881
16	0xbb994bbd	-0.004678218
17	0x3b8d3b0c	0.0043100175
18	0xba9e3cfe	-0.001207262
19	0x3c3fa798	0.011697672
20	0xbc3d092a	-0.011537829
21	0xbc8aca62	-0.016942207
22	0xba84299f	-0.0010083205
23	0x3c47936a	0.012181142
24	0xbc4ddea1	-0.012565286
25	0x3c18f915	0.0093367295
26	0x3b1089a5	0.0022054699
27	0xbbd8a65e	-0.0066116294
28	0x3c2149e0	0.009844273
29	0x3cb9643f	0.022630809
30	0xbc3e62fb	-0.0116202785
31	0xbb9ad675	-0.0047252723
32	0x3c4ff1d1	0.012691931
33	0x3c4d2813	0.0125217615
34	0xbb22543a	-0.0024769441
35	0xbbf969c7	-0.0076114866
36	0x3c5ff9d9	0.013670408
37	0xbcb0b497	-0.021570487
38	0x3c3754f8	0.011189692
39	0x3c5ad50e	0.01335646
40	0xbbce40a3	-0.0062943264
41	0x3c50a49c	0.012734558
42	0xbbdd90fc	-0.0067616682
43	0x3c00761d	0.00784066
44	0xbb833bc7	-0.0040049287
45	0x3b83500c	0.004007345
46	0x3c2213c8	0.0098924115
47	0x3b1a2ed6	0.0023526452
48	0x39f03ec9	0.00045823146
49	0x3b2d2403	0.002641917
50	0x39ccc4d2	0.00039056555
51	0x3c41b2f1	0.011822448
52	0xbc8a3818	-0.01687245
53	0xbc8aa676	-0.016925078
54	0xba905b24	-0.001101349
55	0x3c41b274	0.011822332
56	0xbc52cb5f	-0.01286587
57	0x3c1d83c8	0.009613939
58	0x3c6759bc	0.014120515
59	0xbb7c30f8	-0.0038481336
60	0x3c3b64ef	0.011437639
61	0x3c7c3a22	0.015394719
62	0xbc28b0df	-0.010296076
63	0xbbbc8c7a	-0.005754051
64	0x3c39ee40	0.011348307
65	0x3c53ddd8	0.01293131
66	0xbc14e461	-0.009087653
67	0xbc0a20bc	-0.008430656
68	0x3c6568fc	0.014002081
69	0xbc216468	-0.009850599
70	0x3c3d3c46	0.011550015
71	0x3c595445	0.01326472
72	0xbc180c8e	-0.009280337
73	0x3c336fec	0.010951977
74	0xbc04226e	-0.008064849
75	0x3c01169b	0.007878925
76	0xba958f7e	-0.0011410562
77	0x3bd07ec0	0.006362766
78	0x3c30437c	0.010758277
79	0x3b057285	0.0020362448
80	0xbb17705e	-0.0023107748
81	0x3b1f4da6	0.0024307757
82	0x39e735c2	0.00044099806
83	0x3c2b8cb9	0.010470563
84	0xbc4468d6	-0.011987885
85	0xbc817e56	-0.015807312
86	0xbac8e5cd	-0.0015327275
87	0x3c647580	0.01394403
88	0xbc50cff2	-0.0127448905
89	0x3c33472b	0.010942261
90	0x3c654465	0.013993357
91	0xbb6d982f	-0.0036254039
92	0x3c44a58b	0.012002359
93	0x3c6d5ae0	0.014486998
94	0xbbeb4544	-0.007179888
95	0xbbbaf54c	-0.005705511
96	0x3c4657f1	0.012105928
97	0x3c50586a	0.012716392
98	0xbc595342	-0.013264479
99	0xbc06703f	-0.0082054725
100	0x3c7eec9d	0.015559343
101	0xbc18a77e	-0.009317277
102	0x3c2c9cb5	0.010535409
103	0x3c4be856	0.01244553
104	0xbc781760	-0.015142292
105	0x3c4e6b2d	0.012598795
106	0xbbe582b7	-0.007004108
107	0x3bb11c83	0.00540501
108	0xb8cea323	-9.853232e-05
109	0x3c01c415	0.007920285
110	0x3c0fb8aa	0.008772055
111	0x3a8b3f4d	0.0010623724
112	0x39f57a1d	0.00046821023
113	0x3b34b03d	0.0027570867
114	0x3abe91fe	0.0014539359
115	0x3c0af8d0	0.008482173
116	0xbc592349	-0.013253042
117	0xbc706cbf	-0.014674365
118	0xbbb09cc4	-0.0053897817
119	0x3c4dbe9d	0.012557653
120	0xbc73f61b	-0.014890219
121	0x3c3fd700	0.011708975
122	0x3c5db57b	0.013532038
123	0xbbae02ba	-0.0053103836
124	0x3c3b6ee6	0.0114400145
125	0x3c4cc7fe	0.012498854
126	0xbc14367d	-0.009046194
127	0xbbe83dc8	-0.007087443

convs_bc.bias_bc f4 [4, 32, 1]
0	0x3a3309c0	0.0006829761
1	0x3a9c3fd4	0.0011920878
2	0xb9df5a4b	-0.00042601148
3	0x3aa7026e	0.0012741813
4	0x39dadd18	0.00041744928
5	0x383ce15e	4.5032582e-05
6	0x38c61249	9.4447816e-05
7	0x3a38d140	0.00070502236
8	0x3a6cbe4e	0.0009031043
9	0x3a8fe49f	0.0010978169
10	0x39f2ec2a	0.00046333793
11	0xba89d62e	-0.0010516101
12	0xb800b8c4	-3.0689655e-05
13	0x3a95d734	0.0011431933
14	0x3aaf4907	0.0013373204
15	0xba24932b	-0.0006278033
16	0x3a2e6d84	0.00066538923
17	0xba933985	-0.0011232352
18	0xbaf5eaab	-0.0018761953
19	0xb9c12249	-0.00036837373
20	0xb9d6cb7d	-0.0004096887
21	0x39b29015	0.00034058155
22	0x3a6c237c	0.0009007973
23	0xba76eb93	-0.00094192586
24	0x3a0df662	0.0005415437
25	0xb94bf50d	-0.00019450877
26	0xb87803b3	-5.9131253e-05
27	0x3a2e6f69	0.00066541746
28	0xba6544f7	-0.00087459333
29	0xbaaa17ce	-0.0012977065
30	0xba4ec8b0	-0.0007888181
31	0x38cda4c0	9.805849e-05
32	0x3a8d6370	0.0010787081
33	0xb9efabaa	-0.00045713532
34	0xbadd5c02	-0.0016888382
35	0x39c44389	0.0003743435
36	0x3a0f93d1	0.00054770435
37	0xb87cd007	-6.0275222e-05
38	0x3a00c725	0.00049124873
39	0x390de984	0.00013533799
40	0x39d039bf	0.00039715876
41	0x3aaac083	0.0013027344
42	0x3a60f858	0.0008581928
43	0x3a0f071a	0.00054560753
44	0x39f76fe6	0.00047194882
45	0xb78ef35e	-1.7041046e-05
46	0x3a719639	0.00092158053
47	0xb62b118a	-2.5491195e-06
48	0x3a4c21a0	0.0007786993
49	0x38a733cb	7.972828e-05
50	0xb89c2036	-7.4446594e-05
51	0xb9acc3d5	-0.00032952303
52	0xbb078383	-0.0020677752
53	0xbaa57142	-0.0012622254
54	0x3aecbbb5	0.0018061312
55	0x395edc4f	0.00021253641
56	0x3b40e9fa	0.0029436336
57	0x3a44a8a5	0.00075019366
58	0x3af00aff	0.0018313824
59	0xba7f1096	-0.00097299495
60	0xba75c2e7	-0.0009375051
61	0x39dfabf8	0.00042662
62	0x3a8f52e4	0.0010934738
63	0x39b71a27	0.00034923965
64	0x39172436	0.00014413972
65	0xb9d3879a	-0.00040346087
66	0x3a807292	0.000979977
67	0x3a52e97d	0.0008045657
68	0xb9c75859	-0.00038022062
69	0xb92554ba	-0.0001576719
70	0x3b01c889	0.0019803366
71	0xba38ddf9	-0.00070521195
72	0xbaf2c696	-0.0018522318
73	0x37af92a7	2.0929916e-05
74	0xb9a36f80	-0.00031172857
75	0x3a5305f6	0.00080498995
76	0xbacd8ef6	-0.0015682864
77	0x393546ee	0.00017287928
78	0xbb1d8a72	-0.0024038819
79	0xb992208b	-0.00027871536
80	0xb9cd7716	-0.00039189373
81	0x3a8be8b9	0.0010674215
82	0x3a1a1634	0.00058779423
83	0xba3f6cf9	-0.000730231
84	0x382a3d9a	4.058853e-05
85	0x3a21397e	0.00061502296
86	0xbaeccdf0	-0.0018066745
87	0xbaec2579	-0.0018016539
88	0xba48e2ff	-0.00076632196
89	0xbaea4e35	-0.0017876091
90	0x397f8ca9	0.00024371095
91	0xb9e0211d	-0.0004274928
92	0xba096ed3	-0.00052426493
93	0xba33e34d	-0.00068621786
94	0x3a6f6a3f	0.00091329584
95	0xba961e8b	-0.0011453194
96	0x39ffe617	0.0004880882
97	0xb9f0f7b6	-0.00045960926
98	0xba6d3cde	-0.00090499024
99	0x3978e46d	0.00023736218
100	0x3a0b9f94	0.0005326208
101	0xb99aa637	-0.0002949701
102	0xb9df906b	-0.00042641474
103	0x3a2dc306	0.0006628487
104	0xbada9865	-0.0016677497
105	0x3a48166b	0.0007632735
106	0xb99305ad	-0.00028042254
107	0x3ac1840f	0.0014764088
108	0x39446074	0.00018727948
109	0xbb4dca5b	-0.003140113
110	0xb9d9c73f	-0.00041537915
111	0x393e84de	0.00018169309
112	0x39ccfddf	0.0003909906
113	0x38f93112	0.00011882385
114	0x39b1489a	0.00033814163
115	0xba5eabcf	-0.00084942294
116	0x39b45fb4	0.0003440358
117	0x39576d0b	0.0002054462
118	0x398b9acf	0.00026627487
119	0x38b36e46	8.555925e-05
120	0x3a915917	0.0011089173
121	0x3a73b272	0.0009296305
122	0x3a29bf0c	0.00064753066
123	0x3ad721a0	0.0016413219
124	0x398cba9b	0.00026841913
125	0xbaba7157	-0.0014224452
126	0xba03beb4	-0.00050256704
127	0x3a15ed99	0.0005719304

convs_bc.weight.0.tensor f4 [32, 32, 6, 2]
0	0xbc4b56c1	-0.01241082
1	0x0214b24c	1.0924491e-37
2	0x3d252594	0.04031904
3	0x3cd98b26	0.026555609
4	0x3cce81f7	0.025208456
5	0x3cc634b8	0.02419506
6	0x3ca47ce2	0.02007908
7	0x3cab720b	0.020928403
8	0x3c9496af	0.018138258
9	0x3c91377a	0.017726649
10	0x3c819c98	0.01582174
11	0x3c80e23f	0.015732883
12	0xbc513132	-0.012768077
13	0x80daeca0	-2.0105023e-38
14	0x3d74c7fb	0.05976103
15	0x3d0e7a87	0.03478482
16	0x3d2226f2	0.039587922
17	0x3cebac66	0.02876873
18	0x3cfff4d5	0.031244675
19	0x3cc02e2b	0.023459515
20	0x3cdfc8a5	0.027317354
21	0x3c9ee884	0.019397981
22	0x3cd220ae	0.025650349
23	0x3c8611bf	0.016365884
24	0xbb00b7a0	-0.00196407
25	0x82001e12	-9.412585e-38
26	0xbbdf385b	-0.006812138
27	0x37d5ec84	2.5501715e-05
28	0xbb968d8f	-0.004594512
29	0xb9b9f340	-0.00035467185
30	0xbb88f091	-0.0041790684
31	0xb9d168db	-0.0003994171
32	0xbb82d150	-0.003992237
33	0xb9b6c46d	-0.00034860094
34	0xbb95cd2e	-0.0045715785
35	0xb92e2e7d	-0.00016611251
36	0x3c104c93	0.008807319
37	0x80671488	-9.466421e-39
38	0x3acd236f	0.0015650819
39	0x3c2b3f0d	0.010452044
40	0x3a1bacbb	0.00059385196
41	0x3c1e977f	0.009679674
42	0xbb734a4f	-0.0037123149
43	0x3c0f5335	0.008747865
44	0xbc1560cd	-0.009117317
45	0x3c0a44cc	0.008439254
46	0xbc1cb3c2	-0.009564342
47	0x3c07c4f7	0.008286706
48	0xbc35276d	-0.011056763
49	0x81719374	-4.4370502e-38
50	0x3cfa6869	0.030567365
51	0x3d0620f8	0.032746285
52	0x3c77e847	0.015131063
53	0x3ceac173	0.028656697
54	0x3c2fd158	0.010731064
55	0x3cca4bfe	0.024694439
56	0x3c118762	0.008882375
57	0x3cb18ded	0.02167412
58	0x3be91f2e	0.0071143126
59	0x3cabe384	0.020982511
60	0x3c3b49c8	0.011431165
61	0x80b01b58	-1.6172856e-38
62	0x3c18b1c7	0.009319729
63	0xba8f9e25	-0.0010957165
64	0x3baf3005	0.0053463005
65	0xba31c047	-0.0006780666
66	0x3b820a74	0.0039685313
67	0xb9cea872	-0.00039416883
68	0x3b6cd928	0.0036140177
69	0xb92db2da	-0.00016565193
70	0x3b6aedee	0.0035847384
71	0x39102e23	0.00013750097
72	0xbc44baad	-0.012007398
73	0x00c189c0	1.7773666e-38
74	0x3cd9faa0	0.026608765
75	0x3ce3452d	0.027742947
76	0x3c88d7d6	0.016704481
77	0x3cbedacf	0.023297695
78	0x3c3ff080	0.0117150545
79	0x3cafe8ed	0.021473372
80	0x3c278bce	0.010226203
81	0x3c9fe18a	0.019516725
82	0x3bf5a9ec	0.007497063
83	0x3c9a5b52	0.018842373
84	0xbc7fcb2b	-0.015612404
85	0x01a2cd20	5.980374e-38
86	0x3c24d0a5	0.01005951
87	0x3c36602d	0.0111313285
88	0x3a84963a	0.0010115572
89	0x3c125694	0.008931775
90	0x395468e4	0.0002025697
91	0x3bef4d5c	0.007302923
92	0xbaabb851	-0.0013101195
93	0x3bcf96c3	0.006335111
94	0xbb3eb88e	-0.0029101702
95	0x3bb83dd0	0.005622603
96	0x3bf227fd	0.007390021
97	0x81c548c8	-7.2470807e-38
98	0xbbab5157	-0.0052282023
99	0x3ba31fb4	0.0049781445
100	0xbafed5f2	-0.0019442423
101	0x3af6338c	0.0018783673
102	0xba8c9c2b	-0.0010727694
103	0x3a39d982	0.0007089601
104	0xba8b1694	-0.0010611587
105	0x3a1f0130	0.00060655456
106	0xbac0c9b4	-0.001470855
107	0x3a34bd76	0.0006894687
108	0xbc5b515f	-0.0133861
109	0x01f1dfe6	8.8850697e-38
110	0x3da2336f	0.079199664
111	0x3d05b015	0.032638628
112	0x3d3f1bcd	0.046657372
113	0x3d0de6db	0.03464399
114	0x3d2e94df	0.042622443
115	0x3ccff821	0.025386872
116	0x3d17781b	0.036979776
117	0x3caeb76b	0.021327695
118	0x3d0f55a0	0.034993768
119	0x3c9f03bf	0.019410966
120	0x3bfa6b73	0.0076422035
121	0x01b1cb28	6.5311046e-38
122	0xbb426148	-0.0029660035
123	0x3c444746	0.011979884
124	0xbb5439da	-0.0032383115
125	0x3c254b5d	0.010088769
126	0xbc0083ec	-0.007843953
127	0x3c21a91f	0.009866982
128	0xbc1f2e3e	-0.009715615
129	0x3c2043d6	0.009781798
130	0xbc48c90d	-0.0122549655
131	0x3c1f8439	0.009736114
132	0xbc2d1252	-0.01056345
133	0x01b1a612	6.525783e-38
134	0x3b86178f	0.004092164
135	0x3c8fc222	0.017548624
136	0xbac8f4bd	-0.0015331727
137	0x3c972aa3	0.018452948
138	0xbadad93b	-0.001669682
139	0x3c7a8d08	0.0152924135
140	0x3a201380	0.00061064214
141	0x3c46fdf7	0.012145511
142	0xba9a962f	-0.0011794026
143	0x3c31bcf8	0.010848276
144	0xbbc7d56d	-0.0060984404
145	0x00e90cd8	2.1402278e-38
146	0xbb86d72b	-0.0041150055
147	0xbb4fd4ef	-0.0031712612
148	0xbb8438c5	-0.004035088
149	0xbb836cad	-0.004010758
150	0xbb37c1c4	-0.0028039077
151	0xbb6a4288	-0.0035745222
152	0xbb0d217c	-0.002153485
153	0xbb6b2ee1	-0.0035886096
154	0xbaea31b5	-0.0017867597
155	0xbb6a8338	-0.003578378
156	0x3bf415b7	0.0074488777
157	0x81346e7c	-3.3140047e-38
158	0x377edf8a	1.51916265e-05
159	0xb9888f3e	-0.00026046665
160	0x3945ad6d	0.0001885199
161	0xb91f45f4	-0.00015189481
162	0x38b81668	8.777977e-05
163	0xb900d58b	-0.00012286582
164	0x390f112a	0.00013643937
165	0xb966f71b	-0.00022026563
166	0x3900163e	0.00012215317
167	0xb994b4a3	-0.00028363345
168	0xbc0f2b86	-0.008738404
169	0x82156545	-1.0975854e-37
170	0x3c21c715	0.009874125
171	0x3c4790b8	0.0121805
172	0x3b92b84c	0.0044775363
173	0x3c46d566	0.012135839
174	0x3af951cb	0.0019021569
175	0x3c3022ae	0.010750456
176	0x3a45e370	0.00075488444
177	0x3c2a7949	0.010404893
178	0x38f56292	0.000117008705
179	0x3c211606	0.009831911
180	0xba869196	-0.0010266777
181	0x0072bb50	1.0536442e-38
182	0xbca7d90d	-0.02048924
183	0xbc9910a4	-0.018684693
184	0xbca3ce78	-0.019995913
185	0xbba65e96	-0.0050771935
186	0xbba58c5d	-0.005052133
187	0xbc002ccb	-0.0078231795
188	0x3a9a7ba5	0.0011786117
189	0xbc2c0873	-0.010500061
190	0x3bc2f86b	0.005950024
191	0xbc3d5736	-0.011556437
192	0x3ba53aa9	0.005042393
193	0x010dc240	2.6036977e-38
194	0xbb8b0e06	-0.004243615
195	0x38b44a8b	8.5969536e-05
196	0xbba040e8	-0.00489055
197	0xba94a764	-0.001134139
198	0xbbd12c67	-0.006383467
199	0xb9ba5d9b	-0.00035546426
200	0xbc005fdd	-0.007835356
201	0xb99934f0	-0.00029221876
202	0xbc1f1c28	-0.009711303
203	0x3969ff3a	0.00022315691
204	0xbb9cdcfb	-0.004787085
205	0x818c5156	-5.154459e-38
206	0x3be2699c	0.0069095623
207	0x3ba56dfe	0.0050485125
208	0x3bf56e84	0.007489981
209	0x3bc84143	0.0061112954
210	0x3b87eb85	0.004147949
211	0x3bec6942	0.007214696
212	0x3b32c1f8	0.002727626
213	0x3c14c1a8	0.009079374
214	0x3b224fa7	0.0024766715
215	0x3c1aef38	0.009456448
216	0x3acea315	0.0015765155
217	0x011a484c	2.8337203e-38
218	0xbce5d411	-0.028055223
219	0x3cea87de	0.02862924
220	0xbd021ac0	-0.031763792
221	0x3cb5b352	0.022180233
222	0xbd060b83	-0.032725822
223	0x3c92ca58	0.01791875
224	0xbd0af33e	-0.03392338
225	0x3c7ab16e	0.015301092
226	0xbd0b393d	-0.033990134
227	0x3c725fa5	0.014793311
228	0xbc4474bc	-0.011990722
229	0x81aa5c60	-6.258069e-38
230	0x3d1c7771	0.038199846
231	0x3ca0db00	0.019635677
232	0x3cc06cf7	0.023489458
233	0x3c5e413d	0.013565359
234	0x3c8b3cce	0.016996767
235	0x3c3dd81b	0.011587168
236	0x3c60a712	0.013711708
237	0x3c1ffaf0	0.009764418
238	0x3c4598df	0.012060373
239	0x3c0d02c7	0.008606619
240	0x3c42f111	0.011898295
241	0x81acd5f8	-6.348985e-38
242	0xbb8e0bcb	-0.004334902
243	0xba9a0613	-0.0011751078
244	0xbc0e9c53	-0.008704263
245	0xbbdb0dc6	-0.0066849915
246	0xbba53fe9	-0.005043019
247	0xbc3df72b	-0.011594574
248	0xbb53e6c8	-0.0032333601
249	0xbc4331ca	-0.011913726
250	0xb9ef8cd6	-0.00045690563
251	0xbc4e2a9d	-0.012583402
252	0x3c80a46d	0.015703404
253	0x80467b90	-6.47281e-39
254	0xbcecfb8c	-0.02892854
255	0x3ca8534d	0.020547533
