neuraloperator/examples/para/fno_para_202305141356_001_modes32_epochs1.pth (torch, 746247 bytes, 31 tensors)

convs.bias f4 [4, 32, 1]
000000 06 9d 80 3b db 51 c7 b8 b2 a8 85 bb bc 90 bc bb
       0.0039249687 -9.504306e-05 -0.004078948 -0.0057545584
000010 9e 39 87 bb 74 2b 99 3b a4 13 f2 3a 69 05 97 bb
       -0.0041267416 0.0046743695 0.0018468988 -0.0046087992
000020 ea 71 4b bb 14 39 33 37 06 f1 0a b9 9f 78 19 38
       -0.003104324 1.0682521e-05 -0.00013250494 3.659038e-05
000030 f8 65 61 3b e7 23 5f bb 1e 58 ba 37 8c 1e 05 39
       0.0034393054 -0.00340485 2.221396e-05 0.00012695248
000040 b9 fa 4e bb 0a 11 1f 3b b5 e1 65 3b 84 e6 1b 39
       -0.0031582548 0.002427163 0.0035077159 0.00014867826
000050 4c 3a ef b8 33 b8 39 3b 3f fa 44 35 1a 23 14 3b
       -0.00011407267 0.002833855 7.3379846e-07 0.002260393
000060 d4 20 19 b9 f0 2b 9f 3b 49 a3 6b 38 64 a3 8d 3b
       -0.00014603446 0.0048575327 5.6180437e-05 0.004322456
000070 08 b4 78 bb 8a 8e 21 bb 89 d6 4c bb d4 0c b1 37
       -0.0037949104 -0.002465161 -0.0031255803 2.1106018e-05
000080 7b 2e 74 3b 35 9d 46 bb c3 76 93 3b 7c aa 21 bb
       0.003725915 -0.0030306105 0.0045002415 -0.0024668267
000090 c1 7e b2 bb 9a 23 72 3b d3 3b 63 3b 7b d3 10 bb
       -0.005447239 0.003694749 0.003467311 -0.0022098708
0000a0 88 5f c2 bb 41 e5 ba bb 4c 4d b8 ba 48 08 31 bb
       -0.0059317984 -0.0057035987 -0.0014061122 -0.0027012993
0000b0 f7 96 c6 3b 03 18 84 bb 8a 3b 04 bb 50 46 8a bb
       0.006060477 -0.0040311827 -0.002017709 -0.0042198077
0000c0 9d 47 f4 3a 46 cc 6c 3b cf 34 8c bb 45 a0 83 bb
       0.0018637065 0.0036132499 -0.004278756 -0.0040169084
0000d0 09 55 52 bb 9c 18 76 3b 3e 4f 3d bb 72 a5 8c ba
       -0.0032094142 0.003755129 -0.0028886343 -0.0010730459
0000e0 f4 17 43 bb 97 36 56 3b bc be bb 3b cb 22 57 3b
       -0.0029768916 0.0032686347 0.0057295244 0.0032827135
0000f0 b7 40 3c bb 50 43 49 3b fe 76 0b bb 96 9a 64 bb
       -0.0028725096 0.0030710287 -0.0021280642 -0.003488218
000100 89 97 65 3b 0a 7a ae bb 88 78 39 3b 33 89 8e bb
       0.003503295 -0.005324607 0.0028300602 -0.0043498515
000110 03 7e 94 bb f0 1f a0 3b c2 dd 0e 3b 7a 33 6f bb
       -0.0045316233 0.0048866197 0.0021799658 -0.0036499188
000120 06 25 4b bb f8 93 05 bb c3 37 a4 ba 9d c3 88 bb
       -0.003099741 -0.0020382386 -0.0012528825 -0.0041737095
000130 d2 e7 4d 3b c4 15 81 bb 04 5a 1e bb 20 14 75 ba
       0.0031418693 -0.0039393622 -0.002416254 -0.0009349007
000140 96 40 73 3b 56 11 a3 3b 0b 65 24 bb 4f d0 96 bb
       0.0037117354 0.004976432 -0.002508464 -0.004602469
000150 87 32 5c bb ba 0d 2f 3b 53 5b 9e bb 70 47 15 ba
       -0.0033599453 0.0026711063 -0.004832664 -0.0005694544
000160 4b ae ab bb 6d 0f 88 3b b1 ce 47 3b 35 98 88 3b
       -0.005239283 0.0041522295 0.0030488188 0.004168535
000170 8e 12 88 bb 94 a9 b9 3b e2 a2 36 bb da 94 84 bb
       -0.0041526025 0.0056659672 -0.0027868082 -0.004046065
000180 e0 51 33 3b 44 e7 2a bb 92 a6 3e 3b 16 32 0a bb
       0.0027362034 -0.0026077786 0.0029090983 -0.0021086982
000190 8b f9 16 bb dc 4e 7e 3b e8 71 2e 3a 8e 01 6e bb
       -0.0023036923 0.0038804328 0.00066545466 -0.0036316845
0001a0 f3 69 1f bb 87 2b 68 bb b0 a5 13 bb 20 42 4c bb
       -0.0024324625 -0.0035426335 -0.0022529177 -0.0031167343
0001b0 c0 16 73 3b 81 03 8e bb 87 40 70 bb df c3 51 bb
       0.0037092417 -0.004333914 -0.0036659555 -0.0032007617
0001c0 c5 ee 34 3b 93 08 86 3b c9 e6 51 bb b3 de 88 bb
       0.0027608138 0.0040903776 -0.0032028428 -0.0041769384
0001d0 9a 62 ca b9 a3 97 5d 3b d0 c6 59 bb 62 a6 10 3a
       -0.00038601906 0.0033812306 -0.0033230074 0.0005517957
0001e0 a5 e1 6c bb 7b 2c 90 3b ed ea 51 3b e2 eb 53 3b
       -0.0036145237 0.0043998337 0.0032030896 0.0032336642
0001f0 5a 05 4a bb 5b db 0d 3b ba bb 62 bb df e3 d9 ba
       -0.0030825944 0.0021645639 -0.0034596757 -0.0016623697

convs.bias_bc f4 [4, 32, 1]
000000 2c 40 67 3a 34 50 a0 39 02 73 7f 39 5c 56 47 39
       0.0008821513 0.00030577334 0.00024361539 0.0001901029
000010 ad 4c 8a ba 45 be 3a 3a 07 22 9c b9 5c e3 c2 39
       -0.0010551416 0.0007123689 -0.0002977999 0.0003717196
000020 ae de 62 ba 9d a6 df b9 72 e5 67 39 3a 0c 5f b9
       -0.00086543977 -0.0004265801 0.00022115352 -0.00021271492
000030 37 64 9c 3a 7f 55 80 b9 70 f4 cc b9 85 48 66 39
       0.0011931722 -0.00024477762 -0.00039092032 0.00021961525
000040 c6 74 21 ba 89 5f 67 ba 51 fa 95 3a ba 6e 67 3a
       -0.0006159063 -0.00088261865 0.0011442398 0.000882845
000050 4f a1 08 3a 6f e1 a6 3a 38 d6 54 ba 76 e8 0c ba
       0.0005212025 0.0012731979 -0.0008119079 -0.00053752156
000060 f5 cd 71 ba 31 9b 7d 3a 7c c0 28 39 91 b6 da 39
       -0.00092241104 0.00096743094 0.00016093435 0.00041716223
000070 86 f8 6a 3a 88 fd f1 39 a8 74 6c 3a dc c5 13 38
       0.00089634245 0.00046155998 0.00090200687 3.5231802e-05
000080 08 42 37 ba ae b9 30 b9 b4 90 a9 ba d9 60 93 ba
       -0.00069907354 -0.00016853839 -0.0012936802 -0.0011244073
000090 86 0a e1 3a 12 08 8c 3a 4c c5 7c 39 2d ae a7 37
       0.0017169274 0.0010683557 0.00024106092 1.9989058e-05
0000a0 60 43 ba 3a cf 6f ed ba 9d f6 92 ba 3c a9 ac 3a
       0.0014210753 -0.0018114987 -0.0011212413 0.0013172994
0000b0 b1 34 87 ba 2f c6 da b9 7e d4 ff b9 3a 33 d7 ba
       -0.0010315386 -0.00041727858 -0.0004879571 -0.0016418465
0000c0 ca 75 a1 b9 0b b5 40 ba 2f d4 7f ba c1 1f 8b ba
       -0.00030796073 -0.0007351196 -0.0009759096 -0.0010614322
0000d0 e1 72 ff 3a b7 46 50 3a fc a6 7a ba 23 50 58 b8
       0.0019489193 0.00079451076 -0.0009561626 -5.1573046e-05
0000e0 55 da 9f ba d8 02 29 3a b4 0c ec 35 e2 47 1f b9
       -0.0012195805 0.0006447262 1.7587067e-06 -0.000151902
0000f0 84 03 16 3a e3 0e 18 3a 4b 62 14 37 2a 3d e8 b9
       0.000572257 0.0005800558 8.844373e-06 -0.0004429606
000100 e0 0f 8f 37 b7 28 e5 ba 18 2e 25 3a 5c 3f 38 ba
       1.705432e-05 -0.0017483447 0.0006301119 -0.0007028484
000110 85 b7 d2 3a 86 a7 40 3a c7 3a b7 ba f1 1f ec b9
       0.0016076422 0.00073491817 -0.0013979309 -0.00045037226
000120 af d1 b4 38 a2 db dd 3a f4 df 00 bb 6a 7d ca ba
       8.6221255e-05 0.0016926418 -0.0019664736 -0.0015448753
000130 aa 13 8f 3a b8 fa b3 3a 67 90 e8 37 6d 19 52 ba
       0.0010915895 0.0013731336 2.7723798e-05 -0.0008014653
000140 e4 57 1a b8 4f 14 45 ba 9b 0e a7 3a 00 4a c9 ba
       -3.6798316e-05 -0.000751798 0.0012745442 -0.0015357137
000150 4e f6 8d b9 c3 33 1a ba b9 4a 49 3a 5d af d4 b9
       -0.00027077127 -0.0005882347 0.0007678676 -0.00040566447
000160 31 e4 92 ba 08 3c ab 3a d6 5d 96 3a ed bc b4 39
       -0.0011206922 0.0013064155 0.0011472057 0.00034473036
000170 32 26 a5 ba 4d 25 fd 39 ea 90 8d 3a d7 7d 81 ba
       -0.0012599884 0.00048283712 0.0010800634 -0.0009879422
000180 e5 42 2c 3a e9 e4 af ba 9f 96 f8 ba 2f cb 38 ba
       0.00065712474 -0.0013419661 -0.0018965787 -0.00070493197
000190 ed 5b b0 ba 33 b1 a5 ba 0f bf 13 3b 09 b1 e2 b9
       -0.001345513 -0.001264131 0.00225443 -0.0004323798
0001a0 b5 d9 ae 39 e5 57 e4 b5 d7 d0 a1 b9 40 a1 9e 39
       0.0003335007 -1.7012904e-06 -0.0003086391 0.0003025625
0001b0 e8 96 c9 3a 28 8e 18 3a ab 7e a1 39 7b 0f dd 39
       0.0015380057 0.0005819523 0.00030802688 0.0004216394
0001c0 b6 8f 0a ba 14 f6 a8 38 cd dc 49 3a d3 27 a3 39
       -0.0005285697 8.0567e-05 0.00077004434 0.00031119454
0001d0 61 e2 8b ba 63 a3 65 3a e4 34 17 3a 36 82 2d 39
       -0.0010672325 0.0008760003 0.0005768074 0.00016547073
0001e0 61 09 73 b7 5f 11 b4 39 22 e1 b5 39 b1 c0 df ba
       -1.4486112e-05 0.00034345218 0.00034690747 -0.0017070976
0001f0 32 ce 8e 3a f6 b6 34 3b e5 95 da ba 11 59 27 3a
       0.0010895191 0.0027574874 -0.0016676752 0.00063838164

convs.weight.0.tensor f4 [32, 32, 16, 2]
000000 d2 56 9d 3b f2 7f c5 b8 10 32 30 3b fc 28 54 ba
       0.0048016096 -9.417524e-05 0.0026885308 -0.00080932654
000010 a2 30 18 3b c4 8e 1d ba 98 1f 69 3b dc 91 f0 b9
       0.0023222347 -0.00060103484 0.003557181 -0.0004588504
000020 fb ac 46 3b 0f cb 39 ba 84 af 88 3b 28 50 f1 b9
       0.0030315507 -0.0007087448 0.0041713137 -0.00046026823
000030 6e 56 7a 3b f8 6c 33 ba f5 da 7e 3b 2f 9a 2c ba
       0.0038198489 -0.0006844546 0.0038887833 -0.00065842544
000040 ef af 47 3b dd 5f 3b ba 4b 3c 9a 3b 66 8d 4a ba
       0.0030469855 -0.00071477686 0.0047068945 -0.00077267585
000050 60 31 31 3b 79 6f 32 ba cf c1 4f 3b 46 84 0f ba
       0.0027037486 -0.0006806772 0.0031701212 -0.00054747274
000060 38 b0 67 3b 00 96 06 ba 26 ef 7d 3b 10 97 bc b9
       0.0035352837 -0.0005134046 0.003874728 -0.00035970705
000070 1d 0f 88 3b c7 89 f1 b9 ed dc 67 3b 39 09 8d b9
       0.0041521923 -0.00046069754 0.0035379485 -0.00026900487
000080 fc 0d 1b 39 77 f6 a9 b6 69 1a c8 b8 f6 42 43 b8
       0.00014787161 -5.0652848e-06 -9.5416624e-05 -4.6553985e-05
000090 56 4e c2 b8 90 e7 ce 37 43 41 a1 b8 88 de 1b 39
       -9.265232e-05 2.4664943e-05 -7.689234e-05 0.00014864851
0000a0 4c 95 5f 37 5b cb 17 b9 c3 6a 18 b9 7f 68 ff b8
       1.3326597e-05 -0.00014476238 -0.00014535621 -0.000121788114
0000b0 dc 14 a8 b8 67 93 1a b9 27 ef c4 b8 4e 9f 10 b9
       -8.0147496e-05 -0.00014741496 -9.390554e-05 -0.00013792256
0000c0 18 2f 93 b6 88 dc 37 39 b9 e8 cc 38 3b 44 09 39
       -4.386424e-06 0.00017534394 9.770826e-05 0.00013090756
0000d0 eb 5c 1b 39 16 de e2 38 3c f8 0d 39 eb b0 cb 38
       0.00014816567 0.000108178865 0.00013539282 9.712748e-05
0000e0 10 f6 1b b9 73 f3 7f b8 5c b0 cf 38 2b d0 9f 38
       -0.00014873617 -6.1023467e-05 9.903379e-05 7.620485e-05
0000f0 d1 3a c9 b8 b7 81 d6 b8 6a 10 80 38 e0 f9 67 38
       -9.595382e-05 -0.000102284765 6.106573e-05 5.5307406e-05
000100 92 9f 90 bb 55 0f f1 38 d9 85 2e ba 2f 3e 35 38
       -0.0044135535 0.00011494631 -0.0006657518 4.3211676e-05
000110 fb fc df b9 c0 4e 0a b7 03 52 ea b8 11 db dd 38
       -0.0004272236 -8.243776e-06 -0.000111732654 0.000105789055
000120 3f a1 c6 b9 c8 57 05 39 f7 f7 17 b9 7b 69 09 b9
       -0.0003788564 0.0001271657 -0.00014492856 -0.00013104633
000130 81 ec 28 b9 0d f2 0f b9 a8 51 83 b9 8c 93 04 39
       -0.00016109833 -0.00013727714 -0.00025047106 0.00012643466
000140 01 82 0e b9 5a c0 54 38 38 28 55 b8 4e dd 25 b9
       -0.00013590606 5.072388e-05 -5.0820614e-05 -0.00015818069
000150 f4 5c a5 b9 11 f8 1e b9 c7 e4 8d b8 41 6b 9b b7
       -0.00031540508 -0.00015160466 -6.766017e-05 -1.8527384e-05
000160 8c 3c 92 b9 be b1 43 35 f1 7e 50 b8 3f fd bd 38
       -0.000278924 7.290181e-07 -4.9709288e-05 9.059393e-05
000170 0b d4 8b b9 ce dc 16 39 36 ed 19 b9 c1 b6 fc b8
       -0.0002667013 0.00014387371 -0.00014679585 -0.00012050337
000180 42 6f 8a ba 8d 33 f4 b7 99 ed 14 bb ee 7e db 39
       -0.0010561722 -2.9111072e-05 -0.0022724627 0.00041865505
000190 1c 00 40 bb dc ba c1 b8 70 ec 09 bb 01 db a4 b9
       -0.002929694 -9.2377624e-05 -0.0021045469 -0.00031443688
0001a0 34 15 1c bb cb 38 2b ba 22 c2 24 bb b2 2f 37 ba
       -0.002381635 -0.0006531595 -0.0025140126 -0.0006988003
0001b0 ce 44 03 bb 97 b0 62 ba 8b 99 25 bb 0d 7e 43 ba
       -0.0020030024 -0.000864753 -0.002526852 -0.00074574427
0001c0 5d d9 56 bb 53 61 57 ba 57 32 17 bb 02 fc 6d ba
       -0.0032783367 -0.00082161016 -0.0023070776 -0.00090783846
0001d0 73 9a 19 bb af 21 5e ba cb 29 e2 ba 2d 41 28 ba
       -0.0023438006 -0.0008473647 -0.0017254887 -0.00064184034
0001e0 6c 52 fb ba 8b 25 37 ba 3d 64 93 ba a8 bc 21 ba
       -0.0019174344 -0.00069864903 -0.0011245083 -0.00061697746
0001f0 ed 31 59 ba dc 0e 3f ba 44 74 ed ba 18 49 18 ba
       -0.00082853326 -0.0007288286 -0.0018116315 -0.00058092317
000200 73 b6 68 bb ca d5 b3 38 92 3e 9c bb d5 45 61 bb
       -0.0035509139 8.5752064e-05 -0.004768201 -0.0034373899
000210 05 22 6b bb 0f 84 52 bb 7f cc 37 bb 38 1d 26 bb
       -0.0035878432 -0.003212217 -0.0028045473 -0.0025347006
000220 fe 09 99 bb 7b 15 48 bb 02 28 87 bb ca 4a 44 bb
       -0.0046703806 -0.0030530381 -0.0041246423 -0.0029951804
000230 12 58 5d bb 14 7c 38 bb 31 85 6b bb 72 6e 2f bb
       -0.0033774418 -0.0028150128 -0.0035937543 -0.0026768711
000240 ae be 3e bb 16 62 9d ba 1b 1d 8e bb 7a c0 0c bb
       -0.0029105353 -0.0012007381 -0.0043369657 -0.002147703
000250 2f 8e 0c bb b3 18 17 bb f4 60 22 bb dd c8 e6 ba
       -0.0021447053 -0.0023055493 -0.0024777027 -0.0017607469
000260 96 7f 4d bb 11 45 00 bb 67 d5 30 bb d2 c3 d2 ba
       -0.0031356565 -0.0019572417 -0.0026982666 -0.0016080088
000270 5e 6a 64 bb 36 9f db ba 25 06 87 bb 52 31 ad ba
       -0.003485344 -0.0016755823 -0.0041206055 -0.0013213551
000280 95 11 96 3b f8 3e 18 b9 0b f1 3a 3b 49 9f 09 3b
       0.0045797327 -0.00014519307 0.002852502 0.0020999482
000290 8c ee 1b 3b 07 56 95 3a 53 19 32 3b 5d 53 ee 39
       0.0023793308 0.0011393436 0.002717574 0.00045457008
0002a0 b0 9a 64 3b a5 b1 67 39 e4 e3 76 3b 7c 7f cd b7
       0.003488224 0.00022096054 0.0037672454 -2.4497269e-05
0002b0 b0 3b 87 3b b4 49 39 38 39 de 6e 3b 20 0e 78 b8
       0.0041269884 4.417608e-05 0.0036448373 -5.9140963e-05
0002c0 f7 e0 19 3b 5b 70 41 b9 b4 66 7a 3b 24 7c 76 b9
       0.0023480037 -0.0001844777 0.0038208188 -0.00023506634
0002d0 f9 65 80 3b b5 80 8d b9 a9 3b 4a 3b da 28 41 b9
       0.003918406 -0.0002698951 0.0030858314 -0.00018421133
0002e0 d8 f6 32 3b ec 89 03 b8 2d 08 16 3b 42 94 07 b9
       0.0027307775 -3.1361284e-05 0.0022893057 -0.00012929834
0002f0 9b 93 81 3b 4a fe 52 b9 98 43 20 3b 48 03 c7 b6
       0.0039543635 -0.0002012189 0.0024454352 -5.931044e-06
000300 b0 d1 4f 3b b6 9a e3 b7 71 f4 19 bb b6 dd b1 3a
       0.0031710677 -2.7132552e-05 -0.0023491646 0.0013570103
000310 a2 97 b8 38 5b 48 96 3a 8c 01 75 3a c5 17 b1 3a
       8.8020475e-05 0.0011465655 0.0009346239 0.0013511112
000320 fe 0a 4b 3a ee 8e ba 3a 2a 3e 81 3a 0a 1a a5 3a
       0.00077454734 0.001423327 0.0009860445 0.0012596261
000330 a8 3a 0f 3a 36 b9 b4 3a 15 09 18 3a 80 a8 96 3a
       0.00054637576 0.0013788107 0.0005799693 0.0011494309
000340 06 4a a2 39 fc 6d 98 3a fc ed d2 38 d9 d9 93 3a
       0.000309542 0.0011629458 0.000100579084 0.0011280134
000350 48 a5 e9 38 50 0e 99 3a 86 a4 88 38 86 e5 82 3a
       0.00011141092 0.0011677239 6.51563e-05 0.0009986616
000360 b0 d1 77 b8 a7 9d 80 3a 77 24 1b 39 68 59 55 3a
       -5.9084676e-05 0.0009812609 0.00014795536 0.0008138628
000370 39 a3 81 38 64 89 6c 3a b0 24 b7 36 b5 41 5e 3a
       6.181602e-05 0.00090231583 5.458096e-06 0.0008478419
000380 b7 68 7a bb 9f 93 30 38 53 9d 50 bb b6 36 06 bb
       -0.0038209388 4.2099153e-05 -0.0031832054 -0.0020479388
000390 4a 6f 08 bb 42 5c cb ba 84 84 30 bb 31 af bb ba
       -0.0020818287 -0.0015515166 -0.0026934454 -0.0014319179
0003a0 0d 08 73 ba ad 78 99 ba 8e 8c 24 bb 88 78 85 ba
       -0.0009270914 -0.0011708938 -0.0025108191 -0.0010183016
0003b0 d6 e4 11 bb a4 5b 70 ba c7 f8 35 bb af 5f 37 ba
       -0.002226164 -0.0009168929 -0.002776669 -0.0006995154
0003c0 68 20 20 bb f8 a5 2a ba 03 ed af ba 28 ff 08 ba
       -0.0024433378 -0.00065097166 -0.0013422075 -0.00052260095
0003d0 62 e5 da ba 35 f0 0b ba 46 c1 00 bb f2 ab c2 b9
       -0.0016700441 -0.0005338223 -0.001964645 -0.00037130673
0003e0 e0 c4 dd ba c0 cc 7b b9 0a af 00 bb 28 ec e6 b9
       -0.0016919635 -0.000240135 -0.0019635581 -0.0004404497
0003f0 be 27 d1 ba 34 9b d1 b9 bc b3 de ba a6 36 8b b9
       -0.0015957279 -0.00039979222 -0.0016990821 -0.00026552862

convs.weight.1.tensor f4 [32, 32, 16, 2]
000000 e5 c9 85 3b 8d b9 aa 38 57 f2 94 3b a8 e4 3a 3a
       0.0040829056 8.140793e-05 0.0045454907 0.00071294094
000010 7d 38 49 3b cb a2 a1 3a 28 30 7e 3b e1 38 f8 3a
       0.0030703836 0.0012331841 0.0038786028 0.001893785
000020 9d 5c 8b 3b 43 8a ce 3a b1 64 5d 3b 35 8c 27 3b
       0.0042529837 0.0015757758 0.003378194 0.0025565748
000030 b9 92 5a 3b fc b8 e6 3a 05 7d 21 3b ba 83 44 3b
       0.0033351614 0.0017602737 0.0024641168 0.0029985742
000040 62 07 87 3b 37 3b 2e 3b eb 06 2e 3b 13 b5 2d 3b
       0.004120753 0.0026585588 0.0026554416 0.0026505634
000050 69 aa 56 3b 61 07 44 3b 82 22 6b 3b 17 bb 2e 3b
       0.003275538 0.0029911625 0.0035878723 0.0026661807
000060 7a 7d 56 3b 3f ea f0 3a a9 c1 09 3b 75 d7 20 3b
       0.0032728598 0.0018380358 0.0021019971 0.0024542485
000070 2a 89 82 3b ed aa 1e 3b 5e 1f 52 3b c7 79 c7 3a
       0.0039836364 0.0024210766 0.0032062153 0.0015218788
000080 2d 81 8c bb 83 cc 9c 37 f4 d2 e2 ba 51 89 2e 39
       -0.00428786 1.8691882e-05 -0.00173053 0.00016645087
000090 7e e3 c0 ba ee 18 7f b9 60 b9 a9 ba 71 1c 25 b9
       -0.0014716235 -0.00024327982 -0.0012948923 -0.00015746221
0000a0 5e 0a 9e ba b5 a9 8b b8 76 e9 8b ba fc 06 b8 b9
       -0.0012057533 -6.659647e-05 -0.0010674435 -0.0003510042
0000b0 99 ed 94 ba 16 42 34 b9 e5 64 82 ba 3d 07 2d b9
       -0.0011362314 -0.00017190757 -0.0009948282 -0.00016501262
0000c0 e1 2c 8c ba 8e 6d df b9 c0 ed 85 ba c0 d2 ca b9
       -0.0010694527 -0.000426155 -0.001021795 -0.00038685463
0000d0 e7 d9 5b ba a5 82 ca b9 e9 5d 70 ba 8c 3b 5e b9
       -0.0008386657 -0.0003862578 -0.0009169267 -0.00021193753
0000e0 0e d9 50 ba aa fb d0 b9 a2 a7 46 ba b4 07 aa b9
       -0.0007966914 -0.00039860356 -0.000757808 -0.00032430666
0000f0 5d e7 52 ba 6e b9 1a b9 ea e8 44 ba bd 51 b3 b9
       -0.000804534 -0.00014755662 -0.00075115135 -0.0003420244
000100 bd 2a 5c 3b 9a 63 e6 b8 2b 12 21 3b ae 0a 71 39
       0.003359481 -0.00010985807 0.002457748 0.0002298753
000110 c0 d9 27 3b 9f 58 d9 39 2f da da 3a b9 8b 0d 3a
       0.0025611967 0.00041455493 0.0016697104 0.00053995434
000120 06 6c 08 3b ff ee 05 3a a0 cb 03 3b 0f ae 10 3a
       0.002081634 0.00051091606 0.0020110384 0.0005519101
000130 bf c5 09 3b 82 b7 1d 3a 04 b0 00 3b b6 3a 24 3a
       0.0021022407 0.00060164195 0.0019636163 0.0006264852
000140 fd 83 c6 3a 09 0d 1a 3a 68 98 ff 3a 4b ae 32 3a
       0.0015145537 0.0005876576 0.0019500377 0.0006816133
000150 b0 52 df 3a 46 13 e9 39 41 2d d6 3a 52 b5 0c 3a
       0.0017038193 0.00044455583 0.0016340391 0.0005367595
000160 b1 0a dd 3a e3 37 25 3a ba a9 d5 3a bd e3 16 3a
       0.0016864148 0.0006302578 0.0016301193 0.00057559815
000170 f4 b3 b4 3a 67 56 9c 39 1c 5e bb 3a 46 5d de 39
       0.001378654 0.00029819013 0.0014295015 0.00042412634
000180 09 40 70 bb d3 74 1a b9 cb bf 37 bb af d1 d8 b8
       -0.0036659262 -0.00014730105 -0.0028037902 -0.00010338739
000190 18 52 27 bb 36 7a c8 b9 58 d3 18 bb 5f 08 5c ba
       -0.002553111 -0.00038238027 -0.002331933 -0.00083935814
0001a0 7a ee d6 ba 1a de 88 ba 9c ed e6 ba f9 b7 c4 ba
       -0.0016397976 -0.0010442168 -0.001761842 -0.0015008441
0001b0 d1 55 e8 ba db f4 d5 ba 25 d0 09 bb a6 14 7f ba
       -0.0017725771 -0.0016323583 -0.0021028605 -0.0009730555
0001c0 9f 6d ea ba dd bb 85 ba b1 4a d2 ba ae 63 db ba
       -0.0017885453 -0.0010203082 -0.0016043988 -0.0016738081
0001d0 12 16 c5 ba ac f2 e4 ba 37 85 07 bb 84 f1 bf ba
       -0.0015036485 -0.0017467341 -0.0020678767 -0.0014644121
0001e0 c0 97 55 bb 93 3d c0 ba 63 e0 19 bb 18 ee db ba
       -0.003259167 -0.0014666788 -0.0023479692 -0.0016779331
0001f0 fe 53 e6 ba 44 51 b8 ba 15 48 27 ba 96 66 b4 ba
       -0.0017572639 -0.0014062305 -0.00063812855 -0.0013763483
000200 67 8e 63 bb d0 61 ba b8 ac a3 99 bb e9 4d 40 bb
       -0.003472233 -8.88739e-05 -0.0046887007 -0.0029343313
000210 44 12 80 bb 21 27 19 bb 87 ad 5a bb 26 02 29 bb
       -0.0039084274 -0.002336927 -0.003336759 -0.0025788634
000220 d4 3e 5b ba bb dc 2f bb 83 db 50 bb 14 5f 5f bb
       -0.0008363549 -0.0026834446 -0.003186912 -0.003408377
000230 f0 7e 7c bb 6a 36 3c bb c0 62 36 bb 0b 75 55 bb
       -0.003852781 -0.0028718957 -0.0027829856 -0.0032570984
000240 2c 04 5d bb 42 2d a3 bb 26 71 29 bb 08 86 80 bb
       -0.003372441 -0.0049797604 -0.0025854795 -0.003922228
000250 8d 15 76 bb 5a c3 34 bb 48 27 76 bb 83 31 86 bb
       -0.0037549466 -0.002758226 -0.0037560035 -0.0040952577
000260 14 8d 82 bb 02 77 6c bb 37 a5 62 bb ec 27 3c bb
       -0.003984103 -0.0036081676 -0.003458334 -0.0028710319
000270 01 2a 65 bb bf ad 06 bb 18 06 5d bb 21 f8 3e bb
       -0.0034967663 -0.0020550338 -0.0033725556 -0.0029139596
000280 eb 13 83 3b 46 d3 d6 37 0a 77 ac 3b 95 65 4e 3b
       0.004000177 2.560917e-05 0.005263214 0.0031493653
000290 d8 fd 81 3b 4d 5b 0c 3b 79 aa 9e 3b 06 c8 0d 3b
       0.003967028 0.0021416724 0.0048420993 0.0021634116
0002a0 10 ee 7f 3b 02 7b 00 3b 0e d4 50 3b 82 8b 02 3b
       0.0039051808 0.0019604568 0.0031864676 0.001991958
0002b0 52 6f 8b 3b 02 0f 25 3b 9d 18 83 3b 90 d2 26 3b
       0.004255214 0.0025185947 0.004000737 0.0025455095
0002c0 11 ba 49 3b 66 e6 25 3b 70 d3 87 3b 7b 4e 49 3b
       0.003078107 0.002531433 0.0041450784 0.0030716944
0002d0 9a bf 7b 3b 0b 35 2b 3b 0e bc 86 3b 4f e2 f9 3a
       0.0038413764 0.0026124145 0.0041117733 0.0019064638
0002e0 90 7e 6e 3b 88 e7 13 3b 3c f6 9a 3b c9 52 33 3b
       0.0036391355 0.0022568423 0.0047290605 0.0027362576
0002f0 b3 14 8d 3b 7d 60 0a 3b f5 45 3f 3b b1 14 15 3b
       0.004305446 0.002111464 0.0029185985 0.0022747929
000300 80 f0 26 3b 62 9d 93 b8 bf 5b 0b bb 0e 27 89 3a
       0.002547294 -7.038821e-05 -0.0021264402 0.001046391
000310 1e b9 86 b8 f4 3f 38 3a 48 83 16 3a f9 1e 94 3a
       -6.424099e-05 0.0007028573 0.00057416083 0.0011300734
000320 0c 61 f8 39 1a 77 96 3a 28 b9 0b 3a 84 15 94 3a
       0.00047374552 0.0011479587 0.00053300196 0.0011297916
000330 8c 43 28 39 36 bc 9a 3a be 3d 17 39 4d 90 b4 3a
       0.00016046892 0.0011805359 0.00014423483 0.0013775915
000340 fe 2b 84 b9 4d b5 92 3a b0 8e 93 b6 b2 de 95 3a
       -0.0002520978 0.0011192948 -4.3975524e-06 0.0011434166
000350 a1 80 c1 b9 ad 5c 6b 3a ac b8 b6 b9 80 1b 85 3a
       -0.00036907665 0.00089783483 -0.00034851336 0.001015529
000360 04 b4 eb 37 35 02 8b 3a 61 89 ca b8 5a a3 6d 3a
       2.809801e-05 0.0010605516 -9.6576994e-05 0.0009065174
000370 f0 6d 03 b8 a4 84 1a 3a 4f 58 5f b8 fb 5e 81 3a
       -3.133522e-05 0.0005894399 -5.3249587e-05 0.0009870225
000380 34 a3 3f bb 9c 18 90 38 86 54 1d bb 28 b4 17 bb
       -0.0029241564 6.871039e-05 -0.0024006679 -0.0023148153
000390 32 6b 54 bb f0 f4 0d bb 3e ba 0c bb d9 ca 2d bb
       -0.0032412526 -0.0021660887 -0.0021473314 -0.0026518612
0003a0 f5 29 15 bb 98 c5 05 bb 9c 10 3f bb 5a e7 04 bb
       -0.0022760604 -0.0020411965 -0.0029154187 -0.0020279498
0003b0 4a 34 73 bb 33 ee fd ba 81 f1 92 bb 3a da 3c bb
       -0.0037110024 -0.0019373357 -0.004484356 -0.0028816597
0003c0 17 8f 4a bb 02 79 d3 ba f3 4b 8e bb 87 e6 17 bb
       -0.0030908042 -0.0016134086 -0.00434255 -0.0023178176
0003d0 d2 9d 5f bb 1c 15 04 bb 83 e7 3f bb 9f 93 de ba
       -0.0034121168 -0.0020154184 -0.002928228 -0.001698125
0003e0 a1 a7 70 bb 32 95 3e bb d6 84 04 bb 83 96 05 bb
       -0.0036721008 -0.0029080627 -0.0020220778 -0.0020383901
0003f0 64 22 bf ba 25 d4 11 bb 08 c5 bb ba 96 34 a5 ba
       -0.0014582393 -0.0022251692 -0.0014325688 -0.0012604173

convs.weight.2.tensor f4 [32, 32, 16, 2]
000000 38 db 65 3b da ee b3 37 78 eb 84 3b 53 0c 05 3b
       0.0035073292 2.1449687e-05 0.0040563904 0.0020301535
000010 38 a0 ae 3b 0f 39 11 3b 19 6b 25 3b 26 36 2e 3b
       0.005329158 0.0022159254 0.0025240837 0.0026582568
000020 40 3b 17 3b 5e e4 1a 3b db c1 85 3b 17 a5 29 3b
       0.0023076087 0.0023634653 0.0040819473 0.0025885755
000030 86 fa 79 3b 5c 46 75 3b b1 b8 6d 3b a6 0e 5e 3b
       0.0038143708 0.003742597 0.0036273415 0.0033883243
000040 38 b2 67 3b 3a 7d e1 3a cc 59 84 3b 88 86 2c 3b
       0.003535403 0.0017203458 0.004039025 0.0026325304
000050 8a 1c 60 3b 6e 86 59 3b b8 f7 e2 3a 72 2a 24 3b
       0.0034196698 0.0033191699 0.0017316258 0.0025049713
000060 ab f6 02 3b c8 55 41 3b 52 1e 6a 3b 7e ee 3b 3b
       0.0019983451 0.0029500592 0.0035723639 0.0028676088
000070 84 b9 36 3b 0a b8 12 3b d6 6f 27 3b 4d 3d 53 3b
       0.0027881572 0.0022387528 0.0025548837 0.0032232583
000080 3a 96 55 bb 16 4c 16 b9 e8 3b 55 bb 53 a1 00 b9
       -0.0032590763 -0.00014333459 -0.0032536928 -0.00012267129
000090 b0 c2 13 bb cd 1e 41 ba 68 7f 33 bb 00 11 61 ba
       -0.0022546463 -0.00073669554 -0.0027389172 -0.0008585602
0000a0 a8 96 44 bb 84 24 8d ba 69 73 3e bb 42 3b 9c ba
       -0.0029997025 -0.0010768329 -0.002906049 -0.0011919516
0000b0 c0 27 09 bb 4a 9d a9 ba 93 89 09 bb 60 b0 b1 ba
       -0.0020928234 -0.0012940553 -0.0020986542 -0.0013556592
0000c0 98 ff fe ba 42 67 a3 ba 13 b4 fc ba ba d2 ba ba
       -0.0019454835 -0.0012466686 -0.001927974 -0.0014253475
0000d0 73 98 d9 ba dc d0 9e ba fd 44 1f bb c9 04 97 ba
       -0.001660122 -0.0012116688 -0.0024302595 -0.0011521812
0000e0 e0 ac 13 bb cf b2 b3 ba e3 9b 12 bb 91 2b a7 ba
       -0.0022533461 -0.0013709905 -0.0022370748 -0.0012754073
0000f0 1d 22 fb ba 7f 28 9d ba 71 f5 b5 ba 23 f6 8d ba
       -0.0019159947 -0.0011990218 -0.0013882351 -0.0010830801
000100 20 76 78 3b 1e 00 3d 38 fb e6 10 3b 42 74 39 3a
       0.0037912205 4.506122e-05 0.0022110331 0.00070745137
000110 5a 3a 68 3b 20 77 b2 3a 83 18 45 3b 6a bb b7 3a
       0.003543517 0.0013615824 0.0030074425 0.0014017646
000120 70 b7 5c 3b ee bd c4 3a 95 22 8e 3a 9c 1e f0 3a
       0.0033678673 0.0015010217 0.0010844046 0.0018319669
000130 d7 92 34 3b ac d9 eb 3a 1c 19 1c 3b 1e cc 7c 3a
       0.0027553344 0.0017993948 0.0023818677 0.0009643453
000140 b5 53 29 3b e5 f4 ad 3a 7f 79 c1 3a ab 70 e1 3a
       0.0025837247 0.0013271837 0.001476094 0.0017199715
000150 e9 b5 11 3b c3 2d 0b 3b 06 ca a1 3a 0c bc 0d 3b
       0.002223367 0.0021236993 0.0012343533 0.0021626977
000160 57 c2 0a 3b a2 48 e2 3a ab 71 24 3b 41 33 ff 3a
       0.0021172964 0.0017264078 0.0025092165 0.0019470231
000170 93 62 ea 3a 5d a5 c1 3a 1a 39 2e 3b e5 08 d0 3a
       0.0017882161 0.0014774014 0.0026584328 0.0015871791
000180 37 c4 16 bb ed 1b a5 b8 20 da 20 bb ca fd f2 b9
       -0.0023005137 -7.873015e-05 -0.0024544075 -0.00046346925
000190 a9 47 6c bb 3c 76 7b ba bb d0 32 bb 74 bf 8c ba
       -0.0036053455 -0.00095925084 -0.0027285058 -0.001073821
0001a0 62 7b 0d bb fb bd dd ba 38 60 4f bb 1a 77 00 bb
       -0.0021588434 -0.001691758 -0.0031643044 -0.001960224
0001b0 d1 ed 45 bb 02 a4 a7 ba ba 81 34 bb 40 6a b0 b9
       -0.0030201564 -0.0012789967 -0.0027543143 -0.00033648498
0001c0 74 58 6b bb 66 bc 00 bb a1 d9 46 bb 20 e5 15 bb
       -0.0035910876 -0.0019643544 -0.003034212 -0.0022872165
0001d0 b0 d6 c1 ba 0d 28 28 bb 87 97 1f bb 4f af c0 ba
       -0.0014788713 -0.0025658638 -0.0024351792 -0.0014700684
0001e0 18 2e 41 bb 7e 1b fb ba 20 df 0e bb 51 62 0c bb
       -0.0029476937 -0.0019157974 -0.0021800473 -0.0021420906
0001f0 f7 ad 17 bb be 7f e9 ba 09 8f 17 bb d2 4f cd ba
       -0.0023144463 -0.0017814559 -0.0023126027 -0.0015664047
000200 2f e5 7b bb ff 7f 61 38 26 74 4f bb 8d 8b 49 bb
       -0.0038436165 5.3763386e-05 -0.0031654923 -0.0030753345
000210 81 cd 69 bb db 49 33 bb 0c eb 84 bb 93 ab 17 bb
       -0.0035675468 -0.0027357254 -0.00405634 -0.0023143038
000220 60 b4 73 bb 04 0d 75 bb 9b c8 95 bb 21 02 86 bb
       -0.003718637 -0.003739179 -0.004571033 -0.0040896093
000230 05 77 54 bb aa b7 2e bb c9 bb 45 bb 9e 37 15 bb
       -0.0032419574 -0.0026659765 -0.0030171743 -0.0022768746
000240 a3 8c 85 bb 5f af 84 bb b1 ee 64 bb 3c 2d 8d bb
       -0.004075603 -0.004049226 -0.003493231 -0.004308371
000250 c7 e3 99 bb bc e4 9a bb a8 9e 6e bb b1 a2 81 bb
       -0.0046963426 -0.0047269743 -0.0036410484 -0.003956162
000260 d2 6b 53 bb 36 cc 74 bb ad a2 8e bb 91 ab 4e bb
       -0.003226031 -0.0037353165 -0.0043528886 -0.0031535367
000270 ec 38 58 bb f0 15 82 bb 02 a1 91 bb f2 61 76 bb
       -0.0032992912 -0.0039699003 -0.0044442425 -0.0037595
000280 d2 af 82 3b 5d 99 b8 38 92 b3 3f 3b df d7 59 3b
       0.0039882446 8.80237e-05 0.002925132 0.0033240241
000290 09 59 57 3b 52 39 30 3b 37 6a 3b 3b b8 74 14 3b
       0.0032859466 0.0026889634 0.0028597245 0.0022652578
0002a0 aa 96 68 3b 75 69 1f 3b 94 e3 4e 3b f3 8d 30 3b
       0.0035490193 0.0024324332 0.0031568753 0.0026940077
0002b0 e2 af 87 3b 10 d0 42 3b bd 31 43 3b 51 1b 62 3b
       0.00414084 0.0029726066 0.0029784285 0.0034501145
0002c0 99 54 7f 3b 51 98 38 3b 13 56 2b 3b 65 5e 75 3b
       0.0038960336 0.002816696 0.0026143834 0.0037440297
0002d0 a9 36 90 3b ec 23 1c 3b 3a 1f 63 3b 9b 4a 42 3b
       0.0044010472 0.0023825122 0.0034656064 0.002964652
0002e0 b3 4d 46 3b ce ab 31 3b e3 49 7e 3b d9 3e e6 3a
       0.0030258715 0.002711046 0.0038801364 0.0017566337
0002f0 39 99 52 3b dc fd 5b 3b 7b 5a 50 3b 71 04 3c 3b
       0.0032134785 0.003356806 0.0031792212 0.002868917
000300 05 8b 13 3b 1d c1 f9 38 f7 e6 18 bb 91 3d 1f ba
       0.0022513282 0.000119092154 -0.0023331025 -0.0006074543
000310 12 e3 60 b9 94 9c c1 39 ab 7f dd 39 5a 13 e8 39
       -0.00021446895 0.00036928488 0.00042247525 0.00044264906
000320 e6 f5 e3 39 ea 8d 4d 3a c2 7c 0b 3a 0f 7b 47 3a
       0.00043480023 0.0007841276 0.00053210196 0.0007609585
000330 bf 30 b1 39 a2 e9 6a 3a 2f 34 aa 39 3e 2d 86 3a
       0.0003379639 0.00089612056 0.00032463807 0.0010236872
000340 a6 dd e6 39 dd e6 35 3a a8 5d 01 3a 5b 86 5d 3a
       0.0004403416 0.00069390034 0.00049349153 0.00084505015
000350 cd 0d ad 39 7f 1a 7e 3a 2e 7b 30 39 45 47 46 3a
       0.00033007414 0.0009693279 0.00016830556 0.00075637206
000360 02 76 32 3a de 95 75 3a fa 11 1c 3a 06 0c 44 3a
       0.00068077457 0.000936834 0.00059536065 0.0007478598
000370 78 73 9e 39 ac ea 41 3a ed 00 58 39 9b 50 67 3a
       0.0003022214 0.00073973346 0.0002059971 0.0008823962
000380 1e f5 4b bb 3b cb 14 39 ef 30 35 bb 80 e6 17 bb
       -0.0031121443 0.00014190089 -0.0027647575 -0.002317816
000390 a9 ba 50 bb 5f 11 06 bb c2 cf 58 bb fc 84 ad ba
       -0.003184954 -0.0020457131 -0.0033082818 -0.0013238485
0003a0 37 7c 8f bb d7 0d 5e bb 7a 12 97 bb aa b9 46 bb
       -0.0043788212 -0.003388276 -0.004610357 -0.0030323067
0003b0 c7 89 2e bb 5c 55 40 bb dd f7 3d bb ee 88 eb ba
       -0.0026632415 -0.0029347753 -0.002898685 -0.0017969885
0003c0 d9 f4 1a bb f8 f3 0a bb 20 c2 42 bb 00 82 23 bb
       -0.0023644476 -0.0021202546 -0.0029717758 -0.0024949312
0003d0 da c4 6d bb 43 c8 25 bb ef 26 57 bb 3d 14 56 bb
       -0.0036280663 -0.0025296367 -0.0032829603 -0.0032665872
0003e0 fb e0 69 bb d6 be 46 bb c3 a1 6f bb 3b 73 29 bb
       -0.0035687077 -0.003032615 -0.0036564923 -0.0025856036
0003f0 65 c4 12 bb 33 93 02 bb b9 2f 70 bb 2c 67 24 bb
       -0.0022394892 -0.0019924163 -0.0036649539 -0.002508591

convs.weight.3.tensor f4 [32, 32, 16, 2]
000000 ec db 56 3b 5d 67 63 b7 8c 85 6c 3b f1 a4 3c 3b
       0.0032784892 -1.35543205e-05 0.0036090342 0.0028784836
000010 23 75 9a 3b 46 cd fd 3a b7 00 62 3b 55 20 47 3b
       0.004713671 0.0019363544 0.003448529 0.0030384262
000020 0d e7 3e 3b 64 f7 12 3b 38 2b 27 3b 48 c4 30 3b
       0.0029129416 0.0022425288 0.0025507938 0.0026972461
000030 14 7a 8c 3b d6 ea 6d 3b 48 a1 32 3b 51 fb 33 3b
       0.004287014 0.0036303303 0.0027256776 0.0027463029
000040 25 5b 82 3b 61 af 7c 3b 8b 67 26 3b d4 4e 59 3b
       0.0039781504 0.0038556682 0.0025391306 0.0033158557
000050 4d 2f 69 3b 06 f2 5e 3b f1 d8 7d 3b 75 39 46 3b
       0.0035581172 0.003401877 0.0038734043 0.003024665
000060 9c 75 01 3b 4d 00 4b 3b e1 82 3a 3b 02 ec 3e 3b
       0.0019753939 0.003097552 0.0028459358 0.002913237
000070 20 df 71 3b b6 12 67 3b fe 9e 35 3b 82 15 47 3b
       0.0036906675 0.0035258955 0.0027713175 0.003037781
000080 4d d1 84 bb d6 d9 1b b9 e5 51 5f bb a6 24 62 ba
       -0.004053271 -0.00014863102 -0.0034075913 -0.0008626677
000090 9f d5 27 bb 84 40 2e bb 4d 65 8b bb c9 60 1e bb
       -0.0025609506 -0.0026588747 -0.0042540194 -0.0024166575
0000a0 48 7e 22 bb ec 61 13 bb a3 96 28 bb 63 b7 41 bb
       -0.0024794508 -0.0022488786 -0.0025724552 -0.002955877
0000b0 0e 55 62 bb 02 21 3b bb 04 d3 62 bb d9 41 05 bb
       -0.003453556 -0.002855361 -0.0034610638 -0.0020333438
0000c0 32 8c 54 bb 37 a8 fe ba 19 5a 64 bb 04 3c 47 bb
       -0.0032432196 -0.0019428794 -0.0034843741 -0.0030400762
0000d0 d2 36 17 bb 27 70 52 bb 4f fb 5a bb 70 99 4f bb
       -0.0023073447 -0.0032110305 -0.0033413952 -0.003167715
0000e0 59 9d 67 bb 3d 9f 1f bb 59 40 37 bb 61 34 27 bb
       -0.003534159 -0.0024356388 -0.0027961938 -0.0025513398
0000f0 91 62 76 bb 9f f4 31 bb b4 60 54 bb 7b 19 32 bb
       -0.0037595371 -0.0027153862 -0.0032406272 -0.0027175832
000100 a9 92 3d 3b 10 86 d5 b8 b2 4b 50 3b fe 81 f7 3a
       0.0028926528 -0.000101816026 0.00317834 0.0018883345
000110 5e ba e5 3a 16 85 de 3a bc 19 34 3b 6c a8 0a 3b
       0.0017526855 0.0016976919 0.002748116 0.0021157516
000120 62 ff 1b 3b 77 08 12 3b d3 e9 07 3b 89 16 23 3b
       0.0023803343 0.0022282877 0.0020738735 0.0024885258
000130 d8 b4 37 3b b6 d2 63 3b 0e 26 6c 3b 01 ec 38 3b
       0.0028031375 0.0034763045 0.0036033425 0.0028216841
000140 a1 60 4e 3b 46 f3 44 3b 46 69 30 3b 81 9a 53 3b
       0.00314907 0.0030052229 0.0026918217 0.0032288136
000150 5f 0f 3d 3b 82 78 28 3b 4c 3d 52 3b 89 02 55 3b
       0.0028848273 0.0025706594 0.0032079993 0.0032502732
000160 90 2a 34 3b 96 88 f2 3a 78 21 4d 3b cf e6 30 3b
       0.002749119 0.001850384 0.0031300467 0.0026993041
000170 d5 f8 e2 3a 13 e2 38 3b cd 20 3f 3b 82 2a 25 3b
       0.0017316589 0.0028210923 0.0029163838 0.0025202339
000180 34 f5 83 bb de 0c 1a b9 84 27 35 bb 72 ba b2 ba
       -0.004027033 -0.00014691378 -0.0027641961 -0.0013635887
000190 c7 6b 6e bb 6f 19 bd ba cb 4a 4a bb 51 3c 83 ba
       -0.0036380158 -0.0014427135 -0.0030867334 -0.0010012483
0001a0 48 c9 21 bb 75 ab b3 ba b3 37 33 bb 78 0d 07 bb
       -0.0024686623 -0.0013707714 -0.0027346432 -0.0020607393
0001b0 ad 4a 3d bb c3 cf 04 bb 70 4e 1b bb c6 02 1e bb
       -0.0028883622 -0.0020265437 -0.0023697875 -0.002411054
0001c0 34 9e 20 bb 1f 5f 16 bb 7d 96 02 bb 95 a0 01 bb
       -0.002450836 -0.002294488 -0.0019926124 -0.0019779552
0001d0 74 ff 1a bb 0b dc 43 bb 89 e7 58 bb 45 1f ea ba
       -0.0023650797 -0.0029885795 -0.003309699 -0.0017862102
0001e0 df a6 a0 ba f1 b8 c1 ba e1 c7 40 bb 13 11 9c ba
       -0.0012256763 -0.0014779848 -0.0029416012 -0.0011906944
0001f0 08 dc 44 bb 26 f3 40 bb 24 8a 4f bb 08 b8 ea ba
       -0.0030038375 -0.0029441803 -0.0031668032 -0.0017907629
000200 ba b8 4e bb 68 c7 19 b9 76 b0 5f bb 26 55 43 bb
       -0.003154321 -0.00014665502 -0.0034132279 -0.002980539
000210 ac cb 46 bb a2 bb 71 bb 04 a8 09 bb ca b5 44 bb
       -0.00303338 -0.003688552 -0.0021004686 -0.0030015581
000220 26 7f 9b bb d1 f2 3f ba 5b 9c 24 bb 76 dd 43 bb
       -0.004745382 -0.0007322254 -0.002511761 -0.002988664
000230 34 d8 7d bb ea f6 45 bb 7f f8 43 bb 45 8e 8b bb
       -0.0038733603 -0.0030206987 -0.0029902754 -0.004258903
000240 44 a7 51 bb b8 63 5e bb 01 86 2e bb 22 39 5a bb
       -0.0031990567 -0.0033933949 -0.0026630166 -0.0033298214
000250 ca 1f 34 bb 3c a9 4b bb c4 77 8f bb e0 29 85 bb
       -0.0027484768 -0.0031076213 -0.004378291 -0.00406383
000260 46 59 87 bb 34 83 2f bb 51 8f 32 bb b9 36 1a bb
       -0.0041305153 -0.0026781084 -0.0027246068 -0.0023531152
000270 e6 7b 88 bb 56 1c 5a bb 3c 3b 8b bb d9 78 64 bb
       -0.0041651605 -0.003328105 -0.0042490046 -0.003486207
000280 02 b8 7e 3b 2b 2d ef 38 8e eb 60 3b c0 72 3e 3b
       0.0038867001 0.00011404821 0.003432009 0.0029060096
000290 64 3c 49 3b 64 07 28 3b fc a3 77 3b 2d 49 64 3b
       0.0030706162 0.002563917 0.0037786951 0.0034833655
0002a0 28 bd 59 3b 60 9c 89 3b d7 c2 1f 3b bb 2a 2f 3b
       0.0033224318 0.0041995496 0.0024377608 0.002672835
0002b0 81 b8 23 3b 8c 27 4e 3b 78 58 63 3b 76 ac 72 3b
       0.00249818 0.0031456677 0.0034690183 0.0037029064
0002c0 ba 5b 7e 3b e8 be 50 3b 04 3f 00 3b 0e 64 76 3b
       0.0038811998 0.003185207 0.001956881 0.0037596258
0002d0 64 18 76 3b 94 c4 79 3b c0 1a 86 3b 58 a9 60 3b
       0.003755116 0.0038111554 0.0040925443 0.0034280624
0002e0 1b b2 41 3b 3c c0 5d 3b 72 b7 5b 3b 38 8c 4e 3b
       0.0029555622 0.0033836504 0.003352609 0.0031516682
0002f0 38 5a 69 3b 73 77 fe 3a 3d 3c 5a 3b 55 cd 0d 3b
       0.0035606753 0.0019414261 0.0033300065 0.002163728
000300 cc d9 e9 3a bd 10 c6 38 64 1a 47 bb e0 f9 c6 ba
       0.0017841398 9.4444935e-05 -0.003038072 -0.001518067
000310 d2 14 29 ba a9 1e 9b ba c0 09 98 39 9e fc fd b9
       -0.0006449941 -0.0011834699 0.00028998964 -0.00048444135
000320 5e f1 43 3a 3c 4e f6 b8 2b 1f 73 3a e0 a1 e9 36
       0.0007474626 -0.000117447664 0.0009274359 6.962786e-06
000330 9e 7e 47 3a 07 97 a9 39 e6 54 95 3a d8 2e be 39
       0.0007610115 0.00032346716 0.00113931 0.00036274525
000340 f8 bf 9c 3a 54 cf c2 39 5a 93 99 3a 74 4a 16 3a
       0.0011959067 0.00037157035 0.0011716888 0.000573314
000350 0a d0 a1 3a 4a 85 08 3a 18 10 a5 3a 84 e1 23 3a
       0.0012345326 0.000520785 0.0012593297 0.0006251561
000360 8f 90 a4 3a 47 f3 d5 39 ab 8a a4 3a 0d 0e 21 3a
       0.0012555289 0.00040807782 0.0012553533 0.00061437563
000370 74 06 a1 3a c0 6c b2 39 07 7d 9b 3a b6 15 08 3a
       0.0012285248 0.0003403183 0.0011862823 0.00051912235
000380 c2 44 4d bb b7 3a e1 b8 49 ba 8a bb 45 77 f4 ba
       -0.00313215 -0.000107397726 -0.0042336327 -0.0018651268
000390 d3 ca 11 bb c1 db 28 bb ee d8 58 bb e2 74 23 bb
       -0.0022246137 -0.002576575 -0.0033088285 -0.0024941494
0003a0 45 32 04 bb 0b 7e 5e bb f7 ab 61 bb f3 ba 52 bb
       -0.0020171565 -0.003394964 -0.0034434774 -0.0032154887
0003b0 9d be 4e bb 8c 8a f3 ba 49 57 54 bb 58 c8 26 bb
       -0.003154672 -0.0018580719 -0.0032400659 -0.0025449004
0003c0 dc bf 41 bb 6b 71 46 bb 25 6d 59 bb 41 e2 14 bb
       -0.002956382 -0.0030280005 -0.0033176627 -0.0022717866
0003d0 7e 41 6c bb 5d 9a 06 bb 2b d8 34 bb 7b 23 37 bb
       -0.0036049779 -0.0020538785 -0.0027594666 -0.0027944732
0003e0 2d fa 2f bb 7f 6f 58 bb 1a 0b 16 bb 13 67 f7 ba
       -0.0026851997 -0.0033025441 -0.00228948 -0.0018875323
0003f0 17 58 51 bb 56 cd 8e bb 4c 39 6b bb 9b 8f 49 bb
       -0.0031943375 -0.004357974 -0.0035892306 -0.0030755762

convs_bc.bias f4 [4, 32, 1]
000000 b0 0b 71 3b 62 a5 72 bb 8f 94 1d 3b 6a 31 12 bb
       0.0036780648 -0.0037024845 0.0024044847 -0.0022307285
000010 74 ab 44 bb 71 a9 70 3b b1 02 0f 3b ee 63 8c bb
       -0.003000942 0.0036722089 0.0021821673 -0.0042843735
000020 2f 16 f5 ba f3 d8 41 bb de 5a 72 b9 fe 50 59 bb
       -0.0018698628 -0.0029578775 -0.00023112769 -0.0033159847
000030 d7 28 39 3b 5e 7d 53 bb 62 eb 62 ba 95 24 5c bb
       0.0028253102 -0.003227077 -0.00086562906 -0.003359114
000040 86 d6 82 3b 84 2d ed 3a 89 68 30 3b c3 95 f6 ba
       0.0039928583 0.001809523 0.0026917777 -0.0018812943
000050 16 6b 97 bb 62 b8 92 3b dc f6 89 3b ef c3 d1 ba
       -0.00462092 0.0044775466 0.004210336 -0.0016003827
000060 cf 54 85 bb 66 60 92 3b 72 a1 88 3b a8 3b 67 3b
       -0.004068948 0.004467058 0.0041696364 0.003528336
000070 cb e7 a4 bb dd 58 4a bb 09 e1 3a bb 8e de 17 bb
       -0.0050325147 -0.003087572 -0.002851548 -0.0023173424
000080 56 35 67 3b 1d ac 44 bb e0 bd 45 3b 25 4c 42 bb
       0.0035279593 -0.0030009814 0.0030172989 -0.0029647436
000090 be fd 8b bb 55 48 d1 3a 8d 11 cc 3a 60 f5 88 bb
       -0.004272192 0.0015966991 0.0015569195 -0.0041796416
0000a0 40 77 2f bb 89 2b 92 bb 17 95 57 bb 75 49 09 bb
       -0.002677396 -0.004460756 -0.003289526 -0.0020948325
0000b0 e4 0a 5a 3b 44 bb 18 bb a8 53 66 bb 06 df ad bb
       0.0033270651 -0.0023304978 -0.0035145078 -0.0053061275
0000c0 62 fc 44 3b be 74 39 3b 5a a6 0d bb 86 b4 79 bb
       0.0030057658 0.0028298344 -0.0021614046 -0.0038101985
0000d0 85 f8 33 bb 98 81 79 3b 55 1a 46 bb ef 10 32 ba
       -0.0027461362 0.0038071629 -0.0030228097 -0.00067926844
0000e0 61 a3 6a bb 00 5a 89 3b c3 17 80 3b aa 87 97 3b
       -0.0035802948 0.004191637 0.0039090826 0.0046243267
0000f0 0f da 25 bb e0 3d 86 3b de ea 46 bb 22 1f 7f bb
       -0.0025306975 0.0040967315 -0.0030352394 -0.0038928469
000100 bb a4 7d 3b b9 bd 98 bb 41 e0 53 3b c0 59 67 bb
       0.0038702923 -0.0046612886 0.003232971 -0.0035301298
000110 d2 ae 63 bb 79 19 5e 3b b3 54 96 3b f0 d7 32 bb
       -0.0034741652 0.0033889695 0.0045877337 -0.0027289353
000120 53 41 8f bb f8 94 4f bb 51 8e 9d bb d8 ac 4d bb
       -0.004371801 -0.0031674486 -0.004808225 -0.003138354
000130 de 3c 93 3b 81 fb 9a bb 87 5b 48 bb ae b0 43 bb
       0.00449334 -0.0047296886 -0.0030572133 -0.0029859948
000140 9d 06 6d 3b f0 29 56 3b f4 ad 6f bb 8e 1f 50 bb
       0.0036167272 0.0032678805 -0.003657219 -0.003175709
000150 d0 7d 8f bb 89 01 67 3b 95 76 a8 bb b6 91 09 bb
       -0.0043790117 0.0035248718 -0.005141089 -0.0020991392
000160 c9 44 7a bb 06 90 7a 3b cb 8c 35 3b 5b 0d 50 3b
       -0.0038187972 0.0038232817 0.0027702327 0.0031746242
000170 52 94 64 bb 4a fd 9b 3b 34 8e 99 bb c9 e5 8e bb
       -0.0034878445 0.004760419 -0.0046861414 -0.0043608886
000180 97 1b 99 3b c7 d3 0f bb e8 7f 67 3b e4 28 4c bb
       0.0046724784 -0.0021946297 0.003532404 -0.0031152302
000190 76 bb 85 bb 0d fe af 3b e6 03 26 3b 68 65 c1 bb
       -0.004081185 0.0053708614 0.0025331913 -0.005901981
0001a0 17 46 82 bb 66 f8 97 bb fe 1b 1e bb aa f1 57 bb
       -0.0039756405 -0.0046377657 -0.0024125571 -0.003295044
0001b0 f2 85 66 3b 3f b3 67 bb cf 86 35 bb da 8a ba bb
       0.0035175052 -0.0035354642 -0.002769876 -0.005692822
0001c0 01 2e 2b 3b 1b 98 7c 3b 45 e2 0b bb 47 07 9f bb
       0.002611995 0.003854281 -0.0021344584 -0.0048531624
0001d0 8a 12 29 bb 0d ef 48 3b 3f 0e 0e bb 7d f1 86 ba
       -0.0025798404 0.0030660063 -0.0021675972 -0.0010295358
0001e0 ec c1 69 ba 1f 8c 4b 3b 65 e6 5d 3b 19 df 1a 3b
       -0.0008917141 0.003105886 0.003385925 0.0023631512
0001f0 49 39 7e b9 8c 16 43 3b 1f d0 91 bb e8 d8 8c bb
       -0.00024244668 0.0029768078 -0.004449859 -0.004298318

convs_bc.bias_bc f4 [4, 32, 1]
000000 33 0d fe 39 01 e5 66 39 64 4d 93 39 10 e1 1a 3a
       0.0004845649 0.0002201982 0.00028095685 0.0005908171
000010 7b 88 a3 ba 12 1f 10 ba f7 a2 f7 38 45 09 72 b7
       -0.0012476587 -0.0005497794 0.000118082324 -1.4426482e-05
000020 fc 47 03 3a 51 33 02 3a 4c 41 38 b9 55 a5 d0 ba
       0.000500798 0.0004966753 -0.00017571932 -0.0015918413
000030 c9 4b c7 b8 b5 0b 30 ba 91 a4 83 ba 5c 33 94 3a
       -9.5031755e-05 -0.00067156117 -0.0010043551 0.001130681
000040 7c ff db b9 21 8b 93 b9 a4 06 d1 b6 56 f5 ed 3a
       -0.00041961286 -0.00028141684 -6.2294584e-06 0.0018154781
000050 33 20 b0 ba 4f a0 eb ba b6 e1 90 3a 58 bc 08 3a
       -0.001343733 -0.0017976853 0.0011053595 0.00052160537
000060 0e e9 cb 38 21 0c 67 b8 15 30 da ba 13 31 42 ba
       9.723204e-05 -5.5085988e-05 -0.001664641 -0.00074078253
000070 53 5d 35 3a 6e a2 9b b9 12 a0 43 3a bf 13 9e 39
       0.00069185084 -0.00029684923 0.0007462512 0.0003015082
000080 ab e9 7f 39 0a 32 55 ba 2f 7e 70 ba ad b3 87 3a
       0.00024405743 -0.00081327616 -0.0009174076 0.001035323
000090 97 b5 95 ba 83 46 55 39 f3 22 e6 39 f1 d2 ab 3a
       -0.0011421916 0.0002033953 0.00043895058 0.001310913
0000a0 a2 0b 41 b9 88 b7 35 b9 26 69 48 39 e4 c1 69 39
       -0.00018410248 -0.00017329876 0.00019112657 0.00022292841
0000b0 74 35 91 ba d0 53 74 39 ae 24 30 ba 9d b0 e1 3a
       -0.0011078552 0.00023300876 -0.0006719333 0.0017218773
0000c0 cf 5c a5 38 47 3a 7a 39 7e 0b b0 3a c5 6e 85 3a
       7.8851e-05 0.00023863568 0.0013431159 0.0010180107
0000d0 b4 13 16 ba aa 14 c7 39 43 0f de 39 ff 18 f6 b9
       -0.0005724982 0.00037971634 0.0004235451 -0.000469394
0000e0 9c 99 ed 39 18 23 80 ba 8a 57 bf 38 e9 63 92 b9
       0.0004531861 -0.0009776084 9.123895e-05 -0.0002792173
0000f0 7c 71 cb b9 86 52 c6 37 9e e5 f0 3a fa a4 83 ba
       -0.0003880373 2.3641867e-05 0.0018378978 -0.0010043674
000100 b2 85 9b b9 bd 21 14 3b 52 37 0a 3a 64 13 c2 39
       -0.00029663515 0.0022603117 0.00052725256 0.0003701701
000110 43 fd 3c b9 ab c2 4a 39 e8 96 68 ba c0 21 ce ba
       -0.00018023424 0.0001933674 -0.00088725844 -0.0015726611
000120 85 ca af 3a d8 f8 9d b8 f8 63 ad ba 9e bc 18 3a
       0.0013411796 -7.532694e-05 -0.0013228646 0.0005826446
000130 68 81 92 3a 6b 82 29 3a 00 d1 a0 3a db 66 43 3a
       0.0011177482 0.0006466272 0.0012269318 0.00074539863
000140 dd 53 1a 39 ee bc 82 ba e1 db a0 b9 4f 88 31 ba
       0.00014717826 -0.0009974518 -0.000306814 -0.0006772326
000150 49 84 f4 b9 13 61 51 3a 1e 19 19 3b ca 2e cf 38
       -0.00046637867 0.00079871825 0.0023360918 9.879244e-05
000160 0e 41 2e 3a cc 63 20 b9 21 cf eb 39 0f a6 d3 3a
       0.0006647267 -0.00015295966 0.00044977016 0.0016147512
000170 84 44 10 ba 11 ab 68 ba 50 87 a2 3a 40 e3 7d 3a
       -0.00055033737 -0.00088755885 0.0012399945 0.0009685047
000180 d1 c3 19 ba f6 bd 35 3b 3d 16 84 3a bb 1b f5 ba
       -0.0005865666 0.0027731634 0.0010077428 -0.0018700281
000190 e3 e8 90 ba d6 bc b5 3a 11 5c f5 3a c2 cb 85 34
       -0.0011055734 0.0013865482 0.0018719455 2.4921434e-07
0001a0 15 88 8e 3a 62 d8 af ba 04 5c 76 39 80 b4 b8 b9
       0.0010874296 -0.0013415928 0.00023494667 -0.00035229698
0001b0 43 db 1b ba 3d 22 b0 b9 1c b6 46 ba f6 c0 ad b9
       -0.00059454533 -0.00033594845 -0.0007580237 -0.00033140898
0001c0 3c 61 8a ba 58 65 cc ba 95 12 d0 b9 db 9b 71 b9
       -0.0010557543 -0.0015594168 -0.00039686696 -0.00023041612
0001d0 f5 71 7e ba ae ff 96 ba 0e 56 22 39 83 00 96 39
       -0.0009706312 -0.001152029 0.00015481582 0.0002861061
0001e0 61 6b de b9 71 9c 9e 3a a2 20 6d b8 ac 65 8e 39
       -0.00042423143 0.0012101067 -5.6535595e-05 0.00027160102
0001f0 c3 eb 44 ba c6 ab 5b 3a aa cd d4 39 5d 40 fe b8
       -0.0007511938 0.0008379783 0.00040589023 -0.000121236524
