neuraloperator/examples/fno_bc_para002.pth (torch, 281619 bytes, 23 tensors)

convs.bias f4 [4, 32, 1]
000000 b2 70 29 be 50 d6 00 bd 75 93 27 3a 3d 11 5d bd
       -0.16546896 -0.031454384 0.0006392517 -0.053971518
000010 10 78 85 bd 59 cf ff 3c d9 12 6e bd 8e de 80 bc
       -0.06517041 0.0312268 -0.058123443 -0.015731122
000020 72 75 03 bd 34 52 9b bc a1 c2 93 bc 22 69 bb bc
       -0.032094426 -0.018960096 -0.018037142 -0.02287728
000030 e3 11 82 bc bf 64 e6 bb 48 0d 93 bc 72 29 4b 3d
       -0.01587767 -0.007031053 -0.017950669 0.049600072
000040 e7 61 47 bd 6a da 10 bd 7d 88 a5 bc b0 24 4e 3d
       -0.04867735 -0.035364546 -0.020206684 0.050327957
000050 16 dd 94 bc d1 b4 3e bd fb 4d eb bc 64 16 43 bd
       -0.018171828 -0.04655916 -0.028723707 -0.047628775
000060 9f 6a 5a bd e6 eb 87 bc bb c3 01 3d 0c aa 08 3c
       -0.053324338 -0.016591977 0.031680804 0.008341324
000070 9b 96 c8 bd eb 65 0b 3d e3 b8 1a bc e3 27 78 bd
       -0.09794351 0.034032743 -0.0094434945 -0.060584914
000080 4d c1 95 3c f2 58 97 bc 46 d6 08 bc c0 9b 1f bd
       0.01828065 -0.01847503 -0.008351868 -0.038966894
000090 03 4f 62 bd c9 8e b3 3c c1 d6 3e bd 7f 76 86 bb
       -0.055251133 0.021918671 -0.046591524 -0.0041034813
0000a0 45 bd c2 3b 99 aa 6f bd 17 75 ac ba 9a 07 91 3a
       0.005942973 -0.058512304 -0.0013157454 0.0011064888
0000b0 49 ca 0d bc f3 58 ee bc ed cd 41 bb 09 fa 54 3c
       -0.008654186 -0.029095149 -0.0029572204 0.012999066
0000c0 e9 15 fd bc 8d 74 de bb 3e 4d 25 bb f2 99 68 3b
       -0.030894237 -0.0067887963 -0.0025223042 0.003549215
0000d0 32 43 30 bb c4 66 e7 bc 57 97 1a bd 60 4b ff bc
       -0.002689552 -0.028247245 -0.037741985 -0.031163871
0000e0 b6 2f 5d 3a 23 9a 90 ba 87 7d af bc 01 0d 14 bc
       0.00084375904 -0.0011032264 -0.02142216 -0.0090363035
0000f0 99 10 20 3c e8 2e c5 bc d6 2c c8 bb e9 f5 b5 3c
       0.009769582 -0.024070218 -0.0061088605 0.022211986
000100 a6 f2 70 bd b0 e4 42 bb c5 76 d2 bb ec cc 7a bc
       -0.058825158 -0.002973836 -0.00642285 -0.015307646
000110 e3 29 23 bd 5b dd 2f 3c 60 36 18 bd b6 cc 1d 3c
       -0.03983487 0.010733928 -0.03716123 0.009631326
000120 fd a5 af 3c 90 91 e9 bd 02 2d 07 3c 85 34 db 3c
       0.021441454 -0.11404717 0.008250477 0.026758442
000130 b6 36 6a bb f5 f7 9d bd 0b 60 78 3c 51 5d a1 3b
       -0.0035738177 -0.0771331 0.015159617 0.0049244543
000140 d1 62 14 bc 5f 52 0b 3a a0 71 0d 3c 5f 58 51 3b
       -0.009056763 0.00053147034 0.008633047 0.0031943542
000150 db 57 83 3c 94 01 31 bc d9 93 5c bd 19 88 b3 bc
       0.016033104 -0.010803599 -0.053851936 -0.021915482
000160 38 1a db 3b ca 0d 6e 3c 5e b8 94 bc 96 83 37 3b
       0.006686475 0.014529655 -0.01815432 0.0028002015
000170 5c 5c 05 3b be 5b 26 bd 3b e5 47 3b 98 fa 33 3c
       0.002034924 -0.040614836 0.0030501622 0.010985039
000180 c7 86 fd bb 29 09 48 3c b6 ae 19 3d 26 5e 10 3d
       -0.007737014 0.012209215 0.037520133 0.035246037
000190 2f 97 ae 3c d7 ca e7 bb ca 6e c9 bc f0 32 17 3d
       0.021312324 -0.007073741 -0.024588961 0.036913812
0001a0 10 90 72 3d b7 fa 7b bc 77 c5 06 3d 4e b3 97 3d
       0.05921942 -0.015379599 0.03290316 0.074072465
0001b0 89 cd 13 3c be 03 e6 bc 51 43 2f 3d da 7c 59 bc
       0.009021171 -0.028077956 0.042788807 -0.013274396
0001c0 0c 85 fb 3c 4d cb 18 3b 7a 25 f6 3c 55 a9 84 bc
       0.03070309 0.0023314536 0.030047167 -0.016194025
0001d0 7b c8 05 3d 3f 26 f0 3c 94 43 0b 3c 9a ee d4 3a
       0.032661896 0.029315112 0.008499999 0.0016245425
0001e0 08 30 82 bc be fb 56 3d 38 61 22 bc 74 5a 88 ba
       -0.015892044 0.052486174 -0.009910874 -0.0010402934
0001f0 f5 2c 80 3c 3f 56 52 3c e8 27 a4 3c d4 62 3a 3d
       0.015646437 0.0128379455 0.02003856 0.045504406

convs.bias_bc f4 [4, 32, 1]
000000 2c d2 93 b7 80 d3 55 3a e4 e2 c5 37 e0 43 d3 ba
       -1.7621634e-05 0.0008156821 2.3589884e-05 -0.0016118251
000010 1b 03 ac 38 ff 7e d8 3a ef 62 25 b9 e8 45 17 bb
       8.2021776e-05 0.001651734 -0.00015772482 -0.002308244
000020 fa 84 47 ba e9 07 fe 3a bb a2 3a 39 2d 2f cb ba
       -0.00076110626 0.001938102 0.00017798964 -0.001550173
000030 36 cb 00 b9 30 49 18 ba 9c 9c 0e b9 72 ae 0e b8
       -0.00012282733 -0.00058092456 -0.00013600517 -3.4017903e-05
000040 fd ec 79 39 99 a3 f8 b9 b8 ee d0 ba 34 69 9d 39
       0.00023834775 -0.00047424136 -0.0015940284 0.00030023756
000050 21 a1 a8 ba d9 78 0c 39 0a 9d 9e 3a 69 4c 03 bb
       -0.0012865403 0.0001339646 0.0012101245 -0.0020034558
000060 2c 30 3e ba 0d 47 c9 39 a0 86 a9 3a bc 36 e9 39
       -0.0007255103 0.00038390644 0.0012933798 0.00044482003
000070 87 11 2b ba 5d 45 dd b8 b4 bd 39 b9 3c 8a 83 3a
       -0.0006525744 -0.00010551021 -0.00017713645 0.0010035704
000080 1e 76 bb 3a 23 3f 6d ba 95 fa 3e ba 49 33 28 3a
       0.001430217 -0.00090502406 -0.00072852644 0.00064163335
000090 25 c1 3f 3b 3d f2 ed ba 22 e2 b3 39 6b db 15 bb
       0.002925941 -0.0018153858 0.00034310023 -0.002286638
0000a0 12 b9 a2 ba 46 7d 0c ba bb 30 8e ba c1 d1 8a 3a
       -0.0012414774 -0.00053592434 -0.0010848263 0.0010591076
0000b0 2c 96 88 ba ba d6 2d ba 47 e8 cf b9 ca b7 0f b9
       -0.0010420731 -0.0006631423 -0.00039655177 -0.0001370601
0000c0 91 75 60 ba 66 4b 77 ba df fd fc b9 a9 37 89 ba
       -0.00085624406 -0.00094335375 -0.00048254334 -0.0010468859
0000d0 26 f4 e7 b9 3f 59 f3 3a b1 ea 94 ba 4c 59 66 3a
       -0.00044241658 0.0018566026 -0.0011361447 0.000878711
0000e0 aa 1c 74 ba 15 d9 51 ba 10 c3 e9 ba c0 4f b5 ba
       -0.00093121326 -0.0008005065 -0.0017834622 -0.0013832971
0000f0 66 3e 6f ba 10 b1 4c b8 9b cb fb ba 81 19 c4 ba
       -0.00091264246 -4.8802292e-05 -0.001921046 -0.0014961214
000100 72 0b 24 3a 2e 73 27 ba a2 4d f7 38 56 f0 dc 3a
       0.0006257809 -0.00063877075 0.00011792338 0.0016856294
000110 a8 bc fa 39 06 bb 13 b9 63 3b f0 ba 7b c7 de ba
       0.00047824276 -0.00014088684 -0.0018328245 -0.0016996706
000120 d8 85 cd b9 53 59 99 39 b9 e6 10 3a e6 8f 32 b9
       -0.00039200368 0.00029248986 0.00055275444 -0.00017029009
000130 df 1a de 3a db 10 1e ba 51 8e 34 3a 4a dc 59 ba
       0.0016945264 -0.00060297333 0.0006887662 -0.00083107187
000140 e1 02 18 3a 29 a0 11 3a fb d5 16 ba 2d c5 51 bb
       0.0005798769 0.0005555177 -0.00057539315 -0.0032008395
000150 1f fd 6a ba 12 1b d6 b9 99 50 8d 39 a2 09 d5 39
       -0.00089641096 -0.0004083743 0.00026953666 0.00040633703
000160 be 3b 94 39 f1 33 b9 3a c8 a3 5b 3a 4d 1f 5b ba
       0.0002827327 0.001412986 0.00083785923 -0.0008358851
000170 40 1e c1 b9 b2 95 13 3a 75 d9 0d b9 a8 93 f4 ba
       -0.00036834367 0.00056299113 -0.00013527817 -0.0018659728
000180 1e cd 03 bb 02 80 cc 3a d1 50 94 38 7b 2e 8d 39
       -0.0020111273 0.0015602114 7.072243e-05 0.00026928246
000190 88 f8 86 3a e1 cd a2 3a 39 c0 f5 3a 54 f4 58 b9
       0.0010297457 0.0012420976 0.0018749303 -0.00020690385
0001a0 d8 f0 52 b7 bf 19 ad b9 1c 16 8f 3a a1 4b 04 ba
       -1.2573051e-05 -0.00033016314 0.0010916623 -0.000504667
0001b0 da 46 e4 3a 07 8d a2 b9 39 9c f2 b9 65 3d 46 ba
       0.0017416135 -0.0003100412 -0.00046274232 -0.0007562249
0001c0 56 05 ae 39 23 68 c0 3a 04 ac 27 3a 93 ff 9c ba
       0.00033191842 0.0014679473 0.0006396177 -0.0011978023
0001d0 3a f9 4b b9 51 bf 49 b9 5f 2b 0b 3a 93 b6 48 ba
       -0.00019452433 -0.00019240125 0.0005308892 -0.00076566
0001e0 fb 68 aa 3a 1c f4 0b 3a 8a c1 0d 3a 76 77 5c b9
       0.0013001257 0.00053388043 0.0005407563 -0.00021025338
0001f0 d8 3c be b9 0a 57 3b ba 09 98 90 ba b3 0c 6c 3a
       -0.00036284956 -0.0007146454 -0.0011031638 0.0009004578

convs.weight.0.tensor f4 [32, 32, 8, 2]
000000 ed 48 0c 3e 0b 0d 8c 9a 6c df 31 37 80 a2 a4 36
       0.13699694 -5.7923715e-23 1.0602042e-05 4.9064984e-06
000010 80 68 90 b7 4c 3a a4 37 3d 03 a4 37 7f b4 b7 b7
       -1.72148e-05 1.957747e-05 1.9551831e-05 -2.189935e-05
000020 12 d5 d9 37 a6 b4 a4 b7 a6 4b b1 37 fd ae 0e b8
       2.5967634e-05 -1.9634444e-05 2.113527e-05 -3.401841e-05
000030 96 b6 17 38 ca 57 5f b8 d1 d6 1b 38 60 e7 87 b8
       3.6171252e-05 -5.3249103e-05 3.7154943e-05 -6.4803986e-05
000040 b7 ab f2 3c 72 7b d0 1a b8 c1 f9 3b a0 51 43 ba
       0.029622896 8.622622e-23 0.00762197 -0.0007450823
000050 43 78 d7 3b 9f 78 60 bb b5 66 bc 3b 36 36 20 bb
       0.0065756156 -0.0034251583 0.0057495483 -0.0024446375
000060 18 b3 a7 3b 2c 4f c5 ba c8 09 9e 3b 7b c2 93 ba
       0.005117785 -0.0015053502 0.0048229434 -0.001127317
000070 6c c4 91 3b c6 ca 86 ba ef 02 8b 3b b4 44 b7 ba
       0.004448464 -0.001028382 0.004242293 -0.0013982267
000080 18 24 b3 39 30 70 c6 9a e9 ad 8d bb 08 93 e5 ba
       0.00034168432 -8.207213e-23 -0.00432371 -0.0017515132
000090 39 5a 2b 3b 6c 63 64 b9 bc 3f 8d 3b 3c 8d 3d ba
       0.0026146306 -0.00021780812 0.0043105762 -0.00072308234
0000a0 72 c5 ce 3b 46 77 8b ba 57 4e cf 3b 70 1e 72 ba
       0.0063101584 -0.0010640405 0.0063264775 -0.0009236103
0000b0 f5 e0 ca 3b 29 1e 6a ba 3c 8f b7 3b d0 e0 42 ba
       0.0061913677 -0.0008930886 0.0056017917 -0.00074340124
0000c0 4a ab 64 3d 05 02 06 9b 6e 0c b6 ba e6 68 ab 39
       0.055827416 -1.1084873e-22 -0.0013889202 0.00032693817
0000d0 c1 7f 81 ba 1b b0 c2 39 49 4d 65 ba c9 9b ed 39
       -0.0009879993 0.00037133772 -0.0008747173 0.00045320232
0000e0 66 e7 58 ba 4a c7 c9 39 b1 1e 4e ba 46 45 c0 39
       -0.0008274227 0.0003848619 -0.000786285 0.00036672706
0000f0 76 7d 44 ba 1e 84 d5 39 db 4c 30 ba a1 f8 e7 39
       -0.0007495502 0.0004072496 -0.00067253195 0.00044244996
000100 e7 80 7a 3d 91 f8 cc 1a 80 90 c1 3a f3 72 a5 b9
       0.061158087 8.4774003e-23 0.0014767796 -0.00031556896
000110 40 a6 d3 38 a0 0b ce b9 5a f3 30 b9 9a aa 1f ba
       0.000100922305 -0.00039300043 -0.00016875323 -0.000609079
000120 0e f7 47 b9 b3 f5 98 b9 e2 25 74 b9 ca 6d 81 b9
       -0.00019070154 -0.0002917476 -0.00023283766 -0.00024686597
000130 bd 0a 6d b9 a4 4f db b9 62 19 f6 b8 d6 c1 5a b9
       -0.00022606082 -0.00041830272 -0.00011734922 -0.0002086231
000140 76 31 9b bd c7 bf f5 1a 0f 5b cd 3a e0 62 eb 38
       -0.07577793 1.0163946e-22 0.0015667396 0.0001122409
000150 56 bf 10 ba 8c 6b 33 b9 fa aa 2a ba 6e 8a 11 b9
       -0.00055216753 -0.00017110835 -0.0006510463 -0.00013879847
000160 65 9b 34 ba 7f 6c e2 b8 53 ee 24 ba cb 51 55 38
       -0.00068896107 -0.00010796729 -0.00062916166 5.0859333e-05
000170 7b 96 1e ba 06 2e 47 38 47 47 2d ba 20 43 66 38
       -0.0006049645 4.748816e-05 -0.00066100474 5.489879e-05
000180 93 d9 03 3e 76 86 a6 1a 0a eb 70 3d 3e 4c d3 bc
       0.12875967 6.8873224e-23 0.0588179 -0.025793191
000190 ba 88 4c 3d 87 c5 47 bc a5 47 48 3d ba ff 10 bc
       0.04993508 -0.01219309 0.04889645 -0.008850032
0001a0 ef ba 47 3d 8b 6d f4 bb 1c 20 48 3d df b3 eb bb
       0.04876226 -0.0074593476 0.048858747 -0.007193073
0001b0 bf ad 49 3d fd e9 01 bc 6e 66 50 3d 7a 31 27 bc
       0.049237963 -0.007929322 0.050878935 -0.010204667
0001c0 47 7e 10 3d b0 ef d4 99 a0 b0 1e bc 78 57 ca 3b
       0.035276677 -2.2017095e-23 -0.009685665 0.006174978
0001d0 cb 91 32 bc 07 77 2c 3b 4e eb 38 bc 38 64 72 3a
       -0.010899018 0.0026316063 -0.01128657 0.0009246501
0001e0 4a 74 35 bc 38 fb 18 39 d0 0a 34 bc 4c 6f 85 b9
       -0.011075089 0.00014589436 -0.010988906 -0.0002545066
0001f0 16 37 31 bc a2 38 07 3a c2 19 23 bc e0 3d 21 3b
       -0.010816356 0.000515828 -0.009954872 0.002460353
000200 2f 6e 82 3c 24 3e 8f 1a 2e a8 db b8 55 60 a8 39
       0.01592168 5.924381e-23 -0.0001047406 0.0003211523
000210 69 c5 c3 b9 82 fa 90 b8 90 3a 19 ba 6f b5 85 39
       -0.0003734038 -6.913116e-05 -0.00058452133 0.00025502915
000220 a5 c7 27 ba ee b8 3e 39 a2 45 22 ba 9b 9a 39 39
       -0.0006400294 0.00018188704 -0.00061901857 0.0001770057
000230 a4 c2 0f ba 20 4e ba b7 85 37 fc b9 aa eb 26 b8
       -0.0005484021 -2.2209308e-05 -0.0004810655 -3.9796963e-05
000240 1c b8 55 bb a6 f3 fb 1a c1 04 74 bb 94 8b 23 ba
       -0.0032610958 1.042048e-22 -0.003723428 -0.00062387553
000250 bc 58 39 bb d6 1d eb b9 c0 09 15 bb 4a b6 28 b9
       -0.002828165 -0.00044844922 -0.0022741407 -0.00016089636
000260 b2 c1 fe ba 1a c1 f5 b8 f8 85 d6 ba 3a 86 b5 b9
       -0.0019436388 -0.00011718478 -0.001636683 -0.00034623017
000270 5e 84 ae ba ce 1f f1 b9 b0 03 5a ba fc 71 e4 b9
       -0.0013314595 -0.00045990798 -0.00083165895 -0.00043572474
000280 6d 09 fc 3c 62 50 2c 9b 0c b2 15 bd f6 58 82 3c
       0.030766213 -1.425348e-22 -0.03654675 0.01591156
000290 5d 9f da bc bf f4 a4 3b 9c 85 a8 bc 53 9c bd 3b
       -0.026687318 0.005034059 -0.020571522 0.0057864576
0002a0 08 30 8c bc 05 04 ab 3b 07 76 65 bc 59 1c a9 3b
       -0.017112747 0.005218985 -0.014005191 0.00516085
0002b0 b5 e0 24 bc 9e 32 a8 3b aa aa c8 bb 56 1b cf 3b
       -0.01006334 0.005132987 -0.0061238604 0.0063203974
0002c0 b7 52 3d 3c 40 87 d9 17 00 b6 36 37 a1 2b 70 3b
       0.011555365 1.4057438e-24 1.08904205e-05 0.0036647099
0002d0 bc 06 c5 3a 68 84 73 b9 48 8f f4 3a 9f 55 28 bb
       0.0015031914 -0.00023223611 0.0018658424 -0.00256858
0002e0 cc 79 ee 3a fa 02 45 bb 26 2c e7 3a 04 2b 3f bb
       0.0018194257 -0.0030061589 0.0017637059 -0.0029169926
0002f0 3b 2a bd 3a 80 76 32 bb 96 14 58 3a 3b ff a5 ba
       0.0014432141 -0.0027231276 0.00082428136 -0.0012664566
000300 81 ed 93 3c e0 8a fe 98 9a 16 31 3a 20 95 ed ba
       0.018057587 -6.579769e-24 0.0006755382 -0.0018126108
000310 98 6c fe 38 57 ee b2 ba 42 5b 87 39 b2 67 84 ba
       0.00012131891 -0.0013651353 0.000258172 -0.0010101704
000320 94 ba 97 39 38 67 41 b9 60 86 ea 39 79 61 32 ba
       0.00028939976 -0.00018444366 0.00044732075 -0.00068046857
000330 a1 a5 04 3a 04 8d 48 ba 2f b3 70 3a c9 23 53 ba
       0.0005060081 -0.00076504075 0.0009181974 -0.00080543436
000340 41 74 ef bc 80 8b e1 99 98 6f ec bb a1 f7 a6 ba
       -0.029230239 -2.3320798e-23 -0.0072154514 -0.0012738594
000350 2e 78 da ba f8 83 a3 b9 30 5e 5f 39 98 3c ae 38
       -0.0016667896 -0.00031188107 0.00021302025 8.308253e-05
000360 36 f3 6c 3a 12 0c 22 b9 9d f1 95 3a 92 c2 32 b9
       0.0009038927 -0.0001545402 0.0011439804 -0.00017047886
000370 05 a0 af 3a 4a fc 1e 38 5e ae c7 3a d4 d2 e8 38
       0.001339913 3.7905098e-05 0.0015234461 0.00011101892
000380 d1 f1 89 3c 94 07 c7 1a 79 e0 af 3b 3e 0a 64 ba
       0.01683894 8.2316714e-23 0.0053673354 -0.0008699036
000390 16 33 64 3b 8d 35 ba 3a 14 bd 68 3b d6 76 00 3b
       0.0034820489 0.0014206633 0.003551309 0.0019602082
0003a0 cd b9 82 3b 26 2c 98 3a 2c de 8b 3b 88 84 84 3a
       0.0039894343 0.0011609837 0.0042684283 0.0010110298
0003b0 2d cc 80 3b 07 4c 7d 3a 1d a0 94 3b 80 e7 af b7
       0.0039305896 0.0009662513 0.0045356886 -2.0969426e-05
0003c0 0d a4 c4 bd f0 26 e1 17 22 5b 74 ba 2c 0d d9 ba
       -0.09601603 1.4550113e-24 -0.0009321441 -0.0016559712
0003d0 cd 4d 41 3b 9a bf d1 b9 a5 79 34 3b 08 14 28 ba
       0.0029495836 -0.0004000634 0.0027538326 -0.00064116763
0003e0 98 f2 10 3b 88 ce 66 ba cd e8 da 3a ba d5 34 ba
       0.0022117253 -0.0008804579 0.001670146 -0.0006898303
0003f0 92 2f 87 3a 20 54 17 ba c8 59 ca 39 a6 c3 19 ba
       0.001031386 -0.00057727285 0.00038595335 -0.00058656407

convs.weight.1.tensor f4 [32, 32, 8, 2]
000000 77 8b 4f 3c 64 a8 dc 1a 0e 58 b1 35 9c 82 09 b7
       0.012667528 9.126192e-23 1.3213155e-06 -8.196246e-06
000010 74 34 98 35 96 45 fe b6 42 56 fc 35 2e 27 2b b7
       1.1340148e-06 -7.5778908e-06 1.8800567e-06 -1.02015165e-05
000020 de e9 a8 35 f8 00 57 b7 86 d5 d8 35 3a de 1e b7
       1.258504e-06 -1.2815224e-05 1.6155398e-06 -9.469275e-06
000030 42 af 9c 35 e6 0b 91 b7 5a ee b6 36 da 7b b2 b7
       1.1673912e-06 -1.7290888e-05 5.4517704e-06 -2.1276926e-05
000040 87 67 10 3d e2 0f 2b 99 ba 36 99 36 8d af d9 36
       0.03525498 -8.8437e-24 4.5661263e-06 6.4875408e-06
000050 3a d8 ea 35 0e 4f 20 37 20 8a 66 b6 92 bf e6 36
       1.7497289e-06 9.5551495e-06 -3.435307e-06 6.876836e-06
000060 be 2e cb 34 15 a9 3c 37 4d 15 80 b6 36 6c 84 37
       3.7845706e-07 1.1245041e-05 -3.817177e-06 1.5786016e-05
000070 a2 28 29 b6 09 b2 fc 36 c4 36 ca 35 c7 ef 02 37
       -2.5206614e-06 7.5309113e-06 1.5066112e-06 7.804431e-06
000080 08 b8 65 3c 4e 6d ef 9a db a3 c7 37 5f eb f6 37
       0.014020927 -9.9024674e-23 2.379895e-05 2.9435088e-05
000090 59 a3 8c 36 08 56 07 38 df c3 48 37 e3 37 31 38
       4.1913413e-06 3.226663e-05 1.1966534e-05 4.2252137e-05
0000a0 fc dd 7f 37 4d f0 40 38 f8 85 7d 37 f4 bd 7c 37
       1.5250869e-05 4.6000165e-05 1.5111167e-05 1.5064597e-05
0000b0 4b fe 98 37 2d 43 75 38 2c c5 6d 37 74 b1 69 38
       1.8238226e-05 5.8475114e-05 1.41722085e-05 5.5716795e-05
0000c0 ff 85 30 3d fa 09 73 99 7d 02 c9 35 f6 31 62 36
       0.04309654 -1.256482e-23 1.4976391e-06 3.3705705e-06
0000d0 9d e4 af b6 40 4e c8 34 a4 0f 82 35 16 32 ed 36
       -5.2420205e-06 3.7309837e-07 9.690307e-07 7.068981e-06
0000e0 ab 38 90 b6 10 98 ed 36 04 d6 c1 35 70 e4 fe 36
       -4.2981314e-06 7.080853e-06 1.4441907e-06 7.5963835e-06
0000f0 88 40 5d 35 30 48 2a b6 49 12 5e b6 4e 8b 76 37
       8.242282e-07 -2.5373993e-06 -3.3091221e-06 1.4695177e-05
000100 0a 48 80 3d e9 c6 23 9a b8 eb c1 b3 3c ab 6e b6
       0.0626374 -3.3868288e-23 -9.03014e-08 -3.5564435e-06
000110 74 6b ad 35 ae b1 99 b6 e0 20 98 35 6d 69 9f b6
       1.2920777e-06 -4.58044e-06 1.133445e-06 -4.7508424e-06
000120 90 f2 d4 35 00 e3 b3 b6 50 f5 1c 36 c1 b8 f6 b6
       1.5865826e-06 -5.361042e-06 2.3388602e-06 -7.3528795e-06
000130 27 25 03 36 62 98 0b b7 c6 10 84 36 f5 40 07 b7
       1.9542147e-06 -8.320525e-06 3.9358592e-06 -8.061751e-06
000140 dc 83 93 bc 56 b9 59 9b 0f 23 bf b7 56 2f c0 b7
       -0.018007211 -1.8009705e-22 -2.27853e-05 -2.2910226e-05
000150 2f 77 76 b7 41 d8 01 b8 00 fc 16 b7 0f d2 15 b8
       -1.4690492e-05 -3.09574e-05 -8.99937e-06 -3.572e-05
000160 4d f3 d0 b6 84 3b 27 b8 5c 49 24 b7 b6 0b f5 b7
       -6.227207e-06 -3.987133e-05 -9.792242e-06 -2.921173e-05
000170 a5 59 1a b7 d0 7a 9b b6 ad b3 de b6 66 b4 3f b8
       -9.199987e-06 -4.633657e-06 -6.6370326e-06 -4.5705958e-05
000180 2b 1c 3c 3d 38 c8 ff 9a 4a 04 00 ba 40 9f b0 39
       0.0459253 -1.05789e-22 -0.00048834516 0.00033687986
000190 3e 79 b0 b9 51 9c 40 39 4a f3 99 b9 90 1f 4a b7
       -0.00033659668 0.0001836878 -0.000293637 -1.2047487e-05
0001a0 f0 cd 37 b9 b9 06 0d 39 e1 42 7f b9 ed ac f1 39
       -0.00017528958 0.00013449312 -0.0002434361 0.00046095942
0001b0 6c f7 47 b9 64 3f 27 3a 7b a1 b2 b9 01 a8 10 3a
       -0.0001907029 0.00063799904 -0.00034071118 0.00055181986
0001c0 dc 61 93 bb 80 86 24 1a bc 89 ea b8 0c 59 8b 38
       -0.0044977497 3.4023053e-23 -0.000111836445 6.644623e-05
0001d0 74 85 53 b9 f6 32 73 39 9e 4f 65 b9 14 99 82 39
       -0.00020172243 0.0002319327 -0.00021868802 0.00024909584
0001e0 32 8e 7f b9 70 0b 93 37 04 13 93 b9 ec 84 ce b8
       -0.00024371667 1.7529092e-05 -0.00028052193 -9.847604e-05
0001f0 92 13 aa b9 35 43 95 b9 ee 04 a6 b9 6b 37 ce b9
       -0.00032439508 -0.00028469568 -0.0003166566 -0.0003933267
000200 f3 87 a7 3b 5c 6b b5 9a 32 18 f2 37 c8 43 2d 37
       0.005112642 -7.5033294e-23 2.8859915e-05 1.0327385e-05
000210 0c bc af 37 ed 2d ae 36 b7 c4 aa 37 76 2e 0f 38
       2.0949192e-05 5.1909506e-06 2.0357182e-05 3.4137127e-05
000220 f2 56 bb 37 5b 92 e6 37 32 00 82 b7 84 4a 30 38
       2.2332624e-05 2.7486289e-05 -1.5497299e-05 4.2031068e-05
000230 86 16 b6 37 87 72 4e 38 4e 75 50 37 68 d7 52 37
       2.1706579e-05 4.922089e-05 1.2425078e-05 1.2567129e-05
000240 37 25 79 3d 5c 49 2f 9a 65 73 33 b4 28 b5 fd b4
       0.060826506 -3.624841e-23 -1.6712654e-07 -4.725673e-07
000250 7a 87 9f 33 f2 bd 62 b5 6d 31 93 33 38 8f 42 b5
       7.4286575e-08 -8.446797e-07 6.8542114e-08 -7.247904e-07
000260 b2 1a 02 34 40 16 fd 34 bc 4d 9d b4 1a e9 b1 b5
       1.2116905e-07 4.714111e-07 -2.9300088e-07 -1.3255369e-06
000270 ec 98 19 35 38 c8 16 b5 f4 0a 9f 35 54 21 f3 b5
       5.721947e-07 -5.617071e-07 1.1849611e-06 -1.8114611e-06
000280 6c 68 04 3c cf b4 c9 1a 40 0f 1d 34 40 ed 33 34
       0.008081537 8.3423764e-23 1.4627312e-07 1.6756985e-07
000290 47 73 61 37 28 97 d8 b6 5d 3f 68 37 f0 4f ac b6
       1.3437885e-05 -6.4548985e-06 1.38430305e-05 -5.1353054e-06
0002a0 27 21 1b 37 1a d7 22 b7 e0 1f 5f b6 80 6f d8 b7
       9.246439e-06 -9.706035e-06 -3.3248143e-06 -2.5801128e-05
0002b0 ac df 52 37 f8 10 2d b7 ac de a5 37 0c a4 01 38
       1.2569053e-05 -1.0315554e-05 1.9773222e-05 3.0908777e-05
0002c0 7b 9b 8b bb 15 70 c9 19 6e 1e af 37 c4 18 d4 38
       -0.004260478 2.0828182e-23 2.0875796e-05 0.00010113561
0002d0 74 59 83 37 c3 18 4d 39 da 85 bf 36 98 ac d3 37
       1.5658072e-05 0.00019559548 5.707826e-06 2.523353e-05
0002e0 60 0b ef b5 fb b6 77 39 e0 1e 17 b7 4e 2b a0 38
       -1.7810198e-06 0.00023623921 -9.00749e-06 7.637461e-05
0002f0 37 27 90 37 fd bc 14 39 70 e7 41 36 99 ef 6b 39
       1.7184399e-05 0.00014184784 2.8893955e-06 0.00022500604
000300 96 4f 85 3c 86 7a 23 1b 7a 2d 02 37 40 93 95 36
       0.016273301 1.3522633e-22 7.759192e-06 4.457688e-06
000310 4d 96 c1 36 91 62 bd 36 91 05 8d 36 74 18 e7 36
       5.7693455e-06 5.6441136e-06 4.2027755e-06 6.887183e-06
000320 e7 10 2b 37 46 cf 12 37 cd 26 e3 36 c0 5b 3a 37
       1.019633e-05 8.750538e-06 6.769644e-06 1.1107826e-05
000330 da 68 a2 37 70 e6 38 37 30 94 23 37 58 0e 08 37
       1.936073e-05 1.1020908e-05 9.75006e-06 8.109571e-06
000340 6b 40 2c 3d 32 a4 08 1b 69 4b 38 b7 18 5a 0e b8
       0.04205362 1.1302711e-22 -1.0984812e-05 -3.3939345e-05
000350 4c 3d 9c 35 08 5b c8 b7 82 e4 c1 b6 c2 9d 47 b8
       1.1640745e-06 -2.3884248e-05 -5.77845e-06 -4.759222e-05
000360 d0 60 07 35 6e 49 73 b8 dd 09 57 b7 2e 5e 9a b8
       5.04323e-07 -5.80041e-05 -1.2817295e-05 -7.3608346e-05
000370 c8 33 1c 36 95 ba b6 b8 08 42 4a b7 e0 f0 12 b8
       2.3275952e-06 -8.71319e-05 -1.2055512e-05 -3.5033445e-05
000380 32 37 c0 3b e1 28 e0 9a a3 c4 f2 b7 1e 40 b4 37
       0.005865955 -9.271027e-23 -2.8940214e-05 2.1487529e-05
000390 83 dd 26 b8 c1 b1 39 38 9d e8 35 b8 00 cb 2f 36
       -3.9783783e-05 4.4272983e-05 -4.33704e-05 2.6195194e-06
0003a0 c1 39 30 b8 b4 aa a5 38 8c 78 59 b8 3f bb bb 38
       -4.2015457e-05 7.899609e-05 -5.18491e-05 8.951732e-05
0003b0 38 98 33 b8 7d 10 bb 38 20 6b 4a b8 6a 3e 05 39
       -4.281869e-05 8.919926e-05 -4.826032e-05 0.0001270712
0003c0 3a 87 e5 bb b0 4f 1c 9a c3 85 04 b8 1c d3 ea b7
       -0.0070046457 -3.2324415e-23 -3.1595828e-05 -2.799328e-05
0003d0 30 dd 24 b6 b9 4e 0e b8 30 13 8f b7 41 4d 10 b8
       -2.4566652e-06 -3.3928754e-05 -1.7055863e-05 -3.4404224e-05
0003e0 dd 05 59 b7 c6 00 3b b8 86 32 81 b7 11 7c 37 b8
       -1.2935573e-05 -4.4584995e-05 -1.5401525e-05 -4.3746146e-05
0003f0 f0 73 7f 35 f0 e3 bb b7 76 0d 6d b7 48 11 9e b6
       9.5163614e-07 -2.2398279e-05 -1.4129435e-05 -4.7107787e-06

convs.weight.2.tensor f4 [32, 32, 8, 2]
000000 02 59 58 3d 96 e0 d8 9a fb 77 c0 b7 e4 0c 45 b6
       0.05281926 -8.9698344e-23 -2.2944054e-05 -2.936279e-06
000010 3e b5 26 b7 c5 f1 62 b7 0d c8 01 b7 80 14 99 b7
       -9.93657e-06 -1.3526941e-05 -7.735577e-06 -1.8248567e-05
000020 ba 15 c9 b6 ca f9 98 b7 24 2d b0 b6 ec 04 cf b7
       -5.992796e-06 -1.823613e-05 -5.250464e-06 -2.4678615e-05
000030 5b ba 87 b6 54 02 41 b7 14 f9 7e b5 d2 9e 98 b7
       -4.045008e-06 -1.15042385e-05 -9.498483e-07 -1.8193768e-05
000040 02 9c 61 3c 72 42 d6 17 c9 a5 71 b8 4b 20 80 b8
       0.013770105 1.3846199e-24 -5.7613277e-05 -6.109531e-05
000050 82 22 1f b8 b4 d5 da 36 c0 36 24 36 fc 02 46 b5
       -3.7940692e-05 6.5217846e-06 2.4469773e-06 -7.376509e-07
000060 2d b4 06 b8 60 ec 3c 36 44 df f2 b7 09 21 47 37
       -3.211589e-05 2.8151771e-06 -2.8952614e-05 1.1869016e-05
000070 1a 93 e4 37 03 56 e2 37 16 8f 06 b8 0e f3 b5 36
       2.7248218e-05 2.6981352e-05 -3.208135e-05 5.4225156e-06
000080 22 63 c5 bb a4 3e a6 9a c5 b8 34 38 40 e9 54 b8
       -0.0060237804 -6.875719e-23 4.3087424e-05 -5.076197e-05
000090 28 21 0f 36 2d ec 82 38 f5 a6 ee b7 69 9a 5c 38
       2.132796e-06 6.242874e-05 -2.8449556e-05 5.2595893e-05
0000a0 fe ac 13 38 4c 74 22 38 77 ba f6 37 8a 5a 84 b7
       3.5208643e-05 3.873212e-05 2.9412315e-05 -1.5777787e-05
0000b0 c1 44 ae 37 d5 ec 89 38 01 14 c4 37 9a 83 62 38
       2.0774432e-05 6.5767825e-05 2.3374336e-05 5.4005162e-05
0000c0 a9 33 46 3d 64 a0 93 1a 30 1c 81 36 2f 94 08 b8
       0.04838911 6.10569e-23 3.847781e-06 -3.2562933e-05
0000d0 87 d3 0b 38 94 1f 26 b8 95 b0 c5 b7 60 c4 00 36
       3.3337183e-05 -3.9606894e-05 -2.3566457e-05 1.9187792e-06
0000e0 48 4f ed b7 84 0a 23 37 47 54 ae b7 b3 ff 32 38
       -2.828952e-05 9.7180055e-06 -2.0781661e-05 4.2676646e-05
0000f0 48 68 8c 37 94 7d d9 b6 0b 95 23 b8 e9 71 30 37
       1.673786e-05 -6.481723e-06 -3.9001035e-05 1.0516939e-05
000100 c2 12 58 3d 62 90 b1 9a 56 0a c8 b6 a8 b7 71 36
       0.052752264 -7.343875e-23 -5.9616677e-06 3.60187e-06
000110 d0 d7 79 35 58 bd 25 b7 26 ac 95 b5 30 cb 18 b7
       9.3073777e-07 -9.878851e-06 -1.1151467e-06 -9.107214e-06
000120 91 89 0f b5 d8 3e 24 b7 d0 6c 1b b6 39 b1 34 b7
       -5.3471837e-07 -9.789794e-06 -2.3160137e-06 -1.0770099e-05
000130 38 72 93 b4 9d 0d 44 b7 e1 d7 a5 b5 14 da 7b b7
       -2.746399e-07 -1.168568e-05 -1.2356287e-06 -1.5011541e-05
000140 10 83 11 bc 29 37 80 9a a7 b2 17 38 cd 1c 04 39
       -0.008881345 -5.3028675e-23 3.616759e-05 0.0001259923
000150 c6 07 4b 37 34 89 f6 b8 f8 2b 72 b6 12 6a 99 b8
       1.2101553e-05 -0.0001175575 -3.6086403e-06 -7.315366e-05
000160 6f 7d f5 37 68 f0 90 b8 90 fd ab b5 d8 2c a3 b8
       2.9264686e-05 -6.911234e-05 -1.2814289e-06 -7.7807985e-05
000170 a8 80 3c 36 ae 4e 6e b8 c8 59 42 36 b4 a7 59 b8
       2.808907e-06 -5.6816898e-05 2.8960512e-06 -5.1893017e-05
000180 dd 66 f6 3c 38 b9 54 1a 12 d0 9f 39 fb d5 06 ba
       0.030078346 4.399019e-23 0.00030481868 -0.000514358
000190 44 7f 7b 39 70 6d 13 3a 8a b9 83 39 da 7e dc 39
       0.00023984635 0.00056239124 0.00025124504 0.00042056182
0001a0 20 fd 31 b8 9f ab 07 3a 6d 45 40 ba fc 27 3f 39
       -4.243583e-05 0.0005175415 -0.0007334564 0.00018230075
0001b0 25 ba 13 ba f5 e0 df 39 96 26 4f b9 4a 3c c1 39
       -0.00056353427 0.0004270148 -0.00019755433 0.00036856747
0001c0 47 11 e0 3b a2 2c d7 1a 26 ef 52 b9 9e 50 34 ba
       0.006837997 8.8994024e-23 -0.0002011625 -0.0006878468
0001d0 38 cb fa 39 0a 05 f0 39 84 5d 1a 39 ca 0f f1 39
       0.00047835126 0.00045780122 0.00014721422 0.00045978866
0001e0 64 1d 9b 38 e4 b9 04 3a 30 7d 8a b7 72 7d 07 3a
       7.3964504e-05 0.00050631 -1.6509177e-05 0.0005168534
0001f0 5c 31 b7 b8 d1 bf 97 39 f0 76 9c 37 10 28 a3 39
       -8.735314e-05 0.0002894388 1.8652034e-05 0.00031119632
000200 97 1e 1b bb 69 5a c9 9a 6f 1e ca 38 a8 b2 ad 38
       -0.0023669356 -8.327772e-23 9.637779e-05 8.28256e-05
000210 c6 14 c1 38 0b 74 cf 38 40 7f 4a 36 d4 46 13 38
       9.2068265e-05 9.892144e-05 3.0174415e-06 3.5113495e-05
000220 f8 ad b5 38 c4 82 e3 37 4c 7f 42 b8 c5 38 13 38
       8.663157e-05 2.7121401e-05 -4.637176e-05 3.5100402e-05
000230 5c 0a 8c 38 bd e7 2b 38 3e 8a fc 37 88 cf 81 b7
       6.67765e-05 4.09854e-05 3.0105115e-05 -1.5474638e-05
000240 77 b2 f8 3d 74 40 54 19 8f ef 72 37 92 86 70 b7
       0.121434145 1.0973159e-23 1.4480101e-05 -1.4336447e-05
000250 67 ad e9 36 1f ec 71 b7 af 62 43 37 f5 bd 49 b6
       6.964128e-06 -1.4419696e-05 1.1645882e-05 -3.0061904e-06
000260 56 2f 29 37 bf fa 80 36 61 f0 11 37 50 d3 2c 36
       1.0084206e-05 3.843888e-06 8.698641e-06 2.5752997e-06
000270 ad 6b 04 37 d3 d5 0d 36 62 0e a4 36 20 43 25 34
       7.892883e-06 2.11351e-06 4.8892553e-06 1.5391242e-07
000280 37 67 fd 3b c2 d7 a6 1a e5 ab 50 38 a0 53 e6 36
       0.0077332514 6.9004566e-23 4.9751154e-05 6.8642694e-06
000290 73 c4 33 38 cb 29 57 37 c1 73 9e 37 e2 05 ad b6
       4.2859883e-05 1.2824729e-05 1.888897e-05 -5.1564866e-06
0002a0 c6 56 3b 37 48 86 d3 b5 b0 52 0f 35 c1 36 f5 b6
       1.1166272e-05 -1.5759806e-06 5.339198e-07 -7.307943e-06
0002b0 fd 42 70 37 0e 88 3e b7 68 63 9f 37 4f 77 8b 37
       1.4320712e-05 -1.135656e-05 1.9000567e-05 1.6625649e-05
0002c0 48 26 e3 bb 8a 53 3b 9b 2a fc d2 39 c2 50 19 ba
       -0.0069320537 -1.549527e-22 0.00040242198 -0.00058485207
0002d0 42 70 da b8 e8 28 32 39 4c fa 9b b8 f3 91 2d 39
       -0.0001041596 0.00016990642 -7.4375974e-05 0.00016552936
0002e0 30 3c fd b8 a2 0a 00 39 7e d4 fb b8 8e 3f f9 38
       -0.00012075191 0.00012210992 -0.000120081924 0.00011885083
0002f0 f4 84 86 38 46 77 e1 38 d8 48 5a b8 52 43 64 39
       6.4143824e-05 0.000107510525 -5.204309e-05 0.00021768853
000300 fb 86 7a 3c ec 68 d3 9a a9 bd 78 b7 f8 95 33 b7
       0.015290971 -8.7437065e-23 -1.4826111e-05 -1.0704149e-05
000310 c3 18 15 b7 64 2a ea b6 26 56 dc b6 28 a6 ab 35
       -8.886857e-06 -6.9786784e-06 -6.56654e-06 1.2788851e-06
000320 44 d3 37 b7 b6 37 bb b5 bf b2 0d b7 8e 33 39 36
       -1.0956839e-05 -1.39488e-06 -8.4458725e-06 2.7597157e-06
000330 c3 de 6a b7 17 e7 65 35 ba e9 14 37 8c 4a 2a 35
       -1.3999353e-05 8.564543e-07 8.875906e-06 6.3438415e-07
000340 e9 04 86 3d 70 66 52 9a 52 11 06 b8 46 44 47 b8
       0.06543905 -4.350973e-23 -3.196422e-05 -4.7508882e-05
000350 d4 b4 0c b6 9b f4 e9 b7 e0 b0 81 b5 5b 5f 14 b8
       -2.0966881e-06 -2.7889668e-05 -9.662726e-07 -3.5374756e-05
000360 38 01 b3 37 c0 10 46 b7 48 47 9d 36 20 53 47 b8
       2.133903e-05 -1.180562e-05 4.687263e-06 -4.7522713e-05
000370 f0 64 d0 37 c3 5e 0b b8 ca a0 c0 37 cc 82 90 b8
       2.4842535e-05 -3.3228436e-05 2.2963057e-05 -6.890818e-05
000380 7c 97 de 3b 80 9a 14 98 3a aa 04 39 bc 39 38 b9
       0.0067929607 -1.9206554e-24 0.00012651915 -0.00017569115
000390 a9 ca 19 b8 e0 19 2f 38 a7 ee 26 38 74 14 85 38
       -3.6666785e-05 4.174735e-05 3.9799746e-05 6.345744e-05
0003a0 20 c5 47 b5 61 e6 06 38 5c 1b e4 37 f0 0e 1c 38
       -7.442013e-07 3.2162647e-05 2.7192458e-05 3.720721e-05
0003b0 2e 2c 1a 38 09 43 9f 38 a4 ab 29 37 44 ef 73 38
       3.6757607e-05 7.594197e-05 1.0113148e-05 5.815855e-05
0003c0 28 e9 e1 bb f8 5b d6 9a ae 35 48 b8 c2 bc 6b 38
       -0.0068942495 -8.865691e-23 -4.773371e-05 5.620416e-05
0003d0 05 8e 7b b8 19 3a 1c b9 81 e9 cc b8 5b 15 de b8
       -5.997533e-05 -0.00014898962 -9.7709715e-05 -0.00010589763
0003e0 f7 6f ba b8 78 2b 79 b8 01 d9 ad b8 0a f0 c4 b8
       -8.890026e-05 -5.940671e-05 -8.289703e-05 -9.390719e-05
0003f0 52 39 90 b8 c7 3f aa b8 f0 4f 39 b7 98 bc 89 b8
       -6.877132e-05 -8.118111e-05 -1.1045471e-05 -6.5677974e-05

convs.weight.3.tensor f4 [32, 32, 8, 2]
000000 60 6c 43 bc 6d e0 3b 9b ee c4 2e 38 56 d6 9b 38
       -0.011927694 -1.5540793e-22 4.1668238e-05 7.430899e-05
000010 ea 37 79 38 f0 21 69 36 24 e9 ef 37 a0 41 6e b7
       5.94183e-05 3.473946e-06 2.8599585e-05 -1.4201185e-05
000020 00 1a 80 37 fc 21 91 b6 a4 6c c0 36 48 5c 27 b7
       1.5270896e-05 -4.325293e-06 5.7346933e-06 -9.975462e-06
000030 e4 95 02 b6 22 60 92 b7 0c eb 2c b7 a0 ce 14 b8
       -1.9458757e-06 -1.7449322e-05 -1.0306725e-05 -3.5478384e-05
000040 cc ef d8 bc de 92 e3 1a 9a 3c 83 b8 7a c4 58 38
       -0.026481532 9.4122276e-23 -6.257855e-05 5.1681396e-05
000050 83 a0 9d b7 93 eb 07 38 87 fd f9 b6 e8 63 c8 37
       -1.8790603e-05 3.2405904e-05 -7.4502927e-06 2.388838e-05
000060 40 1e f6 33 e9 f3 9f 37 bc 3f 72 36 50 54 86 35
       1.146077e-07 1.9067857e-05 3.6097908e-06 1.0008316e-06
000070 6c ea 7b b7 18 81 98 37 38 80 50 37 ee 90 7c 37
       -1.5015346e-05 1.8179926e-05 1.2427619e-05 1.5054115e-05
000080 ff 5f c6 bc bf 4d 2a 9b 60 54 e2 35 88 79 7f b7
       -0.024215696 -1.4087192e-22 1.6862869e-06 -1.5227481e-05
000090 52 1b 26 b8 41 37 b9 b7 c4 27 7c b7 e6 03 02 b7
       -3.9602928e-05 -2.2079448e-05 -1.5029629e-05 -7.7495115e-06
0000a0 1f 45 c9 b6 78 cb 08 b6 8d 03 bf b6 08 aa 4b 36
       -5.9983136e-06 -2.0384014e-06 -5.692657e-06 3.0348328e-06
0000b0 06 ea 8e b5 98 67 67 37 76 c9 d9 36 eb 20 d2 37
       -1.0647934e-06 1.3792793e-05 6.490557e-06 2.504928e-05
0000c0 1b ed 44 bc c7 eb 6b 1a b0 60 22 b7 00 42 82 37
       -0.012019421 4.878732e-23 -9.678464e-06 1.5527941e-05
0000d0 12 9a 9a b8 34 66 97 37 d4 86 e3 b7 34 67 af 38
       -7.37199e-05 1.8048195e-05 -2.7123293e-05 8.363873e-05
0000e0 16 0f c4 37 fe 84 77 38 58 b8 e7 37 57 72 2f b8
       2.3372046e-05 5.9013248e-05 2.7623188e-05 -4.182974e-05
0000f0 0d f8 22 38 9b ed 09 38 10 22 61 38 a3 b7 7e 38
       3.8854825e-05 3.2884633e-05 5.3675903e-05 6.0729344e-05
000100 33 a2 4d bd 50 14 46 1b 5a dc 3a 38 5f e6 b0 b8
       -0.050203513 1.638474e-22 4.4551074e-05 -8.435244e-05
000110 ab 33 c3 37 bc 85 8a b7 ff 6b 1d 37 ac b1 46 b7
       2.3269871e-05 -1.6513157e-05 9.383074e-06 -1.1843087e-05
000120 2c e6 70 37 d8 7d bb b6 72 31 83 37 38 12 af b6
       1.4358706e-05 -5.5876844e-06 1.5639442e-05 -5.2175274e-06
000130 b5 1c a6 36 2a 27 5e b7 d2 24 9d b6 ea 17 d1 b7
       4.9505275e-06 -1.324135e-05 -4.683251e-06 -2.4925877e-05
000140 91 25 00 bb 48 20 4a 1b 75 6a 9e 38 ca 89 3d b8
       -0.0019553641 1.6719479e-22 7.553856e-05 -4.5189438e-05
000150 39 d4 15 38 84 6f c8 b6 0b 0b 6d 37 60 a4 e6 35
       3.5722016e-05 -5.9734466e-06 1.4128872e-05 1.7184175e-06
000160 32 86 c7 36 50 70 fe 36 91 e9 a4 35 f4 1d 1a b7
       5.9462845e-06 7.582865e-06 1.2286929e-06 -9.186089e-06
000170 a8 35 28 36 7c 0c ab b7 d4 0b 60 b7 f6 52 ec b7
       2.5065183e-06 -2.0390602e-05 -1.3354194e-05 -2.8172024e-05
000180 2d 94 df 3c 75 3b 9d 9a 8d 09 45 b9 24 8d b2 b9
       0.027292335 -6.5029736e-23 -0.00018790942 -0.00034055964
000190 9e 94 2f b9 71 89 84 39 bc 03 57 b7 75 7e 3f 39
       -0.00016744665 0.00025279404 -1.2815868e-05 0.00018262288
0001a0 00 b2 62 37 6f 85 0a 39 30 62 2a b8 74 15 0f 39
       1.3512094e-05 0.00013210413 -4.0622603e-05 0.00013645535
0001b0 c0 bf 38 37 5d b8 0f 39 17 cc f8 38 3a a1 30 39
       1.10119e-05 0.00013706223 0.00011863576 0.0001684473
0001c0 91 50 65 bc 2c c1 c4 1a d3 36 46 39 dc 8c 5f b9
       -0.013996259 8.1375786e-23 0.00018903175 -0.00021319411
0001d0 9a df 0e b9 60 a4 7a 38 36 e2 e4 b8 e8 8a 9e 38
       -0.00013625473 5.975773e-05 -0.00010914022 7.5599004e-05
0001e0 eb e6 e5 b8 03 a8 aa 38 8f fa 7b b8 f8 68 c3 38
       -0.00010962583 8.137526e-05 -6.0076414e-05 9.3178765e-05
0001f0 5e fd 45 37 80 c1 d0 38 48 63 01 38 de f6 19 39
       1.1801107e-05 9.954255e-05 3.084846e-05 0.00014683182
000200 5e b8 24 bd 6a 54 b5 9a f6 17 94 38 a2 02 f7 b8
       -0.04021489 -7.4996224e-23 7.061653e-05 -0.00011778368
000210 e0 a0 40 b8 3c 0f 5e b7 88 fe 1b 37 88 13 90 b6
       -4.5926194e-05 -1.3235778e-05 9.297983e-06 -4.293808e-06
000220 00 3c 6b 34 0e 9e 89 b7 a8 cc 1b 36 aa 7d 49 b7
       2.1907908e-07 -1.6405273e-05 2.3215925e-06 -1.2009792e-05
000230 18 ec 1a 36 e9 47 d6 b6 8a 3e 65 37 08 f4 25 b6
       2.3085213e-06 -6.3860684e-06 1.3664025e-05 -2.472896e-06
000240 25 8d 9e 3b 36 90 03 9a 57 e8 82 b8 cd f7 86 38
       0.004838603 -2.7206658e-23 -6.24216e-05 6.4357744e-05
000250 33 62 66 38 55 08 db 37 d5 92 d5 37 a7 21 8a 37
       5.492773e-05 2.6110714e-05 2.5459953e-05 1.6466553e-05
000260 3a 3b 2f 37 be 8e 3d 37 e6 4d e0 36 e3 d7 14 37
       1.0444603e-05 1.1298513e-05 6.684789e-06 8.8717525e-06
000270 d8 cd 18 b7 5e 28 07 37 6a c5 19 b7 d0 03 ee 36
       -9.107833e-06 8.056026e-06 -9.165475e-06 7.0933966e-06
000280 02 a2 1a bc 40 a9 f9 1a ad a9 38 b8 1f 26 8c b8
       -0.00943804 1.03257424e-22 -4.402704e-05 -6.682821e-05
000290 a4 c6 ee b7 c4 0a 6b b7 3c 9a 22 b7 3c ef 0a b7
       -2.846431e-05 -1.4009598e-05 -9.691863e-06 -8.281142e-06
0002a0 58 d4 dd 35 0c 20 67 b6 f2 a4 b1 37 50 c4 fb b6
       1.6527583e-06 -3.4440336e-06 2.1176853e-05 -7.5032367e-06
0002b0 cb 20 7c 37 f4 5e 0b 36 52 f2 99 37 70 99 b3 b6
       1.5028006e-05 2.0767884e-06 1.835186e-05 -5.352478e-06
0002c0 0e a4 68 bd 40 8e fb 99 a1 2b 49 39 3e 7d ae b9
       -0.05679708 -2.6010246e-23 0.00019185107 -0.0003328118
0002d0 07 e8 62 b9 1f 28 b2 38 1d 5f f7 b8 07 40 64 38
       -0.00021639476 8.4951746e-05 -0.00011795594 5.4419066e-05
0002e0 2c ab f6 b7 e0 46 fe b6 88 ce e0 36 d7 75 7f 38
       -2.9405193e-05 -7.578041e-06 6.6997636e-06 6.0906485e-05
0002f0 2d fa 02 38 c5 22 78 38 c7 45 89 38 ab 14 cd 38
       3.122741e-05 5.916019e-05 6.545666e-05 9.7790115e-05
000300 4a c0 a8 bb a0 92 79 99 92 14 ba b7 a0 dc 5c 37
       -0.005149876 -1.2902609e-23 -2.2182507e-05 1.316439e-05
000310 c8 87 72 b7 ca 42 1b 37 1c 37 ac b6 5f d6 84 36
       -1.4455938e-05 9.2542705e-06 -5.132415e-06 3.9588626e-06
000320 56 8d 82 b6 38 00 02 36 84 cf b2 b5 fc f5 89 35
       -3.8907556e-06 1.9371637e-06 -1.3322428e-06 1.0278886e-06
000330 00 62 9d 33 a6 b4 2c 35 53 39 22 36 c0 74 a1 b4
       7.328708e-08 6.433787e-07 2.4173248e-06 -3.0073534e-07
000340 8d 1b 0c 3c 06 d5 f0 1a 5b 4d 1a b9 58 4c c7 38
       0.0085514905 9.960583e-23 -0.00014715402 9.5032796e-05
000350 25 52 02 39 d2 79 01 39 ac 3f c2 38 58 37 a7 b7
       0.00012428367 0.0001234778 9.262501e-05 -1.9933723e-05
000360 7a a9 51 38 58 00 87 b8 23 4e 56 38 56 2d d9 b8
       4.998732e-05 -6.437366e-05 5.1094346e-05 -0.00010355811
000370 4f 6d 43 37 3e 1f ee b8 92 f3 27 b8 d8 ae 2c b9
       1.1648356e-05 -0.00011354544 -4.0042745e-05 -0.00016468333
000380 3b 29 90 bc d5 33 a9 1a 0a df e1 b8 1c b3 9a b8
       -0.017597785 6.99805e-23 -0.0001077038 -7.376654e-05
000390 7e 35 09 b9 2c 17 1c 37 09 c0 32 b8 e4 c4 0f b8
       -0.00013085266 9.30372e-06 -4.2617354e-05 -3.4277225e-05
0003a0 82 0b ac b7 dc d0 2b b6 00 05 9d b4 1d 07 cd 36
       -2.0509357e-05 -2.5602558e-06 -2.9247167e-07 6.110304e-06
0003b0 da b7 64 37 74 69 77 37 b4 af de 37 82 c3 d2 37
       1.3632665e-05 1.47469e-05 2.654628e-05 2.5124991e-05
0003c0 7e fd ea b9 f2 e3 ed 1a a0 6f 1b b7 9e 5a 84 38
       -0.00044820824 9.838917e-23 -9.26471e-06 6.311129e-05
0003d0 92 84 37 b7 da 66 42 38 54 5a c8 b6 b0 26 43 b6
       -1.0938516e-05 4.6348992e-05 -5.97098e-06 -2.9079783e-06
0003e0 34 54 a1 36 0a 11 bd b6 b8 70 88 36 94 75 bd 36
       4.8079764e-06 -5.6346225e-06 4.066238e-06 5.646327e-06
0003f0 59 2a 02 b7 c0 3f 17 b7 f6 23 8d b7 d8 ca ac 36
       -7.758464e-06 -9.015144e-06 -1.6825255e-05 5.1496136e-06

fno_skips.0.weight f4 [1, 32, 1]
000000 8d f0 1f 3d 1a 3a 6d 3f 7d 9f 67 3f ca 0f 70 3f
       0.039047766 0.9266678 0.90477735 0.9377409
000010 59 c6 68 3f cd eb 81 3f 80 cd 7b 3f b7 bd 7b 3f
       0.90927655 1.0150086 0.98360443 0.98336357
000020 56 df 19 3f d5 ac 84 3f c9 92 76 3f 4c 13 6e 3f
       0.6010641 1.0365244 0.96317726 0.92998195
000030 a8 a1 77 3f 64 71 6f 3f 70 16 75 3f 90 8a 72 3f
       0.9673104 0.93532395 0.9573736 0.9474268
000040 3d 98 68 3f df 7f 81 3f 20 41 88 3f b8 9c 82 3f
       0.908573 1.0117148 1.0644875 1.0204077
000050 85 94 75 3f 04 33 71 3f 72 32 4e 3f e9 e2 80 3f
       0.9592975 0.9421847 0.80545723 1.0069247
000060 fc 6b 51 3f 29 50 7f 3f 8a 72 85 3f 4c 9d 61 3f
       0.81805396 0.9973169 1.042558 0.8813064
000070 f4 77 1c 3f bc 13 73 3f 5a 1f 7c 3f 31 77 54 3f
       0.61120534 0.9495199 0.9848534 0.8299437

fno_skips.1.weight f4 [1, 32, 1]
000000 a6 bf 25 3e 19 d2 6e 3f 34 96 4b 3f ff 6a 6f 3f
       0.1618639 0.93289334 0.79526067 0.9352264
000010 46 a5 6d 3f 69 ce 57 3f 79 1a 7b 3f ad 1e 7c 3f
       0.9283031 0.8429933 0.9808727 0.9848431
000020 ad 61 60 3f 57 bc 08 3f c2 9b 70 3f 7f 7b 76 3f
       0.8764904 0.53412384 0.9398767 0.9628219
000030 da fb 6c 3f 3a b5 21 3f e2 1e 78 3f 34 ee 43 3f
       0.92571795 0.63167155 0.96922123 0.76535344
000040 80 08 6d 3f b9 08 24 3f 24 9e 86 3f b6 be a8 3e
       0.92591095 0.6407581 1.0517011 0.32958
000050 b5 0d 56 3f c1 32 70 3f fc f9 5b 3f dc 5e 80 3f
       0.83614665 0.93827444 0.8592832 1.0028949
000060 2f 8a 39 3f d7 4d 5f 3f a9 d4 36 3f 59 75 57 3f
       0.72476476 0.8722815 0.71418244 0.84163433
000070 86 84 be 3e 9a 15 7e 3f 8e c1 41 3f c4 5b 62 3f
       0.37210482 0.9925171 0.75685966 0.88421273

fno_skips.2.weight f4 [1, 32, 1]
000000 d5 b4 4c 3f 2a 96 6e 3f 02 a0 64 3f e8 35 6f 3f
       0.7996343 0.9319788 0.8930665 0.9344163
000010 8b 9e 6e 3f 7c 13 4c 3f 4a ce 76 3f e3 8e 7b 3f
       0.9321067 0.7971723 0.9640852 0.982649
000020 55 95 69 3f 03 0b 6e 3f 4e 21 71 3f 6f a8 77 3f
       0.9124349 0.9298555 0.94191444 0.96741384
000030 30 ff 75 3f 47 30 76 3f d6 a5 78 3f 33 19 1f 3f
       0.9609251 0.96167415 0.97128046 0.62147826
000040 b6 f2 6d 3f c3 97 4e 3f 6f f1 84 3f ff 6f 23 3f
       0.9294847 0.8070032 1.038618 0.6384277
000050 ec d1 69 3f 53 58 6f 3f c7 9e 56 3f 90 05 7c 3f
       0.9133594 0.9349415 0.83836025 0.9844599
000060 79 cc 4c 3f b8 27 72 3f 39 88 5e 3f b2 10 51 3f
       0.799995 0.94591856 0.8692661 0.816661
000070 d3 fc 3d 3f df 25 80 3f d3 92 6c 3f 08 20 69 3f
       0.74213904 1.0011557 0.92411536 0.910645

fno_skips.3.weight f4 [1, 32, 1]
000000 62 86 79 3f ec b3 6c 3f 07 ce 6a 3f 66 0a 6b 3f
       0.97470677 0.9246204 0.9172062 0.9181274
000010 48 80 6d 3f 51 31 61 3f 97 ac 72 3f 18 55 7e 3f
       0.92773867 0.87965876 0.947946 0.9934859
000020 6f 42 6c 3f 21 a4 69 3f 1e 70 72 3f 6d 4d 7b 3f
       0.9228887 0.91266066 0.9470233 0.9816502
000030 83 c4 77 3f 5e fa 80 3f 92 1a 79 3f cf 14 5a 3f
       0.9678423 1.0076406 0.9730617 0.85188
000040 11 38 6c 3f ae 17 5e 3f 66 42 84 3f 12 20 5e 3f
       0.9227305 0.8675488 1.0332763 0.86767685
000050 b1 93 71 3f d1 97 6d 3f c7 f6 5e 3f de 6f 77 3f
       0.94365984 0.9280978 0.870953 0.9665507
000060 19 ca 60 3f b3 92 72 3f 1b 74 66 3f 20 9d 63 3f
       0.87808377 0.94755095 0.9002091 0.8891163
000070 76 55 60 3f 20 c8 70 3f d2 44 71 3f 68 26 66 3f
       0.87630403 0.94055367 0.94245636 0.89902353

fno_skips_bc.0.weight f4 [1, 32, 1]
000000 de 87 5e 3f 51 2d 75 3f 69 61 52 3f 70 a1 68 3f
       0.86926067 0.9577227 0.82179886 0.90871334
000010 96 b2 6e 3f cc 3d 6c 3f 24 e0 6e 3f 4c ce 7a 3f
       0.9324125 0.92281795 0.9331076 0.97971034
000020 4c 50 66 3f 12 26 5e 3f e7 b4 29 3f 27 34 79 3f
       0.89966273 0.8677684 0.6629166 0.97345203
000030 aa 98 78 3f 5c d9 53 3f 25 67 79 3f 46 97 64 3f
       0.97107947 0.8275354 0.9742301 0.89293325
000040 bd fd 72 3f ba c4 75 3f f0 fe 77 3f 0a 9a 66 3f
       0.94918424 0.96003306 0.9687338 0.90078795
000050 29 3f 6b 3f 94 f5 72 3f 5f 5a 62 3f 4c 17 71 3f
       0.9189325 0.9490597 0.88419145 0.94176173
000060 7e eb 67 3f d4 05 77 3f bf d8 75 3f 44 ce 09 3f
       0.9059371 0.9649327 0.96033853 0.5383036
000070 1a aa 81 3f 7f a3 77 3f 22 4c 71 3f 2b c8 81 3e
       1.0130036 0.9673385 0.94256794 0.2534803

fno_skips_bc.1.weight f4 [1, 32, 1]
000000 93 03 46 3f 28 ce 6b 3f 50 3e 59 3f ac a6 64 3f
       0.77349204 0.92111444 0.84860706 0.8931682
000010 e3 d9 6d 3f ee ec 30 3f ed 59 6b 3f 70 6c 78 3f
       0.92910594 0.69111526 0.9193409 0.9704046
000020 fc 49 4f 3f 47 05 6c 3f 95 7b 5a 3f 98 9d 7a 3f
       0.80972266 0.9219555 0.8534482 0.9789672
000030 e7 e0 75 3f 59 89 5b 3f 55 5f 78 3f fd 1f 4b 3f
       0.960463 0.8575645 0.97020465 0.79345685
000040 a6 e6 71 3f ce 7d 6f 3f 23 7d 72 3f ce 01 62 3f
       0.94492567 0.9355134 0.94722193 0.88284004
000050 07 43 6a 3f 3a 1e 71 3f 0c 9d 4a 3f e0 ef 6c 3f
       0.91508526 0.9418675 0.79145885 0.9255352
000060 6d ca 58 3f 97 bd 73 3f 39 90 6b 3f 6d 5e 4c 3f
       0.8468388 0.95211166 0.9201694 0.7983158
000070 e7 ce 65 3f f7 c7 6c 3f a4 fe 70 3f c1 a1 4e 3f
       0.8976883 0.9249262 0.9413855 0.80715567

fno_skips_bc.2.weight f4 [1, 32, 1]
000000 3f 42 5b 3f e2 06 62 3f 50 3f 59 3f 3b 6f 5f 3f
       0.8564796 0.8829175 0.8486223 0.872791
000010 3d eb 6b 3f 4d 23 52 3f c3 c4 68 3f d6 5c 77 3f
       0.9215582 0.82085115 0.90925235 0.9662603
000020 39 34 58 3f 8a c4 73 3f 31 b0 5b 3f 35 01 7b 3f
       0.84454685 0.9522177 0.8581572 0.98048717
000030 c7 25 74 3f 49 e2 6e 3f 14 82 76 3f 21 0c 35 3f
       0.95370144 0.93314034 0.96292233 0.7072163
000040 45 fc 6f 3f 2f 32 67 3f e1 91 6e 3f 1d bd 4d 3f
       0.9374431 0.9031095 0.93191344 0.8036669
000050 e5 e8 68 3f c5 ce 6d 3f 73 a9 5b 3f b8 cd 63 3f
       0.9098037 0.9289363 0.85805434 0.88985777
000060 4c 58 45 3f 83 d4 70 3f dc 66 64 3f 39 67 57 3f
       0.77087855 0.9407427 0.8921945 0.8414188
000070 8f 72 52 3f a1 4d 67 3f d8 3e 70 3f 49 1a 4b 3f
       0.8220605 0.9035283 0.9384589 0.7933698

fno_skips_bc.3.weight f4 [1, 32, 1]
000000 16 e5 66 3f 85 1c 52 3f e7 f9 4c 3f df 4b 5e 3f
       0.9019331 0.8207477 0.8006882 0.8683452
000010 ad f4 62 3f 94 ab 46 3f f5 16 65 3f a0 72 78 3f
       0.88654596 0.7760556 0.89488155 0.97049904
000020 8d f6 4d 3f 2e 97 64 3f 8d 30 4d 3f c2 5e 7b 3f
       0.8045433 0.8929318 0.8015221 0.98191464
000030 a3 e7 6c 3f 0f 56 6f 3f 3f c3 70 3f 3b f4 3a 3f
       0.9254095 0.9349069 0.9404792 0.73028916
000040 ac 3f 66 3f 5d 72 4d 3f 39 ab 6a 3f 8f e6 37 3f
       0.89940906 0.8025263 0.91667515 0.7183618
000050 43 5b 5d 3f 98 ea 61 3f 88 b7 5a 3f 50 49 4f 3f
       0.8646738 0.88248587 0.85436296 0.8097124
000060 33 47 3e 3f ed 1f 62 3f b7 f5 5c 3f d8 6f 47 3f
       0.7432739 0.88329965 0.8631243 0.77905035
000070 5a e4 4c 3f 27 c9 4f 3f 14 5a 6a 3f bd a8 30 3f
       0.80035937 0.8116631 0.915437 0.69007474

aggregate.0.weight f4 [1, 32, 1]
000000 e6 a2 ff 3e 26 4e 6b 3f 40 9f 40 3f 7b 38 66 3f
       0.4992897 0.9191612 0.75242996 0.8992993
000010 f8 a3 6c 3f 86 ac 14 3f cd 58 64 3f de 56 7a 3f
       0.92437696 0.5807575 0.89198 0.977888
000020 7c 2d 58 3f de a0 44 3f 2d 21 58 3f 6a b4 76 3f
       0.84444404 0.76807964 0.8442562 0.9636904
000030 7f 41 73 3f a7 f9 0f 3f 43 b3 76 3f 66 e4 f5 3e
       0.95021814 0.56240314 0.9636728 0.48025817
000040 aa 11 6e 3f a0 a8 5b 3f 95 4b 6f 3f 3b fd 30 3f
       0.92995703 0.85804176 0.93474704 0.691364
000050 3d 12 67 3f 99 5c 6f 3f 38 b9 fe 3e 5f 58 66 3f
       0.90262204 0.9350067 0.49750686 0.89978594
000060 7d 2c 5b 3f e7 85 6e 3f 49 e1 63 3f 4c eb f0 3e
       0.8561476 0.9317307 0.8901563 0.47054517
000070 9b 09 49 3f a3 f1 59 3f 72 2c 63 3f 87 83 42 3f
       0.7853028 0.85134333 0.88739693 0.75981945

aggregate.1.weight f4 [1, 32, 1]
000000 8d 8e a3 3e e6 34 66 3f 02 1d 59 3f e0 f7 64 3f
       0.31944695 0.89924467 0.8480989 0.8944073
000010 63 e4 6b 3f 02 1e 45 3f b2 5d 62 3f c0 ff 78 3f
       0.92145365 0.76998913 0.8842422 0.97265244
000020 03 ca 56 3f 30 19 26 3f d3 c8 5b 3f c1 48 78 3f
       0.83901995 0.64882183 0.8585331 0.96986014
000030 06 a3 73 3f 7a b0 97 3e d8 31 76 3f a8 09 c3 3e
       0.9517063 0.29626828 0.96169806 0.38093305
000040 fe de 6c 3f 4e 56 5b 3f c5 a7 6c 3f 01 5c 36 3f
       0.9252776 0.85678566 0.92443496 0.71234137
000050 8f d8 68 3f 1b e1 6c 3f a2 aa 2b 3f c9 00 61 3f
       0.9095544 0.92530984 0.6705724 0.87891823
000060 ff 15 41 3f 30 19 70 3f 95 c2 63 3f be 90 43 3f
       0.7542419 0.93788433 0.88968784 0.76392734
000070 bc 27 1d 3f 41 25 6f 3f dc a4 6e 3f f1 a0 27 3f
       0.61388755 0.9341622 0.93220305 0.6547995

aggregate.2.weight f4 [1, 32, 1]
000000 6f e9 57 3f c9 b4 5a 3f 23 f0 59 3f be ed 5e 3f
       0.84340566 0.85432106 0.85132045 0.87081516
000010 3d d0 69 3f 5a 7b 4e 3f b2 a2 63 3f 8b 95 76 3f
       0.9133337 0.8065697 0.8892013 0.96321934
000020 0f 2b 59 3f 88 d8 71 3f 67 2a 59 3f 31 43 77 3f
       0.8483133 0.94471025 0.84830326 0.965869
000030 15 3a 72 3f 70 ae 77 3f 3b f1 73 3f 69 fa 27 3f
       0.94619876 0.96750546 0.95289963 0.6561647
000040 bb b0 69 3f cd 50 50 3f 45 57 68 3f 4a e3 19 3f
       0.91285294 0.8137329 0.9075816 0.6011244
000050 f5 75 67 3f 83 c2 67 3f c7 05 5a 3f ab 5c 59 3f
       0.90414363 0.90531176 0.85165066 0.84907025
000060 b0 a8 2f 3f 9a 08 6d 3f 18 34 5a 3f 2b 70 52 3f
       0.6861677 0.9259125 0.8523574 0.82202405
000070 c9 e2 38 3f aa ee 68 3f 10 17 6f 3f 14 b9 2e 3f
       0.72221047 0.9098917 0.93394566 0.68251157

aggregate.3.weight f4 [1, 32, 1]
000000 6c 9a 67 3f f5 ec 55 3f 96 71 58 3f 09 69 5c 3f
       0.90470004 0.8356469 0.8454832 0.8609777
000010 24 5c 61 3f 78 1d 4f 3f 2e 1c 64 3f a0 39 77 3f
       0.8803122 0.8090434 0.891055 0.96572304
000020 d7 e6 50 3f 7a 44 5e 3f 2b 3f 41 3f 38 13 7a 3f
       0.81602234 0.86823237 0.7548701 0.97685575
000030 de 5d 6e 3f 46 06 6a 3f 99 c1 6f 3f 1a 60 44 3f
       0.9311198 0.9141582 0.9365478 0.7670914
000040 6f a3 5f 3f ab 5d 45 3f 84 3f 64 3f a6 48 49 3f
       0.87358755 0.7709605 0.8915942 0.7862648
000050 f7 14 5c 3f 8f 81 5e 3f 6b 98 5e 3f 87 8c 3d 3f
       0.8596949 0.8691644 0.8695132 0.7404255
000060 af e4 3f 3f 68 83 65 3f b8 8c 52 3f 4c f4 4d 3f
       0.7495832 0.89653635 0.8224597 0.8045089
000070 41 79 53 3f 23 d0 4f 3f 4b e8 6d 3f 58 d6 1d 3f
       0.82606894 0.81176966 0.92932576 0.6165519

lifting.fc.weight f4 [32, 1, 1]
000000 4e 21 96 3f 58 fa 94 bd 11 26 51 be 14 54 45 3f
       1.1728914 -0.07274312 -0.20424677 0.7708142
000010 97 6d 08 bf 44 6c d8 3c 4b 3c 6b 3f ac 21 0a be
       -0.5329222 0.026418813 0.91888875 -0.13489407
000020 60 cf 37 3e db 46 0f bf f3 c2 fa 3e a3 a6 2f bf
       0.17950201 -0.5596749 0.4897686 -0.6861364
000030 2f 47 13 bf 2f 67 2f bf 2f c7 14 be 98 24 80 be
       -0.5753049 -0.6851682 -0.14529108 -0.2502792
000040 50 5c 59 bf fa b1 89 bf d7 90 7e 3f 41 fb b5 be
       -0.8490648 -1.0757439 0.9943976 -0.35543254
000050 a7 cb ea be f9 20 cc bd 5c 29 46 bf 9b ed 6b 3f
       -0.458585 -0.099672265 -0.7740686 0.9215943
000060 5e 2b 2b bf 6f 73 3d bf f9 f7 b2 be 66 22 02 bf
       -0.6686305 -0.7400426 -0.34954813 -0.5083374
000070 ed f2 d8 3e 51 b3 fa 3e b7 27 2d bf 54 55 08 3f
       0.42372838 0.48964933 -0.67638725 0.532552

lifting.fc.bias f4 [32]
000000 9b 3d 10 bf 40 cc bc 3e 78 ac f3 3c 5b 78 a6 3c
       -0.56344 0.3687458 0.029745325 0.020321062
000010 0e e1 3b 3f cf 63 21 bf 99 17 5e 3f 83 b5 61 3f
       0.7339028 -0.6304292 0.8675476 0.8816759
000020 62 6f 9b bd a2 1f 8f bd 7f 13 ac bd 2c e9 18 3f
       -0.07589604 -0.06988455 -0.08402156 0.5973079
000030 ad e6 72 3e 71 8a 38 3e f1 3f 8d 3e 2c da 2c bf
       0.23720808 0.18021561 0.27587846 -0.67520404
000040 99 9e 65 3f 98 84 00 3f de 05 4a 3e 81 2a 2a bf
       0.89695126 0.5020232 0.197288 -0.66471106
000050 2a b4 d3 3d b9 42 3e 3f e7 35 ad bd 48 8e 07 3f
       0.10337098 0.7432056 -0.08457547 0.5295148
000060 89 70 85 3e 2a 96 52 3e 5e 60 25 bf ba 6f 8a 3d
       0.2606242 0.20565096 -0.6460017 0.067595914
000070 91 28 4e bf 1f d3 4c bf ee 0b e2 3d 95 18 17 be
       -0.8053065 -0.80009645 0.11037432 -0.14755471
