neuraloperator/examples/fno_bc_para001.pth (torch, 281619 bytes, 23 tensors)

convs.bias f4 [4, 32, 1]
00000000: ce15 28bb 0b72 b8bc 4202 f7bb 181b 58be
00000010: 9b44 713a d4ea 8dbc 01bd a43c e266 2fbd
00000020: 8d0a 86bc 6835 b0bc 0533 25bd d245 93bb
00000030: d41b fcbc 3381 81bc 9077 bdbd 5c80 d53c
00000040: ee53 cc3b 2794 71bd b2e6 61bd 0cff 29b9
00000050: 1e08 c63c 4c5a ac3b 7759 2cbd be7a 81bc
00000060: cccb fdbd a8cd 1fba 7e01 41be 3206 90bc
00000070: 772d 253c 0157 10ba cd16 48bc 650c eebd
00000080: 9901 a0ba 2033 863b e37e a83a 32c2 533b
00000090: f75e 23bc 0b62 d0bb 5b2f a63b b638 43bc
000000a0: 6efc 17bc 04a8 41bc 15a4 0ebd de9d 9ebb
000000b0: 1cb3 afbc 8d19 c0bb bbbd cabc 1b5d c1ba
000000c0: bec7 e9b9 21a3 04bd 56f0 4cba 4908 fc3a
000000d0: 005b 48bb fece a2ba bb09 5abc d3bb 34bd
000000e0: 7954 323c f85a 053b ab96 023b 452c efbb
000000f0: 008f 3639 26a7 11bd 3ca2 0cbb 535f 3fbd
00000100: 6a63 b63b 63be 0abd 2815 343c 3411 d0bb
00000110: 2a43 7338 ef83 de3b 3671 173c bf36 a13c
00000120: 7cfe bbba 0d3c 963a f0b3 e1bc f9bd 4dbd
00000130: dc76 1bbd 6b3b 0d3b 1d29 69bd 945c cc3b
00000140: 782b 723b ba90 6dbc 7f90 cd3b bdf2 e03b
00000150: bab9 58ba 8378 c0bb 9b1f 5a3b b145 88bd
00000160: 258b 033b c25e 82bb 5f15 0fbd e457 e13b
00000170: ffc4 533b d746 80bd ca6e 173c 0a6a 94bd
00000180: f1fa bf3c 34f3 cfbc ecf8 ef3c be88 1abc
00000190: 9989 ce3c e60d bd3c 80c8 793c 9df4 2aba
000001a0: 3d2d ad3a deea 073d 8533 c5bc 99f1 1dbd
000001b0: 8675 c9bc bb46 ae3c b081 f6bc d724 053c
000001c0: dea2 903b c9d8 263c 841e 763c 5fa6 993c
000001d0: 9da7 cf3a dbbd 39bc 3326 733c 5d65 53bc
000001e0: 56fb 8f3b 1487 dbbb a76d 47bc 9976 f03c
000001f0: 6b67 923b 5c0d 23bd 6f28 e03c 4399 2dbd
-0.0025647762 -0.022515317 -0.007538111 -0.21104085 0.00092036434 -0.017323889 0.020109655 -0.042822726
-0.016362453 -0.021509841 -0.04033186 -0.004494407 -0.030774988 -0.015808677 -0.0925132 0.026062183
0.006235591 -0.05897918 -0.05515165 -0.00016212108 0.024173792 0.0052597877 -0.042077508 -0.015805598
-0.12392387 -0.0006096014 -0.18848225 -0.01758108 0.01008164 -0.00055061287 -0.012212467 -0.11623458
-0.0012207507 0.00409545 0.0012855198 0.0032311794 -0.009971372 -0.006359344 0.005071563 -0.011915376
-0.0092764925 -0.011819843 -0.03482445 -0.0048405966 -0.02144771 -0.005862421 -0.024748674 -0.0014752479
-0.00044590043 -0.032382134 -0.0007817795 0.0019228543 -0.0030571818 -0.0012421308 -0.013307984 -0.044124436
0.010884398 0.002034841 0.001992623 -0.0072989785 0.00017410144 -0.035559796 -0.0021459004 -0.046721768
0.0055660503 -0.033872973 0.010991372 -0.006349707 5.7998266e-05 0.00679063 0.0092433 0.019679425
-0.001434281 0.0011461988 -0.027551621 -0.05023 -0.03795515 0.0021550308 -0.056923974 0.006236622
0.003695218 -0.0144998375 0.006273329 0.006864874 -0.00082674215 -0.005873741 0.0033282998 -0.066539176
0.002007195 -0.003978581 -0.03493249 0.0068769325 0.0032313464 -0.06263512 0.009242723 -0.07246788
0.023435088 -0.025384523 0.0292935 -0.009432016 0.025212096 0.023077916 0.015245557 -0.00065214356
0.0013212335 0.03318297 -0.024072418 -0.038560484 -0.024592172 0.021273961 -0.030091137 0.008126459
0.0044139465 0.010183522 0.015021924 0.01875609 0.0015842799 -0.011336769 0.01484065 -0.012902585
0.0043939753 -0.006699452 -0.012172139 0.029353427 0.004467895 -0.039807662 0.02736303 -0.04238249

convs.bias_bc f4 [4, 32, 1]
00000000: 6007 e339 8995 f639 d607 3e39 48ff beba
00000010: e6f0 9939 826a da3a 50c2 b5b9 4d3d 3039
00000020: a7b6 133b 6b49 d9ba 9637 b839 9ce3 b83a
00000030: 32b0 94b9 61cd bfb8 f0dd 8139 a786 223a
00000040: ffcc 5f3a fdf3 443a 0c04 2d3a 7db5 c43a
00000050: 9b06 fe39 2e63 afb9 ad7f bf3a a8e7 fcb9
00000060: b5b7 42ba 0d3f 8f3a c1ff 5737 a885 29b9
00000070: ce76 29ba e23d 963a 3c41 9e3a 793f b43a
00000080: 0d0f e23a 33e1 f139 e37a 16ba c5d2 e2ba
00000090: 1024 9bba 644d 7a39 e680 563a 2c64 e439
000000a0: a35d df3a e7cd 6136 91a0 fdb9 6af6 66b9
000000b0: 202b 3a3a 468b 6138 a0c0 2c3a 6599 a7b9
000000c0: 93b2 93ba a4f2 1c3a b759 173a c9f4 78b9
000000d0: e43d 683a 7f85 5db9 7ae8 3cba fc45 0bba
000000e0: c3fc aeba 88f9 9a3a 3e60 d739 1ffc 88b9
000000f0: 23bc 1d3a ce97 3cba 8302 523a 8b33 0dba
00000100: 92bf 093a 4f66 92ba 6272 1cba 4a40 e93a
00000110: 82b7 a0ba c8fc 03bb 433c b539 473c deb8
00000120: 6911 2db9 5f65 2fb9 9394 4cba 5a19 823a
00000130: d49c 763a 1585 1fb9 5ee7 033b 0309 1bba
00000140: 95e6 23ba 9645 ae3a 6ef6 4f39 2495 b739
00000150: b38b 41ba af0d ad38 0287 95ba a5b9 87ba
00000160: 0810 b23a 362a af39 c2e4 0c3a 210c 0dba
00000170: 3f0e 0f3a d8dd d2b9 8e10 f139 c86d 0a3b
00000180: 5f74 75ba 3485 2aba aaea 3d3a a899 b3ba
00000190: 33fd 1dbb 75a5 2bba f43b bd3a a49c cc39
000001a0: 228f 623a 5e9e 8e3a 8132 963a 0767 a6b9
000001b0: 08b1 8d3a 2fdd 0eba 6180 05ba 910b ecba
000001c0: 8ad4 76ba 19e9 76ba 0fc7 62b9 7d2f d7ba
000001d0: ec12 0039 11e1 6d39 4e55 deb7 ccf4 043b
000001e0: 7175 9638 682a 8c3a 3208 2039 380b 1439
000001f0: 749c a03a 2be7 913a 0435 e7ba 53e1 cc3a
0.0004330231 0.0004703219 0.00018122731 -0.0014571929 0.00029361917 0.0016663822 -0.00034667784 0.00016807504
0.002253929 -0.0016577666 0.0003513663 0.0014105919 -0.00028360036 -9.1458445e-05 0.00024770154 0.00061998743
0.00085373217 0.0007513164 0.00066000293 0.0015007701 0.00048451577 -0.00033452496 0.0014610194 -0.00048237783
-0.0007427887 0.0010928825 1.2874546e-05 -0.00016166887 -0.00064645417 0.0011462534 0.0012073885 0.0013751826
0.0017246917 0.00046134889 -0.00057403574 -0.0017305246 -0.0011836309 0.00023870688 0.00081826595 0.00043562183
0.0017041456 3.3647464e-06 -0.00048375552 -0.00022026306 0.0007101763 5.377389e-05 0.00065899827 -0.0003196701
-0.0011268429 0.0005987084 0.00057735614 -0.00023742313 0.000885932 -0.00021125934 -0.00072062726 -0.00053128577
-0.0013350475 0.0011823634 0.00041079702 -0.00026127786 0.0006017109 -0.00071942515 0.00080112385 -0.00053864036
0.00052546815 -0.0011169406 -0.0005967972 0.0017795649 -0.0012261721 -0.0020139683 0.0003456791 -0.000105970124
-0.00016505051 -0.00016727064 -0.00078041217 0.0009925768 0.00094075245 -0.00015212999 0.002012692 -0.00059141236
-0.0006252316 0.0013295885 0.0001983286 0.00035015598 -0.00073831825 8.2518316e-05 -0.0011408033 -0.0010355009
0.00135851 0.0003341005 0.0005374664 -0.00053805305 0.000545714 -0.00040219608 0.00045979436 0.0021122564
-0.0009363349 -0.0006504834 0.00072447455 -0.0013702409 -0.0024107217 -0.00065477873 0.0014437423 0.00039026618
0.0008642544 0.0010880937 0.0011459143 -0.0003173875 0.0010810206 -0.0005449829 -0.00050926773 -0.0018008818
-0.0009415826 -0.00094188895 -0.00021627195 -0.0016417351 0.0001221408 0.00022685925 -2.6504185e-05 0.0020287512
7.1744325e-05 0.001069379 0.00015261842 0.00014118559 0.0012253658 0.0011131515 -0.0017639701 0.0015631117

convs.weight.0.tensor f4 [32, 32, 8, 2]
00000000: 2c28 ef3c 706f 009a 3dc2 813b 7654 1f3a
00000010: d80f 843b 38f4 23b8 e48a 7d3a b701 bb39
00000020: c004 2cb8 9ccc 4139 a038 edb9 145d 82b9
00000030: f017 5fba 40db e937 48fa 63ba 808d 0f3a
00000040: 3c57 81bd f62e 541a 36f8 2bb7 b794 09b6
00000050: 84e4 7735 c082 50b5 990f 9f36 3498 4635
00000060: 0d80 0f36 08c9 2bb5 a5f3 bd35 53ed 73b6
00000070: 6ab3 b436 e8cb 2e36 dcb0 2236 bc98 eab6
00000080: 4e3c 433e 88b9 371b 1dc3 6e3d e6be 063b
00000090: 5758 683d 27b2 213b 64c4 6a3d b038 353b
000000a0: 62b7 6b3d 50f3 6d3b 6829 6c3d 463e 8f3b
000000b0: b54e 6c3d de51 9a3b dcb8 6b3d d93c bd3b
000000c0: 6f30 a23c b0c4 fc99 6a5a b6b8 dfb1 0a37
000000d0: 84bb 0eb7 6582 cb37 659a 26b7 ec5c e236
000000e0: 58d5 30b7 910b 2e37 003c cdb7 94e7 0b37
000000f0: 2da1 bdb7 0b3b 26b6 a099 79b7 caa1 ce36
00000100: f5b3 cabc 3ec8 f61a b17b 2a39 768d a8b8
00000110: de36 4438 ba5b b037 b84c 4438 d96e 22b7
00000120: d258 fa37 98fb 9336 93bc b937 88a0 dfb7
00000130: 743f 0ab8 ea43 83b8 14c2 e2b7 1ef6 3338
00000140: baf8 f93a c530 f69a 9ee4 51ba fc34 cab9
00000150: 8dee b739 c886 fa38 3231 083a d9c0 6339
00000160: 0f10 ea39 740e 3db9 ba25 f039 9126 29b9
00000170: 0b50 8139 4822 ddb9 ca47 ca38 a5b1 4db8
00000180: d3ca 97bd 5b89 d21a dec7 76ba 63eb 9eb9
00000190: 427f 2e39 08c0 1439 e35d 2ab9 5296 69b8
000001a0: ea52 24b9 98b7 0139 0059 09b8 2056 2339
000001b0: 009a 6939 68a2 9738 7896 87b8 54e2 2839
000001c0: ffee 6cbd 844a a61a abcb 0cba d041 5d39
000001d0: 5d93 6239 68b9 d2b8 a2a2 3439 6e11 49b8
000001e0: fd85 3b39 b0fe 90b8 70ef 9039 dcc3 1fb8
000001f0: 266e 5439 1207 4e38 c00f a736 4cf0 8d38
00000200: 62c6 e3bc 0235 8c9a 25d1 0939 2baa 6cb8
00000210: 601c 6f37 8083 3636 68ec 26b7 2eec e9b7
00000220: cae7 33b7 8e4c 6db7 7214 4eb7 31ee 02b8
00000230: 6ee3 42b7 82bf 8fb8 7ac9 43b7 9a2e 37b8
00000240: c419 1a3d 5e9f b79a 1632 433b a1e7 1bba
00000250: a386 9fba 407f 7fb9 7ca8 7fba fe55 e739
00000260: c497 f9b9 8862 94b9 9fad 43ba 8080 e735
00000270: 7578 57ba 5dcc 95b9 3f79 1eba a4df aeb8
00000280: e622 013c e66d 319b 5a79 b5ba 2043 5fb9
00000290: d0a6 4a39 4156 aa39 c881 8ab9 69d2 8cb9
000002a0: 5624 3cb9 08a9 c0b8 0a61 1cb9 90bb 6338
000002b0: a64e ecb9 c67e 80b9 8af4 acb9 adc0 9639
000002c0: bcc4 753c 8c52 f89a 696a 0fba b712 c9ba
000002d0: 3417 eb3a 88e4 8c3a d0a8 493b 40b3 7738
000002e0: 184e 723b eb7b c139 609c 853b 67b0 523a
000002f0: 21cf 8d3b 7d47 c139 ce5e 913b 61e1 ec3a
00000300: 543a 9dbc 5c44 571a d463 cf39 80a7 f735
00000310: 0a09 2039 00d0 65b5 6042 fc38 7a01 0037
00000320: a65c 8338 987a d0b7 4458 1a38 065c 3238
00000330: 7d28 01b8 bc70 06b8 e053 9638 e568 a138
00000340: 9f25 623d ef2d a69a 7cfe fcbb a01f 9d39
00000350: 7573 cdbb 9358 9e3a c704 fcbb 72e3 c03a
00000360: dc6c 07bc 10a6 183b b9c1 0ebc 1851 373b
00000370: 1f85 1abc 564b 433b fc73 26bc f972 633b
00000380: b379 51bd 080b 051b 349c 38b9 9530 a637
00000390: 1dd6 1db8 faa4 9937 b332 deb7 6cf2 d6b6
000003a0: 6260 b7b7 3029 f535 2687 c236 d7a0 2cb7
000003b0: e6dc e0b6 b8c2 9d35 b6a2 56b6 d899 16b7
000003c0: e384 61bd 6e0f e41a dde6 20b9 d387 4d38
000003d0: a819 9836 c0e9 ea35 c7c9 5bb8 4ed1 4137
000003e0: f047 26b8 35d0 da37 fe14 46b8 34d0 a137
000003f0: c5df 4238 a6f9 a037 0036 e1b4 2048 bf35
0.02919396 -2.6559798e-23 0.0039599226 0.00060779543 0.004030209 -3.9089675e-05 0.00096718804 0.00035668697
-4.101242e-05 0.00018482137 -0.00045246352 -0.0002486488 -0.0008510342 2.787786e-05 -0.00086966576 0.0005476102
-0.06315467 4.3878507e-23 -1.0250185e-05 -2.0501154e-06 9.2347204e-07 -7.7676304e-07 4.740385e-06 7.398223e-07
2.1383196e-06 -6.3995003e-07 1.4152507e-06 -3.6347963e-06 5.3853046e-06 2.604671e-06 2.4242827e-06 -6.991524e-06
0.19065973 1.5197354e-22 0.058291543 0.0020560562 0.056724872 0.0024672837 0.0573162 0.0027652197
0.057547934 0.0036308356 0.057656676 0.0043714372 0.05769225 0.0047094664 0.057549343 0.005775076
0.019798486 -2.613563e-23 -8.695277e-05 8.266855e-06 -8.507519e-06 2.4260205e-05 -9.930319e-06 6.7461424e-06
-1.054009e-05 1.0373901e-05 -2.4465844e-05 8.338964e-06 -2.2605609e-05 -2.4770295e-06 -1.4877325e-05 6.158113e-06
-0.024744013 1.02066724e-22 0.00016258542 -8.0372134e-05 4.678114e-05 2.1023548e-05 4.680149e-05 -9.681761e-06
2.9843683e-05 4.4102308e-06 2.214153e-05 -2.6658425e-05 -3.296086e-05 -6.259217e-05 -2.7031674e-05 4.290614e-05
0.0019071319 -1.01822007e-22 -0.0008006784 -0.0003856792 0.00035082214 0.00011946034 0.0005195319 0.00021720248
0.00044643923 -0.00018029829 0.00045804476 -0.00016131463 0.00024664434 -0.00042177946 9.645482e-05 -4.9041253e-05
-0.074117325 8.7075874e-23 -0.0009413938 -0.00030311485 0.0001664134 0.00014185917 -0.00016247439 -5.5691526e-05
-0.00015671147 0.00012370793 -3.2746233e-05 0.00015576975 0.00022277981 7.2304916e-05 -6.4653286e-05 0.00016106042
-0.057845112 6.877638e-23 -0.0005370925 0.0002110072 0.00021607937 -0.00010048115 0.00017226723 -4.7938367e-05
0.00017883624 -6.913894e-05 0.00027644215 -3.8090962e-05 0.00020258929 4.9120812e-05 4.9788214e-06 6.768163e-05
-0.027804557 -5.798828e-23 0.0001314325 -5.6425266e-05 1.4252117e-05 2.7196656e-06 -9.949414e-06 -2.7885744e-05
-1.0723199e-05 -1.4144125e-05 -1.2283317e-05 -3.121625e-05 -1.1616254e-05 -6.8544425e-05 -1.1669816e-05 -4.3674e-05
0.03762223 -7.59445e-23 0.0029784492 -0.0005947296 -0.0012170862 -0.000243661 -0.0009752584 0.00044123823
-0.00047606055 -0.0002830217 -0.0007464531 1.724824e-06 -0.00082195486 -0.00028571757 -0.0006045289 -8.338623e-05
0.007881856 -1.4676607e-22 -0.001384537 -0.00021291943 0.00019326364 0.0003248919 -0.00026418106 -0.0002685965
-0.00017942613 -9.186758e-05 -0.00014913469 5.42957e-05 -0.00045072025 -0.00024508516 -0.00032988592 0.00028753784
0.015000518 -1.0270376e-22 -0.00054708734 -0.001534066 0.0017935992 0.001074926 0.0030770786 5.905633e-05
0.0036972817 0.00036904155 0.0040774792 0.000803715 0.00432767 0.00036865092 0.0044363504 0.0018072539
-0.019192852 4.4516178e-23 0.00039556494 1.8451683e-06 0.00015262156 -8.561183e-07 0.0001202866 7.629738e-06
6.263824e-05 -2.485262e-05 3.6798665e-05 4.252421e-05 -3.0793704e-05 -3.205308e-05 7.16818e-05 7.6966164e-05
0.05521166 -6.87302e-23 -0.0077207666 0.00029968936 -0.006269867 0.001208084 -0.007690999 0.0014716221
-0.0082657 0.002329234 -0.008713179 0.002797192 -0.009431153 0.0029799542 -0.010159489 0.003470598
-0.051141452 1.1005067e-22 -0.00017605798 1.9811365e-05 -3.7631125e-05 1.8315844e-05 -2.6488071e-05 -6.4059186e-06
-2.1860182e-05 1.826591e-06 5.797384e-06 -1.0289447e-05 -6.701436e-06 1.1754082e-06 -3.1983195e-06 -8.976516e-06
-0.05505837 9.432352e-23 -0.00015344792 4.9002305e-05 4.53294e-06 1.7502389e-06 -5.240159e-05 1.1552429e-05
-3.964448e-05 2.6084579e-05 -4.722643e-05 1.9289648e-05 4.6461606e-05 1.9189738e-05 -4.1948806e-07 1.42516e-06

convs.weight.1.tensor f4 [32, 32, 8, 2]
00000000: 1fca 15bd 0a59 091b 86c4 173a d50e 0eba
00000010: 39a6 f239 f383 f939 d8df 0aba 3787 51b9
00000020: 8611 6aba 5f7a 9e39 b6cd b0b9 c4a0 d4b9
00000030: 46f5 5f39 3f05 1c3a 6716 3fba deb0 e439
00000040: e5ad 9cbc c04e a39a 667e ba38 b8b0 75b7
00000050: f0ac 3e38 dc7a 84b8 4cd3 d637 3051 a037
00000060: 5875 8e37 0038 36b8 edb9 b538 f817 3bb8
00000070: d0ee b8b6 e054 1eb8 e83c 3037 1095 eeb7
00000080: 3e22 8a3c 3089 b019 56c9 b13c d3d9 083b
00000090: 9c08 f13c 95b8 db3a 4254 023d 436a bd3a
000000a0: 1bf4 063d 08ed d93a 01d4 093d cbcf 013b
000000b0: 2dfa 0b3d 9939 013b b4c3 0d3d 7ee2 383b
000000c0: da6b cf3c d849 9519 1a63 b43a e626 3bb9
000000d0: f68d ba38 460b 9837 0048 c1b6 fb81 9738
000000e0: 5f04 7838 3a54 e037 2e09 5838 d073 5937
000000f0: 6663 ccb8 604f 05b6 6c54 a9b8 006c 40b6
00000100: 298b 64bd 9004 e29a e814 09ba 623f 9237
00000110: cb7d ae38 9cc8 f1b7 80d9 a434 54a7 35b7
00000120: d257 1bb8 b8a3 85b6 6084 8ab7 20d8 aab6
00000130: 2c3e 6e37 1052 b8b6 9252 1eb7 b6ef 1c38
00000140: 38f4 42bd 0069 411a d0d9 613a 0c63 fbb8
00000150: d24b 2539 10ba d637 4886 4338 2db8 9138
00000160: f02e 2e37 8ad2 cd38 a93b 0439 1af2 1e39
00000170: 1472 e438 d892 7b38 7c14 2539 18fc 9438
00000180: a321 6fbd b3a0 e119 62b9 74ba c069 8936
00000190: 2fc4 9e38 8f26 a6b7 38ac f4b8 8dec 2bb8
000001a0: 54cb 7cb8 ff8c 22b8 cc76 a0b8 7501 94b8
000001b0: e49a 84b8 f4d3 17b8 404f 8d38 10c5 94b8
000001c0: 80ce a2bd fa08 069b 7efb 6838 b6b9 26b7
000001d0: 0206 d337 9059 b735 4379 4937 f33d 0637
000001e0: a81c ce36 c0ab a7b4 6487 f1b7 783c b235
000001f0: 0439 6337 1031 fe35 e9ff 5e37 c0c7 4b35
00000200: e6ea 3cbd e2a9 ef1a 4339 943a ccb0 2bb9
00000210: 42c9 29b9 3a8d 01b8 d966 2ab9 e5c2 8eb8
00000220: 9e83 0839 2c2e 06b8 ef5f 6539 00e6 8fb7
00000230: be90 eb38 2dee 9e37 e08b 7b39 02ed 05b8
00000240: 1f30 90bc adc8 301b 90ca c1b9 0e8d 30b9
00000250: 6032 8439 6c44 6fb8 e2e8 373a 5c6f 98b9
00000260: 4de5 333a c4c1 a138 8a75 2f3a 9492 94b9
00000270: 7bad 3b3a 20ea 6737 d498 3b3a 60ff 63b7
00000280: 9b85 8dbc a440 dc9a cdd9 4239 b9e9 2e38
00000290: 4c73 aa38 f6e9 7eb7 300a 3337 1e06 ba37
000002a0: 20d4 af38 80af 0bb7 ac9b 6937 54e9 38b7
000002b0: e13c a238 5a0c 8eb7 bc88 5a38 a09c a0b6
000002c0: 9269 013d c95c 241b 6aed bb39 be97 8139
000002d0: 700c e2b9 ce14 2339 3ab3 0cba 6deb 2cb9
000002e0: 7276 eab9 d04c cf38 d775 9cb9 32d7 1bb9
000002f0: 1ac2 aeb9 9005 49b8 7d43 aeb9 3cab 2d39
00000300: 6012 12bd e4e9 939a 00a0 e7b5 0bd7 4538
00000310: 00cd 2c34 7f24 92b7 4011 7937 08c9 efb7
00000320: 824a 8f38 d06f 83b6 24f3 15b8 9420 1338
00000330: e484 ff37 d607 17b8 52a2 9937 0043 d834
00000340: 4077 42bc 998a be1a febd 49ba f17f f43a
00000350: 49f3 91ba 71d8 ec3a a6bb 63ba dd0d 173b
00000360: e2aa 6bba 84ca a23a 7237 6cba fef5 06ba
00000370: d601 30ba e4b0 a0ba c4c4 90ba f49a 78ba
00000380: 004a 183d 241c d91a 6852 0539 4045 3bb4
00000390: b059 55b7 e0d2 d9b6 0a21 00b7 d8b9 6db6
000003a0: a4b8 b0b8 cb49 94b7 95af bbb7 c7c6 a2b7
000003b0: 0cd1 91b7 0651 ef36 1cb4 edb7 387a 7d36
000003c0: 1eac 3cbd 7a6d 7c9a e47e abb9 59d3 a1b8
000003d0: e7ed 53b8 107c 0d37 8426 98b8 060a 0e38
000003e0: 473a 67b8 ee0e 9a37 a3ea cbb8 78c2 c336
000003f0: 5a2d 2039 6831 3837 c18e 3439 5bc3 39b8
-0.03656971 1.1361144e-22 0.0005789477 -0.000541908 0.00046281682 0.0004759129 -0.00052976375 -0.00019982165
-0.0008929003 0.00030227282 -0.00033722603 -0.0004055557 0.00021358309 0.00059517095 -0.000728941 0.00043619325
-0.019125888 -6.754245e-23 8.892715e-05 -1.46442835e-05 4.546059e-05 -6.317135e-05 2.560918e-05 1.9111292e-05
1.6982362e-05 -4.3444335e-05 8.665384e-05 -4.4606597e-05 -5.5114288e-06 -3.774918e-05 1.0504598e-05 -2.8441224e-05
0.016862031 1.8253383e-23 0.02170245 0.0020881786 0.02942305 0.0016763384 0.031818636 0.0014451224
0.03294764 0.0016626427 0.03364945 0.0019807692 0.034174133 0.0019718169 0.034610465 0.0028211172
0.025319982 1.5436064e-23 0.0013762445 -0.000178482 8.8956134e-05 1.8125062e-05 -5.76023e-06 7.224452e-05
5.913188e-05 2.6742102e-05 5.1506962e-05 1.2961173e-05 -9.7459924e-05 -1.9864747e-06 -8.074273e-05 -2.8673094e-06
-0.055796776 -9.347878e-23 -0.00052292505 1.7434071e-05 8.320397e-05 -2.8822855e-05 3.0705633e-07 -1.08274e-05
-3.703667e-05 -3.9827682e-06 -1.6512524e-05 -5.091555e-06 1.4200381e-05 -5.4931807e-06 -9.436759e-06 3.7416547e-05
-0.047596186 3.9996283e-23 0.00086155254 -0.000119870616 0.00015763871 2.559743e-05 4.6616682e-05 6.948444e-05
1.0382137e-05 9.814378e-05 0.00012610726 0.00015158244 0.00010893136 5.9979822e-05 0.00015743257 7.104146e-05
-0.058381688 2.332936e-23 -0.00093354855 4.095229e-06 7.570569e-05 -1.9806697e-05 -0.00011666905 -4.0989882e-05
-6.0270846e-05 -3.8755123e-05 -7.651522e-05 -7.057461e-05 -6.323101e-05 -3.6198602e-05 6.7381654e-05 -7.093896e-05
-0.07949543 -1.1087121e-22 5.554733e-05 -9.93761e-06 2.5155958e-05 1.3660629e-06 1.2008767e-05 8.001446e-06
6.1426144e-06 -3.1231139e-07 -2.8792485e-05 1.3279632e-06 1.3543529e-05 1.8938754e-06 1.3291815e-05 7.591407e-07
-0.046122454 9.9122544e-23 0.0011308569 -0.00016373693 -0.0001619207 -3.0887524e-05 -0.00016250777 -6.8073896e-05
0.00013019002 -3.199109e-05 0.0002187488 -1.715403e-05 0.000112326336 1.8945977e-05 0.00023989333 -3.19304e-05
-0.01760107 1.462322e-22 -0.0003696275 -0.00016837215 0.00025214534 -5.7045763e-05 0.0007015598 -0.00029074668
0.00068624766 7.71317e-05 0.0006693235 -0.0002833797 0.00071593345 1.3823184e-05 0.0007156257 -1.35897135e-05
-0.017275622 -9.10943e-23 0.00018582419 4.1702504e-05 8.1277074e-05 -1.5194053e-05 1.0671603e-05 2.2175776e-05
8.3841616e-05 -8.325907e-06 1.3924127e-05 -1.1021581e-05 7.7361015e-05 -1.693347e-05 5.2102594e-05 -4.786605e-06
0.03159482 1.3595743e-22 0.00035844307 0.00024717854 -0.00043115346 0.00015552642 -0.0005367283 -0.00016490901
-0.00044720207 9.8848366e-05 -0.00029842436 -0.00014862118 -0.00033332483 -4.7927315e-05 -0.0003323815 0.00016562355
-0.035662055 -6.1175646e-23 -1.7257407e-06 4.7168734e-05 1.6093327e-07 -1.7421551e-05 1.4845573e-05 -2.8584633e-05
6.8326495e-05 -3.917121e-06 -3.575081e-05 3.5077872e-05 3.046025e-05 -3.6008503e-05 1.8314608e-05 4.0281884e-07
-0.011869252 7.8806075e-23 -0.00076958525 0.0018653852 -0.0011135127 0.0018069876 -0.00086873246 0.0023049035
-0.0008990002 0.0012419974 -0.00090109475 -0.000514835 -0.0006714141 -0.0012259749 -0.0011044969 -0.0009483539
0.037179947 8.979456e-23 0.00012714567 -1.7440925e-07 -1.2716671e-05 -6.491653e-06 -7.637087e-06 -3.5423927e-06
-8.426726e-05 -1.7677337e-05 -2.2373899e-05 -1.9404468e-05 -1.7382692e-05 7.1321874e-06 -2.8336472e-05 3.7771078e-06
-0.04606258 -5.2200813e-23 -0.00032710203 -7.716445e-05 -5.0527884e-05 8.4331405e-06 -7.255099e-05 3.3864773e-05
-5.5128967e-05 1.8365183e-05 -9.723499e-05 5.834092e-06 0.00015275684 1.0978758e-05 0.00017219318 -4.4289376e-05

convs.weight.2.tensor f4 [32, 32, 8, 2]
00000000: 67d8 5ebd c0a2 c817 6ebf b139 9dac cb39
00000010: 8b2e 5bba 34c1 a6b8 72d3 69b9 bcdf 88b8
00000020: 2050 b538 b9e8 ccb8 96ce 8639 6b09 54b9
00000030: 57e4 04ba 60ba 74b8 9c3d 8b39 7220 bfb8
00000040: 7d45 1c3d 14f7 b49a 780c c63a 620a c438
00000050: bb72 b8b8 e4ed 0739 6917 87b8 ded0 1439
00000060: 0a5d 3bb8 20ea 8738 28e4 61b7 3074 1f38
00000070: 9889 87b7 de2c deb8 904c 35b7 b082 8b38
00000080: fbf4 833b 80dd da99 be6c ea3b 6284 e939
00000090: ab83 763b f298 4a3a b2d7 b23b 5514 163a
000000a0: 7061 d13b 982c 283a 0cc3 e73b 266f 1f3a
000000b0: 6c4c fb3b eadd da39 9773 073c 02dc eb39
000000c0: 227b 1d3d b961 c41a f640 bb3a 4266 2339
000000d0: 6c5c 75b8 99af 3db9 955a 1fb9 a07a aab6
000000e0: 5c51 9238 1489 a537 b85f dbb7 5010 af37
000000f0: 18a7 a0b7 a48b 0639 8e62 deb8 4064 34b6
00000100: 80f1 8ebd bf48 ef9a d1b0 0d3a b4a0 f7b8
00000110: 98a8 bfb8 0917 01b9 90f4 3fb9 9054 09b9
00000120: 0fca 48b9 1e1c cab8 3aff 0cb9 cc74 3bb8
00000130: 9a57 8436 7034 80b7 952d 9eb7 2013 b837
00000140: b3bf 00bd 72eb 3e19 ecbf d139 af9d 66b9
00000150: 1531 45ba 3cbc 9f38 7611 eeb8 e29a 9ab8
00000160: b8d9 8539 e0b4 0938 9562 3c39 109f 9b38
00000170: 28d6 b4b8 e429 f7b8 1a52 07b9 e0b9 3cb8
00000180: 7deb a4bd bbbf 9c9a e8cb 98ba 5677 8838
00000190: 4c5e 1e38 503e d6b7 9cf7 9bb8 68a6 76b8
000001a0: 1e30 d838 5458 39b8 8414 4eb9 204a 0ab8
000001b0: 1a27 bc38 eeac 8f38 78e2 8538 93bc 0839
000001c0: b839 5ebd 041c 2d9b f45d a9b9 d077 49b8
000001d0: 3228 9038 7a84 3438 38a0 3d39 20cd cc37
000001e0: b6fd 8838 4c96 e8b7 dd7a 9838 ab70 8038
000001f0: c7b5 2eb8 6427 d637 d2af bc37 f673 e537
00000200: 147e 08bd 33b1 d91a e4e1 2dba f8ed c9b8
00000210: 8071 b039 a492 87b8 2575 c7b9 641a 16b8
00000220: ecd7 5ab9 868a c7b8 32af 8939 f0dc 66b8
00000230: 8c79 f439 0947 21b9 b468 9239 5089 8ab7
00000240: 48b3 7cbc 8410 e89a bcc0 0f39 7f1b 7fba
00000250: a616 153a 004b 21b9 d0c1 283a 304b 22b8
00000260: 8e11 2839 40d7 a8b7 c065 1238 d29a 3eb9
00000270: a2ec 6c39 f2e6 0239 4c5d 463a 0048 b735
00000280: b351 d3ba 190c 361b 5b34 5a3a 30ae adb6
00000290: 2c0f 1f39 a8a5 0837 9c67 db37 d2a4 f737
000002a0: b048 13b8 e046 f337 fe66 1eb8 30da e337
000002b0: aa78 3038 006b 4436 4ba2 00b8 9314 4438
000002c0: c0e8 353d 12b1 c89a 843b 6039 a399 a8b8
000002d0: 843a fc38 2cca 68b8 7843 97b7 c717 1938
000002e0: 70af 2bb6 565c 9938 60b6 76b6 5c88 4f38
000002f0: f2a6 8d38 1230 cc38 8025 2f35 38b9 d938
00000300: 005f f93c df74 ff9a 1e97 6239 6854 96b8
00000310: e059 41b8 30d7 3e38 29bd e3b7 967e 5938
00000320: 2e24 f438 4932 a338 9e83 0d39 76e8 8a38
00000330: a05c 9735 6028 c1b6 1c7c 36b7 dc7e 1eb8
00000340: 9b40 a0bc 40f9 6099 bc4d 91ba 30da 7c39
00000350: 0936 0fbb 6d2d b339 d9f1 13bb 55ce 0dba
00000360: b10d 03bb d00d 3b3a 1e1c baba ecc3 2339
00000370: 3ae9 f7ba e441 6b39 35ee fcba 6362 a539
00000380: 1f67 033d 0b1f 3b1b 4703 a2b9 6f3d a9b7
00000390: 0078 53b6 4a37 e8b7 9edb 77b7 c9d2 00b8
000003a0: d2a2 53b7 c01f d5b6 a622 5cb7 617f c2b7
000003b0: 9bc0 99b7 a07b b4b6 8ef0 a6b7 d8a5 e8b6
000003c0: 5156 a6bd 34eb 9b9a a8ea e43a 80ea cbb6
000003d0: 238c 1d39 4067 3838 7a7b 8cb9 b003 5837
000003e0: bee0 9b39 9bbe 8f38 8888 54b8 372c 8b38
000003f0: b109 a739 8f86 b038 01af ab39 4061 8b36
-0.054405596 1.2965781e-24 0.00033902697 0.00038847784 -0.00083611225 -7.951484e-05 -0.00022299381 -6.526659e-05
8.645677e-05 -9.770826e-05 0.0002571239 -0.00020221404 -0.00050694257 -5.834771e-05 0.0002655805 -9.113633e-05
0.038152207 -7.484543e-23 0.0015109917 9.347942e-05 -8.795174e-05 0.00012963224 -6.441662e-05 0.00014192189
-4.4670924e-05 6.480911e-05 -1.3464167e-05 3.8016762e-05 -1.6157326e-05 -0.00010594142 -1.0806267e-05 6.652379e-05
0.0040270067 -2.2630135e-23 0.0071540764 0.00044539856 0.0037615101 0.0007728479 0.005457842 0.00057250756
0.0063897893 0.00064153364 0.007072812 0.0006081931 0.0076690223 0.0004174554 0.008267305 0.00044986611
0.038447507 8.122158e-23 0.0014286328 0.00015582985 -5.8498626e-05 -0.0001808986 -0.00015197166 -5.0806702e-06
6.976977e-05 1.9733365e-05 -2.6151407e-05 2.0869222e-05 -1.9151295e-05 0.00012831256 -0.00010604142 -2.6880443e-06
-0.06979656 -9.896561e-23 0.0005405071 -0.00011807811 -9.138993e-05 -0.0001231098 -0.00018306286 -0.0001309684
-0.00019148759 -9.637348e-05 -0.0001344652 -4.469305e-05 3.9441047e-06 -1.5283207e-05 -1.8856294e-05 2.1943415e-05
-0.03143282 9.8703176e-24 0.0004000658 -0.00021993251 -0.00075222674 7.616772e-05 -0.00011351977 -7.3721414e-05
0.0002552995 3.28318e-05 0.00017965802 7.420604e-05 -8.6229586e-05 -0.000117856805 -0.00012905188 -4.4995802e-05
-0.08052728 -6.4829845e-23 -0.0011657448 6.5072134e-05 3.7757956e-05 -2.5539804e-05 -7.437097e-05 -5.880595e-05
0.00010308645 -4.41897e-05 -0.00019653334 -3.29708e-05 8.971822e-05 6.850982e-05 6.384117e-05 0.0001304022
-0.054254264 -1.4319277e-22 -0.00032304192 -4.803372e-05 6.873942e-05 4.3038723e-05 0.0001808413 2.4414214e-05
6.532243e-05 -2.7726543e-05 7.27081e-05 6.124502e-05 -4.1654126e-05 2.552913e-05 2.249322e-05 2.7352926e-05
-0.033323362 9.003538e-23 -0.00066330866 -9.628752e-05 0.000336539 -6.4646156e-05 -0.00038043517 -3.5787365e-05
-0.00020870537 -9.5148614e-05 0.00026261207 -5.5042037e-05 0.00046629866 -0.00015380619 0.000279253 -1.6514823e-05
-0.015423603 -9.5979633e-23 0.00013709342 -0.0009731575 0.0005687274 -0.00015382096 0.0006437572 -3.8693834e-05
0.00016028268 -2.0127394e-05 3.4903875e-05 -0.00018177487 0.00022594866 0.000124838 0.0007567003 1.3655517e-06
-0.0016122371 1.5058596e-22 0.00083238416 -5.17608e-06 0.00015169074 8.1448015e-06 2.6155081e-05 2.9521445e-05
-3.5115227e-05 2.9000861e-05 -3.7766054e-05 2.716211e-05 4.2074047e-05 2.9268558e-06 -3.0668725e-05 4.6749203e-05
0.04441142 -8.3004134e-23 0.00021384476 -8.039481e-05 0.00012027196 -5.5501398e-05 -1.803202e-05 3.6500187e-05
-2.5583104e-06 7.3128074e-05 -3.6763013e-06 4.947964e-05 6.7545e-05 9.736432e-05 6.524715e-07 0.00010381866
0.030440807 -1.05654344e-22 0.00021609335 -7.168279e-05 -4.609849e-05 4.549994e-05 -2.7148593e-05 5.1854724e-05
0.00011641566 7.781812e-05 0.00013495839 6.623652e-05 1.1277334e-06 -5.7565485e-06 -1.0876942e-05 -3.7788282e-05
-0.019562056 -1.1630864e-23 -0.0011085789 0.00024113874 -0.0021852276 0.00034175385 -0.0022574572 -0.0005409469
-0.0019997174 0.0007135542 -0.0014199053 0.00015617878 -0.0018914111 0.00022435893 -0.0019297065 0.00031544556
0.032080766 1.5478308e-22 -0.0003090149 -2.0174977e-05 -3.15113e-06 -2.7682301e-05 -1.4773481e-05 -3.0713887e-05
-1.261449e-05 -6.351591e-06 -1.3121089e-05 -2.3185918e-05 -1.832871e-05 -5.37881e-06 -1.9900759e-05 -6.9334455e-06
-0.08121932 -6.448649e-23 0.0017464953 -6.077171e-06 0.00015024892 4.3965178e-05 -0.00026794878 1.2875462e-05
0.0002973135 6.8542744e-05 -5.0671893e-05 6.636272e-05 0.00031859943 8.4173975e-05 0.0003274605 4.153844e-06

convs.weight.3.tensor f4 [32, 32, 8, 2]
00000000: df71 38bd 3c0c af19 0a8b a83a 601f 6bb7
00000010: 8c2e 6cb9 981d 7539 99cd 053a e25d 00b9
00000020: 6a8a af39 44c3 b838 0da1 7a39 b0ed 14b8
00000030: f626 cc39 a86d 1039 4069 c039 e44f 3838
00000040: 1fa9 e13c 9938 231b 3eb7 adba 5565 233a
00000050: 9715 59ba 7686 19ba 7ef3 2b3a d672 8839
00000060: ac80 4c3a e035 4eb9 e887 283a dff3 b1b9
00000070: f858 213a 7039 30b9 84c2 cd39 942f 28ba
00000080: 240e 6bbc fcb5 649a 0829 2d3b 0e88 9d3a
00000090: b5e3 d2ba 26ed 793a 04eb 1abb ae96 b0b9
000000a0: 9adb 10bb 267a 9a39 ee48 0abb fa8d ef39
000000b0: 8fe0 f4ba e267 cc39 9e08 d3ba 264e adb9
000000c0: 596a 803d 1600 1b9a 3f0d 5cba 47f2 0bb9
000000d0: 8cc9 a8b8 bcfe 3738 64ba 86b8 d008 cc37
000000e0: 9e3f 55b9 814c bbb8 2a25 e4b8 4004 9237
000000f0: d028 c2b8 1804 d937 64bf 57b8 a6b7 8938
00000100: 1409 0dbd 30c5 ad16 83b2 d13a b2c5 49b9
00000110: 18dc 7239 8081 5437 7b16 9239 9e69 3d38
00000120: cc1f 65b8 409f 3fb7 b6a6 c4b7 108d a337
00000130: 5288 adb8 c0b5 7b38 383b 0e39 c0c8 45b7
00000140: 8e43 25bd 5019 f218 bdc1 b13a b0b2 8639
00000150: 1bc0 2fba 30f1 4db9 3cca c537 085a 3bb8
00000160: c4ad cdb8 2cb4 dcb8 4e39 dc38 ccfc 0db9
00000170: ac4e b2b9 f6a0 09b9 605d 5737 e833 31b9
00000180: cd0c a2bd 96e7 9a1a f0a0 daba ca7e fab8
00000190: 4208 07b9 a21b f5b8 8a56 3fb6 778d 6d38
000001a0: 2808 9b38 0eb6 85b8 f070 9538 502d 0737
000001b0: 4c73 f937 b3d1 a2b8 2f09 5138 cc20 51b8
000001c0: ae9d 5abc 3450 029b 00d4 4aba 6015 3ab8
000001d0: 34ea 9539 907b 2438 4f0c 6739 9c31 7e38
000001e0: cb00 8638 b8d4 b238 08bb be36 49b4 ab38
000001f0: 0432 9737 24fb 50b8 7b4c 8537 849b c137
00000200: 7844 c8bc da75 8b99 bacb d23a f8ca 7e39
00000210: 4f06 3cba 804f d1b8 d34d 36ba 8db5 29b9
00000220: cc26 f438 6489 50b9 2e12 e7b8 1a4a 65b9
00000230: e0ba 47b9 10a3 6ab8 980e c738 144b cab8
00000240: 8b72 f5bc 4c23 049a 160a 193b d643 6fba
00000250: ddbc 61ba ef56 133a f630 5639 d8bf 55b9
00000260: 57f8 423a 48c1 22b9 6668 1e3a 587d 2c39
00000270: 1ad8 ec39 cc88 2b39 164e 343a f001 92b8
00000280: 16c0 343c 20f4 1d99 d946 95ba c06b 46b8
00000290: 76c8 8c3a cce1 dfb8 d17d 16b8 e6e9 1239
000002a0: a02e 4cb9 1008 0439 8e06 fab9 00aa f3b7
000002b0: 2ca9 6cb9 acbb 77b8 8b46 8c39 cab3 23b8
000002c0: 8fe3 703c 627d 0c1a bcfd 1fba 4733 96b9
000002d0: 3a4c 37ba 12ef e1b9 8079 56b7 82aa 7139
000002e0: b4a7 cbb9 50fd 2dba 107e dbb9 3a03 d7b9
000002f0: 480d 0eb9 d8e2 52b9 2084 44b9 6c49 8139
00000300: 1990 373c 4476 c51a a798 ec3a 1ff6 24ba
00000310: d09a e1b9 ee1d 1eba 4c2e 8c39 6ab3 d6b8
00000320: ca68 9538 2c96 fdb8 d1d9 f8b8 945d 43b9
00000330: e9e7 9638 9405 b0b9 e3b7 a5b9 ce88 18ba
00000340: 17a3 95bc 0638 381b 7574 93bb 9a5f b539
00000350: 5ace 943a 600c a83a 4a6e 8239 3a5e a5b8
00000360: c82c b6b9 90e7 503a 9e95 c9b9 6ace aa39
00000370: bc73 0fba 4a0d 7b3a 4f76 24ba 47ac f939
00000380: dbe3 833c 32dd 259a 1478 033b 5351 13ba
00000390: 0878 bdb9 488d 90ba a3e2 173a b2c8 bdb8
000003a0: 46df b6b9 b6a9 88ba c07a 33b8 d23d e9b9
000003b0: 3aa1 5238 7c40 3cba da66 0e3a c8f8 9db9
000003c0: baa4 b5bd 61c0 029b 67d4 94ba 3ced 4e38
000003d0: 28fa 9bb8 6192 1139 fd92 27b9 68f0 0438
000003e0: 34e4 9439 4aff ddb7 74a0 5339 d31d ab38
000003f0: 9001 39b9 e067 1e38 4807 8d39 b038 8b38
-0.04503047 1.8099517e-23 0.001285882 -1.4014397e-05 -0.00022524054 0.00023376045 0.0005104184 -0.00012242005
0.00033481728 8.810175e-05 0.00023901854 -3.5507313e-05 0.0003893894 0.0001377376 0.0003669951 4.3943422e-05
0.027546464 1.3501332e-22 -0.0013253463 0.0006233056 -0.000828111 -0.0005856523 0.00065594155 0.000260255
0.0007801156 -0.00019665761 0.0006428943 -0.0003394177 0.000615492 -0.00016806065 0.00039245572 -0.0006415781
-0.014346633 -4.72963e-23 0.0026422162 0.0012018697 -0.001608959 0.0009533934 -0.0023638615 -0.000336816
-0.002210355 0.00029464177 -0.0021100598 0.00045691413 -0.0018682646 0.0003898731 -0.0016100591 -0.00033055356
0.06270284 -3.2053318e-23 -0.0008394308 -0.00013346328 -8.048405e-05 4.386784e-05 -6.424336e-05 2.4322799e-05
-0.00020336962 -8.931105e-05 -0.000108788096 1.7406535e-05 -9.258243e-05 2.5870322e-05 -5.143824e-05 6.566876e-05
-0.034432486 2.80741e-25 0.0015998635 -0.00019242501 0.0002316091 1.2666336e-05 0.0002786404 4.5159475e-05
-5.4627468e-05 -1.1421565e-05 -2.3442652e-05 1.9496802e-05 -8.2746745e-05 6.001233e-05 0.00013564236 -1.1788856e-05
-0.04034763 6.2581093e-24 0.0013561767 0.00025691604 -0.0006704346 -0.00019640173 2.3578403e-05 -4.4668122e-05
-9.807528e-05 -0.00010523977 0.00010501091 -0.00013540982 -0.0003400942 -0.00013125301 1.2836739e-05 -0.00016899372
-0.07912598 6.4067054e-23 -0.0016680043 -0.00011944545 -0.0001287768 -0.000116876574 -2.851159e-06 5.6636953e-05
7.392495e-05 -6.3758445e-05 7.12591e-05 8.057177e-06 2.9736802e-05 -7.7638215e-05 4.9838036e-05 -4.9860028e-05
-0.013343258 -1.0779263e-22 -0.0007737279 -4.4365763e-05 0.0002859399 3.9215724e-05 0.00022034462 6.060452e-05
6.3897656e-05 8.5273234e-05 5.6842146e-06 8.187496e-05 1.8023893e-05 -4.9824957e-05 1.589045e-05 2.307981e-05
-0.024446711 -1.4419863e-23 0.0016082444 0.0002429894 -0.0007172571 -9.9807046e-05 -0.0006954346 -0.00016184729
0.00011642053 -0.00019887608 -0.000110183246 -0.00021866747 -0.00019047735 -5.594181e-05 9.491778e-05 -9.646095e-05
-0.029961845 -2.7325473e-23 0.002335196 -0.0009127235 -0.00086112117 0.0005620559 0.0002042687 -0.0002038473
0.0007437518 -0.00015521527 0.0006042778 0.00016449892 0.00045174436 0.00016358792 0.0006878091 -6.9621834e-05
0.011032125 -8.1660104e-24 -0.0011388912 -4.730723e-05 0.0010740894 -0.000106755266 -3.5879963e-05 0.00014010779
-0.00019472325 0.00012591504 -0.000476886 -2.904702e-05 -0.00022569735 -5.9064172e-05 0.0002675544 -3.902967e-05
0.014702692 2.9052605e-23 -0.0006103178 -0.00028648434 -0.00069922546 -0.00043093466 -1.2783683e-05 0.0002304707
-0.00038844126 -0.0006637173 -0.0004186486 -0.000410104 -0.00013547123 -0.00020111667 -0.00018741237 0.000246595
0.011203789 8.166836e-23 0.0018050865 -0.00062927784 -0.00043030689 -0.00060316816 0.00026737375 -0.00010237734
7.124392e-05 -0.00012091952 -0.00011866133 -0.0001863151 7.195754e-05 -0.00033573492 -0.0003160826 -0.00058187253
-0.018266244 1.5238225e-22 -0.0044999667 0.0003459424 0.0011353001 0.0012821071 0.00024877704 -7.885364e-05
-0.0003474711 0.0007969076 -0.0003844918 0.00032578717 -0.0005472263 0.00095768704 -0.0006273733 0.00047621338
0.01609986 -3.429988e-23 0.0020060586 -0.0005619723 -0.0003613832 -0.0011028433 0.00057939644 -9.049605e-05
-0.00034880097 -0.0010426554 -4.2791246e-05 -0.00044487283 5.0218056e-05 -0.000718124 0.0005432196 -0.0003013073
-0.0886931 -1.0815509e-22 -0.0011354805 4.933517e-05 -7.437571e-05 0.00013882808 -0.00015981118 3.169515e-05
0.00028398784 -2.6464131e-05 0.00020182302 8.1594706e-05 -0.00017643557 3.7766877e-05 0.0002689904 6.6385954e-05

fno_skips.0.weight f4 [1, 32, 1]
00000000: a2f6 723f c31a ac3b 2333 823f 3ba0 df3e
00000010: d38e 563f 506f 793f fb77 3a3e 4b5d 5d3f
00000020: 5196 7a3f 34dd 753f 7d50 723f 6aa4 5c3f
00000030: 5e7a 673f a60b 743f fcbb a8bd 25b3 e53e
00000040: 5ca0 173f 6168 6d3f a11e 1f3f 26cd 6f3f
00000050: 27be 023f 93fb e63d 614a 3d3f 997b e13e
00000060: cde2 df3e d96a 343f 0a57 c53e 3829 813f
00000070: 544a 003f c13c 5f3f aa2a 833f 615f c13e
0.9490758 0.0052522137 1.0171856 0.43676934 0.8381168 0.97435474 0.18209831 0.8647048
0.97885615 0.96040654 0.94654065 0.86188376 0.9042109 0.95330274 -0.0823898 0.4486324
0.59229064 0.92737395 0.6215611 0.93672407 0.510714 0.11278453 0.7394162 0.4403961
0.43727723 0.70475537 0.38542968 1.0090704 0.50113416 0.8720208 1.0247395 0.3776808

fno_skips.1.weight f4 [1, 32, 1]
00000000: f87a 653f 20f5 423e dfcc 803f 22b6 c73c
00000010: 95d9 503f 9e16 713f a10e d83e b7ef 573f
00000020: ab72 353f 624d 723f d01d 723f 1093 c63e
00000030: e493 3a3f 6348 783f a53a d23e 3084 c73e
00000040: 2ac9 f73e e84a 703f 7d0c fb3e fee3 2b3f
00000050: 357d 9e3e 71cb 6a3e 1ae6 573f a074 693e
00000060: 00ea bf3e 5971 a43e 1014 693d 8622 803f
00000070: dc4d 0d3f 2e40 133f 3996 813f ee6a e83e
0.8964076 0.1903882 1.0062522 0.02437884 0.81582004 0.94175136 0.4219866 0.8435015
0.70878094 0.94649327 0.9457674 0.38784075 0.72881913 0.96985453 0.41060367 0.3896804
0.48395663 0.938643 0.49032965 0.67144763 0.309549 0.22929169 0.8433548 0.22798395
0.37483215 0.32117727 0.0569039 1.0010536 0.5519693 0.57519805 1.0123969 0.4539408

fno_skips.2.weight f4 [1, 32, 1]
00000000: 3f9b 653f f051 143f 415e 7f3f 6f82 183f
00000010: 0400 2e3f 80ee 753f 425b 1b3f 84a6 503f
00000020: 30c4 613f fed4 773f 500b 723f 58dc 1c3f
00000030: 424a 223f 6e97 773f 3901 6f3f 8b85 023f
00000040: 0d3f 243f 5036 703f b724 123f d084 3c3f
00000050: 4842 0d3f d0d0 dc3e f1d2 603f 168c 593f
00000060: 7f36 123f 1b87 103f 937b 253f 3475 7e3f
00000070: 7b42 0b3f 262f 6f3f 94e7 7f3f b282 803f
0.8969001 0.57937527 0.99753195 0.59574026 0.67968774 0.9606705 0.60686123 0.8150408
0.88189983 0.96809375 0.9454851 0.6127372 0.6339456 0.9671544 0.9336124 0.5098502
0.6415871 0.93832874 0.5708727 0.73640156 0.5517926 0.4312806 0.8782187 0.8497938
0.57114404 0.56456155 0.64641684 0.9939759 0.54398316 0.9343132 0.99962735 1.0039885

fno_skips.3.weight f4 [1, 32, 1]
00000000: 286d 6d3f 7474 763f e943 7f3f f790 5c3f
00000010: a083 5f3f 40c1 763f e201 4b3f 9856 5f3f
00000020: 0137 663f ae68 793f 65ed 703f 0cd1 7a3f
00000030: 21b7 723f d233 773f aebd 803f 23bd 413f
00000040: 608a 4d3f a54c 703f 3ed3 463f 8d1d 5b3f
00000050: 9e28 503f 219f 4d3f b943 643f a0f1 693f
00000060: 79b8 363f 6242 5f3f a4e0 713f 51d9 7e3f
00000070: 62ed 3d3f 4a2a 823f ad49 7e3f 1dc7 833f
0.92744684 0.96271443 0.99713 0.861587 0.8731022 0.96388626 0.7929975 0.87241507
0.8992768 0.97425354 0.94112235 0.9797523 0.9481068 0.96563447 1.0057886 0.75679225
0.8028927 0.9386695 0.7766608 0.85591966 0.81311977 0.80320936 0.89165837 0.91384315
0.7137523 0.8721067 0.944834 0.9955035 0.7419034 1.0169156 0.9933117 1.029514

fno_skips_bc.0.weight f4 [1, 32, 1]
00000000: 6e53 6a3f 3841 e838 f08e 7c3f 500c 0a3f
00000010: a2b7 653f 3612 7a3f 7400 583f 059d 613f
00000020: 9eef 683f 9dc0 773f c27f 733f d5cc 4f3f
00000030: 490f 693f 375c 7b3f 33e7 443f 61b1 4b3f
00000040: 7534 363f 22a2 6f3f d2f3 2a3f 12ff 6f3f
00000050: a34c 303f 4e56 543e 4537 733f 5003 4c3f
00000060: f281 663f cc0b 413f d498 1c3f 7c4c 7a3f
00000070: 11bf 3b3f 09f5 5f3f 95fb 7a3f 0f39 5a3f
0.91533554 0.0001107477 0.98655605 0.5392504 0.89733326 0.9768404 0.8437569 0.8813022
0.90990627 0.9677828 0.9511682 0.81171924 0.9103895 0.98187584 0.7691528 0.79567534
0.71173793 0.9360677 0.6677829 0.9374858 0.6886694 0.20736048 0.9500621 0.79692554
0.9004203 0.75408626 0.611707 0.97772956 0.7333842 0.8748327 0.98040134 0.85243315

fno_skips_bc.1.weight f4 [1, 32, 1]
00000000: 5747 593f 5c80 e03e f006 783f 2037 4d3f
00000010: 8261 5f3f c5cd 783f 2669 463f 844f 333f
00000020: 3aab 6b3f f454 793f b96a 6f3f 2064 523f
00000030: 8ee3 5a3f 3853 793f b5e7 6b3f cd5c 563f
00000040: 8353 643f 4ef7 6f3f a0f6 5a3f 9e91 643f
00000050: 60fa 593f 72e8 113f 72e8 6f3f 3c26 4d3f
00000060: f367 5b3f bdc2 363f 77aa 4f3f 1a65 763f
00000070: c952 5e3f 1dda 723f 6cb6 733f 934a 773f
0.8487448 0.4384793 0.96885586 0.8016224 0.8725816 0.9718898 0.77504194 0.70043206
0.92058146 0.97395253 0.9352222 0.8218403 0.8550347 0.97392607 0.9215043 0.8373535
0.8918993 0.9373673 0.8553257 0.89284694 0.85147667 0.5699531 0.9371406 0.80136466
0.8570549 0.713909 0.81119484 0.9624802 0.8684507 0.94864064 0.9520023 0.96598166

fno_skips_bc.2.weight f4 [1, 32, 1]
00000000: aa8f 4b3f 749c 583f 517d 753f 89cf 4b3f
00000010: 1d07 333f 11cb 763f 44ff 243f 3ece 3a3f
00000020: 2c98 673f 749e 773f 293a 683f d1e6 613f
00000030: ec6d 5a3f 65b1 773f da96 783f ed08 263f
00000040: b46e 3f3f 559b 6b3f ba7c 263f fea5 3c3f
00000050: 663a 363f 761e 1d3f 25c1 653f 5919 523f
00000060: ff35 393f b6cc 413f 6bb7 593f 9e1e 743f
00000070: 87ac 273f f101 7f3f 8b19 6f3f 407c 813f
0.7951609 0.8461373 0.9589434 0.7961355 0.6993273 0.96403605 0.64452004 0.7297095
0.9046657 0.96726155 0.90713745 0.8824282 0.8532398 0.9675506 0.9710518 0.6485737
0.74778295 0.9203389 0.6503407 0.73690784 0.7118286 0.61374605 0.8974784 0.8206993
0.72348017 0.7570299 0.850455 0.9535922 0.6549763 0.9961234 0.9339835 1.0116043

fno_skips_bc.3.weight f4 [1, 32, 1]
00000000: 9262 223f 26b6 6b3f abc0 733f f3e0 453f
00000010: 34f1 423f 56b1 6f3f 2ec0 283f 8fde 473f
00000020: ec63 533f fb38 6d3f 9bac 593f 3c1e 6b3f
00000030: 05c5 673f 46c3 763f 54f2 783f f1e3 0f3f
00000040: 9c0a 0f3f 25c0 5e3f 6f1c fa3e 8eda 1d3f
00000050: be53 2e3f 7aa6 293f 1de3 483f cbfb 623f
00000060: e9f9 fb3e 2e77 443f 507c 5f3f 21fb 713f
00000070: d593 b93e cf74 7e3f 9969 6a3f daa1 803f
0.63431656 0.9207481 0.95215863 0.7729637 0.76149297 0.9362997 0.6591824 0.7807397
0.82574344 0.9266507 0.85029 0.9184301 0.90535 0.96391714 0.97244763 0.56207186
0.55875564 0.8701194 0.48849818 0.61661613 0.6809653 0.6626965 0.7847155 0.88665456
0.49214104 0.76744354 0.8729906 0.9452382 0.362456 0.99396986 0.9156738 1.0049393

aggregate.0.weight f4 [1, 32, 1]
00000000: 0b1b 413f 6b28 bb3e 9865 7b3f 86fd ab3e
00000010: a6f2 0c3f 59e1 743f e001 bd3e 7188 333f
00000020: bca0 563f 4712 753f a334 6e3f 898e 2d3f
00000030: 5a31 1c3f 2398 7a3f 56db 023f d99a 6f3e
00000040: 737e 023f 5797 6c3f 31e4 e63e 5c0a 553f
00000050: da72 d63e a2d1 0b3e 185c 633f a510 0c3f
00000060: e911 323f 00c3 e03e 4bb9 ad3e 3a73 783f
00000070: 81b9 173f c53e 393f 8a85 773f 7862 293f
0.7543189 0.36554274 0.98201895 0.3359186 0.5505775 0.95656353 0.36915493 0.7013007
0.8383901 0.95731014 0.9304907 0.67795616 0.61012805 0.9788839 0.5111593 0.23398913
0.50974196 0.92418426 0.4509597 0.8321893 0.418845 0.13654187 0.888124 0.547129
0.6955858 0.43898773 0.3393043 0.9705082 0.5926743 0.72361404 0.9668814 0.66165876

aggregate.1.weight f4 [1, 32, 1]
00000000: 7f31 2c3f 1880 523e 0434 783f d698 e93e
00000010: 0dd0 1f3f 00e8 743f 327c bd3e 9b05 0c3f
00000020: 4238 663f 956f 753f a6b2 6b3f c18f f43e
00000030: f236 333f 4161 7a3f 1ccf f73e 016e cc3e
00000040: d2c3 093f f920 693f 74c8 ed3e d918 2e3f
00000050: c3a9 e53e ae8d 8d3d 21e6 5e3f 18e2 c03e
00000060: cfad 093f 0172 983e 256d c63e 7343 753f
00000070: dbc1 f13e 36de 293f 598f 713f f483 2f3f
0.67263025 0.20556676 0.9695437 0.45624417 0.62426835 0.95666504 0.37008816 0.54696053
0.8992959 0.95873386 0.9206947 0.47765926 0.70005715 0.9780465 0.484002 0.39927676
0.53814423 0.9106594 0.46441996 0.68006665 0.4485608 0.06911789 0.870699 0.37672496
0.53780836 0.29774478 0.38755146 0.95806044 0.47218212 0.6635469 0.94359356 0.6856072

aggregate.2.weight f4 [1, 32, 1]
00000000: 5989 333f d195 183f 6672 743f 35b9 1f3f
00000010: 35ba 3f3f 2251 733f 363c 0e3f f914 fb3e
00000020: 99ed 633f 5d17 733f 84cc 633f e340 413f
00000030: 266f 463f 98b2 773f e582 773f c8fb e13e
00000040: 79a4 143f 7443 643f 2729 003f f67f 0c3f
00000050: 751b 063f e2ff 9a3e d046 523f d826 6e3f
00000060: 64be f93e bbe4 0f3f 475a 323f d8dd 713f
00000070: 30e5 f83e d516 813f de6e 6b3f fe41 853f
0.7013145 0.596036 0.9548706 0.6239198 0.74893504 0.95045674 0.55560625 0.49039438
0.8903442 0.94957525 0.8898394 0.75489634 0.7751335 0.9675689 0.96684104 0.44137406
0.58063465 0.89165425 0.50062793 0.5488275 0.52385646 0.30273348 0.821393 0.9302802
0.4877807 0.5620839 0.69669 0.9447913 0.48612356 1.0085093 0.91966045 1.0410764

aggregate.3.weight f4 [1, 32, 1]
00000000: 5ae2 393f 61f5 673f f9ca 713f 2d62 4b3f
00000010: 2424 553f 1fad 6e3f 5a3b 363f 97a5 4e3f
00000020: 65c3 533f 7a26 6b3f a16b 573f 5038 6c3f
00000030: a5a1 653f 9535 753f 2059 743f 3244 213f
00000040: e66c 233f 6d4b 5d3f 727d 143f c38c 293f
00000050: 7029 383f b77a 3e3f 2293 423f c8bd 613f
00000060: 7aac 053f 17b8 4d3f 07c4 623f d2d5 6f3f
00000070: ae64 033f 1f90 783f 6ecd 663f 9b50 7a3f
0.7261101 0.90608793 0.94450337 0.7944668 0.8325827 0.9323291 0.71184313 0.8072142
0.82720023 0.91855586 0.84148604 0.92273426 0.89699775 0.95784885 0.95448494 0.6299468
0.6383804 0.86443216 0.58003914 0.6623041 0.7193823 0.74406 0.76005757 0.8818021
0.52216303 0.80359024 0.88580364 0.9368564 0.513255 0.9709491 0.9015721 0.97779244

lifting.fc.weight f4 [32, 1, 1]
00000000: 8eba 2c3f 769a 573c dedf 163f 45ac c5be
00000010: 2b09 1ebf 1837 38bf a127 043f 86dc 7a3e
00000020: 5aa3 39bf 606d 60bf e765 033e a4ba 723f
00000030: 25cd 6ebf 21fb 39bf a51a 0c3f ac82 fbbd
00000040: e6d8 043e 1c51 16be ff57 20bd b056 553f
00000050: be3b ae3d 483e 00be c641 8cbf 2c8f a63d
00000060: b028 fd3e 46a5 383f 7729 bcbe 4301 303f
00000070: d3c1 e13e b7b9 393f d4d5 7d3f d689 ff3e
0.6747216 0.013159385 0.58935344 -0.38607994 -0.6173274 -0.71959066 0.5162297 0.24498186
-0.7251488 -0.87666893 0.12831841 0.9481604 -0.93281776 -0.7264882 0.54728156 -0.12280783
0.12973365 -0.14679378 -0.03914642 0.833354 0.08507489 -0.12523758 -1.0957572 0.081327766
0.49445105 0.7212719 -0.36750385 0.68751925 0.4409319 0.72549003 0.991544 0.49909848

lifting.fc.bias f4 [32]
00000000: c408 34be 8630 7abb 596b 2f3f a0fd 87be
00000010: 9e55 14be 0d41 ba3e 5f7c 97be b64b 143e
00000020: 813b e53d 17c2 f63e 4715 bc3e 6188 8ebe
00000030: 4fee 603e aa19 6e3f dd18 69be e2d0 bbbe
00000040: aecf b7be cc84 5c3f f35b b3be 7553 95be
00000050: 4cfa debe 4c96 173d a7d8 3a3f 502b 02bd
00000060: 1c28 05bf 61d7 55be 92dc 3abe 671e 2f3f
00000070: 7910 d2be f734 55be 2f68 193f d98e 0ebf
-0.17581469 -0.0038175895 0.68523175 -0.26560688 -0.14485785 0.36377755 -0.29587075 0.14482006
0.1119299 0.48194954 0.36734983 -0.27838424 0.21965908 0.9300791 -0.22763391 -0.36682802
-0.35900635 0.8614013 -0.3503109 -0.29165235 -0.43550336 0.03700857 0.72986835 -0.031779587
-0.5201433 -0.20882942 -0.18248203 0.68405765 -0.41028193 -0.20820986 0.59924597 -0.5568672
